src/lightning_logs/version_81/checkpoints/epoch=199-step=2400.ckpt (torch, 88195 bytes, 33 tensors)

phi.phi.0.weight f4 [46, 3]
-0.555003 -0.5609885 -0.1171232 0.36714435 -0.6287678 0.6296621 -0.2309533 0.16909672
0.026328856 -0.52060777 0.47881332 0.31087047 0.56333876 0.28145286 -0.39105636 0.46315977
0.004529395 0.14236812 -0.46293625 -0.16606124 -0.56688726 -0.2248736 0.12455243 -0.45331332
0.15151615 0.31652033 -0.010168424 -0.38629544 -0.44763103 -0.17812215 0.27010196 0.42982247
0.30979815 -0.04199326 0.2156237 -0.63597566 -0.4931156 0.26939622 -0.32701996 0.2777607
-0.4075701 -0.2859679 -0.47555706 0.30128485 -0.05882916 0.4343518 0.34075326 0.44171193
-0.02455616 -0.23087455 0.06794292 0.088566445 0.30037567 -0.40210134 0.4845573 -0.062775336
-0.4837881 -0.39483646 0.41400102 0.7660888 -0.55228 0.36910102 0.46023968 0.37068245
0.53760487 -0.5390535 0.18231322 0.2362709 -0.17060317 0.2415685 -0.42017674 0.4393157
-0.1601885 -0.2152337 0.14534737 0.27869675 -0.25108716 -0.08849642 0.3953657 -0.03256329
0.20909828 -0.13924937 0.20236105 -0.4182292 -0.4721881 -0.3461264 0.8635032 -0.15535577
-0.0015763795 -0.2797236 0.5641535 0.650887 -0.5807375 -0.46804047 -0.43762743 -0.002784405
-0.14716884 -0.37790212 -0.20707946 0.10907929 -0.30166015 0.12793073 -0.19948097 -0.3079619
0.1879637 0.53277504 -0.41100413 0.116486505 -0.21777359 0.61053926 -0.6516885 -0.6228355
0.5237973 -0.1830503 0.105094165 -0.047607727 -0.34458694 -0.23195258 0.28539082 0.32403803
-0.6539598 -0.36685824 -0.017678719 0.2741119 -0.4381753 0.6967648 -0.12859283 -0.10367015
0.45238742 0.2675301 0.46233207 0.4174908 -0.17514145 -0.38305596 -0.04295662 0.47783676
-0.19377019 -0.53541726
00000000: ad14 0ebf f19c 0fbf 4ade efbd 58fa bb3e
00000010: edf6 20bf 8931 213f 067f 6cbe b127 2d3e
00000020: 9daf d73c 8d46 05bf 0527 f53e 6a2a 9f3e
00000030: f836 103f 971a 903e 8a38 c8be 4723 ed3e
00000040: 526b 943b f3c8 113e fb05 edbe f50b 2abe
00000050: 861f 11bf 4445 66be 5815 ff3d af18 e8be
00000060: 0d27 1b3e f40e a23e 7699 26bc 84c8 c5be
00000070: e52f e5be a765 36be ce4a 8a3e b111 dc3e
00000080: dd9d 9e3e 2001 2cbd 76cc 5c3e 4dcf 22bf
00000090: a679 fcbe 4dee 893e 296f a7be a736 8e3e
000000a0: 07ad d0be 626a 92be 377c f3be 0242 9a3e
000000b0: d8f6 70bd 5c63 de3e 3677 ae3e 1128 e23e
000000c0: 002a c9bc 616a 6cbe a825 8b3d 5362 b53d
000000d0: d7ca 993e 3ae0 cdbe e517 f83e 5b90 80bd
000000e0: 13b3 f7be 0128 cabe f1f7 d33e 651e 443f
000000f0: 3962 0dbf cffa bc3e 89a4 eb3e 17ca bd3e
00000100: 79a0 093f 69ff 09bf 51b0 3a3e 00f1 713e
00000110: 99b2 2ebe bc5d 773e 6821 d7be fded e03e
00000120: 7408 24be 3966 5cbe f1d5 143e 57b1 8e3e
00000130: 7f8e 80be 9c3d b5bd 5f6d ca3e 1661 05bd
00000140: dc1d 563e 6397 0ebe bc37 4f3e 2322 d6be
00000150: a3c2 f1be 7b37 b1be 8c0e 5d3f 9515 1fbe
00000160: 859e ceba ef37 8fbe 5d6c 103f 88a0 263f
00000170: 36ab 14bf 00a3 efbe b410 e0be 907a 36bb
00000180: 6eb3 16be 637c c1be a30c 54be f664 df3d
00000190: 3373 9abe 4600 033e bd44 4cbe 2fad 9dbe
000001a0: 8e79 403e f263 083f 226f d2be 7a90 ee3d
000001b0: 0a00 5fbe 4d4c 1c3f 0fd5 26bf 2672 1fbf
000001c0: 9417 063f 8a71 3bbe 9c3b d73d 5200 43bd
000001d0: b36d b0be fa84 6dbe bf1e 923e 50e8 a53e
000001e0: e969 27bf d8d4 bbbe f6d2 90bc 6558 8c3e
000001f0: 8358 e0be 2e5f 323f d7ad 03be 0451 d4bd
00000200: 539f e73e b5f9 883e cab6 ec3e 5bc1 d53e
00000210: 4858 33be e91f c4be 48f3 2fbd 05a7 f43e
00000220: b16b 46be 1b11 09bf

phi.phi.0.bias f4 [46]
0.2366723 0.55065984 -0.16436194 -0.47805962 -0.5342377 0.10760513 -0.043716796 -0.2915545
0.08448877 0.21925387 0.43144846 0.4552635 -0.08641993 -0.5090885 -0.52170706 0.546362
0.2483667 0.26289943 -0.4995356 0.5038595 0.55162686 0.50169325 -0.48704404 -0.19296227
-0.3970806 0.56583333 -0.19710393 -0.2635919 0.28358102 -0.26707783 -0.29594374 -0.050501686
-0.055494633 -0.44974342 0.45094267 -0.19973555 0.19483969 0.4940725 0.2558575 0.071399145
0.46238574 0.078743875 -0.2671149 0.53759104 0.13664755 -0.56330955
00000000: 395a 723e 0bf8 0c3f 7f4e 28be 3bc4 f4be
00000010: cdc3 08bf 1460 dc3d 6210 33bd a246 95be
00000020: 7308 ad3d 1684 603e d0e6 dc3e 4c18 e93e
00000030: effc b0bd a053 02bf 988e 05bf 61de 0b3f
00000040: d753 7e3e c19a 863e 21c3 ffbe f0fc 003f
00000050: 6b37 0d3f f86e 003f d65d f9be e797 45be
00000060: 264e cbbe 74da 103f 9dd5 49be 84f5 86be
00000070: 8831 913e 6dbe 88be f085 97be dbda 4ebd
00000080: 574e 63bd c544 e6be f5e1 e63e 7a87 4cbe
00000090: 0e84 473e 12f7 fc3e c1ff 823e b739 923d
000000a0: d3bd ec3e 7844 a13d 49c3 88be 919f 093f
000000b0: 56ed 0b3e 0e35 10bf

phi.phi.2.weight f4 [46, 46]
-0.041975483 -0.07614834 0.12927017 -0.02434943 -0.13301642 0.0076584658 0.09259545 0.038305484
0.049785107 0.013693408 0.061361168 -0.039084185 -0.05865244 -0.13781524 -0.111073464 0.07443123
-0.07092606 0.017718008 0.04706221 0.009148787 -0.0998223 0.144736 -0.085737415 -0.0681116
-0.117291294 -0.017663976 0.12438328 -0.06024193 0.26556152 -0.10146314 -0.17185266 -0.0664844
0.023834053 0.13575804 -0.051782824 0.0657115 -0.13784726 -0.07555004 0.11751743 -0.1932151
0.033829093 0.17903602 -0.020260321 0.12128044 -0.045405753 0.11868519 -0.14262508 -0.021249875
-0.025897652 0.047783725 0.05784552 0.11320842 -0.021966783 -0.005846824 0.1009699 -0.039893832
0.12925258 -0.09816864 -0.015954671 -0.007919245 0.06579006 0.10080254 -0.023370106 -0.1221528
0.07305634 0.04410457 0.05922733 -0.09095217 0.094892986 0.13965039 0.01279374 -0.13771792
0.10350276 -0.10932102 0.03389279 0.02142594 -0.06900822 0.05133863 -0.1318769 0.0335813
-0.09347097 -0.01594344 0.018965289 0.12561235 -0.07034755 0.094456635 -0.018730115 -0.07002428
-0.1283924 -0.1352807 0.14399338 -0.036771957 0.00736455 0.07388274 0.100221045 0.12583789
0.120053425 -0.11040835 -0.023622679 -0.087246954 -0.10475476 0.034974273 0.13801365 -0.20776819
0.08923253 -0.07644375 -0.0287179 0.113821805 -0.031656414 -0.08227978 -0.10306673 0.19196287
0.039880592 -0.16021393 0.043172527 -0.5415818 -0.11699627 -0.0041305767 -0.1523103 -0.041723717
0.4092339 0.1267 -0.24688198 -0.07734231 -0.016162565 -0.046397753 -0.07045121 -0.31437635
-0.20132288 0.10701146 -0.017564412 0.11454702 0.2778736 0.21918295 -0.061351847 -0.09905248
0.0227051 0.088374555 -0.13293242 0.16745062 0.053039454 -0.103299715 -0.034505434 0.15230682
-0.11312258 -0.043093923 0.048204582 -0.12917168 0.084896065 0.069023825 0.09144431 -0.0940012
0.14685233 -0.07528925 0.17240329 -0.14864919 -0.13136636 0.07853446 -0.006443507 0.010932728
-0.08164722 -0.23541114 -0.04311018 -0.11948888 0.15380372 0.026076421 0.07716196 0.04761348
0.08127765 0.039202463 -0.05397443 -0.06067925 -0.07154598 -0.0718793 -0.17353281 -0.10566728
0.07810285 -0.17416553 0.04516844 -0.043968935 0.00041905773 0.13853513 0.14661409 -0.085407555
0.026263682 0.010596945 -0.06912841 -0.05094044 0.037651002 -0.109853424 0.024327284 0.06380178
-0.065540254 0.122471355 -0.016723862 0.057636514 0.14601271 -0.04506834 0.08012116 -0.049501624
-0.029695405 -0.034468055 -0.00091599673 -0.06046667 0.030321673 -0.002562554 0.09346195 -0.039681457
0.014785504 -0.062216166 -0.13434647 0.05966493 0.024419231 -0.0590481 -0.06620093 0.038559217
-0.026659995 0.09634976 0.0025101847 0.040834155 0.05263391 -0.0422779 0.05611002 0.102805376
0.009088535 0.02333364 0.00535739 0.094959155 -0.062249303 -0.0783757 0.06424836 -0.10576012
0.0023638569 -0.06780724 0.09855574 -0.1213316 0.08939885 0.1458727 0.03935207 -0.009823566
0.15989484 -0.063493006 -0.011815048 -0.06456556 -0.020353073 0.04793889 0.04456621 -0.02715397
-0.14741845 0.038819034 0.021155601 0.027329361 0.11297744 0.2760084 -0.087474726 0.004093856
00000000: 7cee 2bbd a9f3 9bbd 665f 043e 7578 c7bc
00000010: 7535 08be def3 fa3b afa2 bd3d 36e6 1c3d
00000020: 78eb 4b3d 515a 603c d955 7b3d bd16 20bd
00000030: 8a3d 70bd 701f 0dbe 7c7a e3bd 676f 983d
00000040: af41 91bd 5b25 913c 4ec4 403d cbe4 153c
00000050: a26f ccbd ad35 143e 1997 afbd 187e 8bbd
00000060: 6b36 f0bd 0bb4 90bc a9bc fe3d 3ec0 76bd
00000070: aef7 873e e8cb cfbd 25fa 2fbe f928 88bd
00000080: a23f c33c 2804 0b3e 3a1a 54bd c093 863d
00000090: d527 0dbe fbb9 9abd faac f03d 2eda 45be
000000a0: 6090 0a3d 3855 373e f9f8 a5bc e161 f83d
000000b0: 62fb 39bd 3911 f33d 4f0c 12be 3814 aebc
000000c0: 5027 d4bc deb8 433d 6def 6c3d d1d9 e73d
000000d0: aff3 b3bc b796 bfbb 4fc9 ce3d b767 23bd
000000e0: ca5a 043e a40c c9bd 5fb3 82bc b9bf 01bc
000000f0: f0bc 863d 9071 ce3d aa72 bfbc 3f2b fabd
00000100: 909e 953d fea6 343d 5b98 723d 2245 babd
00000110: 4157 c23d 8300 0f3e d69c 513c ed05 0dbe
00000120: 41f9 d33d b3e3 dfbd 2bd3 0a3d 7485 af3c
00000130: 2f54 8dbd 7548 523d bd0a 07be 8c8c 093d
00000140: b56d bfbd d19b 82bc 185d 9b3c 86a0 003e
00000150: 6012 90bd 7b72 c13d e66f 99bc e468 8fbd
00000160: 4c79 03be 0687 0abe 0073 133e 319e 16bd
00000170: 5352 f13b d64f 973d b140 cd3d a6db 003e
00000180: 92de f53d c61d e2bd 5984 c1bc 88ae b2bd
00000190: aa89 d6bd 2f41 0f3d 7353 0d3e 2fc1 54be
000001a0: 8bbf b63d 8a8e 9cbd cd41 ebbc 681b e93d
000001b0: 28aa 01bd 4d82 a8bd a614 d3bd ea91 443e
000001c0: d559 233d 1f0f 24be add5 303d 1ba5 0abf
000001d0: be9b efbd ca59 87bb 3bf7 1bbe 7de6 2abd
000001e0: 1b87 d13e a5bd 013e a1ce 7cbe a565 9ebd
000001f0: 5b67 84bc 920b 3ebd b948 90bd f0f5 a0be
00000200: 9627 4ebe d328 db3d 3ee3 8fbc a197 ea3d
00000210: 7345 8e3e 7f71 603e 134c 7bbd 07dc cabd
00000220: 0c00 ba3c b8fd b43d 701f 08be 2d78 2b3e
00000230: e63f 593d cd8e d3bd 9255 0dbd 52f6 1b3e
00000240: d0ac e7bd 4183 30bd 2b72 453d 9545 04be
00000250: fddd ad3d 5d5c 8d3d 2847 bb3d b383 c0bd
00000260: 7560 163e 4031 9abd 7d8a 303e 7e37 18be
00000270: e784 06be add6 a03d 0e24 d3bb 2f1f 333c
00000280: a836 a7bd 9e0f 71be 4d94 30bd 96b6 f4bd
00000290: b97e 1d3e 389e d53c 1707 9e3d 5a06 433d
000002a0: e674 a63d c392 203d 4b14 5dbd ce8a 78bd
000002b0: b386 92bd 7435 93bd 96b2 31be 1668 d8bd
000002c0: 63f4 9f3d 7358 32be 8b02 393d c518 34bd
000002d0: fab4 db39 27dc 0d3e 0122 163e 28ea aebd
000002e0: ef26 d73c cf9e 2d3c 3293 8dbd eca6 50bd
000002f0: f037 1a3d d5fa e0bd 034a c73c 82aa 823d
00000300: f839 86bd 43d2 fa3d 7b00 89bc 4414 6c3d
00000310: 5b84 153e 9499 38bd 9016 a43d 37c2 4abd
00000320: c743 f3bc 602e 0dbd 801f 70ba e6ab 77bd
00000330: 2865 f83c 86f0 27bb fb68 bf3d 0689 22bd
00000340: e63e 723c 61d6 7ebd 1f92 09be 3763 743d
00000350: d70a c83c 6cdc 71bd 5a94 87bd 45f0 1d3d
00000360: 1066 dabc 0653 c53d e981 243b b741 273d
00000370: a896 573d 972b 2dbd 9fd3 653d a08b d23d
00000380: 14e8 143c 3126 bf3c 0b8d af3b f279 c23d
00000390: 20f9 7ebd 7083 a0bd a594 833d c398 d8bd
000003a0: f0ea 1a3b 86de 8abd 98d7 c93d b47c f8bd
000003b0: bf16 b73d a75f 153e a32f 213d 06f3 20bc
000003c0: 79bb 233e 9f08 82bd e793 41bc f33a 84bd
000003d0: 7dbb a6bc 925b 443d 0f8b 363d 0172 debc
000003e0: ddf4 16be b500 1f3d 834e ad3c d3e1 df3c
000003f0: b760 e73d f950 8d3e f325 b3bd c125 863b

phi.phi.2.bias f4 [46]
0.021592338 -0.12566099 -0.037343267 -0.12827148 0.043745875 -0.02301696 -0.041852117 -0.04600388
0.06912837 0.09393362 0.032298572 -0.01846341 0.0044748965 0.006452455 -0.124310575 0.14949195
-0.04802785 0.08578273 -0.099349 0.0009898002 0.056713376 -0.14661811 0.067631595 -0.11285867
0.020574976 -0.013868011 0.088916175 0.1317451 0.0498906 -0.016387442 -0.073049344 0.040205225
-0.07096713 0.04734171 -0.06390541 0.09561955 0.11309328 0.100789644 0.0014769316 0.079035476
-0.1343539 0.11957145 -0.04572603 0.05375093 -0.011077617 -0.049509082
00000000: 6ae2 b03c 46ad 00be 41f5 18bd 9959 03be
00000010: e02e 333d 108e bcbc 206d 2bbd 916e 3cbd
00000020: 2d93 8d3d 4560 c03d 824b 043d 9440 97bc
00000030: 27a2 923b 1e6f d33b 8b96 febd 6b14 193e
00000040: dab8 44bd dbae af3d 7d77 cbbd 2fbc 813a
00000050: 494c 683d 0f23 16be 6f82 8a3d 7222 e7bd
00000060: da8c a83c a736 63bc af19 b63d 30e8 063e
00000070: 165a 4c3d f53e 86bc e59a 95bd 3cae 243d
00000080: 3757 91bd 62e9 413d d7e0 82bd 2fd4 c33d
00000090: 739d e73d cd6a ce3d 9a95 c13a 5add a13d
000000a0: 1294 09be e0e1 f43d 384b 3bbd ef29 5c3d
000000b0: e57e 35bc 09ca 4abd

phi.phi.4.weight f4 [7, 46]
-0.073022336 0.095103435 -0.35725653 -0.030393386 0.081527025 0.10554711 -0.11292292 -0.14661255
-0.071682304 0.18017703 -0.10483504 0.081260465 0.19516738 -0.36668965 -0.05179338 -0.1291004
0.058551405 -0.020611886 0.003829785 0.06395452 -0.0064027994 -0.035641395 0.010126479 0.03502431
0.003138486 0.04678875 -0.35325518 0.13061708 0.1380942 -0.009286591 -0.13233103 -0.095856644
0.004586434 -0.012726728 -0.07413084 0.10028486 -0.013199844 0.08926557 0.12418539 -0.05428611
-0.07256684 -0.029628042 -0.0019305762 -0.07374495 -0.045953732 -0.004249863 0.057664007 0.13640782
0.101081096 0.007134218 -0.01756428 0.03776766 -0.014482889 -0.01934981 0.050700925 -0.12843718
-0.12539005 0.0005972302 -0.053133857 -0.079984315 -0.14573495 0.09029735 -0.014347268 -0.079216905
-0.06852266 0.038762946 -0.11540389 0.0012140813 -0.0018182311 0.050227977 0.058489595 -0.10481064
0.055418238 0.10291932 0.0011359135 0.06670143 -0.05581968 0.020850401 0.043082304 -0.07533902
0.091033235 -0.14787869 -0.05538452 -0.09523184 -0.087527014 -0.09779401 -0.1389332 0.025303515
-0.03753435 -0.124147706 -0.008494346 -0.024561087 0.080564156 -0.11548923 0.050835323 0.0341237
0.06307946 -0.017971253 0.053414036 0.147388 -0.05107567 0.10520606 0.12700477 -0.13042955
0.02755286 0.22670442 -0.006872111 0.15154903 0.019218631 0.112245075 -0.0035686148 -0.094395645
0.21347131 0.05917972 0.1254391 0.03660148 0.078292735 0.12155904 0.12521707 -0.021971064
-0.09858155 -0.09151745 0.0050370945 -0.03447208 0.009321917 -0.10691881 0.09009038 -0.14352524
0.06314074 0.10524606 -0.13512994 0.16370597 -0.10960599 -0.02895265 0.09013635 -0.046754256
0.1522831 -0.06504442 -0.019740164 -0.09638062 -0.06840264 0.14388064 0.11088572 0.010856235
0.01212304 -0.12511854 0.11131096 -0.022105744 -0.061497137 -0.11733762 0.12122401 0.06991513
0.08880855 0.01526694 -0.10004974 0.06039731 0.017004354 0.049477797 -0.036714286 -0.06958011
0.121039785 0.049424995 -0.05984068 0.013166414 -0.032050252 -0.012608748 0.08267945 -0.117351755
0.13343985 0.099236675 0.00012669105 -0.060308773 0.030062163 -0.09759307 0.09577104 -0.07797626
0.028172432 -0.14505796 0.07060622 0.0998106 0.11066703 0.012034965 0.08705524 0.05027197
0.09887694 0.083202645 -0.12900111 0.01554347 -0.050265502 -0.070402965 0.10320375 -0.021102533
0.022904102 0.09283379 0.099246465 0.078685656 -0.025741749 -0.13142899 -0.14154203 0.046345357
-0.0017497181 -0.09315559 0.06439273 0.13383158 0.08527672 -0.020799426 0.0199231 -0.094047986
0.069591545 -0.11425995 0.1017928 -0.067343995 -0.058477413 -0.12349908 -0.035654515 -0.014261936
-0.06796056 0.104956366 0.084617496 -0.13012694 -0.0147487335 0.049571916 0.1422516 -0.03525525
0.09051903 -0.008260123 -0.05655033 0.09022873 -0.13138407 0.12352692 0.17851272 -0.040255237
-0.046802923 0.18858635 0.04260876 0.044222727 0.06559307 -0.060322255 0.03599033 -0.055979703
0.12590276 -0.063180976 0.080879234 -0.17448154 0.08916573 0.047354117 0.1151167 -0.03992482
-0.3599071 0.05652822 -0.04575397 -0.10954352 0.056965716 -0.08867624 -0.05541969 -0.00413262
00000000: bc8c 95bd 97c5 c23d 54ea b6be 8dfb f8bc
00000010: a4f7 a63d 1529 d83d 2244 e7bd 9a21 16be
00000020: 2cce 92bd 5480 383e c1b3 d6bd e36b a63d
00000030: f5d9 473e bfbe bbbe 4c25 54bd e532 04be
00000040: 99d3 6f3d 42da a8bc 21fd 7a3b 96fa 823d
00000050: 93ce d1bb b6fc 11bd 88e9 253c a775 0f3d
00000060: 0faf 4d3b 8fa5 3f3d dddd b4be 7cc0 053e
00000070: 9168 0d3e c926 18bc c981 07be 7d50 c4bd
00000080: cc49 963b c483 50bc e9d1 97bd 2662 cd3d
00000090: 2944 58bc ded0 b63d e954 fe3d 1d5b 5ebd
000000a0: ec9d 94bd 82b6 f2bc 630b fdba 9807 97bd
000000b0: fb39 3cbd 6f42 8bbb 1831 6c3d 7eae 0b3e
000000c0: 9b03 cf3d 28c6 e93b f7e2 8fbc 43b2 1a3d
000000d0: a449 6dbc 7e83 9ebc c6ab 4f3d 0985 03be
000000e0: 4066 00be 718f 1c3a e3a2 59bd d1ce a3bd
000000f0: 8b3b 15be d1ed b83d ce10 6bbc 793c a2bd
00000100: 9c55 8cbd e5c5 1e3d e058 ecbd cf21 9f3a
00000110: b651 eeba dabb 4d3d c992 6f3d f6a6 d6bd
00000120: 3cfe 623d 5dc7 d23d efe2 943a c29a 883d
00000130: 2da3 64bd 76ce aa3c 1277 303d 584b 9abd
00000140: a26f ba3d 836d 17be e1da 62bd e908 c3bd
00000150: 5d41 b3bd 3a48 c8bd 8144 0ebe 5149 cf3c
00000160: 9ebd 19bd 2741 febd df2b 0bbc 5534 c9bc
00000170: d2fe a43d 9e85 ecbd b338 503d 4bc5 0b3d
00000180: ce2f 813d 7338 93bc adc8 5a3d e1ec 163e
00000190: b934 51bd 4676 d73d 8a0d 023e 538f 05be
000001a0: 89b6 e13c 3425 683e 722f e1bb ab2f 1b3e
000001b0: 6470 9d3c bfe0 e53d 6cdf 69bb 8152 c1bd
000001c0: 3998 5a3e 6f66 723d 1c73 003e 6feb 153d
000001d0: f157 a03d f2f3 f83d e738 003e a9fc b3bc
000001e0: 20e5 c9bd 806d bbbd 360e a53b 9932 0dbd
000001f0: f4ba 183c 40f8 dabd 4e81 b83d 48f8 12be
00000200: ef4f 813d 3f8b d73d 815f 0abe 8aa2 273e
00000210: 1b79 e0bd 1c2e edbc 6899 b83d 6481 3fbd
00000220: 1af0 1b3e 0236 85bd 20b6 a1bc 3463 c5bd
00000230: af16 8cbd 7255 133e 0d18 e33d 5ade 313c
00000240: b79f 463c 131f 00be 00f7 e33d 1b17 b5bc
00000250: 6ce4 7bbd b54e f0bd 4b44 f83d aa2f 8f3d
00000260: 42e1 b53d 3022 7a3c e1e6 ccbd 2b63 773d
00000270: b74c 8b3c 3ba9 4a3d b861 16bd 0480 8ebd
00000280: b5e3 f73d dd71 4a3d 801b 75bd f1b7 573c
00000290: 2047 03bd ec94 4ebc d853 a93d 1e56 f0bd
000002a0: 75a4 083e 993c cb3d 5fd8 0439 5506 77bd
000002b0: ed44 f63c e0de c7bd 9b23 c43d 04b2 9fbd
000002c0: dfc9 e63c 138a 14be fe99 903d 8069 cc3d
000002d0: 65a5 e23d 4d2e 453c 054a b23d fbe9 4d3d
000002e0: fe7f ca3d 2666 aa3d de18 04be 0aaa 7e3c
000002f0: 33e3 4dbd 6e2f 90bd 7d5c d33d 38df acbc
00000300: 62a1 bb3c a41f be3d bb41 cb3d f225 a13d
00000310: 5ce0 d2bc 5295 06be 65f0 10be a1d4 3d3d
00000320: cc56 e5ba 5cc8 bebd 56e0 833d 250b 093e
00000330: 90a5 ae3d 8f63 aabc c535 a33c 3b9c c0bd
00000340: 0386 8e3d 1f01 eabd be78 d03d a6eb 89bd
00000350: 0386 6fbd 16ed fcbd 780a 12bd e5aa 69bc
00000360: e82e 8bbd 5df3 d63d f04b ad3d ff3f 05be
00000370: aca4 71bc ec0b 4b3d 67aa 113e cf67 10bd
00000380: 0b62 b93d 7855 07bc 52a1 67bd d7c9 b83d
00000390: 8c89 06be affb fc3d 0acc 363e ade2 24bd
000003a0: 6cb4 3fbd c81c 413e 8686 2e3d e422 353d
000003b0: a955 863d 7814 77bd 996a 133d f94a 65bd
000003c0: a7ec 003e 0765 81bd 03a4 a53d 4aab 32be
000003d0: 869c b63d 64f6 413d 4ec2 eb3d 3588 23bd
000003e0: be45 b8be 238a 673d 8468 3bbd 5a58 e0bd
000003f0: e254 693d e39b b5bd c2ff 62bd ee6a 87bb

phi.phi.4.bias f4 [7]
0.06570722 0.08864813 -0.06977381 -0.086599365 -0.059558734 0.032109313 0.03607093
00000000: 8291 863d 278d b53d 92e5 8ebd 025b b1bd
00000010: dcf3 73bd 0e85 033d 1dbf 133d

rho.rho.0.weight f4 [53, 7]
-0.21719906 -0.03558574 -0.06532495 0.3448686 -0.13630927 0.36627418 -0.23181699 -0.15574454
-0.28428334 0.27844653 -0.25991806 0.15645203 -0.13888782 0.37664512 0.053314403 -0.32823068
0.06504906 0.04595265 -0.36557037 0.07585393 0.36061433 0.10132792 -0.009269134 -0.11519303
0.10044034 -0.16838904 0.36889973 0.3159167 0.17657244 -0.14078368 -0.35489157 -0.2175839
0.36749285 -0.34692547 -0.3608853 -0.10413642 0.11307104 -0.35955828 -0.3509104 0.002054909
-0.118553095 0.254674 0.10851773 -0.3280817 -0.34066287 0.25956774 -0.067021064 -0.16534328
0.119051576 -0.11474938 0.18076052 0.09435029 -0.16364865 -0.30293453 0.22577573 -0.21797763
-0.0418044 0.051678434 -0.2199628 0.20588654 -0.26585552 0.0928305 0.04042363 0.1386793
-0.37094083 0.0218333 0.18425995 -0.2419793 0.09352776 0.0014809745 0.32064614 -0.08003277
0.0025822097 -0.16439086 -0.09315045 0.108202554 -0.36452588 0.26834384 0.27917135 0.1609549
0.28294322 -0.11765526 0.1094933 0.031046884 -0.26136038 -0.1453068 -0.13418126 -0.093453005
-0.33560926 -0.26581857 -0.03589253 -0.06945713 -0.34309584 0.075463034 0.20579958 0.314774
0.31087968 -0.26410875 -0.17707525 -0.1865276 0.057729032 0.10128245 0.08409195 0.22200061
0.19000825 -0.20287123 0.25946578 0.25496298 0.050017953 -0.3288382 -0.23181523 0.105329685
0.08117885 0.352433 0.19557497 0.13699074 -0.012891223 0.2406244 -0.13757378 0.15389483
-0.18001966 -0.003527773 0.22337501 0.17342919 -0.084817 -0.004785851 -0.20982063 0.1750726
0.2543253 0.1301038 -0.36574197 -0.27056712 0.25303054 -0.06477959 0.22452822 0.2684649
-0.110716276 -0.22176003 -0.37980148 0.1332435 0.19385198 -0.06552617 -0.36693743 -0.24345087
-0.020364942 0.17250422 -0.12664929 -0.26470473 -0.25544688 0.3456193 0.13686953 -0.30687568
-0.2079489 -0.30898115 0.02824828 -0.15347826 -0.010596666 -0.059793312 -0.33084813 -0.35049844
-0.29316008 -0.17177153 0.05076818 -0.18863828 -0.0134724565 -0.04527378 0.33171389 -0.18398681
0.35511035 -0.29015827 -0.31534892 0.12291164 -0.21997347 0.19386712 -0.20910783 0.28479654
0.3740214 0.026261384 0.08077851 0.3523839 0.24488147 -0.3176392 -0.012099032 -0.34118003
0.26137742 -0.06923021 -0.0026346107 -0.24819177 -0.20551978 0.04905243 0.31184766 -0.18998493
0.035715234 0.34213597 0.33873683 -0.07389427 0.45544988 0.13764285 0.37131968 0.011214071
-0.32032293 -0.09891569 0.11336306 0.18822359 -0.36884266 0.29816592 -0.33906278 0.22145715
0.39891496 0.105099745 -0.07133373 0.20810929 -0.11218076 -0.27997062 -0.26823673 0.17771207
0.28866056 -0.0072789355 -0.3740681 -0.38911948 -0.08534718 0.2040325 -0.26895744 0.09028497
-0.2580157 0.31510395 -0.08401384 -0.078767486 -0.33150524 -0.30304918 0.038956814 0.036045667
0.19598503 -0.2882273 0.06622716 -0.05460055 0.23299006 -0.18420807 0.0735339 0.14644292
0.1928416 -0.12963773 0.12163306 -0.056976464 0.10033212 -0.26361346 -0.29751518 -0.3032708
-0.23759873 -0.15996502 0.07833915 -0.07490778 -0.21516605 0.003175113 -0.11935994 0.23298879
00000000: 6e69 5ebe 5ac2 11bd 16c9 85bd 9e92 b03e
00000010: a894 0bbe 4a88 bb3e 6f61 6dbe 7f7b 1fbe
00000020: 968d 91be 8b90 8e3e fb13 85be f634 203e
00000030: 9c38 0ebe a1d7 c03e 3460 5a3d da0d a8be
00000040: 7138 853d d938 3c3d 0a2c bbbe 4e59 9b3d
00000050: 71a2 b83e 0385 cf3d 91dd 17bc 53ea ebbd
00000060: aab3 cd3d 2d6e 2cbe 6de0 bc3e d5bf a13e
00000070: 68cf 343e 9929 10be 59b4 b5be 50ce 5ebe
00000080: 0628 bc3e 37a0 b1be f5c5 b8be 7a45 d5bd
00000090: ca91 e73d 0618 b8be 87aa b3be a7ab 063b
000000a0: f7cb f2bd a164 823e 8b3e de3d 53fa a7be
000000b0: 5d6b aebe 10e6 843e 5742 89bd c04f 29be
000000c0: 50d1 f33d b901 ebbd 4919 393e ba3a c13d
000000d0: 8393 27be 3c1a 9bbe c131 673e 8735 5fbe
000000e0: 173b 2bbd c4ac 533d ee3d 61be ecd3 523e
000000f0: 371e 88be eb1d be3d 4093 253d f201 0e3e
00000100: f5eb bdbe c0db b23c a4ae 3c3e 6cc9 77be
00000110: 7b8b bf3d 421d c23a bb2b a43e 39e8 a3bd
00000120: 4a3a 293b 1456 28be aac5 bebd 4d99 dd3d
00000130: 23a3 babe 5d64 893e 8cef 8e3e 5cd1 243e
00000140: efdd 903e 3ef5 f0bd 063e e03d 0956 fe3c
00000150: 07d1 85be 4ecb 14be d066 09be 4a64 bfbd
00000160: fad4 abbe 5f19 88be 0c04 13bd 8a3f 8ebd
00000170: 42aa afbe 5d8c 9a3d 20bd 523e 0f2a a13e
00000180: 9f2b 9f3e 4339 87be 3753 35be 1701 3fbe
00000190: 4775 6c3d 2c6d cf3d 6638 ac3d 2154 633e
000001a0: 8691 423e 7abd 4fbe b3d8 843e 828a 823e
000001b0: a0df 4c3d 7b5d a8be f960 6dbe 17b7 d73d
000001c0: 1941 a63d 1972 b43e ce44 483e 4d47 0c3e
000001d0: b535 53bc 3e66 763e 24e0 0cbe 9b96 1d3e
000001e0: 1357 38be 3632 67bb 6bbc 643e 6c97 313e
000001f0: 89b4 adbd a1d2 9cbb 38db 56be 3b46 333e
00000200: ed36 823e ee39 053e 8842 bbbe c687 8abe
00000210: 388d 813e 29ab 84bd baea 653e 3b74 893e
00000220: 37bf e2bd 1015 63be 5775 c2be fc70 083e
00000230: 2281 463e 9632 86bd 39df bbbe 2f4b 79be
00000240: 61d4 a6bc f2a4 303e 5ab0 01be 6187 87be
00000250: efc9 82be 03f5 b03e 8727 0c3e cf1e 9dbe
00000260: 8ef0 54be c732 9ebe f068 e73c 6829 1dbe
00000270: a39d 2dbc d5e9 74bd ed64 a9be 8874 b3be
00000280: 1419 96be e0e4 2fbe 4cf2 4f3d 652a 41be
00000290: 94bb 5cbc 0071 39bd 67d6 a93e 0a67 3cbe
000002a0: 06d1 b53e a08f 94be 6a75 a1be 19b9 fb3d
000002b0: ba40 61be 1a85 463e 5d20 56be dad0 913e
000002c0: bc7f bf3e 1d22 d73c 346f a53d aa6b b43e
000002d0: 35c2 7a3e 9ba1 a2be 053b 46bc 26af aebe
000002e0: 43d3 853e 91c8 8dbd 6fa9 2cbb fc25 7ebe
000002f0: c773 52be 33eb 483d 7faa 9f3e 698b 42be
00000300: 234a 123d 722c af3e ea6e ad3e e155 97bd
00000310: ba30 e93e 3ff2 0c3e 9d1d be3e 39bb 373c
00000320: 5e01 a4be 4f94 cabd e42a e83d afbd 403e
00000330: f2d8 bcbe 34a9 983e a399 adbe aac5 623e
00000340: 953e cc3e 893e d73d 6b17 92bd 9a1a 553e
00000350: 07bf e5bd 4f58 8fbe 5356 89be 27fa 353e
00000360: 51cb 933e 2384 eebb db85 bfbe ab3a c7be
00000370: 81ca aebd e5ed 503e cab4 89be 54e7 b83d
00000380: a21a 84be 4e55 a13e 730f acbd d950 a1bd
00000390: 0ebb a9be 4329 9bbe 2e91 1f3d 9fa4 133d
000003a0: 4db0 483e 8792 93be 1ba2 873d d4a4 5fbd
000003b0: f294 6e3e 0aa1 3cbe f198 963d 22f5 153e
000003c0: 4578 453e c1bf 04be c11a f93d 2760 69bd
000003d0: ed7a cd3d 58f8 86be e953 98be 4f46 9bbe
000003e0: 154d 73be dfcd 23be 4770 a03d 4069 99bd
000003f0: 7d54 5cbe 8e15 503b fc72 f4bd 9d94 6e3e

rho.rho.0.bias f4 [53]
-0.33775896 -0.33927193 -0.3509982 0.03404564 -0.099946156 0.08312648 -0.02338623 -0.003020464
-0.13655153 -0.22424433 -0.31645286 0.20302474 -0.19487824 -0.08379745 0.16925527 -0.09360737
-0.112054825 -0.25196832 -0.3233866 0.16547166 -0.085275635 0.25205547 -0.013355185 -0.01428406
-0.34122673 0.018537588 -0.11446981 -0.21567951 -0.061277796 0.033911224 -0.28478956 0.04624856
0.28096882 0.081156604 0.3647177 0.1822422 -0.29808128 -0.14877221 -0.054158073 0.12375681
0.025988948 0.31457955 0.035614736 -0.23936889 -0.13856773 -0.31445175 -0.104215965 0.16764447
0.03521193 -0.36042854 -0.32705182 0.15216935 -0.33174038
00000000: beee acbe 0db5 adbe 09b6 b3be 7173 0b3d
00000010: 92b0 ccbd 373e aa3d 7b94 bfbc faf2 45bb
00000020: 2ad4 0bbe 4ea0 65be 1c06 a2be b8e5 4f3e
00000030: 298e 47be ff9d abbd 4151 2d3e 39b5 bfbd
00000040: 007d e5bd fe01 81be ee92 a5be 6771 293e
00000050: fea4 aebd 6a0d 813e b5cf 5abc b107 6abc
00000060: 45b5 aebe 24dc 973c 266f eabd 17db 5cbe
00000070: 6dfe 7abd 7fe6 0a3d f0cf 91be 216f 3d3d
00000080: 25db 8f3e 6f35 a63d 47bc ba3e b39d 3a3e
00000090: 1c9e 98be be57 18be dbd4 5dbd 3674 fd3d
000000a0: c6e6 d43c 9210 a13e c2e0 113d 1e1d 75be
000000b0: b3e4 0dbe d2ff a0be 2e6f d5bd feaa 2b3e
000000c0: 623a 103d 178a b8be 5673 a7be 48d2 1b3e
000000d0: e0d9 a9be

rho.rho.2.weight f4 [53, 53]
-0.1095615 -0.08189641 0.13092087 -0.01865363 -0.056633938 -0.075363636 0.08787052 -0.0020657221
0.026487904 0.032814056 0.03873934 0.101890855 0.007128116 0.028140264 0.00844666 -0.106738396
-0.04976883 0.13073349 -0.0973505 -0.07529385 -0.13630478 0.022935303 -0.12844773 -0.05332967
0.12656966 0.06611348 0.07265095 0.023520406 -0.24458236 -0.04833091 -0.111201406 -0.07100303
0.060664427 -0.017569132 0.14877707 -0.08122048 -0.11722487 0.13563015 -0.3377471 0.13173096
0.30792108 -0.10661948 0.11547922 -0.03739562 -0.0566389 -0.10715485 -0.11618587 0.048088685
-0.47503507 0.05644502 -0.033943053 0.05990459 -0.033631492 0.047501825 -0.0037521538 0.040372595
-0.03520322 -0.094482906 0.03534945 -0.08767432 -0.06553311 -0.13208152 -0.04378337 -0.09178272
0.120620735 0.09898868 0.045298956 0.12881154 0.06614105 -0.14791879 -0.013743624 -0.02229668
-0.07261188 0.039121784 -0.028770737 -0.06565968 0.015371162 -0.09132694 0.122543454 0.08648746
0.13002463 -0.1522359 0.060091883 -0.005524923 -0.09960382 0.07562899 -0.074884154 -0.035352603
-0.04261029 -0.13400473 0.004926904 -0.1965176 0.004554705 0.3770613 0.025026314 -0.030617803
-0.074922346 -0.08157915 -0.019528642 -0.0806175 -0.07325933 -0.35578978 -0.024253188 -0.08384801
0.091403365 0.11649232 -0.09365631 0.060165197 -0.06373672 -0.030046841 0.1282267 0.0031810736
-0.13096967 0.11338637 -0.0058116433 -0.0687811 -0.07254149 0.10124719 0.0023182745 0.07586903
0.074167356 -0.05331396 0.01659249 -0.08885241 0.11470344 -0.08847714 0.09123766 0.01805524
0.084733285 -0.11440353 -0.0042717545 0.052560046 -0.005482791 -0.0019709026 0.06693644 -0.120052084
-0.02753927 0.049811088 0.05135545 0.11129468 -0.043423127 0.016408646 -0.06758507 -0.02305386
-0.068957336 0.0858484 -1.6040083e-05 0.03945061 0.060364526 0.02559691 0.014617752 -0.010053628
-0.116354674 0.0054395217 -0.030431427 -0.11545545 0.1279766 -0.030437412 -0.06855483 -0.13372286
-0.12651546 0.05230736 -0.08121172 -0.059336066 -0.0947104 0.1108784 -0.05466634 0.08903466
0.10904793 -0.10649587 0.08627761 -0.026230067 0.12626718 0.05281696 -0.1330588 0.04230774
0.04828576 -0.049830627 0.08981186 -0.11375173 -0.06012056 0.13087568 0.11700574 0.06861738
-0.097423986 -0.11807863 -0.11168358 0.08549015 0.059504762 0.04348838 -0.029773144 0.10799623
0.08962737 -0.080348216 -0.07733559 -0.0016115771 0.02850477 0.21125998 0.03707662 -0.14629295
-0.043027554 0.061492946 0.018681794 0.052726142 0.05654864 -0.03671409 -0.079208694 0.35790342
-0.08794529 0.07211462 -0.10248457 0.09423414 0.055114467 -0.03365126 0.07851442 -0.04523641
0.029263882 0.04044222 0.014028428 0.02758422 -0.0027268876 -0.03968291 0.076634794 0.054179277
0.05123482 0.0927342 -0.07186978 -0.031914104 -0.00391518 0.110847846 -0.10938169 -0.07878993
-0.032719295 -0.1173335 -0.1085244 0.09409487 0.006407697 -0.11050336 -0.022680845 -0.0045159822
-0.048833888 -0.11489504 0.074756615 -0.016965616 0.13410963 -0.10519995 -0.07540923 -0.007136287
-0.09565461 0.1001046 0.10622442 0.124439664 -0.086710446 0.09773211 0.09537401 -0.054655094
00000000: c861 e0bd 4eb9 a7bd 1f10 063e 7fcf 98bc
00000010: fdf8 67bd 4058 9abd 76f5 b33d 1161 07bb
00000020: 29fd d83c 0868 063d 24ad 1e3d 27ac d03d
00000030: f992 e93b 6986 e63c dc63 0a3c a999 dabd
00000040: 67da 4bbd 00df 053e b35f c7bd a933 9abd
00000050: 7b93 0bbe d1e2 bb3c cd87 03be 3670 5abd
00000060: 7a9b 013e 8166 873d 05ca 943d dead c03c
00000070: cc73 7abe a2f6 45bd 90bd e3bd 096a 91bd
00000080: 437b 783d 24ed 8fbc 0459 183e ec56 a6bd
00000090: 9813 f0bd a1e2 0a3e 30ed acbe 7be4 063e
000000a0: d5a7 9d3e 505b dabd 5f80 ec3d 262c 19bd
000000b0: 31fe 67bd 0174 dbbd dbf2 edbd a4f8 443d
000000c0: cc37 f3be e532 673d df07 0bbd 845e 753d
000000d0: 2dc1 09bd 4691 423d b2e6 75bb bc5d 253d
000000e0: 4031 10bd 4180 c1bd 96ca 103d 988e b3bd
000000f0: 3936 86bd 6140 07be 3156 33bd 94f8 bbbd
00000100: 0108 f73d 94ba ca3d 668b 393d 2ce7 033e
00000110: f574 873d 0678 17be f02c 61bc 87a7 b6bc
00000120: 8ab5 94bd 2a3e 203d 9cb0 ebbc 9578 86bd
00000130: 54d7 7b3c 9e09 bbbd 10f8 fa3d 5620 b13d
00000140: 2d25 053e bae3 1bbe e822 763d 6a0a b5bb
00000150: 16fd cbbd 5fe3 9a3d dd5c 99bd e4cd 10bd
00000160: 2188 2ebd 8938 09be de71 a13b e93b 49be
00000170: a33f 953b 2e0e c13e fc03 cd3c 30d2 fabc
00000180: e370 99bd f812 a7bd 88fa 9fbc ca1a a5bd
00000190: fd08 96bd 142a b6be 9fae c6bc 81b8 abbd
000001a0: b031 bb3d 8793 ee3d e1ce bfbd c86f 763d
000001b0: 6688 82bd cb24 f6bc dc4d 033e 8f79 503b
000001c0: ea1c 06be 1d37 e83d 996f bebb 1bdd 8cbd
000001d0: a290 94bd b05a cf3d 31ee 173b 3961 9b3d
000001e0: 0ee5 973d bd5f 5abd f9ec 873c 41f8 b5bd
000001f0: a3e9 ea3d 8133 b5bd cfda ba3d 95e8 933c
00000200: a588 ad3d 664c eabd 13fa 8bbb 3449 573d
00000210: fca8 b3bb 422a 01bb f915 893d dedd f5bd
00000220: 099a e1bc b606 4c3d 185a 523d 77ee e33d
00000230: 73dc 31bd 6d6b 863c 0b6a 8abd 73db bcbc
00000240: 8139 8dbd 49d1 af3d d18d 86b7 f696 213d
00000250: cb40 773d 9cb0 d13c 4c7f 6f3c f9b7 24bc
00000260: 5c4b eebd 043e b23b 544b f9bc e873 ecbd
00000270: 4c0c 033e e157 f9bc 7a66 8cbd a5ee 08be
00000280: 458d 01be 3e40 563d 5552 a6bd 600a 73bd
00000290: 87f7 c1bd 3714 e33d d0e9 5fbd ce57 b63d
000002a0: 8554 df3d 821a dabd 51b2 b03d 70e0 d6bc
000002b0: 2f4c 013e 9956 583d 9140 08be e14a 2d3d
000002c0: 4ac7 453d 331b 4cbd 48ef b73d abf6 e8bd
000002d0: fa40 76bd 4604 063e b5a0 ef3d 4587 8c3d
000002e0: 3a86 c7bd 35d3 f1bd 5cba e4bd 7615 af3d
000002f0: 44bb 733d df20 323d cfe6 f3bc 212d dd3d
00000300: 8e8e b73d 9b8d a4bd 1f62 9ebd 8e3b d3ba
00000310: d682 e93c 8954 583e a7dd 173d d2cd 15be
00000320: a93d 30bd 07e0 7b3d 900a 993c 5ef7 573d
00000330: 8c9f 673d 8361 16bd 2b38 a2bd 1e3f b73e
00000340: a91c b4bd d4b0 933d 6ee3 d1bd d4fd c03d
00000350: b5bf 613d e7d5 09bd 2bcc a03d d049 39bd
00000360: cfba ef3c bea6 253d 7ed7 653c 4df8 e13c
00000370: 95b5 32bb 8c8a 22bd b4f2 9c3d 17eb 5d3d
00000380: 9adb 513d 6eeb bd3d 7730 93bd 5db8 02bd
00000390: e94a 80bb 3204 e33d 8203 e0bd 9d5c a1bd
000003a0: ab04 06bd 8c4c f0bd 0a42 debd d0b4 c03d
000003b0: a9f7 d13b 964f e2bd 2ecd b9bc cefa 93bb
000003c0: 0b06 48bd 174e ebbd ff19 993d 7afb 8abc
000003d0: 0954 093e 1273 d7bd 2870 9abd 84d7 e9bb
000003e0: 90e6 c3bd a403 cd3d 308c d93d 39da fe3d
000003f0: 3f95 b1bd c627 c83d 7353 c33d 05de 5fbd

rho.rho.2.bias f4 [53]
0.15181111 0.15298757 -0.0694188 0.078540124 -0.032648917 -0.09964262 0.00950321 -0.03808687
0.13041475 0.019137042 -0.030128611 -0.10911356 0.075020276 0.10804077 0.035422415 -0.012033701
-0.046018656 0.047585398 0.14809968 -0.0064392085 -0.0039119115 -0.1308688 0.035066962 -0.05885221
-0.016469052 -0.07284612 0.11056264 0.07678569 -0.07188872 -0.033689134 0.040715214 0.03327332
-0.070673384 0.07188717 0.0045652967 0.095023446 -0.07422806 -0.10164331 0.049766522 0.010787715
-0.05985637 0.09066158 -0.015279943 -0.10524863 -0.01960534 -0.0636398 -0.03681683 -0.09691743
0.09320004 0.106248006 -0.11587688 0.102029964 0.02292953
00000000: 5f74 1b3e c6a8 1c3e 722b 8ebd a5d9 a03d
00000010: dfba 05bd 6e11 ccbd 5ab3 1b3c fa00 1cbd
00000020: 728b 053e 49c5 9c3c 47d0 f6bc ee76 dfbd
00000030: 3ba4 993d 7b44 dd3d 1817 113d 0029 45bc
00000040: 0f7e 3cbd e8e8 423d 71a7 173e ffff d2bb
00000050: 7e2f 80bb 7902 06be 60a2 0f3d 040f 71bd
00000060: 1bea 86bc 5930 95bd aa6e e23d d141 9d3d
00000070: 653a 93bd 9efd 09bd ffc4 263d 9b49 083d
00000080: 35bd 90bd 9539 933d 7c98 953b a79b c23d
00000090: e204 98bd 5e2a d0bd fbd7 4b3d f5be 303c
000000a0: f42b 75bd c7ac b93d ba58 7abc 988c d7bd
000000b0: 619b a0bc 9555 82bd 3fcd 16bd a57c c6bd
000000c0: aadf be3d 8e98 d93d dc50 edbd 16f5 d03d
000000d0: b6d6 bb3c

rho.rho.4.weight f4 [1, 53]
-0.07087725 -0.057501048 0.008310056 0.013756593 0.11661839 0.13125455 -0.009222435 0.11898348
-0.097349554 0.03665168 -0.113446355 0.06580052 0.01491125 -0.100754894 -0.12473058 -0.027274493
-0.05188093 -0.07019198 -0.13651195 -0.10646082 0.10019928 -0.067557976 0.05591067 0.00935525
-0.03738404 0.04493718 0.086616695 0.024335768 0.0037611693 0.111498825 -0.044561677 0.029035574
0.12792417 -0.11766739 0.08433773 -0.08402882 -0.007055069 -0.06455115 0.07149546 -0.1282478
-0.0608547 0.007731027 -0.052570026 0.010054879 0.12612998 -0.12149455 -0.078113385 -0.12871909
0.11594001 0.017942373 -0.09924464 -0.14132378 0.08759904
00000000: 1728 91bd 3886 6bbd e726 083c 5563 613c
00000010: 9fd5 ee3d 9867 063e b219 17bc 9cad f33d
00000020: 345f c7bd 1220 163d 9056 e8bd 6cc2 863d
00000030: 514e 743c 9558 cebd bf72 ffbd c26e dfbc
00000040: 1981 54bd d0c0 8fbd cac9 0bbe 2108 dabd
00000050: 4835 cd3d d65b 8abd 9602 653d c346 193c
00000060: 0220 19bd 0c10 383d 1864 b13d ce5b c73c
00000070: f37d 763b 7f59 e43d 4e86 36bd 03dc ed3c
00000080: 8efe 023e 9afb f0bd 43b9 ac3d 4d17 acbd
00000090: 352e e7bb 6533 84bd 366c 923d 6453 03be
000000a0: c742 79bd 8e54 fd3b ab53 57bd 38bd 243c
000000b0: 3828 013e 22d2 f8bd e9f9 9fbd f0ce 03be
000000c0: f571 ed3d e2fb 923c c640 cbbd 2eb7 10be
000000d0: 2067 b33d

exp_avg f4 [46, 3]
0.0 0.0 0.0 -9.550394e-07 -1.0435547e-06 -1.1430149e-06 0.0 0.0
0.0 0.0 0.0 0.0 6e-45 6e-45 6e-45 -2.2481377e-06
-7.191446e-07 -8.580455e-07 0.0 0.0 0.0 0.0 0.0 0.0
-6.016902e-07 -3.8467897e-07 -1.7982518e-07 0.0 0.0 0.0 -1.1447943e-06 -6.468182e-07
-6.775581e-07 1.3231981e-06 -3.916225e-07 -9.5216694e-07 0.0 0.0 0.0 0.0
0.0 0.0 0.0 0.0 0.0 2.8126235e-06 4.782405e-07 5.513777e-07
-5.1077376e-07 -1.834008e-07 -1.4336413e-07 3.5564237e-06 6.6808354e-07 1.5665096e-07 0.0 0.0
0.0 2.6362935e-07 1.2641826e-07 3.0668232e-07 4.916196e-06 1.2495944e-06 1.6730334e-06 -3.3578013e-07
1.4624623e-08 8.712793e-08 0.0 0.0 0.0 4.2781962e-06 1.197095e-06 2.043936e-06
0.0 0.0 0.0 4.3690957e-06 7.491223e-07 7.4767584e-08 -1.6435351e-06 -2.1399435e-06
-3.733771e-06 0.0 0.0 0.0 -5.964849e-06 -1.7814089e-06 -1.3444579e-06 0.0
0.0 0.0 3.447782e-06 -1.8822146e-07 6.5726846e-07 0.0 0.0 0.0
0.0 0.0 0.0 0.0 0.0 0.0 2.0968735e-06 9.149762e-07
8.119441e-07 -3.3085945e-07 -1.5074167e-07 1.5497929e-07 4.7634e-06 2.441181e-06 2.0408293e-06 -1.3181069e-06
2.8582446e-07 9.957243e-07 -2.2113486e-06 -3.287296e-07 -3.1322324e-07 9.956384e-07 1.373759e-06 1.8720989e-06
4.624791e-06 -4.4093386e-07 2.9250125e-06 -7.678725e-07 -5.7847234e-07 -1.3417794e-06 0.0 0.0
0.0 -2.5546851e-06 -7.6530813e-07 -5.213308e-07 0.0 0.0 0.0 0.0
0.0 0.0
00000000: 0000 0000 0000 0000 0000 0000 e72e 80b5
00000010: 4410 8cb5 b169 99b5 0000 0000 0000 0000
00000020: 0000 0000 0000 0000 0000 0000 0000 0000
00000030: 0400 0000 0400 0000 0400 0000 b6de 16b6
00000040: 3e0b 41b5 7054 66b5 0000 0000 0000 0000
00000050: 0000 0000 0000 0000 0000 0000 0000 0000
00000060: d683 21b5 e085 ceb4 f815 41b4 0000 0000
00000070: 0000 0000 0000 0000 d5a6 99b5 02a1 2db5
00000080: 70e1 35b5 be98 b135 3040 d2b4 6a98 7fb5
00000090: 0000 0000 0000 0000 0000 0000 0000 0000
000000a0: 0000 0000 0000 0000 0000 0000 0000 0000
000000b0: 0000 0000 81c0 3c36 7060 0035 6302 1435
000000c0: 1b1c 09b5 d4ec 44b4 a2ef 19b4 e5aa 6e36
000000d0: 5a56 3335 e333 2834 0000 0000 0000 0000
000000e0: 0000 0000 f188 8d34 96bd 0734 19a6 a434
000000f0: cdf5 a436 bdb7 a735 fd8c e035 4545 b4b4
00000100: c63f 7b32 161b bb33 0000 0000 0000 0000
00000110: 0000 0000 6d8d 8f36 dfab a035 8e2a 0936
00000120: 0000 0000 0000 0000 0000 0000 3f9a 9236
00000130: 4b17 4935 ea8f a033 7097 dcb5 f39b 0fb6
00000140: b391 7ab6 0000 0000 0000 0000 0000 0000
00000150: aa25 c8b6 be18 efb5 3973 b4b5 0000 0000
00000160: 0000 0000 0000 0000 7260 6736 ec19 4ab4
00000170: 256f 3035 0000 0000 0000 0000 0000 0000
00000180: 0000 0000 0000 0000 0000 0000 0000 0000
00000190: 0000 0000 0000 0000 03b8 0c36 b09c 7535
000001a0: 60f4 5935 faa0 b1b4 8edb 21b4 6268 2634
000001b0: 4bd5 9f36 2cd3 2336 2ef5 0836 cfe9 b0b5
000001c0: 6a73 9934 d4a4 8535 ae66 14b6 417c b0b4
000001d0: 1329 a8b4 e0a1 8535 0062 b835 d444 fb35
000001e0: a72e 9b36 7db9 ecb4 554b 4436 cc1f 4eb5
000001f0: 5148 1bb5 3017 b4b5 0000 0000 0000 0000
00000200: 0000 0000 2871 2bb6 936f 4db5 94f1 0bb5
00000210: 0000 0000 0000 0000 0000 0000 0000 0000
00000220: 0000 0000 0000 0000

exp_avg_sq f4 [46, 3]
0.0 0.0 0.0 7.302273e-10 1.3323061e-10 9.3916555e-11 0.0 0.0
0.0 0.0 0.0 0.0 2.1192265e-14 7.712821e-17 2.2478491e-17 5.9787925e-10
8.3688875e-11 2.2288909e-11 0.0 0.0 0.0 0.0 0.0 0.0
2.017155e-10 2.7918534e-11 3.30916e-11 0.0 0.0 0.0 1.1876908e-10 3.768703e-11
2.2854484e-11 2.0663293e-08 2.5036941e-09 2.2098217e-09 0.0 0.0 0.0 0.0
0.0 0.0 0.0 0.0 0.0 3.3030303e-09 3.8404402e-10 1.3393024e-10
5.133045e-10 6.5081524e-11 9.302293e-11 1.4482526e-08 1.7400795e-09 1.1451216e-09 0.0 0.0
0.0 5.035688e-09 6.3749234e-10 9.044881e-10 5.79086e-09 7.379631e-10 1.8947251e-10 2.915203e-09
3.902961e-10 5.61334e-10 0.0 0.0 0.0 3.264256e-08 5.587703e-10 3.8453334e-09
0.0 0.0 0.0 1.8173743e-08 2.1041802e-09 1.3056854e-09 1.8303066e-08 1.6750427e-09
2.04474e-09 0.0 0.0 0.0 1.1540733e-07 1.3495709e-08 1.7329004e-08 0.0
0.0 0.0 7.2580995e-09 1.4947562e-09 8.8656243e-10 0.0 0.0 0.0
0.0 0.0 0.0 0.0 0.0 0.0 6.046008e-10 9.880187e-11
9.131777e-11 8.4931955e-09 7.446476e-10 1.5582504e-09 2.3048893e-08 4.7981525e-09 2.222607e-09 1.15358745e-08
1.5682496e-09 1.1564937e-09 1.8737258e-09 2.1474711e-10 4.084803e-11 6.28162e-09 1.0170935e-09 1.0264866e-09
2.6719205e-08 4.4675716e-09 4.6827546e-09 3.4489331e-09 5.3871446e-10 6.697325e-10 0.0 0.0
0.0 2.3207998e-09 2.7043648e-10 2.336026e-10 0.0 0.0 0.0 0.0
0.0 0.0
00000000: 0000 0000 0000 0000 0000 0000 2eb9 4830
00000010: 157d 122f 5286 ce2e 0000 0000 0000 0000
00000020: 0000 0000 0000 0000 0000 0000 0000 0000
00000030: 09e2 be28 76d8 b124 d653 cf23 0358 2430
00000040: a608 b82e 290e c42d 0000 0000 0000 0000
00000050: 0000 0000 0000 0000 0000 0000 0000 0000
00000060: dec9 5d2f f392 f52d d489 112e 0000 0000
00000070: 0000 0000 0000 0000 8696 022f d3bf 252e
00000080: b907 c92d 107f b132 740d 2c31 98db 1731
00000090: 0000 0000 0000 0000 0000 0000 0000 0000
000000a0: 0000 0000 0000 0000 0000 0000 0000 0000
000000b0: 0000 0000 86fb 6231 6421 d32f 0342 132f
000000c0: 9818 0d30 a41d 8f2e 418f cc2e d3ce 7832
000000d0: 9b27 ef30 6262 9d30 0000 0000 0000 0000
000000e0: 0000 0000 6106 ad31 893b 2f30 b19f 7830
000000f0: f1f8 c631 89d9 4a30 c553 502f cb54 4831
00000100: 4b91 d62f 5e4c 1a30 0000 0000 0000 0000
00000110: 0000 0000 e032 0c33 f797 1930 e91f 8431
00000120: 0000 0000 0000 0000 0000 0000 7c1c 9c32
00000130: 2199 1031 b973 b330 de38 9d32 5337 e630
00000140: 7283 0c31 0000 0000 0000 0000 0000 0000
00000150: dad5 f733 c2da 6732 e2da 9432 0000 0000
00000160: 0000 0000 0000 0000 eb62 f931 0f70 cd30
00000170: 49b2 7330 0000 0000 0000 0000 0000 0000
00000180: 0000 0000 0000 0000 0000 0000 0000 0000
00000190: 0000 0000 0000 0000 0031 2630 8244 d92e
000001a0: 56cf c82e 78e9 1132 ebaf 4c30 102a d630
000001b0: 0dfd c532 ffdc a431 84bc 1831 502f 4632
000001c0: e189 d730 81f2 9e30 efc2 0031 f01d 6c2f
000001d0: cba6 332e b7d5 d731 ccc9 8b30 4914 8d30
000001e0: 2784 e532 2d81 9931 f2e5 a031 4602 6d31
000001f0: a914 1430 3c18 3830 0000 0000 0000 0000
00000200: 0000 0000 f17b 1f31 8dac 942f a56c 802f
00000210: 0000 0000 0000 0000 0000 0000 0000 0000
00000220: 0000 0000 0000 0000

exp_avg f4 [46]
0.0 -3.1416075e-06 0.0 0.0 6e-45 -3.8253274e-06 0.0 0.0
-1.1661938e-06 0.0 -2.4691706e-06 -2.05968e-08 0.0 0.0 0.0 3.8422413e-06
-8.375379e-07 4.3811597e-06 0.0 6.967301e-07 7.838826e-06 -2.3402909e-07 0.0 7.5192247e-06
0.0 5.192985e-06 -7.5172516e-06 0.0 -9.090704e-06 0.0 3.9168335e-06 0.0
0.0 0.0 3.823793e-06 -3.266145e-07 9.245418e-06 -3.655836e-08 -2.853301e-06 4.2414986e-06
7.1088593e-06 -2.6881241e-06 0.0 -3.8413227e-06 0.0 0.0
00000000: 0000 0000 68d4 52b6 0000 0000 0000 0000
00000010: 0400 0000 505b 80b6 0000 0000 0000 0000
00000020: 1d86 9cb5 0000 0000 07b4 25b6 d8ec b0b2
00000030: 0000 0000 0000 0000 0000 0000 9aec 8036
00000040: 2bd3 60b5 e001 9336 0000 0000 ee06 3b35
00000050: 8083 0337 6d49 7bb4 0000 0000 a64d fc36
00000060: 0000 0000 673f ae36 b33c fcb6 0000 0000
00000070: 4784 18b7 0000 0000 586d 8336 0000 0000
00000080: 0000 0000 0000 0000 224e 8036 8e59 afb4
00000090: c51c 1b37 5804 1db3 577b 3fb6 3252 8e36
000000a0: a388 ee36 9f65 34b6 0000 0000 b6e4 80b6
000000b0: 0000 0000 0000 0000

exp_avg_sq f4 [46]
0.0 2.1127706e-09 0.0 0.0 2.5312482e-14 1.4268611e-09 0.0 0.0
5.984722e-10 0.0 4.545995e-10 5.7224515e-08 0.0 0.0 0.0 7.7553235e-09
1.5801359e-09 3.783792e-08 0.0 1.5759626e-08 1.3387931e-08 9.354231e-09 0.0 7.017116e-08
0.0 4.6325837e-08 4.767612e-08 0.0 3.425874e-07 0.0 2.3386185e-08 0.0
0.0 0.0 1.7477446e-09 2.4813751e-08 7.097864e-08 3.2226637e-08 3.969794e-09 2.0041195e-08
8.822217e-08 1.1369682e-08 0.0 6.309202e-09 0.0 0.0
00000000: 0000 0000 4130 1131 0000 0000 0000 0000
00000010: 9cfe e328 361b c430 0000 0000 0000 0000
00000020: bd81 2430 0000 0000 31eb f92f 05c7 7533
00000030: 0000 0000 0000 0000 0000 0000 463c 0532
00000040: 172c d930 3c83 2233 0000 0000 c95f 8732
00000050: be00 6632 58b4 2032 0000 0000 01b1 9633
00000060: 0000 0000 ccf7 4633 73c4 4c33 0000 0000
00000070: dbec b734 0000 0000 c4e2 c832 0000 0000
00000080: 0000 0000 0000 0000 4c35 f030 0426 d532
00000090: ec6c 9833 9069 0a33 ad66 8831 0e27 ac32
000000a0: a774 bd33 6454 4332 0000 0000 54c8 d831
000000b0: 0000 0000 0000 0000

exp_avg f4 [46, 46]
0.0 -1.0279648e-05 0.0 0.0 -6e-45 -5.510365e-06 0.0 0.0
-3.2877376e-06 0.0 -1.0144987e-05 -4.788549e-06 0.0 0.0 0.0 -1.3173371e-05
-2.6805808e-06 -4.096019e-06 0.0 -7.117718e-06 -5.590688e-06 -9.916716e-06 0.0 1.17222555e-07
0.0 -8.963766e-06 -8.6579774e-07 0.0 -2.2192153e-06 0.0 -1.1039245e-06 0.0
0.0 0.0 -4.2032248e-06 -6.6553366e-07 -8.076918e-07 -3.0010278e-06 -3.2087498e-06 -1.0482355e-06
-6.775109e-07 -3.8395515e-06 0.0 -1.1981668e-05 0.0 0.0 0.0 0.0
0.0 0.0 0.0 0.0 0.0 0.0 0.0 0.0
0.0 0.0 0.0 0.0 0.0 0.0 0.0 0.0
0.0 0.0 0.0 0.0 0.0 0.0 0.0 0.0
0.0 0.0 0.0 0.0 0.0 0.0 0.0 0.0
0.0 0.0 0.0 0.0 0.0 0.0 0.0 0.0
0.0 0.0 0.0 0.0 0.0 2.6213888e-06 0.0 0.0
-6e-45 1.26513e-06 0.0 0.0 5.935723e-07 0.0 2.2268227e-06 7.764336e-07
0.0 0.0 0.0 2.9107528e-06 7.256708e-07 6.6843126e-07 0.0 1.7770433e-06
1.2810764e-06 1.841948e-06 0.0 1.6197384e-07 0.0 1.9638094e-06 1.942884e-07 0.0
7.42178e-07 0.0 8.644644e-08 0.0 0.0 0.0 1.104573e-06 2.3070585e-07
8.352488e-08 5.420837e-07 6.3049015e-07 3.2414994e-07 -1.5962314e-08 1.1996311e-06 0.0 2.7079752e-06
0.0 0.0 0.0 -8.315872e-06 0.0 0.0 6e-45 -4.3406467e-06
0.0 0.0 -2.6097175e-06 0.0 -8.195795e-06 -3.7067662e-06 0.0 0.0
0.0 -1.0614848e-05 -2.1840408e-06 -3.1745944e-06 0.0 -6.0911334e-06 -4.813992e-06 -7.754376e-06
0.0 1.2092411e-07 0.0 -7.10016e-06 -6.260786e-07 0.0 -2.0992475e-06 0.0
-7.0693056e-07 0.0 0.0 0.0 -3.4930872e-06 -4.5101885e-07 -5.2690086e-07 -2.581958e-06
-2.4630758e-06 -1.0469503e-06 -6.6264175e-07 -3.1842455e-06 0.0 -9.716862e-06 0.0 0.0
0.0 3.145135e-20 0.0 0.0 6e-45 1.5476845e-20 0.0 0.0
1.142625e-20 0.0 3.6025897e-20 1.4821267e-20 0.0 0.0 0.0 4.419353e-20
8.7667404e-21 1.2721574e-20 0.0 3.316854e-20 2.766608e-20 3.0457323e-20 0.0 6e-45
0.0 2.6149735e-20 6e-45 0.0 1.15454865e-20 0.0 6e-45 0.0
0.0 0.0 1.5566768e-20 6e-45 5.3039726e-21 1.7104596e-20 8.574242e-21 7.71738e-21
4.0742704e-21 1.17004964e-20 0.0 4.2308104e-20 0.0 0.0 0.0 4.3406503e-06
0.0 0.0 -6e-45 2.67953e-06 0.0 0.0 1.4790539e-06 0.0
4.170526e-06 2.4429714e-06 0.0 0.0 0.0 5.539459e-06 1.0809107e-06 2.0786756e-06
0.0 1.7890738e-06 1.273335e-06 4.8684606e-06 0.0 1.3617627e-07 0.0 4.205841e-06
00000000: 0000 0000 c176 2cb7 0000 0000 0000 0000
00000010: 0400 0080 ade5 b8b6 0000 0000 0000 0000
00000020: e7a2 5cb6 0000 0000 6334 2ab7 53ad a0b6
00000030: 0000 0000 0000 0000 0000 0000 3303 5db7
00000040: 07e4 33b6 8970 89b6 0000 0000 bbd4 eeb6
00000050: a597 bbb6 f95f 26b7 0000 0000 c8bb fb33
00000060: 0000 0000 1563 16b7 2b69 68b5 0000 0000
00000070: d4ed 14b6 0000 0000 8f2a 94b5 0000 0000
00000080: 0000 0000 0000 0000 6d09 8db6 20a7 32b5
00000090: 28d0 58b5 4465 49b6 e755 57b6 19b1 8cb5
000000a0: 32de 35b5 7fd5 80b6 0000 0000 df04 49b7
000000b0: 0000 0000 0000 0000 0000 0000 0000 0000
000000c0: 0000 0000 0000 0000 0000 0000 0000 0000
000000d0: 0000 0000 0000 0000 0000 0000 0000 0000
000000e0: 0000 0000 0000 0000 0000 0000 0000 0000
000000f0: 0000 0000 0000 0000 0000 0000 0000 0000
00000100: 0000 0000 0000 0000 0000 0000 0000 0000
00000110: 0000 0000 0000 0000 0000 0000 0000 0000
00000120: 0000 0000 0000 0000 0000 0000 0000 0000
00000130: 0000 0000 0000 0000 0000 0000 0000 0000
00000140: 0000 0000 0000 0000 0000 0000 0000 0000
00000150: 0000 0000 0000 0000 0000 0000 0000 0000
00000160: 0000 0000 0000 0000 0000 0000 0000 0000
00000170: 0000 0000 1eeb 2f36 0000 0000 0000 0000
00000180: 0400 0080 89cd a935 0000 0000 0000 0000
00000190: fa55 1f35 0000 0000 8670 1536 1c6c 5035
000001a0: 0000 0000 0000 0000 0000 0000 5a56 4336
000001b0: b8cb 4235 3f6e 3335 0000 0000 be82 ee35
000001c0: 73f1 ab35 da38 f735 0000 0000 08eb 2d34
000001d0: 0000 0000 fdc9 0336 979d 5034 0000 0000
000001e0: 153a 4735 0000 0000 6fa4 b933 0000 0000
000001f0: 0000 0000 0000 0000 d740 9435 f1b7 7734
00000200: 4a5e b333 b583 1135 f43e 2935 d406 ae34
00000210: 801d 89b2 0303 a135 0000 0000 a9ba 3536
00000220: 0000 0000 0000 0000 0000 0000 6684 0bb7
00000230: 0000 0000 0000 0000 0400 0000 dfa5 91b6
00000240: 0000 0000 0000 0000 9b22 2fb6 0000 0000
00000250: ac80 09b7 c2c1 78b6 0000 0000 0000 0000
00000260: 0000 0000 6d16 32b7 8991 12b6 1e0b 55b6
00000270: 0000 0000 7062 ccb6 e087 a1b6 cb18 02b7
00000280: 0000 0000 5ed7 0134 0000 0000 e93d eeb6
00000290: cb0f 28b5 0000 0000 cce0 0cb6 0000 0000
000002a0: e6c3 3db5 0000 0000 0000 0000 0000 0000
000002b0: c86a 6ab6 8f23 f2b4 5a70 0db5 b345 2db6
000002c0: 524b 25b6 f084 8cb5 65e0 31b5 ecb0 55b6
000002d0: 0000 0000 9b05 23b7 0000 0000 0000 0000
000002e0: 0000 0000 5986 141f 0000 0000 0000 0000
000002f0: 0400 0000 b72c 921e 0000 0000 0000 0000
00000300: f4d5 571e 0000 0000 a320 2a1f a0fb 8b1e
00000310: 0000 0000 0000 0000 0000 0000 b3b2 501f
00000320: 5b99 251e c24d 701e 0000 0000 4ea2 1c1f
00000330: 3da6 021f a5d4 0f1f 0000 0000 0400 0000
00000340: 0000 0000 2efa f61e 0400 0000 0000 0000
00000350: 8c16 5a1e 0000 0000 0400 0000 0000 0000
00000360: 0000 0000 0000 0000 2306 931e 0400 0000
00000370: e060 c81d 608c a11e 7df6 211e f6c6 111e
00000380: edeb 991d 2104 5d1e 0000 0000 5ccb 471f
00000390: 0000 0000 0000 0000 0000 0000 e7a5 9136
000003a0: 0000 0000 0000 0000 0400 0080 fad1 3336
000003b0: 0000 0000 0000 0000 e883 c635 0000 0000
000003c0: 8cf0 8b36 eef1 2336 0000 0000 0000 0000
000003d0: 0000 0000 97df b936 cf13 9135 607f 0b36
000003e0: 0000 0000 1c20 f035 75e7 aa35 c25b a336
000003f0: 0000 0000 d937 1234 0000 0000 e61f 8d36
