src/lightning_logs/version_111/checkpoints/epoch=199-step=2400.ckpt (torch, 58027 bytes, 39 tensors)

phi.phi.0.weight f4 [32, 3]
-0.555003 -0.5609885 -0.1171232 0.372746 -0.5549927 0.4638177 -0.2309533 0.16909672
0.026328856 -0.44714898 0.549929 0.5904106 0.62568796 0.2919522 -0.41809767 0.51526505
-0.047035836 0.2373925 -0.46293625 -0.16606124 -0.56688726 -0.2248736 0.12455243 -0.45331332
0.14382435 0.28778866 0.14494433 -0.42504394 -0.46582857 -0.11140731 0.271301 0.6209977
0.5699624 0.008199531 0.39709106 -0.68876225 -0.4931156 0.26939622 -0.32701996 0.33470023
-0.50609446 -0.26200464 -0.47555706 0.30128485 -0.05882916 0.4443294 0.357306 0.3194725
-0.031955436 -0.17771462 0.038805947 0.07673019 0.28619802 -0.40448576 0.5548127 -0.047506977
-0.60683423 -0.2731215 0.5664138 0.78342247 -0.5347878 0.40720415 0.2893444 0.32700357
0.6064663 -0.546313 0.2276052 0.21303104 -0.37505242 0.16143905 -0.17696972 0.52774894
-0.1601885 -0.2152337 0.14534737 0.20478247 -0.28207695 0.0510368 0.42242125 -0.19971257
0.07811438 -0.2389711 0.2901517 -0.53774774 -0.33949858 -0.29305753 0.5305912 -0.16189481
0.012114652 -0.29561976 0.6258717 0.57658184 -0.5603347 -0.46804047 -0.43762743 -0.002784405
00000000: ad14 0ebf f19c 0fbf 4ade efbd 90d8 be3e
00000010: 0014 0ebf 8379 ed3e 067f 6cbe b127 2d3e
00000020: 9daf d73c b6f0 e4be 26c8 0c3f 2625 173f
00000030: 162d 203f c27a 953e e610 d6be 69e8 033f
00000040: a6a8 40bd 0517 733e fb05 edbe f50b 2abe
00000050: 861f 11bf 4445 66be 5815 ff3d af18 e8be
00000060: b146 133e 0959 933e 496c 143e 5c9f d9be
00000070: 1581 eebe 8429 e4bd f7e7 8a3e b5f9 1e3f
00000080: 0ee9 113f 5357 063c 854f cb3e b952 30bf
00000090: a679 fcbe 4dee 893e 296f a7be d45d ab3e
000000a0: 688f 01bf 7925 86be 377c f3be 0242 9a3e
000000b0: d8f6 70bd 257f e33e d0f0 b63e e691 a33e
000000c0: b4e3 02bd d2fa 35be fcf2 1e3d b824 9d3d
000000d0: 8c88 923e c218 cfbe 3508 0e3f ad96 42bd
000000e0: 7d59 1bbf 95d6 8bbe 7f00 113f 608e 483f
000000f0: dae7 08bf 107d d03e f324 943e 036d a73e
00000100: 6041 1b3f 2bdb 0bbf 5611 693e cf24 5a3e
00000110: df06 c0be 4750 253e 8d37 35be 8e1a 073f
00000120: 7408 24be 3966 5cbe f1d5 143e 7fb2 513e
00000130: 646c 90be f70b 513d 9947 d83e 7481 4cbe
00000140: 6ffa 9f3d d7b4 74be c38e 943e d6a9 09bf
00000150: c2d2 adbe a30b 96be d3d4 073f c1c7 25be
00000160: 897c 463c 795b 97be 2139 203f de9a 133f
00000170: 1872 0fbf 00a3 efbe b410 e0be 907a 36bb

phi.phi.0.bias f4 [32]
-0.14716884 -0.3936762 -0.20707946 0.2594072 -0.27535805 0.11845527 -0.13239558 -0.27976277
0.06337556 0.46283063 -0.3003123 0.08651136 -0.21290815 0.5732483 -0.5477687 -0.5534833
0.5719044 -0.3652837 0.122231476 0.066459335 -0.121622875 -0.16608448 0.33585286 0.0449169
-0.5621166 -0.3408446 -0.18144132 0.2298282 -0.3736228 0.5435896 -0.12742597 -0.10367015
00000000: 6eb3 16be ed8f c9be a30c 54be 05d1 843e
00000010: bbfb 8cbe ad98 f23d b592 07be 113d 8fbe
00000020: 0ccb 813d 23f8 ec3e 89c2 99be de2c b13d
00000030: 9804 5abe 67c0 123f 923a 0cbf 15b1 0dbf
00000040: 5468 123f 7706 bbbe 7f54 fa3d d51b 883d
00000050: 6a15 f9bd 0d12 2abe e8f4 ab3e c9fa 373d
00000060: e0e6 0fbf 2f83 aebe c1cb 39be 1558 6b3e
00000070: 7d4b bfbe b028 0b3f f47b 02be 0451 d4bd

phi.phi.2.weight f4 [32, 32]
0.13851479 0.08884933 0.14992791 0.30154377 -0.024187718 -0.11109546 -0.013152725 0.14630704
-0.002616431 -0.09338927 0.23866464 0.24827458 -0.05032536 -0.15433043 -0.16034701 0.04430013
0.018847499 -0.08926997 -0.038330633 0.2755585 0.14059386 0.16705105 -0.0025050102 -0.14056706
-0.15973951 0.16505456 0.12684073 0.21102883 -0.15295091 0.20540513 0.13967036 0.15960465
-0.14912617 -0.07093176 -0.12158061 0.07156893 0.078152515 -0.07822687 0.09261559 -0.081775546
-0.08281642 -0.09942716 -0.03321698 0.18905976 0.1473731 -0.059427977 0.06270532 0.15375747
0.082463905 0.02502802 0.23725477 -0.09902155 -0.08178691 0.40814346 0.06898285 -0.23460975
-0.050326835 -0.12041453 0.42898017 0.20684457 -0.16113636 -0.0070275324 0.20708439 0.04592666
0.05589757 0.009840938 0.06590566 0.13877787 -0.1600009 -0.16002892 -0.13317241 0.07661547
-0.10292019 0.07246951 0.13865955 -0.26171523 -0.11461312 0.16703226 -0.10279555 0.14539893
-0.13381824 -0.042523365 0.07479792 0.11068384 0.14850001 -0.24689113 -0.14859824 -0.050305914
0.028576026 0.16276817 -0.2967027 -0.026606936 -0.04431916 -0.03119242 0.1067857 -0.13699944
0.01877604 0.16446461 -0.024291273 0.31263134 -0.08899041 0.13777366 -0.17100146 -0.025477706
-0.01159729 0.06958692 0.17621267 -0.036228918 -0.02633725 -0.019059163 0.121058665 -0.047831025
0.1621795 -0.11770007 -0.046229996 0.15850519 0.07887951 0.098739505 -0.015066651 -0.15276478
0.08759148 0.05287952 -0.13156159 -0.12269645 0.1137727 0.18817395 0.016892226 -0.165118
0.12409545 -0.116638325 0.04063603 -0.21226618 0.15782058 0.09371457 -0.15811485 0.04026257
-0.08122148 -0.12642933 -0.0704538 0.4828227 -0.08434375 0.1723448 -0.02245662 -0.08395616
-0.13678116 -0.16219586 0.32840213 -0.2999588 0.0088297855 0.32325718 0.18404455 0.092727326
0.14336893 -0.13097087 0.286988 0.11095126 -0.10100167 0.06998991 0.32778004 -0.14161651
0.106986046 -0.089954145 -0.03443155 0.328944 -0.14618608 0.022994082 -0.12357266 0.15047954
-0.017466178 -0.07656798 0.14313152 -0.43810925 -0.1402736 0.007681417 0.14015627 -0.05002498
0.09378922 0.15190797 0.079374336 0.10100782 -0.019378236 -0.20452774 -0.14375445 0.039134763
0.13301298 0.14893712 -0.18780069 -0.05848115 -0.07653046 0.14238459 -0.1160623 -0.12279842
0.02722246 0.09563764 -0.15938038 -0.059066545 0.3077988 -0.07328643 -0.038079023 0.1533679
-0.08935473 -0.17212972 -0.03697464 0.16841033 0.096908666 0.17607082 0.10963788 -0.11270347
0.2074784 -0.10478642 0.3759101 -0.40072837 -0.15750273 0.37653294 0.107586 -0.045909047
-0.09789158 -0.07415348 0.20183863 0.01958604 0.009186854 0.075301826 0.20852941 0.057086557
0.16773474 0.03753022 -0.06471307 -0.07951338 -0.120802246 -0.13196267 -0.028469859 -0.031265713
0.06934798 -0.08506194 0.14092703 -0.12576547 0.0005024326 0.14951608 0.17578411 -0.102400064
0.022113306 0.02088134 -0.092151545 -0.068454556 0.047880672 -0.13157131 0.019863807 0.06691917
-0.069662414 0.146838 -0.021151286 0.07120003 0.17506309 -0.06337257 0.08700983 -0.0505633
00000000: d2d6 0d3e a3f6 b53d b486 193e f263 9a3e
00000010: 5225 c6bc 0486 e3bd 877e 57bc 83d1 153e
00000020: 6e78 2bbb e042 bfbd 8164 743e b13b 7e3e
00000030: f721 4ebd cc08 1ebe 0232 24be 0e74 353d
00000040: 1266 9a3c 2dd3 b6bd 9500 1dbd 0116 8d3e
00000050: d6f7 0f3e 6e0f 2b3e 192b 24bb d0f0 0fbe
00000060: c192 23be 1004 293e 89e2 013e f117 583e
00000070: 2a9f 1cbe b955 523e bf05 0f3e 676f 233e
00000080: 88b4 18be ac44 91bd 41ff f8bd bb92 923d
00000090: 6d0e a03d 6935 a0bd 3ead bd3d f079 a7bd
000000a0: a89b a9bd 78a0 cbbd 870e 08bd e298 413e
000000b0: f9e8 163e c06a 73bd a66b 803d 9972 1d3e
000000c0: d6e2 a83d 9007 cd3c eaf2 723e cfcb cabd
000000d0: e57f a7bd 2ef8 d03e e146 8d3d 8a3d 70be
000000e0: 8323 4ebd e59b f6bd 4aa3 db3e 10cf 533e
000000f0: ee00 25be 3747 e6bb ee0d 543e 981d 3c3d
00000100: daf4 643d e33b 213c 8cf9 863d c91b 0e3e
00000110: 47d7 23be 9fde 23be 595e 08be 92e8 9c3d
00000120: d2c7 d2bd e56a 943d c5fc 0d3e 8aff 85be
00000130: 49ba eabd 810a 2b3e 7986 d2bd 75e3 143e
00000140: a607 09be fb2c 2ebd a72f 993d 36ae e23d
00000150: 6310 183e 07d1 7cbe 232a 18be 930d 4ebd
00000160: 4518 ea3c b3ac 263e 6be9 97be caf6 d9bc
00000170: 0288 35bd 3f87 ffbc 76b2 da3d 9549 0cbe
00000180: 36d0 993c 6969 283e 7efe c6bc 3711 a03e
00000190: 9b40 b6bd 8a14 0d3e 021b 2fbe 9fb6 d0bc
000001a0: 8f02 3ebc 9683 8e3d 1871 343e c664 14bd
000001b0: 37c1 d7bc f621 9cbc 9bed f73d 77ea 43bd
000001c0: 6212 263e bc0c f1bd aa5b 3dbd 2f4f 223e
000001d0: 958b a13d f037 ca3d 1dda 76bc 5f6e 1cbe
000001e0: 2963 b33d 3298 583d 15b8 06be 4748 fbbd
000001f0: a901 e93d acb0 403e 9161 8a3c b114 29be
00000200: c125 fe3d 13e0 eebd f771 263d 4e5c 59be
00000210: b89b 213e 6ded bf3d dce8 21be 5dea 243d
00000220: 7357 a6bd b176 01be 154a 90bd 8934 f73e
00000230: 6abc acbd 287b 303e f2f6 b7bc 35f1 abbd
00000240: 5c10 0cbe ac16 26be 5324 a83e 3394 99be
00000250: ceaa 103c f781 a53e 2d76 3c3e d3e7 bd3d
00000260: 4ecf 123e 3a1d 06be 17f0 923e 6a3a e33d
00000270: f7d9 cebd df56 8f3d c9d2 a73e eb03 11be
00000280: 801b db3d e139 b8bd 1908 0dbd 596b a83e
00000290: ceb1 15be 165e bc3c aa13 fdbd 4f17 1a3e
000002a0: 3b15 8fbc accf 9cbd 1291 123e db4f e0be
000002b0: e2a3 0fbe 65b4 fb3b 2085 0f3e fee6 4cbd
000002c0: 9014 c03d c38d 1b3e 038f a23d 30dd ce3d
000002d0: 1bbf 9ebc b86f 51be 5e34 13be c64b 203d
000002e0: 8e34 083e f982 183e d34e 40be ee89 6fbd
000002f0: 00bc 9cbd 44cd 113e 12b2 edbd bd7d fbbd
00000300: a301 df3c abdd c33d 9c34 23be c3ef 71bd
00000310: ce97 9d3e 3217 96bd c0f8 1bbd 7a0c 1d3e
00000320: 9dff b6bd c642 30be b872 17bd c273 2c3e
00000330: 0d78 c63d e94b 343e d389 e03d 14d1 e6bd
00000340: 3875 543e 439a d6bd 4a77 c03e 452c cdbe
00000350: 6548 21be edc8 c03e 0c56 dc3d 200b 3cbd
00000360: 617b c8bd c8dd 97bd c9ae 4e3e e772 a03c
00000370: 7584 163c d837 9a3d bc88 553e 98d3 693d
00000380: a8c2 2b3e 4ab9 193d 4988 84bd e9d7 a2bd
00000390: 2b67 f7bd 3921 07be 9f39 e9bc 7a10 00bd
000003a0: 5006 8e3d f434 aebd 2d4f 103e aac8 00be
000003b0: aeb5 033a be1a 193e c000 343e 20b7 d1bd
000003c0: f726 b53c 580f ab3c f3b9 bcbd e731 8cbd
000003d0: 861e 443d a1ba 06be 6cb9 a23c eb0c 893d
000003e0: 2bab 8ebd b35c 163e 7645 adbc 52d1 913d
000003f0: bd43 333e 7ac9 81bd 3632 b23d 761b 4fbd

phi.phi.2.bias f4 [32]
-0.029960394 -0.019373303 0.18618417 0.015902024 -0.12882845 0.00086139 0.112406515 -0.06708446
-0.09257504 0.14190945 0.097617894 0.020106303 0.009031332 -0.018696385 0.05219973 0.07552784
-0.08051824 0.032752167 0.0046235514 0.011429234 -0.07840679 0.037979923 -0.14294977 0.052842643
0.1020696 0.007878549 -0.13732016 -0.000642613 -0.01547968 -0.15277126 -0.1250333 0.17885387
00000000: 806f f5bc c3b4 9ebc 10a7 3e3e f644 823c
00000010: 9beb 03be e8ce 613a 6335 e63d 9463 89bd
00000020: fc97 bdbd b650 113e e4eb c73d f9b5 a43c
00000030: 27f8 133c 2929 99bc 62cf 553d 57ae 9a3d
00000040: bfe6 a4bd 2327 063d 2981 973b af41 3b3c
00000050: bd93 a0bd d690 1b3d 6d61 12be 8771 583d
00000060: de09 d13d 0815 013c a89d 0cbe 0775 28ba
00000070: 7c9e 7dbc 1270 1cbe bb08 00be 7825 373e

phi.phi.4.weight f4 [32, 32]
0.3901301 0.061124712 0.11401934 0.06966378 0.012064711 0.16072157 -0.16381705 -0.014617754
0.12605 -0.01167485 -0.10765432 -0.06490705 0.09886685 0.14642757 0.16972865 -0.064133
0.094028614 -0.16230457 -0.12736104 -0.17009991 0.14181824 0.02789615 -0.081399426 0.059816513
-0.07144329 0.0056451685 0.068182476 0.0323676 -0.11110203 -0.11643609 0.082885236 0.1638142
-0.06546593 -0.24442282 0.14855517 0.063544735 -0.31287736 -0.03273574 -0.010628773 0.109384894
-0.05679195 0.11960385 -0.053867623 0.26970968 0.12596118 0.033111554 0.15788284 0.044432025
-0.03497622 -0.0015414788 0.047139354 -0.03990101 0.16940191 -0.05037497 -0.1578739 -0.084159166
-0.11455173 0.23408389 -0.0793567 -0.12437535 -0.019109339 -0.11911363 -0.09234345 0.17522956
-0.060064476 0.26409113 0.093613245 0.010135663 0.2035221 -0.17726623 0.21509977 0.17889132
0.042008627 0.16727386 -0.1797822 -0.13102068 0.0351243 -0.15365198 0.00055749144 -0.016470572
-0.091586225 -0.14025716 0.072269455 -0.1286275 -0.037890036 0.080064625 0.13317405 0.039973672
-0.064898096 -0.1846227 0.09922171 0.03279874 0.159654 0.06657162 0.14240815 -0.21145374
-0.09980032 -0.28799355 0.008570007 0.031158159 -0.2603971 0.1484317 0.14005965 -0.09762519
0.054621726 -0.12573528 0.07462112 0.35954195 0.11919756 0.15138495 0.18753195 -0.02070311
0.13386899 -0.07386696 0.15005209 0.088512935 -0.12852617 0.15783626 -0.0026232197 -0.0078581115
-0.0006601661 0.08014429 0.0088477405 -0.08630054 -0.1522433 -0.09105873 -0.035178076 0.2071175
0.21192247 0.025685888 -0.024877692 -0.05016253 0.09338922 -0.13243337 0.0017855987 0.09076085
-0.08767029 0.030120812 -0.11382829 -0.25971252 0.13916282 -0.08678607 -0.09466936 0.21264467
0.029312083 -0.089979135 -0.10613727 -0.061991017 -0.056124084 0.07224671 -0.03930185 0.14909196
-0.10857918 -0.21866232 0.06436092 0.14118353 0.15709983 0.028294507 0.007451331 -0.14523731
0.09988215 -0.102468446 -0.046465002 -0.14774938 -0.16994306 0.09880966 0.012009702 0.1409219
0.14066666 0.09276414 0.07074502 -0.04587661 0.09388817 0.08500621 0.06119621 -0.005102993
0.026405085 0.00078433176 -0.12829135 0.0410367 -0.12995656 0.08577229 -0.105325244 -0.057744194
-0.083836906 0.13953182 -0.12448944 0.090264596 0.08865887 0.12499428 0.044292122 0.09636959
0.13335593 0.025670629 0.04939027 -0.14879595 -0.057272647 0.0044327118 0.01118156 -0.06897804
-0.17524542 -0.056403916 0.057165194 0.1522172 -0.15963452 0.0843993 -0.18027195 -0.17938396
-0.12169765 -0.023349248 0.04937265 -0.13444065 0.13619584 0.14934589 0.010876415 0.14389339
-0.090545475 -0.08242954 -0.02281215 0.019315563 -0.13292477 -0.14155173 0.06983269 0.04029782
0.14612299 0.069546536 0.014347942 -0.09059255 0.30648226 -0.16586807 0.22631246 0.0903483
0.14713967 0.08297219 -0.049685128 -0.07757835 -0.10383542 0.16673332 0.04340849 0.23108208
-0.16269703 -0.09366658 0.011184362 0.05504787 0.08869516 0.069917046 0.15052348 -0.044289656
-0.09802248 -0.15987933 0.049261868 -0.10311873 0.004217984 -0.13421766 -0.05186083 -0.18615946
00000000: 22bf c73e e85d 7a3d f982 e93d e2ab 8e3d
00000010: 11ab 453c 3294 243e a8bf 27be 4e7f 6fbc
00000020: 4013 013e df47 3fbc de79 dcbd fded 84bd
00000030: b47a ca3d 1cf1 153e 59cd 2d3e 2a58 83bd
00000040: 1392 c03d 2b33 26be ef6a 02be ac2e 2ebe
00000050: cd38 113e 7786 e43c beb4 a6bd 2902 753d
00000060: dc50 92bd 1bfb b83b 41a3 8b3d e393 043d
00000070: 7689 e3bd 0b76 eebd bcbf a93d e9be 273e
00000080: 0013 86bd fa49 7abe d91e 183e be23 823d
00000090: 7631 a0be e915 06bd 4e24 2ebc 3005 e03d
000000a0: ad9e 68bd ddf2 f43d 4ca4 5cbd 6317 8a3e
000000b0: f8fb 003e fb9f 073d 0aac 213e 5bfe 353d
000000c0: 3a43 0fbd 720b caba 3215 413d 3e6f 23bd
000000d0: b277 2d3e fc55 4ebd b2a9 21be a45b acbd
000000e0: 199a eabd b0b3 6f3e c485 a2bd 81b8 febd
000000f0: 308b 9cbc d9f1 f3bd 901e bdbd 616f 333e
00000100: 2b06 76bd f436 873e 4db8 bf3d 0d10 263c
00000110: 1968 503e 4785 35be 1d43 5c3e 492f 373e
00000120: 3d11 2c3d d749 2b3e d318 38be 492a 06be
00000130: 7fde 0f3d f256 1dbe 9e24 123a 4bed 86bc
00000140: 8f91 bbbd 939f 0fbe 0202 943d edb6 03be
00000150: 9532 1bbd ecf8 a33d c75e 083e 6fbb 233d
00000160: 4be9 84bd bc0d 3dbe c034 cb3d f957 063d
00000170: 577c 233e b456 883d 71d3 113e 5487 58be
00000180: 1c64 ccbd e473 93be 3769 0c3c 653f ff3c
00000190: c552 85be 7bfe 173e cc6b 0f3e b7ef c7bd
000001a0: 08bb 5f3d c0c0 00be f5d2 983d e215 b83e
000001b0: da1d f43d a804 1b3e 6008 403e 9299 a9bc
000001c0: f414 093e 9047 97bd 41a7 193e 4546 b53d
000001d0: 5d9c 03be d49f 213e 53ea 2bbb 4fbf 00bc
000001e0: ff0e 2dba b122 a43d 1df6 103c 56be b0bd
000001f0: abe5 1bbe 007d babd e316 10bd 9c16 543e
00000200: 3402 593e 366b d23c 4dcc cbbc 3a77 4dbd
00000210: d942 bf3d 9d9c 07be c00a ea3a d3e0 b93d
00000220: 7b8c b3bd ecbf f63c ce1e e9bd 0af9 84be
00000230: b380 0e3e e5bc b1bd 02e2 c1bd 86bf 593e
00000240: e51f f03c fb46 b8bd 7f5e d9bd 4bea 7dbd
00000250: 5ee2 65bd 15f6 933d fafa 20bd 90ab 183e
00000260: c35e debd 04e9 5fbe a8cf 833d 6a92 103e
00000270: c7de 203e e2c9 e73c 4b2a f43b 17b9 14be
00000280: 038f cc3d fada d1bd 1652 3ebd 9d4b 17be
00000290: 8e05 2ebe b85c ca3d 57c4 443c d54d 103e
000002a0: ec0a 103e 20fb bd3d c4e2 903d 1de9 3bbd
000002b0: 7148 c03d bc17 ae3d e1a8 7a3d 0237 a7bb
000002c0: 7a4f d83c 9d9b 4d3a cf5e 03be 1916 283d
000002d0: 5513 05be 62a9 af3d c3b4 d7bd 2d85 6cbd
000002e0: afb2 abbd 6ee1 0e3e 52f4 febd a5dc b83d
000002f0: c892 b53d 00fd ff3d a86b 353d 6b5d c53d
00000300: 758e 083e 364b d23c 744d 4a3d f75d 18be
00000310: b996 6abd 4840 913b dd32 373c 5c44 8dbd
00000320: 8973 33be cb07 67bd 0d26 6a3d d3de 1b3e
00000330: 3b77 23be 8ad9 ac3d 3699 38be 6eb0 37be
00000340: 9e3c f9bd ec46 bfbc fa3a 4a3d cfaa 09be
00000350: ec76 0b3e 21ee 183e fe32 323c ca58 133e
00000360: e86f b9bd d2d0 a8bd 8ce0 babc ac3b 9e3c
00000370: 6e1d 08be f0f2 10be 7104 8f3d 540f 253d
00000380: 44a1 153e 6a6e 8e3d a113 6b3c 9688 b9bd
00000390: 3eeb 9c3e 52d9 29be 74be 673e 8808 b93d
000003a0: c8ab 163e 53ed a93d a282 4bbd 66e1 9ebd
000003b0: aaa7 d4bd 24bc 2a3e 1acd 313d c8a0 6c3e
000003c0: 0d9a 26be 44d4 bfbd 9d3e 373c e079 613d
000003d0: cfa5 b53d ab30 8f3d d422 1a3e 1269 35bd
000003e0: 03c0 c8bd 68b7 23be d0c6 493d ea2f d3bd
000003f0: 0437 8a3b 5b70 09be 066c 54bd 96a0 3ebe

phi.phi.4.bias f4 [32]
0.085713305 0.07067297 0.10373317 0.12979071 0.16374493 -0.16133592 0.0500522 -0.021180581
-0.031747386 -0.14911216 0.16825451 0.13974655 -0.14426567 0.12139741 0.15452111 0.051630054
0.033862643 0.120634966 -0.02097888 0.010190366 0.041593082 0.050150283 0.07198347 -0.009537663
0.05580249 0.07102404 -0.14319955 0.08648768 0.080482855 0.070591554 -0.011144821 0.11762531
00000000: 758a af3d fdbc 903d 0e72 d43d dbe7 043e
00000010: c0ac 273e 3e35 25be 8903 4d3d e682 adbc
00000020: 8c09 02bd dcb0 18be e94a 2c3e b819 0f3e
00000030: 61ba 13be 359f f83d c83a 1e3e 097a 533d
00000040: 8eb3 0a3d 770f f73d e6db abbc 7ef5 263c
00000050: 825d 2a3d 626a 4d3d 126c 933d dc43 1cbc
00000060: 2791 643d 0d75 913d e7a2 12be 7420 b13d
00000070: 32d4 a43d 4e92 903d c498 36bc 8ae5 f03d

phi.phi.6.weight f4 [6, 32]
-0.1505435 -0.026293341 -0.1187272 0.23487103 -0.2107675 0.01753231 -0.17124166 -0.03960871
0.06589129 -0.7272323 0.21638732 -0.096899666 -0.09012608 0.11788123 0.1993531 0.057263087
0.22060002 -0.0293326 0.08079053 0.08166553 0.16986662 -0.0052402783 0.12075638 -0.13868332
-0.13872652 0.06090564 -0.022155967 0.19836962 0.22711225 0.20132448 -0.11068614 -0.22785407
-0.16581634 0.0639774 -0.15929034 -0.17646883 -0.089339435 -0.14925323 -0.06966554 -0.11128915
-0.09069258 0.1680659 -0.033312995 0.14664309 0.003922228 -0.022732366 -0.051757067 -0.12636478
-0.14203088 0.12240403 -0.054475434 -0.17235367 0.1622332 0.0032791302 -0.11829021 -0.13895595
-0.14845443 -0.15500756 0.15996899 0.12188639 0.014458582 -0.15066223 -0.04623625 -0.16606309
0.08887454 0.043333802 -0.07537561 -0.024001801 0.06258128 0.09568736 0.031886388 -0.0775118
-0.017469784 0.29435578 -0.25242093 0.17885213 -0.076240696 0.119670115 -0.2845395 0.01709612
0.107685804 -0.16855395 0.080214866 -0.29664704 -0.048339333 -0.03505469 0.0099815335 0.17180945
0.039839413 0.024377013 -0.08758309 0.079528846 -0.09045883 0.1223603 -0.15820801 0.12880169
0.13559408 0.108396806 0.0017707788 0.08197907 -0.16108468 0.14336114 -0.045928746 0.0644451
-0.029935114 -0.059359305 -0.0830153 0.11402501 -0.09617523 -0.03117377 0.089175016 0.017816758
-0.14873981 -0.17578228 -0.085944064 0.16304405 -0.1256928 0.097427875 0.12653953 -0.07327347
-0.07806578 -0.12717956 0.027573923 -0.024712782 0.008588663 0.076678775 0.0742179 -0.055772524
0.028504167 0.14221399 -0.028432284 0.08882822 -0.08184305 0.1448992 -0.008045963 -0.10774419
-0.15865932 -0.5537754 -0.05230605 0.004061881 -0.08887976 0.121087685 0.017205942 0.07543503
0.23779936 -0.07024342 -0.07672138 -0.24336676 -0.1434118 -0.08841709 -0.068998866 -0.0050954064
0.07929514 0.20425162 0.13090469 0.04345959 -0.0009811394 0.15925029 -0.13413045 0.0020582252
0.060788274 -0.14382555 -0.15033738 0.0007160539 -0.053580675 -0.08743753 -0.16456899 0.11841562
-0.0070434758 -0.09497773 -0.072008945 0.04647514 -0.12820461 0.011353665 -0.0021799824 0.06022123
0.070126556 -0.11550224 0.07633056 0.13348727 0.011380787 0.09005966 -0.06692544 0.03511302
0.05165387 -0.08165001 0.109145015 -0.16714188 -0.06640371 -0.104013234 -0.104941204 -0.10711809
00000000: 1328 1abe 2265 d7bc 3f27 f3bd 0882 703e
00000010: 6fd3 57be eb9f 8f3c f959 2fbe be3c 22bd
00000020: 03f2 863d e52b 3abf a394 5d3e 5573 c6bd
00000030: 0694 b8bd b76b f13d 3823 4c3e b38c 6a3d
00000040: f9e4 613e ec4a f0bc 8175 a53d 4240 a73d
00000050: 84f1 2d3e a4b6 abbb 1f4f f73d 0003 0ebe
00000060: 530e 0ebe 3178 793d 6e80 b5bc 6821 4b3e
00000070: 1d90 683e 0128 4e3e 6aaf e2bd 9452 69be
00000080: c2cb 29be 9506 833d 021d 23be 3fb4 34be
00000090: 98f7 b6bd d7d5 18be ceac 8ebd 91eb e3bd
000000a0: 08bd b9bd 7819 2c3e 3573 08bd 9b29 163e
000000b0: 0886 803b 3a39 babc 38ff 53bd c565 01be
000000c0: 8b70 11be f7ae fa3d a221 5fbd 7b7d 30be
000000d0: 7620 263e ade6 563b 2342 f2bd 784a 0ebe
000000e0: 7004 18be 4dba 1ebe e9ce 233e 929f f93d
000000f0: b0e3 6c3c 3347 1abe 3962 3dbd 710c 2abe
00000100: db03 b63d c97e 313d 875e 9abd 6d9f c4bc
00000110: 9d2a 803d bcf7 c33d 4d9b 023d 82be 9ebd
00000120: cb1c 8fbc cdb5 963e 513d 81be 0325 373e
00000130: 1524 9cbd 9b15 f53d 29af 91be 2a0d 8c3c
00000140: 608a dc3d 6899 2cbe b147 a43d 1fe2 97be
00000150: 77ff 45bd 8295 0fbd 9689 233c d1ee 2f3e
00000160: a72e 233d 4db2 c73c c35e b3bd 05e0 a23d
00000170: 7b42 b9bd 0998 fa3d 4801 22be 97e4 033e
00000180: 2dd9 0a3e 25ff dd3d 7a19 e83a a5e4 a73d
00000190: 62f3 24be 43cd 123e c81f 3cbd cbfb 833d
000001a0: 7c3a f5bc be22 73bd ed03 aabd f285 e93d
000001b0: 85f7 c4bd 2260 ffbc 64a1 b63d 73f4 913c
000001c0: 404f 18be 4500 34be 7103 b0bd 05f5 263e
000001d0: 9db5 00be 4488 c73d 9493 013e 6710 96bd
000001e0: f4e0 9fbd 5c3b 02be b5e2 e13c 7672 cabc
000001f0: 77b7 0c3c c309 9d3d 8eff 973d bb71 64bd
00000200: 9281 e93c 8ba0 113e d2ea e8bc 92eb b53d
00000210: 549d a7bd 7560 143e 37d3 03bc fca8 dcbd
00000220: 9777 22be 3ac4 0dbf de3e 56bd 8719 853b
00000230: 9706 b6bd d2fc f73d 7af3 8c3c ae7d 9a3d
00000240: ad81 733e c8db 8fbd 1920 9dbd 2335 79be
00000250: 8bda 12be 0514 b5bd 474f 8dbd 5ef7 a6bb
00000260: 7e65 a23d 5627 513e e10b 063e af02 323d
00000270: 9399 80ba 8212 233e 7e59 09be 4ae3 063b
00000280: 20fd 783d 0147 13be 0bf2 19be 90b5 3b3a
00000290: 6977 5bbd 7312 b3bd c684 28be e383 f23d
000002a0: f5cc e6bb af83 c2bd 6d79 93bd b75c 3e3d
000002b0: 1248 03be b904 3a3c 09de 0ebb 89aa 763d
000002c0: 839e 8f3d 708c ecbd 3253 9c3d e3b0 083e
000002d0: 7b76 3a3c 3371 b83d 3510 89bd acd2 0f3d
000002e0: 0293 533d 1f38 a7bd 6c87 df3d 3e27 2bbe
000002f0: abfe 87bd e404 d5bd 6aeb d6bd bb60 dbbd

phi.phi.6.bias f4 [6]
-0.08609599 0.03033785 -0.038778517 -0.14884788 0.023545275 -0.029447708
00000000: 1853 b0bd 1587 f83c 39d6 1ebd 946b 18be
00000010: 05e2 c03c 523c f1bc

rho.rho.0.weight f4 [25, 6]
0.15792325 -0.31977522 -0.10446302 0.08403154 0.20689008 0.030883927 0.37254646 0.4080989
-0.11512796 0.27823955 0.47934484 -0.36114308 0.10451374 0.23125201 -0.11205636 0.22531158
0.02175616 0.31079257 -0.020430226 -0.26136974 0.34647346 0.121414796 0.40341008 0.10134492
0.21289206 0.25454748 0.0756235 -0.0949038 0.11308652 -0.28465113 -0.0077949446 -0.13121691
0.0039717983 -0.32323414 0.22717111 -0.376655 0.17482881 0.26885617 -0.3741579 0.36885646
-0.30348527 -0.080166265 0.14504397 -0.12945668 0.44242072 -0.18009984 0.002538799 -0.26686588
-0.18939835 0.39838746 0.30702865 0.030059556 0.03356718 -0.34643757 0.3082061 -0.061208036
-0.17027786 -0.32489318 0.33565408 0.19358625 0.29710042 0.042272244 -0.29304755 0.16723257
0.0710562 0.13699782 -0.101657264 -0.1926586 0.335144 0.13685162 -0.16569135 0.03645615
-0.12242463 -0.034912046 0.35486993 -0.3249323 0.440952 0.27477393 -0.03904203 -0.16698745
0.18584509 -0.270223 0.324437 -0.21590649 0.044497076 -0.4016473 0.22080934 0.27636304
0.354233 0.03332331 0.24104507 0.13919678 0.27377787 0.2303777 -0.35718793 0.04303792
-0.13917889 -0.19493699 0.28575826 -0.05843027 0.06341859 0.25704512 0.27480105 0.21787073
-0.07127568 -0.36391038 -0.39191216 0.1283245 0.02369953 -0.25793618 0.1757894 0.37056288
0.2530021 -0.057591006 -0.0023696139 -0.2604071 0.21689859 -0.3163715 0.34295452 -0.18646708
-0.16191663 -0.3419535 -0.09872289 -0.039489515 -0.18817428 0.29061103 0.23429525 -0.3603052
-0.040837396 0.13725844 0.39387685 -0.097617365 0.26028892 -0.022871247 -0.28501403 0.24983205
-0.42051637 0.34203058 0.4158433 -0.111461714 0.1603526 0.40710697 0.15369305 0.15965226
-0.058119882 -0.16702478 0.10105854 -0.2175856 0.28758338 -0.17494021
00000000: a2b6 213e 94b9 a3be b5f0 d5bd ba18 ac3d
00000010: feda 533e 4a00 fd3c 69be be3e 57f2 d03e
00000020: 35c8 ebbd 6a75 8e3e b06c f53e bfe7 b8be
00000030: 4d0b d63d 54cd 6c3e ce7d e5bd 14b8 663e
00000040: f939 b23c 3420 9f3e 4a5d a7bc 41d2 85be
00000050: f864 b13e 52a8 f83d c48b ce3e ed8d cf3d
00000060: 6000 5a3e 0c54 823e 7ee0 9a3d ec5c c2bd
00000070: e899 e73d cbbd 91be bc6c ffbb ba5d 06be
00000080: dc25 823b f27e a5be 8b9f 683e edd8 c0be
00000090: 5306 333e 84a7 893e a091 bfbe c1da bc3e
000000a0: 6c62 9bbe 362e a4bd 6886 143e 4b90 04be
000000b0: f884 e23e 186c 38be fb61 263b a5a2 88be
000000c0: a4f1 41be 71f9 cb3e dc32 9d3e 753f f63c
000000d0: bd7d 093d 4460 b1be 31cd 9d3e 47b5 7abd
000000e0: 525d 2ebe 6658 a6be dada ab3e 793b 463e
000000f0: 8c1d 983e a925 2d3d 540a 96be 043f 2b3e
00000100: ea85 913d 2849 0c3e af31 d0bd 4c48 45be
00000110: ff97 ab3e d522 0c3e feaa 29be 0b53 153d
00000120: c4b9 fabd efff 0ebd 83b1 b53e 875d a6be
00000130: 76c4 e13e 2baf 8c3e 89ea 1fbd c2fe 2abe
00000140: 2d4e 3e3e ab5a 8abe 9b1c a63e 9716 5dbe
00000150: 9142 363d b7a4 cdbe d81b 623e 757f 8d3e
00000160: 075e b53e 067e 083d 85d4 763e 9a89 0e3e
00000170: 9d2c 8c3e 22e8 6b3e 56e1 b6be 8848 303d
00000180: e984 0ebe 909d 47be e84e 923e 9454 6fbd
00000190: 9be1 813d 6b9b 833e b9b2 8c3e 8119 5f3e
000001a0: fcf8 91bd 7652 babe b6a8 c8be 7f67 033e
000001b0: 8425 c23c 3610 84be 2302 343e 6bba bd3e
000001c0: 7e89 813e 8ce4 6bbd 864b 1bbb 1454 85be
000001d0: aa1a 5e3e 72fb a1be bc97 af3e 3af1 3ebe
000001e0: 79cd 25be 8714 afbe 3a2f cabd c2bf 21bd
000001f0: c2b0 40be f8ca 943e 18eb 6f3e ec79 b8be
00000200: 1d45 27bd 7a8d 0c3e 3aaa c93e 9deb c7bd
00000210: 9744 853e 7b5c bbbc 5ced 91be f9d3 7f3e
00000220: ec4d d7be a21e af3e 6ae9 d43e 0a46 e4bd
00000230: 7933 243e 5370 d03e b661 1d3e e27b 233e
00000240: 1d0f 6ebd 8b08 2bbe c8f7 ce3d c2ce 5ebe
00000250: 213e 933e 8723 33be

rho.rho.0.bias f4 [25]
0.10803511 -0.10853663 0.19468656 0.022064872 0.23829214 -0.13275105 -0.23956487 0.13846447
-0.22975448 -0.33518437 0.16907082 -0.24553339 -0.14793633 -0.11238911 0.04359915 -0.1413924
-0.14692934 -0.10260851 0.29406157 0.124444015 -0.19654621 -0.28219354 0.12838201 0.14266278
-0.046815127
00000000: 8341 dd3d 7448 debd ea5b 473e 64c1 b43c
00000010: db02 743e e4ef 07be 7e50 75be a1c9 0d3e
00000020: c244 6bbe 499d abbe e720 2d3e 1b6d 7bbe
00000030: 9f7c 17be 432c e6bd 0695 323d 2bc9 10be
00000040: a574 16be 6924 d2bd 3d8f 963e 81dc fe3d
00000050: 6943 49be ac7b 90be 9376 033e 3116 123e
00000060: 38c1 3fbd

rho.rho.2.weight f4 [25, 25]
0.13334559 0.46533507 0.07422719 0.08367703 0.13148442 -0.09135917 0.035476305 0.17548212
-0.09577282 0.015565825 -0.06321242 -0.15378475 -0.18532811 -0.10170822 -0.090558715 0.07495739
0.061328746 0.07809293 0.12686653 0.20290273 0.15180008 -0.17500208 -0.21904752 0.11949174
-0.0655728 0.04565135 -0.117925376 0.05113235 0.1772842 0.08113962 0.1685909 -0.02406702
0.13813776 0.06465776 -0.063030384 -0.16450694 0.18297587 0.28703198 0.49688342 0.18110456
-0.00805366 -0.16520166 0.016100908 -0.051337045 0.10557376 -0.07949765 0.15415053 -0.55585986
-0.051449772 0.14927176 0.03197854 0.47229975 -0.04898302 -0.1511714 0.14587286 0.035440534
0.1317486 -0.10609743 -0.117469095 -0.0807894 0.027002592 0.067771845 -0.42514586 -0.31197786
-0.023849063 0.18248732 -0.07212808 0.19381408 -0.107799396 -0.06980718 -0.15042861 0.14734006
-0.27610296 0.0926708 -0.030898789 0.19864638 0.09763739 -0.18982281 0.08026889 0.01745854
-0.17068473 0.040138125 0.18507083 0.057555247 -0.0010636091 -0.06477639 0.05314803 0.28775278
0.5629577 0.20502175 0.09343336 -0.074495725 -0.18779097 -0.11132319 0.21255247 -0.1835757
-0.19096255 -0.5436152 0.06250295 -0.0805398 -0.19709583 0.00081598165 -0.07913287 0.12866832
0.045629192 -0.15485518 -0.18026185 0.12547152 -0.035464216 -0.087491445 0.05114095 -0.039307024
0.11845778 0.07028411 -0.09743901 -0.1602979 0.10826843 -0.12016215 -0.0339365 0.015996743
-0.11639338 0.108944915 -0.15363339 0.03779876 0.012430863 0.07338219 -0.19628344 0.011553097
0.09750121 -0.12804341 0.04949024 0.00078365806 0.16966999 -0.042349365 0.0013663769 -0.08698747
-0.049290586 0.057255413 -0.19288898 0.15172148 0.14382021 0.08469913 0.14971948 -0.062257316
0.045555044 0.010174942 -0.13829891 -0.076889135 -0.07100206 -0.049450684 -0.1949445 -0.4399998
-0.035779174 -0.04852286 -0.19828163 0.06555364 0.1088989 0.15125017 0.16832076 -0.13975322
-0.080493145 -0.09487939 0.32896373 0.31668368 0.026427737 0.11687408 0.10551553 -0.10734937
0.11954457 0.11775403 0.026467014 -0.17400482 0.015762568 0.04084473 0.022143101 0.19992386
0.39677507 0.085934415 0.0066463836 0.14932047 -0.09287401 0.08143349 -0.084037215 -0.0018667221
0.118198946 0.104051456 -0.044880938 -0.29586527 -0.37593812 0.10652446 0.1345763 0.06884446
-0.19353247 -0.12858063 0.14734204 -0.028636886 0.122825764 0.0043511475 -0.048623864 -0.06848344
-0.19850326 0.07650373 0.09226894 -0.04509031 -0.20448695 -0.12882209 -0.010776115 0.080981866
-0.067016505 -0.12911151 -0.14956264 0.1789459 0.07242455 -0.16238335 -0.13389972 -0.16977899
0.028936386 -0.08121307 -0.0110011045 -0.041978166 -0.17506838 -0.17872515 -0.15512574 -0.09409077
0.020834621 -0.10856656 -0.007128954 -0.03829215 0.1680443 -0.1055799 0.18790674 -0.15353732
-0.18116765 0.06503873 -0.11639903 0.08815998 -0.11064947 0.15749295 0.1936584 -0.0019127803
0.04274397 0.18646406 0.11856327 -0.18901591 -0.020893816 -0.18053551 0.15277734 -0.036633182
-0.015837623 -0.13769038 -0.09238129 0.32452297 0.1808148 -0.0829979 0.03454389 0.15725355
00000000: bf8b 083e 6640 ee3e 6d04 983d dd5e ab3d
00000010: daa3 063e 841a bbbd 9a4f 113d 96b1 333e
00000020: 8a24 c4bd cd07 7f3c 8375 81bd c079 1dbe
00000030: a7c6 3dbe 664c d0bd d976 b9bd 4383 993d
00000040: da33 7b3d 30ef 9f3d 4de9 013e bcc5 4f3e
00000050: 7b71 1b3e bf33 33be fe4d 60be 16b8 f43d
00000060: 084b 86bd e9fc 3a3d dc82 f1bd 2870 513d
00000070: fd89 353e 872c a63d 18a3 2c3e 3328 c5bc
00000080: fc73 0d3e 4a6b 843d 1316 81bd 8274 28be
00000090: 075e 3b3e dbf5 923e 8167 fe3e 7973 393e
000000a0: 80f3 03bc a02a 29be 0de6 833c cb46 52bd
000000b0: 0e37 d83d aacf a2bd a3d9 1d3e d54c 0ebf
000000c0: ffbc 52bd b2da 183e eefb 023d 46d1 f13e
000000d0: 6ba2 48bd adcc 1abe b25f 153e 182a 113d
000000e0: 1be9 063e 9c49 d9bd a393 f0bd ea74 a5bd
000000f0: 8a34 dd3c f7cb 8a3d b8ac d9be 90bb 9fbe
00000100: 1c5f c3bc f5dd 3a3e e3b7 93bd 3377 463e
00000110: eec5 dcbd 11f7 8ebd f509 1abe 50e0 163e
00000120: 5e5d 8dbe 30ca bd3d 751f fdbc f569 4b3e
00000130: 1df6 c73d e960 42be 0464 a43d 3605 8f3c
00000140: fac7 2ebe e067 243d 3583 3d3e 0dbf 6b3d
00000150: cd68 8bba 7ca9 84bd c0b1 593d 5554 933e
00000160: ff1d 103f 39f1 513e fd59 bf3d 3791 98bd
00000170: 474c 40be 6afd e3bd 5ba7 593e 45fb 3bbe
00000180: b08b 43be 5e2a 0bbf 8c01 803d 0df2 a4bd
00000190: 7dd3 49be 9ae7 553a 6a10 a2bd a1c1 033e
000001a0: ade5 3a3d 5b92 1ebe 9096 38be 9b7b 003e
000001b0: ed42 11bd b72e b3bd 2c79 513d 6700 21bd
000001c0: fe99 f23d 1ef1 8f3d 1b8e c7bd 2225 24be
000001d0: d7bb dd3d 9317 f6bd 0001 0bbd 9a0b 833c
000001e0: a75f eebd 831e df3d 1252 1dbe dfd2 1a3d
000001f0: d2aa 4b3c 6749 963d 87fe 48be 3349 3d3c
00000200: b7ae c73d d01d 03be 47b6 4a3d 676e 4d3a
00000210: f8bd 2d3e 8776 2dbd 0018 b33a 7d26 b2bd
00000220: ede4 49bd a784 6a3d b084 45be e05c 1b3e
00000230: 9b45 133e bd76 ad3d 1050 193e 8701 7fbd
00000240: ed97 3a3d cdb4 263c 3b9e 0dbe 0d78 9dbd
00000250: 8769 91bd cd8c 4abd 889f 47be a747 e1be
00000260: 2f8d 12bd e8bf 46bd 570a 4bbe fd40 863d
00000270: 6306 df3d 53e1 1a3e 475c 2c3e 781b 0fbe
00000280: 97d9 a4bd 2050 c2bd ef6d a83e 5d24 a23e
00000290: fb7e d83c ad5b ef3d 8718 d83d fdd9 dbbd
000002a0: c9d3 f43d 0629 f13d 5ad1 d83c 522e 32be
000002b0: 8020 813c ce4c 273d 7365 b53c d7b8 4c3e
000002c0: 1a26 cb3e 62fe af3d e8c9 d93b 77e7 183e
000002d0: bb34 bebd 9ac6 a63d b41b acbd cdac f4ba
000002e0: 4a12 f23d ee18 d53d 13d5 37bd a77b 97be
000002f0: f67a c0be 7f29 da3d 5fce 093e 53fe 8c3d
00000300: 602d 46be a4aa 03be d5e0 163e e797 eabc
00000310: 138c fb3d 1294 8e3b d129 47bd 0c41 8cbd
00000320: 7044 4bbe fdad 9c3d 7ff7 bc3d 9eb0 38bd
00000330: 0765 51be f0e9 03be 4d8e 30bc d2d9 a53d
00000340: f33f 89bd cf35 04be f326 19be 983d 373e
00000350: 5353 943d d247 26be 021d 09be 8bda 2dbe
00000360: 000c ed3c 0a53 a6bd fa3d 34bc 4cf1 2bbd
00000370: 2045 33be ba03 37be 48d9 1ebe a9b2 c0bd
00000380: 5ead aa3c 2558 debd 009a e9bb 3bd8 1cbd
00000390: ce13 2c3e 463a d8bd a06a 403e e338 1dbe
000003a0: 0384 39be 0733 853d 9d62 eebd 388d b43d
000003b0: 309c e2bd d545 213e 634e 463e 42b6 faba
000003c0: 4d14 2f3d 6ff0 3e3e 4dd1 f23d 638d 41be
000003d0: 8229 abbc 4dde 38be aa71 1c3e ad0c 16bd
000003e0: e7bd 81bc b5fe 0cbe 6732 bdbd e027 a63e
000003f0: 8427 393e cefa a9bd e57d 0d3d 1307 213e

rho.rho.2.bias f4 [25]
0.20280579 -0.0057631275 0.06377629 -0.11549622 -0.045906946 -0.100403406 0.1302085 0.016543506
0.07104923 0.095647775 0.05447867 0.00508921 -0.014638305 -0.16941498 0.015119772 -0.04430883
-0.16810568 0.16918442 -0.021321679 -0.09981735 -0.19470344 -0.1842093 0.0934016 -0.0913009
-0.09944645
00000000: 52ac 4f3e 9ed8 bcbb 259d 823d 4889 ecbd
00000010: ec08 3cbd 4da0 cdbd 6155 053e 3f86 873c
00000020: 4282 913d fbe2 c33d 0725 5f3d 63c3 a63b
00000030: 80d5 6fbc 1f7b 2dbe ecb8 773c 2d7d 35bd
00000040: e523 2cbe ae3e 2d3e cdaa aebc 0a6d ccbd
00000050: 5760 47be 5da1 3cbe 5749 bf3d f7fb babd
00000060: 95aa cbbd

rho.rho.4.weight f4 [1, 25]
-0.13373405 0.4332884 -0.08793785 0.42952076 0.1474437 -0.15506034 0.13434567 -0.06030489
0.18241496 0.090093344 -0.21284854 0.029833695 0.07030513 -0.07255449 0.13932608 -0.16562502
-0.063461185 0.1721775 0.19532946 0.09990843 -0.11938925 -0.17208026 -0.18294348 -0.049997475
0.10597425
00000000: 94f1 08be fad7 dd3e c218 b4bd 25ea db3e
00000010: 7bfb 163e 23c8 1ebe e991 093e 4302 77bd
00000020: fdca 3a3e dc82 b83d f8f4 59be cb65 f43c
00000030: 23fc 8f3d 7397 94bd 7fab 0e3e 9b99 29be
00000040: f0f7 81bd 4c4f 303e 7204 483e ca9c cc3d
00000050: 5a82 f4bd cf35 30be 8955 3bbe 27ca 4cbd
00000060: 0709 d93d

exp_avg f4 [32, 3]
0.0 0.0 0.0 6e-45 6e-45 6e-45 0.0 0.0
0.0 -6.8260683e-06 -2.7449522e-07 -3.676497e-07 7.861629e-06 2.8963448e-06 3.1793697e-06 -1.9857528e-06
-1.6824235e-06 -1.5871907e-06 0.0 0.0 0.0 0.0 0.0 0.0
-2.212129e-06 -1.0657018e-06 -1.0307419e-06 -6.0367215e-06 -2.199701e-06 -2.3890725e-06 -3.501967e-06 -7.6846675e-07
-5.2651353e-07 2.259712e-05 6.3786815e-06 8.621935e-06 0.0 0.0 0.0 -5.9115036e-06
-4.216001e-06 -3.8841913e-06 0.0 0.0 0.0 0.0 0.0 0.0
-3.0772144e-06 -9.084887e-07 -9.0938204e-07 0.0 0.0 0.0 4.233255e-06 1.1368606e-07
6.7773976e-07 -4.2039624e-06 1.5481126e-06 1.2416787e-06 0.0 0.0 0.0 2.1234986e-05
6.938798e-06 8.752135e-06 3.5443688e-06 5.009879e-07 7.882901e-07 -8.205225e-06 -3.2183552e-06 -3.4219306e-06
0.0 0.0 0.0 0.0 0.0 0.0 1.5993168e-05 4.709709e-06
5.252104e-06 1.707612e-05 5.714691e-06 7.0348956e-06 0.0 0.0 0.0 3.6694198e-06
1.929539e-06 2.2210645e-06 7.334822e-06 2.052167e-06 2.623055e-06 0.0 0.0 0.0
00000000: 0000 0000 0000 0000 0000 0000 0400 0000
00000010: 0400 0000 0400 0000 0000 0000 0000 0000
00000020: 0000 0000 7b0b e5b6 565e 93b4 6461 c5b4
00000030: 70e5 0337 d35e 4236 285d 5536 f942 05b6
00000040: a2cf e1b5 7507 d5b5 0000 0000 0000 0000
00000050: 0000 0000 0000 0000 0000 0000 0000 0000
00000060: 1674 14b6 3c09 8fb5 0658 8ab5 0b8f cab6
00000070: 939e 13b6 f453 20b6 5603 6bb6 a248 4eb5
00000080: bc55 0db5 f28e bd37 7508 d636 eea6 1037
00000090: 0000 0000 0000 0000 0000 0000 6e5b c6b6
000000a0: 2c77 8db6 f354 82b6 0000 0000 0000 0000
000000b0: 0000 0000 0000 0000 0000 0000 0000 0000
000000c0: 2482 4eb6 dede 73b5 421c 74b5 0000 0000
000000d0: 0000 0000 0000 0000 620b 8e36 9323 f433
000000e0: eced 3535 c30f 8db6 bec8 cf35 c1a7 a635
000000f0: 0000 0000 0000 0000 0000 0000 c921 b237
00000100: d2d3 e836 22d6 1237 cbdb 6d36 a07b 0635
00000110: e29a 5335 2ca9 09b7 ecfa 57b6 52a4 65b6
00000120: 0000 0000 0000 0000 0000 0000 0000 0000
00000130: 0000 0000 0000 0000 1129 8637 1808 9e36
00000140: 3b3b b036 b03e 8f37 d2c0 bf36 4b0d ec36
00000150: 0000 0000 0000 0000 0000 0000 2740 7636
00000160: 3a7d 0136 990d 1536 a41d f636 f6b7 0936
00000170: be07 3036 0000 0000 0000 0000 0000 0000

exp_avg_sq f4 [32, 3]
0.0 0.0 0.0 3.2961449e-15 1.4310811e-18 2.1930423e-16 0.0 0.0
0.0 3.0754197e-08 4.59659e-09 5.60824e-09 1.3305108e-08 1.6613884e-09 2.1564306e-09 4.151847e-10
2.154083e-10 1.4396195e-10 0.0 0.0 0.0 0.0 0.0 0.0
1.0359062e-09 1.653741e-10 1.6912392e-10 9.397147e-09 1.3741092e-09 1.5568447e-09 7.158184e-09 9.679111e-10
1.2279211e-09 4.5133007e-08 1.1869732e-08 7.71088e-09 0.0 0.0 0.0 2.2162945e-09
8.974111e-10 5.8923955e-10 0.0 0.0 0.0 0.0 0.0 0.0
3.7422856e-09 5.0909593e-10 6.1638633e-10 0.0 0.0 0.0 9.472045e-09 1.3480754e-09
1.6594061e-09 2.3536218e-08 3.851512e-09 4.549543e-09 0.0 0.0 0.0 2.4603438e-08
5.916919e-09 3.843005e-09 5.184061e-09 7.55985e-10 9.1917346e-10 1.3453526e-08 2.2386684e-09 2.2727797e-09
0.0 0.0 0.0 0.0 0.0 0.0 5.5768883e-08 4.6669313e-09
8.3739e-09 1.9863835e-08 5.0257185e-09 3.4949716e-09 0.0 0.0 0.0 9.404669e-10
2.5105648e-10 2.0269769e-10 1.4931063e-08 2.1545634e-09 2.5171387e-09 0.0 0.0 0.0
00000000: 0000 0000 0000 0000 0000 0000 2483 6d27
00000010: b730 d321 2fd7 7c25 0000 0000 0000 0000
00000020: 0000 0000 9916 0433 09f0 9d31 9ab2 c031
00000030: 7c94 6432 e856 e430 5430 1431 0d40 e42f
00000040: 0cd8 6c2f b049 1e2f 0000 0000 0000 0000
00000050: 0000 0000 0000 0000 0000 0000 0000 0000
00000060: b65f 8e30 acd4 352f 27f4 392f 1771 2132
00000070: 2bdb bc30 9af8 d530 0df4 f531 5807 8530
00000080: a2c3 a830 44d8 4133 a2eb 4b32 cf78 0432
00000090: 0000 0000 0000 0000 0000 0000 774d 1831
000000a0: b1ad 7630 0cf8 2130 0000 0000 0000 0000
000000b0: 0000 0000 0000 0000 0000 0000 0000 0000
000000c0: 7e95 8031 71f0 0b30 556e 2930 0000 0000
000000d0: 0000 0000 0000 0000 7fba 2232 3047 b930
000000e0: 2911 e430 b12c ca32 4256 8431 3452 9c31
000000f0: 0000 0000 0000 0000 0000 0000 8857 d332
00000100: c54d cb31 6e0b 8431 7c1f b231 b7cd 4f30
00000110: 15a9 7c30 3c21 6732 12d7 1931 2a2f 1c31
00000120: 0000 0000 0000 0000 0000 0000 0000 0000
00000130: 0000 0000 0000 0000 8986 6f33 c35a a031
00000140: cddc 0f32 09a1 aa32 b0ae ac31 312c 7031
00000150: 0000 0000 0000 0000 0000 0000 bd41 8130
00000160: 0f05 8a2f 54de 5e2f c141 8032 7b0f 1431
00000170: f9f9 2c31 0000 0000 0000 0000 0000 0000

exp_avg f4 [32]
0.0 6e-45 0.0 -7.4682143e-06 1.3937344e-05 -5.255367e-06 0.0 0.0
-4.308574e-06 -1.062549e-05 -4.7969565e-06 3.7597743e-05 0.0 -1.4011698e-05 0.0 0.0
-4.8950806e-06 0.0 5.024673e-06 -1.4141693e-06 0.0 3.692591e-05 4.833648e-06 -1.48455065e-05
0.0 0.0 2.5954985e-05 2.9825702e-05 0.0 7.820024e-06 1.2010044e-05 0.0
00000000: 0000 0000 0400 0000 0000 0000 7997 fab6
00000010: 70d4 6937 4257 b0b6 0000 0000 0000 0000
00000020: 5e92 90b6 2244 32b7 8bf5 a0b6 45b2 1d38
00000030: 0000 0000 c913 6bb7 0000 0000 0000 0000
00000040: 6c40 a4b6 0000 0000 9d99 a836 7dce bdb5
00000050: 0000 0000 e5e0 1a38 b830 a236 f710 79b7
00000060: 0000 0000 0000 0000 e8b9 d937 3532 fa37
00000070: 0000 0000 bf32 0337 bf7e 4937 0000 0000

exp_avg_sq f4 [32]
0.0 5.377787e-15 0.0 9.931416e-08 4.0731685e-08 2.1796127e-09 0.0 0.0
3.3345053e-09 2.9851027e-08 2.2368262e-08 1.6633736e-07 0.0 1.0112452e-08 0.0 0.0
1.1667459e-08 0.0 3.0126323e-08 7.8094544e-08 0.0 8.700987e-08 1.6646151e-08 4.4049628e-08
0.0 0.0 1.5519586e-07 7.297286e-08 0.0 3.6161474e-09 4.747671e-08 0.0
00000000: 0000 0000 55c1 c127 0000 0000 8946 d533
00000010: f6f0 2e33 27c8 1531 0000 0000 0000 0000
00000020: 3d25 6531 8d35 0033 5424 c032 779a 3234
00000030: 0000 0000 09bb 2d32 0000 0000 0000 0000
00000040: 0772 4832 0000 0000 3e64 0133 eeb4 a733
00000050: 0000 0000 2fda ba33 46fd 8e32 1431 3d33
00000060: 0000 0000 0000 0000 eaa3 2634 41b5 9c33
00000070: 0000 0000 f07f 7831 32e9 4b33 0000 0000

exp_avg f4 [32, 32]
0.0 0.0 0.0 1.1406544e-05 6.399598e-07 1.2069377e-05 0.0 0.0
7.3751885e-06 3.462423e-06 4.5192414e-06 1.9543506e-07 0.0 1.5272873e-05 0.0 0.0
1.563455e-05 0.0 5.4853112e-06 9.770232e-06 0.0 -1.140657e-08 1.1696129e-05 6.5559116e-06
0.0 0.0 4.6510192e-07 1.6125865e-06 0.0 1.1820197e-05 4.42754e-06 0.0
0.0 6e-45 0.0 4.59508e-06 8.111104e-07 7.963046e-06 0.0 0.0
4.108845e-06 1.696598e-06 1.9223874e-06 6.8036364e-08 0.0 1.0359791e-05 0.0 0.0
9.159629e-06 0.0 5.011032e-06 3.7292477e-06 0.0 1.4985925e-07 7.532676e-06 3.7642908e-06
0.0 0.0 7.507025e-07 3.4668187e-07 0.0 6.9233065e-06 3.8521375e-06 0.0
0.0 6e-45 0.0 -2.3190023e-06 -2.5330965e-07 -2.959882e-06 0.0 0.0
-1.7333532e-06 -6.7184334e-07 -9.4306336e-07 -1.6497067e-07 0.0 -3.8082696e-06 0.0 0.0
-3.6428603e-06 0.0 -1.7498173e-06 -1.8988433e-06 0.0 -1.6322552e-07 -3.0349504e-06 -1.3708994e-06
0.0 0.0 -1.3135693e-07 -3.70454e-07 0.0 -2.8750385e-06 -1.5351095e-06 0.0
0.0 6e-45 0.0 -4.8938208e-08 -2.6135535e-07 -6.9899073e-07 0.0 0.0
-3.1916983e-07 -2.3406109e-08 -5.9493313e-08 -8.813123e-08 0.0 -9.67695e-07 0.0 0.0
-6.8243304e-07 0.0 -7.457826e-07 4.1255248e-08 0.0 -1.5435829e-07 -7.937893e-07 -1.591871e-07
0.0 0.0 -7.222409e-09 2.3019698e-08 0.0 -6.0137467e-07 -6.8350323e-07 0.0
0.0 -6e-45 0.0 3.3876238e-06 7.137765e-07 6.5860722e-06 0.0 0.0
3.2365233e-06 1.3528697e-06 1.4116896e-06 -4.945523e-08 0.0 8.5736765e-06 0.0 0.0
7.3755155e-06 0.0 4.2289007e-06 2.74234e-06 0.0 5.22703e-08 6.080655e-06 3.1073043e-06
0.0 0.0 8.4427967e-07 1.4850019e-07 0.0 5.5212795e-06 3.1280697e-06 0.0
0.0 6e-45 0.0 2.2299412e-07 -5.418008e-07 -2.2901681e-06 0.0 0.0
-7.7311086e-07 -1.6434812e-07 1.7116532e-08 -4.7439816e-08 0.0 -3.1215284e-06 0.0 0.0
-2.0128693e-06 0.0 -2.1909523e-06 3.2964314e-07 0.0 -1.810008e-07 -2.0870248e-06 -7.694945e-07
0.0 0.0 -4.62526e-07 1.9797605e-07 0.0 -1.5424532e-06 -1.620392e-06 0.0
0.0 -6e-45 0.0 -3.9822994e-06 1.6780864e-07 -1.9759598e-06 0.0 0.0
-1.8210285e-06 -9.2247905e-07 -1.532311e-06 -3.9798227e-09 0.0 -2.323021e-06 0.0 0.0
-3.4172187e-06 0.0 -6.281736e-08 -3.4608202e-06 0.0 1.3809026e-07 -2.2458898e-06 -1.3449095e-06
0.0 0.0 3.9318394e-07 -6.450849e-07 0.0 -2.693758e-06 -3.4794942e-07 0.0
0.0 6e-45 0.0 6e-45 6e-45 6e-45 0.0 0.0
6e-45 6e-45 0.0 6e-45 0.0 6e-45 0.0 0.0
6e-45 0.0 6e-45 6e-45 0.0 6e-45 6e-45 6e-45
0.0 0.0 6e-45 6e-45 0.0 6e-45 6e-45 0.0
00000000: 0000 0000 0000 0000 0000 0000 bc5e 3f37
00000010: b4c9 2b35 947d 4a37 0000 0000 0000 0000
00000020: 6378 f736 f95b 6836 fda3 9736 c8d8 5134
00000030: 0000 0000 3f1e 8037 0000 0000 0000 0000
00000040: f126 8337 0000 0000 770e b836 d4ea 2337
00000050: 0000 0000 a0f6 43b2 7e3a 4437 dafa db36
00000060: 0000 0000 0000 0000 1fb3 f934 0d70 d835
00000070: 0000 0000 5c4f 4637 4790 9436 0000 0000
00000080: 0000 0000 0400 0000 0000 0000 702f 9a36
00000090: 15bb 5935 0699 0537 0000 0000 0000 0000
000000a0: b6de 8936 aab6 e335 5d02 0136 631b 9233
000000b0: 0000 0000 f7ce 2d37 0000 0000 0000 0000
000000c0: 4fac 1937 0000 0000 7024 a836 fd43 7a36
000000d0: 0000 0000 ffe8 2034 32c1 fc36 069e 7c36
000000e0: 0000 0000 0000 0000 e283 4935 981f ba34
000000f0: 0000 0000 c04e e836 9c41 8136 0000 0000
00000100: 0000 0000 0400 0000 0000 0000 28a0 1bb6
00000110: 9dfe 87b4 63a2 46b6 0000 0000 0000 0000
00000120: 90a5 e8b5 b958 34b5 d226 7db5 cb22 31b4
00000130: 0000 0000 9391 7fb6 0000 0000 0000 0000
00000140: dd77 74b6 0000 0000 44db eab5 c2db feb5
00000150: 0000 0000 1743 2fb4 0dac 4bb6 bfff b7b5
00000160: 0000 0000 0000 0000 1e0b 0db4 cfe2 c6b4
00000170: 0000 0000 c9f0 40b6 f609 ceb5 0000 0000
00000180: 0000 0000 0400 0000 0000 0000 2130 52b3
00000190: 6850 8cb4 47a2 3bb5 0000 0000 0000 0000
000001a0: 5e5a abb4 940e c9b2 9785 7fb3 a842 bdb3
000001b0: 0000 0000 bfe1 81b5 0000 0000 0000 0000
000001c0: 7130 37b5 0000 0000 ca31 48b5 a030 3133
000001d0: 0000 0000 afbd 25b4 c914 55b5 04ed 2ab4
000001e0: 0000 0000 0000 0000 fb28 f8b1 dabc c532
000001f0: 0000 0000 276e 21b5 fc79 37b5 0000 0000
00000200: 0000 0000 0400 0080 0000 0000 ef56 6336
00000210: 599a 3f35 eefd dc36 0000 0000 0000 0000
00000220: 0c33 5936 4094 b535 4979 bd35 9a68 54b3
00000230: 0000 0000 a9d7 0f37 0000 0000 0000 0000
00000240: 327b f736 0000 0000 fbe5 8d36 0b09 3836
00000250: 0000 0000 cd7f 6033 6e08 cc36 1587 5036
00000260: 0000 0000 0000 0000 75a2 6235 6c73 1f34
00000270: 0000 0000 6e43 b936 d4eb 5136 0000 0000
00000280: 0000 0000 0400 0000 0000 0000 2870 6f34
00000290: 4470 11b5 cab0 19b6 0000 0000 0000 0000
000002a0: c687 4fb5 ab77 30b4 a707 9332 a1c0 4bb3
000002b0: 0000 0000 737b 51b6 0000 0000 0000 0000
000002c0: d514 07b6 0000 0000 4608 13b6 cff9 b034
000002d0: 0000 0000 1f59 42b4 d00e 0cb6 428f 4eb5
000002e0: 0000 0000 0000 0000 1751 f8b4 3e93 5434
000002f0: 0000 0000 4a06 cfb5 3f7c d9b5 0000 0000
00000300: 0000 0000 0400 0080 0000 0000 b19f 85b6
00000310: e32e 3434 bb9a 04b6 0000 0000 0000 0000
00000320: 106a f4b5 47a0 77b5 cea9 cdb5 e4be 88b1
00000330: 0000 0000 32e5 1bb6 0000 0000 0000 0000
00000340: 5f53 65b6 0000 0000 35e6 86b3 7040 68b6
00000350: 0000 0000 f645 1434 18b8 16b6 bd82 b4b5
00000360: 0000 0000 0000 0000 ca16 d334 e629 2db5
00000370: 0000 0000 69c6 34b6 cecd bab4 0000 0000
00000380: 0000 0000 0400 0000 0000 0000 0400 0000
00000390: 0400 0000 0400 0000 0000 0000 0000 0000
000003a0: 0400 0000 0400 0000 0000 0000 0400 0000
000003b0: 0000 0000 0400 0000 0000 0000 0000 0000
000003c0: 0400 0000 0000 0000 0400 0000 0400 0000
000003d0: 0000 0000 0400 0000 0400 0000 0400 0000
000003e0: 0000 0000 0000 0000 0400 0000 0400 0000
000003f0: 0000 0000 0400 0000 0400 0000 0000 0000
