src/lightning_logs/version_62/checkpoints/epoch=199-step=9600.ckpt (torch, 24051 bytes, 21 tensors)

phi.phi.0.weight f4 [47, 3]
-0.2474028 0.13198517 -0.16724607 0.24511358 0.044781297 0.1174722 -0.15633681 -0.33879587
0.22135207 -0.32492188 -0.47402224 0.22306521 -0.34723663 -0.21701132 -0.14416164 0.040996194
-0.19995904 -0.20778945 -0.16072732 0.30535525 0.30578706 -0.2779583 -0.39908192 0.01337734
0.17550701 -0.1319411 0.44753262 0.42598256 0.1833132 -0.08457412 0.33760396 -0.3541372
0.08254751 0.4667787 -0.2764723 0.044934664 -0.22572036 -0.44393834 0.30580574 0.45633915
-0.44422418 0.26789546 0.17704083 0.22543487 0.31781057 0.510405 0.35803655 -0.39717913
-0.24860945 0.2839565 -0.3458359 0.09586822 -0.3445947 0.24330926 0.3208702 -0.30101067
0.3751119 -0.25647354 0.061295748 0.79304075 -0.18195304 -0.40776303 0.5282058 -0.19085
0.41857973 0.329387 -0.107015386 -0.49623176 0.3726954 -0.2791029 0.15023522 -0.22948994
0.45012227 -0.53001297 -0.42821977 0.07518663 0.11838018 0.3171137 -0.24076986 -0.46639588
0.44797412 0.10076483 0.4640685 -0.55021644 -0.33910406 -0.23321891 0.041048087 0.20251979
-0.29883373 -0.2878308 -0.12086818 0.7216509 -0.43540558 0.8457725 -0.02944168 -0.64482754
-0.43424997 0.4253341 -0.3970314 0.14742139 -0.43579772 0.86382824 0.0814391 -0.5013807
0.09936408 0.070193835 -0.5584179 0.115868784 0.69039893 0.35745004 -0.8831764 -0.119685985
0.15342514 -0.2572185 0.56291854 0.5584069 0.08128772 -0.21505062 -0.5421058 -0.3323649
0.6064675 -0.5214248 -1.0013222 -0.054384626 0.267699 -0.7961572 -0.7304091 -0.37784696
0.44149908 0.39236873 0.23752873 -0.67942023 -0.52037114 0.3964963 -0.10237637 -0.25256604
0.18185428 -0.11346959 0.27611625 0.14641032 -0.24997744
00000000: 2957 7dbe 1f27 073e 8e42 2bbe 0eff 7a3e
00000010: 986c 373d 4495 f03d c216 20be a776 adbe
00000020: 1eaa 623e 295c a6be 0bb3 f2be 356b 643e
00000030: 00c9 b1be 3738 5ebe 1c9f 13be a0eb 273d
00000040: 10c2 4cbe c2c6 54be b495 24be 8657 9c3e
00000050: 1f90 9c3e 8d50 8ebe 7754 ccbe a12c 5b3c
00000060: 1cb8 333e 911b 07be ff22 e53e 631a da3e
00000070: 75b6 3b3e 3235 adbd 6dda ac3e 7951 b5be
00000080: ab0e a93d 9efd ee3e c78d 8dbe 690d 383d
00000090: 3d23 67be e34b e3be 9292 9c3e 49a5 e93e
000000a0: 5a71 e3be 9829 893e 314a 353e 66d8 663e
000000b0: 11b8 a23e e7a9 023f 9150 b73e 105b cbbe
000000c0: 7a93 7ebe bf62 913e 6711 b1be 8f56 c43d
000000d0: b76e b0be 1026 793e 1949 a43e 121e 9abe
000000e0: ab0e c03e 8050 83be 4011 7b3d b804 4b3f
000000f0: e651 3abe 51c6 d0be 7f38 073f 2f6e 43be
00000100: 1550 d63e 6aa5 a83e e22a dbbd 1712 febe
00000110: eed1 be3e 93e6 8ebe 43d7 193e 69ff 6abe
00000120: 6d76 e63e eeae 07bf 9f3f dbbe 73fb 993d
00000130: 4f71 f23d ba5c a23e 608c 76be 71cb eebe
00000140: dd5c e53e cb5d ce3d 639a ed3e fcda 0cbf
00000150: 0c9f adbe f0d0 6ebe 0a22 283d 5961 4f3e
00000160: bc00 99be 8f5e 93be bd89 f7bd 1dbe 383f
00000170: 7bed debe 8c84 583f ae2f f1bc 6b13 25bf
00000180: 0356 debe 64c5 d93e b347 cbbe a2f5 163e
00000190: e120 dfbe d923 5d3f 8bc9 a63d 7c5a 00bf
000001a0: 657f cb3d c9c1 8f3d 7af4 0ebf 9d4c ed3d
000001b0: fcbd 303f b103 b73e d917 62bf ed1d f5bd
000001c0: 7b1b 1d3e 25b2 83be 6e1b 103f c1f3 0e3f
000001d0: 2d7a a63d 3b36 5cbe 72c7 0abf bb2b aabe
000001e0: 7441 1b3f 187c 05bf 532b 80bf 6ac2 5ebd
000001f0: d80f 893e f5d0 4bbf 17fc 3abf 2875 c1be
00000200: 2b0c e23e 8ee4 c83e bb3a 733e 7cee 2dbf
00000210: 0b37 05bf 9001 cb3e b4aa d1bd 5650 81be
00000220: 0238 3a3e bf62 e8bd 1c5f 8d3e 96ec 153e
00000230: 16fa 7fbe

phi.phi.0.bias f4 [47]
-0.46274015 0.26266533 -0.34687826 -0.06385727 0.07894011 -0.3359987 0.30058467 -0.40610102
0.12177405 -0.018254172 0.16508469 -0.5666215 0.03335092 0.24982168 -0.3696295 0.121812455
-0.020095961 0.47503275 -0.1683238 -0.025662098 -0.2511112 -0.16367744 0.16665398 -0.5568225
0.3855231 0.39654845 0.2221949 0.38216653 -0.17972139 0.10362302 0.031387955 -0.2195792
-0.2219598 -0.24056947 -0.14275183 -0.51265156 -0.3674009 -0.054826748 -0.10817543 -0.52408755
0.08039519 0.28687465 0.41585705 0.46850023 -0.4034328 -0.18503045 -0.2738932
00000000: 47ec ecbe 127c 863e 079a b1be 9ac7 82bd
00000010: 5aab a13d 0608 acbe 3ce6 993e 79ec cfbe
00000020: ac64 f93d c689 95bc f60b 293e 1b0e 11bf
00000030: f99a 083d 41d1 7f3e 1440 bdbe cf78 f93d
00000040: 49a0 a4bc 7e37 f33e 135d 2cbe 5239 d2bc
00000050: a691 80be 0f9b 27be 57a7 2a3e eb8b 0ebf
00000060: 4963 c53e 6608 cb3e 0f87 633e 55ab c33e
00000070: e208 38be 4e38 d43d a890 003d 5fd9 60be
00000080: 6e49 63be d857 76be 892d 12be 223d 03bf
00000090: f91b bcbe 0392 60bd 148b ddbd 9a2a 06bf
000000a0: 3ca6 a43d 3ce1 923e 37eb d43e 43df ef3e
000000b0: be8e cebe 9f78 3dbe bb3b 8cbe

phi.phi.2.weight f4 [7, 47]
0.026753174 0.039087176 0.032452974 0.08523918 0.07695511 -0.07829258 0.10013369 0.09839595
0.019303054 -0.12690605 -0.08946272 0.040649094 0.050431687 0.13601182 0.074238405 0.05286781
-0.004975013 0.099460945 -0.05309282 0.059391476 -0.06947364 -0.001361447 0.08620544 0.06693023
-0.03273279 -0.0018469677 -0.080974504 0.06756445 0.09814985 0.050209984 -0.14114806 -0.10441794
0.09765018 -0.020885594 0.089579895 0.107518114 -0.042727903 -0.08558219 -0.13722889 0.05579608
0.07481184 -0.025288023 -0.14160942 -0.09395316 -0.00785929 0.066573255 -0.04887681 -0.094164245
-0.10154758 0.13050972 0.052821036 -0.11843023 -0.090082236 -0.12382406 0.021104028 -0.05923072
-0.0004937802 -0.023075584 -0.12768173 -0.13034871 -0.113137074 -0.061089788 0.022687074 -0.06859693
-0.005199324 -0.01747217 0.13339937 -0.06649546 0.13704509 -0.1119786 -0.12170025 0.047434367
-0.08489271 0.07481769 -0.08069942 0.11486354 0.14123991 0.009338213 0.031174244 0.13599288
0.086471155 -0.12733838 -0.004669289 -0.13166906 0.11142433 -0.026717493 -0.0010167556 -0.08961792
-0.07931471 0.018930437 0.12034903 -0.07331946 0.013783312 0.13203797 0.13072616 -0.02851746
0.13671364 0.053119473 0.13284843 0.0043277624 -0.12361983 -0.039705023 0.043749355 0.07778601
-0.14531186 0.11346102 -0.13085195 0.0854653 0.14392005 0.03594611 -0.027529292 0.080314055
-0.04329308 -0.108046964 -0.10351859 0.068583086 0.11140061 0.005906478 -0.14142923 -0.1433281
-0.0329374 0.07874073 -0.09720373 0.039316565 -0.07972544 0.11867789 -0.03822116 -0.030398145
-0.12793534 -0.13065006 0.00985825 0.023585085 0.078806095 -0.12754859 0.025558554 -0.021071581
0.08556379 -0.06632422 0.043457106 0.058779158 0.07327349 -0.05003012 0.032338023 -0.028586963
0.039278433 -0.08969284 -0.11590568 -0.10615599 -0.0916947 -0.08399195 0.016678376 -0.04629578
-0.08303742 0.0012253475 -0.06547969 0.08991562 -0.082586505 -0.036168084 -0.107381925 0.07222031
-0.42023784 -0.008391028 0.11988996 -0.1768574 -0.02096506 0.021593226 0.10320057 -0.17066847
0.039922856 -0.055184614 0.0072747297 0.35435522 0.43674448 0.080084786 0.74252915 -0.07814987
-0.032247286 -0.8840369 0.033483796 0.1110888 -0.028325683 0.19483846 0.10041477 -0.34059343
0.12926179 0.021255657 -0.14337736 -0.12045328 -0.14451797 0.012180538 0.07884993 -0.019244038
0.1311491 -0.026241537 -0.053944815 0.1315324 0.08105575 0.03655365 0.2142488 -0.08714914
0.054331154 0.15690982 -0.09031838 -0.088277906 0.03770225 -0.037886288 -0.6299259 -0.55984503
-0.10581458 0.084494494 -0.06837035 -0.046713617 0.22044179 0.014624392 -0.0981007 -0.08258893
0.13902023 0.21943285 -0.34010792 0.10848623 0.07317136 -0.37745097 -0.10859684 -0.09721948
-0.44641632 0.10520696 0.1318996 -0.053309217 0.019074006 0.026073383 -0.5517052 0.066344745
-0.03039971 -0.092781045 0.12475365 -0.09446416 -0.1409492 -0.05823989 0.029086655 0.054216687
0.056401215 -0.084499404 -0.05598151 -0.064863205 -0.0706365 -0.1228582 0.029858511 -0.042420074
-0.14039594 -0.085173085 -0.08759864 -0.06292073 -0.09013059 -0.025295796 0.052272588 -0.11805057
00000000: 7929 db3c e019 203d 69ed 043d e191 ae3d
00000010: a49a 9d3d dc57 a0bd e412 cd3d d183 c93d
00000020: 7021 9e3c a9f3 01be 3b38 b7bd aa7f 263d
00000030: 7591 4e3d af46 0b3e 4e0a 983d eb8b 583d
00000040: 6f05 a3bb 2eb2 cb3d db77 59bd 7a44 733d
00000050: 3248 8ebd 9572 b2ba 7a8c b03d b712 893d
00000060: d112 06bd f415 f2ba f6d5 a5bd 3b5f 8a3d
00000070: ca02 c93d fca8 4d3d 1e89 10be 13d9 d5bd
00000080: d1fc c73d 4418 abbc aa75 b73d 7532 dc3d
00000090: 7403 2fbd b745 afbd bb85 0cbe 6e8a 643d
000000a0: f336 993d d428 cfbc 0f02 11be 846a c0bd
000000b0: 40c4 00bc 8f57 883d 0d33 48bd 2fd9 c0bd
000000c0: 2df8 cfbd 57a4 053e df5a 583d 8c8b f2bd
000000d0: 097d b8bd 7897 fdbd 5be2 ac3c e99b 72bd
000000e0: 0771 01ba 0209 bdbc 00bf 02be 227a 05be
000000f0: 69b4 e7bd 4939 7abd 3eda b93c 8c7c 8cbd
00000100: 175f aabb cc21 8fbc d899 083e c62e 88bd
00000110: 8c55 0c3e 0955 e5bd fb3d f9bd 8a4a 423d
00000120: 3bdc adbd 043a 993d bd45 a5bd 933d eb3d
00000130: 32a1 103e 4eff 183c 2161 ff3c b841 0b3e
00000140: ca17 b13d fe64 02be d600 99bb 41d4 06be
00000150: 7032 e43d a5de dabc a844 85ba 9a89 b7bd
00000160: c06f a2bd 0114 9b3c 8d79 f63d 8328 96bd
00000170: 67d3 613c f634 073e 14dd 053e 739d e9bc
00000180: a9fe 0b3e ce93 593d 6b09 083e e7cf 8d3b
00000190: 652c fdbd bca1 22bd 8632 333d 464e 9f3d
000001a0: a2cc 14be 405e e83d 0efe 05be 6e08 af3d
000001b0: c75f 133e 3a3c 133d 1c85 e1bc b27b a43d
000001c0: 1654 31bd ba47 ddbd 8e01 d4bd 4a75 8c3d
000001d0: 0126 e43d 218b c13b d3d2 10be 9ac4 12be
000001e0: 5ee9 06bd d242 a13d c012 c7bd 680a 213d
000001f0: 1747 a3bd 650d f33d cb8d 1cbd 8805 f9bc
00000200: 7b01 03be 21c9 05be 7f84 213c 8235 c13c
00000210: 1765 a13d 199c 02be 2c60 d13c 4f9e acbc
00000220: 113c af3d fed4 87bd 1400 323d 6ac2 703d
00000230: 6910 963d 62ec 4cbd e074 043d 352f eabc
00000240: 6ce2 203d e1b0 b7bd f55f edbd 5068 d9bd
00000250: 6eca bbbd f903 acbd 17a1 883c a5a0 3dbd
00000260: 860f aabd d79b a03a 371a 86bd ae25 b83d
00000270: 1d23 a9bd fc24 14bd 0eeb dbbd 3ee8 933d
00000280: 6a29 d7be 867a 09bc de88 f53d 1b1a 35be
00000290: ebbe abbc 47e4 b03c d25a d33d b7c3 2ebe
000002a0: 2686 233d 4309 62bd db60 ee3b 0c6e b53e
000002b0: f99c df3e 7e03 a43d 6416 3e3f 0a0d a0bd
000002c0: bb15 04bd 3e50 62bf 4e26 093d 8682 e33d
000002d0: 430b e8bc bc83 473e 42a6 cd3d 4362 aebe
000002e0: 345d 043e 5820 ae3c 84d1 12be 36b0 f6bd
000002f0: 85fc 13be e190 473c 127c a13d aca5 9dbc
00000300: f34b 063e 7ef8 d6bc 3df5 5cbd 6eb0 063e
00000310: 8f00 a63d 48b9 153d 0a64 5b3e 407b b2bd
00000320: 588a 5e3d f8ac 203e d8f8 b8bd 0ccb b4bd
00000330: ad6d 1a3d a72e 1bbd d342 21bf 0152 0fbf
00000340: 51b5 d8bd 730b ad3d c105 8cbd c756 3fbd
00000350: 7ebb 613e 259b 6f3c 05e9 c8bd 6324 a9bd
00000360: 525b 0e3e 01b3 603e a022 aebe 072e de3d
00000370: deda 953d 4141 c1be 0568 debd 021b c7bd
00000380: ae90 e4be bf76 d73d b010 073e c45a 5abd
00000390: 1741 9c3c d997 d53c 8d3c 0dbf c1df 873d
000003a0: d008 f9bc fd03 bebd d77e ff3d 6d76 c1bd
000003b0: fd54 10be f38c 6ebd 2347 ee3c 5112 5e3d
000003c0: f604 673d 060e adbd de4c 65bd 00d7 84bd
000003d0: dfa9 90bd 149d fbbd d699 f43c acc0 2dbd
000003e0: f4c3 0fbe 3a6f aebd ea66 b3bd 95dc 80bd
000003f0: 6396 b8bd 2139 cfbc c81b 563d 7fc4 f1bd

phi.phi.2.bias f4 [7]
-0.09848992 0.09331087 -0.023552638 0.026708962 0.020567302 0.041137815 0.09336651
00000000: 15b5 c9bd c519 bf3d 76f1 c0bc c1cc da3c
00000010: c27c a83c 2080 283d f136 bf3d

rho.rho.0.weight f4 [58, 7]
0.019613888 0.039095715 -0.024545047 -0.2996511 -0.0994003 0.35972926 -0.26787186 -0.23853682
-0.37505937 0.0229189 -0.35351864 -0.19359119 0.348272 0.15653962 0.20136873 0.06471929
-0.32118654 -0.17587434 -0.30598435 -0.23371768 0.12871362 -0.104830004 0.36937076 -0.27551988
-0.32255867 0.37320304 -0.32650685 0.32162178 0.10177744 -0.34449622 0.32919922 -0.13554178
-0.1574246 -0.29484975 -0.3196997 0.084153 -0.3712595 0.15531541 -0.51676315 0.082885705
-0.09254119 0.13070711 -0.010324513 0.11109016 -0.15377222 -0.3532371 -0.0041274843 -0.24124667
-0.2343039 -0.36343855 -0.12047533 -0.25255144 0.27074468 0.24477315 0.08967769 0.30709806
0.18199521 -0.35605106 -0.037817273 -0.2192702 -0.36576194 0.1076484 -0.11796773 -0.18073462
-0.0044060666 -0.2512973 0.33041638 0.2068515 0.35777876 -0.06694505 0.12344133 -0.0152025055
-0.31275788 0.1709976 -0.26400518 -0.13643807 -0.16926165 -0.36873046 0.013556983 0.061919592
-0.046905596 0.25417382 0.01812246 -0.0688456 -0.20615806 -0.22447507 -0.05373546 -0.2490073
-0.27264228 -0.049990512 -0.06673563 -0.2307181 0.22084074 0.32054296 -0.7425139 0.06537481
-0.17537943 -0.039245576 0.3528315 0.04836432 -0.36037916 0.41450623 0.09533547 -0.18925965
-0.19960682 0.32411695 0.006379017 0.20876297 0.24840887 -0.14669992 0.032080766 -0.24448834
0.31562063 -0.1998654 0.25105163 0.095764466 0.23315406 -0.26630235 -0.011754258 0.19584598
-0.015086574 -0.0054231808 0.14751524 -0.29749352 -0.07577769 0.1721597 0.18537219 0.35104677
-0.07476747 0.08955446 -0.18596865 -0.06343553 -0.18974459 0.280098 0.0023023612 0.15376082
0.2177983 0.05214934 0.040222544 -0.027663795 -0.3201642 0.060896665 -0.083735816 -0.31768987
0.35214338 -0.040294185 -0.18863705 -0.3679549 -0.34812284 0.14393014 -0.21681204 -0.6060991
-0.21869832 0.30509555 -0.09085836 0.24498983 0.30005878 -0.2930365 0.2819785 -0.07217526
0.3620026 0.19305772 -0.36612767 0.07021776 0.1328642 -0.1371151 0.2866144 -0.31300187
-0.119930364 0.36013576 0.36913797 0.15650132 -0.2359212 -0.3252011 -0.3073111 -0.09448634
0.21411541 0.119663626 -0.04590034 0.33992255 0.29680339 -0.17665386 -0.16367987 -0.004434453
0.07843438 -0.0249062 0.09653472 0.26077577 -0.068151586 0.18561527 0.051405255 0.14508246
0.15560055 -0.101023324 -0.1685192 0.16155526 -0.24199228 0.19843224 -0.24250989 0.27889168
0.079870924 -0.09259558 0.21604209 -0.12447354 0.08052317 0.111281745 0.038600948 0.075901374
-0.0075033666 -0.10919241 0.21087006 0.14908095 0.1409789 0.25516957 -0.19775854 -0.08781558
-0.010773099 0.30501148 -0.30097717 -0.21680017 -0.09003116 -0.32285756 -0.29861823 0.2589136
0.017631566 -0.3040636 -0.062409133 -0.01242628 -0.13437244 -0.31614783 0.20570202 -0.04668298
0.36901915 -0.2894706 -0.60672927 0.02849805 -0.2632054 0.2754501 0.29228953 0.34241104
-0.23859444 0.2689219 0.26243332 -0.15039021 0.041474223 0.18010792 0.27046746 -0.35301766
0.3960838 -0.12984018 0.15399972 -0.23474957 -0.29086003 -0.25597072 0.2227552 -0.2272653
00000000: 4ead a03c d422 203d b212 c9bc de6b 99be
00000010: 6292 cbbd 6f2e b83e 8026 89be ff42 74be
00000020: c807 c0be 6bc0 bb3c 6500 b5be c53c 46be
00000030: b550 b23e ec4b 203e 9b33 4e3e 8c8b 843d
00000040: 9072 a4be 6718 34be fba9 9cbe b053 6fbe
00000050: 81cd 033e 1db1 d6bd 2a1e bd3e f110 8dbe
00000060: 6926 a5be 7814 bf3e e82b a7be 9cab a43e
00000070: b170 d03d cf61 b0be cd8c a83e 77cb 0abe
00000080: ea33 21be 8cf6 96be aeaf a3be 6858 ac3d
00000090: ba15 bebe 010b 1f3e 974a 04bf fbbf a93d
000000a0: 3c86 bdbd 16d8 053e 2528 29bc 3d83 e33d
000000b0: 7776 1dbe 7edb b4be d93f 87bb 5e09 77be
000000c0: 5ded 6fbe 9e14 babe c5bb f6bd 6c4e 81be
000000d0: 0c9f 8a3e d0a5 7a3e f0a8 b73d f53b 9d3e
000000e0: f45c 3a3e 534c b6be 49e6 1abd 5e88 60be
000000f0: 2645 bbbe c476 dc3d 1199 f1bd 7f12 39be
00000100: c460 90bb 0aaa 80be 562c a93e e1d0 533e
00000110: c72e b73e 7d1a 89bd cfce fc3d ee13 79bc
00000120: cd21 a0be ff19 2f3e b02b 87be 6cb6 0bbe
00000130: ed52 2dbe 3dca bcbe 1c1e 5e3c 669f 7d3d
00000140: 1520 40bd 1223 823e 8e75 943c ecfe 8cbd
00000150: 191b 53be cbdc 65be b719 5cbd c5fb 7ebe
00000160: c597 8bbe dac2 4cbd b1ac 88bd 5e41 6cbe
00000170: 1324 623e 351e a43e 6415 3ebf 3ae3 853d
00000180: aa96 33be f8bf 20bd 55a6 b43e aa19 463d
00000190: 9e83 b8be 293a d43e 3e3f c33d 48cd 41be
000001a0: bb65 4cbe a8f2 a53e 1307 d13b f6c5 553e
000001b0: e55e 7e3e 8138 16be 1f67 033d 275b 7abe
000001c0: 0799 a13e 84a9 4cbe d789 803e 2920 c43d
000001d0: f0bf 6e3e c858 88be ee94 40bc d98b 483e
000001e0: ad2d 77bc f0b4 b1bb 3c0e 173e 1251 98be
000001f0: 5531 9bbd a24a 303e 35d2 3d3e 67bc b33e
00000200: b01f 99bd 5468 b73d 916e 3ebe 7dea 81bd
00000210: 684c 42be 0169 8f3e 36e3 163b 7a73 1d3e
00000220: 8406 5f3e 8c9a 553d 65c0 243d 2f9f e2bc
00000230: 90ec a3be c86e 793d af7d abbd 3fa8 a2be
00000240: 234c b43e 840b 25bd 122a 41be 9664 bcbe
00000250: 283d b2be 6c62 133e fa03 5ebe 5029 1bbf
00000260: 74f2 5fbe 7c35 9c3e f313 babd 9dde 7a3e
00000270: 4ea1 993e e108 96be 7c5f 903e 9fd0 93bd
00000280: 6858 b93e ecb0 453e 1675 bbbe 54ce 8f3d
00000290: 8e0d 083e e767 0cbe 1fbf 923e c841 a0be
000002a0: 0d9e f5bd b763 b83e a7ff bc3e e241 203e
000002b0: 5495 71be c280 a6be e157 9dbe 0e82 c1bd
000002c0: 1241 5b3e 3412 f53d ff01 3cbd 540a ae3e
000002d0: 9df6 973e c0e4 34be b29b 27be e34e 91bb
000002e0: 34a2 a03d 1608 ccbc ffb3 c53d 6784 853e
000002f0: 0f93 8bbd ee11 3e3e 518e 523d 7f90 143e
00000300: c055 1f3e 51e5 cebd 4c90 2cbe be6e 253e
00000310: d3cc 77be d231 4b3e 8354 78be e4ca 8e3e
00000320: 5e93 a33d c0a2 bdbd 233a 5d3e fceb febd
00000330: 55e9 a43d afe7 e33d 071c 1e3d 2e72 9b3d
00000340: cdde f5bb 45a0 dfbd 52ee 573e ada8 183e
00000350: c65c 103e 96a5 823e 3781 4abe a8d8 b3bd
00000360: a781 30bc 772a 9c3e ae19 9abe dd00 5ebe
00000370: 4262 b8bd 964d a5be 7de4 98be 5390 843e
00000380: 1370 903c 39ae 9bbe b8a0 7fbd 9997 4bbc
00000390: ee98 09be 21de a1be 8da3 523e a736 3fbd
000003a0: 14f0 bc3e 7e35 94be 9c52 1bbf be74 e93c
000003b0: dcc2 86be cc07 8d3e f9a6 953e 8050 af3e
000003c0: 1a52 74be 22b0 893e a95d 863e e4ff 19be
000003d0: e0e0 293d 366e 383e b67a 8a3e bbbe b4be
000003e0: 7fcb ca3e d3f4 04be 1ab2 1d3e 3162 70be
000003f0: 9beb 94be 980e 83be f019 643e 3cb8 68be

rho.rho.0.bias f4 [58]
0.1540227 -0.2712088 -0.26563096 -0.3129637 0.14654465 0.033338815 0.08577482 -0.19584703
0.14586419 0.042380355 -0.30158815 -0.12338415 0.17322539 0.111522995 -0.0243602 -0.26406744
-0.23511976 0.2930361 -0.21651158 0.26987213 -0.12651065 0.09034871 -0.368058 -0.12286271
0.29026818 -0.33933637 0.16105491 -0.318089 0.020292236 -0.34267634 -0.29920965 -0.3051298
-0.13105927 0.105969414 -0.277113 0.088505454 0.19952394 0.2815145 0.106536455 0.24934067
-0.11129674 -0.03483284 0.11704265 0.15818936 -0.10023339 0.24282466 -0.33031255 0.3208867
0.20859058 -0.2772223 -0.30827275 0.26247913 0.35128388 0.07928565 -0.1476841 0.19317038
0.14192379 -0.07447744
00000000: 20b8 1d3e e1db 8abe c800 88be c73c a0be
00000010: cd0f 163e 488e 083d b5aa af3d 208c 48be
00000020: 6c5d 153e 0697 2d3d c369 9abe d4b0 fcbd
00000030: ff61 313e 2b66 e43d 0b8f c7bc d933 87be
00000040: 3cc3 70be d408 963e 36b5 5dbe ae2c 8a3e
00000050: 028c 01be bf08 b93d 1972 bcbe 729f fbbd
00000060: 089e 943e 7fbd adbe 94eb 243e 90dc a2be
00000070: e73b a63c 4673 afbe 0232 99be f939 9cbe
00000080: 6734 06be 7e06 d93d c1e1 8dbe 5942 b53d
00000090: 0150 4c3e ab22 903e c92f da3d 2953 7f3e
000000a0: 8cef e3bd e1ac 0ebd 0fb4 ef3d 64fc 213e
000000b0: 2a47 cdbd 07a7 783e ba1e a9be 434b a43e
000000c0: c598 553e 15f0 8dbe edd5 9dbe aa63 863e
000000d0: 7bdb b33e 8460 a23d 803a 17be 75ce 453e
000000e0: 7854 113e a187 98bd

rho.rho.2.weight f4 [1, 58]
0.09167193 0.08510949 0.032734804 0.06817803 -0.09759054 -0.24365455 0.019851636 0.02802724
-0.0011254175 0.05452674 0.03999979 -0.119750254 0.032783322 -0.27861628 0.15634075 0.004431334
-0.03229341 -0.052428406 -0.11965129 0.11827889 -0.07974194 0.40069196 0.10518958 -0.016542317
-0.06843674 -0.12703341 0.026714649 -0.065884605 0.009983693 0.041942056 -0.03720363 0.089032166
-0.01708696 -0.578486 -0.08681953 0.04377257 -0.059881765 0.034753315 0.00092291913 0.095205925
-0.06437211 -0.06468447 0.0005270949 -0.058124207 0.050059784 -0.028864097 0.053871796 0.078412384
0.079876214 -0.024105398 0.07165868 -0.050963685 -0.11403582 0.7468012 -0.095205925 -0.08888937
0.0321661 0.19396053
00000000: 7ebe bb3d e24d ae3d ee14 063d eca0 8b3d
00000010: 8ddd c7bd 9480 79be e69f a23c 6299 e53c
00000020: bf82 93ba 6e57 5f3d d2d6 233d 9f3f f5bd
00000030: ce47 063d cba6 8ebe ca17 203e b934 913b
00000040: 1846 04bd 2bbf 56bd bc0b f5bd 343c f23d
00000050: be4f a3bd 7f27 cd3e a26d d73d c183 87bc
00000060: 9028 8cbd 0c15 02be aed8 da3c 82ee 86bd
00000070: a592 233c 6fcb 2b3d d562 18bd 7f56 b63d
00000080: f4f9 8bbc a917 14bf 70ce b1bd de4a 333d
00000090: 9546 75bd 7e59 0e3d 0ef0 713a 53fb c23d
000000a0: 86d5 83bd 4b79 84bd bd2c 0a3a a613 6ebd
000000b0: 7d0b 4d3d 6674 ecbc aca8 5c3d ac96 a03d
000000c0: 2496 a33d af78 c5bc c9c1 923d 4cbf 50bd
000000d0: 9d8b e9bd 5d2e 3f3f 53fb c2bd a10b b6bd
000000e0: 9ac0 033d 979d 463e

exp_avg f4 [47, 3]
0.0 0.0 0.0 7.401217e-07 -7.920572e-07 -8.216378e-08 0.0 0.0
0.0 0.0 0.0 0.0 0.0 0.0 0.0 0.0
0.0 0.0 -5.071246e-07 3.7324153e-06 9.02895e-07 0.0 0.0 0.0
-6.979373e-06 -1.962749e-06 -1.0020506e-06 -1.1197519e-06 -1.5598657e-06 -4.3000418e-07 -1.2813639e-05 -7.789685e-06
-2.892169e-06 0.0 0.0 0.0 0.0 0.0 0.0 -1.0401189e-05
-5.240389e-06 -2.0774853e-06 0.0 0.0 0.0 2.1552203e-06 4.774466e-06 1.3639215e-06
6e-45 6e-45 6e-45 -1.4072536e-06 3.099202e-06 6.750573e-07 2.7550655e-07 2.110933e-06
-1.6902333e-06 2.8125867e-05 2.1028614e-05 1.2730144e-05 0.0 0.0 0.0 6e-45
6e-45 6e-45 -1.2632817e-07 5.4883976e-06 1.195499e-06 0.0 0.0 0.0
-1.0792951e-05 -8.955883e-06 -3.0081096e-06 3.0646877e-06 -1.8462455e-06 -1.3802216e-07 2.2027523e-06 6.63452e-06
1.7524814e-06 6.0864777e-06 2.889938e-06 1.2419158e-06 0.0 0.0 0.0 -1.1246736e-05
-8.749383e-06 -3.0197111e-06 1.5772637e-05 9.540971e-06 1.6786747e-06 2.2538909e-05 -2.9658258e-07 5.67572e-06
0.0 0.0 0.0 3.920105e-05 3.6082627e-06 1.1200022e-05 0.0 0.0
0.0 0.0 0.0 0.0 -2.2143884e-05 -5.1342427e-06 -5.018141e-06 0.0
0.0 0.0 -2.9459145e-06 -6.6278685e-06 -1.7929283e-06 0.0 0.0 0.0
1.2205241e-05 1.672271e-06 3.0773892e-06 2.3583343e-06 -2.2572146e-06 -3.1607746e-07 2.4315532e-05 1.9030056e-05
1.1156259e-05 1.1980836e-06 -4.261992e-06 -8.810704e-07 0.0 0.0 0.0 0.0
0.0 0.0 0.0 0.0 0.0
00000000: 0000 0000 0000 0000 0000 0000 c7ac 4635
00000010: c29d 54b5 0472 b0b3 0000 0000 0000 0000
00000020: 0000 0000 0000 0000 0000 0000 0000 0000
00000030: 0000 0000 0000 0000 0000 0000 0000 0000
00000040: 0000 0000 0000 0000 5621 08b5 687a 7a36
00000050: 795e 7235 0000 0000 0000 0000 0000 0000
00000060: 5c30 eab6 c5b7 03b6 327e 86b5 624a 96b5
00000070: 945c d1b5 53db e6b4 29fa 56b7 71b0 02b7
00000080: 1617 42b6 0000 0000 0000 0000 0000 0000
00000090: 0000 0000 0000 0000 0000 0000 c480 2eb7
000000a0: 99d6 afb6 ed6a 0bb6 0000 0000 0000 0000
000000b0: 0000 0000 67a2 1036 5a34 a036 fc0f b735
000000c0: 0400 0000 0400 0000 0400 0000 dee0 bcb5
000000d0: e3fb 4f36 9635 3535 55e9 9334 8ea9 0d36
000000e0: f9db e2b5 d7ef eb37 9b66 b037 8d93 5537
000000f0: 0000 0000 0000 0000 0000 0000 0400 0000
00000100: 0400 0000 0400 0000 d3a4 07b4 fa28 b836
00000110: 0875 a035 0000 0000 0000 0000 0000 0000
00000120: 5f13 35b7 3941 16b7 eede 49b6 efaa 4d36
00000130: 83cc f7b5 3e33 14b4 ffd2 1336 189e de36
00000140: cd36 eb35 723a cc36 c2f0 4136 e7af a635
00000150: 0000 0000 0000 0000 0000 0000 5db0 3cb7
00000160: 50ca 12b7 3ea6 4ab6 7b4f 8437 2912 2037
00000170: d34e e135 f011 bd37 003a 9fb4 1072 be36
00000180: 0000 0000 0000 0000 0000 0000 cf6b 2438
00000190: 7b25 7236 bae7 3b37 0000 0000 0000 0000
000001a0: 0000 0000 0000 0000 0000 0000 0000 0000
000001b0: a1c1 b9b7 cf46 acb6 8161 a8b6 0000 0000
000001c0: 0000 0000 0000 0000 6db2 45b6 f564 deb6
000001d0: 8ca4 f0b5 0000 0000 0000 0000 0000 0000
000001e0: 1cc5 4c37 cb72 e035 2585 4e36 e043 1e36
000001f0: a77a 17b6 5bb1 a9b4 35f9 cb37 bca2 9f37
00000200: c42b 3b37 d7cd a035 3c02 8fb6 b282 6cb5
00000210: 0000 0000 0000 0000 0000 0000 0000 0000
00000220: 0000 0000 0000 0000 0000 0000 0000 0000
00000230: 0000 0000

exp_avg_sq f4 [47, 3]
0.0 0.0 0.0 3.2160734e-09 4.1550974e-10 2.6584626e-10 0.0 0.0
0.0 0.0 0.0 0.0 0.0 0.0 0.0 0.0
0.0 0.0 3.598506e-08 4.599441e-09 2.9404035e-09 0.0 0.0 0.0
2.28047e-08 3.3135763e-09 2.095816e-09 9.2002983e-10 1.2262442e-10 7.778341e-11 9.357854e-09 2.2783677e-09
1.383334e-09 0.0 0.0 0.0 0.0 0.0 0.0 1.4945224e-08
2.6699634e-09 1.6585168e-09 0.0 0.0 0.0 2.1352573e-08 2.7123042e-09 1.7367859e-09
7.762201e-16 7.0420826e-16 1.95232e-18 3.5267806e-08 4.5318886e-09 2.902552e-09 6.2819883e-09 4.0137668e-10
6.3701333e-10 1.0933265e-07 2.0079574e-08 2.153994e-08 0.0 0.0 0.0 1.7928326e-14
1.2344359e-14 4.757924e-15 6.734937e-08 6.7577663e-09 7.224175e-09 0.0 0.0 0.0
3.27161e-09 1.0654507e-09 6.3324185e-10 3.2237224e-08 4.20301e-09 2.6895923e-09 4.6155552e-08 5.0718145e-09
5.918058e-09 5.204794e-09 9.1289704e-10 5.686424e-10 0.0 0.0 0.0 2.274614e-09
1.0135406e-09 5.8566957e-10 1.3854009e-07 4.265818e-08 1.483174e-08 5.2468744e-07 5.8541797e-08 3.8572253e-08
0.0 0.0 0.0 1.0886026e-07 1.9438884e-09 1.5794491e-08 0.0 0.0
0.0 0.0 0.0 0.0 5.5657205e-07 6.46425e-08 7.688824e-09 0.0
0.0 0.0 3.699046e-08 4.7097655e-09 3.0199592e-09 0.0 0.0 0.0
9.85391e-08 1.0212554e-08 7.0093957e-09 2.9674563e-08 3.8543955e-09 2.47034e-09 7.068313e-08 1.3650788e-08
1.4306575e-08 5.009572e-08 6.4133663e-09 4.111659e-09 0.0 0.0 0.0 0.0
0.0 0.0 0.0 0.0 0.0
00000000: 0000 0000 0000 0000 0000 0000 c301 5d31
00000010: cc6d e42f 8926 922f 0000 0000 0000 0000
00000020: 0000 0000 0000 0000 0000 0000 0000 0000
00000030: 0000 0000 0000 0000 0000 0000 0000 0000
00000040: 0000 0000 0000 0000 fe8d 1a33 1c09 9e31
00000050: 2010 4a31 0000 0000 0000 0000 0000 0000
00000060: 11e4 c332 0db5 6331 fc05 1031 58e5 7c30
00000070: b5d3 062f 2b0c ab2e 47c4 2032 7891 1c31
00000080: bd1f be30 0000 0000 0000 0000 0000 0000
00000090: 0000 0000 0000 0000 0000 0000 e560 8032
000000a0: 7e7a 3731 dff1 e330 0000 0000 0000 0000
000000b0: 0000 0000 ce6a b732 5c63 3a31 b9b3 ee30
000000c0: efba 5f26 66f9 4a26 480e 1022 5d79 1733
000000d0: eab6 9b31 3c76 4731 f4d8 d731 bfa8 dc2f
000000e0: d419 2f30 43ca ea33 737b ac32 d406 b932
000000f0: 0000 0000 0000 0000 0000 0000 e87b a128
00000100: 4f60 5e28 1a6c ab27 b5a1 9033 f131 e831
00000110: 8438 f831 0000 0000 0000 0000 0000 0000
00000120: c6d2 6031 376f 9230 6f10 2e30 3475 0a33
00000130: 116a 9031 cfd3 3831 913c 4633 2744 ae31
00000140: ca57 cb31 dad5 b231 6bef 7a30 a74e 1c30
00000150: 0000 0000 0000 0000 0000 0000 6f4f 1c31
00000160: ca4c 8b30 d5fc 2030 9cc1 1434 2a37 3733
00000170: afce 7e32 3fd8 0c35 636f 7b33 a4aa 2533
00000180: 0000 0000 0000 0000 0000 0000 90c6 e933
00000190: 3f95 0531 74ac 8732 0000 0000 0000 0000
000001a0: 0000 0000 0000 0000 0000 0000 0000 0000
000001b0: 5767 1535 97d1 8a33 ce17 0432 0000 0000
000001c0: 0000 0000 0000 0000 71df 1e33 89d3 a131
000001d0: af87 4f31 0000 0000 0000 0000 0000 0000
000001e0: 719c d333 4a73 2f32 4cd7 f031 0ee7 fe32
000001f0: 9f6f 8431 aec2 2931 76ca 9733 cd84 6a32
00000200: fbc8 7532 d428 5733 915c dc31 8946 8d31
00000210: 0000 0000 0000 0000 0000 0000 0000 0000
00000220: 0000 0000 0000 0000 0000 0000 0000 0000
00000230: 0000 0000

exp_avg f4 [47]
0.0 -1.3409907e-07 0.0 0.0 0.0 0.0 4.128187e-06 0.0
-9.9441695e-06 -3.1096217e-06 -2.3495486e-05 0.0 0.0 -1.7719065e-05 0.0 8.2936085e-06
6e-45 2.3670066e-06 6.962065e-07 6.188462e-05 0.0 6e-45 6.5575778e-06 0.0
-2.2756942e-05 1.0804166e-06 1.05897525e-05 1.0218329e-05 0.0 -2.3015838e-05 2.6992288e-05 2.7918031e-05
0.0 5.400935e-05 0.0 0.0 -3.2296277e-05 0.0 -1.136671e-05 0.0
1.6954908e-05 -2.1495636e-07 5.4501845e-05 -3.944974e-06 0.0 0.0 0.0
00000000: 0000 0000 dffc 0fb4 0000 0000 0000 0000
00000010: 0000 0000 0000 0000 db84 8a36 0000 0000
00000020: e2d5 26b7 e5ae 50b6 2c18 c5b7 0000 0000
00000030: 0000 0000 67a3 94b7 0000 0000 c724 0b37
00000040: 0400 0000 ddd8 1e36 f2e2 3a35 0dc8 8138
00000050: 0000 0000 0400 0000 2a09 dc36 0000 0000
00000060: 29e6 beb7 d502 9135 a4aa 3137 646f 2b37
00000070: 0000 0000 2312 c1b7 7f6d e237 8431 ea37
00000080: 0000 0000 1988 6238 0000 0000 0000 0000
00000090: dd75 07b8 0000 0000 a6b3 3eb7 0000 0000
000000a0: 633a 8e37 c1ce 66b4 e998 6438 125f 84b6
000000b0: 0000 0000 0000 0000 0000 0000

exp_avg_sq f4 [47]
0.0 8.567113e-09 0.0 0.0 0.0 0.0 9.545956e-08 0.0
6.318009e-08 2.4634266e-09 3.1727744e-08 0.0 0.0 4.459172e-08 0.0 5.6463495e-08
3.1011005e-15 9.3770865e-08 1.5023836e-08 3.7564877e-07 0.0 9.5875104e-14 1.7853259e-07 0.0
1.2584102e-08 8.615202e-08 1.2940141e-07 1.5429146e-08 0.0 1.0405034e-08 4.7929854e-07 1.3286573e-06
0.0 2.4687304e-07 0.0 0.0 1.1566848e-06 0.0 9.791606e-08 0.0
2.440418e-07 7.922106e-08 2.467511e-07 1.330406e-07 0.0 0.0 0.0
00000000: 0000 0000 902e 1332 0000 0000 0000 0000
00000010: 0000 0000 0000 0000 73ff cc33 0000 0000
00000020: 9fad 8733 0f49 2931 0645 0833 0000 0000
00000030: 0000 0000 1d85 3f33 0000 0000 4582 7233
00000040: 3575 5f27 145f c933 c40d 8132 c6ac c934
00000050: 0000 0000 3ce4 d729 aab2 3f34 0000 0000
00000060: 7731 5832 9302 b933 97f1 0a34 0d89 8432
00000070: 0000 0000 d3c1 3232 25a9 0035 5154 b235
00000080: 0000 0000 f989 8434 0000 0000 0000 0000
00000090: 633f 9b35 0000 0000 ec45 d233 0000 0000
000000a0: d904 8334 3d20 aa33 3779 8434 ecd9 0e34
000000b0: 0000 0000 0000 0000 0000 0000

exp_avg f4 [7, 47]
0.0 0.0 0.0 0.0 0.0 0.0 0.0 0.0
0.0 0.0 0.0 0.0 0.0 0.0 0.0 0.0
0.0 0.0 0.0 0.0 0.0 0.0 0.0 0.0
0.0 0.0 0.0 0.0 0.0 0.0 0.0 0.0
0.0 0.0 0.0 0.0 0.0 0.0 0.0 0.0
0.0 0.0 0.0 0.0 0.0 0.0 0.0 0.0
0.0 0.0 0.0 0.0 0.0 0.0 0.0 0.0
0.0 0.0 0.0 0.0 0.0 0.0 0.0 0.0
0.0 0.0 0.0 0.0 0.0 0.0 0.0 0.0
0.0 0.0 0.0 0.0 0.0 0.0 0.0 0.0
0.0 0.0 0.0 0.0 0.0 0.0 0.0 0.0
0.0 0.0 0.0 0.0 0.0 0.0 0.0 0.0
0.0 0.0 0.0 0.0 0.0 0.0 0.0 0.0
0.0 0.0 0.0 0.0 0.0 0.0 0.0 0.0
0.0 0.0 0.0 0.0 0.0 0.0 0.0 0.0
0.0 0.0 0.0 0.0 0.0 0.0 0.0 0.0
0.0 0.0 0.0 0.0 0.0 0.0 0.0 0.0
0.0 0.0 0.0 0.0 0.0 0.0 1.3927831e-05 0.0
0.0 0.0 0.0 -4.2662236e-06 0.0 9.542613e-06 1.25158185e-05 1.9281748e-05
0.0 0.0 2.622615e-05 0.0 1.4807879e-05 -6e-45 1.7039245e-05 7.668472e-06
-2.7380072e-06 0.0 6e-45 5.5728074e-06 0.0 3.1140895e-05 9.747402e-06 2.676882e-06
5.951794e-06 0.0 1.3319978e-05 -1.3779598e-06 2.4416366e-05 0.0 1.9041707e-06 0.0
0.0 3.3355875e-06 0.0 1.0293263e-05 0.0 2.5750323e-05 1.3923867e-06 -2.9949113e-06
2.0951991e-05 0.0 0.0 0.0 0.0 -4.481076e-05 0.0 0.0
0.0 0.0 -4.0176314e-05 0.0 -2.3436623e-05 -2.687182e-05 -2.2641469e-05 0.0
0.0 -3.7209076e-05 0.0 -4.920918e-05 -6e-45 -4.5890054e-05 2.8933646e-06 -2.9851356e-06
0.0 6e-45 2.0365708e-06 0.0 -3.8081525e-05 -5.58469e-05 -9.415311e-08 -5.741732e-05
0.0 -5.645819e-06 -1.6890663e-05 -1.1185758e-05 0.0 1.0635055e-06 0.0 0.0
-5.3742624e-06 0.0 -4.188841e-05 0.0 -9.499517e-06 -2.742887e-05 -3.321884e-06 -7.132305e-05
0.0 0.0 0.0 0.0 0.0 0.0 0.0 0.0
0.0 0.0 0.0 0.0 0.0 0.0 0.0 0.0
0.0 0.0 0.0 0.0 0.0 0.0 0.0 0.0
00000000: 0000 0000 0000 0000 0000 0000 0000 0000
00000010: 0000 0000 0000 0000 0000 0000 0000 0000
00000020: 0000 0000 0000 0000 0000 0000 0000 0000
00000030: 0000 0000 0000 0000 0000 0000 0000 0000
00000040: 0000 0000 0000 0000 0000 0000 0000 0000
00000050: 0000 0000 0000 0000 0000 0000 0000 0000
00000060: 0000 0000 0000 0000 0000 0000 0000 0000
00000070: 0000 0000 0000 0000 0000 0000 0000 0000
00000080: 0000 0000 0000 0000 0000 0000 0000 0000
00000090: 0000 0000 0000 0000 0000 0000 0000 0000
000000a0: 0000 0000 0000 0000 0000 0000 0000 0000
000000b0: 0000 0000 0000 0000 0000 0000 0000 0000
000000c0: 0000 0000 0000 0000 0000 0000 0000 0000
000000d0: 0000 0000 0000 0000 0000 0000 0000 0000
000000e0: 0000 0000 0000 0000 0000 0000 0000 0000
000000f0: 0000 0000 0000 0000 0000 0000 0000 0000
00000100: 0000 0000 0000 0000 0000 0000 0000 0000
00000110: 0000 0000 0000 0000 0000 0000 0000 0000
00000120: 0000 0000 0000 0000 0000 0000 0000 0000
00000130: 0000 0000 0000 0000 0000 0000 0000 0000
00000140: 0000 0000 0000 0000 0000 0000 0000 0000
00000150: 0000 0000 0000 0000 0000 0000 0000 0000
00000160: 0000 0000 0000 0000 0000 0000 0000 0000
00000170: 0000 0000 0000 0000 0000 0000 0000 0000
00000180: 0000 0000 0000 0000 0000 0000 0000 0000
00000190: 0000 0000 0000 0000 0000 0000 0000 0000
000001a0: 0000 0000 0000 0000 0000 0000 0000 0000
000001b0: 0000 0000 0000 0000 0000 0000 0000 0000
000001c0: 0000 0000 0000 0000 0000 0000 0000 0000
000001d0: 0000 0000 0000 0000 0000 0000 0000 0000
000001e0: 0000 0000 0000 0000 0000 0000 0000 0000
000001f0: 0000 0000 0000 0000 0000 0000 0000 0000
00000200: 0000 0000 0000 0000 0000 0000 0000 0000
00000210: 0000 0000 0000 0000 0000 0000 0000 0000
00000220: 0000 0000 0000 0000 0000 0000 0000 0000
00000230: 0000 0000 0000 0000 94ab 6937 0000 0000
00000240: 0000 0000 0000 0000 0000 0000 9526 8fb6
00000250: 0000 0000 3619 2037 08fb 5137 3dbf a137
00000260: 0000 0000 0000 0000 3a00 dc37 0000 0000
00000270: 5b6f 7837 0400 0080 80ef 8e37 d6a7 0037
00000280: 9bbe 37b6 0000 0000 0400 0000 0dfe ba36
00000290: 0000 0000 489d 0238 c688 2337 7ca4 3336
000002a0: 85b5 c736 0000 0000 df78 5f37 57f2 b8b5
000002b0: bfd1 cc37 0000 0000 cf92 ff35 0000 0000
000002c0: 0000 0000 f5d8 5f36 0000 0000 3ab1 2c37
000002d0: 0000 0000 6602 d837 0be2 ba35 2ffc 48b6
000002e0: 0fc2 af37 0000 0000 0000 0000 0000 0000
000002f0: 0000 0000 30f3 3bb8 0000 0000 0000 0000
00000300: 0000 0000 0000 0000 fd82 28b8 0000 0000
00000310: c499 c4b7 cb6a e1b7 2fee bdb7 0000 0000
00000320: 0000 0000 f110 1cb8 0000 0000 f465 4eb8
00000330: 0400 0080 127a 40b8 a02b 4236 3d54 48b6
00000340: 0000 0000 0400 0000 05ac 0836 0000 0000
00000350: bab9 1fb8 273d 6ab8 3831 cab3 61d3 70b8
00000360: 0000 0000 3771 bdb6 6cb0 8db7 77aa 3bb7
00000370: 0000 0000 c5bd 8e35 0000 0000 0000 0000
00000380: 9054 b4b6 0000 0000 56b1 2fb8 0000 0000
00000390: 1d60 1fb7 0d17 e6b7 88ed 5eb6 4593 95b8
000003a0: 0000 0000 0000 0000 0000 0000 0000 0000
000003b0: 0000 0000 0000 0000 0000 0000 0000 0000
000003c0: 0000 0000 0000 0000 0000 0000 0000 0000
000003d0: 0000 0000 0000 0000 0000 0000 0000 0000
000003e0: 0000 0000 0000 0000 0000 0000 0000 0000
000003f0: 0000 0000 0000 0000 0000 0000 0000 0000

exp_avg_sq f4 [7, 47]
0.0 0.0 0.0 0.0 0.0 0.0 0.0 0.0
0.0 0.0 0.0 0.0 0.0 0.0 0.0 0.0
0.0 0.0 0.0 0.0 0.0 0.0 0.0 0.0
0.0 0.0 0.0 0.0 0.0 0.0 0.0 0.0
0.0 0.0 0.0 0.0 0.0 0.0 0.0 0.0
0.0 0.0 0.0 0.0 0.0 0.0 0.0 0.0
0.0 0.0 0.0 0.0 0.0 0.0 0.0 0.0
0.0 0.0 0.0 0.0 0.0 0.0 0.0 0.0
0.0 0.0 0.0 0.0 0.0 0.0 0.0 0.0
0.0 0.0 0.0 0.0 0.0 0.0 0.0 0.0
0.0 0.0 0.0 0.0 0.0 0.0 0.0 0.0
0.0 0.0 0.0 0.0 0.0 0.0 0.0 0.0
0.0 0.0 0.0 0.0 0.0 0.0 0.0 0.0
0.0 0.0 0.0 0.0 0.0 0.0 0.0 0.0
0.0 0.0 0.0 0.0 0.0 0.0 0.0 0.0
0.0 0.0 0.0 0.0 0.0 0.0 0.0 0.0
0.0 0.0 0.0 0.0 0.0 0.0 0.0 0.0
0.0 0.0 0.0 0.0 0.0 0.0 1.6833908e-06 0.0
0.0 0.0 0.0 8.861002e-07 0.0 6.613492e-07 6.7726256e-07 8.136901e-07
0.0 0.0 1.9265342e-06 0.0 1.6542639e-06 5.373608e-16 2.1051794e-06 1.4577099e-08
4.234928e-09 0.0 2.5200702e-15 4.272913e-08 0.0 1.8763506e-06 2.2608388e-06 3.5571592e-08
1.7276627e-06 0.0 1.08322325e-07 4.036807e-08 2.8491024e-07 0.0 7.19953e-10 0.0
0.0 2.4480606e-08 0.0 1.1304037e-06 0.0 2.751218e-07 2.6006617e-07 5.3304685e-09
3.3807655e-06 0.0 0.0 0.0 0.0 4.0439172e-08 0.0 0.0
0.0 0.0 3.6848096e-08 0.0 1.6701595e-08 1.1761982e-08 1.2106998e-08 0.0
0.0 3.3471345e-08 0.0 3.176398e-08 4.6818555e-18 5.0526054e-08 6.235614e-11 1.4808358e-09
0.0 4.8294616e-17 8.611863e-10 0.0 2.4027555e-08 6.6746225e-08 1.5146862e-09 4.5666297e-08
0.0 3.7877362e-10 2.6996285e-09 9.217575e-10 0.0 1.0050247e-11 0.0 0.0
1.7845551e-10 0.0 2.5891845e-08 0.0 8.383593e-10 5.9106955e-09 1.8578863e-09 6.990961e-08
0.0 0.0 0.0 0.0 0.0 0.0 0.0 0.0
0.0 0.0 0.0 0.0 0.0 0.0 0.0 0.0
0.0 0.0 0.0 0.0 0.0 0.0 0.0 0.0
00000000: 0000 0000 0000 0000 0000 0000 0000 0000
00000010: 0000 0000 0000 0000 0000 0000 0000 0000
00000020: 0000 0000 0000 0000 0000 0000 0000 0000
00000030: 0000 0000 0000 0000 0000 0000 0000 0000
00000040: 0000 0000 0000 0000 0000 0000 0000 0000
00000050: 0000 0000 0000 0000 0000 0000 0000 0000
00000060: 0000 0000 0000 0000 0000 0000 0000 0000
00000070: 0000 0000 0000 0000 0000 0000 0000 0000
00000080: 0000 0000 0000 0000 0000 0000 0000 0000
00000090: 0000 0000 0000 0000 0000 0000 0000 0000
000000a0: 0000 0000 0000 0000 0000 0000 0000 0000
000000b0: 0000 0000 0000 0000 0000 0000 0000 0000
000000c0: 0000 0000 0000 0000 0000 0000 0000 0000
000000d0: 0000 0000 0000 0000 0000 0000 0000 0000
000000e0: 0000 0000 0000 0000 0000 0000 0000 0000
000000f0: 0000 0000 0000 0000 0000 0000 0000 0000
00000100: 0000 0000 0000 0000 0000 0000 0000 0000
00000110: 0000 0000 0000 0000 0000 0000 0000 0000
00000120: 0000 0000 0000 0000 0000 0000 0000 0000
00000130: 0000 0000 0000 0000 0000 0000 0000 0000
00000140: 0000 0000 0000 0000 0000 0000 0000 0000
00000150: 0000 0000 0000 0000 0000 0000 0000 0000
00000160: 0000 0000 0000 0000 0000 0000 0000 0000
00000170: 0000 0000 0000 0000 0000 0000 0000 0000
00000180: 0000 0000 0000 0000 0000 0000 0000 0000
00000190: 0000 0000 0000 0000 0000 0000 0000 0000
000001a0: 0000 0000 0000 0000 0000 0000 0000 0000
000001b0: 0000 0000 0000 0000 0000 0000 0000 0000
000001c0: 0000 0000 0000 0000 0000 0000 0000 0000
000001d0: 0000 0000 0000 0000 0000 0000 0000 0000
000001e0: 0000 0000 0000 0000 0000 0000 0000 0000
000001f0: 0000 0000 0000 0000 0000 0000 0000 0000
00000200: 0000 0000 0000 0000 0000 0000 0000 0000
00000210: 0000 0000 0000 0000 0000 0000 0000 0000
00000220: 0000 0000 0000 0000 0000 0000 0000 0000
00000230: 0000 0000 0000 0000 def0 e135 0000 0000
00000240: 0000 0000 0000 0000 0000 0000 58dc 6d35
00000250: 0000 0000 9287 3135 21cd 3535 5c6c 5a35
00000260: 0000 0000 0000 0000 9b49 0136 0000 0000
00000270: 1308 de35 3be2 1a26 b546 0d36 c26e 7a32
00000280: d282 9131 0000 0000 1797 3527 2d85 3733
00000290: 0000 0000 ead6 fb35 eab8 1736 61c7 1833
000002a0: 0ae2 e735 0000 0000 d49e e833 2a61 2d33
000002b0: c4f5 9834 0000 0000 30e6 4530 0000 0000
000002c0: 0000 0000 6c49 d232 0000 0000 60b8 9735
000002d0: 0000 0000 74b4 9334 399f 8b34 4c27 b731
000002e0: 1ce1 6236 0000 0000 0000 0000 0000 0000
000002f0: 0000 0000 57af 2d33 0000 0000 0000 0000
00000300: 0000 0000 0000 0000 e942 1e33 0000 0000
00000310: 3277 8f32 be11 4a32 24ff 4f32 0000 0000
00000320: 0000 0000 22c2 0f33 0000 0000 de6c 0833
00000330: e0ba ac22 fc01 5933 631f 892e 4786 cb30
00000340: 0000 0000 38b8 5e24 99b8 6c30 0000 0000
00000350: 2765 ce32 2056 8f33 482d d030 a022 4433
00000360: 0000 0000 a63b d02f 5e84 3931 eb5e 7d30
00000370: 0000 0000 4ace 302d 0000 0000 0000 0000
00000380: c336 442f 0000 0000 c568 de32 0000 0000
00000390: 4b72 6630 0717 cb31 9058 ff30 3721 9633
000003a0: 0000 0000 0000 0000 0000 0000 0000 0000
000003b0: 0000 0000 0000 0000 0000 0000 0000 0000
000003c0: 0000 0000 0000 0000 0000 0000 0000 0000
000003d0: 0000 0000 0000 0000 0000 0000 0000 0000
000003e0: 0000 0000 0000 0000 0000 0000 0000 0000
000003f0: 0000 0000 0000 0000 0000 0000 0000 0000

exp_avg f4 [7]
0.0 0.0 0.0 2.064797e-05 -0.00010750973 0.0 0.0
00000000: 0000 0000 0000 0000 0000 0000 2e35 ad37
00000010: d976 e1b8 0000 0000 0000 0000

exp_avg_sq f4 [7]
0.0 0.0 0.0 8.175837e-06 2.2456356e-07 0.0 0.0
00000000: 0000 0000 0000 0000 0000 0000 f42a 0937
00000010: 901f 7134 0000 0000 0000 0000

exp_avg f4 [58, 7]
0.0 0.0 0.0 9.398398e-06 1.2439476e-05 0.0 0.0 0.0
0.0 0.0 0.0 0.0 0.0 0.0 0.0 0.0
0.0 0.0 0.0 0.0 0.0 0.0 0.0 0.0
0.0 0.0 0.0 0.0 0.0 0.0 0.0 -9.649431e-06
-1.2781663e-05 0.0 0.0 0.0 0.0 0.0 -2.3851417e-06 1.2195325e-06
0.0 0.0 0.0 0.0 0.0 1.9705685e-06 2.7220194e-06 0.0
0.0 0.0 0.0 0.0 6e-45 6e-45 0.0 0.0
0.0 0.0 0.0 2.9694354e-08 5.044551e-08 0.0 0.0 0.0
0.0 0.0 5.699497e-06 7.5366584e-06 0.0 0.0 0.0 0.0
0.0 0.0 0.0 0.0 0.0 0.0 0.0 0.0
6e-45 6e-45 0.0 0.0 0.0 0.0 0.0 3.4529803e-06
4.566627e-06 0.0 0.0 0.0 0.0 0.0 -5.4514144e-06 -6.1395967e-06
0.0 0.0 0.0 0.0 0.0 1.3722819e-05 1.8525947e-05 0.0
0.0 0.0 0.0 0.0 0.0 0.0 0.0 0.0
0.0 0.0 0.0 0.0 0.0 0.0 0.0 0.0
0.0 0.0 -5.082953e-06 -6.7384744e-06 0.0 0.0 0.0 0.0
0.0 0.0 0.0 0.0 0.0 0.0 0.0 0.0
1.211477e-05 1.6030544e-05 0.0 0.0 0.0 0.0 0.0 0.0
0.0 0.0 0.0 0.0 0.0 0.0 9.492706e-06 8.714392e-06
0.0 0.0 0.0 0.0 0.0 0.0 0.0 0.0
0.0 0.0 0.0 0.0 0.0 0.0 0.0 0.0
0.0 0.0 0.0 -6.693949e-06 -8.871055e-06 0.0 0.0 0.0
0.0 0.0 0.0 0.0 0.0 0.0 0.0 0.0
0.0 2.880302e-06 3.806845e-06 0.0 0.0 0.0 0.0 0.0
0.0 0.0 0.0 0.0 0.0 0.0 0.0 1.1968106e-06
1.5750144e-06 0.0 0.0 0.0 0.0 0.0 0.0 0.0
0.0 0.0 0.0 0.0 0.0 0.0 0.0 0.0
0.0 0.0 0.0 0.0 0.0 0.0 0.0 0.0
0.0 0.0 0.0 0.0 0.0 0.0 0.0 0.0
0.0 0.0 -7.3785045e-06 -4.3759537e-06 0.0 0.0 0.0 0.0
0.0 0.0 0.0 0.0 0.0 0.0 0.0 0.0
4.620034e-06 6.1043147e-06 0.0 0.0 0.0 0.0 0.0 -5.8425107e-06
00000000: 0000 0000 0000 0000 0000 0000 d0ad 1d37
00000010: 25b3 5037 0000 0000 0000 0000 0000 0000
00000020: 0000 0000 0000 0000 0000 0000 0000 0000
00000030: 0000 0000 0000 0000 0000 0000 0000 0000
00000040: 0000 0000 0000 0000 0000 0000 0000 0000
00000050: 0000 0000 0000 0000 0000 0000 0000 0000
00000060: 0000 0000 0000 0000 0000 0000 0000 0000
00000070: 0000 0000 0000 0000 0000 0000 fee3 21b7
00000080: d370 56b7 0000 0000 0000 0000 0000 0000
00000090: 0000 0000 0000 0000 6c10 20b6 d1ae a335
000000a0: 0000 0000 0000 0000 0000 0000 0000 0000
000000b0: 0000 0000 1c3e 0436 f0ab 3636 0000 0000
000000c0: 0000 0000 0000 0000 0000 0000 0000 0000
000000d0: 0400 0000 0400 0000 0000 0000 0000 0000
000000e0: 0000 0000 0000 0000 0000 0000 9312 ff32
000000f0: 6da9 5833 0000 0000 0000 0000 0000 0000
00000100: 0000 0000 0000 0000 4e3e bf36 67e3 fc36
00000110: 0000 0000 0000 0000 0000 0000 0000 0000
00000120: 0000 0000 0000 0000 0000 0000 0000 0000
00000130: 0000 0000 0000 0000 0000 0000 0000 0000
00000140: 0400 0000 0400 0000 0000 0000 0000 0000
00000150: 0000 0000 0000 0000 0000 0000 c0b9 6736
00000160: 073b 9936 0000 0000 0000 0000 0000 0000
00000170: 0000 0000 0000 0000 4beb b6b6 bc02 ceb6
00000180: 0000 0000 0000 0000 0000 0000 0000 0000
00000190: 0000 0000 0f3b 6637 2b68 9b37 0000 0000
000001a0: 0000 0000 0000 0000 0000 0000 0000 0000
000001b0: 0000 0000 0000 0000 0000 0000 0000 0000
000001c0: 0000 0000 0000 0000 0000 0000 0000 0000
000001d0: 0000 0000 0000 0000 0000 0000 0000 0000
000001e0: 0000 0000 0000 0000 3c8e aab6 0e1b e2b6
000001f0: 0000 0000 0000 0000 0000 0000 0000 0000
00000200: 0000 0000 0000 0000 0000 0000 0000 0000
00000210: 0000 0000 0000 0000 0000 0000 0000 0000
00000220: 8a40 4b37 5579 8637 0000 0000 0000 0000
00000230: 0000 0000 0000 0000 0000 0000 0000 0000
00000240: 0000 0000 0000 0000 0000 0000 0000 0000
00000250: 0000 0000 0000 0000 dd42 1f37 0734 1237
00000260: 0000 0000 0000 0000 0000 0000 0000 0000
00000270: 0000 0000 0000 0000 0000 0000 0000 0000
00000280: 0000 0000 0000 0000 0000 0000 0000 0000
00000290: 0000 0000 0000 0000 0000 0000 0000 0000
000002a0: 0000 0000 0000 0000 0000 0000 969c e0b6
000002b0: e4d4 14b7 0000 0000 0000 0000 0000 0000
000002c0: 0000 0000 0000 0000 0000 0000 0000 0000
000002d0: 0000 0000 0000 0000 0000 0000 0000 0000
000002e0: 0000 0000 364b 4136 1979 7f36 0000 0000
000002f0: 0000 0000 0000 0000 0000 0000 0000 0000
00000300: 0000 0000 0000 0000 0000 0000 0000 0000
00000310: 0000 0000 0000 0000 0000 0000 19a2 a035
00000320: 1565 d335 0000 0000 0000 0000 0000 0000
00000330: 0000 0000 0000 0000 0000 0000 0000 0000
00000340: 0000 0000 0000 0000 0000 0000 0000 0000
00000350: 0000 0000 0000 0000 0000 0000 0000 0000
00000360: 0000 0000 0000 0000 0000 0000 0000 0000
00000370: 0000 0000 0000 0000 0000 0000 0000 0000
00000380: 0000 0000 0000 0000 0000 0000 0000 0000
00000390: 0000 0000 0000 0000 0000 0000 0000 0000
000003a0: 0000 0000 0000 0000 df94 f7b6 28d5 92b6
000003b0: 0000 0000 0000 0000 0000 0000 0000 0000
000003c0: 0000 0000 0000 0000 0000 0000 0000 0000
000003d0: 0000 0000 0000 0000 0000 0000 0000 0000
000003e0: ca05 9b36 aad3 cc36 0000 0000 0000 0000
000003f0: 0000 0000 0000 0000 0000 0000 c90a c4b6

exp_avg_sq f4 [58, 7]
0.0 0.0 0.0 7.0352963e-09 1.5571882e-08 0.0 0.0 0.0
0.0 0.0 0.0 0.0 0.0 0.0 0.0 0.0
0.0 0.0 0.0 0.0 0.0 0.0 0.0 0.0
0.0 0.0 0.0 0.0 0.0 0.0 0.0 8.500154e-09
1.87336e-08 0.0 0.0 0.0 0.0 0.0 8.238553e-10 5.260131e-09
0.0 0.0 0.0 0.0 0.0 3.0111152e-10 6.682675e-10 0.0
0.0 0.0 0.0 0.0 9.5529335e-18 5.1613883e-17 0.0 0.0
0.0 0.0 0.0 3.0580274e-12 3.522391e-12 0.0 0.0 0.0
0.0 0.0 2.7609786e-09 6.0568293e-09 0.0 0.0 0.0 0.0
0.0 0.0 0.0 0.0 0.0 0.0 0.0 0.0
1.49866e-18 6.4524865e-18 0.0 0.0 0.0 0.0 0.0 9.866412e-10
2.19068e-09 0.0 0.0 0.0 0.0 0.0 7.3548168e-09 2.9678937e-08
0.0 0.0 0.0 0.0 0.0 2.2601569e-08 4.94333e-08 0.0
0.0 0.0 0.0 0.0 0.0 0.0 0.0 0.0
0.0 0.0 0.0 0.0 0.0 0.0 0.0 0.0
0.0 0.0 2.2981326e-09 5.072884e-09 0.0 0.0 0.0 0.0
0.0 0.0 0.0 0.0 0.0 0.0 0.0 0.0
1.1939202e-08 2.6366326e-08 0.0 0.0 0.0 0.0 0.0 0.0
0.0 0.0 0.0 0.0 0.0 0.0 8.2618024e-10 1.2561328e-09
0.0 0.0 0.0 0.0 0.0 0.0 0.0 0.0
0.0 0.0 0.0 0.0 0.0 0.0 0.0 0.0
0.0 0.0 0.0 3.9268406e-09 8.670953e-09 0.0 0.0 0.0
0.0 0.0 0.0 0.0 0.0 0.0 0.0 0.0
0.0 6.304512e-10 1.3912899e-09 0.0 0.0 0.0 0.0 0.0
0.0 0.0 0.0 0.0 0.0 0.0 0.0 1.7290065e-10
3.6129424e-10 0.0 0.0 0.0 0.0 0.0 0.0 0.0
0.0 0.0 0.0 0.0 0.0 0.0 0.0 0.0
0.0 0.0 0.0 0.0 0.0 0.0 0.0 0.0
0.0 0.0 0.0 0.0 0.0 0.0 0.0 0.0
0.0 0.0 4.2226908e-08 1.6052843e-07 0.0 0.0 0.0 0.0
0.0 0.0 0.0 0.0 0.0 0.0 0.0 0.0
2.000274e-09 4.3948876e-09 0.0 0.0 0.0 0.0 0.0 3.2763872e-09
00000000: 0000 0000 0000 0000 0000 0000 1fbb f131
00000010: eec2 8532 0000 0000 0000 0000 0000 0000
00000020: 0000 0000 0000 0000 0000 0000 0000 0000
00000030: 0000 0000 0000 0000 0000 0000 0000 0000
00000040: 0000 0000 0000 0000 0000 0000 0000 0000
00000050: 0000 0000 0000 0000 0000 0000 0000 0000
00000060: 0000 0000 0000 0000 0000 0000 0000 0000
00000070: 0000 0000 0000 0000 0000 0000 1308 1232
00000080: 9feb a032 0000 0000 0000 0000 0000 0000
00000090: 0000 0000 0000 0000 aa75 6230 9abc b431
000000a0: 0000 0000 0000 0000 0000 0000 0000 0000
000000b0: 0000 0000 ae89 a52f 25b1 3730 0000 0000
000000c0: 0000 0000 0000 0000 0000 0000 0000 0000
000000d0: 7438 3023 eb06 6e24 0000 0000 0000 0000
000000e0: 0000 0000 0000 0000 0000 0000 8630 572c
000000f0: c1dd 772c 0000 0000 0000 0000 0000 0000
00000100: 0000 0000 0000 0000 a6bb 3d31 6f1c d031
00000110: 0000 0000 0000 0000 0000 0000 0000 0000
00000120: 0000 0000 0000 0000 0000 0000 0000 0000
00000130: 0000 0000 0000 0000 0000 0000 0000 0000
00000140: c629 dd21 030e ee22 0000 0000 0000 0000
00000150: 0000 0000 0000 0000 0000 0000 5a9a 8730
00000160: da8a 1631 0000 0000 0000 0000 0000 0000
00000170: 0000 0000 0000 0000 a7b5 fc31 acf0 fe32
00000180: 0000 0000 0000 0000 0000 0000 0000 0000
00000190: 0000 0000 6025 c232 7d50 5433 0000 0000
000001a0: 0000 0000 0000 0000 0000 0000 0000 0000
000001b0: 0000 0000 0000 0000 0000 0000 0000 0000
000001c0: 0000 0000 0000 0000 0000 0000 0000 0000
000001d0: 0000 0000 0000 0000 0000 0000 0000 0000
000001e0: 0000 0000 0000 0000 2ded 1d31 8f4d ae31
000001f0: 0000 0000 0000 0000 0000 0000 0000 0000
00000200: 0000 0000 0000 0000 0000 0000 0000 0000
00000210: 0000 0000 0000 0000 0000 0000 0000 0000
00000220: 2a1d 4d32 2a7c e232 0000 0000 0000 0000
00000230: 0000 0000 0000 0000 0000 0000 0000 0000
00000240: 0000 0000 0000 0000 0000 0000 0000 0000
00000250: 0000 0000 0000 0000 4419 6330 3ea4 ac30
00000260: 0000 0000 0000 0000 0000 0000 0000 0000
00000270: 0000 0000 0000 0000 0000 0000 0000 0000
00000280: 0000 0000 0000 0000 0000 0000 0000 0000
00000290: 0000 0000 0000 0000 0000 0000 0000 0000
000002a0: 0000 0000 0000 0000 0000 0000 dbec 8631
000002b0: 41f7 1432 0000 0000 0000 0000 0000 0000
000002c0: 0000 0000 0000 0000 0000 0000 0000 0000
000002d0: 0000 0000 0000 0000 0000 0000 0000 0000
000002e0: 0000 0000 0f4c 2d30 a937 bf30 0000 0000
000002f0: 0000 0000 0000 0000 0000 0000 0000 0000
00000300: 0000 0000 0000 0000 0000 0000 0000 0000
00000310: 0000 0000 0000 0000 0000 0000 351b 3e2f
00000320: a59f c62f 0000 0000 0000 0000 0000 0000
00000330: 0000 0000 0000 0000 0000 0000 0000 0000
00000340: 0000 0000 0000 0000 0000 0000 0000 0000
00000350: 0000 0000 0000 0000 0000 0000 0000 0000
00000360: 0000 0000 0000 0000 0000 0000 0000 0000
00000370: 0000 0000 0000 0000 0000 0000 0000 0000
00000380: 0000 0000 0000 0000 0000 0000 0000 0000
00000390: 0000 0000 0000 0000 0000 0000 0000 0000
000003a0: 0000 0000 0000 0000 fa5c 3533 b85d 2c34
000003b0: 0000 0000 0000 0000 0000 0000 0000 0000
000003c0: 0000 0000 0000 0000 0000 0000 0000 0000
000003d0: 0000 0000 0000 0000 0000 0000 0000 0000
000003e0: 3175 0931 d701 9731 0000 0000 0000 0000
000003f0: 0000 0000 0000 0000 0000 0000 d026 6131

exp_avg f4 [58]
5.614427e-05 0.0 0.0 0.0 -5.7758647e-05 -5.522368e-05 1.2049066e-05 6e-45
9.667943e-08 3.392465e-05 0.0 6e-45 2.0625004e-05 -7.182009e-05 4.9872855e-05 0.0
0.0 -3.0494775e-05 0.0 7.23062e-05 0.0 0.00015388944 0.0 0.0
-4.0128973e-05 0.0 1.7112556e-05 0.0 7.012534e-06 0.0 0.0 0.0
0.0 -0.00012580433 0.0 2.7478143e-05 -3.503019e-05 2.195755e-05 9.6817e-07 5.8418907e-05
0.0 0.0 7.045625e-07 -3.3945493e-05 0.0 -1.6350561e-05 0.0 4.826433e-05
4.9147144e-05 0.0 0.0 -2.9623534e-05 -6.7620844e-05 0.00020880967 0.0 -2.0011632e-05
2.0301926e-05 4.961498e-05
00000000: 737c 6b38 0000 0000 0000 0000 0000 0000
00000010: e041 72b8 fa9f 67b8 5826 4a37 0400 0000
00000020: 149e cf33 514a 0e38 0000 0000 0400 0000
00000030: dc03 ad37 1e9e 96b8 922e 5138 0000 0000
00000040: 0000 0000 08cf ffb7 0000 0000 18a3 9738
00000050: 0000 0000 625d 2139 0000 0000 0000 0000
00000060: 2850 28b8 0000 0000 ef8c 8f37 0000 0000
00000070: 354d eb36 0000 0000 0000 0000 0000 0000
00000080: 0000 0000 58ea 03b9 0000 0000 dd80 e637
00000090: 61ed 12b8 7b31 b837 11f2 8135 d306 7538
000000a0: 0000 0000 0000 0000 2b21 3d35 b260 0eb8
000000b0: 0000 0000 9028 89b7 0000 0000 6e6f 4a38
000000c0: 5823 4e38 0000 0000 0000 0000 0e80 f8b7
000000d0: aacf 8db8 ebf3 5a39 0000 0000 a7de a7b7
000000e0: 0e4e aa37 ae19 5038

exp_avg_sq f4 [58]
2.581105e-07 0.0 0.0 0.0 3.1313343e-07 1.7450921e-07 1.0949044e-08 2.9565426e-16
1.08300154e-10 1.01826174e-07 0.0 4.905327e-17 3.6361406e-08 6.4749133e-07 7.955744e-07 0.0
0.0 8.434938e-08 0.0 4.3867703e-07 0.0 2.3095615e-07 0.0 0.0
1.4415679e-07 0.0 2.3188113e-08 0.0 6.500574e-09 0.0 0.0 0.0
0.0 3.3321282e-06 0.0 7.430384e-08 1.2088219e-07 3.59512e-08 6.3202756e-11 2.9418388e-07
0.0 0.0 5.7165286e-11 1.0992963e-07 0.0 2.9577972e-08 0.0 1.9541288e-07
1.9948733e-07 0.0 0.0 8.3028354e-08 4.1428825e-07 2.4257477e-07 0.0 1.7836915e-07
3.131859e-08 1.0774266e-06
00000000: 7092 8a34 0000 0000 0000 0000 0000 0000
00000010: bb1c a834 ba60 3b34 681a 3c32 de6e aa25
00000020: 9127 ee2e 88ab da33 0000 0000 e137 6224
00000030: ca2b 1c33 44cf 2d35 758f 5535 0000 0000
00000040: 0000 0000 9023 b533 0000 0000 5083 eb34
00000050: 0000 0000 befc 7734 0000 0000 0000 0000
00000060: 84c9 1a34 0000 0000 332f c732 0000 0000
00000070: a75b df31 0000 0000 0000 0000 0000 0000
00000080: 0000 0000 879d 5f36 0000 0000 f890 9f33
00000090: d8cb 0134 c368 1a33 fdfb 8a2e 53f0 9d34
000000a0: 0000 0000 0000 0000 646a 7b2e 7412 ec33
000000b0: 0000 0000 a612 fe32 0000 0000 afd2 5134
000000c0: a932 5634 0000 0000 0000 0000 524d b233
000000d0: 586b de34 393b 8234 0000 0000 bd85 3f34
000000e0: 2783 0633 199c 9035
