src/lightning_logs/version_35/checkpoints/epoch=199-step=400.ckpt (torch, 440579 bytes, 33 tensors)

phi.phi.0.weight f4 [128, 3]
0	0xbdda0c9f	-0.106469385
1	0x3ecfaebd	0.40563002
2	0xbf2b6419	-0.6694961
3	0xbf0d8446	-0.5527996
4	0xbec21a1c	-0.37910545
5	0xbd2f9de3	-0.042875182
6	0xbe0004d9	-0.12501849
7	0x3ec7728f	0.3895459
8	0xbe8bcac7	-0.27303144
9	0x3d41de56	0.047331177
10	0xbe6d158c	-0.2315275
11	0xbec8e25a	-0.39235193
12	0xbf0d33bd	-0.5515707
13	0xbec3c5d6	-0.38236874
14	0xbe73b584	-0.23799711
15	0xbd9fb036	-0.077972814
16	0x3e08e7e7	0.13369714
17	0x3dd4728b	0.1037341
18	0xbec866d2	-0.39140946
19	0xbe80b969	-0.25141457
20	0x3e56bc83	0.20970349
21	0x3ead780a	0.33880645
22	0xbe978ca1	-0.2959948
23	0x3ebfab0f	0.37435195
24	0xbdbe95da	-0.09305926
25	0x3d7a3b65	0.0610918
26	0x3f05d4b5	0.5227769
27	0xbf091c79	-0.5355907
28	0xbeba17f0	-0.36346388
29	0xbe15ac48	-0.14616501
30	0xbe6673cc	-0.2250511
31	0x3eff66ca	0.4988311
32	0xbebf9aa4	-0.3742267
33	0xbebf86a2	-0.37407404
34	0xbf02f548	-0.5115552
35	0xbf25e420	-0.64801216
36	0xbef1f0c6	-0.47254008
37	0x3ea07087	0.31335852
38	0xbd555140	-0.05207944
39	0x3e367da3	0.17821364
40	0xbda118d1	-0.078660615
41	0xbecb7e92	-0.39745003
42	0x3dc80bd5	0.09767882
43	0xbf0a006b	-0.5390689
44	0xbed597ce	-0.4171738
45	0xbebfd696	-0.37468404
46	0x3e713334	0.23554689
47	0x3ea34b28	0.31893277
48	0xbecf884b	-0.4053367
49	0xbe21bb5e	-0.15794131
50	0x3e929d98	0.2863586
51	0x3f02172f	0.50816625
52	0x3e418ecc	0.18902129
53	0xbea61b26	-0.32442588
54	0x3eabbcb1	0.33542398
55	0xbec94ca4	-0.39316285
56	0x3d69aa89	0.0570474
57	0xbf088075	-0.5332101
58	0xbef99075	-0.48743024
59	0xbec07ba2	-0.37594324
60	0x3e627706	0.22115716
61	0x3e78c0ed	0.24292345
62	0xbf346118	-0.70460653
63	0x3e329b94	0.17442161
64	0x3ea24728	0.31694913
65	0xbd953db8	-0.072871625
66	0xbd66ad36	-0.05631753
67	0x3da7492f	0.081682555
68	0x3e0841fb	0.1330642
69	0x3ef4c433	0.47805938
70	0xbef8f074	-0.4862095
71	0xbf153bea	-0.58294547
72	0x3e18401a	0.14868203
73	0x3ecaa51a	0.39579087
74	0x3ec1cd78	0.37852073
75	0x3ed06928	0.40705228
76	0x3d82e528	0.06391364
77	0xbf540fd7	-0.8283667
78	0x3d598bdb	0.053111892
79	0xbeb8ee58	-0.36119342
80	0xbf09be8f	-0.53806394
81	0x3ef3d65d	0.47624484
82	0x3f0bf47d	0.54669935
83	0xbf592633	-0.8482391
84	0xbc91fd93	-0.017821109
85	0xbe705022	-0.23468068
86	0xbe8eca43	-0.27888688
87	0xbea05096	-0.31311482
88	0x3e30bab1	0.17258717
89	0xbed375ed	-0.41300908
90	0x3e58bb33	0.21165161
91	0x3e957d2f	0.2919707
92	0x3ed39d31	0.41330865
93	0x3e5d0f0b	0.2158777
94	0xbf1248d6	-0.5714239
95	0xbebfc1c8	-0.3745253
96	0x3ec3e9a8	0.38264203
97	0x3e9d0328	0.3066647
98	0xbf1dd015	-0.61645633
99	0xbed6344b	-0.4183677
100	0x3ee993fe	0.45620722
101	0x3eb1c627	0.3472149
102	0xbe80e3f7	-0.25173923
103	0xbe14cc38	-0.14531028
104	0xbf0ccbac	-0.5499828
105	0xbd92dbae	-0.07170807
106	0xbee48d87	-0.44639227
107	0xbf377956	-0.7166952
108	0xbda04688	-0.07825953
109	0x3d4181d1	0.047242943
110	0xbe95271d	-0.29131404
111	0x3e9a29b5	0.30109945
112	0xbecb5451	-0.39712766
113	0x3efb2eb6	0.49059075
114	0x3ed45acf	0.4147553
115	0xbf1069c3	-0.5641138
116	0xbe8a6a73	-0.2703434
117	0xbda6ea0b	-0.08150109
118	0xbd59a41a	-0.053135015
119	0xbd8f1197	-0.06985777
120	0x3e32c2e1	0.17457153
121	0x3cea4f08	0.028602138
122	0xbf14af68	-0.5808015
123	0x3e8be052	0.2731958
124	0xbf0dc751	-0.5538226
125	0xbeaf34c1	-0.34219936
126	0xbe13ff26	-0.144528
127	0xbe8ffe09	-0.281235
128	0xbe4ed2e6	-0.20197639
129	0xbef2486c	-0.47320879
130	0xbdfb8469	-0.122811146
131	0x3dfcbf9c	0.12341234
132	0xbec09351	-0.37612393
133	0xbcf2b908	-0.029629245
134	0x3ed39b9f	0.41329667
135	0xbe28931a	-0.16462365
136	0x3d397ffb	0.045288067
137	0xbe87e160	-0.26539135
138	0x3def4c66	0.11684494
139	0x3ebbf4ce	0.3671021
140	0x3f0c012b	0.5468928
141	0x3e82bf96	0.25536793
142	0x3ef5bfe2	0.47997957
143	0xbe9c85b5	-0.3057076
144	0xbf38d5e9	-0.722014
145	0xbe9176f2	-0.2841106
146	0x3f0ce1c4	0.5503199
147	0x3e3b8a56	0.1831449
148	0xbda657bb	-0.08122202
149	0xbf2b5e2b	-0.66940564
150	0xbf0a520c	-0.54031444
151	0xbef97ddc	-0.48728836
152	0xbdefd63e	-0.11710785
153	0x3e824181	0.254406
154	0x3e7db937	0.24777685
155	0xbf1e39fb	-0.6180722
156	0x3e9b27a9	0.30303696
157	0xbf147863	-0.57996196
158	0xbe2cf40a	-0.16889969
159	0xbe6fb7d7	-0.23409973
160	0xbde3c039	-0.11120648
161	0xbde82882	-0.11335851
162	0xbf04a13c	-0.51808524
163	0xbeff3c31	-0.4985061
164	0xbdb905ff	-0.09034347
165	0x3bf4a8b0	0.007466398
166	0xbe864901	-0.26227573
167	0x3e5eb503	0.21748738
168	0xbf0507b7	-0.51964897
169	0xbd1f987b	-0.038963776
170	0x3f01facb	0.50773305
171	0xbe712602	-0.23549655
172	0x3f057722	0.5213491
173	0x3e561b94	0.20908958
174	0xbf05629e	-0.521036
175	0x3ebb0707	0.365288
176	0xbd8871a8	-0.06662303
177	0xbeb56640	-0.35429573
178	0x3efaf088	0.49011636
179	0xbf331095	-0.6994718
180	0x3d7dc1f0	0.06195253
181	0xbdf78f73	-0.12087908
182	0x3ed31815	0.4122931
183	0x3ccb60ca	0.024826426
184	0x3e0d6ee4	0.13811833
185	0xbd4dc882	-0.050240047
186	0xbe0e2b95	-0.13883813
187	0xbdf8ab00	-0.12141991
188	0xbef399e9	-0.47578362
189	0x3e48f192	0.19623402
190	0x3eb391cc	0.35072172
191	0x3e4cd5be	0.20003411
192	0xbed0831e	-0.40725034
193	0x3cd2f128	0.025749758
194	0xbed06181	-0.4069939
195	0xbea2b997	-0.3178222
196	0xbeac3feb	-0.33642516
197	0x3e4a0abc	0.19730657
198	0xbed71af2	-0.42012745
199	0xbdbe1331	-0.09281004
200	0xbe10194a	-0.14072147
201	0x3e92fc30	0.2870803
202	0xbee65ae3	-0.44991216
203	0xbf249de4	-0.6430342
204	0xbeece451	-0.46267942
205	0x3e95b131	0.2923675
206	0xbec50e68	-0.38487554
207	0x3ebe8800	0.37213135
208	0x3e0e00d1	0.13867499
209	0xbe60f293	-0.21967535
210	0xbb8cd4a3	-0.004297809
211	0xbde9bdc6	-0.114131495
212	0x3d945a64	0.07243803
213	0xbe866955	-0.26252237
214	0xbe0b14a1	-0.13582088
215	0xbe228bec	-0.15873688
216	0xbee738f2	-0.45160633
217	0xbe9aef5c	-0.30260742
218	0x3eeeb292	0.46620613
219	0xbf177340	-0.5916023
220	0xbd92f0cb	-0.07174834
221	0x3f4bcc3c	0.7960851
222	0x3e5590d5	0.2085603
223	0x3c85e92f	0.016346542
224	0xbf00161e	-0.5003375
225	0x3e5ed530	0.21761012
226	0xbef1de9a	-0.47240144
227	0xbe5fa7b9	-0.21841325
228	0xbe465c08	-0.19371045
229	0xbdaf19ba	-0.08549829
230	0x3bceefed	0.0063152225
231	0x3ebcfec2	0.36913115
232	0xbeab2976	-0.3343007
233	0x3f275315	0.6536115
234	0x3e15b3e0	0.14619398
235	0xbf1ace2e	-0.60470855
236	0x3e3f079c	0.18655246
237	0xbed0f5f9	-0.40812662
238	0xbe7a9179	-0.24469556
239	0x3e2de326	0.16981182
240	0x3e07ca55	0.13260777
241	0x3edcdfed	0.43139592
242	0xbedf7358	-0.43642688
243	0xbe1d819c	-0.15381473
244	0x3eae90f5	0.34094968
245	0xbf4dfaea	-0.8046099
246	0x3eadeb07	0.33968374
247	0xbf224de6	-0.63400114
248	0x3b08c862	0.002087139
249	0xbdc907b4	-0.098159224
250	0xbe9bafb0	-0.30407476
251	0x3d9c47e2	0.07630898
252	0x3ef4709f	0.47742173
253	0xbe2cd23e	-0.16877076
254	0xbeaf7f7a	-0.34276944
255	0xbe5aa6b4	-0.21352655

phi.phi.0.bias f4 [128]
0	0x3e0703a4	0.13184983
1	0x3edc22ab	0.429952
2	0x3e37bcd3	0.17943124
3	0x3e718a62	0.23587945
4	0xbe4eeaee	-0.20206806
5	0x3e1d3448	0.15351975
6	0x3d87ddf6	0.066341326
7	0xbe8c58d7	-0.2741153
8	0xbea6a26f	-0.32545802
9	0xbea5de31	-0.3239608
10	0xbee3760a	-0.44425994
11	0x3e8e5170	0.27796507
12	0x3e6a6d8c	0.22893351
13	0xbe2d1616	-0.16902956
14	0xbeab0fbf	-0.3341045
15	0x3eba8ded	0.36436406
16	0x3e73c9cd	0.2380745
17	0xbda460fb	-0.0802631
18	0xbea601f7	-0.32423374
19	0x3ee40ab2	0.4453941
20	0x3e19800e	0.14990255
21	0xbee067e9	-0.43829277
22	0x3ee94c68	0.45566106
23	0x3ea1dc4c	0.31613386
24	0xbe988a1f	-0.29792878
25	0x3e48e09b	0.1961693
26	0xbea7f565	-0.3280441
27	0xbe041e17	-0.12902103
28	0x3eb3e79d	0.35137644
29	0xbcd4efc3	-0.025993234
30	0xbed10e59	-0.4083126
31	0xbe4599ca	-0.19296947
32	0xbda237d7	-0.07920807
33	0xbe49e1fd	-0.19715114
34	0x3d6250bd	0.05525278
35	0x3ee6135e	0.4493665
36	0xbc5e1f32	-0.013557242
37	0xbecb1cd9	-0.39670447
38	0x3c0c1db7	0.008552006
39	0x3e1459f7	0.14487444
40	0x3e4eb6b3	0.20186882
41	0xbf0714e6	-0.52766263
42	0xbdd3957c	-0.10331246
43	0xbedbad0e	-0.42905468
44	0xbe7c4265	-0.24634703
45	0x3df6bee4	0.12048128
46	0xbed1eab7	-0.40999386
47	0x3db4476e	0.08802687
48	0x3ed3ad39	0.41343096
49	0x3e1d63ba	0.15370074
50	0xbec50417	-0.38479683
51	0xbe89fbb3	-0.26949844
52	0x3d629632	0.05531902
53	0xbee15800	-0.4401245
54	0x3e92dbd9	0.28683355
55	0xbf062f44	-0.5241587
56	0xbf0e14ad	-0.555003
57	0xbf0f9cf1	-0.5609885
58	0xbdefde4a	-0.1171232
59	0x3e9ae027	0.3024914
60	0xbf0be424	-0.5464499
61	0x3ea4f6ac	0.32219446
62	0xbe6c7f06	-0.2309533
63	0x3d28fb6f	0.04125541
64	0x3cd7af9d	0.026328856
65	0xbf05468d	-0.52060777
66	0x3ec5a9f0	0.38606215
67	0x3e5d808c	0.21631068
68	0x3ee243d1	0.44192365
69	0x3e21a5f0	0.15785956
70	0xbec31e5c	-0.381091
71	0x3eaab42b	0.33340582
72	0x3cfe314b	0.031029364
73	0x3e7e4fd4	0.2483514
74	0xbeed05fb	-0.46293625
75	0xbe702dbb	-0.23454945
76	0xbf111f86	-0.56688726
77	0xbeaf45dc	-0.34232986
78	0xbd8b5866	-0.0680397
79	0xbee818af	-0.45331332
80	0x3ddbad6a	0.107264355
81	0x3e52d0b7	0.20587431
82	0xbb012e92	-0.0019711596
83	0xbec5c884	-0.38629544
84	0xbee52fe5	-0.44763103
85	0xbe3665a7	-0.17812215
86	0x3e81c1eb	0.2534326
87	0x3ef1269c	0.4709977
88	0x3e4da9e8	0.20084345
89	0xbe2575f8	-0.16158283
90	0x3e4f496b	0.2024285
91	0xbf1100b3	-0.5664169
92	0xbefc79a6	-0.4931156
93	0x3e3c7db0	0.18407321
94	0xbea76f29	-0.32701996
95	0x3e087e98	0.13329542
96	0xbed0ad07	-0.4075701
97	0xbe926a62	-0.2859679
98	0xbef37c37	-0.47555706
99	0x3e6d5500	0.23176956
100	0xbd70f6d8	-0.05882916
101	0x3eb51944	0.3537084
102	0x3e8ed034	0.2789322
103	0x3e52029b	0.20508806
104	0xbda88fac	-0.08230528
105	0xbe62e9a6	-0.22159442
106	0xbe6c2048	-0.2305919
107	0xbc948644	-0.01813043
108	0x3e0fe22b	0.1405112
109	0xbecf18c2	-0.40448576
110	0x3ed17e4c	0.4091667
111	0xbe29a7dc	-0.1656794
112	0xbf0aff1c	-0.54295516
113	0xbe292e4e	-0.1652157
114	0x3ec0d3e8	0.37661672
115	0x3ee2e878	0.44317985
116	0xbf08e7da	-0.5347878
117	0x3e9276cd	0.28606263
118	0x3e3c5e7b	0.18395416
119	0x3e6a5797	0.22884975
120	0x3eef7b73	0.46773872
121	0xbed3167c	-0.41228092
122	0x3dc924ae	0.09821449
123	0x3e4e90a8	0.2017237
124	0xbe2eb299	-0.17060317
125	0x3de2764d	0.1105772
126	0xbe9f30c1	-0.31091884
127	0x3e695a00	0.22788239

phi.phi.2.weight f4 [128, 128]
0	0xbcc8e60a	-0.024523754
1	0xbd06f76a	-0.032950796
2	0x3cb64928	0.02225168
3	0x3d0069ae	0.031350784
4	0xbd30e1bf	-0.04318404
5	0x3c0003b4	0.007813383
6	0x3d51d079	0.051224206
7	0xbc10162e	-0.008794351
8	0x3cdc5c7e	0.026899572
9	0xbcaea355	-0.021318117
10	0x3cfdc9f1	0.030980082
11	0xbd83211d	-0.064028
12	0xbd54e3a0	-0.051974893
13	0xbd37c474	-0.044865087
14	0x3da65bd6	0.08122985
15	0xbcc2d673	-0.023783898
16	0xb97d0e4b	-0.00024133285
17	0xbd2f67f7	-0.042823758
18	0x3db4b5b6	0.08823721
19	0x3db0cbd2	0.08632626
20	0xbd8885b9	-0.066661306
21	0xbd92bf36	-0.07165377
22	0xbd89361d	-0.066997744
23	0xb9df7d6c	-0.0004262732
24	0xbcb891f5	-0.022530535
25	0xbd6cf889	-0.05785421
26	0xbd01da6a	-0.031702437
27	0x3c88ccf1	0.016699286
28	0xbd3d296f	-0.046182092
29	0x3ca07161	0.019585313
30	0xbca60add	-0.020268852
31	0xbd2f6e40	-0.042829752
32	0x3c46f497	0.012143276
33	0x3d94d83a	0.072678044
34	0xbd74c44f	-0.059757527
35	0x3b867d07	0.00410426
36	0xbd058218	-0.03259477
37	0x3db1a2ab	0.086736046
38	0xbdabbe97	-0.083859615
39	0xbdad8945	-0.08473448
40	0x3db25fac	0.08709654
41	0xbd650ee8	-0.05592242
42	0x3c8ad291	0.016946109
43	0xbbf9f81a	-0.007628453
44	0xbc98882e	-0.018619623
45	0xbca1b898	-0.019741341
46	0x3d660dd7	0.056165542
47	0x3b8a6f4f	0.004224695
48	0xbdb03e39	-0.08605618
49	0xbd55bbb3	-0.052180957
50	0xbcf6d693	-0.030131614
51	0x3d362f0d	0.044478465
52	0xbd6a4995	-0.05719908
53	0x3daaafca	0.0833431
54	0xbca145f4	-0.019686677
55	0xbc82044a	-0.015871186
56	0x3d8dd6d2	0.06925739
57	0x3d35f6a3	0.044424664
58	0x3d9986b4	0.07496396
59	0x3d516b52	0.05112774
60	0xbcdba6d5	-0.02681295
61	0xbd7033e2	-0.05864323
62	0xbbd77e87	-0.0065763625
63	0x3d95d183	0.07315352
64	0xbcf303c3	-0.02966488
65	0xbda7df34	-0.081968695
66	0x3d1468f2	0.036232896
67	0x3db03797	0.08604353
68	0xbcce21f7	-0.02516268
69	0xbd95e366	-0.073187634
70	0xbda43202	-0.08017351
71	0x3cb5740e	0.022150066
72	0xbbdb4ec6	-0.00669274
73	0xbd36d32d	-0.044634987
74	0x3c925bee	0.017866101
75	0x3d097cc5	0.033566255
76	0x3d8ff7d6	0.07029693
77	0x3d8c8a4a	0.06862314
78	0xbc58c3e2	-0.013230296
79	0xbd9f9ded	-0.07793794
80	0xbda392c1	-0.079869755
81	0x3da90410	0.08252728
82	0x3d200a84	0.03907253
83	0x3d1dd0b9	0.03852913
84	0xbd9c9f2a	-0.07647546
85	0x3da7a073	0.081849
86	0x3dab7cc7	0.08373409
87	0x3da36f67	0.07980233
88	0xbd98b488	-0.074563086
89	0xbd089b0c	-0.03335099
90	0xbd78ff41	-0.060790304
91	0x3dab6b49	0.083700724
92	0xbd1b8f8f	-0.037978705
93	0xbd254a57	-0.0403541
94	0x3d3dad3e	0.046307795
95	0xbd2779f0	-0.040887773
96	0xbd324fe3	-0.043533217
97	0xbbfd5830	-0.00773146
98	0xbc0b3229	-0.008495846
99	0xbd8d029a	-0.06885262
100	0x3d96e8f9	0.07368655
101	0xbd1fb3ff	-0.038990017
102	0x3d006ba6	0.03135266
103	0x3d9d7299	0.076878734
104	0x3d369502	0.0445757
105	0x3c4d0790	0.01251401
106	0x3d9a0586	0.07520585
107	0x3c42ab84	0.011881713
108	0xbd277fe5	-0.040893454
109	0x3dab3e84	0.08361533
110	0x3cab5fff	0.020919798
111	0xbdb09dfa	-0.08623882
112	0xbcce2383	-0.025163418
113	0xbd769be5	-0.060207266
114	0x3d9eb591	0.07749475
115	0xbc6f2822	-0.014596971
116	0xbda500ee	-0.08056818
117	0xbbb6125b	-0.0055563874
118	0x3d635d6d	0.05550902
119	0x3cbc1d98	0.02296333
120	0x3ce4f4da	0.027948786
121	0x3c067eaa	0.00820891
122	0x3d06f98c	0.03295283
123	0xbcb06c42	-0.021535996
124	0xbd1004e1	-0.035160903
125	0xbda93347	-0.082617335
126	0xbd885e59	-0.066586204
127	0x3d1ce892	0.038307734
128	0xbdea8c4e	-0.11452542
129	0xbd4d32ac	-0.050097153
130	0xbd0c1593	-0.034200262
131	0xbd68550c	-0.056721732
132	0xbd6aba49	-0.05730656
133	0x3cb1b2f0	0.02169177
134	0xbd528679	-0.051397774
135	0x3c0e52fb	0.008686776
136	0xbd90009c	-0.07031366
137	0xbcae2cfb	-0.021261683
138	0x3d44f010	0.048080504
139	0xbdc9a359	-0.09845609
140	0x3c4317c4	0.011907522
141	0xbdfe01f3	-0.124027155
142	0xbd9803cf	-0.074226014
143	0xbdd1a37e	-0.10236262
144	0xbd4665fe	-0.04843711
145	0x3c969b1a	0.018384505
146	0xbdd8c0ad	-0.10583625
147	0xbcf9eb21	-0.030507626
148	0xbdae92f3	-0.08524122
149	0xbc9d066c	-0.019168101
150	0x3b08a6df	0.0020851416
151	0xbe071ef5	-0.13195403
152	0xbd59d1fb	-0.05317877
153	0x3ca48840	0.0200845
154	0xbc46fe7e	-0.012145637
155	0x3bae4ab2	0.005318963
156	0xbdb88e5b	-0.09011527
157	0x3d5a765d	0.053335536
158	0xbdaf1b02	-0.08550073
159	0xbc50b69f	-0.012738853
160	0xbda8b8fc	-0.08238408
161	0x3d98907c	0.07449433
162	0x3d0e09a7	0.034677174
163	0x3b9291b4	0.0044729356
164	0xbd9150e8	-0.0709551
165	0xbd541640	-0.05177903
166	0xbb7d8b36	-0.0038687713
167	0xbdb1ef0a	-0.08688171
168	0x3c6a29a6	0.014292156
169	0xbd710cbc	-0.058850035
170	0xbc1cb460	-0.009564489
171	0xbb9b9041	-0.004747421
172	0x3d218b95	0.039439756
173	0xbb290445	-0.0025789898
174	0xbc6589b9	-0.014009886
175	0xbe0b36f1	-0.13595177
176	0xbc94036a	-0.018068034
177	0xbbcd528c	-0.006265944
178	0x3d116e41	0.035505537
179	0xbdf58000	-0.11987305
180	0xbbf0657e	-0.0073363176
181	0x3dab7410	0.083717465
182	0x3bfb5115	0.007669578
183	0xbda914b1	-0.082559
184	0x3d7e25c1	0.062047724
185	0xbd86378e	-0.06553565
186	0x3ca671f7	0.020318015
187	0xbd4ae1f5	-0.049531896
188	0xbd297284	-0.041368976
189	0xbd02fe03	-0.031980526
190	0xbda1e8dc	-0.079057425
191	0xbd2e575e	-0.04256379
192	0xbd6583c7	-0.056033876
193	0xbc1c9823	-0.009557757
194	0xbd521f53	-0.051299404
195	0x3c431895	0.011907716
196	0xbdd5ebdf	-0.104453795
197	0xbbcf0479	-0.006317672
198	0xbc37f6f2	-0.01122831
199	0xbdd63df0	-0.104610324
200	0xbd9da1af	-0.07696854
201	0xbe125688	-0.14290822
202	0x3db0c911	0.086321004
203	0xbda6e09a	-0.08148308
204	0x3b90aace	0.0044148928
205	0xbd2076fb	-0.03917597
206	0xbb5703f9	-0.0032808764
207	0x3d9a7ecd	0.075437166
208	0x3c105790	0.008809939
209	0xbe034521	-0.1281934
210	0xbda0b542	-0.07847072
211	0xbd563b5e	-0.05230271
212	0xbd4ed9f7	-0.050500836
213	0x3cabc19a	0.02096634
214	0x3da9e9d7	0.082965545
215	0xbe08fa9a	-0.13376847
216	0xbc1c7c26	-0.009551084
217	0xbddceaf2	-0.10787
218	0xbc8d0819	-0.017215775
219	0x3d8fb019	0.0701601
220	0xbca3c3c9	-0.019990819
221	0xbd61fd38	-0.05517313
222	0xbd7d13aa	-0.06178633
223	0x3c463d9f	0.012099653
224	0xbc3b33e5	-0.011425947
225	0xbd846554	-0.06464639
226	0x3cd4046f	0.02588102
227	0xbdfc86f7	-0.1233043
228	0xbd8fa3e2	-0.0701368
229	0xbd6c2c23	-0.05765928
230	0x3beb4272	0.0071795518
231	0xbdb496ba	-0.08817811
232	0xbcb8d712	-0.022563491
233	0x3c24df42	0.010062994
234	0xbb7f05a3	-0.0038913272
235	0xbde113af	-0.109900825
236	0xbd94b6ab	-0.07261404
237	0xbce3db2f	-0.027814476
238	0xbe087e9b	-0.13329546
239	0xbd8355b2	-0.064128295
240	0x3c11c375	0.008896698
241	0x3c677f29	0.014129438
242	0xbd5fe981	-0.054666046
243	0xbd2ff32f	-0.042956527
244	0xbd1cbc00	-0.03826523
245	0x3b7100a9	0.0036774075
246	0xbdcba0e4	-0.09942797
247	0xbdffb20b	-0.12485131
248	0xbd52469b	-0.051336866
249	0xbc1d990c	-0.009619009
250	0xbe12df8e	-0.14343092
251	0x3c85b8cd	0.016323471
252	0x3d023c8f	0.031796034
253	0xbdfc5b73	-0.1232213
254	0xbda72f0a	-0.08163269
255	0x3c69f773	0.014280188

phi.phi.2.bias f4 [128]
0	0xbd2324f7	-0.039830174
1	0xbe07c836	-0.13259968
2	0xbd94e800	-0.07270813
3	0x3d150312	0.03637988
4	0xbd56a8a6	-0.05240693
5	0xbd88455f	-0.066538565
6	0x3d4fe1a2	0.05075229
7	0xbda96bf9	-0.08272547
8	0xbd981327	-0.07425528
9	0xbcd9d95c	-0.026592903
10	0xbdd79a41	-0.105274685
11	0xbc9bc095	-0.019012729
12	0xbdfc7a0d	-0.12327967
13	0xbd79662d	-0.060888458
14	0x3d042c24	0.03226866
15	0xbdb33f62	-0.08752324
16	0xbde58f18	-0.112089336
17	0xbd2efc59	-0.042721126
18	0xbd98d820	-0.074630976
19	0x3c8c6400	0.017137527
20	0xbc5e43c7	-0.013565964
21	0x3b872044	0.0041237194
22	0xbdc75b97	-0.09734266
23	0xbd0d1205	-0.034441013
24	0x3985036f	0.00025370295
25	0xbc2b3130	-0.010448739
26	0x3cb0421a	0.021515895
27	0xbc98dbdb	-0.018659523
28	0xbd22c41f	-0.039737817
29	0xbd5d2346	-0.053988717
30	0x3bffb1a3	0.0078031584
31	0x3d2a43e8	0.041568667
32	0xbc0097dc	-0.007848706
33	0xbcb931a8	-0.022606686
34	0xbc326943	-0.010889354
35	0x39e24072	0.00043154095
36	0xbcc3a5bc	-0.02388274
37	0xbe0bb9aa	-0.13645044
38	0x3db13f3b	0.086546384
39	0x3b06d311	0.0020572583
40	0x3d10d605	0.035360355
41	0xbbfb0c77	-0.007661398
42	0xbbb695e1	-0.005572066
43	0xbd9aa7cf	-0.07551538
44	0xbdad5aa8	-0.08464557
45	0xbdd18aa8	-0.10231525
46	0xbcbdbb25	-0.023160527
47	0x3bdf6b20	0.00681819
48	0xbd52782c	-0.051384136
49	0xbe006756	-0.1253942
50	0xbbc0530f	-0.0058692764
51	0xbd7f7e77	-0.062376466
52	0xbbea71c3	-0.0071546747
53	0xbe072cbc	-0.13200659
54	0x3d65652e	0.056004696
55	0xbc5853ed	-0.013203603
56	0x3cd6aa7b	0.026204338
57	0xbe0c7ce3	-0.13719516
58	0x3c6b6440	0.014367163
59	0xbdeee06a	-0.11663897
60	0xbda6cac6	-0.08144145
61	0xbd7b058e	-0.061284594
62	0xbe1337f3	-0.14376812
63	0x3d632815	0.055458147
64	0x3bd81724	0.0065945555
65	0x3cd9aa5d	0.026570493
66	0xbd938c7b	-0.07204529
67	0xbdab7e3e	-0.08373688
68	0xbd153bd9	-0.03643403
69	0x3ce054ea	0.02738424
70	0xbdb370de	-0.08761762
71	0xba0f0fe3	-0.00054573844
72	0x3cb4e6a2	0.02208263
73	0x3d928949	0.07155091
74	0x3d59e9f9	0.05320165
75	0xbccc5401	-0.0249424
76	0xbb838445	-0.0040135705
77	0xbb2e0819	-0.002655512
78	0x3da46626	0.08027296
79	0xbdcd51b7	-0.100253515
80	0x3db37416	0.08762376
81	0xbc77e28c	-0.015129697
82	0xbdb3935e	-0.087683424
83	0xbd52502d	-0.051345993
84	0xbc1df477	-0.0096408045
85	0xbd4ebd8d	-0.05047374
86	0x3b4a5f6a	0.0030879625
87	0xbd505ec1	-0.050871614
88	0x3c8da892	0.017292295
89	0x3c9b23ed	0.01893803
90	0xbdde23e7	-0.108466916
91	0xbdd145d2	-0.10218395
92	0xbcd8a3af	-0.026445238
93	0xbc837088	-0.01604487
94	0xbd7293fb	-0.059223156
95	0xbda4a1a9	-0.08038647
96	0x3c1c4003	0.009536746
97	0x3d461390	0.0483585
98	0xbc8f0b3b	-0.01746141
99	0xbd2109f5	-0.039316136
100	0xbd3b32be	-0.04570269
101	0xbd4c4e89	-0.049879584
102	0x3cd8f70f	0.026484994
103	0xbd837dab	-0.06420454
104	0xbd73572b	-0.0594093
105	0xbdd0889f	-0.101823084
106	0xbd214070	-0.039368093
107	0xbcedb806	-0.029018413
108	0xbd38289f	-0.044960614
109	0xbd47b5ff	-0.04875755
110	0xbc27520c	-0.010212433
111	0xbd9a0eba	-0.0752234
112	0x3c8177f8	0.015804276
113	0x3cc0aa28	0.023518637
114	0x3d5bdfe3	0.053680312
115	0xbd735519	-0.059407327
116	0xbdb3ed33	-0.087854765
117	0xbcf3ecb6	-0.029775959
118	0xbd62f877	-0.055412736
119	0xbdb4b3fc	-0.08823392
120	0xbd827258	-0.063694656
121	0xbd4dc878	-0.05024001
122	0xbd69ad0a	-0.05704979
123	0xbdbd915a	-0.09256239
124	0xbcea25f9	-0.02858256
125	0xbc00b2f0	-0.007855162
126	0x3bb64c7f	0.0055633183
127	0xb948d508	-0.00019152847

phi.phi.4.weight f4 [6, 128]
0	0xbc2091cc	-0.009800386
1	0x3dabfa31	0.083973296
2	0xbd35d19d	-0.044389356
3	0x3d90cdcd	0.070705034
4	0x3cbffcac	0.023435913
5	0xbda57993	-0.08079829
6	0x3d445c51	0.047939602
7	0x3d7ea591	0.062169615
8	0x3dbc8264	0.092045575
9	0x3d7a6def	0.061139997
10	0x3d4c92ef	0.049944814
11	0xbd5bb56a	-0.053639807
12	0x3d825a9c	0.063649386
13	0xbd082025	-0.03323378
14	0x3cc8013a	0.024414647
15	0xbda4ac05	-0.080406226
16	0x3d254d13	0.040356707
17	0xbd2643ed	-0.040592123
18	0xbd2f7d6c	-0.04284422
19	0xbd86d7a3	-0.06584098
20	0xbbfe9e6e	-0.007770351
21	0xbd259f2a	-0.040434994
22	0xbd626774	-0.05527444
23	0xbda7bafd	-0.08189962
24	0x3d6ec493	0.058292937
25	0x3d8361ac	0.06415114
26	0xbc5d244b	-0.013497422
27	0x3d4953be	0.04915213
28	0x3ca4552f	0.02006015
29	0xbd5cd094	-0.053909853
30	0x3c9129b1	0.017720075
31	0x3d1d03ac	0.03833358
32	0xbda925b2	-0.08259143
33	0x3c96c660	0.01840514
34	0xbc59920d	-0.01327945
35	0x3d7f4935	0.062325675
36	0x3c14c36d	0.009079796
37	0x3be7ec7c	0.0070777517
38	0xbd674df3	-0.056470823
39	0x3eade1b2	0.33961254
40	0x3d02c947	0.031930234
41	0xbd558c0c	-0.052135512
42	0xbd6fa402	-0.05850602
43	0xbc053a25	-0.0081315385
44	0x3bd0fc0d	0.006377703
45	0x3d5adec1	0.05343509
46	0xbc91db59	-0.017804788
47	0xbd3cbb75	-0.04607721
48	0xbdaf3c88	-0.08556467
49	0xbb726de1	-0.0036991762
50	0x3d971667	0.0737732
51	0xbd78be9d	-0.060728658
52	0xbca474ed	-0.020075286
53	0x3d8d605b	0.06903144
54	0x3e29decc	0.16588897
55	0xbd3d5a61	-0.04622877
56	0xbd9dc455	-0.07703463
57	0x3e0e0ef9	0.13872899
58	0xbd2da113	-0.04238994
59	0x3d6f34b8	0.058399886
60	0xbdb39aed	-0.08769784
61	0x3d25e7c3	0.04050423
62	0xba244cd5	-0.00062675524
63	0x3d24318f	0.040086325
64	0xbd3422d2	-0.04397852
65	0x3d732d4d	0.059369374
66	0x3d747bb0	0.05968827
67	0xbd20c669	-0.03925172
68	0xbbaed8cd	-0.0053359033
69	0x3d93d2f2	0.07217969
70	0x3b1ee835	0.0024247293
71	0xbc65c4cf	-0.014023974
72	0x3c8ead1d	0.017416531
73	0x3d7507e5	0.059821982
74	0xbd97bcd5	-0.07409064
75	0x3d6cf6b6	0.05785247
76	0x3d25e01b	0.040496927
77	0x3d4335ab	0.047658604
78	0xbc390e08	-0.011294849
79	0xbcb93557	-0.022608442
80	0xbbbe4375	-0.0058063813
81	0x3daf2333	0.085516356
82	0xbb53e3c7	-0.003233181
83	0xbd3824cf	-0.04495698
84	0x3bc4bc95	0.006003926
85	0x3d138484	0.03601505
86	0xbd8fe1fe	-0.070255265
87	0xbbefc58d	-0.007317251
88	0x3e9a53e8	0.3014214
89	0x3d237d65	0.039914507
90	0xbd987284	-0.07443717
91	0xbd019833	-0.03163929
92	0xbd36ff12	-0.044676848
93	0x3d08a1e9	0.033357535
94	0xbdb4a363	-0.08820226
95	0x3c992572	0.018694613
96	0x3d8ed097	0.06973379
97	0x3e125a10	0.14292169
98	0x3c5f03d7	0.013611755
99	0x3d4bf2c4	0.049792066
100	0xbafdf749	-0.0019376065
101	0x3ce2dfd4	0.02769462
102	0xbdab6de4	-0.08370569
103	0xbc43e0be	-0.011955438
104	0xbd62a373	-0.05533166
105	0x3d48279c	0.0488659
106	0xbda0ad9c	-0.07845613
107	0x3d86ef53	0.06588616
108	0xbd9ae99d	-0.075640894
109	0x3d693a49	0.05694035
110	0xbd00760b	-0.031362575
111	0xbd9b53db	-0.075843535
112	0x3b72c7ff	0.0037045476
113	0xbd9a5cae	-0.075372085
114	0x3dde1cda	0.10845347
115	0x3dd94805	0.1060944
116	0x3c60a3d7	0.013710937
117	0xbaefbdfd	-0.0018290874
118	0x3d87cb57	0.06630581
119	0x3d76e98f	0.060281333
120	0x3bafefb2	0.00536915
121	0x3dbfa0bf	0.09356832
122	0xbce5f376	-0.028070193
123	0xbd2de109	-0.04245094
124	0x3ceb6102	0.02873278
125	0x3d71ea88	0.059061557
126	0x3ccaf6c1	0.024775865
127	0xbd846b84	-0.064658195
128	0x3d81d55e	0.06339525
129	0xbdb0c5c1	-0.086314686
130	0xbbcd333a	-0.00626221
131	0x3d780c8f	0.06055885
132	0xba9f2723	-0.0012142401
133	0xbd906b37	-0.070516996
134	0xbe1005b5	-0.14064677
135	0x3c0198b3	0.0079099415
136	0xbd277ec2	-0.04089237
137	0xba00fc69	-0.00049204245
138	0xbc722ad7	-0.014780722
139	0x3cdf911a	0.02729087
140	0xbca1f8eb	-0.019772014
141	0xbc8d0845	-0.017215857
142	0x3d9d920d	0.076938726
143	0xbdc59e4e	-0.09649335
144	0xbc806b04	-0.015676029
145	0xbdade073	-0.08490076
146	0xbd3ea03c	-0.04653953
147	0xbc4e7a75	-0.012602438
148	0xbda819b0	-0.082080245
149	0x3d577c95	0.052609045
150	0xbd2cf1ab	-0.04222266
151	0xbccdd807	-0.025127424
152	0xbd0b963d	-0.034078825
153	0xbdbc946a	-0.09207995
154	0xbd240fd4	-0.040054157
155	0xbd902e20	-0.07040048
156	0x3caea69b	0.021319678
157	0xbdb5ec02	-0.088829055
158	0xbd718ab0	-0.058970153
159	0x3da6e2cf	0.08148729
160	0xbdb4bc6d	-0.08825002
161	0xbd8f1595	-0.06986538
162	0x3d471fb4	0.04861422
163	0xbcb31ff6	-0.021865826
164	0xbd07a365	-0.03311481
165	0x396749a3	0.00022057309
166	0xbdadf0c4	-0.08493188
167	0xbe03f2ff	-0.12885664
168	0xbe1377d5	-0.14401181
169	0x3c835d4e	0.016035702
170	0x3d4ee56a	0.050511755
171	0x3d7548a6	0.059883736
172	0x3da9b6ba	0.082868055
173	0xbdb00f18	-0.08596629
174	0x3cc1d11c	0.023659281
175	0x3bf5991b	0.0074950582
176	0xbd246176	-0.04013201
177	0xbcbb2fc4	-0.022849925
178	0x3c9fac58	0.01949136
179	0xbde26226	-0.110538766
180	0xbd12a0b3	-0.035797786
181	0xbbfca17b	-0.0077096797
182	0xbde80578	-0.11329168
183	0xbdd0e815	-0.10200516
184	0xbc76608e	-0.015037669
185	0xbe122962	-0.14273599
186	0xbd97cb29	-0.074117966
187	0xbd22dab6	-0.03975936
188	0xbbe9284c	-0.0071153995
189	0x3bcf5041	0.0063267057
190	0xbbd73ba0	-0.006568387
191	0xbdf821aa	-0.12115796
192	0xbdb5fda0	-0.08886266
193	0xbda0cc31	-0.078514464
194	0x3d1a30ef	0.037644323
195	0xbd0b340a	-0.033985175
196	0xbe0b7bfc	-0.13621515
197	0xbbf43339	-0.0074523953
198	0xbd8c766f	-0.06858527
199	0xbd8dab24	-0.06917408
200	0x3c2a3150	0.010387734
201	0xbd54be9d	-0.051939595
202	0x3d9031ee	0.07040773
203	0xbd3f7a17	-0.046747293
204	0xbc90ee34	-0.01769171
205	0xbca3bb21	-0.019986691
206	0x3cd153b0	0.0255526
207	0xbd381c74	-0.04494901
208	0xbb307995	-0.0026927937
209	0xbc9175ae	-0.01775631
210	0xbdcf06b0	-0.101086974
211	0x3cd4119d	0.025887305
212	0x3be5f5ac	0.0070178118
213	0xbd31e8b1	-0.043434802
214	0x3d5942c1	0.053042177
215	0x3cec92b9	0.028878557
216	0xbdf4d09c	-0.119538516
217	0xbdd0a5fa	-0.101879075
218	0xbd77913b	-0.060441237
219	0xbde4ea55	-0.11177508
220	0xbdec442e	-0.11536442
221	0xbd7d1dfb	-0.06179617
222	0xbe0c003c	-0.13671964
223	0xbdf1b3d1	-0.118018754
224	0xbd3c5a3c	-0.04598449
225	0xbd8db847	-0.06919914
226	0x3d2d8114	0.042359427
227	0x3b4ed540	0.0031560212
228	0xbb6a3ce9	-0.0035741872
229	0xbdcbf98a	-0.09959705
230	0x3c293a4f	0.010328843
231	0xbdb6fa76	-0.089344904
232	0x3caf83f3	0.021425223
233	0xbe103a7f	-0.14084814
234	0x3c42b293	0.011883396
235	0xbb05ca5e	-0.002041481
236	0xbc9a4324	-0.018830843
237	0xbd1b8e60	-0.037977576
238	0x3c646e66	0.013942337
239	0xbc341a3f	-0.010992586
240	0x3dafa1a5	0.08575753
241	0xbd55d021	-0.05220044
242	0xbdfa1630	-0.12211263
243	0xbe0edcb2	-0.13951376
244	0xbd964489	-0.07337291
245	0xbd74095c	-0.05957924
246	0x3d9388fa	0.072038606
247	0xbdd8bc5b	-0.10582801
248	0xbda23e37	-0.07922023
249	0xbd6697fa	-0.05629728
250	0x3d8d07ed	0.06886277
251	0xbd11c4b4	-0.03558798
252	0xbd0f07d5	-0.03491958
253	0xbe047d28	-0.12938368
254	0xbe11dabb	-0.14243595
255	0x3cf5ac22	0.029989306

phi.phi.4.bias f4 [6]
0	0xbd6faf5a	-0.058516838
1	0x3c467473	0.012112725
2	0xbd89e520	-0.06733155
3	0xbdd820a7	-0.10553103
4	0x3c0e1587	0.008672125
5	0xbc169a27	-0.009192026

rho.rho.0.weight f4 [128, 6]
0	0x3e4f94c9	0.20271601
1	0x3e8a3b7b	0.26998505
2	0xbd99ef1d	-0.0751631
3	0x3dbdc4e3	0.09266069
4	0x3ebfdd2a	0.37473422
5	0x3e609469	0.21931614
6	0x3ea85a20	0.3288126
7	0x3c3063b7	0.010765961
8	0xbeee026e	-0.4648623
9	0x3dd713e9	0.105018444
10	0xbdd44f73	-0.10366716
11	0x3c5619aa	0.013067642
12	0x3e15e9c8	0.14639962
13	0x3e2e7503	0.17036824
14	0xbe98ca50	-0.29841852
15	0xbeaa250b	-0.33231387
16	0x3ebf6cd0	0.37387705
17	0x3d31300e	0.04325872
18	0x3e1ef796	0.15524134
19	0x3e2f3eb5	0.17113765
20	0xbdaa09f3	-0.08302679
21	0xbeb5bbb8	-0.3549478
22	0x3ebb94b4	0.3663689
23	0x3ee4c409	0.44680813
24	0xbd0bb81d	-0.03411113
25	0xbe28d285	-0.16486557
26	0x3e0924a2	0.1339288
27	0xbec40466	-0.38284606
28	0x3de67135	0.11252061
29	0x3e947a3e	0.28999513
30	0xbcac5d55	-0.021040598
31	0xbda90877	-0.08253568
32	0x3e0b60e6	0.13611183
33	0xbd631082	-0.055435665
34	0xbc093751	-0.008375005
35	0x3d8f8a05	0.07008747
36	0xbd9b5e5c	-0.07586357
37	0xbd7d6de4	-0.061872378
38	0xbdfc216f	-0.123110645
39	0x3e436169	0.19080128
40	0x3ec1110f	0.37708327
41	0xbcc10011	-0.023559602
42	0x3dee4d38	0.11635822
43	0xbe94baff	-0.29048917
44	0x3e9f8b53	0.31160983
45	0x3e6c4c04	0.23075873
46	0xbe98550f	-0.29752395
47	0x3e7532f5	0.2394522
48	0x3de52aa2	0.11189772
49	0xbe804cb9	-0.25058535
50	0xbd89ce24	-0.06728771
51	0xbeba13c9	-0.3634322
52	0x3d624e84	0.05525066
53	0x3e51f3c1	0.20503141
54	0xbe904d24	-0.28183854
55	0xbcfb25e7	-0.030657722
56	0x3e6e0a37	0.23246084
57	0x3ea03230	0.3128829
58	0x3e8582b0	0.2607627
59	0xbe6a00c3	-0.22851853
60	0xbc17dc43	-0.009268823
61	0xbe4996ec	-0.19686478
62	0x3e9af40a	0.30264312
63	0x3c93d6dd	0.01804679
64	0xbe80d32f	-0.2516112
65	0xbd67dd6a	-0.05660764
66	0xbbeaa628	-0.0071609206
67	0x3d9f1398	0.07767409
68	0xbe260bbd	-0.16215415
69	0x3d2a75ba	0.04161618
70	0xbec4eded	-0.38462773
71	0xbe3bee43	-0.18352608
72	0x3e04618d	0.12927838
73	0x3e2ba161	0.1676078
74	0x3ee33757	0.44378158
75	0x3ea6f676	0.3260991
76	0x3e58f0cc	0.21185607
77	0xbe4af4d8	-0.19819963
78	0x3ed229c1	0.4104748
79	0x3e8f591d	0.27997676
80	0xbe15d6b4	-0.14632684
81	0xbe419eaa	-0.18908182
82	0xbe4fa151	-0.20276381
83	0xbe84af5a	-0.25915033
84	0x3e55e5a5	0.20888384
85	0xbe8b4036	-0.27197427
86	0x3e8409d8	0.2578876
87	0x3daef360	0.08542514
88	0x3be0e32d	0.006863019
89	0x3d8cbb20	0.06871629
90	0x3e49d641	0.19710638
91	0xbbfddf11	-0.007747539
92	0xbeba637d	-0.3640403
93	0xbebc9e26	-0.36839408
94	0x3ec25edf	0.37963006
95	0x3ee24c7f	0.44198987
96	0xbe24c27e	-0.16089818
97	0x3e995525	0.29947773
98	0x3dc566b7	0.09638732
99	0xbec62941	-0.3870335
100	0xbd80d6d0	-0.06290972
101	0xbedb7eb9	-0.4287012
102	0x3e086061	0.13318016
103	0x3e521348	0.20515168
104	0x3e24d397	0.1609634
105	0xbbf1c073	-0.007377678
106	0x3d7229a1	0.05912173
107	0xbe3da584	-0.1852017
108	0xbed61156	-0.418101
109	0xbdabfe71	-0.0839814
110	0x3dced0e8	0.100984395
111	0xbd3dc71e	-0.04633247
112	0xbdac8a60	-0.084248304
113	0xbe26b5cf	-0.16280292
114	0xbe893d65	-0.26804653
115	0xbe8c28ca	-0.2737487
116	0xbe26dc4d	-0.16294976
117	0x3eb10864	0.34576714
118	0xbdd5f23c	-0.10446593
119	0xbde990be	-0.114045605
120	0xbea12239	-0.31471422
121	0xbe41944e	-0.1890423
122	0xbea6936e	-0.32534355
123	0xbe852c90	-0.2601056
124	0xbdf0ed50	-0.11764014
125	0xbd0e574f	-0.034751233
126	0xbe8fe580	-0.28104782
127	0xbd017262	-0.031603225
128	0x3ecfb15b	0.40565
129	0xbea16f30	-0.31530142
130	0x3e827763	0.2548171
131	0xbea0d7bf	-0.314146
132	0x3c8fda04	0.017560013
133	0x3b8224bc	0.0039716642
134	0xbeb57061	-0.354373
135	0xbe561d37	-0.20909582
136	0xbe468f7e	-0.19390675
137	0xbe9f235c	-0.31081665
138	0x3da80e5c	0.08205864
139	0xbe879097	-0.264775
140	0x3e94773c	0.2899722
141	0x3d70afe3	0.05876149
142	0xbe9f51e3	-0.31117162
143	0xbdd35edb	-0.103208266
144	0x3ec04635	0.37553564
145	0xbd9d47df	-0.07679724
146	0x3df89651	0.121380456
147	0x3e76c8be	0.24100015
148	0xbe5584da	-0.2085146
149	0x3e94a4a2	0.29031855
150	0xbe5cd058	-0.21563852
151	0xbeae43e8	-0.34036183
152	0x3e708867	0.23489533
153	0xbe9ed9c3	-0.31025514
154	0xbe8dfc7a	-0.27731687
155	0xbe9f246b	-0.31082472
156	0x3e11ba09	0.14231123
157	0xbca97287	-0.020684494
158	0x3e95a914	0.2923056
159	0xbe378b61	-0.17924263
160	0x3ca17033	0.019706821
161	0x3e582a2c	0.21109837
162	0xbdedc256	-0.11609332
163	0xbdb55ad3	-0.08855214
164	0xbea8072b	-0.3281797
165	0x3e65e1e1	0.22449447
166	0x3e1cce2a	0.1531302
167	0xbe04f5b7	-0.12984358
168	0xbea63d32	-0.32468563
169	0x3ea9db60	0.33175182
170	0xbeba84c7	-0.36429426
171	0x3e3d97cf	0.18514942
172	0x3e91e7dd	0.2849721
173	0xbd9db8dd	-0.077012755
174	0x3de7e92d	0.113237716
175	0x3e292f4c	0.16521949
176	0xbd16fa5d	-0.03685986
177	0xbe3361d4	-0.17517787
178	0xbd735a2e	-0.059412174
179	0xbbf57256	-0.0074904365
180	0x3db47186	0.088107154
181	0xbecf1806	-0.40448016
182	0xbca60ca7	-0.020269705
183	0x3e03e873	0.12881641
184	0x3dfbb8cc	0.122911066
185	0xbe634b39	-0.22196664
186	0xbe2c2278	-0.16810024
187	0x3e3abc1f	0.18235825
188	0x3d0ace2b	0.033888023
189	0x3ebf59f0	0.37373304
190	0xbe160587	-0.14650546
191	0x3e2a5a34	0.16635972
192	0xbd42453e	-0.047429316
193	0x3df7407f	0.120728485
194	0xbdbcdd7f	-0.092219345
195	0xbec6043a	-0.386751
196	0x3e298602	0.16555026
197	0x3e2b83a0	0.1674943
198	0xbeb61c2c	-0.35568368
199	0xbc65fc24	-0.014037166
200	0x3d9c6974	0.07637301
201	0x3ea8347d	0.32852545
202	0x3ece8644	0.40336812
203	0xbd94477d	-0.07240198
204	0xbd93b606	-0.072124526
205	0xbdbb23f0	-0.09137714
206	0xbe99e1d6	-0.30055112
207	0x3e4c6cb6	0.19963345
208	0x3ecca58c	0.39970052
209	0x3eb3ae45	0.35093895
210	0xbebbcb9e	-0.36678785
211	0xbedf91c5	-0.436659
212	0xbe80ac3f	-0.25131413
213	0xbda260d7	-0.07928627
214	0xbdd84c4d	-0.10561428
215	0xbee2fa61	-0.4433165
216	0xbeb646f7	-0.35601017
217	0xbea57934	-0.32319033
218	0xbdf0c76c	-0.11756787
219	0x3bd952db	0.0066321916
220	0x3ec8cbe5	0.3921806
221	0xbec53236	-0.3851487
222	0x3e6f011c	0.23340267
223	0xbdda8f8e	-0.10671912
224	0x3ea555d2	0.32292038
225	0xbea80fc5	-0.3282453
226	0xbeb8f749	-0.36126164
227	0xb9bc7e61	-0.00035952314
228	0x3d52bcec	0.0514497
229	0xbeab03f0	-0.33401442
230	0xbdc3805c	-0.09545967
231	0xbea40d8d	-0.32041588
232	0x3e6eff52	0.23339584
233	0xbe46c745	-0.19411953
234	0xbe4a35a1	-0.1974702
235	0xbeb45c16	-0.35226506
236	0x3d8f93b3	0.07010593
237	0x3ec00b8a	0.37508804
238	0x3dd59195	0.10428158
239	0x3e237dd5	0.1596597
240	0x3e6eae6e	0.23308727
241	0xbce194c4	-0.027536757
242	0xbb0542dd	-0.0020334043
243	0x3eb2a2f1	0.3488994
244	0xbe0c48c3	-0.13699631
245	0xbebf9984	-0.3742181
246	0x3c8ddd2d	0.017317379
247	0x3e6f6be2	0.23380998
248	0x3db60048	0.088867724
249	0x3eaf9130	0.34290457
250	0x3eaeb63c	0.3412341
251	0x3d78adf3	0.060712766
252	0x3e741580	0.23836327
253	0xbeb06a80	-0.34456253
254	0xbd1c3656	-0.038137756
255	0x3e759440	0.23982334

rho.rho.0.bias f4 [128]
0	0xbec42e18	-0.38316417
1	0x3e9ab505	0.30216232
2	0x3e41028a	0.18848625
3	0x3e5f5f23	0.21813636
4	0x3ddd90fa	0.10818668
5	0x38fb1d4e	0.00011974071
6	0x3df4bf08	0.11950499
7	0xbd17d0c3	-0.037064325
8	0xbecd22d4	-0.40065634
9	0xbdbe430b	-0.09290131
10	0xbebb314e	-0.36561054
11	0x3e6ee161	0.23328163
12	0xbea03907	-0.31293508
13	0xbe09f453	-0.13472109
14	0xbc8128eb	-0.015766582
15	0x3e0d4aa3	0.13798003
16	0x3eaa2ee0	0.33238888
17	0x3e8f7802	0.28021246
18	0x3caebb44	0.02132953
19	0x3e6dd3c5	0.23225315
20	0xbcce984e	-0.025219109
21	0xbdefdd69	-0.117121525
22	0xbd82faa8	-0.06395465
23	0xbcad328b	-0.021142265
24	0xbdcb143d	-0.099159695
25	0xbba07c3d	-0.004897623
26	0xbe9a8093	-0.3017622
27	0x3dc171d5	0.0944554
28	0x3d85f2b0	0.065404296
29	0x3dfe47ea	0.1241606
30	0xbe626cdd	-0.2211184
31	0x3d59444e	0.053043656
32	0x3e431cf9	0.19054021
33	0xbe41fa82	-0.18943217
34	0xbdf2f354	-0.118628174
35	0x3e98a42e	0.2981276
36	0xbe6e4afd	-0.23270793
37	0xbb250293	-0.0025178536
38	0xbe3a51af	-0.18195222
39	0xbe46ce6a	-0.19414678
40	0xbef1f9b2	-0.47260815
41	0x3db9d9f2	0.09074773
42	0xbda2a065	-0.07940749
43	0xbe8682ac	-0.2627157
44	0xbdf25f4f	-0.11834585
45	0xbc4b32c9	-0.012402245
46	0xbd2ba9ea	-0.04191009
47	0xbea90647	-0.33012602
48	0xbe002154	-0.12512714
49	0x3e730639	0.23732843
50	0xbebc6167	-0.36793062
51	0xbe2a60ae	-0.16638443
52	0x3e35c52d	0.17750998
53	0xbe2a1900	-0.16611099
54	0xbeb16b1b	-0.34652027
55	0xbe8342f3	-0.25637016
56	0x3d949b6e	0.07256208
57	0xbd858ac9	-0.06520612
58	0x3c9d30bc	0.019188277
59	0x3c5c5224	0.013447318
60	0x3d90d851	0.07072509
61	0xbe50dbee	-0.20396397
62	0xbd730c66	-0.059337996
63	0xbf010273	-0.5039436
64	0xbe90cad8	-0.28279757
65	0x3e19d9c8	0.15024483
66	0xbc8e750a	-0.017389793
67	0xbedb5088	-0.42834878
68	0xbe5cf5b8	-0.2157811
69	0x3e7b590e	0.2454569
70	0xbebc0043	-0.3671895
71	0xbe0c23bf	-0.13685511
72	0x3e738d15	0.23784287
73	0xbed0e8da	-0.40802652
74	0xbe2ead98	-0.17058408
75	0x3e081d50	0.13292432
76	0xbea06824	-0.31329453
77	0x3c8aa5ea	0.016924817
78	0x3e7fec64	0.2499252
79	0xbda473fe	-0.08029936
80	0xbe230f0c	-0.15923709
81	0xbea42d91	-0.32066014
82	0xbebff845	-0.37494102
83	0x3dffdb91	0.12493051
84	0xbd63a6bf	-0.055578943
85	0x3cec2a49	0.028828757
86	0xbe0cec87	-0.13762103
87	0xbea1977b	-0.31560883
88	0xbd9f22ff	-0.07770347
89	0x3cd8e0f5	0.026474455
90	0x3e43306f	0.19061445
91	0x3e85ac39	0.26107958
92	0xbdc9fc1b	-0.098625384
93	0xbecc6f98	-0.3992889
94	0x3e75fa73	0.2402132
95	0xbe267a20	-0.16257524
96	0xbdcd06ef	-0.10011088
97	0xbdd6af5f	-0.10482668
98	0xbe0b0507	-0.13576137
99	0xbe0e40c2	-0.1389189
100	0xbd8d6b9d	-0.06905291
101	0xbea54f86	-0.32287234
102	0xbe7dc9bc	-0.24783987
103	0xbd59669a	-0.053076364
104	0x3de5b2b9	0.11215729
105	0x3ebba3a3	0.36648282
106	0x3e6638db	0.22482626
107	0x3e6d1e6d	0.23156138
108	0xbc91d549	-0.017801898
109	0xbcefeaf3	-0.029286837
110	0xbe0d32fe	-0.13788983
111	0xbead826c	-0.33888566
112	0x3e902ff6	0.2816159
113	0x3e137610	0.14400506
114	0x3ea02c03	0.31283578
115	0x3e21727b	0.15766327
116	0xbe4c9561	-0.19978859
117	0xbe9ab553	-0.30216464
118	0x3e9ff468	0.31241155
119	0xbe973fe4	-0.29540932
120	0xbe836638	-0.25663924
121	0xbe94f175	-0.29090467
122	0x3d472093	0.04861505
123	0x3e799536	0.24373326
124	0xbd66e494	-0.056370333
125	0xbd727db3	-0.059201907
126	0xbdd22bde	-0.10262273
127	0xbe085776	-0.13314614

rho.rho.2.weight f4 [128, 128]
0	0x3daf99a1	0.08574224
1	0xbc946d64	-0.018118568
2	0xbdaa8889	-0.08326823
3	0xbdf56a60	-0.1198318
4	0xbdd237fb	-0.10264584
5	0xbda9dd90	-0.08294213
6	0x3c9d56c4	0.019206412
7	0xbd19e271	-0.037569467
8	0x3c2ba316	0.010475894
9	0x3d596cb7	0.053082194
10	0x3a1f0642	0.0006066301
11	0xbc9e36ea	-0.019313294
12	0xbd31ad84	-0.043378368
13	0x3ad00545	0.0015870711
14	0xbd540ee2	-0.051772006
15	0xbc02bab9	-0.007979088
16	0x3c4cbdba	0.012496406
17	0xbdf1c1d2	-0.118045464
18	0xbda44762	-0.08021428
19	0xbde92747	-0.11384445
20	0x3d1d9118	0.03846845
21	0x3d98e873	0.07466211
22	0x3d8951b0	0.06705034
23	0xbcf09ec9	-0.02937259
24	0xbdafbd63	-0.085810445
25	0x3cea8322	0.028626982
26	0xbd9489b4	-0.07252827
27	0xbd7a0413	-0.06103904
28	0xbde47e44	-0.11156896
29	0xbe03ca15	-0.12870057
30	0xbdb4b4c8	-0.08823544
31	0xbcd59c2b	-0.026075443
32	0x3b337fad	0.0027389333
33	0xbcdb9d44	-0.026808389
34	0xbdab04b8	-0.083505094
35	0xbdc08bd4	-0.0940167
36	0x3d1293d9	0.03578553
37	0x3ca302a2	0.019898716
38	0x3d3f7967	0.046746638
39	0xbd0a29ae	-0.033731155
40	0x3da79f76	0.08184712
41	0xbc23b1f2	-0.009991156
42	0x3ba10a2e	0.0049145436
43	0x3d7383e4	0.059451953
44	0xbd634ba4	-0.05549206
45	0xbd494f35	-0.049147803
46	0xbd53875e	-0.051642768
47	0xba86d297	-0.0010286149
48	0x3d779a77	0.060450044
49	0xbc3f2ba1	-0.011668117
50	0x3ca43f8d	0.020049835
51	0x3cd1f96b	0.025631627
52	0xbdf601e7	-0.120120816
53	0x3d881119	0.06643886
54	0x39bb34de	0.0003570681
55	0xbd2aa2ae	-0.04165905
56	0xbd185b3b	-0.03719638
57	0xbdc26c64	-0.0949333
58	0xbd516fc4	-0.05113198
59	0xbd592be0	-0.053020358
60	0xbd43542f	-0.047687706
61	0x3d66eded	0.056379247
62	0xbb5d20e6	-0.0033741533
63	0x3d8f9210	0.07010281
64	0xbd861f1c	-0.065489024
65	0xbd94ebcf	-0.072715394
66	0xbda7d652	-0.08195175
67	0xbcf4c72f	-0.029880134
68	0xbdb17b16	-0.08666055
69	0xba960805	-0.0011446482
70	0xbb004966	-0.0019575
71	0x3d963381	0.07334042
72	0x3cbf1458	0.02332513
73	0x3cfb27f0	0.030658692
74	0xbcddcadd	-0.027074272
75	0x3c9cd386	0.019143831
76	0x3d541315	0.05177601
77	0xbc07a67d	-0.00827944
78	0xbd9c33ae	-0.076270446
79	0xbd2958de	-0.041344516
80	0xbd92542b	-0.0714496
81	0x3d966d25	0.073450364
82	0x3d9a3b38	0.07530826
83	0xbd91df70	-0.071226954
84	0xbd81f82e	-0.06346165
85	0xbb86b75d	-0.004111214
86	0x3ceb7825	0.028743813
87	0x3b524ab1	0.0032087977
88	0xbd99ba7b	-0.075062715
89	0xbd8ecc4a	-0.06972559
90	0xbdbb7bfe	-0.09154509
91	0xbbc5c463	-0.006035374
92	0xbd734cc2	-0.059399374
93	0xbd8d4321	-0.068975694
94	0x3c231df1	0.009955869
95	0xbd9450a1	-0.07241941
96	0xbc995b62	-0.018720333
97	0xbc7aedc7	-0.01531548
98	0xbdaab1a1	-0.08334661
99	0xbda7ca8b	-0.08192929
100	0x3b4503ce	0.0030062082
101	0xbbf5843f	-0.0074925716
102	0x3d0c0500	0.034184456
103	0x3c7d5003	0.015460971
104	0xbdd5afce	-0.10433923
105	0x3c7e5cb1	0.015525029
106	0xbd870f59	-0.06594724
107	0xbd2eb9eb	-0.042657774
108	0xbd0c6ae9	-0.034281645
109	0xbda519d0	-0.08061564
110	0xbd49155a	-0.049092628
111	0xbd59785a	-0.05309329
112	0xbdff2385	-0.12457947
113	0xbc97bd0c	-0.018522762
114	0xbc11d92a	-0.008901874
115	0xbcc3d949	-0.02390732
116	0xbdb2ed73	-0.08736696
117	0x3bc65628	0.006052751
118	0xbe12a33a	-0.14320078
119	0xbd10a69e	-0.03531515
120	0x3b2c663f	0.002630606
121	0x3d48b652	0.049002
122	0xbdc24062	-0.09484936
123	0xbc0c077b	-0.008546705
124	0x3d024571	0.031804506
125	0xbd6f74fb	-0.05846117
126	0x3db3564d	0.08756695
127	0xbcb2ec1f	-0.021841107
128	0x3c9dd562	0.019266788
129	0xbd193c79	-0.037411187
130	0x3b2e8411	0.002662901
131	0x3ce510df	0.027962146
132	0xbdb3e254	-0.08783403
133	0x3d7f1ca3	0.06228317
134	0x3d29d314	0.041461065
135	0xbd0fec6e	-0.035137586
136	0xbd65d34e	-0.05610972
137	0xbd269449	-0.04066876
138	0x3d140887	0.036140945
139	0xbdb2371d	-0.08701918
140	0xbd2810c6	-0.04103162
141	0xbd7a7a25	-0.061151642
142	0x3da04f95	0.07827679
143	0x3d46ad13	0.0485049
144	0xbdb34f03	-0.08755305
145	0xbd983964	-0.074328214
146	0xbd311550	-0.043233216
147	0x3d8dff18	0.06933421
148	0x3d856d51	0.06514991
149	0x3d43f2ed	0.047839094
150	0x3cc8e627	0.024523808
151	0xbd8c86d3	-0.06861653
152	0xbc76106e	-0.015018566
153	0x3d9dea07	0.07710653
154	0xbd588c44	-0.052868143
155	0xbcccbed2	-0.024993334
156	0x3d712934	0.058877185
157	0xbcb97e05	-0.022643099
158	0xbd4e4b68	-0.05036488
159	0xbd6b2729	-0.057410393
160	0xbd53192d	-0.05153768
161	0xbda72cee	-0.081628665
162	0xbc237020	-0.009975463
163	0xbb18b685	-0.002330215
164	0x3d656b73	0.056010675
165	0xbd36234b	-0.04446725
166	0xbccc330e	-0.024926689
167	0xbd7e102e	-0.06202715
168	0x3db27568	0.087138
169	0x3a76e8fb	0.0009418872
170	0xbdad8f12	-0.08474554
171	0x3d25f05e	0.040512435
172	0x3d46bd56	0.04852041
173	0x3d757094	0.059921816
174	0x3db489d3	0.088153504
175	0xbc96e736	-0.018420797
176	0x3c9dfed1	0.019286545
177	0x3d894d6a	0.06704219
178	0x3c84f8f0	0.016231984
179	0xbc2b22f7	-0.010445348
180	0x3c524c97	0.012835643
181	0xbcf08a8c	-0.02936294
182	0x3d87e98e	0.06636344
183	0x3d0b7cce	0.03405457
184	0x3d5fc5d9	0.05463204
185	0x3cf8372d	0.030299747
186	0x3cf0c104	0.029388912
187	0x3c29ee7d	0.010371801
188	0xbd290c3d	-0.041271437
189	0xbb29cb17	-0.0025908404
190	0x3d0e0842	0.034675844
191	0xbd5c5f19	-0.05380163
192	0x3db38b92	0.08766855
193	0x3d8c9788	0.0686484
194	0xbd5cfa7f	-0.05394983
195	0xbd814d01	-0.063135155
196	0x3cb0cc3f	0.021581767
197	0xbd85ff4c	-0.06542835
198	0x3d168a5c	0.036753044
199	0x3d692b39	0.056925986
200	0x3d1c755b	0.038197856
201	0x3bc99589	0.006151859
202	0xbd3b119d	-0.045671094
203	0xbda1f20a	-0.079074934
204	0x3cd33cf1	0.025785895
205	0x3d848937	0.06471484
206	0xbb0d7bc7	-0.002158867
207	0xbb8ce15d	-0.0042993263
208	0xbd115661	-0.035482768
209	0x3bdcf88b	0.006743496
210	0xbd0a89ea	-0.03382293
211	0xbd92433d	-0.07141731
212	0x3bda6c97	0.006665777
213	0xbd01e152	-0.031709023
214	0xbd3f2fbb	-0.04667638
215	0xbd999bfc	-0.07500455
216	0xbcdc39ab	-0.026882967
217	0x3c108e2b	0.008822958
218	0xbd904b0e	-0.070455655
219	0x3c6d074f	0.014467075
220	0xbcdee6e6	-0.02720971
221	0x3d167229	0.036729965
222	0x3d199ac3	0.037501108
223	0xbc9138de	-0.017727312
224	0xbdacbca2	-0.08434416
225	0xbca4b96b	-0.020107945
226	0xbd957733	-0.07298126
227	0x3bfc32d3	0.0076964884
228	0xbdaaf0ea	-0.08346732
229	0xbd90ab7e	-0.070639595
230	0x3d52114e	0.051286034
231	0xbd35d690	-0.044394076
232	0x3cb822b3	0.022477483
233	0x3d972ba5	0.073813714
234	0xbd8e48fb	-0.06947514
235	0xbda3f96c	-0.08006558
236	0xbd8ba063	-0.06817701
237	0x3d299319	0.04140005
238	0x3da487af	0.08033692
239	0x3c9c2777	0.019061787
240	0xbd8635a2	-0.065531984
241	0xbd46c1db	-0.04852472
242	0xbd1707ba	-0.036872603
243	0xbdae0a0a	-0.084980085
244	0x3d0fcea4	0.035109177
245	0x3d8735c8	0.06602055
246	0x3d961633	0.07328453
247	0xbda50c63	-0.08059003
248	0x3d070afe	0.032969467
249	0xbc8a306b	-0.01686879
250	0xbdab9916	-0.08378808
251	0x3d613d6e	0.054990225
252	0x3d43a4b4	0.047764495
253	0xbba98e5e	-0.005174442
254	0x3baac5d9	0.0052115736
255	0xbd689215	-0.05677994

rho.rho.2.bias f4 [128]
0	0xbe0c3adc	-0.13694328
1	0x3b442620	0.002992995
2	0xbdbe2b58	-0.09285611
3	0xbe111b01	-0.14170457
4	0xbd7cc064	-0.061706915
5	0xbe069187	-0.13141452
6	0xbddcb5ee	-0.10776888
7	0x3cc5a709	0.0241275
8	0xbc041cd1	-0.008063511
9	0xbd81d37b	-0.06339165
10	0xbdf2a91d	-0.11848662
11	0xbd64db77	-0.05587336
12	0xbdb92009	-0.09039313
13	0xbdaf39df	-0.0855596
14	0xbda9bf5d	-0.08288453
15	0x3ba61a68	0.005069066
16	0x3a48c2a4	0.0007658398
17	0xbd63e04c	-0.055633828
18	0xbdec4ef9	-0.115385
19	0xbe014e07	-0.12627421
20	0xbd5ea498	-0.054356188
21	0xbd1ea587	-0.038732078
22	0x3cd196fe	0.025584694
23	0xbd3d7dcd	-0.04626255
24	0x382fa5e7	4.187776e-05
25	0x3d5fe449	0.05466107
26	0x3b748bc5	0.0037314754
27	0xbd6f538c	-0.058429286
28	0xbe09f365	-0.13471754
29	0xbd245b30	-0.040126026
30	0xbe1fbd09	-0.15599455
31	0xbcf465a5	-0.029833624
32	0xbccf02f6	-0.025269967
33	0xbd6486dd	-0.05579268
34	0xbdb3e027	-0.08782988
35	0xba853cea	-0.0010165249
36	0x3d5edfff	0.054412838
37	0xbdd1262d	-0.102123596
38	0x3c1edca2	0.009696158
39	0xbddf4e22	-0.109035745
40	0xbd88ed9c	-0.066859454
41	0x3d551237	0.052019324
42	0xbd8ecb10	-0.06972325
43	0x3d1f10a5	0.038834233
44	0xbddbbf97	-0.10729902
45	0x3b5e9c4d	0.0033967674
46	0xbc8a06e0	-0.016848981
47	0x3c18bc4a	0.009322235
48	0xbc568dcd	-0.013095331
49	0xbdaab472	-0.083351985
50	0xbc61f629	-0.013791599
51	0xbd2b3417	-0.041797724
52	0xbcb4f1b6	-0.022087913
53	0xba0b42f2	-0.0005312405
54	0x3c68c289	0.014206537
55	0xbe015ff3	-0.12634258
56	0xbd7f4c64	-0.06232871
57	0xbd229d9b	-0.039701086
58	0x3d6ff77c	0.05858563
59	0x3da62f59	0.081144996
60	0xbd2414d1	-0.040058915
61	0xbd459c2e	-0.048244648
62	0xbd73f349	-0.059558187
63	0xbdd11b0b	-0.10210236
64	0xbd6c86cd	-0.057745744
65	0xbd11b399	-0.03557167
66	0xbd9602c1	-0.07324744
67	0x3ca40ddc	0.02002614
68	0x3d2b5eb3	0.04183836
69	0x3c29b0f3	0.010357129
70	0xbcba0909	-0.022709386
71	0xbd95a6c4	-0.07307199
72	0x3d7cc6ed	0.061713148
73	0xbd80fcb4	-0.06298199
74	0xbc5b238e	-0.013375176
75	0x3ce6e8ba	0.028187145
76	0xbc5957ed	-0.013265592
77	0x3c4dd4ea	0.01256297
78	0x3be5b6de	0.007010325
79	0x3d920f37	0.07131808
80	0xbd2514f1	-0.040303174
81	0xbca8c92f	-0.020603744
82	0x3d6c37a4	0.05767025
83	0xbdafbdd1	-0.085811265
84	0xbbaf5b61	-0.0053514694
85	0xbce8ed93	-0.028433597
86	0xbdb0a23b	-0.08624693
87	0x3b2f1751	0.0026716779
88	0xbc46b181	-0.012127281
89	0xbda2d51d	-0.079508044
90	0xbd72be5b	-0.05926357
91	0xbd9cd283	-0.076573394
92	0x3b48d0f6	0.0030642129
93	0xba753b75	-0.0009354868
94	0x3a580f4e	0.00082420267
95	0xbd09759b	-0.033559423
96	0xbc7ab9f0	-0.01530312
97	0x3d48f503	0.049061786
98	0x3daeff11	0.08544744
99	0x3c93881c	0.018009238
100	0xbd4df142	-0.05027891
101	0x3d413fe4	0.04718007
102	0x3c3e43fd	0.011612889
103	0xbd3c7503	-0.04601003
104	0xbd66f5af	-0.056386646
105	0xbc0fbdca	-0.008773277
106	0x3cfbc576	0.030733805
107	0xbd2f8019	-0.042846773
108	0x3ca7ec89	0.020498531
109	0x3d866edb	0.06564113
110	0x3bc538ff	0.0060187574
111	0xbd8dffac	-0.06933531
112	0x3d0e8216	0.03479203
113	0xbd4eccfc	-0.050488457
114	0xbcd950e8	-0.026527837
115	0xbd5fdb88	-0.05465272
116	0x3dbfffec	0.09374985
117	0xbd403031	-0.04692096
118	0xbe0c4621	-0.13698627
119	0x3d1c671a	0.038184263
120	0x3d22e963	0.039773356
121	0xbe1b3c63	-0.15159754
122	0xbdd60c26	-0.10451536
123	0xbdc40022	-0.09570338
124	0xbd7ee785	-0.062232513
125	0xbdc6eeec	-0.097135395
126	0xbd86e28d	-0.0658618
127	0xbdefef47	-0.117155604
