src/old_logs/version_16/checkpoints/epoch=199-step=400.ckpt (torch, 13235 bytes, 21 tensors)

phi.phi.0.weight f4 [6, 3]
00000000: 893c 92be 8733 98bd 445d 53ba 20bb 56bf
00000010: 54b1 a2be ec85 863f 541f 943e 7fe7 a9be
00000020: 2664 6c3f 9204 04bf 6ef8 a1be 1a70 6d3e
00000030: 8286 d83e e213 853e a5f1 a2be 9b9b 4cbf
00000040: 43e4 4e3d 9896 a23f
-0.2856181 -0.07431703 -0.0008062909 -0.8387928 -0.31775916 1.050962 0.2893015 -0.3318443
0.92340314 -0.51569474 -0.3163485 0.23187295 0.4229012 0.25991732 -0.31824985 -0.79924935
0.050510656 1.2702208

phi.phi.0.bias f4 [6]
00000000: 910f 84be 11d5 db3e f8ec cc3e 38f8 c1be
00000010: 01ec b33e 1833 753e
-0.25793126 0.42935994 0.40024543 -0.37884688 0.35140994 0.23945272

phi.phi.2.weight f4 [6, 6]
00000000: 05f6 f7bd e973 273d 8e1b 533d d6d3 07be
00000010: d028 9f3c 6ae9 d3bd 16aa 923d 0790 223f
00000020: 6cdb b33e cf21 a4bd ebd1 93be 29f0 003f
00000030: 8a15 c53e 2d2d b1bf 6538 e9bd aae8 093e
00000040: 5a8f f53e a238 fabe aafb 1e3e 8c20 aabe
00000050: 517b 52bd bfe4 ff3d f79e 5abc c2b6 363e
00000060: 68f1 91bd 4958 96be b144 c9be efa8 c43e
00000070: 8d09 f33c b6b1 a63e e739 a2bd ea3d 80be
00000080: 5075 39be affc 233e 560b b9be a6d5 783e
-0.121074714 0.040882025 0.05153995 -0.13264403 0.01942864 -0.103472546 0.071613476 0.6350102
0.35128343 -0.08014261 -0.28871092 0.50366455 0.38492996 -1.3841912 -0.113877095 0.1346766
0.4796093 -0.48871332 0.1552569 -0.33227956 -0.051387135 0.12494802 -0.013343564 0.17843154
-0.07126123 -0.2936423 -0.3931022 0.38410136 0.02966764 0.32557458 -0.079212 -0.25047237
-0.18111157 0.1601436 -0.3614146 0.2430025

phi.phi.2.bias f4 [6]
00000000: b0ad b1be 8c83 003e 4c27 293e 4918 26bd
00000010: 75b9 6a3c bb10 673b
-0.34702826 0.12550181 0.16518897 -0.040550504 0.014326443 0.0035257775

rho.rho.0.weight f4 [6, 6]
00000000: 6527 5c3d 9baa f7be f4f5 593e 567b 9dbd
00000010: 4a44 2abe c7e3 5bbe 4708 653e 1f63 78be
00000020: 387d b13b a154 5dbd 23ee ff3d 1e40 a63d
00000030: 3644 7d3e 11dd eebe f0a2 b6be eab9 223d
00000040: a6a9 f83c 11c1 c7be ea97 62be 286d a23d
00000050: 09b4 283e ae50 92be ae2a c43e 4be4 7ebe
00000060: a0e1 8cbd 588e d13d 81cc 6d3e 7a59 94be
00000070: 73c1 283e 3262 c53e 3947 6a3e 2c96 e53e
00000080: 6f3d 4fbf a534 b7be 5228 423e 9e00 1a3e
0.053748507 -0.4837235 0.2128523 -0.0768954 -0.16627613 -0.21473609 0.22366439 -0.24256562
0.0054165386 -0.054035787 0.12496593 0.08117698 0.24733052 -0.46653035 -0.35671186 0.039728083
0.030354332 -0.39014485 -0.22128263 0.07930976 0.16474928 -0.2857718 0.38313812 -0.24891774
-0.06878972 0.10232228 0.23222543 -0.28974515 0.16480045 0.3855148 0.22878732 0.44841135
-0.80953115 -0.35782352 0.18960693 0.15039298

rho.rho.0.bias f4 [6]
00000000: b238 3dbd 1584 b8be f50c 953d c01a 32be
00000010: cb75 dbbd 2da2 313e
-0.046196647 -0.3603827 0.07277862 -0.17393017 -0.107158266 0.17347021

rho.rho.2.weight f4 [1, 6]
00000000: a5a6 51bd 8515 a73e 9f5d 20bd 4939 5c3e
00000010: 460b 91be 4fa7 80be
-0.051184315 0.32633606 -0.039151784 0.21506228 -0.28328913 -0.25127646

exp_avg f4 [6, 3]
00000000: 0000 0000 0000 0000 0000 0000 21a0 4bb7
00000010: f4db b2b7 2031 8eb7 63fa 7ab7 6014 0437
00000020: 7b62 f2b3 0000 0000 0000 0000 0000 0000
00000030: 7838 ea37 2494 57b7 6b1a 8b36 2020 a2b6
00000040: b870 d2b5 770f dbb6
0.0 0.0 0.0 -1.2137026e-05 -2.1321677e-05 -1.6950595e-05 -1.4959459e-05 7.872557e-06
-1.1286917e-07 0.0 0.0 0.0 2.7921269e-05 -1.284949e-05 4.1455983e-06 -4.831716e-06
-1.5679025e-06 -6.528509e-06

exp_avg_sq f4 [6, 3]
00000000: 0000 0000 0000 0000 0000 0000 4ab0 0c33
00000010: 3d83 0332 e906 e031 99f2 d631 2cc1 4731
00000020: 6191 d430 0000 0000 0000 0000 0000 0000
00000030: 7ac5 d832 865d 1a32 33a9 9f31 f897 4932
00000040: 75e3 b131 9f2b 4e31
0.0 0.0 0.0 3.2756624e-08 7.655044e-09 6.5200436e-09 6.2558e-09 2.9068117e-09
1.5466349e-09 0.0 0.0 0.0 2.5235511e-08 8.9852445e-09 4.6467448e-09 1.17342935e-08
5.177237e-09 3.000174e-09

exp_avg f4 [6]
00000000: 0000 0000 976e 53b8 8095 f1b6 0000 0000
00000010: 0335 a137 e7e5 58b7
0.0 -5.0409315e-05 -7.199764e-06 0.0 1.9217381e-05 -1.2928132e-05

exp_avg_sq f4 [6]
00000000: 0000 0000 a219 f233 c047 e932 0000 0000
00000010: bdf8 c233 ee23 5e33
0.0 1.1273666e-07 2.7157398e-08 0.0 9.079074e-08 5.172108e-08

exp_avg f4 [6, 6]
00000000: 0000 0000 0000 0000 0000 0000 0000 0000
00000010: 0000 0000 0000 0000 0000 0000 7142 e236
00000020: eb8f 76b7 0000 0000 67c5 5fb7 398f f836
00000030: 0000 0000 e618 9b37 3a48 2538 0000 0000
00000040: eee3 b637 0823 bc37 0000 0000 0000 0000
00000050: 0000 0000 0000 0000 0000 0000 0000 0000
00000060: 0000 0000 0000 0000 0000 0000 0000 0000
00000070: 0000 0000 0000 0000 0000 0000 0000 0000
00000080: 0000 0000 0000 0000 0000 0000 0000 0000
0.0 0.0 0.0 0.0 0.0 0.0 0.0 6.7430597e-06
-1.4696251e-05 0.0 -1.3337797e-05 7.4076493e-06 0.0 1.8489034e-05 3.940633e-05 0.0
2.1802229e-05 2.242766e-05 0.0 0.0 0.0 0.0 0.0 0.0
0.0 0.0 0.0 0.0 0.0 0.0 0.0 0.0
0.0 0.0 0.0 0.0

exp_avg_sq f4 [6, 6]
00000000: 0000 0000 0000 0000 0000 0000 0000 0000
00000010: 0000 0000 0000 0000 0000 0000 7712 c831
00000020: 3ea8 1335 0000 0000 3574 4234 b628 3133
00000030: 0000 0000 83b6 8831 4be9 3b35 0000 0000
00000040: a926 9334 a7a8 2633 0000 0000 0000 0000
00000050: 0000 0000 0000 0000 0000 0000 0000 0000
00000060: 0000 0000 0000 0000 0000 0000 0000 0000
00000070: 0000 0000 0000 0000 0000 0000 0000 0000
00000080: 0000 0000 0000 0000 0000 0000 0000 0000
0.0 0.0 0.0 0.0 0.0 0.0 0.0 5.8228653e-09
5.500659e-07 0.0 1.8109934e-07 4.124805e-08 0.0 3.97887e-09 7.0002415e-07 0.0
2.7409013e-07 3.8803275e-08 0.0 0.0 0.0 0.0 0.0 0.0
0.0 0.0 0.0 0.0 0.0 0.0 0.0 0.0
0.0 0.0 0.0 0.0

exp_avg f4 [6]
00000000: 0000 0000 a8a5 26b7 9544 0d38 0000 0000
00000010: 0000 0000 0000 0000
0.0 -9.932941e-06 3.368089e-05 0.0 0.0 0.0

exp_avg_sq f4 [6]
00000000: 0000 0000 3480 9d35 e64b c935 0000 0000
00000010: 0000 0000 0000 0000
0.0 1.1734724e-06 1.4997756e-06 0.0 0.0 0.0

exp_avg f4 [6, 6]
00000000: 0000 0000 54f8 4a29 30b2 852a 0000 0000
00000010: 0000 0000 0000 0000 0000 0000 0000 0000
00000020: 0000 0000 0000 0000 0000 0000 0000 0000
00000030: 0000 0000 34cb a11d c284 161d 0000 0000
00000040: 0000 0000 0000 0000 0000 0000 7978 0f1f
00000050: 5e3b 281c 0000 0000 0000 0000 0000 0000
00000060: 0000 0000 2bb5 bf2c a7bd ae2d 0000 0000
00000070: 0000 0000 0000 0000 0000 0000 6e56 5137
00000080: bd57 0038 0000 0000 0000 0000 0000 0000
0.0 4.50684e-14 2.3749188e-13 0.0 0.0 0.0 0.0 0.0
0.0 0.0 0.0 0.0 0.0 4.2826452e-21 1.9920969e-21 0.0
0.0 0.0 0.0 3.038108e-20 5.5663267e-22 0.0 0.0 0.0
0.0 5.44866e-12 1.9865732e-11 0.0 0.0 0.0 0.0 1.2477494e-05
3.059929e-05 0.0 0.0 0.0

exp_avg_sq f4 [6, 6]
00000000: 0000 0000 417c 0d33 ffbf 1f34 0000 0000
00000010: 0000 0000 0000 0000 0000 0000 0000 0000
00000020: 0000 0000 0000 0000 0000 0000 0000 0000
00000030: 0000 0000 d3f1 c133 9fae 6534 0000 0000
00000040: 0000 0000 0000 0000 0000 0000 bd80 f934
00000050: bc62 b52f 0000 0000 0000 0000 0000 0000
00000060: 0000 0000 dfcc f733 628c 3d35 0000 0000
00000070: 0000 0000 0000 0000 0000 0000 a875 8834
00000080: 245c ae34 0000 0000 0000 0000 0000 0000
0.0 3.294213e-08 1.4877877e-07 0.0 0.0 0.0 0.0 0.0
0.0 0.0 0.0 0.0 0.0 9.0312504e-08 2.1390814e-07 0.0
0.0 0.0 0.0 4.6473534e-07 3.2993863e-10 0.0 0.0 0.0
0.0 1.15390996e-07 7.061227e-07 0.0 0.0 0.0 0.0 2.541758e-07
3.2477067e-07 0.0 0.0 0.0

exp_avg f4 [6]
00000000: 8145 2e2b 0000 0000 5f28 671f bd11 b41f
00000010: 661e 5e2e ff2b c0b7
6.1913674e-13 0.0 4.8949547e-20 7.626231e-20 5.0503955e-11 -2.290867e-05

exp_avg_sq f4 [6]
00000000: bf4b 8a37 0000 0000 9f5d db37 2993 6136
00000010: cd7e 8338 56bd 2938
1.6486154e-05 0.0 2.615043e-05 3.3613271e-06 6.270185e-05 4.0469073e-05

exp_avg f4 [1, 6]
00000000: 5834 c3a8 0000 0000 872a 5f9f f831 2d1e
00000010: 32e9 82aa 434c bf38
-2.167205e-14 0.0 -4.7257265e-20 9.168877e-21 -2.325445e-13 9.1217946e-05

exp_avg_sq f4 [1, 6]
00000000: eb20 c536 0000 0000 84ec e237 98a0 7833
00000010: a2d0 c935 3637 5838
5.8748897e-06 0.0 2.7051436e-05 5.788806e-08 1.5036387e-06 5.1549832e-05
