src/old_logs/version_68/checkpoints/epoch=199-step=9600.ckpt (torch, 94379 bytes, 39 tensors)

phi.phi.0.weight f4 [51, 3]
00000000: 18d1 b6bd 5e3f 1bbe e284 e6bd b539 f03d
00000010: 80bf a3be 0386 e3be a381 e0be 4a12 153f
00000020: 5395 8a3c 2b4f 803e 0706 10bf 0a78 aebd
00000030: 4525 e7be 9237 4cbd b1a9 033f 8425 d23e
00000040: ac8d 5ebe f5aa a4be eadf f1be 17c6 91be
00000050: 3d31 4a3e f509 afbe b77b a23e d15c 54be
00000060: 6580 053f 10d0 1cbe b336 d8bd 61e2 a83e
00000070: b8f7 c93e e625 d13e 1e2f d13e 34fc 0dbf
00000080: e879 9e3e 668c 95be 1736 d73e 2287 e83e
00000090: d630 45bd acda 4b3e bd28 fa3d 52e1 813e
000000a0: ae41 c63e 5a1d 2b3e fd0c 46be 2906 ba3c
000000b0: 208e 883d 0b41 f4be dd52 423e 2a9b c0be
000000c0: 503d b73e 4458 023f 16ff 8e3d f90d f53e
000000d0: cca5 4e3b 49a7 bd3e 9578 933e 7b56 f6be
000000e0: db15 edbe 2e41 03be 0916 763e 1e17 cbbd
000000f0: 3aca efbd 65c0 b23e 8572 043f 82e9 723e
00000100: 58e4 293e 29f5 913e e5ef a03d 461c 05bf
00000110: 3fa0 12bf 71ad 09bf baf9 01bf 06e3 df3e
00000120: df08 27bd 3de7 ccbe 80cd 003e 7250 623c
00000130: f3f4 abbe 1058 0bbf 7d24 183e d2e3 bd3c
00000140: b4c6 48be 9bd0 a4be e76f 1cbe c37c 003f
00000150: 5594 ecbe f246 6abe 2f1d 3cbe aac0 043f
00000160: 50b0 d03c 3061 cc3e b2ad 6abd b4fa b8bd
00000170: 9900 a83e a171 6abe 9563 a93e 4f8e 033f
00000180: 432c 643e 6a64 b03e d655 e9be 911e 083f
00000190: 3bc1 b2be 22db a13e 3630 403e b750 4a3d
000001a0: fce3 223e 0403 11bf a428 0d3f 5a6b 18bd
000001b0: 36fa 023f 9217 273c c56c 79be 8622 bf3e
000001c0: cea9 ca3a f1b2 b7be 3478 a53d f511 10bf
000001d0: d466 b8be e765 e8be 48bf 393d 2418 9fbe
000001e0: f358 4ebc 1cc7 e0be f2ad febe b42c 5bbd
000001f0: 3eae a53d 5ea4 d83e f4fd 39be 69a2 103f
00000200: 1403 ccbe 14a3 573e 624b 02bf f59c 073f
00000210: 3c23 5fbe 3130 a43e 39d5 e33c a04e 61be
00000220: d8bf 00be 3c7a 54be 9d87 af3e 8ead d23e
00000230: 6287 0a3f 471c 01be d1be 26be 5872 90be
00000240: 826c 13bd 8289 0d3e c0ba 61bd dc01 bfbe
00000250: 3a6f 2e3d 8a85 8cbc 3772 ecbe 2fcd 20be
00000260: c78c c1bc
-0.089266 -0.15160891 -0.11255814 0.11729757 -0.3198204 -0.4443818 -0.43848905 0.5823103
0.016916906 0.250604 -0.56259197 -0.085189894 -0.45145622 -0.049857683 0.51430804 0.41044247
-0.21733731 -0.3216168 -0.47241145 -0.28471443 0.19745345 -0.34187284 0.31735012 -0.20738532
0.5214904 -0.15313745 -0.10557308 0.32985213 0.39446807 0.40849227 0.4085626 -0.55462956
0.30952382 -0.29208678 0.42033455 0.45415598 -0.048142277 0.19907635 0.122148015 0.25367218
0.38721985 0.16710415 -0.19340892 0.022708016 0.06667733 -0.47705874 0.18976922 -0.3761838
0.35788965 0.5091593 0.069822475 0.47862223 0.0031531928 0.3704169 0.28802934 -0.48112854
-0.46305737 -0.12817833 0.24031843 -0.09916519 -0.117084935 0.3491241 0.5173724 0.23721889
0.16591012 0.28507355 0.07858256 -0.51996267 -0.57275766 -0.53780276 -0.5077168 0.43727893
-0.040779945 -0.4002017 0.12578392 0.013813125 -0.3358532 -0.5443125 0.14857669 0.023179922
-0.19607049 -0.32190403 -0.15277062 0.5019037 -0.46206918 -0.22878626 -0.18370508 0.5185648
0.025474697 0.39917898 -0.057294555 -0.09032193 0.32812956 -0.22894908 0.33083788 0.5138902
0.2228251 0.3445161 -0.455733 0.5317164 -0.34913048 0.31612498 0.18768391 0.049393382
0.15907282 -0.56645226 0.5514014 -0.037211753 0.5116304 0.010198491 -0.24357899 0.37331027
0.0015461983 -0.3587871 0.080795676 -0.562774 -0.36015952 -0.45390245 0.045348436 -0.31073105
-0.012594449 -0.43901908 -0.49742085 -0.05350943 0.08089875 0.42312902 -0.18163282 0.5649782
-0.39846098 0.21058303 -0.50896275 0.5297387 -0.21790785 0.32068017 0.027811633 -0.2200265
-0.12573183 -0.20749754 0.34283152 0.41148037 0.5411283 -0.12608443 -0.16283728 -0.28212237
-0.035992153 0.13821986 -0.05510974 -0.37306106 0.042586543 -0.01715352 -0.4618089 -0.15703271
-0.023626698

phi.phi.0.bias f4 [51]
00000000: 6c8c 0fbf 63eb a13d d99c 2f3e 6bb4 7abd
00000010: 6261 a3bd e9bf ac3b 5ab1 163e 7da1 8dbe
00000020: 4623 87bd 4e8d a43e 9c0a 37be 3370 0a3c
00000030: 8eb4 08bf 6f02 e1be dc8e 63bd ba46 4cbe
00000040: 6091 0d3f 8745 04be c4ac f6be 00a0 003f
00000050: 0413 bfbe 760c f13e 221f 70bd 582d e83d
00000060: 58ef 10bf 14c3 083f 2d11 ff3b 5d3b 94be
00000070: 33f4 d2be c3f1 c43d e88b 0bbf 15f8 d73e
00000080: 0013 9c3e 1a17 ff3e fd98 053f dd28 aebe
00000090: e1eb 24be d7ed ba3e 5433 c13e dd6e 143f
000000a0: 324d 74be c876 c33d 3ed0 7cbb 8185 af3e
000000b0: edd2 90be 0bc2 083f 262d 39be 3d53 983e
000000c0: 2399 df3e 689e 13bf 294d dc3d
-0.5607364 0.079062246 0.17149676 -0.061207216 -0.07977559 0.005271901 0.14716092 -0.27662268
-0.06598525 0.32139057 -0.17875141 0.008449602 -0.53400505 -0.4394717 -0.055556163 -0.19948855
0.5529995 -0.12917148 -0.48178685 0.5024414 -0.37319195 0.4707982 -0.05862344 0.11336774
-0.5661521 0.53422666 0.00778403 -0.2895154 -0.41201934 0.09616425 -0.54510355 0.4218146
0.30483246 0.49822313 0.52186567 -0.3401555 -0.16105606 0.36509582 0.37734473 0.57981664
-0.23857573 0.0954414 -0.003857627 0.34281543 -0.28285924 0.53421086 -0.18083629 0.29751006
0.43671522 -0.57663584 0.10756905

phi.phi.2.weight f4 [51, 51]
00000000: 20a4 c4bd 5938 743d 4e09 e53d 1868 57bd
00000010: a153 c2bd 1f6b a3bd 605d df3d 8cd8 b9bc
00000020: 6829 e7bd eb0f d93d af4a aa3d c3cf bbbc
00000030: da09 843c 9ed8 8c3c c496 0a3e 1454 a63d
00000040: bd13 883c 3ae3 b5bb 03b4 383d dd86 e5bd
00000050: 937b 9b3d bea0 4d3d c6cc 843c 4d74 a63d
00000060: ea37 ddbc 36ec 0bbe a830 00be fb2f 073e
00000070: 1630 3dbd 4711 e3bd f54f 0c3e 1660 dcbd
00000080: 0f73 d73d 91b6 ed3d e27c d8bc 39fd a63d
00000090: 2ffb c93d 98c4 0fbe 8345 abbd 0448 1d3c
000000a0: f8d0 333d 4b7f d5bd 4b07 fdbd f984 003e
000000b0: d628 87bd 8db7 14be 1ab4 583d 4a38 a5bd
000000c0: 3b74 6bbd 3629 49bd 235c 043e 4a44 5a3d
000000d0: 1893 1b3e d8b3 4abd b6fc ed3d e5b5 e8bd
000000e0: ebb5 cb3d 8fca bb3b 9959 ab3b 4715 093e
000000f0: d442 cd3c 1f91 38bd ac2b 9ebd 0bde b93c
00000100: 8de0 3fbd b9fe 903d 0c83 efbd 7938 a3bd
00000110: c1c8 0b3e e407 5ebd 3d75 fdbd 872c cd3d
00000120: aabc c1bc 64e8 583a a8ae b13d 2077 3f3d
00000130: fd75 f5bd fb96 213d 48ee 0a3e 178f 04bc
00000140: cd06 ee3d bd3c fb3d fe1d 863d 1257 ebbd
00000150: 94c6 093e 24e2 ff3d b5ef 2b3d 58ba 503b
00000160: e7d2 a7bd 90e9 393d 4065 0ebd 867e 003e
00000170: a2b1 01be 0c54 f73c 0644 393c c99b c039
00000180: 594c 4fbb f33f 963d 0e0e d9bd 380a 363d
00000190: a7f5 bebd 197a 363d 0cc8 42bc 8491 913c
000001a0: e1b6 a13d 6c0e 64bd 49cc e6bd b8c7 85bd
000001b0: 9ac2 e93d d16f e9bd 1ddc b53d 5285 4abd
000001c0: 7050 f13b efea 6a3d cd36 4abd 0a8b c5bd
000001d0: 251c 423d f82f ad3d ffb5 553d 11d3 9fbb
000001e0: f59f 743c b8cf 703d f9c7 363d 9724 8ebd
000001f0: 5ab8 ce3d 0e8b 99bc 8c45 62bd 1b0b 2dbd
00000200: 5857 983c 7562 94bd 013a d1bd e1ea 9f3d
00000210: 6906 ea3d 9683 0ebe 7436 e43d e586 a8bd
00000220: b379 073d a5b3 043e e455 b3bd 05d1 6bbd
00000230: 8250 253d eb61 b3bd ba3a 5fbd 2067 f0bd
00000240: c0df 853c c50c b33d cd9c 193d cc26 ccbc
00000250: 5aec 073e 15d6 df3d f002 9cbd 290c a43d
00000260: 2896 03bd 62f8 383d e8ce 683c 8b60 633d
00000270: a020 97bd e338 8abd 0221 abbd c7ae b9bd
00000280: bd50 77bd 03fa ee3c dad7 0b3d 9d42 ae3c
00000290: f468 c13d a718 da3d f16c e73d e47c b23d
000002a0: 40e8 8fba 8627 f73c 98d7 9bbd b8d0 193b
000002b0: 43a7 a63b 9178 eabd 5a00 df3d b63a febc
000002c0: 2277 db3d d636 883d 5f9b a5bd 918b 233d
000002d0: b4b9 7cbd 2226 8dbd c60d 1f3d 003e 8c3d
000002e0: ade7 b0bd 06c0 9abd 22ff cc3d 81db 69bd
000002f0: 437b c0bd 6477 f8bd 2bcf 9b3d 047c c43d
00000300: 4c5b 083e 9150 d7bd f622 183c f21b 013d
00000310: d908 f93b b195 e73c a828 0abe fe2a 10be
00000320: aea4 80bd f34d ee3b 6cc9 2d3c 95f8 a3bc
00000330: 8634 0fbe 8d4d b03d 9e0e b7bd eef9 093d
00000340: 4e8c d1bd cbff d13d 4cd3 e63d 0bdd 95bd
00000350: 1664 fb3d b5cb 1abd 5262 07be 9424 40bc
00000360: 3576 d8bd 3840 ef3c a6ab dd3c 1706 7dbd
00000370: 6d02 15bd 4160 3a3d 7502 9dbd 399b 7c3d
00000380: dc5d d4bd 989d b03d 0173 88bd 795e efbd
00000390: 6914 dc3c 9407 923c cc77 d7bd 9a1b fc3d
000003a0: d7e6 4ebd 0db6 c53d ba1f 14bd 9cdc ca3d
000003b0: 4527 84bd ff7b bebd e363 e1bd fe64 92bd
000003c0: 57c6 9bbd 8644 893d 5786 b6bd 4182 9fbc
000003d0: 6362 50bd 6da1 3bbd 2085 e6bc b7e4 a83d
000003e0: 9888 6cbd 53c0 e7bd 62a7 cd3d 538b a0bd
000003f0: 558c ce3d 3b86 69bc 969c 87bc d87c 063e
-0.09601617 0.05962405 0.11183415 -0.052589506 -0.09488607 -0.07979416 0.10906482 -0.022686265
-0.112871945 0.10598739 0.08315026 -0.022926217 0.016117979 0.017193135 0.13534075 0.081215054
0.016610974 -0.005550769 0.045093548 -0.11207364 0.07591929 0.050202124 0.016210925 0.08127651
-0.027004201 -0.13664326 -0.12518561 0.13201897 -0.046188436 -0.1108728 0.13702376 -0.107605144
0.105199926 0.116070874 -0.026426736 0.08153767 0.098623626 -0.14039838 -0.08362868 0.009599689
0.04390046 -0.1042467 -0.12354907 0.12550725 -0.06599586 -0.14523144 0.052906133 -0.08067377
-0.057483893 -0.049111567 0.12925772 0.05328778 0.1519283 -0.04948792 0.116204664 -0.11362819
0.099468075 0.005730934 0.0052291867 0.13387023 0.02505628 -0.045060273 -0.077231735 0.022688886
-0.046845008 0.070798345 -0.11694917 -0.07969756 0.136508 -0.054206744 -0.12375877 0.100182585
-0.023649532 0.0008274375 0.08675891 0.046744466 -0.11985395 0.039450627 0.1356746 -0.008090756
0.11622391 0.12267444 0.06548689 -0.11491217 0.13454658 0.12494305 0.04197665 0.003184935
-0.08194523 0.04538876 -0.03476453 0.12548265 -0.12665418 0.030191444 0.011307722 0.00036737163
-0.00316312 0.07336416 -0.10598384 0.04444334 -0.09324198 0.044550035 -0.011888515 0.017769583
0.078962095 -0.055677816 -0.11269433 -0.06532234 0.114140704 -0.113982804 0.08879874 -0.04944355
0.007364325 0.057352956 -0.04936867 -0.0964566 0.047390122 0.08456415 0.052175518 -0.004877456
0.014930715 0.058791846 0.044624303 -0.06940573 0.10093756 -0.018743064 -0.055242106 -0.04224692
0.018596336 -0.07245342 -0.102161415 0.078084715 0.11427004 -0.13917384 0.111431986 -0.08228854
0.033075046 0.12959154 -0.08756617 -0.057572383 0.04035998 -0.08758911 -0.054499365 -0.117384195
0.016342044 0.0874267 0.037503053 -0.024920844 0.13273755 0.10929505 -0.07617748 0.08010132
-0.032125622 0.04515875 0.014209487 0.055511992 -0.073792696 -0.067491315 -0.08355905 -0.09066539
-0.060379732 0.02917195 0.0341414 0.021271998 0.09443846 0.10649233 0.11300076 0.08715227
-0.001097925 0.030170213 -0.076094806 0.0023470353 0.005085857 -0.114487775 0.10888739 -0.031033855
0.10716082 0.06651084 -0.08086275 0.039928023 -0.061700538 -0.06892039 0.038831495 0.06847763
-0.08637939 -0.07556157 0.100096 -0.0570941 -0.0939851 -0.12132147 0.076078735 0.095939666
0.13316077 -0.10513414 0.009285679 0.03152079 0.0075999317 0.02826962 -0.13492072 -0.140789
-0.0628141 0.007272476 0.010607105 -0.020015994 -0.1398488 0.08608542 -0.08938335 0.033685617
-0.10231839 0.10253867 0.112707704 -0.07317551 0.12274949 -0.037791926 -0.132211 -0.011727471
-0.10569421 0.029205427 0.027059387 -0.061773386 -0.036379267 0.04550195 -0.07666484 0.06167147
-0.10369465 0.086238086 -0.0666256 -0.11687941 0.026865201 0.01782588 -0.10520896 0.12309952
-0.050513115 0.09653864 -0.03616307 0.09905359 -0.064528026 -0.09300994 -0.1100538 -0.07148169
-0.0760619 0.06702523 -0.08912342 -0.01947129 -0.05087508 -0.045808244 -0.02813965 0.08246749
-0.057747453 -0.1131598 0.10041691 -0.07839074 0.1008536 -0.014253194 -0.016554158 0.13133562

phi.phi.2.bias f4 [51]
00000000: 7ac0 c33d 34d5 1fbd ce09 a1bd 3915 823c
00000010: c185 3c3c a603 913d 54ae 1a3e 3dfc 66bd
00000020: 26dd 0e3e 3de5 8d3d 1451 e23d be0c 583d
00000030: 9c81 abbc b66b 9d3c df2c 713b 16cd d3bd
00000040: 9fec 3ebd 8919 f03d 4e2e 173d 62dc f23c
00000050: 7f23 313b 997f f73c 5546 dcbd 60ea b9bc
00000060: 7d6b 78bc eadb 65bd 9742 b5bd c526 6fbc
00000070: efe8 3c3c 6d92 3bbd 1830 0cbd 0516 4bbd
00000080: a0c6 03bd 9af1 e4bd fc7c 003e 1a2b 99bd
00000090: 1acc 893d ffe4 04be 49d4 d1bb dbc6 53bc
000000a0: d8e5 f3bd e5a0 55bb 2375 d3bd aeed 5a3d
000000b0: fd9d 9c3d 3c4b 11bd 0d1b be3c b31b 98bd
000000c0: 7176 123d a55f 07be 52b3 033e
0.09558196 -0.039021686 -0.07863198 0.01587926 0.011506499 0.07080774 0.15105563 -0.056392897
0.13951549 0.06928489 0.11050621 0.052746527 -0.020935826 0.0192164 0.0036800427 -0.103418514
-0.04661238 0.117236204 0.036909394 0.029646102 0.0027029214 0.03021221 -0.10755602 -0.022694767
-0.015162346 -0.05611793 -0.08850592 -0.014596646 0.011530145 -0.04579394 -0.034225553 -0.049581546
-0.032171845 -0.11178894 0.12547678 -0.07478924 0.067283824 -0.1297798 -0.00640348 -0.012925829
-0.119090736 -0.0032597121 -0.103250764 0.053449325 0.076473214 -0.03547214 0.023206258 -0.07427158
0.035757486 -0.13220079 0.12861374

phi.phi.4.weight f4 [5, 51]
00000000: 4c3b 01bc b7e7 ed3c a9f6 f23d 2e89 edbd
00000010: 3b61 95bd aac5 cd3c 3512 0fbe bb76 023d
00000020: 9c04 43bc 3380 06be 85bc 0ebd 5cdf d1bd
00000030: 52a1 5d3c 6a53 d33d d77c 083e 1113 06be
00000040: 3185 4c3d 2bbb dcbd 8cdc 4b3d e3da 9d3d
00000050: a099 08be 6bfe cebd c692 00be c91a 57bc
00000060: fc30 523d 8b5c d2bd b745 15bc e7a9 47bd
00000070: 2116 023e 4c77 03be 3b2c 9fbd 49ef abba
00000080: 097c dfbd e5be dc3d 62bc 03be 9f0a 39bd
00000090: 72d8 6fbd 6030 a8ba 7940 88bd 6fe1 cd3d
000000a0: 9ce1 f6bd e843 97bd bc41 83bd 1f0c 09be
000000b0: 9f38 0ebe 1261 4a3d 320c 073e ac61 afbc
000000c0: 4887 5ebd cfbb 7a3d adfb a83d 85af 00be
000000d0: efeb 88bd 4b65 f23d bc49 7f3d b61d 05be
000000e0: e890 2b3b 7e2a d9bd ded4 ddbd b76f 8ebd
000000f0: 5151 0e3e 975a a5bd a41d c53d 7320 02be
00000100: e5d3 1dbc 9aac 013e dcc8 00bd 69ac 45bd
00000110: 0d91 7dbd e344 cfbd d506 383d 380d d1bd
00000120: 0166 b6bd e31d f93d 6d65 d53d 45f3 95bd
00000130: 90ba 413b 4d1b 1abd 2952 da3d d3bb 00be
00000140: 00d4 00be 2c5f 8c3d 42ac da3b 56c7 27bd
00000150: 5ae2 923d ed8e 6b3d c017 c3bd b6d7 a33d
00000160: f088 a63d 4635 a2bc ac1c f8bd 57d4 703d
00000170: 61d7 aa3d 746f 0ebe 42ab 04be 7d82 8abc
00000180: b17b fbbd 393e 8fbd aad0 df3d 5ccb d13c
00000190: be53 ab3d 8413 073d 39e9 033e e6ea 613d
000001a0: 4be4 283d d705 c93d 335e 81bd f4c8 e53d
000001b0: a057 d23b 2942 033e daca babd b3b4 d2bd
000001c0: 0918 c13d f9d4 b4bd 9ea9 dd3c 98d6 073e
000001d0: 1c7f d63c 25b2 cbbd 049c aebd 3707 aebd
000001e0: 533c d2bd b7e5 8c3d 2b89 4a3c f0bb 4ebc
000001f0: f3bf 003d f5b1 973d 4bb8 a53b 277c aa3d
00000200: 101f 9abc 4d8c 5d3d 302c b83c 477c 9e3a
00000210: 3ba5 d03d fe7f 023e 8fc5 d63d 208c 11bd
00000220: e068 59bd 7810 ec3d 6cc6 91bd d1cb 0f3c
00000230: 36c2 a2bd cb2b 15bd 5e35 56bd da9d a33d
00000240: f203 8dbd 7dd8 8cbd 4e2e 543d 5dda 7ebc
00000250: b63c 5d3c f689 cebd a2fa 8ebd 3a19 903d
00000260: 23f2 683d 3875 03be be20 c7bd 81a8 263d
00000270: e632 e1bd 10bf 97bd 4c36 a2bd 54df dabd
00000280: 5a14 8cbd 8d35 c93d 5fe8 03be 2506 be3d
00000290: 868e f8bd 21b2 1abd 11af 3fbd f8ec b53d
000002a0: 1d53 e8bd 50a8 8ebd cd34 0dbe fca3 28bd
000002b0: 8136 643d 7aaa 073e 8871 f83d 188e 18bd
000002c0: e5b9 98bd fa85 fe3c c13c be3d c873 003e
000002d0: d840 c43d 67d7 24bb 16eb ecbd 0d8a adbd
000002e0: a0ce ae3d db20 f4bd cf0a d2bd 778e b6bd
000002f0: af0d 1abd cfb4 853d e3c3 c63d 9108 dd3d
00000300: 891f 853d fa38 023d f9f1 16bd 58b6 afbd
00000310: 080c 92bd a16b 8abb 4d48 f83d bc23 4cbd
00000320: 6cf1 abbc b195 78bb 790e 81bd 285e 88bd
00000330: db95 fe3c b69d e9bd 1ab0 0abc 9605 3abd
00000340: d13e 873c 2dc7 cfbc 6046 b6bd 7e28 2dbd
00000350: 9ae1 44bd eb50 3d3d 4ae8 993c 56cd 69bd
00000360: b1c2 e03d 34ac 4b3c 6990 9c3d 4819 5abd
00000370: d62b f3bd 2c0a 18be 6033 77bd c82e a23d
00000380: 3e10 a03d 0fca 2e3d ca81 dd3c 7976 dabd
00000390: 1b32 67bd 2f22 8b3b 4344 fabd 3c71 02be
000003a0: 7dbc f7bd 7bd9 313d a685 91bc 2eea 17bd
000003b0: f388 9a3d b1d0 bfbd 7fe1 cdbd 5e32 03bd
000003c0: dd8e 943d 67a1 853c 5352 f7bd 8cf0 ca3d
000003d0: 198c a6bd ac6d c53d f6f0 183d 07d3 be3c
000003e0: d153 d33d 6791 233d c06a 0dbe 17be 5e3d
000003f0: 19cf 013e 2314 6ebd 7197 b73d
-0.007887673 0.029041154 0.11863453 -0.115984306 -0.07293936 0.025118668 -0.13971789 0.03185151
-0.011902954 -0.13134842 -0.034847755 -0.102476805 0.013527231 0.10318644 0.13328873 -0.13093211
0.04993171 -0.10777887 0.049770877 0.07707765 -0.13339853 -0.1010712 -0.1255599 -0.013128945
0.051316246 -0.102715574 -0.00911086 -0.048746016 0.12703754 -0.12838477 -0.07772108 -0.0013117577
-0.1091233 0.10778598 -0.12864831 -0.045176145 -0.058556028 -0.00128318 -0.06652922 0.10052764
-0.1205475 -0.07385999 -0.06409022 -0.1338353 -0.13888787 0.04940898 0.13188246 -0.021408878
-0.054328233 0.061214264 0.08251128 -0.12566955 -0.06685626 0.11835726 0.062326178 -0.12999615
0.00261789 -0.10603808 -0.10831617 -0.06954902 0.13898207 -0.08073919 0.09624794 -0.12707691
-0.009633039 0.12663499 -0.031441554 -0.048260126 -0.06190591 -0.10120561 0.04492839 -0.102075994
-0.089061745 0.121639036 0.10419736 -0.073217906 0.0029560663 -0.037623692 0.10660202 -0.12571649
-0.12580872 0.0685409 0.0066733668 -0.040961586 0.071720794 0.05750935 -0.09526014 0.08000128
0.081315875 -0.019800793 -0.12114844 0.058796253 0.083418615 -0.13909703 -0.12955955 -0.016907925
-0.12279452 -0.0699429 0.109284714 0.025609665 0.08365582 0.032977596 0.12881936 0.055155657
0.041233342 0.09815567 -0.06316795 0.112199694 0.006419137 0.12818207 -0.09120722 -0.10288372
0.094284125 -0.08829684 0.027058419 0.13265455 0.026183657 -0.09946088 -0.08525851 -0.0849747
-0.10265412 0.06879752 0.012361805 -0.01261805 0.031433057 0.074069895 0.00505737 0.083244614
-0.01881364 0.05408888 0.022482008 0.0012091481 0.10187765 0.12744138 0.104869 -0.035534024
-0.053078532 0.11526579 -0.07117924 0.008776621 -0.07947199 -0.036418717 -0.05229699 0.07989092
-0.06885518 -0.06877229 0.051801972 -0.015554992 0.013503244 -0.10084908 -0.06981398 0.070360616
0.056871545 -0.12837684 -0.09723042 0.04068804 -0.10996036 -0.07409489 -0.079205126 -0.10687128
-0.06839819 0.09824667 -0.12881611 0.09278516 -0.12136559 -0.037767533 -0.046797816 0.08883089
-0.113439776 -0.06965697 -0.13789673 -0.041172013 0.05571604 0.13248625 0.12131029 -0.037244886
-0.074573316 0.031069744 0.09288932 0.12544167 0.095826805 -0.0025152804 -0.115682766 -0.08473597
0.08535504 -0.11920329 -0.10255968 -0.08913892 -0.037610706 0.06528627 0.09705331 0.107926495
0.065001555 0.03179262 -0.036851857 -0.08579701 -0.07131201 -0.004224256 0.12123165 -0.049838766
-0.020989142 -0.003793102 -0.063015886 -0.06658584 0.031077316 -0.11407034 -0.008464837 -0.045415483
0.016509445 -0.02536353 -0.08900142 -0.042274944 -0.048066713 0.046219748 0.018787522 -0.05708059
0.109746344 0.012431193 0.076447316 -0.053246766 -0.118735954 -0.1484763 -0.06035173 0.07919079
0.07815598 0.042673167 0.027039427 -0.10667128 -0.05644427 0.0042460184 -0.12220051 -0.12738508
-0.12096498 0.043420296 -0.017763924 -0.037088566 0.07545652 -0.093659766 -0.100527756 -0.032030456
0.072538115 0.016312314 -0.12076249 0.09909162 -0.0813219 0.09640059 0.037339173 0.023293985
0.10318721 0.03993359 -0.13810253 0.054380503 0.12676658 -0.058124673 0.08964432

phi.phi.4.bias f4 [5]
00000000: 0921 e83d a428 07bd ea78 f5bb 56a2 94bc
00000010: 52a5 e23d
0.11334426 -0.032997742 -0.0074912207 -0.018143814 0.110666886

rho.rho.0.weight f4 [38, 5]
00000000: aad6 3f3e 9332 a23e 9831 c9be d8c1 39be
00000010: 67a7 aabe 3c6d c83d 6ac4 32be 9cbd 043e
00000020: 0f77 6e3e 57fd f1bd fda3 573d e4c6 a8be
00000030: d83c 53bd c020 943d db60 a33e 280b 393e
00000040: f286 f33d 28b8 6d3e 781c b33e 540b 2c3d
00000050: a08e dc3e b595 8bbe 9d96 223e 712f bd3a
00000060: 17d7 ab3e f87e dabe b842 5e3e 9a53 c1be
00000070: 56ea 08be 3acb 0ebe 3c47 19be 0f77 5ebe
00000080: 2cae babe 8671 c8be 84d4 babd 3600 bb3e
00000090: 74a7 f5bd 6db4 9abe dfbd 02be 3629 b9be
000000a0: 77bb c6bc c71e bc3e 2894 dfbe 6b0a 773e
000000b0: 18c0 a93e 6a1a a53e 35d3 87be e740 563d
000000c0: c70f 813e 1b38 c4be a7e2 af3e d26e 06bd
000000d0: 09ab c5be 17f2 eabd 628d 873c f6a9 3abe
000000e0: 8bef 39be 4f2f 1ebd 1480 1d3e 9b9d 533e
000000f0: 23da dfbe cd0a ebbc 5c61 d33d 19c6 b83e
00000100: 0c10 603e 3ecc 9b3e 44d6 073e e7ec 32bd
00000110: ed17 7dbe cc3d 3ebe 2013 143e 0fb6 bfbd
00000120: 4dcd d23e 3393 8fbe a2b1 9b3e 82a2 923e
00000130: b33a 973e a888 b33e 9d5c 84be 6855 843e
00000140: 90b5 e2be 26c2 75be 9031 a1bd 14dd c03e
00000150: 3586 cfbd 2294 b7be 8554 ccbe b722 093c
00000160: a6be 083d d0cc de3d 433f 00be 2bc1 183e
00000170: d002 403d ef8a f0bd 168a 6a3e 7b3b a5be
00000180: 7319 6dbe 404d f13d ccd3 02be be13 c7bb
00000190: 3110 24be 3a8e 823e 0bdb d33e 2319 c43e
000001a0: ed35 e13d 1621 91be 7a19 20be a95e 57be
000001b0: a5b6 b0bd 9f00 6bbe 5476 883e c337 d9be
000001c0: 061b 413c fe71 a53e 2cbd b8be 0e77 a0bd
000001d0: c70f 7b3e f804 27be 5cd6 58be 1f0e 6b3e
000001e0: 5588 9ebe a77b e43e 0064 cd3e c101 a43c
000001f0: 89c8 933d a840 69be 3167 d53d 55bb b0be
00000200: 9ead eebd 530c b33e 85a1 053e 17e9 a53e
00000210: 9119 973e 23b6 da3e 5ccd e73d 32d1 a7be
00000220: 5341 cfbe 2426 8a3e b9fb b93e cd5a dd3e
00000230: 3593 9bbe d430 d13e 3aa7 1cbe 8f06 ef3d
00000240: 8e42 a03e 96b1 b0be 5dc5 dbbe 3c1f 9c3e
00000250: cfe5 d4be 09bc 5f3e f07a 843e 1c82 a73e
00000260: 1cc7 303c f2f9 e9bd 8de1 6e3d a0a5 7dbd
00000270: b5ca d7be 7513 d83d e462 86be 347b a93e
00000280: 5c01 57be 6a99 b2bd 4c9a b1be 74e9 d23e
00000290: 65d7 843e 157c c83e a99f 853e 9524 8dbe
000002a0: db7a d83e f451 76bd 7cac d23e 6844 803d
000002b0: 6dfe 903e a9c2 35be d1e5 333e a256 30bb
000002c0: e3be b6be a25c b13e 1e4c 79be cbb9 97be
000002d0: e6a9 b73e 4d12 d2be ee26 1e3e 2435 ba3e
000002e0: 62e1 91bd 8199 d8be dd92 b9be cd47 b5bc
000002f0: e759 91bd 7901 9f3e
0.18734232 0.3167921 -0.3929565 -0.18140352 -0.33330843 0.0978646 -0.17457739 0.12962955
0.23287605 -0.11815899 0.052646626 -0.32964242 -0.051571697 0.07232809 0.31909832 0.18070662
0.11890973 0.23214781 0.34982657 0.04200299 0.43077564 -0.27262655 0.15877767 0.0014433694
0.33562538 -0.42674994 0.21705139 -0.37759095 -0.13370642 -0.13944712 -0.1496858 -0.21725105
-0.36461008 -0.39149112 -0.091225654 0.36523598 -0.1199483 -0.3021578 -0.12767743 -0.36164254
-0.024259312 0.3674223 -0.43667722 0.24125068 0.33154368 0.32246715 -0.26528326 0.05230799
0.2520735 -0.38324055 0.3435261 -0.03282053 -0.38607052 -0.11471956 0.016546909 -0.18228897
-0.18157785 -0.038619336 0.15380889 0.2066559 -0.43721113 -0.028691674 0.10321304 0.36088637
0.21881121 0.30429262 0.1326533 -0.04368296 -0.24716158 -0.18578261 0.1446042 -0.09360897
0.41172257 -0.28041992 0.3040896 0.2863961 0.2953697 0.35065198 -0.25851908 0.2584641
-0.44279146 -0.23999843 -0.078707814 0.3766867 -0.1013302 -0.35855204 -0.39908233 0.008370093
0.03338494 0.10878909 -0.12524132 0.14917438 0.046877682 -0.117452495 0.22904238 -0.32271942
-0.2315424 0.117823124 -0.12776107 -0.0060753515 -0.16021802 0.25499135 0.41378054 0.38300428
0.10996614 -0.28345555 -0.15634719 -0.21032204 -0.08628587 -0.22949456 0.26652777 -0.42425355
0.011786228 0.32313532 -0.36081827 -0.07835208 0.24517737 -0.16310489 -0.21175522 0.22954606
-0.30963388 0.4462559 0.40115356 0.020020368 0.072159834 -0.2277857 0.10420073 -0.34517923
-0.116542086 0.3497034 0.13049896 0.32404396 0.29511693 0.42717084 0.11318466 -0.3277679
-0.40479526 0.26982224 0.36324862 0.43233338 -0.30385748 0.40857565 -0.15298167 0.11671173
0.31300777 -0.34510487 -0.42924014 0.3049258 -0.4158158 0.21849073 0.25875044 0.32716453
0.010789659 -0.114246264 0.05832057 -0.06192553 -0.4214684 0.10550586 -0.26247323 0.3310181
-0.20996612 -0.08720668 -0.34688032 0.41193736 0.25945583 0.39157167 0.26098374 -0.27566972
0.4228123 -0.06013675 0.4114722 0.062630475 0.2831911 -0.17750038 0.17568137 -0.0026907106
-0.3569251 0.34640986 -0.24345443 -0.29633936 0.3587181 -0.41029587 0.15444538 0.36368668
-0.071230665 -0.42304614 -0.3624486 -0.022128964 -0.07097226 0.3105581

rho.rho.0.bias f4 [38]
00000000: 34f7 be3e 4f9a 8dbe a707 f2bd 00ee b3be
00000010: b3a7 c03d 96a0 863e e893 1cbe bbeb 59ba
00000020: fb47 0ebd 0e96 c6be f3ca cd3e 63b0 843d
00000030: 6f60 b73e ae13 c7be 75da 05be 5084 f1bd
00000040: d8cd d63d 31fa e7bd 00ba 83be 56bf b83e
00000050: a921 b53d 54a4 e33e e346 543e 14d8 263e
00000060: 2048 97be e9ef a7ba 2f97 0fbe a1d6 44bd
00000070: 5907 b0ba 6386 903d bb59 87be 10da 94bd
00000080: 406c 53be 18af ebbd 7070 93be 2f38 6fbe
00000090: 76f8 9fbe 15c3 a0be
0.37297976 -0.2765679 -0.11817866 -0.35142517 0.09406986 0.26294392 -0.15290797 -0.00083130196
-0.034736615 -0.38786358 0.401939 0.064789556 0.3581576 -0.38882202 -0.13071616 -0.11792815
0.1048848 -0.11327017 -0.25727844 0.36083478 0.08844311 0.4446131 0.20730166 0.16293365
-0.29547215 -0.0012812588 -0.14022516 -0.04805625 -0.0013429924 0.07056882 -0.26435646 -0.072681546
-0.20646763 -0.11508006 -0.2879672 -0.23361276 -0.31244248 -0.31398836

rho.rho.2.weight f4 [38, 38]
00000000: 5b42 79bd 0e3a 0dbe 6c62 1ebe 3611 e93d
00000010: baca 2abe 7c18 893d 1905 383c 9b0c b9ba
00000020: 6987 003e 00b5 01be 5106 fe3c c626 753d
00000030: 7f5d b03d 6c1c 1bbe 41e0 fb3b a0d2 a8bc
00000040: a7eb 23be 79e7 e23d c300 eabc 38ad 7b3d
00000050: edb5 f4bd fea3 f0bd 82d6 a23c 2c38 8fbc
00000060: ff67 be3d f29e 963d 5bf8 043e 2d78 e6bd
00000070: 4c3e d53c bb41 933d 5e8b 96bd 4e98 cfbd
00000080: cb73 233e ac1c 0bbe a64c f1bd 6a8d 0cbe
00000090: 7b69 243d 7f28 213d e3cd 11be f66f cb3d
000000a0: c27e 3e3d 2b15 613d 289a 22be e4e4 17be
000000b0: d087 08be 1b52 88bd b298 13be 9e49 a83d
000000c0: 9c63 b4bc e404 83bd 9657 103e 8967 af3c
000000d0: b7a7 ab3c cf8f babd 6f9c 43bd 8332 0cbe
000000e0: d49b cbbd 7208 253e 2cae d8bd db32 b63d
000000f0: 2553 e43d 5bfc d83d 9502 083e 318a 0e3e
00000100: c646 b23d ea6e 0ebc b75d 2abd c99c 1ebe
00000110: 33cf ae3d 1999 16bd d149 d03c 750e 16bd
00000120: 8692 d63d a9e6 a83b a700 ee3d b357 f83d
00000130: 5a92 4d3d db63 58bc 18d5 993d 57da c3bd
00000140: 02a4 e93d 59ae 003e b425 ad3c 2f79 85bc
00000150: e674 243d 743a 123e 7ec6 1c3d da3c a8bd
00000160: 7937 0ebd 9f42 23be 414d 8ebb 4e72 17be
00000170: 25c3 153d e2fa a93c 4bae 1a3e 1865 46bd
00000180: ee69 0bbc f595 17ba d41b 74bd 62f4 6bbd
00000190: e944 89bd f039 8cbd 9a88 983c 8ed1 7f3d
000001a0: 697b 043d 44cb 043e 69b3 a7bc 2bc4 413d
000001b0: b782 09be 5961 d03d 2490 093e 995e 7e3d
000001c0: cadd d5bd a7be c5bb c34f 28be e708 17be
000001d0: 8520 fb3d 527b 9a3d 69bf ca3d ead5 983d
000001e0: 8408 d3bc dfba 3a3d acdc 9dbd 1336 07be
000001f0: 513a 68bd 999e eabd 3df6 ee3d 4116 07be
00000200: 390d 1b3e 8eb6 e0bc 0533 4abc e3a5 103e
00000210: d5b9 99bd 66d7 b7bd 80e8 233d 0e0c 9abd
00000220: 3c2d 86bc 1bf5 8a3d 17de ff3b 3017 d33d
00000230: 7d8d 91bd 5cdc 703d 8bb1 453c 6ee4 0ebe
00000240: 764e 94bc 75d3 813d f585 ccbd 1ffc 0c3e
00000250: 346f babd b216 b53d 8f31 963c 9900 c1bd
00000260: b07d 763d e75b 17bd af4c cebc bef9 3ebd
00000270: 7a13 5dbe d0d0 123d 7784 96bd a606 9e3d
00000280: 7d02 9e3d d40b b43d 71a2 f1ba b16c 58b9
00000290: cd0b 48be 1737 15bc a37d 89bd 303c fb3d
000002a0: 2f9d b63b 706a 843b 1871 16be 7c33 56be
000002b0: 3d8f 39be 16df 583d 0707 2d3d c2b8 49be
000002c0: 37fe 0ebe c11a fd3d 4ffc 853d 63c5 dfbd
000002d0: 1559 0abd 8586 4e3d eb89 af3d 0d85 d1bb
000002e0: 3430 8abd 3e8a 5fbd a276 46bd 2632 cebd
000002f0: e96d dbbd 8934 eb3d e35d 793c fe10 5a3d
00000300: 5d6f f1bd 0661 f63c 16f4 063e 47df 9e3d
00000310: 5d85 e8bb c62e 4dbd 7ef9 1f3e 2cdb 8dbd
00000320: 99ea 65bd d628 e5bb 5770 5cbd 7c81 d1bb
00000330: 0763 1cbd 8513 c5bd 1e55 e4ba acdc 883d
00000340: 452c 22be c8c3 3b3d cbd9 7a3c a1e9 e5bd
00000350: 77bb e43d d9c1 cb3d 74c7 533d 1307 73bd
00000360: 2c22 1e3d 63e0 a73d 6bdf 02bd 328b adbd
00000370: b751 4b3b 1207 0cbe 40dc e93d 7d83 823c
00000380: cfb7 91bd ff28 7d3c 8945 aebd 55ba ccbc
00000390: 133e 11be 2529 333d 7e0f a13d c666 4dbd
000003a0: ed06 483d d94e a53d 9290 15be 334b acbd
000003b0: 32de 723c 2d6d b1bd a16a 953d cb83 d53d
000003c0: bc40 fabd 38e0 a23c db6d 2a3c f66e 0b3e
000003d0: a5b1 20be 11e6 643d 706a ecbd d7bd 32be
000003e0: fe64 fb3d 21f2 7c3d 3f95 41be 2068 903d
000003f0: 3782 eebd 9466 113e a0ef d73c 73c4 36bd
-0.060854297 -0.13791677 -0.15467232 0.11380236 -0.16678897 0.06694123 0.011231684 -0.0014118137
0.12551655 -0.12666702 0.031008871 0.05985143 0.08611583 -0.15147561 0.0076866453 -0.020608246
-0.16007863 0.11079306 -0.028564816 0.06144449 -0.11948762 -0.11750029 0.019877676 -0.01748284
0.092971794 0.07354535 0.12985365 -0.112533905 0.026030682 0.071902715 -0.07350801 -0.10136472
0.1596214 -0.13585156 -0.11782198 -0.1372582 0.040139657 0.03934526 -0.14238696 0.09933464
0.046507604 0.054951828 -0.15879118 -0.14833409 -0.13333058 -0.066562854 -0.14413717 0.08217166
-0.022020154 -0.06397417 0.14095911 0.021411674 0.020953996 -0.091094606 -0.04775661 -0.13691144
-0.09941831 0.16116503 -0.10580096 0.08896419 0.11148671 0.10595008 0.13282235 0.13919903
0.08704905 -0.008693436 -0.04159328 -0.15489496 0.08535614 -0.0367671 0.025425823 -0.03663488
0.10477166 0.00515445 0.11621218 0.12126102 0.0501884 -0.013207401 0.075113475 -0.095631294
0.11408235 0.12566508 0.021136142 -0.016293136 0.040150546 0.1428011 0.038275234 -0.082147315
-0.03472087 -0.15943383 -0.0043427055 -0.14789698 0.036563057 0.020749513 0.1510555 -0.048436254
-0.008509142 -0.0005782538 -0.05959685 -0.05760611 -0.06702597 -0.06846988 0.018619824 0.062455706
0.032344256 0.12968165 -0.020471292 0.04730622 -0.1342877 0.101748176 0.13433892 0.062101934
-0.104426935 -0.0060346904 -0.16436677 -0.1474949 0.12262062 0.07543053 0.0989979 0.07462676
-0.025760897 0.04558837 -0.077081054 -0.13204221 -0.05669624 -0.11456031 0.1166806 -0.13192083
0.15141763 -0.027430799 -0.012341266 0.14125781 -0.07506148 -0.08976631 0.04001665 -0.075218305
-0.016378991 0.067850314 0.0078084576 0.10307157 -0.07107065 0.0588039 0.012066255 -0.13954327
-0.01810382 0.0633916 -0.09986488 0.13768052 -0.091032416 0.088422194 0.018334178 -0.09423942
0.06017846 -0.03695288 -0.02518305 -0.04662489 -0.21589461 0.03584367 -0.073494844 0.07716112
0.07715318 0.087913185 -0.0018435252 -0.00020639856 -0.19535752 -0.009107373 -0.067134164 0.12267339
0.005572937 0.0040410087 -0.1469158 -0.20918077 -0.18121047 0.052947126 0.04224303 -0.19699386
-0.13964163 0.123586185 0.06542265 -0.109263204 -0.03377636 0.050421257 0.08571228 -0.0063940347
-0.06747475 -0.054575197 -0.04845298 -0.10068159 -0.10714323 0.1148463 0.015220138 0.05323886
-0.11788819 0.030075561 0.13179049 0.077574305 -0.0070959763 -0.050093435 0.15622517 -0.06926569
-0.056131933 -0.0069933934 -0.053818073 -0.0063936096 -0.038180377 -0.09622864 -0.0017420386 0.06682715
-0.158372 0.04584101 0.015310715 -0.11226202 0.111685686 0.09949083 0.051703885 -0.05933292
0.038606808 0.08197095 -0.03195135 -0.08473815 0.0031024048 -0.13674572 0.114189625 0.01593184
-0.07115137 0.015451669 -0.085093565 -0.024991194 -0.14183836 0.04374041 0.07864283 -0.05014684
0.04883473 0.080716796 -0.1460593 -0.084127806 0.014823483 -0.08663402 0.072957285 0.10425528
-0.12219378 0.019882306 0.010402168 0.13616547 -0.15692766 0.05588347 -0.11543739 -0.1745523
0.12275122 0.06175435 -0.18904589 0.0705111 -0.1164593 0.14199287 0.02635938 -0.044620942

rho.rho.2.bias f4 [38]
00000000: 94a8 c43c 4652 a0bd b2af 7cbd 33a9 bb3d
00000010: 2408 393d f288 263d 7550 d33d 9c27 edbd
00000020: 0aa6 013e 6efc 1fbe 9f05 423c ac1d 5c3d
00000030: f2ed 8f3d 5900 263d c588 ab3d 09bd a23d
00000040: 869d 17be 7b2a fd3d 01bd 76bd 2400 fd3b
00000050: 8586 10be 1b16 25be 6d89 953d 7035 1bbe
00000060: cc0e bf3c d1c6 f73d 2708 9c3d 108a babd
00000070: a97a 04bd 1e25 763d d464 1ebe 476e 17bd
00000080: 3733 0bbe 31bb 16be 5e6b a0bd f6e7 8cbd
00000090: 382b ec3d 8de4 f1bc
0.024006166 -0.078281924 -0.061690994 0.091631316 0.04517378 0.040657945 0.1031808 -0.115798205
0.12660995 -0.15623638 0.0118421605 0.053739235 0.07027806 0.040527675 0.08375696 0.07946212
-0.14806184 0.12361618 -0.060238842 0.007720964 -0.14113815 -0.16121714 0.073016025 -0.15157104
0.023322485 0.12098468 0.076187424 -0.091083646 -0.03234354 0.06009399 -0.1546815 -0.036970403
-0.13593756 -0.14719845 -0.07832979 -0.068801805 0.11531681 -0.029527927

rho.rho.4.weight f4 [38, 38]
00000000: 8cc6 a0bd e133 343b ef31 963d fb08 063e
00000010: 042c c93b d365 d93d a7a2 a8bb d362 d53d
00000020: c8c2 28be e66b 023e bc3f 83bd 7ce9 b3bd
00000030: 65bd 01be 9e45 413d 75a8 fd3d 6f8a 833d
00000040: 31ed ae3d 4582 cebd 00c9 fdbd 1aca 26bc
00000050: a4fa 3bbd baf1 af3d 3d2a 043d 86e7 67bc
00000060: f399 f8bd ec2d 9e3d 6371 93bd 2720 2a3c
00000070: 6673 5dbd b00d 0a3e 1f83 b23d 3e73 cdbd
00000080: 3cee 033d a99b 82bd a283 06bd 9141 cd3d
00000090: 135b bcbc 909a 1e3c c303 f33d f16a 3d3d
000000a0: 1e0a 9d3d 9eb9 2cbe 1426 0a3e cd38 4f3d
000000b0: 44e4 e4bd f10b 13be a8b3 94bd df9e 15be
000000c0: cc6f 373c db28 883d 1759 fbbd 2670 39be
000000d0: 1b2f 973d 30c9 18be 909d 903c ecdc 15be
000000e0: 8c50 b03d 1103 e43d 4e7d fd3d c472 2abe
000000f0: 9606 a9bd c5c0 1d3e 95cc eb3d cd75 b6bd
00000100: 3490 14be ee50 da3d 9704 81bd 1260 c43d
00000110: 09d3 a0bd f921 243e ac62 a33d 4aad 24bd
00000120: d67a 3cbd 8e22 253e 2069 5d3d 0d9e dfbd
00000130: 265e 033d 19f5 ecbd 94bb 18bb bfef 06be
00000140: 505b 20be 3543 403d bc0f 6f3d 28b7 c13d
00000150: 38f3 92bd a28f 7bbd 7e68 91bd e865 8b3d
00000160: 21bd 9b3d f64f 643d fc2c 6ebd ab21 cb3b
00000170: cbcb d0bc ea4f 1bbd 1354 e93c adeb f8bd
00000180: 65b1 f83d 8f37 adbd 92d5 65bd eccd c3bd
00000190: 41fb 84bd c856 fe3d af99 d63d 6312 0e3e
000001a0: 6cb5 44be 3fae 063e e282 d5bd 8925 9bbd
000001b0: 4a3b 043e 7acd b33c 38a5 6f3d 08ef 163d
000001c0: 9995 17be 6954 93bd f1f0 91bd 2652 70bb
000001d0: d504 9eba 7590 ffbd a27e b13d cb05 00bc
000001e0: 8dff 313d 9b72 393d 8053 34be e143 b83c
000001f0: 9ae6 31be 8fb4 6b3c 55b1 013e f2a9 183c
00000200: 8a4c 573d 3b69 3b3d 4183 ebbc 7758 83bc
00000210: 89c0 5a3c 7111 cd3d 779d 9b3d 10ed 0f3e
00000220: 1530 e2bd 6098 bfbd f701 ffbd 989d 003e
00000230: 3f4e b9bd 16a7 dd3d 3fed 46bd f5e5 1fbe
00000240: a4b8 2abd f711 afbc 5165 823d cf80 1fbe
00000250: f138 0cbe 1820 b23d 157b 31bd 2e7d edbc
00000260: c107 f6bd 6cff be3d 7f7c 073e cc06 42bd
00000270: dcc7 1a3e 8140 19be aabf dfbd 295b bc3d
00000280: 9014 c5bd f363 8a3d 6605 aebd bb64 0bbe
00000290: ac29 da3c 670f b13d 25ce bebd 08e6 88bc
000002a0: 86a0 173d 10bb 233e bcc8 053d 6234 223c
000002b0: 2968 9ebd e040 94bc 752b 913d f9f7 113e
000002c0: 05cf 74bd 66ad 033e 1f4f e1bd b6a7 6b3d
000002d0: 895d 1dbe 8c46 243e 3d9d e93d c729 cb3d
000002e0: 5769 48bd bed2 763d be2d d9bc 5691 743d
000002f0: 7523 dc3d c252 0b3e 7898 283c 5c77 973d
00000300: 032c d1bd ab36 863d 0cea 6cba ceb8 83bb
00000310: 7592 f5bd e695 cb3d 8afb 1dbe ff30 b0bd
00000320: 7a2d 1b3e 37c6 183e a28d b33d a0cf ccbd
00000330: 5896 1e3e 0ef9 3ebd 8d44 eebc 49a2 d93d
00000340: 1971 86bc 40df 67bc b5a8 123d 4267 1d3e
00000350: 20b2 f23d a816 e6bd ea4e 273c 57f8 b6bc
00000360: 7704 173d bdd5 b13c d590 7c3d 675c c6bd
00000370: a648 e0bc f6d6 ab3c 9c99 edbd 942e 163d
00000380: 33bf 13be f373 d3bc c76a 19bd 71ae ae3d
00000390: d74a c5bd 29b7 79bd 1b77 d73d 316c 17b9
000003a0: 8e00 173e 0753 2abd a4f8 493c d223 babd
000003b0: e1d1 933d ed44 1a3e a9b9 d83d a46e 833c
000003c0: aca5 b4bd bcb3 c3bd 4e84 63bd 88c0 403d
000003d0: 61f3 5bbc 5e5f f9bd 9ddb 293d e69e 1e3d
000003e0: beaa d0bc a7e2 ccbd f7c0 0f3e ab40 b3bd
000003f0: c767 143e 3e93 16be 483f 00be 0732 45bd
-0.0785037 0.0027496743 0.07333743 0.13089363 0.0061392803 0.106151246 -0.005146343 0.1041924
-0.16480553 0.12736472 -0.06408641 -0.08784768 -0.12669905 0.047185533 0.12385646 0.064228885
0.085413344 -0.10083441 -0.12391853 -0.010180021 -0.045893326 0.085910276 0.032266844 -0.014154321
-0.121387385 0.07723603 -0.07199361 0.010383642 -0.05406513 0.13481784 0.087164156 -0.10031746
0.03220962 -0.06377346 -0.03284038 0.100222714 -0.022992646 0.009680405 0.11865952 0.046244565
0.07667945 -0.16867682 0.13491088 0.05059128 -0.11176351 -0.14360024 -0.07260829 -0.14611386
0.011196088 0.066484176 -0.12272852 -0.18109187 0.073820315 -0.14920497 0.017653257 -0.14635056
0.08609113 0.11133397 0.123774156 -0.16645342 -0.08253209 0.15405567 0.1151363 -0.089091875
-0.14508134 0.10659967 -0.062997036 0.095886365 -0.07852752 0.16028585 0.079778045 -0.040204324
-0.046015583 0.16126463 0.054055333 -0.10918818 0.03207221 -0.11570186 -0.0023305165 -0.13177393
-0.15659833 0.046939094 0.058364615 0.094587624 -0.071752965 -0.061416276 -0.071000084 0.068065464
0.07604433 0.05574032 -0.05814837 0.006199082 -0.025487801 -0.03791801 0.028482473 -0.121543266
0.1214321 -0.084578626 -0.05611188 -0.09560761 -0.064932354 0.12418896 0.104785316 0.13874201
-0.19209832 0.13152407 -0.104253545 -0.07575519 0.12913242 0.021948565 0.058507174 0.03684905
-0.1480316 -0.07193834 -0.07126034 -0.0036670058 -0.0012055883 -0.12478725 0.086667314 -0.007813881
0.043456603 0.045275312 -0.17609978 0.022493305 -0.17373124 0.01438631 0.12665303 0.009317862
0.052563228 0.045754652 -0.02874911 -0.016033394 0.013351568 0.10013092 0.075983934 0.14055276
-0.11044327 -0.09355235 -0.12451547 0.12560117 -0.090481274 0.10822885 -0.0485661 -0.15615065
-0.041679993 -0.021370871 0.06366981 -0.1557648 -0.13693596 0.08697528 -0.04333027 -0.028990354
-0.12013198 0.093260616 0.13231085 -0.047369763 0.15115303 -0.14966013 -0.10925229 0.09197075
-0.096230626 0.06757345 -0.084971234 -0.13612644 0.026631199 0.08645516 -0.09316663 -0.01671125
0.03701832 0.15989327 0.03266214 0.009900184 -0.07734711 -0.018097341 0.07088367 0.1425475
-0.05976774 0.12859115 -0.11001419 0.05753299 -0.15367712 0.16042536 0.11406944 0.09920078
-0.048928585 0.060259573 -0.02651107 0.059708916 0.107489504 0.13605788 0.010290258 0.07395813
-0.10213473 0.06553396 -0.0009037561 -0.004019833 -0.11990825 0.099407 -0.15427986 -0.08603095
0.15154067 0.14919363 0.08767249 -0.10000539 0.15487039 -0.046624236 -0.029085422 0.106266566
-0.016411351 -0.014152348 0.035805423 0.15371421 0.11850381 -0.1123479 0.010211686 -0.022335215
0.036869492 0.021708364 0.06166156 -0.09685593 -0.027378391 0.020976525 -0.11601564 0.036665514
-0.14428405 -0.025812125 -0.037455346 0.08529366 -0.09633415 -0.06096569 0.105207644 -0.00014440787
0.14746305 -0.041583087 0.012327347 -0.090888634 0.072177656 0.15065356 0.10582287 0.016043968
-0.08820662 -0.09555766 -0.055546097 0.047058612 -0.013424725 -0.12176393 0.041469205 0.038725756
-0.025472041 -0.10004168 0.14038454 -0.08752569 0.14492713 -0.14704606 -0.1252414 -0.048143413

rho.rho.4.bias f4 [38]
00000000: 2bc3 dfbb df1b 1e3c 419f 023b 696a 4cbc
00000010: e98b 79bd f25f a5bd 3601 503c 2306 29b9
00000020: f56d ea3d c009 0cbe 94a1 fdbd 29d0 c6bd
00000030: 9e7a 383d ea63 ba3d 1d3a 56bc 3b07 0bbe
00000040: 073a 85b9 37df 0ebe 77fb 6d3d 6260 f9bd
00000050: a280 353c c0a7 c6bc 2986 493d 4028 e6bd
00000060: 891c 8e3c ae99 c4bc 02ae c4bc 3a5d e1bd
00000070: c54f a53d 9ed6 efbc 2295 c1bd 1e2d 3abd
00000080: 9b17 48bd a030 143e 3522 c73d 258f f5bc
00000090: 0c8b ba3d 2e29 76ba
-0.0068286858 0.0096502 0.0019931349 -0.012476542 -0.060924444 -0.08074941 0.012695601 -0.00016119382
0.11446754 -0.13675594 -0.12384334 -0.09707672 0.04503881 0.09101088 -0.013075379 -0.13576977
-0.0002541097 -0.13952337 0.058101144 -0.12176587 0.011078032 -0.024249911 0.04920021 -0.11238146
0.017347591 -0.023999061 -0.024008755 -0.1100411 0.080718555 -0.029277142 -0.09452273 -0.045453183
-0.048850637 0.14471674 0.09723321 -0.029975483 0.09108552 -0.00093902915

rho.rho.6.weight f4 [1, 38]
00000000: 9af2 e13a 0434 02bc 9adb f2ba bb35 f4bd
00000010: 93a1 453d 3166 4ebc 0ed1 fb39 f1db 70b9
00000020: 9e7e b33d ac5d 313d 196d 053c 270b 8fbd
00000030: fafb 5f3d c6cd a4bd 15bc adbd 5354 a63c
00000040: 1d26 133d 19b1 c03d a86c f7bc a2d5 663d
00000050: 0e91 edbd 2188 8a3d f62a 8ebd a5f4 eb3c
00000060: 2692 eebb 2a1a 75bc 09eb 0d3c 7a08 e53d
00000070: 0eff cf3c e45c 0b3d 6ebb 223e 94eb 1c3e
00000080: cdaf 7bbd d710 f73d b5c1 c33d 0a37 cbbc
00000090: e69f 153d 1b32 86bd
0.0017238439 -0.007946972 -0.0018528581 -0.11924311 0.048249792 -0.0125976065 0.0004803021 -0.00022970118
0.08764385 0.043302223 0.008143687 -0.06984549 0.054683663 -0.08047061 -0.084831394 0.02030388
0.03592502 0.09408779 -0.030203179 0.05635608 -0.115999326 0.06764246 -0.06941788 0.028803179
-0.007280606 -0.014959851 0.008661994 0.111832574 0.025390174 0.034024134 0.15891811 0.15324241
-0.061446954 0.12063759 0.09558431 -0.024806518 0.036529444 -0.065525256

exp_avg f4 [51, 3]
00000000: 0000 0000 0000 0000 0000 0000 0400 0080
00000010: 0400 0080 0400 0080 0400 0080 0400 0080
00000020: 0400 0000 0400 0000 0400 0000 0400 0000
00000030: 0000 0000 0000 0000 0000 0000 0400 0000
00000040: 0400 0000 0400 0000 0000 0000 0000 0000
00000050: 0000 0000 0000 0000 0000 0000 0000 0000
00000060: 0400 0000 0400 0000 0400 0000 0400 0000
00000070: 0400 0000 0400 0000 0400 0000 0400 0000
00000080: 0400 0000 0400 0080 0400 0080 0400 0080
00000090: 0000 0000 0000 0000 0000 0000 0000 0000
000000a0: 0000 0000 0000 0000 0000 0000 0000 0000
000000b0: 0000 0000 0000 0000 0000 0000 0000 0000
000000c0: 0400 0000 0400 0000 0400 0000 0400 0000
000000d0: 0400 0000 0400 0080 0000 0000 0000 0000
000000e0: 0000 0000 0400 0080 0400 0080 0400 0080
000000f0: 0000 0000 0000 0000 0000 0000 0400 0000
00000100: 0400 0000 0400 0000 0000 0000 0000 0000
00000110: 0000 0000 0000 0000 0000 0000 0000 0000
00000120: 0000 0000 0000 0000 0000 0000 0400 0080
00000130: 0400 0080 0400 0080 0400 0080 0400 0080
00000140: 0400 0080 0000 0000 0000 0000 0000 0000
00000150: 0000 0000 0000 0000 0000 0000 0400 0000
00000160: 0400 0000 0400 0080 0000 0000 0000 0000
00000170: 0000 0000 0400 0000 0400 0000 0400 0080
00000180: 0400 0000 0400 0000 0400 0000 0400 0080
00000190: 0400 0080 0400 0000 0400 0080 0400 0080
000001a0: 0400 0080 0000 0000 0000 0000 0000 0000
000001b0: 0400 0000 0400 0080 0400 0000 0400 0080
000001c0: 0400 0080 0400 0080 0400 0080 0400 0080
000001d0: 0400 0000 0400 0080 0400 0080 0400 0080
000001e0: 0000 0000 0000 0000 0000 0000 0400 0080
000001f0: 0400 0080 0400 0080 0400 0080 0400 0080
00000200: 0400 0080 0400 0080 0400 0080 0400 0080
00000210: 0000 0000 0000 0000 0000 0000 0400 0080
00000220: 0400 0080 0400 0080 0400 0000 0400 0000
00000230: 0400 0000 0400 0080 0400 0080 0400 0080
00000240: 0400 0080 0400 0080 0400 0000 0000 0000
00000250: 0000 0000 0000 0000 0000 0000 0000 0000
00000260: 0000 0000
0.0 0.0 0.0 -6e-45 -6e-45 -6e-45 -6e-45 -6e-45
6e-45 6e-45 6e-45 6e-45 0.0 0.0 0.0 6e-45
6e-45 6e-45 0.0 0.0 0.0 0.0 0.0 0.0
6e-45 6e-45 6e-45 6e-45 6e-45 6e-45 6e-45 6e-45
6e-45 -6e-45 -6e-45 -6e-45 0.0 0.0 0.0 0.0
0.0 0.0 0.0 0.0 0.0 0.0 0.0 0.0
6e-45 6e-45 6e-45 6e-45 6e-45 -6e-45 0.0 0.0
0.0 -6e-45 -6e-45 -6e-45 0.0 0.0 0.0 6e-45
6e-45 6e-45 0.0 0.0 0.0 0.0 0.0 0.0
0.0 0.0 0.0 -6e-45 -6e-45 -6e-45 -6e-45 -6e-45
-6e-45 0.0 0.0 0.0 0.0 0.0 0.0 6e-45
6e-45 -6e-45 0.0 0.0 0.0 6e-45 6e-45 -6e-45
6e-45 6e-45 6e-45 -6e-45 -6e-45 6e-45 -6e-45 -6e-45
-6e-45 0.0 0.0 0.0 6e-45 -6e-45 6e-45 -6e-45
-6e-45 -6e-45 -6e-45 -6e-45 6e-45 -6e-45 -6e-45 -6e-45
0.0 0.0 0.0 -6e-45 -6e-45 -6e-45 -6e-45 -6e-45
-6e-45 -6e-45 -6e-45 -6e-45 0.0 0.0 0.0 -6e-45
-6e-45 -6e-45 6e-45 6e-45 6e-45 -6e-45 -6e-45 -6e-45
-6e-45 -6e-45 6e-45 0.0 0.0 0.0 0.0 0.0
0.0

exp_avg_sq f4 [51, 3]
00000000: 0000 0000 0000 0000 0000 0000 1530 f422
00000010: f050 1720 122d 8720 98fa a122 ae72 f221
00000020: 0180 b720 eef0 5523 564e 8f20 7f1a 9a20
00000030: 0000 0000 0000 0000 0000 0000 0a97 8224
00000040: 6a6f 2223 2c38 a122 0000 0000 0000 0000
00000050: 0000 0000 0000 0000 0000 0000 0000 0000
00000060: d697 f122 ae2b 3e21 d710 ee20 af3b 4426
00000070: 50dd c824 a558 7024 4dd6 e222 de3a 3e20
00000080: c26d 1221 36c7 2423 f4b7 8822 d336 ea21
00000090: 0000 0000 0000 0000 0000 0000 0000 0000
000000a0: 0000 0000 0000 0000 0000 0000 0000 0000
000000b0: 0000 0000 0000 0000 0000 0000 0000 0000
000000c0: 481d ed25 0cfd 8124 346b 1f24 6e23 1623
000000d0: 6b71 8f21 5992 f220 0000 0000 0000 0000
000000e0: 0000 0000 7015 0826 4465 8624 e342 2824
000000f0: 0000 0000 0000 0000 0000 0000 a012 1124
00000100: 9c15 6b22 f2ba 4a22 0000 0000 0000 0000
00000110: 0000 0000 0000 0000 0000 0000 0000 0000
00000120: 0000 0000 0000 0000 0000 0000 d359 2b26
00000130: e41f b624 e169 5a24 0435 6a24 2202 db22
00000140: b997 0b22 0000 0000 0000 0000 0000 0000
00000150: 0000 0000 0000 0000 0000 0000 fcef a322
00000160: 8a55 2621 ac6e 5d20 0000 0000 0000 0000
00000170: 0000 0000 73b0 d723 81d3 4d22 57f6 1b21
00000180: 2741 2426 acac 8d24 ff21 3924 46af 2925
00000190: e76a 7e23 647f 2a23 aa4e 7324 e392 1523
000001a0: ccbd 9322 0000 0000 0000 0000 0000 0000
000001b0: e1f0 e225 bf72 6924 caed 0024 a404 8b24
000001c0: 68b6 ac22 08d0 b422 08ba 9b23 9c79 2522
000001d0: 3926 5220 afd4 ab24 a5d5 f822 226d 6122
000001e0: 0000 0000 0000 0000 0000 0000 e106 a025
000001f0: f50f 3f24 05f8 9823 fb85 0e24 57cd 9523
00000200: ba90 fc20 d297 4426 c722 d524 1692 7524
00000210: 0000 0000 0000 0000 0000 0000 4c75 fa26
00000220: b5b0 6f25 0066 0f25 a538 2826 9132 9724
00000230: c6ca 5924 8d38 8a24 0821 1d23 bb63 a222
00000240: c3e3 cd22 f805 d821 ea0b 0a20 0000 0000
00000250: 0000 0000 0000 0000 0000 0000 0000 0000
00000260: 0000 0000
0.0 0.0 0.0 6.618724e-18 1.2816977e-19 2.2899715e-19 4.3904464e-18 1.6428913e-18
3.1086112e-19 1.1597772e-17 2.427698e-19 2.6106148e-19 0.0 0.0 0.0 5.663438e-17
8.8056304e-18 4.369861e-18 0.0 0.0 0.0 0.0 0.0 0.0
6.5483943e-18 6.4432314e-19 4.0329912e-19 6.8082047e-16 8.711109e-17 5.211679e-17 6.1484323e-18 1.6113104e-19
4.9611987e-19 8.932642e-18 3.705764e-18 1.5870969e-18 0.0 0.0 0.0 0.0
0.0 0.0 0.0 0.0 0.0 0.0 0.0 0.0
4.1132788e-16 5.637351e-17 3.4568434e-17 8.139019e-18 9.720078e-19 4.109324e-19 0.0 0.0
0.0 4.721353e-16 5.828479e-17 3.6485848e-17 0.0 0.0 0.0 3.145764e-17
3.1859879e-18 2.7475073e-18 0.0 0.0 0.0 0.0 0.0 0.0
0.0 0.0 0.0 5.944928e-16 7.898394e-17 4.7360898e-17 5.0785568e-17 5.9362327e-18
1.8918334e-18 0.0 0.0 0.0 0.0 0.0 0.0 4.443533e-18
5.63562e-19 1.8756046e-19 0.0 0.0 0.0 2.3385076e-17 2.789465e-18 5.284207e-19
5.698723e-16 6.144152e-17 4.0144276e-17 1.4717798e-16 1.3792005e-17 9.2426945e-18 5.2758857e-17 8.108411e-18
4.0045385e-18 0.0 0.0 0.0 3.9367976e-16 5.0621015e-17 2.795699e-17 6.02895e-17
4.6813824e-18 4.900936e-18 1.6883921e-17 2.242605e-18 1.7800339e-19 7.451973e-17 6.744674e-18 3.055096e-18
0.0 0.0 0.0 2.7760237e-16 4.143004e-17 1.6584913e-17 3.0904828e-17 1.6241577e-17
4.2786233e-19 6.8206915e-16 9.243294e-17 5.3249646e-17 0.0 0.0 0.0 1.7379028e-15
2.0789816e-16 1.2437832e-16 5.8363476e-16 6.5571474e-17 4.722613e-17 5.994376e-17 8.517982e-18 4.401578e-18
5.5806513e-18 1.4638309e-18 1.1692997e-19 0.0 0.0 0.0 0.0 0.0
0.0

exp_avg f4 [51]
00000000: 0000 0000 0400 0080 0400 0080 0400 0000
00000010: 0000 0000 0400 0000 0000 0000 0000 0000
00000020: 0400 0000 0400 0000 0400 0000 0400 0080
00000030: 0000 0000 0000 0000 0000 0000 0000 0000
00000040: 0400 0000 0400 0000 0000 0000 0400 0080
00000050: 0000 0000 0400 0000 0000 0000 0000 0000
00000060: 0000 0000 0400 0080 0400 0080 0000 0000
00000070: 0000 0000 0400 0000 0000 0000 0400 0000
00000080: 0400 0000 0400 0080 0400 0080 0000 0000
00000090: 0400 0000 0400 0080 0400 0080 0400 0080
000000a0: 0000 0000 0400 0080 0400 0080 0400 0080
000000b0: 0000 0000 0400 0080 0400 0000 0400 0080
000000c0: 0400 0080 0000 0000 0000 0000
0.0 -6e-45 -6e-45 6e-45 0.0 6e-45 0.0 0.0
6e-45 6e-45 6e-45 -6e-45 0.0 0.0 0.0 0.0
6e-45 6e-45 0.0 -6e-45 0.0 6e-45 0.0 0.0
0.0 -6e-45 -6e-45 0.0 0.0 6e-45 0.0 6e-45
6e-45 -6e-45 -6e-45 0.0 6e-45 -6e-45 -6e-45 -6e-45
0.0 -6e-45 -6e-45 -6e-45 0.0 -6e-45 6e-45 -6e-45
-6e-45 0.0 0.0

exp_avg_sq f4 [51]
00000000: 0000 0000 9d8c 5423 3853 7523 0314 ae23
00000010: 0000 0000 a2bc 3525 0000 0000 0000 0000
00000020: 4d5f 8323 e38f 0127 1126 6c23 77d6 2724
00000030: 0000 0000 0000 0000 0000 0000 0000 0000
00000040: 44d1 a226 6c7f 9b23 0000 0000 fb28 b226
00000050: 0000 0000 d91f bb24 0000 0000 0000 0000
00000060: 0000 0000 4b12 e526 7eda 0225 0000 0000
00000070: 0000 0000 3f0b 2623 0000 0000 31f2 5024
00000080: 6f8f cb26 9725 c425 ef78 2625 0000 0000
00000090: 1198 9326 fe98 2425 dbf1 1824 972d 3025
000000a0: 0000 0000 9a22 4c26 b994 f024 afa0 0327
000000b0: 0000 0000 5cd9 9e27 5766 da26 65ba 3725
000000c0: c21f 8223 0000 0000 0000 0000
0.0 1.1522319e-17 1.3299099e-17 1.8873593e-17 0.0 1.5763159e-16 0.0 0.0
1.424341e-17 1.7980347e-15 1.28016465e-17 3.639401e-17 0.0 0.0 0.0 0.0
1.129773e-15 1.6859099e-17 0.0 1.2362339e-15 0.0 8.1152275e-17 0.0 0.0
0.0 1.5895025e-15 1.134973e-16 0.0 0.0 9.0012595e-18 0.0 4.5307954e-17
1.4124832e-15 3.4026052e-16 1.4439179e-16 0.0 1.0241392e-15 1.4276568e-16 3.3164606e-17 1.5281013e-16
0.0 7.082361e-16 1.04335355e-16 1.8267009e-15 0.0 4.408947e-15 1.5154528e-15 1.5935873e-16
1.4108078e-17 0.0 0.0
