src/old_logs/now/lightning_logs/version_0/checkpoints/epoch=239-step=2880.ckpt (torch, 60843 bytes, 39 tensors)

phi.phi.0.weight f4 [32, 3]
0	0xbd23b636	-0.03996869
1	0x3e6eb2f0	0.23310447
2	0xbf40691d	-0.7516039
3	0xbed98bc9	-0.4248946
4	0xbe63b4b1	-0.22236897
5	0x3e1e8953	0.15482073
6	0xbc3b6b40	-0.011439145
7	0x3eea617a	0.45777494
8	0xbd51dd42	-0.0512364
9	0x3e1c70d2	0.15277413
10	0xbe32ab9e	-0.1744828
11	0xbde86bea	-0.11348708
12	0xbf2672a8	-0.650187
13	0xbee50e7a	-0.44737607
14	0xbe8dd86f	-0.27704188
15	0xbf1614e1	-0.5862561
16	0x3f159300	0.5842743
17	0x3db9f083	0.09079077
18	0xbec866d2	-0.39140946
19	0xbe80b969	-0.25141457
20	0x3e56bc83	0.20970349
21	0x3f225dcd	0.6342438
22	0xbfcb6e69	-1.589307
23	0x3d35526a	0.04426805
24	0xbdbe95da	-0.09305926
25	0x3d7a3b65	0.0610918
26	0x3f05d4b5	0.5227769
27	0xbf091c79	-0.5355907
28	0xbeba17f0	-0.36346388
29	0xbe15ac48	-0.14616501
30	0xbe6673cc	-0.2250511
31	0x3eff66ca	0.4988311
32	0xbebf9aa4	-0.3742267
33	0xbe881370	-0.2657733
34	0xbece853c	-0.40336025
35	0xbf0a6cdf	-0.54072374
36	0xbec37ddb	-0.38181958
37	0x3eed87e9	0.46392754
38	0x3e4f8877	0.20266901
39	0x3ec2e8be	0.38068193
40	0x3e1bfd8d	0.1523344
41	0xbf66dbdb	-0.9017922
42	0x3dc80bd5	0.09767882
43	0xbf0a006b	-0.5390689
44	0xbed597ce	-0.4171738
45	0xbf15dd25	-0.58540565
46	0x3de8b617	0.11362856
47	0x3f596d0c	0.8493202
48	0xbe83193f	-0.256052
49	0xbcaaa83d	-0.020832175
50	0x3ebd0e68	0.36925054
51	0x3eb2a85c	0.34894073
52	0xbe406a4e	-0.18790552
53	0xbf35f92c	-0.7108333
54	0x3eb79e7c	0.358631
55	0xbf07ef8b	-0.5309989
56	0xbf1d6284	-0.6147845
57	0xbee52ed2	-0.44762284
58	0xbecce0ea	-0.40015346
59	0xbe98b42e	-0.29824966
60	0x3eb02c75	0.34408918
61	0x3ec77a23	0.3896037
62	0xbf138689	-0.5762716
63	0xbcb51e78	-0.022109255
64	0x3f77f3dd	0.9685648
65	0xbf222397	-0.63335556
66	0xbf24b4a4	-0.64338136
67	0x3f51d7f3	0.8197014
68	0x3ea167a4	0.31524384
69	0x3f172210	0.5903635
70	0xbf872d66	-1.056073
71	0xbeccfd98	-0.40037227
72	0xbbbea2b7	-0.005817737
73	0x3eae22bb	0.34010872
74	0xbdb32c67	-0.087487034
75	0x3f3178d2	0.6932498
76	0x3e197835	0.14987262
77	0xbfaf2d80	-1.368576
78	0x3d598bdb	0.053111892
79	0xbeb8ee58	-0.36119342
80	0xbf09be8f	-0.53806394
81	0x3efa132f	0.4884276
82	0x3eca42ee	0.39504188
83	0xbfb91eff	-1.4462584
84	0x3ddd5092	0.10806383
85	0xbdc7307a	-0.09726043
86	0xbdc2944d	-0.095009424
87	0xbe875080	-0.26428604
88	0x3e635a28	0.2220236
89	0xbeaf163f	-0.3419666
90	0xbc444de1	-0.011981458
91	0x3e30228d	0.1720068
92	0x3f6d54b6	0.92707384
93	0x3e5d0f0b	0.2158777
94	0xbf1248d6	-0.5714239
95	0xbebfc1c8	-0.3745253

phi.phi.0.bias f4 [32]
0	0x3e4c4bf7	0.19950853
1	0x3df77b10	0.12084019
2	0xbee6986e	-0.4503817
3	0xbeaa36d3	-0.33244953
4	0x3eea8045	0.45800987
5	0x3dccc569	0.099985905
6	0xbe80e3f7	-0.25173923
7	0xbe902df0	-0.28160048
8	0xbf0ccbac	-0.5499828
9	0xbc2a05dc	-0.010377374
10	0xbede9b52	-0.43477875
11	0xbee403ff	-0.445343
12	0xbd99f222	-0.07516886
13	0x3d89b57a	0.06724067
14	0xbe721df6	-0.23644242
15	0x3e621f7c	0.22082323
16	0xbeb3e2dd	-0.3513402
17	0x3e1a1f6d	0.1505105
18	0x3e5bcfbc	0.21465963
19	0xbef946fa	-0.48686963
20	0xbddd81b0	-0.108157516
21	0x3b9fe199	0.0048791883
22	0xbca853bc	-0.02054774
23	0x3cc51221	0.024056496
24	0xbd39dd6d	-0.045377184
25	0xbce5df6b	-0.028060636
26	0xbe903bbe	-0.2817058
27	0x3db91d66	0.090388104
28	0xbf0dc751	-0.5538226
29	0xbeaf34c1	-0.34219936
30	0xbe4d85c5	-0.2007056
31	0xbe8ffe09	-0.281235

phi.phi.2.weight f4 [32, 32]
0	0xbd7d4e71	-0.061842386
1	0xbe145e0c	-0.14489001
2	0xbd1a05b0	-0.03760308
3	0x3d1ac6b5	0.037787158
4	0xbdebdb16	-0.11516397
5	0xbc14a302	-0.009072067
6	0x3e019535	0.12654574
7	0xbc94dee4	-0.018172689
8	0x3ba0fd5d	0.0049130158
9	0xbc79dc86	-0.015250331
10	0x3d128a2e	0.03577631
11	0x3de632cf	0.1124016
12	0x3e2b784a	0.16745105
13	0x3de5ea30	0.11226308
14	0x3e2bdcb9	0.16783418
15	0xbc517744	-0.012784783
16	0xbe229d12	-0.1588023
17	0xbdaba261	-0.08380581
18	0x3df68397	0.120368175
19	0xba9633c2	-0.0011459517
20	0xbdb3f333	-0.08786621
21	0xbe0ab79d	-0.13546605
22	0xbe296846	-0.16543683
23	0xbe18c824	-0.14920098
24	0xbd12de97	-0.03585681
25	0x3dc68b4f	0.0969454
26	0x3dc3bba4	0.09557274
27	0xbe2e94b0	-0.17048907
28	0x3de1d54e	0.11027013
29	0xbe0da63b	-0.13832943
30	0xbd1913d0	-0.03737241
31	0xbd92cbf9	-0.07167811
32	0x3ce93fae	0.028472748
33	0xbd0e2ad4	-0.034708813
34	0xbe22700c	-0.15863055
35	0xbe1c4c88	-0.1526357
36	0x3d13af1d	0.036055673
37	0x3d93aed2	0.07211079
38	0xbda4770f	-0.08030521
39	0x3ee61237	0.44935772
40	0xbe22ed8f	-0.15910934
41	0xbc4376c4	-0.011930171
42	0x3e1f3122	0.15546086
43	0xbd93ac34	-0.072105795
44	0x3e23f3ce	0.16010973
45	0x3d1e4257	0.038637485
46	0xbe235ce5	-0.15953405
47	0x3dcf0e9c	0.101102084
48	0xbca71bea	-0.020399053
49	0xbdeac00a	-0.1146241
50	0x3c6c7fdb	0.01443478
51	0xbe1247e6	-0.1428524
52	0x3d59247e	0.053013317
53	0x3f061914	0.52382016
54	0x3ec9d3bf	0.39419362
55	0x3e0ea4e3	0.13930087
56	0x3d716ac0	0.058939695
57	0x3e7d845a	0.2475752
58	0xbd2e1f4e	-0.042510323
59	0x3d26f1ff	0.04075813
60	0xbe152cb7	-0.14567839
61	0x3dc42b25	0.09578542
62	0x3db7e8e7	0.089799695
63	0x3df7b742	0.120955005
64	0xbea036f8	-0.31291938
65	0x3c012cd2	0.007884221
66	0xbdff36a2	-0.12461592
67	0xbdc74beb	-0.09731277
68	0xbe26f720	-0.16305208
69	0x3d94edac	0.07271895
70	0xbdd7be5d	-0.10534356
71	0xbd81502a	-0.06314118
72	0x3bf3af42	0.007436664
73	0x3de960e3	0.11395433
74	0xbe08d60e	-0.13362905
75	0xbdf88b42	-0.12135936
76	0xbe268af1	-0.1626394
77	0xbf2d63bd	-0.67730314
78	0xbd8223e6	-0.06354503
79	0x3f05f582	0.5232774
80	0x3d82ea79	0.06392378
81	0xbe2c87fe	-0.16848752
82	0xbe8dadb4	-0.27671587
83	0xbd0f2301	-0.03494549
84	0xbfa183ed	-1.2618386
85	0xbeb0c9cc	-0.3452896
86	0x3dd6700f	0.10470592
87	0xbd1c3262	-0.038133986
88	0xbe027e70	-0.12743545
89	0xbe307573	-0.17232303
90	0x3e122bfb	0.1427459
91	0xbef15315	-0.471337
92	0xbc4ff913	-0.012693661
93	0x3e331243	0.17487435
94	0x3ef7374e	0.48284382
95	0x3ba401b4	0.005005086
96	0xbe1cdf87	-0.15319644
97	0x3db35890	0.08757126
98	0xbe00efc4	-0.12591463
99	0xbd4d8a28	-0.050180584
100	0xbd72f095	-0.05931147
101	0xbcd67414	-0.026178397
102	0x3afd71ff	0.0019336342
103	0x3e154e5d	0.14580674
104	0x3cb4c933	0.022068596
105	0x3e222341	0.15833761
106	0x3ddd76ac	0.108136505
107	0xbde4e2ca	-0.11176069
108	0x3da26036	0.07928507
109	0xbdffec78	-0.12496275
110	0xbd9970eb	-0.074922405
111	0x3d54f7b3	0.051994037
112	0x3d6f15a9	0.058370266
113	0x3e07ce48	0.13262284
114	0xbd69178c	-0.05690722
115	0x39945ef2	0.000282995
116	0x3dba62d3	0.091008805
117	0xbe2f0ff8	-0.17095935
118	0x3e02df9c	0.12780613
119	0xbe15b05f	-0.14618061
120	0x3b1fac6e	0.002436425
121	0xbcf635e8	-0.030055001
122	0xbdbead0d	-0.093103506
123	0x3cbf6773	0.023364758
124	0x3e15b033	0.14617996
125	0xbd53a976	-0.051675282
126	0xbdd6f0b2	-0.10495128
127	0xbd85e55d	-0.06537888
128	0xbe336ac1	-0.17521192
129	0x3da36c0d	0.079795934
130	0xbdaddfc1	-0.08489943
131	0xbdf19a5d	-0.117970206
132	0xbdd0922c	-0.1018413
133	0x3dd02805	0.10163883
134	0x3dbfb9e5	0.093616284
135	0x3e0aefb1	0.13567998
136	0x3d8351de	0.06412099
137	0xbd71d00a	-0.059036292
138	0xbd4a5792	-0.04939992
139	0x3d55ea04	0.052225128
140	0x3e14cdde	0.14531657
141	0x3d44def8	0.048064202
142	0xbdab4c03	-0.083641075
143	0xbdaa2faa	-0.083098724
144	0xbe2b25ef	-0.1671369
145	0x3d1c6f7a	0.03819225
146	0xbdcb2b76	-0.09920399
147	0xbe216478	-0.15760982
148	0x3e1ebb4a	0.15501133
149	0xbdeb1caa	-0.114800766
150	0xbca4be8b	-0.02011039
151	0x3d4f7188	0.05064538
152	0x3bb88b0a	0.005631809
153	0xbdf39bf5	-0.11894981
154	0xbe125265	-0.14289244
155	0x3e10498e	0.14090559
156	0x3cebd0cc	0.028786086
157	0x3e162d97	0.14665829
158	0xbd72bd79	-0.059262726
159	0x3d5547e9	0.052070532
160	0x3dc675e2	0.09690453
161	0xbc00cd5c	-0.0078614615
162	0xbddc7f5f	-0.107664816
163	0x3d74e235	0.05978604
164	0x3c142a6d	0.009043318
165	0x3d210281	0.03930903
166	0xbd22d8b8	-0.03975746
167	0xbea213ca	-0.31655723
168	0x3dfa5daf	0.122249
169	0xbe06c152	-0.13159683
170	0x3d945093	0.07241931
171	0xbd73793b	-0.059441786
172	0xbde4cc94	-0.11171833
173	0xbecc5b6d	-0.39913502
174	0xbdbc1042	-0.091827884
175	0x3f24d3f1	0.64385897
176	0x3d0e31e7	0.03471556
177	0xbe5a9580	-0.21346092
178	0xbea56044	-0.32300007
179	0x3d9a33ed	0.07529435
180	0x3d9d0d96	0.07668607
181	0x3f2277a9	0.63463837
182	0x3f2590a2	0.6467382
183	0xbf930de5	-1.1488615
184	0x3e02098a	0.12698951
185	0xbe9f0ee1	-0.3106604
186	0x3d896c4c	0.06710109
187	0xbdebda7e	-0.115162835
188	0xbdbd0a00	-0.09230423
189	0x3ae480d2	0.0017433411
190	0x3e655800	0.2239685
191	0x3c6301a9	0.013855376
192	0xbdffd65a	-0.12492056
193	0x3cb4d30e	0.022073295
194	0xbe0e4ed5	-0.1389726
195	0x3c639daa	0.0138925705
196	0xbc2a006a	-0.010376075
197	0x3cf682a7	0.030091597
198	0x3dd4c9df	0.10390066
199	0xbdf8c558	-0.12147015
200	0x3da913c3	0.082557224
201	0xbdb01fdb	-0.08599826
202	0xbe160235	-0.1464928
203	0xbe1ba98f	-0.152014
204	0x3d4ec666	0.050482176
205	0xbc8acc42	-0.0169431
206	0xbdfa40db	-0.122194014
207	0xbd575de0	-0.05257976
208	0x3e08b32f	0.13349603
209	0x3d350936	0.044198237
210	0x3c7f208e	0.0155717265
211	0x3e0c3ed4	0.13695842
212	0xbe4c6073	-0.19958667
213	0xbe3aab98	-0.1822952
214	0x3c009ac5	0.0078494
215	0xbd104f5f	-0.035231944
216	0xbe796359	-0.24354304
217	0x3c9f5b5a	0.01945274
218	0x3daeec0e	0.085411176
219	0xbd196a91	-0.037455145
220	0xbde2ead2	-0.11079945
221	0x3d4fbcd6	0.050717197
222	0xbe500c48	-0.20317185
223	0x3e0d70ce	0.13812563
224	0xbded1eb6	-0.11578123
225	0x3d8cf239	0.06882138
226	0x3d009ca9	0.031399403
227	0x3d9a0933	0.07521286
228	0xbe11fb72	-0.14256075
229	0x3b0d3197	0.002154445
230	0xbdfcdf9d	-0.12347338
231	0xbd354a45	-0.044260282
232	0xbdf4f3d2	-0.119605675
233	0xbe329516	-0.17439684
234	0xbe115e5e	-0.14196154
235	0x3e0ee8cb	0.13955991
236	0x3c6ef5bb	0.014584954
237	0x3da7db51	0.08196128
238	0x3e1104b8	0.14161956
239	0xbe775abe	-0.24155709
240	0xbdf71103	-0.120637916
241	0xbde6c40c	-0.11267862
242	0xbe4bd484	-0.19905287
243	0x3dfb65fc	0.12275311
244	0xbe5ea0ad	-0.2174098
245	0xbe2ddcbc	-0.16978735
246	0xbe828880	-0.25494766
247	0xbe3d13ff	-0.18464659
248	0x3d7aeeb3	0.061262798
249	0x3d7809d8	0.060556263
250	0x3e019499	0.12654342
251	0x3d56a43d	0.052402724
252	0x3e20f5bf	0.15718745
253	0xbd3968cf	-0.04526597
254	0xbbce1c62	-0.0062900046
255	0x3e214690	0.15749574

phi.phi.2.bias f4 [32]
0	0xbe1828a9	-0.1485926
1	0xbd0e9348	-0.034808427
2	0x3d462e50	0.04838401
3	0xbe1b062f	-0.15139078
4	0xbda17da9	-0.07885296
5	0x3e771bfa	0.24131766
6	0xbe27c2a8	-0.16382849
7	0xbc327501	-0.010892154
8	0xbe2e23e9	-0.17005886
9	0xbd63b560	-0.055592895
10	0xbe18cca0	-0.14921808
11	0x3d256b30	0.040385425
12	0xbe86d346	-0.26333064
13	0xbe4191df	-0.18903302
14	0xbd4b3991	-0.049615446
15	0xbc9af829	-0.01891716
16	0xbd35b0ea	-0.04435817
17	0xbe1b46b9	-0.15163697
18	0xbdf3206e	-0.1187142
19	0x3dbdb7f7	0.09263604
20	0xbe01c39e	-0.12672278
21	0xbe2956f4	-0.16537076
22	0xbe266412	-0.16249111
23	0xbd912dcc	-0.07088813
24	0xbccfe153	-0.025375998
25	0xbe42e7c8	-0.1903373
26	0xbd2e4dd1	-0.04255468
27	0xbd16d0d8	-0.036820263
28	0xbde12cfd	-0.10994909
29	0xbd9fe1be	-0.07806729
30	0xbdba1380	-0.090857506
31	0xbe3034b9	-0.17207612

phi.phi.4.weight f4 [32, 32]
0	0xbde6edfb	-0.1127586
1	0xbe13468a	-0.14382377
2	0xbd04547e	-0.03230714
3	0x3e0d1045	0.13775738
4	0x3e1eaba9	0.1549517
5	0xbe1d965c	-0.15389389
6	0xbbfaf9d8	-0.007659178
7	0x3dd48123	0.103761934
8	0x3d9f95f2	0.07792272
9	0x3e14460d	0.14479847
10	0xbba0ad49	-0.0049034697
11	0xbdf3404c	-0.11877498
12	0x3def7fe7	0.11694317
13	0xbd784bf3	-0.060619306
14	0x3dbb7567	0.09153252
15	0xbd327067	-0.043564226
16	0x3d99e688	0.075146735
17	0x3e22d041	0.15899755
18	0x3e285263	0.16437678
19	0xbe24bd47	-0.16087829
20	0xbdef7b40	-0.1169343
21	0xbd95b0e4	-0.0730913
22	0xbde6df58	-0.11273068
23	0x3e2db025	0.16961725
24	0xbc7fcc73	-0.015612709
25	0xbdf027aa	-0.11726315
26	0xbda11a77	-0.07866376
27	0xbdc7fa33	-0.097645186
28	0x3d93b53b	0.07212301
29	0xbe1de4f2	-0.15419367
30	0xbe28c872	-0.16482714
31	0xbe32711c	-0.1742596
32	0x3d9bddcb	0.07610663
33	0x3db302fe	0.08740805
34	0xbde0daca	-0.10979231
35	0x3d338e40	0.043836832
36	0x3e05a02e	0.13049385
37	0x3cd26b38	0.025685892
38	0xbd193391	-0.037402693
39	0x3c55fc72	0.013060676
40	0xbc9b4843	-0.018955356
41	0x3db64942	0.089006916
42	0xbdf5d40f	-0.120033376
43	0x3db79739	0.0896439
44	0x3dcc0db3	0.099635504
45	0xbddb599d	-0.10710452
46	0x3e13d055	0.14434941
47	0x3e31cb60	0.17362738
48	0xbd8eb9dd	-0.06969044
49	0xbd4acf5c	-0.04951416
50	0x3db46c89	0.08809764
51	0xbe0dd072	-0.13849047
52	0x3d8f2bcc	0.069907755
53	0x3d28ee41	0.04124284
54	0x3de43428	0.111427605
55	0xbe1d3c10	-0.15354943
56	0xbe16635b	-0.14686339
57	0x3da29a23	0.079395555
58	0x3d826905	0.06367687
59	0xbe287c97	-0.16453777
60	0xbdc9e4f1	-0.0985812
61	0xbe25a0f9	-0.16174687
62	0xbe01afb8	-0.12664688
63	0xbda35a0a	-0.07976158
64	0x3e15cceb	0.14628951
65	0xbdf7db8b	-0.121024214
66	0x3d29ef6b	0.041488092
67	0x3e2be91e	0.16788146
68	0x3da4fe21	0.08056284
69	0xbe666743	-0.22500329
70	0x3c3684db	0.011140074
71	0xbb991da3	-0.0046727224
72	0x3e0c4d46	0.13701352
73	0xbe32904c	-0.17437857
74	0x3d385499	0.045002554
75	0x3d898e60	0.06716609
76	0xbe2869fc	-0.1644668
77	0xbd29d049	-0.0414584
78	0x3d99a25d	0.075016715
79	0xbe5e5986	-0.21713838
80	0xbcdfe862	-0.027332488
81	0x3d9ffa08	0.078113616
82	0xbc5f657b	-0.013635035
83	0x3dc9d2bc	0.098546475
84	0x3e143706	0.14474115
85	0x3d7ff799	0.062491987
86	0xbcb48200	-0.022034645
87	0x3d763619	0.060110185
88	0xbe7df8e9	-0.24801983
89	0xbdc35ddf	-0.09539389
90	0xbd1addd2	-0.0378092
91	0xbdff7013	-0.12472548
92	0x3dc663b1	0.096869834
93	0xbb92f3ab	-0.004484614
94	0x3d5c4416	0.05377587
95	0x3df64319	0.120245166
96	0xbe0738db	-0.13205282
97	0xbca7ba0b	-0.020474454
98	0x3cd37758	0.025813743
99	0x3d3c53bc	0.045978293
100	0x3dba2c0f	0.09090435
101	0xbd900ec1	-0.07034064
102	0xbd5a5590	-0.053304255
103	0x3e177763	0.14791636
104	0xbd4254bd	-0.047444094
105	0xbdfb7cae	-0.1227964
106	0x3df57a04	0.11986163
107	0x3df5280f	0.11970531
108	0xbd630bf5	-0.055431325
109	0xbd10c1f1	-0.035341207
110	0xbe05920f	-0.13043998
111	0xbe172b09	-0.1476251
112	0x3d8824fc	0.06647679
113	0xbd9aa905	-0.07551769
114	0x3e101bd2	0.14073113
115	0xbe10f1cf	-0.14154743
116	0xbcc82bda	-0.024434973
117	0x3b7a255b	0.0038169238
118	0x3dba1198	0.09085387
119	0x3e128127	0.1430708
120	0x3df52c99	0.11971397
121	0x3d9f5e34	0.0778164
122	0xbda62c6b	-0.08113941
123	0xbe014648	-0.12624466
124	0xbe21f135	-0.1581467
125	0x3c0faba1	0.008768947
126	0x3e2f912c	0.17145222
127	0xbd098876	-0.033577405
128	0xbbf3dc56	-0.0074420376
129	0xbe5c2c49	-0.21501268
130	0xbbbccc45	-0.0057616555
131	0x3de586c8	0.11207348
132	0xbe327847	-0.17428695
133	0xbe40796f	-0.18796323
134	0x3d6ba112	0.057526655
135	0xbcde38b5	-0.02712665
136	0xbc3492d7	-0.0110213375
137	0x3d016f4f	0.031600293
138	0xbdb78918	-0.089616954
139	0xbe496c63	-0.19670253
140	0xbe29265e	-0.16518542
141	0x3d66ea20	0.056375623
142	0xbdbe4210	-0.09289944
143	0xbe23f0cd	-0.16009827
144	0xbe018778	-0.12649333
145	0xbdc576d8	-0.09641808
146	0xbde5e324	-0.11224964
147	0xbe672539	-0.22572793
148	0x3e0776f4	0.13228971
149	0xbd13dc32	-0.036098666
150	0xbdb95730	-0.09049833
151	0xbe1647d1	-0.14675833
152	0x3a8a3fe5	0.0010547607
153	0xbd86109c	-0.06546137
154	0x3d3eef43	0.046614897
155	0xbdb514d8	-0.08841866
156	0xbe3437af	-0.17599367
157	0xbd2b91a2	-0.041886933
158	0xbd49894d	-0.049203206
159	0x3e1e1970	0.15439391
160	0xbd82fe2a	-0.06396134
161	0x3d449b19	0.047999475
162	0x403c1f30	2.9394035
163	0xbe13d221	-0.14435627
164	0x3c5140ff	0.012771844
165	0x3f9fab2b	1.2474111
166	0xbda25398	-0.079261005
167	0x3e2d8a3e	0.16947266
168	0x3e20a035	0.15686114
169	0x3e2868d3	0.16446237
170	0xbc8a2ffa	-0.01686858
171	0x3e1350a2	0.14386228
172	0x3e1248bf	0.14285563
173	0xbd77dafd	-0.060511578
174	0x3daa3cd5	0.08312384
175	0x3e79adb3	0.24382667
176	0x3ecb7d55	0.39744058
177	0x3e2c06b3	0.1679943
178	0xbde2a1db	-0.11066028
179	0x3e9bb66a	0.30412608
180	0x3d724029	0.05914322
181	0x3ea98452	0.33108765
182	0x3dabab32	0.08382262
183	0xbe329a00	-0.17441559
184	0xbe0f11d9	-0.13971652
185	0xbe293f9f	-0.16528176
186	0xbdce7285	-0.100804366
187	0x3e9e89f8	0.30964637
188	0xbe2c7268	-0.16840518
189	0x3d9bcb61	0.07607151
190	0xbe8450a3	-0.2584277
191	0x3cfa909e	0.030586537
192	0x3c6a1d4f	0.014289214
193	0xbd3b069e	-0.045660608
194	0xbea0a339	-0.3137453
195	0x3d315469	0.04329339
196	0x3e332247	0.17493545
197	0xbdf9c9bf	-0.12196683
198	0xbda3e23e	-0.08002137
199	0xbe1240ef	-0.14282583
200	0x3e1ed4ec	0.15510911
201	0x3e1af5b3	0.1513279
202	0xbd8eae3f	-0.069668286
203	0xbe0811a5	-0.13287981
204	0xbdbebca3	-0.09313323
205	0x3d889ea6	0.06670885
206	0xbdb72ac5	-0.089437045
207	0x3de17ad0	0.11009753
208	0xbd1a078e	-0.03760486
209	0x3e1b6748	0.15176117
210	0x3da3da61	0.08000637
211	0xbe9949d1	-0.2993913
212	0x3d53f064	0.051742926
213	0xbbc3e0aa	-0.00597771
214	0x3db251be	0.08706997
215	0xbc528e27	-0.012851275
216	0xbcc2e30f	-0.02378991
217	0xbed833e3	-0.42227086
218	0xbe21c818	-0.15798986
219	0x3d6834a4	0.056690827
220	0xbcdeb555	-0.027186075
221	0xbd9931ed	-0.07480226
222	0x3d1c66b5	0.038183887
223	0xbd972d97	-0.073817424
224	0x3d80844c	0.062752336
225	0xbe54300f	-0.20721458
226	0xbcdd8feb	-0.027046164
227	0xbd254e49	-0.04035786
228	0x3dfd8b9b	0.12380143
229	0xbd3dd650	-0.046346962
230	0x3d9630e4	0.07333544
231	0xbd8501a1	-0.06494451
232	0x3dd57de0	0.104243994
233	0xbe34dd05	-0.17662437
234	0xbe2bbccd	-0.1677124
235	0xbd45ca76	-0.048288785
236	0xbd6b8384	-0.05749847
237	0xbe4b7626	-0.19869289
238	0xbe1f3ac7	-0.15549766
239	0xbe74c83f	-0.23904513
240	0xbe888c26	-0.26669425
241	0x3c8a1c93	0.016859328
242	0x3d7833a0	0.06059611
243	0xbcae065c	-0.021243267
244	0xbdac0439	-0.08399243
245	0xbe949c76	-0.2902562
246	0xbe120ad0	-0.14261937
247	0xbdc100a3	-0.094239496
248	0x3d0c5418	0.034259886
249	0xbd929da0	-0.07158971
250	0xbdc50064	-0.09619215
251	0xbe003b8e	-0.12522718
252	0xbda829e9	-0.08211119
253	0xbe86034f	-0.261744
254	0xbe5d341b	-0.21601908
255	0x3e323198	0.17401731

phi.phi.4.bias f4 [32]
0	0xbde20a9a	-0.11037178
1	0xbe1bb9f9	-0.15207662
2	0xbd8069e6	-0.062701985
3	0xbdaf89a1	-0.085711725
4	0x3d3a4fe7	0.045486357
5	0xbdbdb884	-0.09263709
6	0x3e11dd28	0.1424452
7	0x3c488051	0.012237624
8	0x3da3400f	0.079712026
9	0xbdf26d51	-0.11837257
10	0xbddde9d5	-0.108356155
11	0xbdf0869d	-0.117444254
12	0x3e8268e8	0.25470662
13	0x3c75e62d	0.015008491
14	0xbe016b4c	-0.12638587
15	0xbcdf36ab	-0.027247747
16	0x3df675ed	0.12034211
17	0xbe148a6c	-0.14505929
18	0x3e38433e	0.17994401
19	0xbe30eba2	-0.17277387
20	0x3db0c74f	0.08631765
21	0xbe1cf9b3	-0.15329628
22	0x3d67a027	0.056549218
23	0xbd865cba	-0.06560655
24	0x3e439e37	0.19103323
25	0xbe925e5c	-0.28587615
26	0xbe2bd3bf	-0.16779993
27	0x3e339306	0.17536554
28	0x3ecd8e41	0.40147594
29	0x3e916adb	0.28401837
30	0x3cfd7166	0.030937862
31	0xbcbee6db	-0.02330344

phi.phi.6.weight f4 [7, 32]
0	0xbc62f439	-0.0138521725
1	0xbe102e59	-0.1408018
2	0xbda57b2e	-0.08080135
3	0xbdf94334	-0.12171021
4	0x3ce9c0c3	0.028534299
5	0x3ec3a1ca	0.38209373
6	0xbd957351	-0.072973855
7	0x3d82ba79	0.06383223
8	0x3de8762b	0.11350664
9	0xbd4e9dfc	-0.050443634
10	0xbb9ccea1	-0.0047853743
11	0x3e2ec8ac	0.17068738
12	0x3daef433	0.08542671
13	0x3e6dad82	0.23210719
14	0xbc9c594d	-0.01908555
15	0x3b4d76d8	0.0031351354
16	0x3d750a9c	0.05982457
17	0xbd70d8ed	-0.058800627
18	0xbe459af0	-0.19297385
19	0x3de496a8	0.11161548
20	0x3e2136a8	0.15743506
21	0xbd64afa4	-0.055831566
22	0x3e9bc9b3	0.30427322
23	0x3cca509c	0.02469664
24	0xbf5406b5	-0.82822734
25	0x3e7d2046	0.24719343
26	0x3ee5f00b	0.449097
27	0xbcb49885	-0.022045383
28	0xbde9883e	-0.11402939
29	0xbdd409f7	-0.10353463
30	0x3da3aebf	0.079923145
31	0x3e0f2e47	0.13982497
32	0x3d4e38a8	0.050347
33	0x3d2b3df8	0.041807145
34	0xbd6600b5	-0.056153018
35	0x3dcf9dfd	0.10137556
36	0xbdca22b3	-0.098698996
37	0xbea3bf36	-0.3198182
38	0x3abc124b	0.0014348713
39	0xbc5336d7	-0.012891493
40	0x3beda7f0	0.0072526857
41	0xbda333e9	-0.079688855
42	0xbcc02d2d	-0.023459041
43	0xbc66321a	-0.014050031
44	0xbd21dff4	-0.03952022
45	0xbee35b83	-0.44405755
46	0xbe28b885	-0.16476639
47	0x3d877931	0.06614912
48	0xbe32e1f8	-0.17469013
49	0xbc73a545	-0.014870946
50	0xbc42794b	-0.011869739
51	0x3ccb1e06	0.02479459
52	0x3d5ccd5f	0.053906795
53	0xbd171191	-0.036881987
54	0xbe2be45b	-0.1678633
55	0xbc81a02b	-0.015823444
56	0xbd0b059d	-0.0339409
57	0xbe00fac7	-0.12595664
58	0xbdb84e71	-0.089993365
59	0xbe820442	-0.25393873
60	0xbe0c8033	-0.13720779
61	0xbe62d02d	-0.22149725
62	0xbe074772	-0.13210848
63	0x3d436667	0.04770508
64	0xbe2b8423	-0.16749625
65	0xbe223255	-0.15839513
66	0x3d2d52f1	0.042315427
67	0xbdd5cc19	-0.10439319
68	0x3d8db09a	0.0691845
69	0xbe2b3b16	-0.16721758
70	0xbe4a99d3	-0.19785242
71	0x3da4a56d	0.08039365
72	0xbe6528c2	-0.22378829
73	0x3d8e327f	0.06943225
74	0x3d6ad10c	0.05732827
75	0xbdf29b08	-0.11845976
76	0xbe856b8b	-0.2605861
77	0xbe8b1b89	-0.27169445
78	0xbd91519e	-0.07095645
79	0xbc9cd712	-0.019145522
80	0xbec8ac05	-0.3919374
81	0x3e1e4a3a	0.15458003
82	0x3d95f1ce	0.07321511
83	0xbc9a7c59	-0.018858122
84	0xbe5dfde1	-0.21678878
85	0xbd911327	-0.07083731
86	0xbe56dd47	-0.20982848
87	0x3df1fe88	0.11816126
88	0x3bba5f52	0.0056876326
89	0x3d52bd65	0.051450152
90	0xbe336bb6	-0.17521557
91	0xbec9f042	-0.39441115
92	0xbe801239	-0.25013903
93	0xbe98a791	-0.29815343
94	0xbde02f37	-0.109465055
95	0xbbac34c6	-0.0052553145
96	0xbc4df0ff	-0.012569665
97	0x3e2fb597	0.17159115
98	0xbdc00dd0	-0.093776345
99	0xbdec3d70	-0.11535156
100	0xbcfa962b	-0.030589184
101	0xbe2be2f0	-0.16785789
102	0xbdad7540	-0.08469629
103	0x3de3ce96	0.111233875
104	0xbd8560e3	-0.0651262
105	0x3dc14546	0.09437041
106	0x3cc16502	0.023607735
107	0xbd86afb0	-0.065764785
108	0x3d8d9f4f	0.06915151
109	0xbe3c79a9	-0.18405785
110	0x3bbfa8e7	0.005848992
111	0x3d22c0f6	0.039734803
112	0x3c9a4a9a	0.0188344
113	0xbe2704eb	-0.1631047
114	0xbd52a373	-0.05142541
115	0xbd3b7a57	-0.04577097
116	0x3d5f7dbf	0.05456328
117	0xba176bf2	-0.0005776278
118	0xbd3f0aef	-0.046641286
119	0x3dd9ade7	0.10628872
120	0xbdcbe5a7	-0.09955912
121	0xbdeb7a9d	-0.11497996
122	0x3cbb77dc	0.022884302
123	0xbe503f0c	-0.2033655
124	0xbe3aa474	-0.18226796
125	0xbd416ec9	-0.047224794
126	0xbe055089	-0.13019003
127	0xbd4c81bf	-0.049928423
128	0x3e1fe7be	0.15615746
129	0xbca7e018	-0.020492598
130	0xbe1a57e5	-0.15072592
131	0xbda4931d	-0.08035872
132	0x3e263dfd	0.16234584
133	0xbd1f1275	-0.03883596
134	0xbdefbfce	-0.11706506
135	0x3da2f695	0.07957188
136	0x3cb346ad	0.021884287
137	0xbe1f99de	-0.1558604
138	0x3e16c020	0.14721727
139	0x3dcbdf79	0.099547334
140	0x3e06da7c	0.13169283
141	0x3d08436b	0.03326742
142	0xbd742021	-0.059600953
143	0xbd6c5f80	-0.057708263
144	0x3d254ed0	0.040358365
145	0xbd0c5d7d	-0.034268845
146	0xbcab434a	-0.02090611
147	0xbe2f67d5	-0.17129453
148	0xbbe768b8	-0.007062044
149	0x3d867a77	0.06566327
150	0xbe231a3d	-0.15927978
151	0xbdb0fc22	-0.086418405
152	0xbdbb8c3e	-0.091576084
153	0x3d27ec6f	0.040996965
154	0xbe689da5	-0.22716387
155	0xbe3c2a77	-0.18375574
156	0x3e2832ed	0.16425677
157	0x3d930c34	0.07180062
158	0xbda118a7	-0.0786603
159	0xbd481125	-0.048844475
160	0x3e2eebda	0.17082158
161	0x3a417cd4	0.00073809666
162	0xbca6464e	-0.020297196
163	0x3dd0557f	0.10172557
164	0x3d4aa8f6	0.04947754
165	0x3edeff83	0.43554315
166	0xbd94a103	-0.07257273
167	0xbd886300	-0.06659508
168	0xbe238c6a	-0.15971532
169	0x3d81f263	0.0634506
170	0xbe030c6c	-0.12797707
171	0x3e326a0c	0.17423266
172	0x3daeff9c	0.08544847
173	0xbd77cce5	-0.060498137
174	0x3d8f15c1	0.06986571
175	0xbe207c70	-0.15672469
176	0xbc1b3b4f	-0.0094745895
177	0x3d87fb6b	0.06639751
178	0xbe069af4	-0.13145047
179	0x3d03581b	0.032066446
180	0xbdd1f702	-0.10252191
181	0xbd8c9302	-0.06863977
182	0xbef88adf	-0.4854345
183	0x3d64d859	0.055870388
184	0x3e194fdc	0.1497187
185	0xbd2943ac	-0.041324303
186	0xbe70d713	-0.23519544
187	0x3c1ec93c	0.009691533
188	0x3d6ba361	0.057528857
189	0x3c6ebe9e	0.014571814
190	0x3de85315	0.11343972
191	0x3bd4e43c	0.006496934
192	0xbc17d05b	-0.009265984
193	0x3dbf0eb2	0.09328975
194	0x3ddb10de	0.106965765
195	0x3e16c161	0.14722206
196	0x3dc26dde	0.09493612
197	0xbb9bf247	-0.0047591063
198	0xbddeff35	-0.10888521
199	0xbdaa5697	-0.08317297
200	0xbc434843	-0.011919084
201	0x3c23cfe4	0.009998295
202	0xbc811538	-0.015757188
203	0xbde9d9ab	-0.1141847
204	0xbeb170bd	-0.34656325
205	0x3e59c0ef	0.21265005
206	0xbd38ee9d	-0.045149434
207	0xbcc3becd	-0.023894692
208	0xbe580be2	-0.21098283
209	0xbdb37bf7	-0.08763879
210	0xbe05aa8f	-0.13053344
211	0xbcb29eef	-0.021804301
212	0xbe0ab744	-0.13546473
213	0xbe012a96	-0.12613901
214	0x3e89b8aa	0.268987
215	0xbdba74b9	-0.09104294
216	0xbe6243b4	-0.22096139
217	0xbe319748	-0.17342865
218	0x3e9a6384	0.3015405
219	0xbe48ea10	-0.19620538
220	0xbeb25593	-0.34830913
221	0xbe7245ac	-0.2365939
222	0xbd143d43	-0.036191236
223	0xbe1dbde3	-0.15404467

phi.phi.6.bias f4 [7]
0	0x3da99126	0.08279638
1	0xbcc59a75	-0.024121502
2	0xbe3e2315	-0.1856807
3	0xbd1298d8	-0.035790294
4	0xbddd3882	-0.10801794
5	0x3e508759	0.20364131
6	0xbe7c772f	-0.2465484

rho.rho.0.weight f4 [28, 7]
0	0xbe9e146c	-0.30874956
1	0xbeb42e4e	-0.35191578
2	0xbdc744bb	-0.09729906
3	0x3e809061	0.25110152
4	0xbe3e8cc4	-0.18608385
5	0x3e9f615e	0.31128973
6	0xbe429796	-0.19003138
7	0xbeaece1b	-0.3414162
8	0x3e2a408c	0.16626185
9	0xbe69e714	-0.22842056
10	0xbd740bec	-0.059581682
11	0xbdf16f96	-0.117888615
12	0xbcf6073e	-0.03003275
13	0xbea8a04f	-0.32934806
14	0xbedce548	-0.43143678
15	0x3dd1c61e	0.10242866
16	0xbdd07d60	-0.101801634
17	0xbe937bbd	-0.28805342
18	0xbc1dc0f0	-0.009628519
19	0xbed6f8a5	-0.41986576
20	0x3cc4be48	0.024016514
21	0xbd180285	-0.037111778
22	0x3e9b0b7e	0.30282205
23	0xbd9095b9	-0.07059807
24	0xbdd8d949	-0.10588319
25	0x3d86f6cf	0.06590044
26	0x3f21803b	0.6308629
27	0xbf6f7bb8	-0.93548155
28	0x3d0fc47b	0.035099488
29	0x3e1fcb09	0.15604796
30	0x3e69551d	0.22786374
31	0xbe856a10	-0.26057482
32	0x3e709037	0.23492514
33	0xbe80edfc	-0.25181568
34	0xbe6e3d41	-0.23265554
35	0xbdf2292e	-0.11824261
36	0x3efc25e3	0.49247655
37	0xbc98f50b	-0.018671533
38	0x3e11292a	0.14175859
39	0x3ce12440	0.027483106
40	0x3d82149d	0.06351588
41	0x3e1a98cc	0.1509735
42	0xbc766ac8	-0.015040107
43	0xbe81c6d3	-0.25347003
44	0xbea67735	-0.32512823
45	0x3e0a4fdd	0.13507028
46	0xbe8b765f	-0.27238747
47	0x3dd31944	0.103075534
48	0xbeaa107d	-0.33215705
49	0xbd99de22	-0.075130716
50	0x3e0a7561	0.13521339
51	0xbe9bbf38	-0.30419326
52	0xbe787b81	-0.24265863
53	0x3e308752	0.1723912
54	0xbebf65a0	-0.3738222
55	0x3e852d3c	0.26011074
56	0xbec75800	-0.38934326
57	0xbd876e49	-0.06612832
58	0x3ca3684e	0.019947197
59	0x3db67498	0.08908957
60	0xbe703873	-0.23459034
61	0xbd242cbb	-0.04008172
62	0x3da23a31	0.079212554
63	0x3c051d0e	0.008124603
64	0xbecb2cd9	-0.39682654
65	0xbf06ee93	-0.52707785
66	0x3d4d05af	0.05005425
67	0xbe24e64d	-0.16103478
68	0xbf21ec88	-0.63251543
69	0xbef151c7	-0.47132704
70	0xbe884d9c	-0.2662171
71	0xbd896787	-0.067091994
72	0x3e44f63f	0.1923456
73	0xbe4f431c	-0.20240444
74	0xbeb96960	-0.36213207
75	0x3ec0816b	0.37598738
76	0x3ed2d6d1	0.41179517
77	0xbe73fa06	-0.23825845
78	0xbcb63c4c	-0.022245549
79	0xbd7e38e0	-0.06206596
80	0x3deed712	0.11662115
81	0xbe8634b7	-0.26212093
82	0xbd2c6c41	-0.042095426
83	0x3e95e18d	0.29273644
84	0x3dc1a5e4	0.09455469
85	0xbe4a87e0	-0.19778395
86	0x3e953fff	0.29150388
87	0x3d82364f	0.06358015
88	0xbd64bd74	-0.05584474
89	0xbe391016	-0.18072543
90	0xbe82980b	-0.25506625
91	0x3db52443	0.08844807
92	0xbdfa9a52	-0.122364655
93	0xbcc74246	-0.024323594
94	0x3de322e7	0.110906415
95	0xbe6d8f04	-0.23199087
96	0x3d09fd20	0.033688664
97	0x3d9117ce	0.070846185
98	0xbe624b8f	-0.22099136
99	0x3de134c9	0.10996396
100	0xbc538391	-0.012909786
101	0x3e54ce5b	0.20781843
102	0x3e8096b9	0.25114992
103	0x3dcd5d8f	0.100276105
104	0x3c3b1cf3	0.011420476
105	0xbea69608	-0.3253634
106	0x3e1a1992	0.15048817
107	0x3e6bf663	0.23043208
108	0xbe0c94c6	-0.13728628
109	0xbec026ee	-0.375297
110	0x3e9cd1ed	0.3062891
111	0xbdb5b23f	-0.08871888
112	0xbe54147f	-0.20710944
113	0xbe1ab40b	-0.15107743
114	0x3eee263b	0.46513543
115	0x3e9dfca2	0.30856806
116	0x3e992063	0.29907522
117	0xbe4b662d	-0.19863196
118	0x3da556dc	0.08073208
119	0x3da5500e	0.0807191
120	0x3d170a49	0.036875043
121	0xbe9bdff7	-0.3044431
122	0xbe273aff	-0.16331099
123	0xbebf76c5	-0.373953
124	0x3e69db00	0.22837448
125	0x3e8e251c	0.27762687
126	0x3e52a293	0.2056983
127	0xbddae7d0	-0.10688746
128	0xbe182ae9	-0.14860119
129	0x3ed90686	0.4238779
130	0xbe19f284	-0.15033919
131	0xbf0aae82	-0.5417253
132	0xbe74fbec	-0.23924226
133	0xbd194d78	-0.037427396
134	0x3cd4642c	0.025926672
135	0x3dd3e4f1	0.103464015
136	0xbe86a095	-0.2629439
137	0xbd332666	-0.04373779
138	0xbe9f7578	-0.3114431
139	0xbe9d6a42	-0.3074513
140	0x3d0e448d	0.034733344
141	0xbebce721	-0.36895087
142	0x3dce1e46	0.10064368
143	0xbeb244b2	-0.34818035
144	0xbe482938	-0.19546974
145	0xbd834b34	-0.06410828
146	0xbeca3798	-0.3949554
147	0x3cbb09b3	0.022831773
148	0x3ef3c6fb	0.47612748
149	0x3e1fc4fc	0.15602487
150	0x3e0e8edb	0.13921683
151	0x3e77243c	0.24134916
152	0x3dfbac4f	0.12288725
153	0xbe96d98f	-0.2946286
154	0xbeb68736	-0.35650033
155	0x3e8cb6de	0.27483267
156	0xbea9bbdd	-0.3315114
157	0xbd8f5b98	-0.06999892
158	0x3cc01135	0.023445705
159	0xbdfeef26	-0.12447958
160	0xbe0d8f63	-0.13824229
161	0xbeeb47d1	-0.4595323
162	0x3db4686b	0.08808979
163	0x3e97e720	0.29668522
164	0x3ec774a8	0.3895619
165	0xbd5a5a33	-0.053308677
166	0x3df358eb	0.11882194
167	0x3f285deb	0.6576831
168	0xbe6b81a3	-0.22998671
169	0xbe19850e	-0.14992163
170	0xbdcb200d	-0.099182226
171	0xbd65ee7b	-0.056135636
172	0xbd7f0f7d	-0.06227063
173	0x3d5383dc	0.051639423
174	0x3e809815	0.2511603
175	0xbd0bdb5c	-0.034144744
176	0x3e0c3072	0.13690355
177	0x3e6f009b	0.23340075
178	0x3da6da3d	0.081470944
179	0x3e32697f	0.17423056
180	0x3e4b0511	0.19826151
181	0x3e8843ab	0.26614127
182	0xbecfcde7	-0.4058678
183	0x3e4bffd6	0.19921812
184	0x3dfc333e	0.12314461
185	0xbc006f31	-0.00783901
186	0xbe649eb5	-0.22326167
187	0x3d9d745a	0.07688208
188	0x3f16f257	0.5896353
189	0xbf0a498f	-0.5401849
190	0x3e13a165	0.14417036
191	0x3dcb8885	0.099381484
192	0x3bc4d8fc	0.006007312
193	0xbc85c27e	-0.016328093
194	0x3ed05e61	0.40697005
195	0xbda30189	-0.07959277

rho.rho.0.bias f4 [28]
0	0xbe34cdae	-0.17656586
1	0xbce4a4ce	-0.027910616
2	0x3d2361d3	0.039888214
3	0xbe83fbf3	-0.2577816
4	0xbe070ac7	-0.13187705
5	0x3d9cc984	0.076556236
6	0x3db9f29d	0.09079478
7	0xbe9cc2c6	-0.3061735
8	0x3a553cc8	0.0008134362
9	0x3e3e30a2	0.1857324
10	0x3e6236a4	0.22091156
11	0xbdc1a5aa	-0.09455426
12	0x3e8f3066	0.27966613
13	0xbefc4f9f	-0.49279496
14	0xbe30a83d	-0.17251678
15	0xbe2eefbf	-0.17083643
16	0x3e889da1	0.2668276
17	0xbeed4c2c	-0.46347177
18	0xbb8e14d6	-0.00433598
19	0xbebb7566	-0.36613005
20	0xbd2e1b8c	-0.04250674
21	0x3d7a66ec	0.06113331
22	0xbdb50523	-0.088388704
23	0x3eb2120a	0.34779388
24	0xbd71504a	-0.05891446
25	0xbe929d51	-0.28635648
26	0x3e0b5a5e	0.13608691
27	0xbde4319b	-0.11142274

rho.rho.2.weight f4 [28, 28]
0	0xbca56760	-0.020190895
1	0x3e258ca7	0.16166936
2	0xbd47da81	-0.048792366
3	0xbd21a843	-0.039467108
4	0x3e22fcd7	0.15916763
5	0x3de308d9	0.11085672
6	0x3c538ca7	0.012911952
7	0x3d5cf838	0.053947657
8	0xbd939119	-0.072054096
9	0xbe17efa3	-0.14837508
10	0x3e76f2d6	0.24116072
11	0x3d14f2c7	0.036364343
12	0x3dc1d81f	0.0946505
13	0xbb2767db	-0.002554408
14	0x3e0336dc	0.12813896
15	0xbdb1466b	-0.08656009
16	0xbda53b8e	-0.08068
17	0xbe3a06ba	-0.18166628
18	0xbb336017	-0.0027370506
19	0xbe2e601f	-0.17028855
20	0xbdd27daf	-0.102778785
21	0xbdae8184	-0.08520797
22	0xbe236349	-0.15955843
23	0xbc818768	-0.015811637
24	0xbd715125	-0.058915276
25	0xbb424053	-0.002964039
26	0x3e603047	0.21893416
27	0xbab43d6d	-0.0013751216
28	0x3e18a7ae	0.14907715
29	0x3b8965c0	0.0041930377
30	0x3d542443	0.051792394
31	0xbe81e792	-0.25371987
32	0xbdb94742	-0.090467945
33	0xbe42de60	-0.19030142
34	0x3dd8d7cb	0.10588034
35	0xbd6e8998	-0.05823669
36	0xbdcf3702	-0.10117914
37	0x3e094896	0.13406596
38	0x3ee7e504	0.45291913
39	0xbd881701	-0.06645013
40	0xbe7fcacc	-0.24979705
41	0xbe8a88d2	-0.2705751
42	0xbe29afe5	-0.16571005
43	0x3e2f1e4e	0.17101404
44	0x3e29a0ba	0.16565219
45	0xbd02db10	-0.031947196
46	0xbea98e56	-0.33116406
47	0xbd4a75ad	-0.04942863
48	0xbdbd3942	-0.09239437
49	0x3ce736c8	0.028224364
50	0xbd4d87f6	-0.05017849
51	0xbcceca18	-0.02524285
52	0x3a8e23e3	0.0010844435
53	0x3e300fda	0.17193547
54	0x3dbd46b9	0.09242005
55	0x3d04532f	0.032305893
56	0xbcc1ddb6	-0.02366529
57	0xbc98fe61	-0.018675985
58	0xbb586a08	-0.0033022184
59	0xbe101b13	-0.14072828
60	0x3e3cd42f	0.18440317
61	0xbda6ebf4	-0.08150473
62	0x3de12e11	0.109951146
63	0xbdd8f8aa	-0.10594304
64	0x3aa64962	0.0012686665
65	0x3d847e2d	0.064693786
66	0xbe31af2c	-0.17351979
67	0x3db1887e	0.08668612
68	0xbe142090	-0.14465547
69	0x3cd8099a	0.026371766
70	0xbd197f6e	-0.037475042
71	0x3ddddb99	0.108329006
72	0x3e3c1485	0.18367203
73	0x3d2e72fb	0.042590123
74	0xbbb0d2ba	-0.0053962143
75	0xbdbfc139	-0.09363026
76	0x3d904d05	0.0704594
77	0xbdba49f9	-0.090961404
78	0x3d9fdf23	0.07806232
79	0xbda7c07d	-0.08191011
80	0x3e03440f	0.12818931
81	0x3e146f64	0.14495617
82	0x3ded530c	0.115881056
83	0x3af81ff4	0.0018930421
84	0x3db37c3e	0.08763932
85	0xbe3056f9	-0.17220677
86	0x3dab5d5f	0.083674185
87	0xbe1584c2	-0.14601424
88	0x3d8d18ac	0.068894714
89	0xbdf327e1	-0.11872841
90	0xbe2363c5	-0.15956028
91	0xbdb5c108	-0.088747084
92	0x3d428163	0.047486674
93	0xbe45be12	-0.19310787
94	0xbde5e7b7	-0.11225837
95	0x3d10824b	0.035280507
96	0xbd950005	-0.07275394
97	0xbe22d366	-0.15900955
98	0xbe406de1	-0.18791915
99	0xbdbc2a91	-0.091878064
100	0x3db3882d	0.08766208
101	0xbe09989e	-0.13437125
102	0x3b95a85e	0.00456719
103	0x3e0a85e8	0.13527644
104	0xbda06cdd	-0.07833264
105	0xbe35b687	-0.1774541
106	0xbe0b3947	-0.13596068
107	0xbd736deb	-0.059430998
108	0xbdb11ab5	-0.08647672
109	0x3c166eb4	0.009181667
110	0xbb8796e6	-0.0041378615
111	0xbbecf46e	-0.0072312867
112	0xbd743799	-0.059623335
113	0x3c54a804	0.012979511
114	0x3d37e0bc	0.044892058
115	0x3b83d10c	0.004022723
116	0x3d1ae649	0.037817273
117	0xbd9cc8be	-0.07655476
118	0x3e1e9f17	0.15490375
119	0xbc9ecb1e	-0.019383963
120	0xbcc613db	-0.02417939
121	0xbe2daf47	-0.16961394
122	0xbe0c4660	-0.13698721
123	0x3bc0a167	0.0058786157
124	0xbcef6cf0	-0.02922675
125	0xbdc297fd	-0.09501646
126	0x3dca9812	0.09892286
127	0xbc8a993a	-0.016918767
128	0x3d881da8	0.066462815
129	0x3e22fe58	0.15917337
130	0xbdb1f03e	-0.08688401
131	0xbdbe7cfa	-0.09301181
132	0xbd1b8c24	-0.037975445
133	0xbc83192a	-0.01600321
134	0xbdc194ab	-0.09452184
135	0xbd39d79e	-0.045371644
136	0xbbb27e95	-0.0054472187
137	0x3dad9bef	0.084770076
138	0x3e330916	0.17483935
139	0x3e0f4d38	0.139943
140	0x3c79e689	0.015252718
141	0xbc431e2d	-0.01190905
142	0xbca06421	-0.019578995
143	0xbe6836e7	-0.22677194
144	0x3d16ff16	0.036864363
145	0xb99a33bc	-0.00029411714
146	0xbe49049f	-0.19630669
147	0xbe24931c	-0.16071743
148	0xbd91e259	-0.071232505
149	0xbe25a94d	-0.16177864
150	0x3cd03a5f	0.025418459
151	0xbe71a2d7	-0.23597275
152	0xbc9edafe	-0.019391533
153	0xbbf6bc7a	-0.0075297924
154	0xbdcff1d4	-0.10153547
155	0xbd9da81c	-0.0769808
156	0xbb13ae72	-0.0022534397
157	0xbe0c588a	-0.1370565
158	0xbe96ecd1	-0.29477552
159	0xbb18bb4a	-0.0023304992
160	0x3e1aae9a	0.15105668
161	0xbc9811b9	-0.018563138
162	0xbdfce18e	-0.12347709
163	0x3d20dcf0	0.039273202
164	0x3da9442f	0.08264958
165	0x3c47564e	0.012166573
166	0x3ca59afc	0.020215504
167	0xbe1270d0	-0.14300847
168	0x3d19c0d1	0.0375374
169	0x3d622eb1	0.05522031
170	0xbdb2c3cf	-0.08728754
171	0x3deef669	0.11668093
172	0xbe36f877	-0.1786822
173	0xbd916272	-0.07098855
174	0xbde3ba1d	-0.11119483
175	0xbde5c23a	-0.112186864
176	0xbdea8658	-0.11451405
177	0xbe36599d	-0.17807622
178	0x3d04d7f8	0.032432526
179	0xbd191fce	-0.037383847
180	0xbe22f1af	-0.15912507
181	0xb8a2ff47	-7.772311e-05
182	0xbd00f224	-0.031480923
183	0x3d9fa999	0.0779602
184	0xbe17946e	-0.14802715
185	0xbd59c40f	-0.05316549
186	0x3d1f549a	0.03889904
187	0x3da40f2d	0.08010707
188	0x3c6a3bc7	0.014296479
189	0x3d51c59e	0.051213853
190	0x3e41726e	0.18891308
191	0xbd8612e5	-0.065465726
192	0x3e03e41d	0.12879987
193	0x3e26b1a9	0.1627871
194	0xbe2b3062	-0.16717675
195	0x3d3b3e4e	0.045713715
196	0x3ddb3c71	0.10704888
197	0xbcf17d86	-0.0294788
198	0x3dd59ab5	0.10429899
199	0xbd8fd908	-0.07023817
200	0x3e135265	0.143869
201	0xbd57ab8e	-0.05265384
202	0xbe62453d	-0.22096725
203	0x3e12f702	0.14352039
204	0x3d66364c	0.056204125
205	0x3d70b919	0.058770273
206	0x3d402874	0.04691358
207	0x3dcd84c9	0.100350924
208	0x3c0caec7	0.008586592
209	0x3d0257e2	0.031822093
210	0xbd33f1f4	-0.043931916
211	0x3d1fdf57	0.039031353
212	0xbe06ee28	-0.13176787
213	0xbd764cf4	-0.060131982
214	0xbe29e2a6	-0.16590366
215	0x3c43c2b0	0.011948273
216	0xbe19382b	-0.14962833
217	0x3bde5c6c	0.00678592
218	0xbe328abe	-0.17435738
219	0x3da5bea2	0.08093001
220	0x3dfee2e6	0.12445621
221	0xbe315bb8	-0.17320144
222	0x3e2ed865	0.17074735
223	0xbe0fdba9	-0.14048637
224	0xbd180069	-0.037109766
225	0x3dc88fa0	0.09793019
226	0xbd7575cc	-0.059926793
227	0x3e2c75ce	0.16841814
228	0xbdaabde7	-0.08337002
229	0xbccf45a1	-0.025301756
230	0xbdfcffdc	-0.12353489
231	0xbdb38ea2	-0.087674394
232	0x3e3cd7f4	0.18441755
233	0x3e1189a6	0.14212665
234	0x3c63fb32	0.01391487
235	0x3c7e958c	0.015538584
236	0xbe2437e2	-0.16036943
237	0x3e121887	0.14267169
238	0xbce81c50	-0.028333813
239	0xbda16e20	-0.07882333
240	0xbe1a017e	-0.15039632
241	0x3e1f1b51	0.15537764
242	0x3db78707	0.08961301
243	0x3de91f6c	0.11382946
244	0x3ca04d96	0.019568246
245	0xbe0350c2	-0.12823775
246	0x3d9e8b0b	0.07741364
247	0x3cb28bc3	0.02179516
248	0x3d81e11f	0.063417666
249	0xbd40c010	-0.047058165
250	0xbdb6a5e4	-0.0891836
251	0x3e1edd6b	0.15514152
252	0x3d81bda4	0.06334999
253	0xbd9d14fc	-0.07670018
254	0x3c8a3f5d	0.016875917
255	0xbd284398	-0.041080087

rho.rho.2.bias f4 [28]
0	0x3e619dec	0.22032899
1	0x3e1240b3	0.14282493
2	0xbdad87ec	-0.08473191
3	0xbcfdeb08	-0.03099586
4	0xbe36e9f1	-0.17862679
5	0x3dabae0c	0.08382806
6	0xbe40da60	-0.18833303
7	0xbe8f6c52	-0.2801233
8	0xbe2db50d	-0.16963597
9	0xbe33b609	-0.1754991
10	0x3dcbbbc5	0.099479236
11	0x3ca4b734	0.02010689
12	0x3d524ad7	0.051340904
13	0x3d4bdabb	0.049769145
14	0x3ca6da35	0.020367721
15	0xbe036921	-0.12833072
16	0xbde5a04e	-0.11212216
17	0xbe22061c	-0.15822643
18	0x3dfa8b6c	0.12233624
19	0xbe470eb4	-0.19439203
20	0xbd1d6dff	-0.03843498
21	0x3dab8a0f	0.08375942
22	0xbdccb9df	-0.099963896
23	0xbe32d4cc	-0.17463988
24	0xbe0101fe	-0.12598416
25	0xbe516ff3	-0.20452861
26	0x3e0210a0	0.12701654
27	0xbd2ea4fe	-0.042637818

rho.rho.4.weight f4 [1, 28]
0	0x3e01f6d3	0.12691812
1	0x3d4f586c	0.050621435
2	0xb97bb362	-0.0002400405
3	0xbdbfc035	-0.093628325
4	0x3b88b844	0.004172357
5	0x3c8692ef	0.016427485
6	0xbddcdb17	-0.107839756
7	0xbb2e9e60	-0.0026644692
8	0x3c21deb4	0.009879757
9	0xbe11cff0	-0.14239478
10	0x3d8e0227	0.06934004
11	0x3df5d00d	0.12002573
12	0x3da220ce	0.07916413
13	0x3ded42ef	0.11585032
14	0x3cde1a16	0.027112048
15	0xbdb63e43	-0.08898594
16	0xbd9857be	-0.074386105
17	0xbd3a4656	-0.045477234
18	0x3d9506f9	0.072767206
19	0xbe360289	-0.17774405
20	0x3e1bb91f	0.15207337
21	0x3cd47504	0.025934704
22	0xbd884194	-0.06653133
23	0xbd8ddaff	-0.06926536
24	0xbe20ffd2	-0.15722588
25	0xbdc6b649	-0.09702737
26	0x3dc7d22f	0.09756886
27	0x3aef3206	0.0018249161

exp_avg f4 [32, 3]
0	0x35c97b9c	1.5011642e-06
1	0x35806e6b	9.568879e-07
2	0x35632998	8.4624617e-07
3	0x00000000	0.0
4	0x00000000	0.0
5	0x00000000	0.0
6	0x00000000	0.0
7	0x00000000	0.0
8	0x00000000	0.0
9	0x00000000	0.0
10	0x00000000	0.0
11	0x00000000	0.0
12	0x00000004	6e-45
13	0x00000004	6e-45
14	0x00000004	6e-45
15	0xb546ff51	-7.413228e-07
16	0xb536e719	-6.8136575e-07
17	0xb5274e47	-6.2326257e-07
18	0x00000000	0.0
19	0x00000000	0.0
20	0x00000000	0.0
21	0x36e5ce8c	6.848777e-06
22	0x353620ea	6.784818e-07
23	0x363bdd67	2.7994045e-06
24	0x00000000	0.0
25	0x00000000	0.0
26	0x00000000	0.0
27	0x00000000	0.0
28	0x00000000	0.0
29	0x00000000	0.0
30	0x00000000	0.0
31	0x00000000	0.0
32	0x00000000	0.0
33	0x00000000	0.0
34	0x00000000	0.0
35	0x00000000	0.0
36	0x00000004	6e-45
37	0x00000004	6e-45
38	0x00000004	6e-45
39	0x3749a53d	1.2019006e-05
40	0x36af9267	5.23245e-06
41	0x36981bb7	4.5331794e-06
42	0x00000000	0.0
43	0x00000000	0.0
44	0x00000000	0.0
45	0xb7a56bcd	-1.9719731e-05
46	0xb729784d	-1.0101195e-05
47	0xb710e8dc	-8.637286e-06
48	0x00000000	0.0
49	0x00000000	0.0
50	0x00000000	0.0
51	0x36862c55	3.998672e-06
52	0x3616105c	2.2361264e-06
53	0x35ee8d5e	1.7773525e-06
54	0x36a41a8f	4.8906727e-06
55	0x36510813	3.1148127e-06
56	0x3621f62d	2.4134163e-06
57	0x00000000	0.0
58	0x00000000	0.0
59	0x00000000	0.0
60	0x368f5aac	4.2722877e-06
61	0x361300b2	2.1905112e-06
62	0x3612fe25	2.1903627e-06
63	0x374f35dd	1.23507025e-05
64	0x36a0d041	4.7926155e-06
65	0x36672051	3.4440493e-06
66	0xb68afa9e	-4.141896e-06
67	0xb66fe8fe	-3.5749395e-06
68	0xb6492368	-2.9971943e-06
69	0x37235963	9.736369e-06
70	0x36525daa	3.1346958e-06
71	0x36833916	3.91075e-06
72	0xb238463b	-1.0726178e-08
73	0x3290576f	1.6803567e-08
74	0x33bc6f63	8.774693e-08
75	0x37c13222	2.3030738e-05
76	0x3723716c	9.741965e-06
77	0x3715720c	8.907646e-06
78	0x00000000	0.0
79	0x00000000	0.0
80	0x00000000	0.0
81	0x375e1f0c	1.323946e-05
82	0x36a64aa6	4.9558757e-06
83	0x36a26022	4.8391676e-06
84	0x00000000	0.0
85	0x00000000	0.0
86	0x00000000	0.0
87	0x00000000	0.0
88	0x00000000	0.0
89	0x00000000	0.0
90	0xb71630e5	-8.952081e-06
91	0xb6855561	-3.9736483e-06
92	0xb68c9cdb	-4.1905855e-06
93	0x00000000	0.0
94	0x00000000	0.0
95	0x00000000	0.0

exp_avg_sq f4 [32, 3]
0	0x304dd016	7.4874273e-10
1	0x2f1a7910	1.4049228e-10
2	0x2f033ada	1.1935289e-10
3	0x00000000	0.0
4	0x00000000	0.0
5	0x00000000	0.0
6	0x00000000	0.0
7	0x00000000	0.0
8	0x00000000	0.0
9	0x00000000	0.0
10	0x00000000	0.0
11	0x00000000	0.0
12	0x2b405e5a	6.834304e-13
13	0x29c0520e	8.540747e-14
14	0x29190d23	3.398422e-14
15	0x2f4fcc75	1.8899178e-10
16	0x2eda8899	9.937757e-11
17	0x2e5eae39	5.0631697e-11
18	0x00000000	0.0
19	0x00000000	0.0
20	0x00000000	0.0
21	0x319587e0	4.351918e-09
22	0x2e3e68b1	4.3293983e-11
23	0x300a3529	5.027965e-10
24	0x00000000	0.0
25	0x00000000	0.0
26	0x00000000	0.0
27	0x00000000	0.0
28	0x00000000	0.0
29	0x00000000	0.0
30	0x00000000	0.0
31	0x00000000	0.0
32	0x00000000	0.0
33	0x00000000	0.0
34	0x00000000	0.0
35	0x00000000	0.0
36	0x2b321d98	6.3279373e-13
37	0x2adc6adb	3.9153996e-13
38	0x29fb194f	1.11510295e-13
39	0x327dfb0a	1.4783618e-08
40	0x311ce3b0	2.2830413e-09
41	0x312b0408	2.4886067e-09
42	0x00000000	0.0
43	0x00000000	0.0
44	0x00000000	0.0
45	0x32dd09ca	2.5732238e-08
46	0x31971915	4.39753e-09
47	0x3194a923	4.3265955e-09
48	0x00000000	0.0
49	0x00000000	0.0
50	0x00000000	0.0
51	0x30a99d24	1.234103e-09
52	0x2f68177d	2.1108622e-10
53	0x2f5826d9	1.9658887e-10
54	0x30b6dbcb	1.3304712e-09
55	0x2f86bf1f	2.4510258e-10
56	0x2f8f8677	2.6107091e-10
57	0x00000000	0.0
58	0x00000000	0.0
59	0x00000000	0.0
60	0x31195798	2.2314222e-09
61	0x2feba022	4.2860032e-10
62	0x2fd6ae2b	3.9050127e-10
63	0x33314a11	4.1278387e-08
64	0x32637655	1.3240045e-08
65	0x31d77076	6.270109e-09
66	0x3080d6f7	9.374322e-10
67	0x3024f81a	6.0015426e-10
68	0x2fad98ae	3.1577002e-10
69	0x325a44d7	1.27049224e-08
70	0x30837db0	9.567227e-10
71	0x3106c7b4	1.9613084e-09
72	0x2f1494e4	1.3513418e-10
73	0x2df974c6	2.835988e-11
74	0x2db83f56	2.0946505e-11
75	0x33334eca	4.1748343e-08
76	0x31ceccd8	6.018677e-09
77	0x31d36987	6.1529053e-09
78	0x00000000	0.0
79	0x00000000	0.0
80	0x00000000	0.0
81	0x3296e248	1.7565199e-08
82	0x3139d43c	2.7041684e-09
83	0x3135fc59	2.648241e-09
84	0x00000000	0.0
85	0x00000000	0.0
86	0x00000000	0.0
87	0x00000000	0.0
88	0x00000000	0.0
89	0x00000000	0.0
90	0x321a4d7e	8.9815995e-09
91	0x30ce72a2	1.5021053e-09
92	0x30c7bac2	1.4532235e-09
93	0x00000000	0.0
94	0x00000000	0.0
95	0x00000000	0.0

exp_avg f4 [32]
0	0x365dbf6b	3.3042986e-06
1	0x00000000	0.0
2	0x00000000	0.0
3	0x00000000	0.0
4	0x00000004	6e-45
5	0xb6094d2b	-2.0459509e-06
6	0x00000000	0.0
7	0x372d40b0	1.0326665e-05
8	0x00000000	0.0
9	0x00000000	0.0
10	0x00000000	0.0
11	0x00000000	0.0
12	0x00000004	6e-45
13	0x37b6be26	2.1784635e-05
14	0x00000000	0.0
15	0xb8214e32	-3.8458216e-05
16	0x00000000	0.0
17	0x37066bee	8.012152e-06
18	0x372eccd7	1.0418901e-05
19	0x00000000	0.0
20	0x37112d0d	8.653163e-06
21	0x37acb305	2.058736e-05
22	0xb733c068	-1.07140295e-05
23	0x378cc6ad	1.6781816e-05
24	0x33c97c93	9.382452e-08
25	0x382ed1ef	4.168035e-05
26	0x00000000	0.0
27	0x37c13a38	2.3034503e-05
28	0x00000000	0.0
29	0x00000000	0.0
30	0xb78f9502	-1.7116316e-05
31	0x00000000	0.0

exp_avg_sq f4 [32]
0	0x312a753a	2.4804891e-09
1	0x00000000	0.0
2	0x00000000	0.0
3	0x00000000	0.0
4	0x2be16d5a	1.6017563e-12
5	0x307e0fbe	9.242703e-10
6	0x00000000	0.0
7	0x3219ba59	8.948143e-09
8	0x00000000	0.0
9	0x00000000	0.0
10	0x00000000	0.0
11	0x00000000	0.0
12	0x2c52dd09	2.9965494e-12
13	0x334cd077	4.768705e-08
14	0x00000000	0.0
15	0x33b64536	8.487625e-08
16	0x00000000	0.0
17	0x3189bbee	4.00859e-09
18	0x319ca8c4	4.559384e-09
19	0x00000000	0.0
20	0x32013e96	7.523019e-09
21	0x3428be46	1.571544e-07
22	0x31b43c35	5.2455342e-09
23	0x331632b7	3.497072e-08
24	0x2ff861b8	4.518037e-10
25	0x340a9da6	1.2909604e-07
26	0x00000000	0.0
27	0x336dc139	5.5356598e-08
28	0x00000000	0.0
29	0x00000000	0.0
30	0x32fb0318	2.9221653e-08
31	0x00000000	0.0

exp_avg f4 [32, 32]
0	0x00000000	0.0
1	0x00000000	0.0
2	0x00000000	0.0
3	0x00000000	0.0
4	0x00000000	0.0
5	0x00000000	0.0
6	0x00000000	0.0
7	0x00000000	0.0
8	0x00000000	0.0
9	0x00000000	0.0
10	0x00000000	0.0
11	0x00000000	0.0
12	0x00000000	0.0
13	0x00000000	0.0
14	0x00000000	0.0
15	0x00000000	0.0
16	0x00000000	0.0
17	0x00000000	0.0
18	0x00000000	0.0
19	0x00000000	0.0
20	0x00000000	0.0
21	0x00000000	0.0
22	0x00000000	0.0
23	0x00000000	0.0
24	0x00000000	0.0
25	0x00000000	0.0
26	0x00000000	0.0
27	0x00000000	0.0
28	0x00000000	0.0
29	0x00000000	0.0
30	0x00000000	0.0
31	0x00000000	0.0
32	0x34d56e71	3.9754698e-07
33	0x00000000	0.0
34	0x00000000	0.0
35	0x00000000	0.0
36	0x00000004	6e-45
37	0xb3533ed1	-4.9184397e-08
38	0x00000000	0.0
39	0x33b65494	8.49042e-08
40	0x00000000	0.0
41	0x00000000	0.0
42	0x00000000	0.0
43	0x00000000	0.0
44	0x00000004	6e-45
45	0x35633035	8.463424e-07
46	0x00000000	0.0
47	0x34b6c1d4	3.404117e-07
48	0x00000000	0.0
49	0x35927999	1.0913237e-06
50	0x35a89b21	1.2562124e-06
51	0x00000000	0.0
52	0x34b24662	3.3206294e-07
53	0x34e59083	4.275972e-07
54	0xb3800f56	-5.963254e-08
55	0x35215da0	6.0113416e-07
56	0x33afaf0c	8.1809134e-08
57	0x354f7ebf	7.729795e-07
58	0x00000000	0.0
59	0x358017dc	9.543687e-07
60	0x00000000	0.0
61	0x00000000	0.0
62	0x33ca4ae8	9.4199834e-08
63	0x00000000	0.0
64	0xb499d66e	-2.865449e-07
65	0x00000000	0.0
66	0x00000000	0.0
67	0x00000000	0.0
68	0x00000004	6e-45
69	0xb53ba9d5	-6.9910067e-07
70	0x00000000	0.0
71	0x80000004	-6e-45
72	0x00000000	0.0
73	0x00000000	0.0
74	0x00000000	0.0
75	0x00000000	0.0
76	0x00000004	6e-45
77	0x331bcdf4	3.6276063e-08
78	0x00000000	0.0
79	0xb6192d95	-2.2825309e-06
80	0x00000000	0.0
81	0xb3fda534	-1.1811281e-07
82	0xb263cd63	-1.3259839e-08
83	0x00000000	0.0
84	0x312aa476	2.483174e-09
85	0xb57d2a6c	-9.4311577e-07
86	0xb52ecae9	-6.5115324e-07
87	0x80000004	-6e-45
88	0xb4a8a5d1	-3.1413086e-07
89	0x13bcf933	4.77036e-27
90	0x00000000	0.0
91	0x3345ce16	4.605507e-08
92	0x00000000	0.0
93	0x00000000	0.0
94	0xb583ee9a	-9.829703e-07
95	0x00000000	0.0
96	0x00000000	0.0
97	0x00000000	0.0
98	0x00000000	0.0
99	0x00000000	0.0
100	0x00000000	0.0
101	0x00000000	0.0
102	0x00000000	0.0
103	0x00000000	0.0
104	0x00000000	0.0
105	0x00000000	0.0
106	0x00000000	0.0
107	0x00000000	0.0
108	0x00000000	0.0
109	0x00000000	0.0
110	0x00000000	0.0
111	0x00000000	0.0
112	0x00000000	0.0
113	0x00000000	0.0
114	0x00000000	0.0
115	0x00000000	0.0
116	0x00000000	0.0
117	0x00000000	0.0
118	0x00000000	0.0
119	0x00000000	0.0
120	0x00000000	0.0
121	0x00000000	0.0
122	0x00000000	0.0
123	0x00000000	0.0
124	0x00000000	0.0
125	0x00000000	0.0
126	0x00000000	0.0
127	0x00000000	0.0
128	0x00000000	0.0
129	0x00000000	0.0
130	0x00000000	0.0
131	0x00000000	0.0
132	0x00000000	0.0
133	0x00000000	0.0
134	0x00000000	0.0
135	0x00000000	0.0
136	0x00000000	0.0
137	0x00000000	0.0
138	0x00000000	0.0
139	0x00000000	0.0
140	0x00000000	0.0
141	0x00000000	0.0
142	0x00000000	0.0
143	0x00000000	0.0
144	0x00000000	0.0
145	0x00000000	0.0
146	0x00000000	0.0
147	0x00000000	0.0
148	0x00000000	0.0
149	0x00000000	0.0
150	0x00000000	0.0
151	0x00000000	0.0
152	0x00000000	0.0
153	0x00000000	0.0
154	0x00000000	0.0
155	0x00000000	0.0
156	0x00000000	0.0
157	0x00000000	0.0
158	0x00000000	0.0
159	0x00000000	0.0
160	0xb5e5c5a6	-1.7119353e-06
161	0x00000000	0.0
162	0x00000000	0.0
163	0x00000000	0.0
164	0x00000004	6e-45
165	0xb51b120f	-5.776828e-07
166	0x00000000	0.0
167	0x80000004	-6e-45
168	0x00000000	0.0
169	0x00000000	0.0
170	0x00000000	0.0
171	0x00000000	0.0
172	0x00000004	6e-45
173	0xb606bee9	-2.007868e-06
174	0x00000000	0.0
175	0xb636c104	-2.7232463e-06
176	0x00000000	0.0
177	0xb60a53a8	-2.0612297e-06
178	0xb5ee6d16	-1.776413e-06
179	0x00000000	0.0
180	0xb59a00c8	-1.1474121e-06
181	0xb647b2de	-2.9757425e-06
182	0xb51837f5	-5.670584e-07
183	0x3480e878	2.4011e-07
184	0xb5165bb4	-5.60128e-07
185	0xb5f765b8	-1.8432538e-06
186	0x00000000	0.0
187	0xb635f85a	-2.7115661e-06
188	0x00000000	0.0
189	0x00000000	0.0
190	0xb55d687d	-8.2480966e-07
191	0x00000000	0.0
192	0x00000004	6e-45
193	0x00000000	0.0
194	0x00000000	0.0
195	0x00000000	0.0
196	0x00000004	6e-45
197	0x00000004	6e-45
198	0x00000000	0.0
199	0x00000004	6e-45
200	0x00000000	0.0
201	0x00000000	0.0
202	0x00000000	0.0
203	0x00000000	0.0
204	0x00000004	6e-45
205	0x00000004	6e-45
206	0x00000000	0.0
207	0x00000004	6e-45
208	0x00000000	0.0
209	0x00000004	6e-45
210	0x00000004	6e-45
211	0x00000000	0.0
212	0x00000004	6e-45
213	0x00000004	6e-45
214	0x00000004	6e-45
215	0x00000004	6e-45
216	0x00000004	6e-45
217	0x00000004	6e-45
218	0x00000000	0.0
219	0x00000004	6e-45
220	0x00000000	0.0
221	0x00000000	0.0
222	0x00000004	6e-45
223	0x00000000	0.0
224	0x00000004	6e-45
225	0x00000000	0.0
226	0x00000000	0.0
227	0x00000000	0.0
228	0x00000004	6e-45
229	0x00000004	6e-45
230	0x00000000	0.0
231	0x00000004	6e-45
232	0x00000000	0.0
233	0x00000000	0.0
234	0x00000000	0.0
235	0x00000000	0.0
236	0x00000004	6e-45
237	0x00000004	6e-45
238	0x00000000	0.0
239	0x00000004	6e-45
240	0x00000000	0.0
241	0x00000004	6e-45
242	0x00000004	6e-45
243	0x00000000	0.0
244	0x00000004	6e-45
245	0x00000004	6e-45
246	0x00000004	6e-45
247	0x00000004	6e-45
248	0x00000004	6e-45
249	0x00000004	6e-45
250	0x00000000	0.0
251	0x00000004	6e-45
252	0x00000000	0.0
253	0x00000000	0.0
254	0x00000004	6e-45
255	0x00000000	0.0
