src/old_logs/version_48/checkpoints/epoch=199-step=2400.ckpt (torch, 33819 bytes, 27 tensors)

phi.phi.0.weight f4 [32, 3]
0	0xbdacd82c	-0.08439669
1	0x3e6b30de	0.2296786
2	0xbf0e6e10	-0.5563669
3	0xbed98bc9	-0.4248946
4	0xbe63b4b1	-0.22236897
5	0x3e1e8953	0.15482073
6	0xbc3b6b40	-0.011439145
7	0x3eea617a	0.45777494
8	0xbd51dd42	-0.0512364
9	0x3e1c70d2	0.15277413
10	0xbe32ab9e	-0.1744828
11	0xbde86bea	-0.11348708
12	0xbef0ec57	-0.47055313
13	0xbe9a4aba	-0.30135137
14	0xbe2830c9	-0.1642486
15	0xbd8199fa	-0.06328197
16	0x3e14970d	0.14510746
17	0x3e863461	0.26211837
18	0xbec866d2	-0.39140946
19	0xbe80b969	-0.25141457
20	0x3e56bc83	0.20970349
21	0x3efd00cf	0.4941468
22	0xbdcd86a0	-0.10035443
23	0x3f02d732	0.5110961
24	0xbdbe95da	-0.09305926
25	0x3d7a3b65	0.0610918
26	0x3f05d4b5	0.5227769
27	0xbf091c79	-0.5355907
28	0xbeba17f0	-0.36346388
29	0xbe15ac48	-0.14616501
30	0xbe6673cc	-0.2250511
31	0x3eff66ca	0.4988311
32	0xbebf9aa4	-0.3742267
33	0xbe881370	-0.2657733
34	0xbece853c	-0.40336025
35	0xbf0a6cdf	-0.54072374
36	0xbe81481f	-0.25250337
37	0x3f14910a	0.5803381
38	0x3eaf3d5c	0.342265
39	0x3eabf056	0.335818
40	0x3daf1cd3	0.0855042
41	0xbe878fa1	-0.26476768
42	0x3dc80bd5	0.09767882
43	0xbf0a006b	-0.5390689
44	0xbed597ce	-0.4171738
45	0xbe5c27ff	-0.21499632
46	0x3ee4d7c1	0.44695857
47	0x3ed8b3cb	0.4232467
48	0xbe83193f	-0.256052
49	0xbcaaa83d	-0.020832175
50	0x3ebd0e68	0.36925054
51	0x3f019087	0.50611156
52	0x3e24bbc1	0.16087247
53	0x3b572ab6	0.0032831854
54	0x3eeed5ea	0.46647578
55	0xbe852c68	-0.26010442
56	0x3e44d824	0.19223076
57	0xbee52ed2	-0.44762284
58	0xbecce0ea	-0.40015346
59	0xbe98b42e	-0.29824966
60	0x3eafbc4a	0.3432334
61	0x3ea112fd	0.314598
62	0xbe83b7bf	-0.25726125
63	0x3dbcaec4	0.092130214
64	0x3e708769	0.23489155
65	0xbe1f4d33	-0.15556793
66	0x3d61962d	0.05507486
67	0x3e2e9327	0.17048322
68	0x3edc81a0	0.43067646
69	0x3ef12a0a	0.47102386
70	0xbf078d76	-0.5295023
71	0xbe979ef7	-0.29613468
72	0x3e9d34c5	0.30704322
73	0x3f0f0f0a	0.5588232
74	0x3f1628bb	0.586559
75	0x3ef428a7	0.47687265
76	0x3da86efd	0.08224294
77	0xbf098a76	-0.537269
78	0x3d598bdb	0.053111892
79	0xbeb8ee58	-0.36119342
80	0xbf09be8f	-0.53806394
81	0x3f173ba5	0.59075385
82	0x3f0460f0	0.51710415
83	0xbefd4eda	-0.4947422
84	0x3ddd5092	0.10806383
85	0xbdc7307a	-0.09726043
86	0xbdc2944d	-0.095009424
87	0xbe875080	-0.26428604
88	0x3e635a28	0.2220236
89	0xbeaf163f	-0.3419666
90	0x3e934126	0.28760642
91	0x3ebcb4b0	0.36856604
92	0x3efe596b	0.49677595
93	0x3e5d0f0b	0.2158777
94	0xbf1248d6	-0.5714239
95	0xbebfc1c8	-0.3745253

phi.phi.0.bias f4 [32]
0	0x3e54fcfc	0.20799631
1	0x3df77b10	0.12084019
2	0xbee6986e	-0.4503817
3	0xbeaa36d3	-0.33244953
4	0x3f203bdf	0.62591356
5	0x3e9bf3c0	0.30459404
6	0xbe80e3f7	-0.25173923
7	0xbdf569f1	-0.11983097
8	0xbf0ccbac	-0.5499828
9	0xbc2a05dc	-0.010377374
10	0xbede9b52	-0.43477875
11	0xbee403ff	-0.445343
12	0x3d57a38a	0.052646197
13	0x3e1105b2	0.14162329
14	0xbe721df6	-0.23644242
15	0x3ed9ff26	0.42577475
16	0xbeb3e2dd	-0.3513402
17	0x3ee904a8	0.45511365
18	0x3ef3d693	0.47624645
19	0xbef946fa	-0.48686963
20	0xbd79e9ec	-0.0610141
21	0xbd667f2c	-0.056273624
22	0x3dfa8412	0.12232222
23	0x3d574ab6	0.052561484
24	0x3e9d7d08	0.30759454
25	0x3abd00c8	0.0014419788
26	0xbe903bbe	-0.2817058
27	0x3eb40dc7	0.3516676
28	0xbf0dc751	-0.5538226
29	0xbeaf34c1	-0.34219936
30	0xbd899f6d	-0.06719861
31	0xbe8ffe09	-0.281235

phi.phi.2.weight f4 [6, 32]
0	0xbd7d4e71	-0.061842386
1	0xbe145e0c	-0.14489001
2	0xbd1a05b0	-0.03760308
3	0x3d1ac6b5	0.037787158
4	0xbdebdb16	-0.11516397
5	0xbc14a302	-0.009072067
6	0x3e019535	0.12654574
7	0xbc94dee4	-0.018172689
8	0x3ba0fd5d	0.0049130158
9	0xbc79dc86	-0.015250331
10	0x3d128a2e	0.03577631
11	0x3de632cf	0.1124016
12	0x3e2b784a	0.16745105
13	0x3de5ea30	0.11226308
14	0x3e2bdcb9	0.16783418
15	0xbc517744	-0.012784783
16	0xbe229d12	-0.1588023
17	0xbdaba261	-0.08380581
18	0x3df68397	0.120368175
19	0xba9633c2	-0.0011459517
20	0xbdb3f333	-0.08786621
21	0xbe0ab79d	-0.13546605
22	0xbe296846	-0.16543683
23	0xbe18c824	-0.14920098
24	0xbd12de97	-0.03585681
25	0x3dc68b4f	0.0969454
26	0x3dc3bba4	0.09557274
27	0xbe2e94b0	-0.17048907
28	0x3de1d54e	0.11027013
29	0xbe0da63b	-0.13832943
30	0xbd1913d0	-0.03737241
31	0xbd92cbf9	-0.07167811
32	0x3d313f7b	0.04327343
33	0xbd0e2ad4	-0.034708813
34	0xbe22700c	-0.15863055
35	0xbe1c4c88	-0.1526357
36	0x3d65c5c1	0.056096796
37	0x3da7ef07	0.08199888
38	0xbda4770f	-0.08030521
39	0x3e15081a	0.14553872
40	0xbe22ed8f	-0.15910934
41	0xbc4376c4	-0.011930171
42	0x3e1f3122	0.15546086
43	0xbd93ac34	-0.072105795
44	0x3e793137	0.2433518
45	0x3e12472e	0.14284965
46	0xbe235ce5	-0.15953405
47	0x3e461dfa	0.19347373
48	0xbca71bea	-0.020399053
49	0x393c7c30	0.0001797534
50	0x3e6288a8	0.22122443
51	0xbe1247e6	-0.1428524
52	0x3dbc9864	0.09208754
53	0x3d24fd1e	0.040280454
54	0x3e5347b3	0.2063282
55	0x3e01f913	0.1269267
56	0x3e294e09	0.16533674
57	0x3e0df81f	0.13864182
58	0xbd2e1f4e	-0.042510323
59	0x3d29f174	0.041490033
60	0xbe152cb7	-0.14567839
61	0x3dc42b25	0.09578542
62	0x3e6406ca	0.22268215
63	0x3df7b742	0.120955005
64	0xbdff5fcd	-0.124694444
65	0x3c012cd2	0.007884221
66	0xbdff36a2	-0.12461592
67	0xbdc74beb	-0.09731277
68	0xbdd2f640	-0.10300875
69	0x3d777327	0.060412552
70	0xbdd7be5d	-0.10534356
71	0xbb7cc1ed	-0.0038567737
72	0x3bf3af42	0.007436664
73	0x3de960e3	0.11395433
74	0xbe08d60e	-0.13362905
75	0xbdf88b42	-0.12135936
76	0xbdd238d0	-0.102647424
77	0x3dfd6728	0.12373191
78	0xbd8223e6	-0.06354503
79	0x3e18b011	0.14910914
80	0x3d82ea79	0.06392378
81	0x3cb75fc2	0.022384528
82	0xbaac7b48	-0.0013159299
83	0xbd0f2301	-0.03494549
84	0x3cb5b1d6	0.022179525
85	0xbd2556d6	-0.040366016
86	0xbaa2ce4a	-0.0012421098
87	0x3cb8c643	0.022555476
88	0xbe0d9821	-0.13827564
89	0xbdbdc17f	-0.09265422
90	0x3e122bfb	0.1427459
91	0xbe12e7d8	-0.14346254
92	0xbc4ff913	-0.012693661
93	0x3e331243	0.17487435
94	0x3d82c823	0.06385829
95	0x3ba401b4	0.005005086
96	0xbd8c98f0	-0.06865108
97	0x3db35890	0.08757126
98	0xbe00efc4	-0.12591463
99	0xbd4d8a28	-0.050180584
100	0x3cccec6f	0.025015084
101	0x3d6fa504	0.05850698
102	0x3afd71ff	0.0019336342
103	0x3e6bf717	0.23043476
104	0x3cb4c933	0.022068596
105	0x3e222341	0.15833761
106	0x3ddd76ac	0.108136505
107	0xbde4e2ca	-0.11176069
108	0x3e279c9f	0.1636834
109	0xbd2a9629	-0.04164711
110	0xbd9970eb	-0.074922405
111	0x3e0be362	0.13660958
112	0x3d6f15a9	0.058370266
113	0x3e5e528d	0.21711178
114	0x3cdff37d	0.027337784
115	0x39945ef2	0.000282995
116	0x3e228aa3	0.15873198
117	0xbdb0b664	-0.08628538
118	0x3e59b41e	0.21260116
119	0xbd7dd66d	-0.06197207
120	0x3db1fc3f	0.0869069
121	0x3d5d0d55	0.053967793
122	0xbdbead0d	-0.093103506
123	0x3ddbe122	0.107363
124	0x3e15b033	0.14617996
125	0xbd53a976	-0.051675282
126	0xbca9f61a	-0.020747233
127	0xbd85e55d	-0.06537888
128	0xbe7b2388	-0.24525273
129	0x3da36c0d	0.079795934
130	0xbdaddfc1	-0.08489943
131	0xbdf19a5d	-0.117970206
132	0xbe16ec5f	-0.14738606
133	0x3d1458a6	0.036217354
134	0x3dbfb9e5	0.093616284
135	0x3dc625eb	0.09675201
136	0x3d8351de	0.06412099
137	0xbd71d00a	-0.059036292
138	0xbd4a5792	-0.04939992
139	0x3d55ea04	0.052225128
140	0x3ddfa2e9	0.109197445
141	0xbc95b61a	-0.01827531
142	0xbdab4c03	-0.083641075
143	0xbe19e6c5	-0.15029438
144	0xbe2b25ef	-0.1671369
145	0xbbf21b6e	-0.007388524
146	0xbe125930	-0.14291835
147	0xbe216478	-0.15760982
148	0x3da0722f	0.07834279
149	0xbe3c0b70	-0.18363738
150	0xbd84b557	-0.064799
151	0x3c0e4a69	0.008684733
152	0xbd76a072	-0.060211606
153	0xbe3e98df	-0.18613003
154	0xbe125265	-0.14289244
155	0x3d966e07	0.07345205
156	0x3cebd0cc	0.028786086
157	0x3e162d97	0.14665829
158	0xbdd5dcad	-0.10442481
159	0x3d5547e9	0.052070532
160	0x3d106cbe	0.035259955
161	0xbc00cd5c	-0.0078614615
162	0xbddc7f5f	-0.107664816
163	0x3d74e235	0.05978604
164	0x3e0d4162	0.13794473
165	0x3d97d5c2	0.07413818
166	0xbd22d8b8	-0.03975746
167	0xbd02381e	-0.0317918
168	0x3dfa5daf	0.122249
169	0xbe06c152	-0.13159683
170	0x3d945093	0.07241931
171	0xbd73793b	-0.059441786
172	0xbb8ef431	-0.004362606
173	0x3ddf7318	0.10910624
174	0xbdbc1042	-0.091827884
175	0x3df674c3	0.12033989
176	0x3d0e31e7	0.03471556
177	0xbd5ce3fa	-0.053928353
178	0x3ddc4aeb	0.10756477
179	0x3d9a33ed	0.07529435
180	0x3e1204f9	0.1425971
181	0x3d5a8a84	0.053354755
182	0xbd890f5e	-0.06692384
183	0x3d47f928	0.0488216
184	0x3e0f4769	0.13992085
185	0x3c29875c	0.010347214
186	0x3d896c4c	0.06710109
187	0x3e477746	0.19479093
188	0xbdbd0a00	-0.09230423
189	0x3ae480d2	0.0017433411
190	0x3e1d4b4a	0.15360752
191	0x3c6301a9	0.013855376

phi.phi.2.bias f4 [6]
0	0x3c71eedd	0.014766422
1	0x3dd06e4a	0.10177286
2	0xbe0e4ed5	-0.1389726
3	0x3dc9846b	0.0983971
4	0x3d6b3e11	0.057432238
5	0x3e72dbde	0.23716685

rho.rho.0.weight f4 [32, 6]
0	0x3e75b503	0.23994832
1	0x3e0a93e9	0.13532986
2	0x3e433bc9	0.19065775
3	0xbdf60c55	-0.12014071
4	0xbe869e8f	-0.26292846
5	0xbe895fba	-0.26830846
6	0x3ed08605	0.4072725
7	0x3eac9946	0.33710688
8	0xbe907bdd	-0.282195
9	0x3e7697c2	0.24081329
10	0x3ec3201f	0.38110444
11	0x3efa2d72	0.48862797
12	0x3eb6c4cd	0.35697022
13	0x3ecd1a73	0.40059242
14	0xbdbfae94	-0.0935947
15	0xbd9b6a52	-0.07588638
16	0x3ed4852a	0.41507846
17	0x3ea08c05	0.31356826
18	0xbe7b924b	-0.24567525
19	0x3e9f986a	0.3117097
20	0x3e49fb8e	0.19724867
21	0x3e2bc727	0.1677519
22	0xbe9f2f62	-0.31090838
23	0x3d7d9325	0.061907906
24	0xbe128d24	-0.14311653
25	0x3ece0427	0.40237543
26	0xbd96726d	-0.07346044
27	0x3e708a5b	0.23490278
28	0x3e1b1abe	0.1514692
29	0x3e8434ff	0.25821683
30	0xbe0e104a	-0.13873401
31	0x3e4bd3d0	0.19905019
32	0xbe91ff20	-0.28514957
33	0x3dbcd5ef	0.09220492
34	0xbe8d6c61	-0.2762175
35	0xbece358c	-0.40275228
36	0xbea7db73	-0.32784614
37	0x3ea5047b	0.3222998
38	0x3e622d8d	0.22087689
39	0x3ec41bda	0.383025
40	0x3ea773ef	0.32705638
41	0xbebaaaca	-0.36458427
42	0xbe8ea4d6	-0.27860135
43	0xbd871916	-0.06596582
44	0xbe87bf12	-0.26512963
45	0x3e91251a	0.2834862
46	0xbe9e05eb	-0.3086389
47	0xbe4bf723	-0.19918494
48	0xbec9ef7a	-0.3944052
49	0xbe16af56	-0.14715323
50	0x3eabeab4	0.33577502
51	0x3ed014b3	0.40640792
52	0x3ec05947	0.37568113
53	0x3ecbc498	0.39798427
54	0x3eb9dc4d	0.3630089
55	0xbdd617a4	-0.10453728
56	0x3e37f0f4	0.1796301
57	0x3eba399e	0.36372083
58	0x3e0a4c2c	0.1350562
59	0x3ed0f49a	0.40811616
60	0x3e58d33a	0.21174327
61	0x3eac7c34	0.3368851
62	0xbe12501b	-0.1428837
63	0x3e899fe2	0.26879793
64	0x3e000583	0.12502103
65	0xbc57137b	-0.013127203
66	0xbe6ba824	-0.2301336
67	0xbe6a929c	-0.2290749
68	0xbea0d6dc	-0.31413925
69	0x3e8c52d5	0.27406946
70	0x3e9499df	0.29023644
71	0xbd3e50dd	-0.046463836
72	0xbe71eae3	-0.23624758
73	0x3eca2956	0.39484662
74	0x3e85ab01	0.26107028
75	0x3ddb9c7a	0.10723205
76	0xbdf3abac	-0.11897978
77	0x3ee9ef02	0.4569016
78	0x3e2af4c4	0.16694933
79	0xbeb8ca5c	-0.36091888
80	0x3ec80d6e	0.39072746
81	0x3ea546e3	0.32280645
82	0xbe507426	-0.20356807
83	0x3e395843	0.18100075
84	0xbe6d8780	-0.2319622
85	0xbd830716	-0.06397836
86	0x3eb17b57	0.34664413
87	0x3c8a2fbc	0.016868465
88	0xbe93d330	-0.2887206
89	0xbe0bb98e	-0.13645002
90	0xbde2f409	-0.11081702
91	0xbda14e6b	-0.07876285
92	0x3d200776	0.039069615
93	0x3ec14f8f	0.3775601
94	0x3cb30f0a	0.021857757
95	0xbe810f2a	-0.25206882
96	0x3cab69cb	0.02092447
97	0x3e4872a5	0.19574983
98	0x3e4f5e26	0.20250759
99	0xbebf08c7	-0.37311384
100	0xbd959cc9	-0.07305295
101	0xbe9b559b	-0.3033875
102	0xbe325fd3	-0.17419367
103	0x3d8ac561	0.06775928
104	0xbe946f03	-0.28990945
105	0x3d94c53d	0.07264183
106	0x3e8b836f	0.27248713
107	0xbd60d1ec	-0.054887697
108	0xbe8b4fb4	-0.27209246
109	0xbe15c799	-0.14626922
110	0x3db69297	0.089146785
111	0xbe9f5794	-0.31121504
112	0x3e4fb090	0.20282197
113	0xbebdc408	-0.37063622
114	0xbec8eebb	-0.39244637
115	0xbecb197c	-0.3966788
116	0xbda99cce	-0.08281861
117	0x3e8c8dd5	0.2745196
118	0xbec5d604	-0.38639843
119	0x3eadbcc2	0.33933073
120	0xbe273a62	-0.16330865
121	0x3df4e0d3	0.11956944
122	0x3c988356	0.018617313
123	0xbebc7aeb	-0.3681253
124	0x3ead5955	0.33857217
125	0x3e611822	0.21981862
126	0x3ecfc4a1	0.40579703
127	0x3e94777e	0.28997415
128	0xbe89f83d	-0.26947203
129	0x3ed47908	0.4149859
130	0x3dcf6c5f	0.10128092
131	0x3e8e791a	0.27826768
132	0xbea799d0	-0.32734537
133	0xbdf07b7d	-0.117423035
134	0xbecd3c31	-0.40084985
135	0xbe22d36e	-0.15900967
136	0x3db45f07	0.088071875
137	0xbea41df1	-0.32054093
138	0x3e054219	0.13013496
139	0x3e177b12	0.14793041
140	0x3d68f36f	0.05687278
141	0xbeb72e97	-0.35777733
142	0xbec49648	-0.38395905
143	0xbe4c3d85	-0.19945343
144	0x3e37813c	0.17920393
145	0x3ece2dff	0.40269467
146	0x3e706384	0.23475462
147	0xbd3c4db4	-0.04597254
148	0x3e1292eb	0.14313857
149	0xbecd1099	-0.40051726
150	0xbeb286e5	-0.3486854
151	0x3e43104f	0.1904919
152	0xbe6cc9aa	-0.23123804
153	0x3e491ec9	0.1964065
154	0xbe938e60	-0.2881956
155	0xbe4f1018	-0.20220983
156	0xbeac2b88	-0.33626962
157	0x3e09775e	0.13424441
158	0xbd2a6330	-0.0415985
159	0x3e6cf60f	0.23140739
160	0x3e36e9c4	0.17862612
161	0x3e144a8c	0.14481562
162	0x3c571578	0.013127677
163	0xbd5ad61a	-0.05342684
164	0xbdb5cb01	-0.088766105
165	0x3e0db6af	0.1383922
166	0x3e8afe6b	0.2714723
167	0xbe57a076	-0.21057305
168	0x3eaf6db1	0.34263375
169	0xbd35d11b	-0.04438887
170	0xbeaf2667	-0.34208986
171	0xbe622fed	-0.22088595
172	0x3eb8f287	0.36122534
173	0x3ebf2847	0.37335417
174	0xbec19d27	-0.3781521
175	0x3e6385ce	0.22219011
176	0x3e5181fa	0.20459738
177	0x3e225eef	0.15856527
178	0x3e905b03	0.28194436
179	0xbe92f1e5	-0.28700176
180	0x3e040246	0.12891492
181	0x3e2b1413	0.16706876
182	0xbdf70f4f	-0.12063467
183	0x3e0be687	0.13662158
184	0xbdf08e17	-0.117458515
185	0x3e813b1e	0.25240415
186	0xbde7fa4d	-0.11327038
187	0xbd8a238b	-0.067450605
188	0x3dd27c49	0.10277612
189	0x3e5cee43	0.21575265
190	0xbdf0e28e	-0.11761962
191	0x3df73051	0.120697625

rho.rho.0.bias f4 [32]
0	0x3ea055d4	0.31315482
1	0x3d085da6	0.033292435
2	0x3e529b5f	0.20567082
3	0xbe1dae05	-0.15398414
4	0x3e647db1	0.22313572
5	0xbe976a47	-0.2957327
6	0xbe75d2c0	-0.24006176
7	0xbe543242	-0.20722297
8	0x3eeb5286	0.45961398
9	0xbde0faad	-0.109853126
10	0x3da07ac7	0.07835918
11	0xbe4a8aa3	-0.19779448
12	0x3ef71ea2	0.48265558
13	0x3eb0868d	0.34477654
14	0xbe9da478	-0.30789542
15	0xbea972e2	-0.3309546
16	0xbe9e7025	-0.30944934
17	0xbd9e025a	-0.07715292
18	0xbdd51f8e	-0.10406409
19	0xbe88d0b0	-0.26721716
20	0xbe15f109	-0.14642729
21	0x3e217404	0.15766913
22	0xbe5a6ce1	-0.21330597
23	0x3cb68ac3	0.022282964
24	0xbdbfbab3	-0.09361782
25	0xbe4a91e5	-0.19782217
26	0xbc992a0e	-0.018696811
27	0x3ecf8a06	0.4053499
28	0xbe8d50f3	-0.27600822
29	0xbd38aab9	-0.04508469
30	0xbe1a2977	-0.1505488
31	0x3ef7925b	0.48353848

rho.rho.2.weight f4 [32, 32]
0	0xbe2bbe97	-0.16771923
1	0xbe2d8945	-0.16946895
2	0x3e325fac	0.17419308
3	0xbde50ee8	-0.11184484
4	0x3d0ad291	0.033892218
5	0xbc79f81a	-0.015256906
6	0xbd18882e	-0.037239246
7	0xbd21b898	-0.039482683
8	0x3de60dd7	0.112331085
9	0x3c0a6f4f	0.00844939
10	0xbe303e39	-0.17211236
11	0xbdd5bbb3	-0.104361914
12	0xbd76d693	-0.060263228
13	0x3db62f0d	0.08895693
14	0xbdea4995	-0.11439816
15	0x3e2aafca	0.1666862
16	0xbd2145f4	-0.039373353
17	0xbd02044a	-0.03174237
18	0x3e0dd6d2	0.13851479
19	0x3db5f6a3	0.08884933
20	0x3e1986b4	0.14992791
21	0x3dd16b52	0.10225548
22	0xbd5ba6d5	-0.0536259
23	0xbdf033e2	-0.11728646
24	0xbc577e87	-0.013152725
25	0x3e15d183	0.14630704
26	0xbd7303c3	-0.05932976
27	0xbe27df34	-0.16393739
28	0x3d9468f2	0.07246579
29	0x3e303797	0.17208706
30	0xbd4e21f7	-0.05032536
31	0xbe15e366	-0.14637527
32	0xbe243202	-0.16034701
33	0x3d35740e	0.04430013
34	0xbc5b4ec6	-0.01338548
35	0xbdb6d32d	-0.08926997
36	0x3d125bee	0.035732202
37	0x3d897cc5	0.06713251
38	0x3e0ff7d6	0.14059386
39	0x3e0c8a4a	0.13724628
40	0xbcd8c3e2	-0.026460592
41	0xbe1f9ded	-0.15587588
42	0xbe2392c1	-0.15973951
43	0x3e290410	0.16505456
44	0x3da00a84	0.07814506
45	0x3d9dd0b9	0.07705826
46	0xbe1c9f2a	-0.15295091
47	0x3e27a073	0.163698
48	0x3e2b7cc7	0.16746818
49	0x3e236f67	0.15960465
50	0xbe18b488	-0.14912617
51	0xbd889b0c	-0.06670198
52	0xbdf8ff41	-0.12158061
53	0x3e2b6b49	0.16740145
54	0xbd9b8f8f	-0.07595741
55	0xbda54a57	-0.0807082
56	0x3dbdad3e	0.09261559
57	0xbda779f0	-0.081775546
58	0xbdb24fe3	-0.087066434
59	0xbc7d5830	-0.01546292
60	0xbc8b3229	-0.016991692
61	0xbe0d029a	-0.13770524
62	0x3e16e8f9	0.1473731
63	0xbd9fb3ff	-0.077980034
64	0x3e096655	0.13417943
65	0x3e6e3cad	0.23265333
66	0x3e27317e	0.16327474
67	0x3da2be2d	0.079464294
68	0x3e66d35b	0.22541563
69	0x3cc2ab84	0.023763426
70	0xbda77fe5	-0.08178691
71	0x3e2b3e84	0.16723067
72	0x3debeec4	0.1152015
73	0xbe309dfa	-0.17247763
74	0x3cf07310	0.029351741
75	0xbdf69be5	-0.12041453
76	0x3e6a709c	0.2289452
77	0x3d310788	0.043220073
78	0xbe2500ee	-0.16113636
79	0xbc36125b	-0.011112775
80	0x3de35d6d	0.11101804
81	0x3df295b9	0.118449636
82	0x3d64f4da	0.05589757
83	0x3c867eaa	0.01641782
84	0x3d86f98c	0.06590566
85	0x3d09fd36	0.033688746
86	0xbd9004e1	-0.070321806
87	0xbdc56115	-0.096376576
88	0xbe085e59	-0.13317241
89	0x3d9ce892	0.07661547
90	0xbcf7a11b	-0.030228188
91	0x3dc73244	0.09726384
92	0x3d671e8a	0.05642561
93	0x3dad5fa4	0.084655076
94	0xbdeaba49	-0.11461312
95	0x3e77d658	0.2420286
96	0xbdd28679	-0.10279555
97	0x3e14e375	0.14539893
98	0xbe10009c	-0.14062732
99	0xbd2e2cfb	-0.042523365
100	0x3dc4f010	0.09616101
101	0xbd93ec08	-0.07222754
102	0x3e181063	0.14850001
103	0xbdf923a6	-0.121650025
104	0xbe1803cf	-0.14845203
105	0xbda3400b	-0.079711996
106	0x3cea1845	0.028576026
107	0x3e26acb3	0.16276817
108	0xbdacd66c	-0.08439335
109	0x3d8179aa	0.06322034
110	0xbd358802	-0.04431916
111	0xbd1d066c	-0.038336203
112	0x3e051aa8	0.1299845
113	0xbe0c4995	-0.13699944
114	0x3c99d036	0.01877604
115	0x3e2a3b74	0.16624242
116	0xbcc6fe7e	-0.024291273
117	0x3e0c8ce1	0.13725616
118	0xbd5efc0b	-0.054439586
119	0x3e11b6b6	0.14229855
120	0xbe2f1b02	-0.17100146
121	0xbcd0b69f	-0.025477706
122	0xbcfe5cfa	-0.031050194
123	0x3d6aa9a0	0.057290673
124	0x3d8e09a7	0.06935435
125	0x3e0afd5d	0.13573213
126	0xbcd7c137	-0.02633725
127	0xbbe5b4f2	-0.0070100958
128	0x3d9bb5c9	0.07603032
129	0xbd9f7c45	-0.077873744
130	0x3deaa029	0.114563294
131	0xbda1bf88	-0.0789786
132	0xbd6cf4d0	-0.05785066
133	0xbc1b9041	-0.009494842
134	0x3da18b95	0.07887951
135	0x3df78467	0.120858006
136	0xbd8efd5d	-0.06981919
137	0xbe15f894	-0.14645606
138	0x3d744cc7	0.059643533
139	0x3d589832	0.05287952
140	0x3cf827d8	0.030292436
141	0xbe1c2acc	-0.152507
142	0x3de901a9	0.1137727
143	0x3e2b7410	0.16743493
144	0x3c7b5115	0.015339156
145	0xbe556155	-0.2083791
146	0x3dfe25c1	0.12409545
147	0xbe06378e	-0.1310713
148	0x3d2671f7	0.04063603
149	0xbc1a0619	-0.009400868
150	0xbda97284	-0.08273795
151	0x3c4c9dad	0.012488765
152	0xbe21e8dc	-0.15811485
153	0x3d24ea5d	0.04026257
154	0xbe1b832d	-0.15186758
155	0xbd81ec7f	-0.06343936
156	0x3cba4644	0.022738583
157	0x3dda7d81	0.10668469
158	0xbdacbc6a	-0.08434375
159	0x3d90e9b6	0.07075827
160	0xbda8f9d9	-0.0825078
161	0xbe1375e5	-0.14400442
162	0xbe5b201a	-0.21398965
163	0xbe2616ac	-0.16219586
164	0x3de69565	0.112589635
165	0xbd3495a5	-0.044088025
166	0x3c10aace	0.0088297855
167	0x3d444e69	0.04792634
168	0x3d763301	0.060107235
169	0x3e1a7ecd	0.15087433
170	0x3daaa82f	0.0833286
171	0xbe061d3a	-0.13097087
172	0xbdb4fea9	-0.08837635
173	0xbe289c49	-0.16465868
174	0xbdced9f7	-0.10100167
175	0x3d2bc19a	0.04193268
176	0x3e29e9d7	0.16593109
177	0xbe4e80f2	-0.20166376
178	0x3ddb1b80	0.106986046
179	0xbdbbb47b	-0.09165283
180	0xbd0d0819	-0.03443155
181	0x3da46464	0.080269605
182	0xbd23c3c9	-0.039981637
183	0xbd340415	-0.043949205
184	0xbdfd13aa	-0.12357266
185	0x3e1a174f	0.15047954
186	0xbda9c90a	-0.08290298
187	0xbe41e3e4	-0.1893459
188	0x3d54046f	0.05176204
189	0xbe3e32ab	-0.18574016
190	0xbe0fa3e2	-0.1402736
191	0xbd49de3d	-0.04928421
192	0x3e59ea8e	0.21280882
193	0x3cf77607	0.030207647
194	0x3e227d1b	0.15868036
195	0x3e52b6e9	0.20577587
196	0x3e464036	0.19360432
197	0xbdbde950	-0.092730165
198	0xbc9ebf1b	-0.019378236
199	0xbd63db2f	-0.05562895
200	0xbd8a3d41	-0.067499645
201	0x38992d50	7.3040486e-05
202	0x3e5b2e52	0.21404389
203	0x3e1882f9	0.14893712
204	0x3dbbe52b	0.0917457
205	0x3de902ea	0.11377509
206	0xbd9cbc00	-0.07653046
207	0x3e08a41d	0.13343854
208	0xbd96a5ba	-0.073558286
209	0xbd486102	-0.04892064
210	0x3cdf01a3	0.02722246
211	0x3dd9002d	0.10595737
212	0xbe23349c	-0.15938038
213	0x3e739e02	0.23790744
214	0x3d823c8f	0.06359207
215	0xbd5d6074	-0.054047063
216	0xbd1bf8c0	-0.038079023
217	0x3e1d0c7a	0.1533679
218	0xbd751669	-0.059835825
219	0x3cafeaaf	0.02147421
220	0x3d6d7bac	0.05797927
221	0xbda6a9ae	-0.081378326
222	0x3dc6780d	0.096908666
223	0x3e2a3bf8	0.16624439
224	0x3d2834ff	0.041066166
225	0xbe4046d0	-0.18777013
226	0x3dd7b585	0.10532669
227	0xbe2085dd	-0.15676065
228	0x3dd704e1	0.104989775
229	0xbe2db8f7	-0.1696509
230	0xbe214865	-0.15750273
231	0x3dde5ce1	0.10857559
232	0xbd537b83	-0.05163146
233	0x3c27160a	0.010198126
234	0xbe31ead2	-0.17374733
235	0xbd97ddc8	-0.07415348
236	0xbdfa72df	-0.12228941
237	0xbe77557f	-0.24153708
238	0x3c168475	0.009186854
239	0x3d000f3d	0.031264532
240	0xb91ceefa	-0.00014966345
241	0xbc4a042a	-0.012330094
242	0x3e2bc2a8	0.16773474
243	0x3d408547	0.047002103
244	0xbd848849	-0.06471307
245	0xbe154c27	-0.14579831
246	0xbde7a265	-0.11310271
247	0xbe419b69	-0.1890694
248	0xbce9399f	-0.028469859
249	0xbd00107a	-0.031265713
250	0x3bf9ef80	0.0076274276
251	0xbe13f193	-0.14447622
252	0x3e104f2d	0.14092703
253	0xbe45c805	-0.19314583
254	0x3a03b5ae	0.0005024326
255	0x3db68616	0.089122936

rho.rho.2.bias f4 [32]
0	0xbd96aa1f	-0.07356667
1	0xbd4b4d4a	-0.049634255
2	0x3e17883e	0.14798066
3	0xbded7c82	-0.115960136
4	0xbcd2cf5e	-0.025733646
5	0x3c46ed9b	0.0121416105
6	0x3d792509	0.060826335
7	0xbd190d71	-0.037366334
8	0xbe0a1714	-0.13485366
9	0x3c2821f4	0.010262001
10	0x3bc4fd6b	0.006011655
11	0x3d5c168b	0.053732436
12	0xbe15adf5	-0.1461714
13	0x3d90ce7e	0.07070635
14	0x3e1ef27a	0.15522185
15	0xbcfd4b31	-0.030919643
16	0x3e1f590d	0.15561314
17	0x3d863164	0.06552389
18	0xbd90cdc1	-0.070704944
19	0xbc491012	-0.012271898
20	0x3dd77f92	0.10522379
21	0x3a5ac719	0.0008345708
22	0xbe585d5c	-0.21129364
23	0xbc533913	-0.0128920255
24	0x3e258ef6	0.16167817
25	0xbb0ab54f	-0.0021165197
26	0xbe1c4b07	-0.15262996
27	0x3e599e2b	0.21251743
28	0x3e29da86	0.16587266
29	0x3d2cd342	0.04219366
30	0x3c13f827	0.009031332
31	0xbc992929	-0.018696385

rho.rho.4.weight f4 [1, 32]
0	0x3d281b18	0.041041464
1	0x3bcddde8	0.006282557
2	0xbe398759	-0.18118037
3	0x3d062723	0.032752167
4	0xbd7ce0f5	-0.061737973
5	0xbd472b8f	-0.048625525
6	0xbe13042e	-0.14357063
7	0xbc9d8f3d	-0.01923334
8	0xbe12616d	-0.14294977
9	0xbc77dcf8	-0.015128367
10	0x3d126361	0.035739306
11	0xbdc1392a	-0.09434731
12	0xbe0c9da8	-0.13732016
13	0xba287507	-0.000642613
14	0xbd869da0	-0.06573033
15	0xbe1c7012	-0.15277126
16	0xbe4d7115	-0.20062669
17	0x3e276e89	0.1635076
18	0x3e075ea1	0.13219692
19	0x3dc8a497	0.09797018
20	0x3d52e100	0.051484108
21	0x3d8b5f18	0.06805247
22	0x3d0bdad2	0.03414423
23	0x3defc93b	0.117083035
24	0xbdf70e35	-0.12063257
25	0xbd9fdcac	-0.07805762
26	0x3d872f4c	0.06600818
27	0xbd96c3b0	-0.07361543
28	0xbe424054	-0.18969852
29	0xbe592e29	-0.21209015
30	0x3dca7ab4	0.09886685
31	0x3e15f11c	0.14642757

exp_avg f4 [32, 3]
0	0x00000004	6e-45
1	0x00000004	6e-45
2	0x00000004	6e-45
3	0x00000000	0.0
4	0x00000000	0.0
5	0x00000000	0.0
6	0x00000000	0.0
7	0x00000000	0.0
8	0x00000000	0.0
9	0x00000000	0.0
10	0x00000000	0.0
11	0x00000000	0.0
12	0x80000004	-6e-45
13	0x80000004	-6e-45
14	0x80000004	-6e-45
15	0x00000004	6e-45
16	0x00000004	6e-45
17	0x00000004	6e-45
18	0x00000000	0.0
19	0x00000000	0.0
20	0x00000000	0.0
21	0x80000004	-6e-45
22	0x80000004	-6e-45
23	0x80000004	-6e-45
24	0x00000000	0.0
25	0x00000000	0.0
26	0x00000000	0.0
27	0x00000000	0.0
28	0x00000000	0.0
29	0x00000000	0.0
30	0x00000000	0.0
31	0x00000000	0.0
32	0x00000000	0.0
33	0x00000000	0.0
34	0x00000000	0.0
35	0x00000000	0.0
36	0x80000004	-6e-45
37	0x80000004	-6e-45
38	0x80000004	-6e-45
39	0x80000004	-6e-45
40	0x80000004	-6e-45
41	0x80000004	-6e-45
42	0x00000000	0.0
43	0x00000000	0.0
44	0x00000000	0.0
45	0x80000004	-6e-45
46	0x80000004	-6e-45
47	0x80000004	-6e-45
48	0x00000000	0.0
49	0x00000000	0.0
50	0x00000000	0.0
51	0x00000004	6e-45
52	0x00000004	6e-45
53	0x00000004	6e-45
54	0x80000004	-6e-45
55	0x80000004	-6e-45
56	0x80000004	-6e-45
57	0x00000000	0.0
58	0x00000000	0.0
59	0x00000000	0.0
60	0x80000004	-6e-45
61	0x80000004	-6e-45
62	0x80000004	-6e-45
63	0x00000004	6e-45
64	0x00000004	6e-45
65	0x00000004	6e-45
66	0x80000004	-6e-45
67	0x80000004	-6e-45
68	0x80000004	-6e-45
69	0x00000004	6e-45
70	0x00000004	6e-45
71	0x00000004	6e-45
72	0x80000004	-6e-45
73	0x80000004	-6e-45
74	0x80000004	-6e-45
75	0x00000004	6e-45
76	0x00000004	6e-45
77	0x00000004	6e-45
78	0x00000000	0.0
79	0x00000000	0.0
80	0x00000000	0.0
81	0x80000004	-6e-45
82	0x80000004	-6e-45
83	0x80000004	-6e-45
84	0x00000000	0.0
85	0x00000000	0.0
86	0x00000000	0.0
87	0x00000000	0.0
88	0x00000000	0.0
89	0x00000000	0.0
90	0x80000004	-6e-45
91	0x80000004	-6e-45
92	0x80000004	-6e-45
93	0x00000000	0.0
94	0x00000000	0.0
95	0x00000000	0.0

exp_avg_sq f4 [32, 3]
0	0x2d92983f	1.666589e-11
1	0x2c2cc3e0	2.4551403e-12
2	0x2bdb4a31	1.5581478e-12
3	0x00000000	0.0
4	0x00000000	0.0
5	0x00000000	0.0
6	0x00000000	0.0
7	0x00000000	0.0
8	0x00000000	0.0
9	0x00000000	0.0
10	0x00000000	0.0
11	0x00000000	0.0
12	0x2b0cfbab	5.008725e-13
13	0x29a34425	7.250475e-14
14	0x287cfacb	1.4043192e-14
15	0x2a319348	1.5771856e-13
16	0x2914a4e8	3.3005635e-14
17	0x28abf4b9	1.9090945e-14
18	0x00000000	0.0
19	0x00000000	0.0
20	0x00000000	0.0
21	0x2bdcfced	1.5702141e-12
22	0x2a74f0de	2.1755121e-13
23	0x2a28ace7	1.4981385e-13
24	0x00000000	0.0
25	0x00000000	0.0
26	0x00000000	0.0
27	0x00000000	0.0
28	0x00000000	0.0
29	0x00000000	0.0
30	0x00000000	0.0
31	0x00000000	0.0
32	0x00000000	0.0
33	0x00000000	0.0
34	0x00000000	0.0
35	0x00000000	0.0
36	0x2abc6ec8	3.3472379e-13
37	0x2a674b58	2.0543062e-13
38	0x298c992c	6.24382e-14
39	0x2c4f36ff	2.9446998e-12
40	0x2aa899f5	2.9949624e-13
41	0x281dd0df	8.7605424e-15
42	0x00000000	0.0
43	0x00000000	0.0
44	0x00000000	0.0
45	0x2e1581cf	3.399397e-11
46	0x2cad5c18	4.92718e-12
47	0x2c21c783	2.2990227e-12
48	0x00000000	0.0
49	0x00000000	0.0
50	0x00000000	0.0
51	0x2e029cd4	2.969787e-11
52	0x2c883ea7	3.8723083e-12
53	0x2b5c1626	7.819044e-13
54	0x2dc87584	2.2789555e-11
55	0x2c5a33a8	3.1008338e-12
56	0x2b89f971	9.803669e-13
57	0x00000000	0.0
58	0x00000000	0.0
59	0x00000000	0.0
60	0x2cd7ea64	6.13669e-12
61	0x2b67e92c	8.2391277e-13
62	0x2a31c7d2	1.5790085e-13
63	0x2d835ec6	1.4935064e-11
64	0x2c1f8e5e	2.2674289e-12
65	0x2bd880ac	1.5383437e-12
66	0x2c4acffb	2.8821379e-12
67	0x2ae6e51d	4.1015187e-13
68	0x2aad48a0	3.0781367e-13
69	0x2c44328e	2.7881339e-12
70	0x2b08608c	4.845089e-13
71	0x2b0622bb	4.765456e-13
72	0x2dd6623c	2.4372608e-11
73	0x2c6ef490	3.3957594e-12
74	0x2bc0f91f	1.3711566e-12
75	0x2b46513f	7.045648e-13
76	0x29e59d34	1.0196913e-13
77	0x29cd083c	9.105257e-14
78	0x00000000	0.0
79	0x00000000	0.0
80	0x00000000	0.0
81	0x2d51c538	1.1924066e-11
82	0x2bea9b9c	1.666989e-12
83	0x2b60371b	7.965726e-13
84	0x00000000	0.0
85	0x00000000	0.0
86	0x00000000	0.0
87	0x00000000	0.0
88	0x00000000	0.0
89	0x00000000	0.0
90	0x2e0cae62	3.1987198e-11
91	0x2c94a72b	4.2249724e-12
92	0x2b9be314	1.1076439e-12
93	0x00000000	0.0
94	0x00000000	0.0
95	0x00000000	0.0

exp_avg f4 [32]
0	0x00000004	6e-45
1	0x00000000	0.0
2	0x00000000	0.0
3	0x00000000	0.0
4	0x80000004	-6e-45
5	0x00000004	6e-45
6	0x00000000	0.0
7	0x80000004	-6e-45
8	0x00000000	0.0
9	0x00000000	0.0
10	0x00000000	0.0
11	0x00000000	0.0
12	0x80000004	-6e-45
13	0x80000004	-6e-45
14	0x00000000	0.0
15	0x80000004	-6e-45
16	0x00000000	0.0
17	0x00000004	6e-45
18	0x80000004	-6e-45
19	0x00000000	0.0
20	0x80000004	-6e-45
21	0x00000004	6e-45
22	0x80000004	-6e-45
23	0x00000004	6e-45
24	0x80000004	-6e-45
25	0x00000004	6e-45
26	0x00000000	0.0
27	0x80000004	-6e-45
28	0x00000000	0.0
29	0x00000000	0.0
30	0x80000004	-6e-45
31	0x00000000	0.0

exp_avg_sq f4 [32]
0	0x2e512d1c	4.7561163e-11
1	0x00000000	0.0
2	0x00000000	0.0
3	0x00000000	0.0
4	0x2b9d7e8b	1.1190644e-12
5	0x2b1011e3	5.11839e-13
6	0x00000000	0.0
7	0x2c8cf244	4.005936e-12
8	0x00000000	0.0
9	0x00000000	0.0
10	0x00000000	0.0
11	0x00000000	0.0
12	0x2be6e745	1.6406673e-12
13	0x2cc26d86	5.525971e-12
14	0x00000000	0.0
15	0x2ec828a2	9.102165e-11
16	0x00000000	0.0
17	0x2e972eee	6.8750214e-11
18	0x2e7629a0	5.5970895e-11
19	0x00000000	0.0
20	0x2d79b6ab	1.4194572e-11
21	0x2e402d2e	4.3695873e-11
22	0x2d1035d7	8.197407e-12
23	0x2d224d29	9.225767e-12
24	0x2e8a279c	6.2825495e-11
25	0x2c160ed5	2.1324516e-12
26	0x00000000	0.0
27	0x2e0b7560	3.170919e-11
28	0x00000000	0.0
29	0x00000000	0.0
30	0x2ea74ce0	7.6079365e-11
31	0x00000000	0.0

exp_avg f4 [6, 32]
0	0x00000000	0.0
1	0x00000000	0.0
2	0x00000000	0.0
3	0x00000000	0.0
4	0x00000000	0.0
5	0x00000000	0.0
6	0x00000000	0.0
7	0x00000000	0.0
8	0x00000000	0.0
9	0x00000000	0.0
10	0x00000000	0.0
11	0x00000000	0.0
12	0x00000000	0.0
13	0x00000000	0.0
14	0x00000000	0.0
15	0x00000000	0.0
16	0x00000000	0.0
17	0x00000000	0.0
18	0x00000000	0.0
19	0x00000000	0.0
20	0x00000000	0.0
21	0x00000000	0.0
22	0x00000000	0.0
23	0x00000000	0.0
24	0x00000000	0.0
25	0x00000000	0.0
26	0x00000000	0.0
27	0x00000000	0.0
28	0x00000000	0.0
29	0x00000000	0.0
30	0x00000000	0.0
31	0x00000000	0.0
32	0x80000004	-6e-45
33	0x00000000	0.0
34	0x00000000	0.0
35	0x00000000	0.0
36	0x80000004	-6e-45
37	0x80000004	-6e-45
38	0x00000000	0.0
39	0x80000004	-6e-45
40	0x00000000	0.0
41	0x00000000	0.0
42	0x00000000	0.0
43	0x00000000	0.0
44	0x80000004	-6e-45
45	0x80000004	-6e-45
46	0x00000000	0.0
47	0x80000004	-6e-45
48	0x00000000	0.0
49	0x80000004	-6e-45
50	0x80000004	-6e-45
51	0x00000000	0.0
52	0x80000004	-6e-45
53	0x80000004	-6e-45
54	0x80000004	-6e-45
55	0x80000004	-6e-45
56	0x80000004	-6e-45
57	0x80000004	-6e-45
58	0x00000000	0.0
59	0x80000004	-6e-45
60	0x00000000	0.0
61	0x00000000	0.0
62	0x80000004	-6e-45
63	0x00000000	0.0
64	0x00000000	0.0
65	0x00000000	0.0
66	0x00000000	0.0
67	0x00000000	0.0
68	0x00000000	0.0
69	0x00000000	0.0
70	0x00000000	0.0
71	0x00000000	0.0
72	0x00000000	0.0
73	0x00000000	0.0
74	0x00000000	0.0
75	0x00000000	0.0
76	0x00000000	0.0
77	0x00000000	0.0
78	0x00000000	0.0
79	0x00000000	0.0
80	0x00000000	0.0
81	0x00000000	0.0
82	0x00000000	0.0
83	0x00000000	0.0
84	0x00000000	0.0
85	0x00000000	0.0
86	0x00000000	0.0
87	0x00000000	0.0
88	0x00000000	0.0
89	0x00000000	0.0
90	0x00000000	0.0
91	0x00000000	0.0
92	0x00000000	0.0
93	0x00000000	0.0
94	0x00000000	0.0
95	0x00000000	0.0
96	0x80000004	-6e-45
97	0x00000000	0.0
98	0x00000000	0.0
99	0x00000000	0.0
100	0x80000004	-6e-45
101	0x80000004	-6e-45
102	0x00000000	0.0
103	0x80000004	-6e-45
104	0x00000000	0.0
105	0x00000000	0.0
106	0x00000000	0.0
107	0x00000000	0.0
108	0x80000004	-6e-45
109	0x80000004	-6e-45
110	0x00000000	0.0
111	0x80000004	-6e-45
112	0x00000000	0.0
113	0x80000004	-6e-45
114	0x80000004	-6e-45
115	0x00000000	0.0
116	0x80000004	-6e-45
117	0x80000004	-6e-45
118	0x80000004	-6e-45
119	0x80000004	-6e-45
120	0x80000004	-6e-45
121	0x80000004	-6e-45
122	0x00000000	0.0
123	0x80000004	-6e-45
124	0x00000000	0.0
125	0x00000000	0.0
126	0x80000004	-6e-45
127	0x00000000	0.0
128	0x00000004	6e-45
129	0x00000000	0.0
130	0x00000000	0.0
131	0x00000000	0.0
132	0x00000004	6e-45
133	0x00000004	6e-45
134	0x00000000	0.0
135	0x00000004	6e-45
136	0x00000000	0.0
137	0x00000000	0.0
138	0x00000000	0.0
139	0x00000000	0.0
140	0x00000004	6e-45
141	0x00000004	6e-45
142	0x00000000	0.0
143	0x00000004	6e-45
144	0x00000000	0.0
145	0x00000004	6e-45
146	0x00000004	6e-45
147	0x00000000	0.0
148	0x00000004	6e-45
149	0x00000004	6e-45
150	0x00000004	6e-45
151	0x00000004	6e-45
152	0x00000004	6e-45
153	0x00000004	6e-45
154	0x00000000	0.0
155	0x00000004	6e-45
156	0x00000000	0.0
157	0x00000000	0.0
158	0x00000004	6e-45
159	0x00000000	0.0
160	0x80000004	-6e-45
161	0x00000000	0.0
162	0x00000000	0.0
163	0x00000000	0.0
164	0x80000004	-6e-45
165	0x80000004	-6e-45
166	0x00000000	0.0
167	0x80000004	-6e-45
168	0x00000000	0.0
169	0x00000000	0.0
170	0x00000000	0.0
171	0x00000000	0.0
172	0x80000004	-6e-45
173	0x80000004	-6e-45
174	0x00000000	0.0
175	0x80000004	-6e-45
176	0x00000000	0.0
177	0x80000004	-6e-45
178	0x80000004	-6e-45
179	0x00000000	0.0
180	0x80000004	-6e-45
181	0x80000004	-6e-45
182	0x80000004	-6e-45
183	0x80000004	-6e-45
184	0x80000004	-6e-45
185	0x80000004	-6e-45
186	0x00000000	0.0
187	0x80000004	-6e-45
188	0x00000000	0.0
189	0x00000000	0.0
190	0x80000004	-6e-45
191	0x00000000	0.0

exp_avg_sq f4 [6, 32]
0	0x00000000	0.0
1	0x00000000	0.0
2	0x00000000	0.0
3	0x00000000	0.0
4	0x00000000	0.0
5	0x00000000	0.0
6	0x00000000	0.0
7	0x00000000	0.0
8	0x00000000	0.0
9	0x00000000	0.0
10	0x00000000	0.0
11	0x00000000	0.0
12	0x00000000	0.0
13	0x00000000	0.0
14	0x00000000	0.0
15	0x00000000	0.0
16	0x00000000	0.0
17	0x00000000	0.0
18	0x00000000	0.0
19	0x00000000	0.0
20	0x00000000	0.0
21	0x00000000	0.0
22	0x00000000	0.0
23	0x00000000	0.0
24	0x00000000	0.0
25	0x00000000	0.0
26	0x00000000	0.0
27	0x00000000	0.0
28	0x00000000	0.0
29	0x00000000	0.0
30	0x00000000	0.0
31	0x00000000	0.0
32	0x2f4a1c51	1.8381853e-10
33	0x00000000	0.0
34	0x00000000	0.0
35	0x00000000	0.0
36	0x2d73fe80	1.3869461e-11
37	0x30162271	5.4618626e-10
38	0x00000000	0.0
39	0x2ea5b4d1	7.535451e-11
40	0x00000000	0.0
41	0x00000000	0.0
42	0x00000000	0.0
43	0x00000000	0.0
44	0x2aa8a8ea	2.9960003e-13
45	0x2f03f75e	1.2002263e-10
46	0x00000000	0.0
47	0x2f4c0cc6	1.855823e-10
48	0x00000000	0.0
49	0x3106ed26	1.963437e-09
50	0x304a8a21	7.3683465e-10
51	0x00000000	0.0
52	0x2c8da22f	4.025467e-12
53	0x2eba1315	8.4616904e-11
54	0x2e93c22b	6.719277e-11
55	0x2f949d10	2.7032643e-10
56	0x303902bb	6.730649e-10
57	0x2f6a9786	2.1336008e-10
58	0x00000000	0.0
59	0x306b2fb1	8.5560276e-10
60	0x00000000	0.0
61	0x00000000	0.0
62	0x2e06c929	3.064674e-11
63	0x00000000	0.0
64	0x00000000	0.0
65	0x00000000	0.0
66	0x00000000	0.0
67	0x00000000	0.0
68	0x00000000	0.0
69	0x00000000	0.0
70	0x00000000	0.0
71	0x00000000	0.0
72	0x00000000	0.0
73	0x00000000	0.0
74	0x00000000	0.0
75	0x00000000	0.0
76	0x00000000	0.0
77	0x00000000	0.0
78	0x00000000	0.0
79	0x00000000	0.0
80	0x00000000	0.0
81	0x00000000	0.0
82	0x00000000	0.0
83	0x00000000	0.0
84	0x00000000	0.0
85	0x00000000	0.0
86	0x00000000	0.0
87	0x00000000	0.0
88	0x00000000	0.0
89	0x00000000	0.0
90	0x00000000	0.0
91	0x00000000	0.0
92	0x00000000	0.0
93	0x00000000	0.0
94	0x00000000	0.0
95	0x00000000	0.0
96	0x2e41bb00	4.404921e-11
97	0x00000000	0.0
98	0x00000000	0.0
99	0x00000000	0.0
100	0x2d182f47	8.650697e-12
101	0x2f558f95	1.9423248e-10
102	0x00000000	0.0
103	0x2dcea612	2.3493239e-11
104	0x00000000	0.0
105	0x00000000	0.0
106	0x00000000	0.0
107	0x00000000	0.0
108	0x2a9a71f3	2.7434963e-13
109	0x2e07099c	3.070398e-11
110	0x00000000	0.0
111	0x2ebc9717	8.576089e-11
112	0x00000000	0.0
113	0x3025c9cf	6.031344e-10
114	0x2f8540d1	2.4238614e-10
115	0x00000000	0.0
116	0x2aadc2c0	3.0866108e-13
117	0x2db88a22	2.0979721e-11
118	0x2defb8f2	2.7253286e-11
119	0x2e8ad651	6.313584e-11
120	0x2f890e31	2.4930238e-10
121	0x2e2d8521	3.9453888e-11
122	0x00000000	0.0
123	0x2f7b1e9b	2.283919e-10
124	0x00000000	0.0
125	0x00000000	0.0
126	0x2d7ff48d	1.4549373e-11
127	0x00000000	0.0
128	0x2c0ea569	2.0271235e-12
129	0x00000000	0.0
130	0x00000000	0.0
131	0x00000000	0.0
132	0x2ae7258d	4.10599e-13
133	0x2d155998	8.489563e-12
134	0x00000000	0.0
135	0x2b964b2a	1.0679003e-12
136	0x00000000	0.0
137	0x00000000	0.0
138	0x00000000	0.0
139	0x00000000	0.0
140	0x281fd8b1	8.8732605e-15
141	0x2be78916	1.6451586e-12
142	0x00000000	0.0
143	0x2c86c0d3	3.829917e-12
144	0x00000000	0.0
145	0x2df58731	2.7913312e-11
146	0x2d4eb7c2	1.1750547e-11
147	0x00000000	0.0
148	0x28d92e50	2.4111924e-14
149	0x2b822ef7	9.250091e-13
150	0x2b9b4728	1.1033162e-12
151	0x2c5a228e	3.0998845e-12
152	0x2d4b6d34	1.1563462e-11
153	0x2c0b21cd	1.9771851e-12
154	0x00000000	0.0
155	0x2d496637	1.14482234e-11
156	0x00000000	0.0
157	0x00000000	0.0
158	0x2b46b248	7.0591146e-13
159	0x00000000	0.0
160	0x2f99e680	2.7994318e-10
161	0x00000000	0.0
162	0x00000000	0.0
163	0x00000000	0.0
164	0x2dc22b2c	2.2074419e-11
165	0x306be423	8.5816704e-10
166	0x00000000	0.0
167	0x2efe762e	1.15715756e-10
168	0x00000000	0.0
169	0x00000000	0.0
170	0x00000000	0.0
171	0x00000000	0.0
172	0x2b20dace	5.714707e-13
173	0x2f422cbb	1.7660089e-10
174	0x00000000	0.0
175	0x2fa30231	2.9651084e-10
176	0x00000000	0.0
177	0x314f44cd	3.0161573e-09
178	0x309a5bc4	1.1231056e-09
179	0x00000000	0.0
180	0x2cb68b82	5.1882396e-12
181	0x2f0ec236	1.2983822e-10
182	0x2eede2f8	1.081783e-10
183	0x2fdcd5b1	4.0169604e-10
184	0x308ff333	1.0473741e-09
185	0x2fac1d77	3.1307554e-10
186	0x00000000	0.0
187	0x30b07cde	1.2841175e-09
188	0x00000000	0.0
189	0x00000000	0.0
190	0x2e524496	4.780939e-11
191	0x00000000	0.0

exp_avg f4 [6]
0	0x00000000	0.0
1	0x80000004	-6e-45
2	0x00000000	0.0
3	0x80000004	-6e-45
4	0x00000004	6e-45
5	0x80000004	-6e-45

exp_avg_sq f4 [6]
0	0x00000000	0.0
1	0x3116c5fb	2.1940412e-09
2	0x00000000	0.0
3	0x304b28ac	7.390877e-10
4	0x2e15cc09	3.4059897e-11
5	0x31695706	3.395543e-09

exp_avg f4 [32, 6]
0	0x00000000	0.0
1	0x80000004	-6e-45
2	0x00000000	0.0
3	0x80000004	-6e-45
4	0x80000004	-6e-45
5	0x80000004	-6e-45
6	0x00000000	0.0
7	0x80000004	-6e-45
8	0x00000000	0.0
9	0x80000004	-6e-45
10	0x80000004	-6e-45
11	0x80000004	-6e-45
12	0x00000000	0.0
13	0x80000004	-6e-45
14	0x00000000	0.0
15	0x80000004	-6e-45
16	0x80000004	-6e-45
17	0x80000004	-6e-45
18	0x00000000	0.0
19	0x00000004	6e-45
20	0x00000000	0.0
21	0x00000004	6e-45
22	0x00000004	6e-45
23	0x00000004	6e-45
24	0x00000000	0.0
25	0x80000004	-6e-45
26	0x00000000	0.0
27	0x80000004	-6e-45
28	0x80000004	-6e-45
29	0x80000004	-6e-45
30	0x00000000	0.0
31	0x00000000	0.0
32	0x00000000	0.0
33	0x00000000	0.0
34	0x00000000	0.0
35	0x00000000	0.0
36	0x00000000	0.0
37	0x00000000	0.0
38	0x00000000	0.0
39	0x00000000	0.0
40	0x00000000	0.0
41	0x00000000	0.0
42	0x00000000	0.0
43	0x00000000	0.0
44	0x00000000	0.0
45	0x00000000	0.0
46	0x00000000	0.0
47	0x00000000	0.0
48	0x00000000	0.0
49	0x80000004	-6e-45
50	0x00000000	0.0
51	0x80000004	-6e-45
52	0x80000004	-6e-45
53	0x80000004	-6e-45
54	0x00000000	0.0
55	0x00000000	0.0
56	0x00000000	0.0
57	0x00000000	0.0
58	0x00000000	0.0
59	0x00000000	0.0
60	0x00000000	0.0
61	0x80000004	-6e-45
62	0x00000000	0.0
63	0x80000004	-6e-45
64	0x80000004	-6e-45
65	0x80000004	-6e-45
66	0x00000000	0.0
67	0x00000000	0.0
68	0x00000000	0.0
69	0x00000000	0.0
70	0x00000000	0.0
71	0x00000000	0.0
72	0x00000000	0.0
73	0x80000004	-6e-45
74	0x00000000	0.0
75	0x80000004	-6e-45
76	0x80000004	-6e-45
77	0x80000004	-6e-45
78	0x00000000	0.0
79	0x00000004	6e-45
80	0x00000000	0.0
81	0x80000004	-6e-45
82	0x00000004	6e-45
83	0x00000004	6e-45
84	0x00000000	0.0
85	0x00000000	0.0
86	0x00000000	0.0
87	0x00000000	0.0
88	0x00000000	0.0
89	0x00000000	0.0
90	0x00000000	0.0
91	0x00000000	0.0
92	0x00000000	0.0
93	0x00000000	0.0
94	0x00000000	0.0
95	0x00000000	0.0
96	0x00000000	0.0
97	0x00000000	0.0
98	0x00000000	0.0
99	0x00000000	0.0
100	0x00000000	0.0
101	0x00000000	0.0
102	0x00000000	0.0
103	0x00000004	6e-45
104	0x00000000	0.0
105	0x00000004	6e-45
106	0x00000004	6e-45
107	0x00000004	6e-45
108	0x00000000	0.0
109	0x00000000	0.0
110	0x00000000	0.0
111	0x00000000	0.0
112	0x00000000	0.0
113	0x00000000	0.0
114	0x00000000	0.0
115	0x00000000	0.0
116	0x00000000	0.0
117	0x00000000	0.0
118	0x00000000	0.0
119	0x00000000	0.0
120	0x00000000	0.0
121	0x00000000	0.0
122	0x00000000	0.0
123	0x00000000	0.0
124	0x00000000	0.0
125	0x00000000	0.0
126	0x00000000	0.0
127	0x80000004	-6e-45
128	0x00000000	0.0
129	0x80000004	-6e-45
130	0x80000004	-6e-45
131	0x80000004	-6e-45
132	0x00000000	0.0
133	0x00000000	0.0
134	0x00000000	0.0
135	0x00000000	0.0
136	0x00000000	0.0
137	0x00000000	0.0
138	0x00000000	0.0
139	0x00000004	6e-45
140	0x00000000	0.0
141	0x00000004	6e-45
142	0x00000004	6e-45
143	0x00000004	6e-45
144	0x00000000	0.0
145	0x00000000	0.0
146	0x00000000	0.0
147	0x00000000	0.0
148	0x00000000	0.0
149	0x00000000	0.0
150	0x00000000	0.0
151	0x00000000	0.0
152	0x00000000	0.0
153	0x00000000	0.0
154	0x00000000	0.0
155	0x00000000	0.0
156	0x00000000	0.0
157	0x00000004	6e-45
158	0x00000000	0.0
159	0x00000004	6e-45
160	0x00000004	6e-45
161	0x00000004	6e-45
162	0x00000000	0.0
163	0x80000004	-6e-45
164	0x00000000	0.0
165	0x80000004	-6e-45
166	0x80000004	-6e-45
167	0x80000004	-6e-45
168	0x00000000	0.0
169	0x00000000	0.0
170	0x00000000	0.0
171	0x00000000	0.0
172	0x00000000	0.0
173	0x00000000	0.0
174	0x00000000	0.0
175	0x00000004	6e-45
176	0x00000000	0.0
177	0x00000004	6e-45
178	0x00000004	6e-45
179	0x00000004	6e-45
180	0x00000000	0.0
181	0x00000000	0.0
182	0x00000000	0.0
183	0x00000000	0.0
184	0x00000000	0.0
185	0x00000000	0.0
186	0x00000000	0.0
187	0x80000004	-6e-45
188	0x00000000	0.0
189	0x80000004	-6e-45
190	0x80000004	-6e-45
191	0x80000004	-6e-45

exp_avg_sq f4 [32, 6]
0	0x00000000	0.0
1	0x2f64a261	2.0794168e-10
2	0x00000000	0.0
3	0x2c94e795	4.2321238e-12
4	0x2f154bdc	1.3578422e-10
5	0x2eaacc09	7.766949e-11
6	0x00000000	0.0
7	0x2f8362d0	2.3898972e-10
8	0x00000000	0.0
9	0x2c797931	3.5452303e-12
10	0x2f33c50a	1.6349957e-10
11	0x2ebabaa7	8.491457e-11
12	0x00000000	0.0
13	0x2dbded91	2.1592313e-11
14	0x00000000	0.0
15	0x2b52ea8b	7.493248e-13
16	0x2d6d4647	1.3487495e-11
17	0x2d1e24e0	8.989448e-12
18	0x00000000	0.0
19	0x276c4c0f	3.279281e-15
20	0x00000000	0.0
21	0x25e200d5	3.9205314e-16
22	0x26629db8	7.862325e-16
23	0x2702e20c	1.8163664e-15
24	0x00000000	0.0
25	0x2e13cc3e	3.3605334e-11
26	0x00000000	0.0
27	0x2b8f28c6	1.0172078e-12
28	0x2dae2f53	1.9802526e-11
29	0x2d6cd722	1.3462816e-11
30	0x00000000	0.0
31	0x00000000	0.0
32	0x00000000	0.0
33	0x00000000	0.0
34	0x00000000	0.0
35	0x00000000	0.0
36	0x00000000	0.0
37	0x00000000	0.0
38	0x00000000	0.0
39	0x00000000	0.0
40	0x00000000	0.0
41	0x00000000	0.0
42	0x00000000	0.0
43	0x00000000	0.0
44	0x00000000	0.0
45	0x00000000	0.0
46	0x00000000	0.0
47	0x00000000	0.0
48	0x00000000	0.0
49	0x2b4e1ae2	7.322321e-13
50	0x00000000	0.0
51	0x29242adb	3.6452486e-14
52	0x2acddd3d	3.656883e-13
53	0x2aab0f7b	3.0386444e-13
54	0x00000000	0.0
55	0x00000000	0.0
56	0x00000000	0.0
57	0x00000000	0.0
58	0x00000000	0.0
59	0x00000000	0.0
60	0x00000000	0.0
61	0x2e35c151	4.1326335e-11
62	0x00000000	0.0
63	0x2ba1a9ca	1.1486864e-12
64	0x2de64c46	2.6181845e-11
65	0x2d90b8a8	1.6452908e-11
66	0x00000000	0.0
67	0x00000000	0.0
68	0x00000000	0.0
69	0x00000000	0.0
70	0x00000000	0.0
71	0x00000000	0.0
72	0x00000000	0.0
73	0x2f26c1d5	1.5166475e-10
74	0x00000000	0.0
75	0x2c2dd4f4	2.4702991e-12
76	0x2eeade26	1.06805495e-10
77	0x2e72e1af	5.5224877e-11
78	0x00000000	0.0
79	0x2dbd0893	2.149062e-11
80	0x00000000	0.0
81	0x296eb17f	5.300057e-14
82	0x2d9c3c5b	1.776195e-11
83	0x2cf948a2	7.0850695e-12
84	0x00000000	0.0
85	0x00000000	0.0
86	0x00000000	0.0
87	0x00000000	0.0
88	0x00000000	0.0
89	0x00000000	0.0
90	0x00000000	0.0
91	0x00000000	0.0
92	0x00000000	0.0
93	0x00000000	0.0
94	0x00000000	0.0
95	0x00000000	0.0
96	0x00000000	0.0
97	0x00000000	0.0
98	0x00000000	0.0
99	0x00000000	0.0
100	0x00000000	0.0
101	0x00000000	0.0
102	0x00000000	0.0
103	0x2e9d8f13	7.1649485e-11
104	0x00000000	0.0
105	0x2bac69d5	1.2250709e-12
106	0x2e54fb30	4.842632e-11
107	0x2de78096	2.6318763e-11
108	0x00000000	0.0
109	0x00000000	0.0
110	0x00000000	0.0
111	0x00000000	0.0
112	0x00000000	0.0
113	0x00000000	0.0
114	0x00000000	0.0
115	0x00000000	0.0
116	0x00000000	0.0
117	0x00000000	0.0
118	0x00000000	0.0
119	0x00000000	0.0
120	0x00000000	0.0
121	0x00000000	0.0
122	0x00000000	0.0
123	0x00000000	0.0
124	0x00000000	0.0
125	0x00000000	0.0
126	0x00000000	0.0
127	0x2f22c70f	1.4804534e-10
128	0x00000000	0.0
129	0x2ca496e2	4.6779117e-12
130	0x2ec155ea	8.791885e-11
131	0x2e836c68	5.976447e-11
132	0x00000000	0.0
133	0x00000000	0.0
134	0x00000000	0.0
135	0x00000000	0.0
136	0x00000000	0.0
137	0x00000000	0.0
138	0x00000000	0.0
139	0x2f98f9cb	2.7826128e-10
140	0x00000000	0.0
141	0x2bfbdc26	1.7895726e-12
142	0x2f61c7b1	2.0534575e-10
143	0x2ecee024	9.407611e-11
144	0x00000000	0.0
145	0x00000000	0.0
146	0x00000000	0.0
147	0x00000000	0.0
148	0x00000000	0.0
149	0x00000000	0.0
150	0x00000000	0.0
151	0x00000000	0.0
152	0x00000000	0.0
153	0x00000000	0.0
154	0x00000000	0.0
155	0x00000000	0.0
156	0x00000000	0.0
157	0x2d48a40f	1.1405112e-11
158	0x00000000	0.0
159	0x2a6af86b	2.0869562e-13
160	0x2cfaa8cf	7.124169e-12
161	0x2c94b735	4.226753e-12
162	0x00000000	0.0
163	0x2cc63349	5.6331923e-12
164	0x00000000	0.0
165	0x299f7efc	7.083047e-14
166	0x2c7e7b7e	3.6164123e-12
167	0x2c03092b	1.862131e-12
168	0x00000000	0.0
169	0x00000000	0.0
170	0x00000000	0.0
171	0x00000000	0.0
172	0x00000000	0.0
173	0x00000000	0.0
174	0x00000000	0.0
175	0x2d5b7650	1.2474979e-11
176	0x00000000	0.0
177	0x2914a9a3	3.3009738e-14
178	0x2d29a760	9.6437025e-12
179	0x2c9664eb	4.2744606e-12
180	0x00000000	0.0
181	0x00000000	0.0
182	0x00000000	0.0
183	0x00000000	0.0
184	0x00000000	0.0
185	0x00000000	0.0
186	0x00000000	0.0
187	0x2f260c12	1.51019e-10
188	0x00000000	0.0
189	0x2cdace12	6.218811e-12
190	0x2eb5d9ad	8.269594e-11
191	0x2e8deb28	6.45371e-11

exp_avg f4 [32]
0	0x80000004	-6e-45
1	0x80000004	-6e-45
2	0x80000004	-6e-45
3	0x00000004	6e-45
4	0x80000004	-6e-45
5	0x00000000	0.0
6	0x00000000	0.0
7	0x00000000	0.0
8	0x80000004	-6e-45
9	0x00000000	0.0
10	0x80000004	-6e-45
11	0x00000000	0.0
12	0x80000004	-6e-45
13	0x00000004	6e-45
14	0x00000000	0.0
15	0x00000000	0.0
16	0x00000000	0.0
17	0x00000004	6e-45
18	0x00000000	0.0
19	0x00000000	0.0
20	0x00000000	0.0
21	0x80000004	-6e-45
22	0x00000000	0.0
23	0x00000004	6e-45
24	0x00000000	0.0
25	0x00000000	0.0
26	0x00000004	6e-45
27	0x80000004	-6e-45
28	0x00000000	0.0
29	0x00000004	6e-45
30	0x00000000	0.0
31	0x80000004	-6e-45

exp_avg_sq f4 [32]
0	0x31d52ed2	6.2044387e-09
1	0x31fe1e30	7.395805e-09
2	0x302246ff	5.903615e-10
3	0x29700c4e	5.3301378e-14
4	0x307f3803	9.2848057e-10
5	0x00000000	0.0
6	0x00000000	0.0
7	0x00000000	0.0
8	0x2d8ea05b	1.6214743e-11
9	0x00000000	0.0
10	0x30a1f450	1.178373e-09
11	0x00000000	0.0
12	0x31a1533b	4.695179e-09
13	0x304b74cb	7.401694e-10
14	0x00000000	0.0
15	0x00000000	0.0
16	0x00000000	0.0
17	0x3116f5ef	2.196767e-09
18	0x00000000	0.0
19	0x00000000	0.0
20	0x00000000	0.0
21	0x318b4f70	4.0544634e-09
22	0x00000000	0.0
23	0x321dc176	9.182591e-09
24	0x00000000	0.0
25	0x00000000	0.0
26	0x2fbdd78f	3.4532063e-10
27	0x2f3fa311	1.7429282e-10
28	0x00000000	0.0
29	0x2febe943	4.2911993e-10
30	0x00000000	0.0
31	0x31832cd1	3.817697e-09
