src/lightning_logs/version_5/checkpoints/epoch=199-step=2400.ckpt (torch, 13299 bytes, 21 tensors)

phi.phi.0.weight f4 [6, 3]
000000 ec 2b b9 3d f1 d6 d1 3e 5b ce b8 3e 51 65 3d bf
       0.090415806 0.409843 0.36094937 -0.7398272
000010 b9 de 0d 3d 8e 88 0a 40 5b 67 74 be eb 36 2f 3d
       0.034636233 2.1645846 -0.23867552 0.042776983
000020 14 f8 2d 3d a2 7b a2 bc 5e 74 b9 be 31 46 a2 bd
       0.042472914 -0.019834343 -0.36221594 -0.07923544
000030 a9 cf 0c bf b2 b1 60 3d 81 40 b4 3e ea 28 eb be
       -0.55004364 0.054856963 0.35205463 -0.45929652
000040 0a 9b 1a be b0 c9 8f 3d
       -0.15098205 0.07020891

phi.phi.0.bias f4 [6]
000000 84 1a 02 bf e8 64 0d 3d f9 ac 4d 3d 3e da ac be
       -0.5082171 0.03452006 0.050213788 -0.33760256
000010 1a 68 c6 3c 02 ad 9b be
       0.024219561 -0.30405432

phi.phi.2.weight f4 [6, 6]
000000 91 19 57 3e 14 cb 26 bd 53 f4 3f 3e a7 0e ab 3d
       0.21005847 -0.040721014 0.18745546 0.08352404
000010 3f 2a c5 be 55 bf fa ba 1a fb 5f be 07 46 a9 3f
       -0.38508794 -0.0019130508 -0.21873131 1.3224496
000020 b8 c3 3f 3e a8 89 c0 3c 62 fd c1 3e 83 d8 90 3e
       0.18727005 0.02350314 0.37888628 0.28290185
000030 c8 80 b9 be 67 74 2d 3f 4b 6e 84 be ca 63 c0 3c
       -0.36231065 0.6775574 -0.25865397 0.023485083
000040 39 cf 8e 3e c4 e7 bc 3c a8 a8 e5 3b 90 71 78 bf
       0.27892473 0.023059733 0.007008631 -0.9704828
000050 12 5b 70 3e 43 4b bc be f9 b5 9f 3e c1 c5 33 3e
       0.2347224 -0.3677617 0.31193522 0.17555906
000060 cb bd 7d 3e 15 a5 f7 3c 17 38 c2 be 95 a6 9e bc
       0.24779432 0.030230084 -0.37933418 -0.019366542
000070 8b 53 03 be 08 53 59 be 54 0a c0 3e de 54 bd 3e
       -0.12824838 -0.2122308 0.3750788 0.3697881
000080 fb 27 77 be 68 cd 87 3c 10 5c bf bd a4 f2 8d bd
       -0.24136345 0.016577438 -0.093437314 -0.06931046

phi.phi.2.bias f4 [6]
000000 f5 e7 be 3d 96 08 af 3d db 6c dc 3d a2 16 51 3e
       0.09321586 0.085465595 0.1076295 0.2041879
000010 7d 18 d4 bd c4 ff ff 3d
       -0.10356233 0.12499955

rho.rho.0.weight f4 [6, 6]
000000 cc 5b 94 3d 08 d4 17 bf 66 20 0f bf 00 f9 5d 3f
       0.07244071 -0.5930791 -0.5590881 0.8670807
000010 90 d6 a3 be 8f 30 2f be fb fd 3b 3d 20 83 0c 3e
       -0.31999636 -0.17108367 0.04589651 0.13721895
000020 63 03 31 bb e5 e0 8e 3e a2 ef bc be 1d d5 c9 3d
       -0.0027010075 0.27905956 -0.36901575 0.09855101
000030 af 85 13 be f5 e4 0e bf fa dd 08 be 8b cc c7 3e
       -0.14406465 -0.5581811 -0.13365927 0.3902324
000040 74 e0 7d 3e d6 62 12 3e da 0d 3c 3e 04 05 a8 bd
       0.24792653 0.14295515 0.18364659 -0.08204082
000050 86 df a1 be 4f 1d 8e be 0e 41 5e 3e f7 fc 62 3e
       -0.31615847 -0.27756736 0.21704504 0.22166811
000060 dc 31 63 be 28 64 b3 bc ba 40 84 be 24 ee 63 be
       -0.22186989 -0.021898344 -0.25830632 -0.22258812
000070 39 5e f8 bd e9 02 0d be 3d e4 c4 be b6 30 51 3e
       -0.121273465 -0.13770641 -0.38455382 0.20428738
000080 17 db 32 bd 2b fd d1 bd 72 3d 15 be d9 4e 87 bc
       -0.04366597 -0.10253366 -0.14574221 -0.01651709

rho.rho.0.bias f4 [6]
000000 21 b8 a7 3e d6 2b 67 be c8 0a 3e 3e 66 06 46 be
       0.32757667 -0.22575316 0.185588 -0.19338378
000010 9e 7d 47 be 00 bd 97 be
       -0.19481513 -0.29636383

rho.rho.2.weight f4 [1, 6]
000000 95 88 68 3e 51 7d 0e 3e bb f4 4b 3d fa 86 37 be
       0.22708352 0.13914992 0.04979394 -0.17922583
000010 7e 4e 34 bd 6b a6 a9 be
       -0.04402017 -0.3313478

exp_avg f4 [6, 3]
000000 00 00 00 00 00 00 00 00 00 00 00 00 16 37 0a b7
       0.0 0.0 0.0 -8.238267e-06
000010 15 2e 46 b7 a9 57 d2 b6 00 00 00 00 00 00 00 00
       -1.1812449e-05 -6.2686927e-06 0.0 0.0
000020 00 00 00 00 00 00 00 00 00 00 00 00 00 00 00 00
       0.0 0.0 0.0 0.0
000030 00 00 00 00 00 00 00 00 00 00 00 00 00 00 00 00
       0.0 0.0 0.0 0.0
000040 00 00 00 00 00 00 00 00
       0.0 0.0

exp_avg_sq f4 [6, 3]
000000 00 00 00 00 00 00 00 00 00 00 00 00 82 28 a0 34
       0.0 0.0 0.0 2.9831796e-07
000010 60 5b 3c 33 7f 6d 58 33 00 00 00 00 00 00 00 00
       4.3855266e-08 5.0391005e-08 0.0 0.0
000020 00 00 00 00 00 00 00 00 00 00 00 00 00 00 00 00
       0.0 0.0 0.0 0.0
000030 00 00 00 00 00 00 00 00 00 00 00 00 00 00 00 00
       0.0 0.0 0.0 0.0
000040 00 00 00 00 00 00 00 00
       0.0 0.0

exp_avg f4 [6]
000000 00 00 00 00 89 c8 dc b7 00 00 00 00 00 00 00 00
       0.0 -2.6319425e-05 0.0 0.0
000010 00 00 00 00 00 00 00 00
       0.0 0.0

exp_avg_sq f4 [6]
000000 00 00 00 00 7c aa 7c 35 00 00 00 00 00 00 00 00
       0.0 9.4125403e-07 0.0 0.0
000010 00 00 00 00 00 00 00 00
       0.0 0.0

exp_avg f4 [6, 6]
000000 00 00 00 00 bd 49 a1 34 00 00 00 00 00 00 00 00
       0.0 3.0042239e-07 0.0 0.0
000010 00 00 00 00 00 00 00 00 00 00 00 00 da a0 3a b6
       0.0 0.0 0.0 -2.7809788e-06
000020 00 00 00 00 00 00 00 00 00 00 00 00 00 00 00 00
       0.0 0.0 0.0 0.0
000030 00 00 00 00 1c 2f 21 b6 00 00 00 00 00 00 00 00
       0.0 -2.401829e-06 0.0 0.0
000040 00 00 00 00 00 00 00 00 00 00 00 00 56 e9 d7 34
       0.0 0.0 0.0 4.0216645e-07
000050 00 00 00 00 00 00 00 00 00 00 00 00 00 00 00 00
       0.0 0.0 0.0 0.0
000060 00 00 00 00 00 00 00 00 00 00 00 00 00 00 00 00
       0.0 0.0 0.0 0.0
000070 00 00 00 00 00 00 00 00 00 00 00 00 a0 09 20 b5
       0.0 0.0 0.0 -5.961865e-07
000080 00 00 00 00 00 00 00 00 00 00 00 00 00 00 00 00
       0.0 0.0 0.0 0.0

exp_avg_sq f4 [6, 6]
000000 00 00 00 00 ae ef 90 30 00 00 00 00 00 00 00 00
       0.0 1.05455e-09 0.0 0.0
000010 00 00 00 00 00 00 00 00 00 00 00 00 f7 ea 89 31
       0.0 0.0 0.0 4.013937e-09
000020 00 00 00 00 00 00 00 00 00 00 00 00 00 00 00 00
       0.0 0.0 0.0 0.0
000030 00 00 00 00 89 1d 6e 31 00 00 00 00 00 00 00 00
       0.0 3.4650347e-09 0.0 0.0
000040 00 00 00 00 00 00 00 00 00 00 00 00 45 f6 d1 31
       0.0 0.0 0.0 6.110698e-09
000050 00 00 00 00 00 00 00 00 00 00 00 00 00 00 00 00
       0.0 0.0 0.0 0.0
000060 00 00 00 00 00 00 00 00 00 00 00 00 00 00 00 00
       0.0 0.0 0.0 0.0
000070 00 00 00 00 00 00 00 00 00 00 00 00 21 db f5 2f
       0.0 0.0 0.0 4.472094e-10
000080 00 00 00 00 00 00 00 00 00 00 00 00 00 00 00 00
       0.0 0.0 0.0 0.0

exp_avg f4 [6]
000000 bc 80 8e 36 45 09 4a b8 55 ff 20 b8 28 86 1c 37
       4.2469164e-06 -4.8169186e-05 -3.838477e-05 9.32956e-06
000010 00 00 00 00 eb 72 fd b6
       0.0 -7.553366e-06

exp_avg_sq f4 [6]
000000 cb a5 c4 32 d4 9c 70 35 a9 4a 1a 35 20 9f 49 35
       2.2892797e-08 8.963518e-07 5.7478115e-07 7.510989e-07
000010 00 00 00 00 ca 5a 09 33
       0.0 3.198037e-08

exp_avg f4 [6, 6]
000000 e4 fb ef 36 01 53 1f 37 4d 49 09 37 e2 98 73 36
       7.152079e-06 9.496464e-06 8.182903e-06 3.6298811e-06
000010 00 00 00 00 5b e1 07 37 04 00 00 00 04 00 00 00
       0.0 8.099097e-06 6e-45 6e-45
000020 04 00 00 00 04 00 00 00 00 00 00 00 04 00 00 00
       6e-45 6e-45 0.0 6e-45
000030 32 2f e7 35 78 f8 d6 35 3f 85 da 35 2f 1c bd 35
       1.7224577e-06 1.6016556e-06 1.6281045e-06 1.40898e-06
000040 00 00 00 00 d4 0f ee 35 00 00 00 00 00 00 00 00
       0.0 1.7736988e-06 0.0 0.0
000050 00 00 00 00 00 00 00 00 00 00 00 00 00 00 00 00
       0.0 0.0 0.0 0.0
000060 00 00 00 00 00 00 00 00 00 00 00 00 00 00 00 00
       0.0 0.0 0.0 0.0
000070 00 00 00 00 00 00 00 00 00 00 00 00 00 00 00 00
       0.0 0.0 0.0 0.0
000080 00 00 00 00 00 00 00 00 00 00 00 00 00 00 00 00
       0.0 0.0 0.0 0.0

exp_avg_sq f4 [6, 6]
000000 73 24 24 33 cb 2f 09 33 8c 3d cf 32 b5 1a ce 32
       3.8217376e-08 3.1941266e-08 2.412596e-08 2.3993701e-08
000010 00 00 00 00 59 c7 5d 33 78 f0 53 32 06 6d 8d 31
       0.0 5.1636878e-08 1.2336493e-08 4.1160346e-09
000020 1c 3f b0 30 06 d0 73 31 00 00 00 00 fd 56 88 32
       1.2823622e-09 3.5479402e-09 0.0 1.5872041e-08
000030 06 54 96 31 2f 3f 4d 31 60 0b 15 31 f0 c1 0d 31
       4.375127e-09 2.9867342e-09 2.168882e-09 2.0628441e-09
000040 00 00 00 00 61 39 c0 31 00 00 00 00 00 00 00 00
       0.0 5.5944587e-09 0.0 0.0
000050 00 00 00 00 00 00 00 00 00 00 00 00 00 00 00 00
       0.0 0.0 0.0 0.0
000060 00 00 00 00 00 00 00 00 00 00 00 00 00 00 00 00
       0.0 0.0 0.0 0.0
000070 00 00 00 00 00 00 00 00 00 00 00 00 00 00 00 00
       0.0 0.0 0.0 0.0
000080 00 00 00 00 00 00 00 00 00 00 00 00 00 00 00 00
       0.0 0.0 0.0 0.0

exp_avg f4 [6]
000000 4c 26 92 38 04 00 00 00 55 a3 8b 37 00 00 00 00
       6.968956e-05 6e-45 1.6646149e-05 0.0
000010 00 00 00 00 00 00 00 00
       0.0 0.0

exp_avg_sq f4 [6]
000000 ab e5 ca 35 bf 9c 18 34 24 4a 1b 34 00 00 00 00
       1.5117015e-06 1.4213127e-07 1.4462472e-07 0.0
000010 00 00 00 00 00 00 00 00
       0.0 0.0

exp_avg f4 [1, 6]
000000 85 7b 91 38 04 00 00 00 ff ec 2a 38 00 00 00 00
       6.937146e-05 6e-45 4.075188e-05 0.0
000010 00 00 00 00 00 00 00 00
       0.0 0.0

exp_avg_sq f4 [1, 6]
000000 a0 b1 4a 36 e2 9b a1 30 6c 91 02 36 00 00 00 00
       3.0203737e-06 1.1758596e-09 1.9456156e-06 0.0
000010 00 00 00 00 00 00 00 00
       0.0 0.0
