src/old_logs/version_130/checkpoints/epoch=439-step=440.ckpt (torch, 60971 bytes, 39 tensors)

phi.phi.0.weight f4 [32, 3]
0.028770646 0.34203443 -0.43878758 -0.4248946 -0.22236897 0.15482073 -0.011439145 0.45777494
-0.0512364 0.15277413 -0.1744828 -0.11348708 -0.5111871 -0.29405376 -0.1548185 -0.07569888
0.13370712 0.24621461 -0.39140946 -0.25141457 0.20970349 0.5337821 -0.06221482 0.48557913
-0.09305926 0.0610918 0.5227769 -0.5355907 -0.36346388 -0.14616501 -0.2250511 0.4988311
-0.3742267 -0.2657733 -0.40336025 -0.54072374 -0.3251108 0.5105448 0.29078487 0.2425933
-0.01284314 -0.3424428 0.09767882 -0.5390689 -0.4171738 -0.37164044 0.29351103 0.26770276
-0.256052 -0.020832175 0.36925054 0.45760491 0.11448326 -0.032678794 0.45855063 -0.26249927
0.17677125 -0.44762284 -0.40015346 -0.29824966 0.29784787 0.26658747 -0.31077328 0.078728594
0.22170585 -0.16316742 0.059337292 0.17103763 0.3845072 0.48402905 -0.5087336 -0.2768575
0.27954406 0.5360934 0.55917084 0.49782336 0.09656551 -0.4916331 0.053111892 -0.36119342
-0.53806394 0.39749885 0.32786185 -0.6898688 0.10806383 -0.09726043 -0.095009424 -0.26428604
0.2220236 -0.3419666 0.23440123 0.32289737 0.4414313 0.2158777 -0.5714239 -0.3745253
00000000: 6bb0 eb3c 231f af3e c4a8 e0be c98b d9be
00000010: b1b4 63be 5389 1e3e 406b 3bbc 7a61 ea3e
00000020: 42dd 51bd d270 1c3e 9eab 32be ea6b e8bd
00000030: 28dd 02bf 378e 96be be88 1ebe 0408 9bbd
00000040: 85ea 083e af1f 7c3e d266 c8be 69b9 80be
00000050: 83bc 563e f2a5 083f f8d4 7ebd d49d f83e
00000060: da95 bebd 653b 7a3d b5d4 053f 791c 09bf
00000070: f017 babe 48ac 15be cc73 66be ca66 ff3e
00000080: a49a bfbe 7013 88be 3c85 cebe df6c 0abf
00000090: ec74 a6be 10b3 023f c1e1 943e 616a 783e
000000a0: 096c 52bc aa54 afbe d50b c83d 6b00 0abf
000000b0: ce97 d5be a847 bebe 1447 963e 5610 893e
000000c0: 3f19 83be 3da8 aabc 680e bd3e 314b ea3e
000000d0: 3376 ea3d 33da 05bd 26c7 ea3e 4e66 86be
000000e0: 8603 353e d22e e5be eae0 ccbe 2eb4 98be
000000f0: 847f 983e 277e 883e ad1d 9fbe 753c a13d
00000100: dc06 633e 5c15 27be a90b 733d 7d24 2f3e
00000110: 21de c43e a8d2 f73e 5d3c 02bf 44c0 8dbe
00000120: 6620 8f3e 6b3d 093f d225 0f3f b4e2 fe3e
00000130: 23c4 c53d 55b7 fbbe db8b 593d 58ee b8be
00000140: 8fbe 09bf f884 cb3e 82dd a73e 3e9b 30bf
00000150: 9250 dd3d 7a30 c7bd 4d94 c2bd 8050 87be
00000160: 285a 633e 3f16 afbe e006 703e ce52 a53e
00000170: 4903 e23e 0b0f 5d3e d648 12bf c8c1 bfbe

phi.phi.0.bias f4 [32]
0.32136557 0.12084019 -0.4503817 -0.33244953 0.6012929 0.29216075 -0.25173923 -0.090307854
-0.5499828 -0.010377374 -0.43477875 -0.445343 -0.017550755 0.04638495 -0.23644242 0.26955953
-0.3513402 0.4082281 0.46958807 -0.48686963 -0.10819869 -0.06907801 0.12105078 0.06871029
0.2812318 0.022558477 -0.2817058 0.15900901 -0.5538226 -0.34219936 -0.11846144 -0.281235
00000000: 078a a43e 107b f73d 6e98 e6be d336 aabe
00000010: 55ee 193f 1896 953e f7e3 80be 53f3 b8bd
00000020: accb 0cbf dc05 2abc 529b debe ff03 e4be
00000030: 9ac6 8fbc 25fe 3d3d f61d 72be b503 8a3e
00000040: dde2 b3be 4603 d13e d96d f03e fa46 f9be
00000050: 4697 ddbd c678 8dbd 79e9 f73d fbb7 8c3d
00000060: 9dfd 8f3e 8ecc b83c be3b 90be 42d3 223e
00000070: 51c7 0dbf c134 afbe e99b f2bd 09fe 8fbe

phi.phi.2.weight f4 [32, 32]
-0.061842386 -0.14489001 -0.03760308 0.037787158 -0.11516397 -0.009072067 0.12654574 -0.018172689
0.0049130158 -0.015250331 0.03577631 0.1124016 0.16745105 0.11226308 0.16783418 -0.012784783
-0.1588023 -0.08380581 0.120368175 -0.0011459517 -0.08786621 -0.13546605 -0.16543683 -0.14920098
-0.03585681 0.0969454 0.09557274 -0.17048907 0.11027013 -0.13832943 -0.03737241 -0.07167811
0.04916545 -0.034708813 -0.15863055 -0.1526357 0.038658213 0.08062206 -0.08030521 0.1390251
-0.15910934 -0.011930171 0.15546086 -0.072105795 0.24273314 0.13161224 -0.15953405 0.19461326
-0.020399053 0.0033457903 0.21790577 -0.1428524 0.11614582 0.047023803 0.20087387 0.12337754
0.16587543 0.13749856 -0.042510323 0.042654626 -0.14567839 0.09578542 0.22485845 0.120955005
-0.18474545 0.007884221 -0.12461592 -0.09731277 -0.16304728 0.00036013947 -0.10534356 -0.06390033
0.007436664 0.11395433 -0.13362905 -0.12135936 -0.16261546 0.06368311 -0.06354503 0.089058094
0.06392378 -0.037669055 -0.061368234 -0.03494549 -0.037846953 -0.10041496 -0.061289534 -0.037494335
-0.19832826 -0.15270464 0.1427459 -0.20351546 -0.012693661 0.17487435 0.0038150328 0.005005086
-0.15319644 0.08757126 -0.12591463 -0.050180584 -0.05931147 -0.026178397 0.0019336342 0.14580674
0.022068596 0.15833761 0.108136505 -0.11176069 0.07928507 -0.12496275 -0.074922405 0.051994037
0.058370266 0.13262284 -0.05690722 0.000282995 0.091008805 -0.17095935 0.12780613 -0.14618061
0.002436425 -0.030055001 -0.093103506 0.023364758 0.14617996 -0.051675282 -0.10495128 -0.06537888
-0.17521192 0.079795934 -0.08489943 -0.117970206 -0.1018413 0.10163883 0.093616284 0.13567998
0.06412099 -0.059036292 -0.04939992 0.052225128 0.14531657 0.048064202 -0.083641075 -0.083098724
-0.1671369 0.03819225 -0.09920399 -0.15760982 0.15501133 -0.114800766 -0.02011039 0.05064538
0.005631809 -0.11894981 -0.14289244 0.14090559 0.028786086 0.14665829 -0.059262726 0.052070532
-0.081820816 -0.0078614615 -0.107664816 0.05978604 0.0064616175 -0.04653259 -0.03975746 -0.15220898
0.122249 -0.13159683 0.07241931 -0.059441786 -0.124106266 -0.010610404 -0.091827884 -0.0024608017
0.03471556 -0.1737889 -0.013397337 0.07529435 0.031074202 -0.06450949 -0.18655469 -0.07033029
0.018884776 -0.10486917 0.06710109 0.07558644 -0.09230423 0.0017433411 0.031212432 0.013855376
-0.0530485 0.022073295 -0.1389726 0.0138925705 0.060687706 0.084297664 0.10390066 -0.044053223
0.082557224 -0.08599826 -0.1464928 -0.152014 0.106780976 0.034012426 -0.122194014 -0.0025189314
0.13349603 0.10549497 0.08396263 0.13695842 -0.09008135 -0.13469562 0.07365282 0.02394063
-0.17537448 0.0844842 0.085411176 0.022698939 -0.11079945 0.050717197 -0.122445725 0.13812563
-0.11273008 0.06882138 0.031399403 0.07521286 -0.13787289 0.005828259 -0.12347338 -0.042985562
-0.119605675 -0.17439684 -0.14196154 0.13955991 0.013398626 0.085526325 0.14161956 -0.23738739
-0.120637916 -0.109310344 -0.19632594 0.12275311 -0.21582913 -0.1659926 -0.25241277 -0.18159886
0.06440845 0.06321872 0.12654342 0.055962145 0.15718745 -0.04526597 -0.0041659097 0.15749574
00000000: 714e 7dbd 0c5e 14be b005 1abd b5c6 1a3d
00000010: 16db ebbd 02a3 14bc 3595 013e e4de 94bc
00000020: 5dfd a03b 86dc 79bc 2e8a 123d cf32 e63d
00000030: 4a78 2b3e 30ea e53d b9dc 2b3e 4477 51bc
00000040: 129d 22be 61a2 abbd 9783 f63d c233 96ba
00000050: 33f3 b3bd 9db7 0abe 4668 29be 24c8 18be
00000060: 97de 12bd 4f8b c63d a4bb c33d b094 2ebe
00000070: 4ed5 e13d 3ba6 0dbe d013 19bd f9cb 92bd
00000080: b661 493d d42a 0ebd 0c70 22be 884c 1cbe
00000090: 1358 1e3d 2e1d a53d 0f77 a4bd 995c 0e3e
000000a0: 8fed 22be c476 43bc 2231 1f3e 34ac 93bd
000000b0: 098f 783e 5cc5 063e e55c 23be b348 473e
000000c0: ea1b a7bc 0c45 5b3b b122 5f3e e647 12be
000000d0: dcdd ed3d 089c 403d e1b1 4d3e 5dad fc3d
000000e0: 40db 293e 6ccc 0c3e 4e1f 2ebd 9eb6 2e3d
000000f0: b72c 15be 252b c43d 4b41 663e 42b7 f73d
00000100: e92d 3dbe d22c 013c a236 ffbd eb4b c7bd
00000110: def5 26be 1ad1 bc39 5dbe d7bd 2dde 82bd
00000120: 42af f33b e360 e93d 0ed6 08be 428b f8bd
00000130: ab84 26be 4a6c 823d e623 82bd 1764 b63d
00000140: 79ea 823d de4a 1abd 425d 7bbd 0123 0fbd
00000150: 6805 1bbd 5ca6 cdbd bc0a 7bbd a993 19bd
00000160: 9016 4bbe 9b5e 1cbe fb2b 123e 5b66 50be
00000170: 13f9 4fbc 4312 333e a105 7a3b b401 a43b
00000180: 87df 1cbe 9058 b33d c4ef 00be 288a 4dbd
00000190: 95f0 72bd 1474 d6bc ff71 fd3a 5d4e 153e
000001a0: 33c9 b43c 4123 223e ac76 dd3d cae2 e4bd
000001b0: 3660 a23d 78ec ffbd eb70 99bd b3f7 543d
000001c0: a915 6f3d 48ce 073e 8c17 69bd f25e 9439
000001d0: d362 ba3d f80f 2fbe 9cdf 023e 5fb0 15be
000001e0: 6eac 1f3b e835 f6bc 0dad bebd 7367 bf3c
000001f0: 33b0 153e 76a9 53bd b2f0 d6bd 5de5 85bd
00000200: c16a 33be 0d6c a33d c1df adbd 5d9a f1bd
00000210: 2c92 d0bd 0528 d03d e5b9 bf3d b1ef 0a3e
00000220: de51 833d 0ad0 71bd 9257 4abd 04ea 553d
00000230: decd 143e f8de 443d 034c abbd aa2f aabd
00000240: ef25 2bbe 7a6f 1c3d 762b cbbd 7864 21be
00000250: 4abb 1e3e aa1c ebbd 8bbe a4bc 8871 4f3d
00000260: 0a8b b83b f59b f3bd 6552 12be 8e49 103e
00000270: ccd0 eb3c 972d 163e 79bd 72bd e947 553d
00000280: ac91 a7bd 5ccd 00bc 5f7f dcbd 35e2 743d
00000290: fabb d33b f598 3ebd b8d8 22bd acdc 1bbe
000002a0: af5d fa3d 52c1 06be 9350 943d 3b79 73bd
000002b0: 6d2b febd 43d7 2dbc 4210 bcbd 6745 21bb
000002c0: e731 0e3d b8f5 31be 8180 5bbc ed33 9a3d
000002d0: 538f fe3c 8d1d 84bd 3108 3fbe 5409 90bd
000002e0: 3fb4 9a3c a6c5 d6bd 4c6c 893d 10cd 9a3d
000002f0: 000a bdbd d280 e43a 37b1 ff3c a901 633c
00000300: 6249 59bd 0ed3 b43c d54e 0ebe aa9d 633c
00000310: ac93 783d 41a4 ac3d dfc9 d43d 2771 34bd
00000320: c313 a93d db1f b0bd 3502 16be 8fa9 1bbe
00000330: fcaf da3d 9d50 0b3d db40 fabd a814 25bb
00000340: 2fb3 083e bf0d d83d 99f4 ab3d d43e 0c3e
00000350: 927c b8bd a6ed 09be 4ad7 963d 241f c43c
00000360: 5e95 33be 0d06 ad3d 0eec ae3d 20f3 b93c
00000370: d2ea e2bd d6bc 4f3d d3c4 fabd ce70 0d3e
00000380: 07df e6bd 39f2 8c3d a99c 003d 3309 9a3d
00000390: 8d2e 0dbe fbfa be3b 9ddf fcbd a111 30bd
000003a0: d2f3 f4bd 1695 32be 5e5e 11be cbe8 0e3e
000003b0: e985 5b3c 6d28 af3d b804 113e ae15 73be
000003c0: 0311 f7bd 1ade dfbd ab09 49be fc65 fb3d
000003d0: 5002 5dbe f7f9 29be 3f3c 81be 0df5 39be
000003e0: 94e8 833d d178 813d 9994 013e 9038 653d
000003f0: bff5 203e cf68 39bd 2f82 88bb 9046 213e

phi.phi.2.bias f4 [32]
-0.1485926 0.08476579 0.079244345 -0.15139078 -0.07885296 0.11270946 -0.09971599 -0.0075904103
-0.17005886 -0.055592895 -0.14986578 0.06158322 0.018893886 -0.18904048 -0.05436975 0.12252232
-0.020704202 -0.100953035 -0.118712395 0.05432055 -0.12672278 -0.117420405 -0.05453899 -0.0060851877
0.03018379 0.0053047286 -0.04255468 -0.15154229 -0.10752277 -0.024204023 0.082778744 -0.17207612
00000000: a928 18be b099 ad3d dc4a a23d 2f06 1bbe
00000010: a97d a1bd 38d4 e63d e637 ccbd fab8 f8bb
00000020: e923 2ebe 60b5 63bd 6a76 19be b03e 7c3d
00000030: 5ac7 9a3c d493 41be d1b2 5ebd fbec fa3d
00000040: dc9b a9bc 77c0 cebd 7c1f f3bd 3a7f 5e3d
00000050: 9ec3 01be 1c7a f0bd 4764 5fbd 4166 c7bb
00000060: ff43 f73c 4ad3 ad3b d14d 2ebd e72d 1bbe
00000070: e634 dcbd 8447 c6bc e787 a93d b934 30be

phi.phi.4.weight f4 [32, 32]
-0.1127586 -0.14382377 -0.03230714 0.13775738 0.1549517 -0.15389389 -0.007659178 0.103761934
0.07792272 0.14479847 -0.0049034697 -0.11877498 0.11694317 -0.060619306 0.09153252 -0.043564226
0.075146735 0.15899755 0.16437678 -0.16087829 -0.1169343 -0.0730913 -0.11273068 0.16961725
-0.015612709 -0.11726315 -0.07866376 -0.097645186 0.07212301 -0.15419367 -0.16482714 -0.1742596
0.07610663 0.08740805 -0.10979231 0.043836832 0.13049385 0.025685892 -0.037402693 0.013060676
-0.018955356 0.089006916 -0.120033376 0.0896439 0.099635504 -0.10710452 0.14434941 0.17362738
-0.06969044 -0.04951416 0.08809764 -0.13849047 0.069907755 0.04124284 0.111427605 -0.15354943
-0.14686339 0.079395555 0.06367687 -0.16453777 -0.0985812 -0.16174687 -0.12664688 -0.07976158
0.14628951 -0.11754266 0.041505955 0.16788146 0.08056284 -0.2258305 0.0135073885 -0.0040048524
0.13701352 -0.17437857 0.042137872 0.07021508 -0.1644668 -0.041515008 0.07767118 -0.1902285
-0.023524666 0.078113616 -0.013462939 0.10063285 0.14474115 0.066023715 -0.022034645 0.06370544
-0.2386271 -0.09539389 -0.0378092 -0.052512717 0.09756939 -0.00052804727 0.053775452 0.120245166
-0.13205282 -0.020474454 0.025813743 0.045978293 0.09090435 -0.07034064 -0.053304255 0.14791636
-0.047444094 -0.1227964 0.11986163 0.11970531 -0.055431325 -0.035341207 -0.13043998 -0.1476251
0.06647679 -0.07551769 0.14073113 -0.14154743 -0.024434973 0.0038169238 0.09085387 0.1430708
0.11971397 0.0778164 -0.08113941 -0.12624466 -0.1581467 0.008768947 0.17145222 -0.033577405
-0.0074420376 -0.21086216 -0.005727759 0.11207348 -0.17428695 -0.1901123 0.05835792 -0.026497196
-0.0110213375 0.031600293 -0.09164646 -0.19523083 -0.16518542 0.056288317 -0.09084893 -0.17052187
-0.12642932 -0.09641808 -0.11192149 -0.22400227 0.13228971 -0.017271925 -0.08915228 -0.14522825
0.0069671706 -0.06546137 0.046614897 0.04867396 -0.17542273 -0.041757237 -0.049204245 0.15439391
-0.06396134 -0.04544372 0.15231091 -0.14435627 0.012771844 0.17032474 -0.079261005 0.16947266
0.15686114 0.16446237 -0.01686858 0.15991808 -0.077025026 -0.060511578 0.06686271 0.037343584
0.09745268 0.1679943 -0.11066028 0.0938201 0.05914322 0.09326174 0.08382262 -0.066126846
-0.13971652 0.14148937 -0.100804366 0.11301814 -0.16840518 -0.030582786 0.0018736381 0.030586537
0.014289214 0.04983719 -0.07965736 0.04329339 0.17493545 -0.183359 -0.07369863 -0.14186656
0.15510911 0.1513279 -0.073507495 -0.12661006 -0.10956152 0.066557325 -0.08795974 0.21614122
0.086385526 0.15473345 0.08047936 -0.1804922 0.051742926 -0.057848204 0.088698275 -0.04889724
-0.019021241 -0.12226032 -0.15798986 0.12494618 -0.026143763 0.022609418 0.060064115 -0.073817424
0.062752336 -0.18513522 -0.023378698 -0.04035786 0.12380143 0.0863412 0.075977944 -0.06401541
0.104243994 -0.17662437 -0.1705184 -0.044943385 0.0009858779 -0.19877051 -0.15250652 -0.18007608
-0.261387 0.016859328 0.060883515 -0.005377534 -0.08399243 -0.25458062 -0.14261937 -0.0859616
0.044520807 -0.07158971 -0.09619215 -0.09430267 -0.08114658 -0.25853777 -0.21601988 0.17401731
00000000: fbed e6bd 8a46 13be 7e54 04bd 4510 0d3e
00000010: a9ab 1e3e 5c96 1dbe d8f9 fabb 2381 d43d
00000020: f295 9f3d 0d46 143e 49ad a0bb 4c40 f3bd
00000030: e77f ef3d f34b 78bd 6775 bb3d 6770 32bd
00000040: 88e6 993d 41d0 223e 6352 283e 47bd 24be
00000050: 407b efbd e4b0 95bd 58df e6bd 25b0 2d3e
00000060: 73cc 7fbc aa27 f0bd 771a a1bd 33fa c7bd
00000070: 3bb5 933d f2e4 1dbe 72c8 28be 1c71 32be
00000080: cbdd 9b3d fe02 b33d cada e0bd 408e 333d
00000090: 2ea0 053e 386b d23c 9133 19bd 72fc 553c
000000a0: 4348 9bbc 4249 b63d 0fd4 f5bd 3997 b73d
000000b0: b30d cc3d 9d59 dbbd 55d0 133e 60cb 313e
000000c0: ddb9 8ebd 5ccf 4abd 896c b43d 72d0 0dbe
000000d0: cc2b 8f3d 41ee 283d 2834 e43d 103c 1dbe
000000e0: 5b63 16be 239a a23d 0569 823d 977c 28be
000000f0: f1e4 c9bd f9a0 25be b8af 01be 0a5a a3bd
00000100: ebcc 153e 35ba f0bd 2602 2a3d 1ee9 2b3e
00000110: 21fe a43d 1c40 67be 184e 5d3c 233b 83bb
00000120: 464d 0c3e 4c90 32be c398 2c3d edcc 8f3d
00000130: fc69 28be a40b 2abd 1112 9f3d 43cb 42be
00000140: cdb6 c0bc 08fa 9f3d a993 5cbc 9818 ce3d
00000150: 0637 143e 7137 873d 0082 b4bc ff77 823d
00000160: aa5a 74be df5d c3bd d2dd 1abd 9317 57bd
00000170: 76d2 c73d a76c 0aba a643 5c3d 1943 f63d
00000180: db38 07be 0bba a7bc 5877 d33c bc53 3c3d
00000190: 0f2c ba3d c10e 90bd 9055 5abd 6377 173e
000001a0: bd54 42bd ae7c fbbd 047a f53d 0f28 f53d
000001b0: f50b 63bd f1c1 10bd 0f92 05be 092b 17be
000001c0: fc24 883d 05a9 9abd d21b 103e cff1 10be
000001d0: da2b c8bc 5b25 7a3b 9811 ba3d 2781 123e
000001e0: 992c f53d 345e 9f3d 6b2c a6bd 4846 01be
000001f0: 35f1 21be a1ab 0f3c 2c91 2f3e 7688 09bd
00000200: 56dc f3bb 40ec 57be edaf bbbb c886 e53d
00000210: 4778 32be ccac 42be b708 6f3d a610 d9bc
00000220: d792 34bc 4f6f 013d 24b1 bbbd 97ea 47be
00000230: 5e26 29be 948e 663d 010f babd 499d 2ebe
00000240: b076 01be d876 c5bd 1837 e5bd da60 65be
00000250: f476 073e da7d 8dbc 7895 b6bd b7b6 14be
00000260: dd4c e43b 9c10 86bd 43ef 3e3d 595e 473d
00000270: 04a2 33be a309 2bbd 648a 49bd 7019 1e3e
00000280: 2afe 82bd 3223 3abd 64f7 1b3e 21d2 13be
00000290: ff40 513c 9c69 2e3e 9853 a2bd 3e8a 2d3e
000002a0: 35a0 203e d368 283e fa2f 8abc 91c1 233e
000002b0: 4cbf 9dbd fdda 77bd 51ef 883d 96f5 183d
000002c0: 4595 c73d b306 2c3e dba1 e2bd c124 c03d
000002d0: 2940 723d 0300 bf3d 32ab ab3d 836d 87bd
000002e0: d911 0fbe 97e2 103e 8572 cebd 0e76 e73d
000002f0: 6872 2cbe c088 fabc dd94 f53a 9e90 fa3c
00000300: 4f1d 6a3c 1522 4c3d 6623 a3bd 6954 313d
00000310: 4722 333e 76c2 3bbe 4fef 96bd 7845 11be
00000320: ecd4 1e3e b3f5 1a3e 198b 96bd 11a6 01be
00000330: ca61 e0bd 354f 883d 3c24 b4bd 2054 5d3e
00000340: e5ea b03d 7272 1e3e 5dd2 a43d f3d2 38be
00000350: 64f0 533d 3df2 6cbd 71a7 b53d 7948 48bd
00000360: 6fd2 9bbc 9e63 fabd 18c8 21be c8e3 ff3d
00000370: 722b d6bc 6337 b93c ca05 763d 972d 97bd
00000380: 4c84 803d 1694 3dbe af84 bfbc 494e 25bd
00000390: 9b8b fd3d a8d3 b03d 539a 9b3d 831a 83bd
000003a0: e07d d53d 05dd 34be 609c 2ebe 8e16 38bd
000003b0: 9338 813a 7f8a 4bbe ab2a 1cbe dd65 38be
000003c0: 84d4 85be 931c 8a3c fe60 793d 0636 b0bb
000003d0: 3904 acbd 6458 82be d00a 12be a30c b0bd
000003e0: 735b 363d a09d 92bd 6400 c5bd c221 c1bd
000003f0: 2e30 a6bd 105f 84be 5134 5dbe 9831 323e

phi.phi.4.bias f4 [32]
-0.11037178 -0.15207662 -0.059906866 -0.085711725 0.052622445 -0.13896589 0.10683349 0.026134117
0.07690736 -0.12050404 -0.108356155 -0.16684812 0.22298855 -0.01769512 -0.021766065 -0.027247747
0.11182814 -0.14505929 0.09985868 -0.18722993 0.11290484 -0.13669516 -0.07891704 -0.024298396
0.07114495 -0.11340457 -0.20589916 0.204008 0.20676132 0.1274182 0.22899972 0.033522636
00000000: 9a0a e2bd f9b9 1bbe e760 75bd a189 afbd
00000010: a28a 573d 134d 0ebe 84cb da3d 3717 d63c
00000020: 9b81 9d3d d2ca f6bd d5e9 ddbd 3cda 2abe
00000030: 1c57 643e 5bf5 90bc bf4e b2bc ab36 dfbc
00000040: 2706 e53d 6c8a 14be b582 cc3d 34b9 3fbe
00000050: a73a e73d d1f9 0bbe 429f a1bd 6e0d c7bc
00000060: 72b4 913d a840 e8bd 3bd7 52be 79e7 503e
00000070: 3db9 533e eb79 023e e77e 6a3e 084f 093d

phi.phi.6.weight f4 [7, 32]
-0.0138521725 -0.1408018 -0.07866195 -0.12171021 0.028517406 0.1029383 0.006825316 0.06255298
0.06948362 -0.048099805 -0.0047853743 0.13587937 0.22253561 0.18354702 -0.017434845 0.0031351354
0.17525978 -0.058800627 0.0067482055 0.12412984 0.08166499 -0.05889252 0.14895296 0.029340908
0.10436736 -0.03168825 -0.03920153 0.18275772 0.07823386 -0.0050933473 0.22411944 0.12350934
0.050347 0.041807145 -0.056152992 0.10137556 -0.09869887 -0.10405867 0.0074475356 -0.012891458
0.0072527425 -0.0796889 -0.023459041 -0.014050031 -0.013441462 -0.195636 -0.16476639 0.06614912
-0.15684018 -0.014870946 -0.0110471565 0.02479459 0.05390691 -0.03688186 0.04376554 -0.015823444
-0.033915196 0.06481972 0.12059962 -0.22755188 -0.13369332 -0.2186833 -0.13053459 0.047705296
-0.16749625 -0.15839513 0.0423093 -0.10439319 0.06916611 0.055081695 -0.015664553 0.080386184
-0.22379524 0.069414794 0.05732827 -0.11845976 -0.017030722 -0.04926758 -0.07095645 -0.019145522
-0.1433821 0.15458003 0.09210451 -0.018858122 -0.2168016 -0.07085356 0.011679714 0.11816126
0.0056876326 0.051450152 0.046905078 -0.160339 -0.16970077 -0.21804729 -0.061437473 -0.005278723
-0.012569665 0.17159115 -0.093776256 -0.11535156 -0.03058861 -0.049782276 -0.08428644 0.11123407
-0.065126024 0.094370246 0.023607735 -0.065764785 0.06955279 -0.16049942 0.005848992 0.039734803
0.019290913 -0.1631047 -0.051381852 -0.04577097 0.05456363 -0.00057716324 0.07085157 0.10628872
-0.09946639 -0.011325996 0.14181975 -0.20253102 -0.18224537 -0.04712204 -0.13008012 -0.049927607
0.15615746 -0.020492598 -0.15072592 -0.08035872 0.16234584 -0.03883596 -0.14652582 0.07957188
0.021884287 -0.1558604 0.14721727 0.099547334 0.0846632 0.008321899 -0.059600953 -0.057708263
0.016695378 -0.034268845 -0.03432017 -0.17129453 -0.15543996 0.06566327 -0.008714894 -0.08498552
-0.15419656 0.043162912 -0.03554252 -0.24276356 0.101849325 0.017136004 -0.17459391 -0.19679087
0.17082158 0.00073809666 -0.024185067 0.10172557 0.04885872 0.012109738 -0.13741039 -0.063975975
-0.030395253 0.065142415 -0.12797707 0.17423266 -0.0538724 -0.1461122 0.06986571 -0.15672469
-0.14842844 0.06639751 -0.15720564 0.08810603 -0.02176964 -0.084665015 -0.17543888 0.055870388
0.033581242 -0.1325098 -0.15631574 -0.15285477 -0.016411532 -0.03536987 0.011506301 -0.0055701667
-0.009265984 0.09328975 0.1057837 0.14722206 0.09612872 -0.05966272 -0.12850568 -0.08255923
-0.01166138 0.009192533 -0.015757188 -0.1141847 -0.20982964 0.08045572 -0.04752744 -0.023894692
-0.18109354 -0.08763879 -0.028005961 0.07445595 -0.13491565 -0.12524222 0.14003529 -0.09104294
-0.22491556 -0.027579928 0.16821083 -0.037022848 -0.045704886 -0.0933803 0.040337715 -0.15374823
00000000: 39f4 62bc 592e 10be 8419 a1bd 3443 f9bd
00000010: 569d e93c 51d1 d23d e7a6 df3b c71b 803d
00000020: 6e4d 8e3d 4d04 45bd a1ce 9cbb f623 0b3e
00000030: 60e0 633e c0f3 3b3e 85d3 8ebc d876 4d3b
00000040: 4d77 333e edd8 70bd 0d20 dd3b c937 fe3d
00000050: f93f a73d 4839 71bd 2087 183e 585c f03c
00000060: 8ebe d53d 8acb 01bd c991 20bd d724 3b3e
00000070: 1339 a03d 18e6 a6bb 917f 653e 77f2 fc3d
00000080: a838 4e3d f83d 2b3d ae00 66bd fd9d cf3d
00000090: a222 cabd b61c d5bd 750a f43b b236 53bc
000000a0: 6aa8 ed3b ef33 a3bd 2d2d c0bc 1a32 66bc
000000b0: 9439 5cbc ce54 48be 85b8 28be 3179 873d
000000c0: b69a 20be 45a5 73bc 22ff 34bc 061e cb3c
000000d0: 7ecd 5c3d 6f11 17bd 7f43 333d 2ba0 81bc
000000e0: a9ea 0abd 34c0 843d effc f63d 5c03 69be
000000f0: e7e6 08be 84ee 5fbe dcaa 05be a166 433d
00000100: 2384 2bbe 5532 22be 844c 2d3d 19cc d5bd
00000110: f6a6 8d3d 589d 613d f352 80bc 83a1 a43d
00000120: 942a 65be 5829 8e3d 0cd1 6a3d 089b f2bd
00000130: 0384 8bbc cdcc 49bd 9e51 91bd 12d7 9cbc
00000140: c2d2 12be 3a4a 1e3e 4aa1 bc3d 597c 9abc
00000150: 3d01 5ebe ac1b 91bd 455c 3f3c 88fe f13d
00000160: 525f ba3b 65bd 523d 8a1f 403d e82f 24be
00000170: 0ac6 2dbe ca47 5fbe dca5 7bbd 23f9 acbb
00000180: fff0 4dbc 97b5 2f3e c40d c0bd 703d ecbd
00000190: f794 fabc 80e8 4bbd 5e9e acbd b0ce e33d
000001a0: cb60 85bd 3045 c13d 0265 c13c b0af 86bd
000001b0: b171 8e3d f659 24be e7a8 bf3b f6c0 223d
000001c0: fa07 9e3c eb04 27be c775 52bd 577a 3bbd
000001d0: 1d7e 5f3d c54c 17ba a11a 913d e7ad d93d
000001e0: 09b5 cbbd ac90 39bc 3239 113e 4b64 4fbe
000001f0: 889e 3abe 0a03 41bd b933 05be e480 4cbd
00000200: bee7 1f3e 18e0 a7bc e557 1abe 1d93 a4bd
00000210: fd3d 263e 7512 1fbd dd0a 16be 95f6 a23d
00000220: ad46 b33c de99 1fbe 20c0 163e 79df cb3d
00000230: e663 ad3d 9358 083c 2120 74bd 805f 6cbd
00000240: bfc4 883c 7d5d 0cbd 4e93 0cbd d567 2fbe
00000250: a72b 1fbe 777a 863d eac8 0ebc e30c aebd
00000260: b4e5 1dbe 98cb 303d 0995 11bd 0397 78be
00000270: 6196 d03d ce60 8c3c bfc8 32be 8c83 49be
00000280: daeb 2e3e d47c 413a c31f c6bc 7f55 d03d
00000290: 1520 483d ec67 463c 4fb5 0cbe d605 83bd
000002a0: 77ff f8bc 6369 853d 6c0c 03be 0c6a 323e
000002b0: 4ea9 5cbd 709e 15be c115 8f3d 707c 20be
000002c0: a0fd 17be 6bfb 873d 84fa 20be ef70 b43d
000002d0: 3e56 b2bc da64 adbd 40a6 33be 59d8 643d
000002e0: 7c8c 093d a6b0 07be 3c11 20be f685 1cbe
000002f0: 7a71 86bc ffdf 10bd ed84 3c3c f285 b6bb
00000300: 5bd0 17bc b20e bf3d 20a5 d83d 61c1 163e
00000310: 22df c43d e560 74bd fe96 03be d014 a9bd
00000320: 5f0f 3fbc 479c 163c 3815 81bc abd9 e9bd
00000330: 95dd 56be f8c5 a43d 22ac 42bd cdbe c3bc
00000340: 9670 39be f77b b3bd c26c e5bc 5c7c 983d
00000350: 5427 0abe 7f3f 00be 6965 0f3e b974 babd
00000360: 4450 66be 4def e1bc 763f 2c3e 45a5 17bd
00000370: 0c35 3bbd 2c3e bfbd 2939 253d 2d70 1dbe

phi.phi.6.bias f4 [7]
0.21499887 -0.018292567 -0.040399108 -0.035718612 -0.17788245 0.10833359 0.023968145
00000000: aa28 5c3e 4bda 95bc 8979 25bd ae4d 12bd
00000010: d126 36be 00de dd3d d858 c43c

rho.rho.0.weight f4 [28, 7]
-0.29561263 -0.35191578 -0.09729906 0.25110152 -0.18608385 0.35031143 -0.19003138 -0.3414162
0.16626185 -0.22842056 -0.059581682 -0.117888615 -0.03003275 -0.32934806 -0.4314427 0.102431715
-0.101458855 -0.28805318 -0.009628519 -0.4211873 0.023501346 0.04730335 0.30652696 -0.3639514
-0.105881765 0.13156267 0.25109172 -0.3179292 0.107100114 0.15604796 0.22786374 -0.26057482
0.34871858 -0.21146648 -0.23265554 0.020837158 0.26018742 -0.3026865 0.141752 0.030407224
0.034722824 0.29062715 0.06325269 -0.2537293 -0.05612205 0.13506995 -0.24847652 0.013134418
-0.12681387 -0.075130716 0.13521339 -0.30419326 -0.24265863 0.1723912 -0.3738222 0.26011074
-0.38611618 -0.06612122 0.020682722 0.08909007 -0.23459034 -0.03684004 0.07926163 0.12554951
-0.3444686 -0.24430265 0.050055925 -0.08766976 -0.3568607 -0.3760125 -0.30980128 -0.204433
-0.10219486 -0.20240462 -0.33156824 0.04017999 0.3001528 -0.23825823 -0.022237666 -0.06126378
0.1166217 -0.26212093 -0.04209532 0.29273653 0.2613823 -0.31455922 0.00197374 0.06357715
-0.050943606 -0.30596784 -0.18237635 0.25114504 -0.122364655 -0.024323594 0.110906415 -0.23199087
0.033688664 0.22481799 -0.22099136 0.10996396 -0.012909786 0.20781843 0.25114992 0.100276105
0.011420476 -0.3253634 0.15048817 0.23043208 -0.13728628 -0.375297 0.3062891 -0.08871888
-0.053172566 -0.16629162 0.18300556 0.30856806 0.3101741 -0.27368763 0.1919725 0.1844209
0.036875043 -0.3044431 -0.16229536 -0.373953 0.25279534 0.3736144 0.12709258 0.18077317
0.14228807 0.4238918 -0.12930241 -0.22426498 -0.28681326 -0.037427396 0.025926672 0.103464015
-0.2629439 -0.04373779 -0.3114431 -0.3074513 -0.0022877639 -0.36895087 0.10064368 -0.34818035
-0.31114805 -0.12996434 -0.36068442 0.25626895 0.3696602 -0.14828597 0.13921764 0.26492772
0.06182157 0.0393673 -0.35650033 0.27483267 -0.3315114 -0.06999892 0.023445705 -0.12447958
-0.13824229 -0.32240328 0.080856346 0.013332937 0.38956127 -0.050571233 0.2289468 0.10122324
-0.23322512 -0.1499102 -0.0980772 -0.056134846 -0.06227063 0.040796775 0.2498924 0.05940979
0.13690355 0.23340075 0.081470944 0.17423056 0.19826151 0.35377973 -0.41660196 0.18928039
0.029243832 -0.007841735 -0.1457212 0.1561857 0.42816857 -0.42833486 0.14418098 0.20508987
0.006008024 0.050028436 0.18719025 -0.030412618
00000000: 8a5a 97be 4e2e b4be bb44 c7bd 6190 803e
00000010: c48c 3ebe 055c b33e 9697 42be 1bce aebe
00000020: 8c40 2a3e 14e7 69be ec0b 74bd 966f f1bd
00000030: 3e07 f6bc 4fa0 a8be 0fe6 dcbe b8c7 d13d
00000040: a9c9 cfbd b57b 93be f0c0 1dbc dda5 d7be
00000050: e585 c03c 28c1 413d 1af1 9c3e d757 babe
00000060: 8ad8 d8bd 5db8 063e 188f 803e 9ec7 a2be
00000070: 4e57 db3d 09cb 1f3e 1d55 693e 106a 85be
00000080: 3e8b b23e ab8a 58be 413d 6ebe b0b2 aa3c
00000090: 4937 853e baf9 9abe 7027 113e 9218 f93c
000000a0: 8539 0e3d 15cd 943e a08a 813d cfe8 81be
000000b0: 3ce0 65bd c74f 0a3e a170 7ebe be31 573c
000000c0: 7fdb 01be 22de 99bd 6175 0a3e 38bf 9bbe
000000d0: 817b 78be 5287 303e a065 bfbe 3c2d 853e
000000e0: 05b1 c5be 906a 87bd d06e a93c db74 b63d
000000f0: 7338 70be 95e5 16bd ec53 a23d 0d90 003e
00000100: 305e b0be 792a 7abe 7107 4d3d 348c b3bd
00000110: 72b6 b6be b684 c0be 469e 9ebe e256 51be
00000120: 8a4b d1bd 2843 4fbe 50c3 a9be c693 243d
00000130: a1ad 993e f7f9 73be c42b b6bc bbef 7abd
00000140: 5cd7 ee3d b734 86be 246c 2cbd 90e1 953e
00000150: e7d3 853e e80d a1be dd59 013b bd34 823d
00000160: 3eaa 50bd d1a7 9cbe dec0 3abe 1596 803e
00000170: 529a fabd 4642 c7bc e722 e33d 048f 6dbe
00000180: 20fd 093d b036 663e 8f4b 62be c934 e13d
00000190: 9183 53bc 5bce 543e b996 803e 8f5d cd3d
000001a0: f31c 3b3c 0896 a6be 9219 1a3e 63f6 6b3e
000001b0: c694 0cbe ee26 c0be edd1 9c3e 3fb2 b5bd
000001c0: 7acb 59bd 5a48 2abe cf65 3b3e a2fc 9d3e
000001d0: 24cf 9e3e c920 8cbe 7094 443e d5d8 3c3e
000001e0: 490a 173d f7df 9bbe c130 26be c576 bfbe
000001f0: 646e 813e 634a bf3e 8f24 023e 9a1c 393e
00000200: f7b3 113e 5908 d93e da67 04be b8a5 65be
00000210: 30d9 92be 784d 19bd 2c64 d43c f1e4 d33d
00000220: 95a0 86be 6626 33bd 7875 9fbe 426a 9dbe
00000230: 4fee 15bb 21e7 bcbe 461e ce3d b244 b2be
00000240: cc4e 9fbe 5f15 05be a1ab b8be af35 833e
00000250: 1a44 bd3e 47d8 17be 128f 0e3e 9ba4 873e
00000260: 9d38 7d3d 9b3f 213d 3687 b6be deb6 8c3e
00000270: ddbb a9be 985b 8fbd 3511 c03c 26ef febd
00000280: 638f 0dbe 0b12 a5be 0398 a53d 6472 5a3c
00000290: 9374 c73e c823 4fbd 0871 6a3e 214e cf3d
000002a0: 91d2 6ebe 0f82 19be b3dc c8bd a7ed 65bd
000002b0: 7d0f 7fbd 851a 273d cbe3 7f3e ae57 733d
000002c0: 7230 0c3e 9b00 6f3e 3dda a63d 7f69 323e
000002d0: 1105 4b3e 9e22 b53e da4c d5be b8d2 413e
000002e0: c390 ef3c 9f7a 00bc f037 15be 25ef 1f3e
000002f0: e938 db3e b54e dbbe 2ea4 133e 1403 523e
00000300: f5de c43b 9eea 4c3d cdae 3f3e e223 f9bc

rho.rho.0.bias f4 [28]
-0.09427354 -0.027910616 0.040675353 -0.0060918513 -0.054456558 0.06455808 0.12371567 -0.3061735
0.003923912 0.13808812 0.10035705 -0.09455424 0.31162322 -0.33022043 -0.17251678 -0.17083643
0.22329618 -0.36557546 -0.02077585 -0.36613005 -0.06398394 0.12336127 -0.088388704 0.37745333
-0.06064709 -0.19269767 0.0428755 0.07648557
00000000: 7c12 c1bd cea4 e4bc 339b 263d 279e c7bb
00000010: d70d 5fbd 0737 843d a45e fd3d c6c2 9cbe
00000020: 2994 803b f966 0d3e ff87 cd3d a7a5 c1bd
00000030: 148d 9f3e a712 a9be 3da8 30be bfef 2ebe
00000040: c1a7 643e b52c bbbe 1e32 aabc 6675 bbbe
00000050: 030a 83bd d5a4 fc3d 2305 b5bd 9041 c13e
00000060: 1569 78bd 8a52 45be 389e 2f3d 77a4 9c3d

rho.rho.2.weight f4 [28, 28]
-0.00037545894 0.16166936 -0.04874205 0.07494174 0.11219701 0.11915487 0.004954308 0.053947657
-0.071931854 -0.11280814 0.070487596 0.036364343 0.16612753 0.13722506 0.12813896 -0.08656009
-0.103691615 -0.17726512 0.061976165 -0.17028855 -0.1375244 -0.08371409 -0.15955843 -0.04665343
-0.05822159 -0.09695444 0.21465507 -0.010834778 0.15676805 0.0041930377 0.051854078 -0.08921366
-0.13438718 -0.16685474 0.106161036 -0.05823669 -0.10088981 0.17279626 0.090806805 -0.066450156
-0.15792865 -0.15870446 -0.16571005 0.17101404 0.13746576 0.015456874 -0.19150159 -0.04942863
-0.12754014 0.044552878 -0.05017849 -0.050392896 0.0022332387 0.08860459 0.09673604 0.023262097
-0.02366529 -0.018675985 -0.0033022184 -0.14072828 0.18440317 -0.08150473 0.109951146 -0.10594304
0.0012686665 0.064693786 -0.17351979 0.08668612 -0.14465547 0.026371766 -0.037475042 0.108329006
0.18367203 0.042590123 -0.0053962143 -0.09363026 0.0704594 -0.090961404 0.07806232 -0.08191011
0.12818931 0.14495617 0.115881056 0.0018930421 0.08763932 -0.17220677 0.083628275 -0.14184976
0.068894714 -0.11578629 -0.15537515 -0.088747084 0.047400016 -0.18920106 -0.11416705 0.035280507
-0.06888755 -0.15900955 -0.18791915 -0.091878064 0.09063551 -0.13437125 0.0084206555 0.13527644
-0.07833264 -0.17350322 -0.13596068 -0.056222495 -0.08707958 0.009181667 -0.002175545 -0.004432031
-0.059623335 0.012979511 0.044892058 0.004022723 0.037817273 -0.07655476 0.15490375 -0.019383963
-0.02417939 -0.16961394 -0.13698721 0.0058786157 -0.02922675 -0.09501646 0.09892286 -0.016918767
0.066462815 0.15917337 -0.08688401 -0.09301181 -0.037975445 -0.01600321 -0.09452184 -0.045371644
-0.0054472187 0.084770076 0.17483935 0.139943 0.020000927 -0.01190905 -0.019618398 -0.06436267
-0.07681086 -0.002866266 -0.21468696 -0.16071743 -0.07127621 -0.12567507 -0.17116028 -0.23597275
0.058841348 -0.0075297924 -0.10153547 -0.0769808 -0.020057077 -0.1370565 -0.03844241 -0.0023304992
0.027665421 0.010272786 -0.12347709 0.015882337 0.0821589 0.012166573 0.025712514 -0.13997124
0.0375374 0.05522031 -0.08728754 0.11668093 -0.1786822 -0.07098855 -0.11119483 -0.112186864
-0.11451405 -0.17807622 0.032432526 -0.037383847 -0.15912507 -7.772311e-05 -0.031480923 0.0779602
-0.14802715 -0.05316549 0.03889904 0.08010707 0.014296479 0.051213853 0.18891308 -0.065465726
0.12879987 0.1627871 -0.16717675 0.045713715 0.10704888 -0.0294788 0.10429899 0.006428017
0.143869 0.004069064 -0.120990664 0.14352039 0.056204125 0.1607803 0.04691358 0.100350924
0.117832586 0.031822093 -0.043931916 0.039031353 -0.13176787 0.0064562447 -0.060741626 0.011948273
-0.14962833 0.115472436 -0.17435738 0.08093001 0.12445621 -0.17320144 0.17074735 -0.14048637
-0.037109766 0.09793019 -0.059926793 0.16841814 -0.08337002 -0.025301756 -0.12353489 -0.087674394
0.18441755 0.14212665 0.01391487 0.015538584 -0.16036943 0.14267169 -0.028333813 -0.07882333
-0.15039632 0.15537764 0.08961301 0.11382946 0.019568246 -0.12823775 0.07741364 0.02179516
0.063417666 -0.047058165 -0.0891836 0.15514152 0.06334999 -0.07670018 0.016875917 -0.041080087
00000000: 3fd9 c4b9 a78c 253e bea5 47bd 0e7b 993d
00000010: 8cc7 e53d 7807 f43d bf57 a23b 38f8 5c3d
00000020: 0251 93bd f407 e7bd cd5b 903d c7f2 143d
00000030: 561d 2a3e ba84 0c3e dc36 033e 6b46 b1bd
00000040: 455c d4bd fd84 35be b8da 7d3d 1f60 2ebe
00000050: 32d3 0cbe 4b72 abbd 4963 23be ab17 3fbd
00000060: c379 6ebd 0d90 c6bd 8ace 5b3e 5a84 31bc
00000070: ce87 203e c065 893b f164 543d a7b5 b6bd
00000080: cb9c 09be f8db 2abe f56a d93d 9889 6ebd
00000090: 519f cebd 81f1 303e ebf8 b93d 0517 88bd
000000a0: 0cb8 21be 6c83 22be e5af 29be 4e1e 2f3e
000000b0: d3c3 0c3e d43e 7d3c fe18 44be ad75 4abd
000000c0: e299 02be 147d 363d f687 4dbd c868 4ebd
000000d0: 875b 123b 5376 b53d 8c1d c63d 2790 be3c
000000e0: b6dd c1bc 61fe 98bc 086a 58bb 131b 10be
000000f0: 2fd4 3c3e f4eb a6bd 112e e13d aaf8 d8bd
00000100: 6249 a63a 2d7e 843d 2caf 31be 7e88 b13d
00000110: 9020 14be 9a09 d83c 6e7f 19bd 99db dd3d
00000120: 8514 3c3e fb72 2e3d bad2 b0bb 39c1 bfbd
00000130: 054d 903d f949 babd 23df 9f3d 7dc0 a7bd
00000140: 0f44 033e 646f 143e 0c53 ed3d f41f f83a
00000150: 3e7c b33d f956 30be 4d45 ab3d 1041 11be
00000160: ac18 8d3d 5d21 edbd aa1a 1fbe 08c1 b5bd
00000170: 8526 423d ecbd 41be 6ad0 e9bd 4b82 103d
00000180: ea14 8dbd 66d3 22be e16d 40be 912a bcbd
00000190: 1c9f b93d 9e98 09be caf6 093c e885 0a3e
000001a0: dd6c a0bd d4aa 31be 4739 0bbe 8f49 66bd
000001b0: c756 b2bd b46e 163c 9793 0ebb 923a 91bb
000001c0: 9937 74bd 04a8 543c bce0 373d 0cd1 833b
000001d0: 49e6 1a3d bec8 9cbd 179f 1e3e 1ecb 9ebc
000001e0: db13 c6bc 47af 2dbe 6046 0cbe 67a1 c03b
000001f0: f06c efbc fd97 c2bd 1298 ca3d 3a99 8abc
00000200: a81d 883d 58fe 223e 3ef0 b1bd fa7c bebd
00000210: 248c 1bbd 2a19 83bc ab94 c1bd 9ed7 39bd
00000220: 957e b2bb ef9b ad3d 1609 333e 384d 0f3e
00000230: fcd8 a33c 2d1e 43bc c3b6 a0bc 93d0 83bd
00000240: 034f 9dbd f7d7 3bbb e6d6 5bbe 1c93 24be
00000250: 43f9 91bd f7b0 00be a444 2fbe d7a2 71be
00000260: a003 713d 7abc f6bb d4f1 cfbd 1ca8 9dbd
00000270: bd4e a4bc 8a58 0cbe ca75 1dbd 4abb 18bb
00000280: 98a2 e23c 304f 283c 8ee1 fcbd ad1b 823c
00000290: ed42 a83d 4e56 473c 0da3 d23c 9f54 0fbe
000002a0: d1c0 193d b12e 623d cfc3 b2bd 69f6 ee3d
000002b0: 77f8 36be 7262 91bd 1dba e3bd 3ac2 e5bd
000002c0: 5886 eabd 9d59 36be f8d7 043d ce1f 19bd
000002d0: aff1 22be 47ff a2b8 24f2 00bd 99a9 9f3d
000002e0: 6e94 17be 0fc4 59bd 9a54 1f3d 2d0f a43d
000002f0: c73b 6a3c 9ec5 513d 6e72 413e e512 86bd
00000300: 1de4 033e a9b1 263e 6230 2bbe 4e3e 3b3d
00000310: 713c db3d 867d f1bc b59a d53d 1da2 d23b
00000320: 6552 133e c855 853b f4c9 f7bd 02f7 123e
00000330: 4c36 663d 97a3 243e 7428 403d c984 cd3d
00000340: 3652 f13d e257 023d f4f1 33bd 57df 1f3d
00000350: 28ee 06be e88e d33b 36cc 78bd b0c2 433c
00000360: 2b38 19be d07c ec3d be8a 32be a2be a53d
00000370: e6e2 fe3d b85b 31be 65d8 2e3e a9db 0fbe
00000380: 6900 18bd a08f c83d cc75 75bd ce75 2c3e
00000390: e7bd aabd a145 cfbc dcff fcbd a28e b3bd
000003a0: f4d7 3c3e a689 113e 32fb 633c 8c95 7e3c
000003b0: e237 24be 8718 123e 501c e8bc 206e a1bd
000003c0: 7e01 1abe 511b 1f3e 0787 b73d 6c1f e93d
000003d0: 964d a03c c250 03be 0b8b 9e3d c38b b23c
000003e0: 1fe1 813d 10c0 40bd e4a5 b6bd 6bdd 1e3e
000003f0: a4bd 813d fc14 9dbd 5d3f 8a3c 9843 28bd

rho.rho.2.bias f4 [28]
0.2099706 0.15575081 -0.08473191 -0.027643096 -0.17862679 0.09085418 -0.18833303 -0.16887948
-0.16963597 -0.1754991 0.025593838 -0.011056623 0.053597096 0.02782976 0.027200473 -0.12833072
-0.11212216 -0.15822643 0.122958265 -0.09743912 -0.03843498 0.10383265 -0.098359354 -0.047648974
-0.12598416 -0.11866468 0.12414081 -0.042637818
00000000: 8802 573e 247d 1f3e ec87 adbd c673 e2bc
00000010: f1e9 36be c211 ba3d 60da 40be beee 2cbe
00000020: 0db5 2dbe 09b6 33be 2baa d13c d726 35bc
00000030: a188 5b3d 3dfb e33c 87d3 de3c 2169 03be
00000040: 4ea0 e5bd 1c06 22be 8bd1 fb3d 298e c7bd
00000050: ff6d 1dbd 36a6 d43d a170 c9bd 922b 43bd
00000060: fe01 01be 7806 f3bd 893d fe3d fea4 2ebd

rho.rho.4.weight f4 [1, 28]
0.12725112 0.03479124 -0.0002400405 -0.094603665 0.004172357 0.016030334 -0.107839756 -0.04373763
0.009879757 -0.14239478 0.03142465 0.14482912 0.014046255 0.16459124 0.07267021 -0.08898597
-0.074386105 -0.045477234 0.07691627 -0.005390064 0.15207337 0.04548816 -0.06821249 -0.069283865
-0.15722588 -0.06652939 0.10045202 0.0018249161
00000000: 1e4e 023e 4281 0e3d 62b3 7bb9 91bf c1bd
00000010: 44b8 883b 0c52 833c 17db dcbd 3b26 33bd
00000020: b4de 213c f0cf 11be 22b7 003d 164e 143e
00000030: 4322 663c 9b8a 283e 1ed4 943d 473e b6bd
00000040: be57 98bd 5646 3abd 4786 9d3d 229f b0bb
00000050: 1fb9 1b3e cb51 3a3d fdb2 8bbd b3e4 8dbd
00000060: d2ff 20be 9040 88bd cab9 cd3d 0632 ef3a

exp_avg f4 [32, 3]
9.807272e-10 2.0153623e-09 4.5544948e-10 0.0 0.0 0.0 0.0 0.0
0.0 0.0 0.0 0.0 6.245276e-10 -1.7403793e-09 -9.362387e-11 3.7344927e-09
-3.8323047e-09 8.2808274e-11 0.0 0.0 0.0 4.5129687e-09 -5.3813523e-09 1.935975e-10
0.0 0.0 0.0 0.0 0.0 0.0 0.0 0.0
0.0 0.0 0.0 0.0 1.3095516e-08 9.43025e-09 -4.5971733e-09 2.948919e-09
2.7696e-10 7.1121264e-10 0.0 0.0 0.0 7.478275e-10 -1.6220499e-09 -1.207159e-10
0.0 0.0 0.0 -2.0109966e-10 -3.6260277e-09 -6.362862e-10 2.980443e-09 -6.1780963e-09
-2.6288208e-10 0.0 0.0 0.0 -9.0048563e-10 2.6153975e-09 1.4265822e-10 -9.907714e-10
9.0726426e-10 -3.7136685e-10 4.6077115e-09 -3.672312e-09 3.5602996e-10 3.2374342e-10 -3.2094567e-09 -3.4810832e-10
3.0611287e-09 -3.185205e-09 1.7580325e-10 2.1197688e-09 8.767007e-10 5.8865823e-10 0.0 0.0
0.0 3.5155745e-09 -4.5857748e-10 6.410125e-10 0.0 0.0 0.0 0.0
0.0 0.0 3.2161884e-10 -2.529298e-09 -3.2815295e-10 0.0 0.0 0.0
00000000: 45ca 8630 a17e 0a31 d162 fa2f 0000 0000
00000010: 0000 0000 0000 0000 0000 0000 0000 0000
00000020: 0000 0000 0000 0000 0000 0000 0000 0000
00000030: 39ab 2b30 2732 efb0 8ee1 cdae f250 8031
00000040: 4fad 83b1 ea18 b62e 0000 0000 0000 0000
00000050: 0000 0000 7e10 9b31 e0e6 b8b1 dadc 542f
00000060: 0000 0000 0000 0000 0000 0000 0000 0000
00000070: 0000 0000 0000 0000 0000 0000 0000 0000
00000080: 0000 0000 0000 0000 0000 0000 0000 0000
00000090: b0fa 6032 ae02 2232 2af5 9db1 efa5 4a31
000000a0: a842 982f 247f 4330 0000 0000 0000 0000
000000b0: 0000 0000 af8f 4d30 cfee deb0 81ba 04af
000000c0: 0000 0000 0000 0000 0000 0000 861c 5daf
000000d0: c12d 79b1 a9e6 2eb0 82d0 4c31 1c47 d4b1
000000e0: 5d85 90af 0000 0000 0000 0000 0000 0000
000000f0: 0b86 77b0 8fba 3331 b8da 1c2f ab2b 88b0
00000100: 0c63 7930 3d29 ccaf dc51 9e31 ff5b 7cb1
00000110: c3ba c32f d6fa b12f 5c8d 5cb1 e45f bfaf
00000120: f25b 5231 b8e2 5ab1 374c 412f 5eab 1131
00000130: 54fc 7030 24cf 2130 0000 0000 0000 0000
00000140: 0000 0000 a496 7131 0b1b fcaf 3f33 3030
00000150: 0000 0000 0000 0000 0000 0000 0000 0000
00000160: 0000 0000 0000 0000 d4cf b02f e2cf 2db1
00000170: 6c67 b4af 0000 0000 0000 0000 0000 0000

exp_avg_sq f4 [32, 3]
3.1677366e-11 1.2541345e-11 7.147462e-13 0.0 0.0 0.0 0.0 0.0
0.0 0.0 0.0 0.0 1.9764593e-11 6.6779724e-12 3.490135e-13 4.093324e-11
1.4209085e-11 6.8185605e-13 0.0 0.0 0.0 8.889683e-11 3.2366502e-11 1.5533051e-12
0.0 0.0 0.0 0.0 0.0 0.0 0.0 0.0
0.0 0.0 0.0 0.0 3.5474717e-11 1.9129162e-11 6.056964e-13 4.4012974e-11
1.6756966e-11 7.488281e-13 0.0 0.0 0.0 1.2331355e-11 6.1813176e-12 5.6140937e-13
0.0 0.0 0.0 2.7322885e-11 7.9883305e-12 4.5667517e-13 5.1540796e-11 1.7351301e-11
7.6044455e-13 0.0 0.0 0.0 1.5427543e-11 5.6480666e-12 2.0641214e-13 2.5510575e-11
1.0242389e-11 5.027003e-13 9.561111e-11 3.1909052e-11 1.1709717e-12 2.3345964e-11 5.6116045e-12 2.4258636e-13
4.007368e-11 1.3704341e-11 7.948824e-13 2.3344215e-11 7.939934e-12 3.8734852e-13 0.0 0.0
0.0 2.9988297e-11 1.1114832e-11 4.3835053e-13 0.0 0.0 0.0 0.0
0.0 0.0 9.457127e-12 3.748054e-12 1.5341547e-13 0.0 0.0 0.0
00000000: 8b51 0b2e 32a1 5c2d e42e 492b 0000 0000
00000010: 0000 0000 0000 0000 0000 0000 0000 0000
00000020: 0000 0000 0000 0000 0000 0000 0000 0000
00000030: e8d9 ad2d d4f5 ea2c 257a c42a bb06 342e
00000040: 08f8 792d e8ec 3f2b 0000 0000 0000 0000
00000050: 0000 0000 777c c32e 7159 0e2e b79b da2b
00000060: 0000 0000 0000 0000 0000 0000 0000 0000
00000070: 0000 0000 0000 0000 0000 0000 0000 0000
00000080: 0000 0000 0000 0000 0000 0000 0000 0000
00000090: fb04 1c2e 0b43 a82d 067d 2a2b 3492 412e
000000a0: 5565 932d c0c6 522b 0000 0000 0000 0000
000000b0: 0000 0000 7cef 582d 5c7c d92c cf05 1e2b
000000c0: 0000 0000 0000 0000 0000 0000 ab55 f02d
000000d0: 3e88 0c2d ea8a 002b c7ad 622e a89f 982d
000000e0: ce0b 562b 0000 0000 0000 0000 0000 0000
000000f0: bdb3 872d 43b9 c62c 4066 682a b564 e02d
00000100: 9f2f 342d 607f 0d2b 4540 d22e 6656 0c2e
00000110: b4cc a42b 705a cd2d d770 c52c 6190 882a
00000120: f43e 302e dd16 712d 50bd 5f2b 8056 cd2d
00000130: 49ae 0b2d ce0e da2a 0000 0000 0000 0000
00000140: 0000 0000 d2e3 032e c188 432d f8c4 f62a
00000150: 0000 0000 0000 0000 0000 0000 0000 0000
00000160: 0000 0000 0000 0000 1d5f 262d 78df 832c
00000170: 00bb 2c2a 0000 0000 0000 0000 0000 0000

exp_avg f4 [32]
3.451538e-09 0.0 0.0 0.0 -1.2094791e-09 -1.5010188e-11 0.0 -6.7479705e-10
0.0 0.0 0.0 0.0 1.792859e-08 3.937088e-09 0.0 -9.949419e-10
0.0 -4.4634167e-09 -3.4605434e-09 0.0 1.8575728e-09 -4.548748e-10 1.2914197e-09 -3.2338254e-09
5.1718633e-11 3.5851255e-09 0.0 3.6980048e-09 0.0 0.0 -2.5358353e-09 0.0
00000000: 1930 6d31 0000 0000 0000 0000 0000 0000
00000010: c33a a6b0 f007 84ad 0000 0000 9f7c 39b0
00000020: 0000 0000 0000 0000 0000 0000 0000 0000
00000030: 6301 9a32 fe46 8731 0000 0000 68be 88b0
00000040: 0000 0000 a15c 99b1 86ce 6db1 0000 0000
00000050: 884d ff30 f011 faaf cb7d b130 0f3a 5eb1
00000060: 0176 632e 325e 7631 0000 0000 fd1f 7e31
00000070: 0000 0000 0000 0000 e342 2eb1 0000 0000

exp_avg_sq f4 [32]
1.0016781e-10 0.0 0.0 0.0 5.6495638e-11 1.2032356e-10 0.0 2.6727842e-10
0.0 0.0 0.0 0.0 1.2312637e-10 1.338832e-10 0.0 4.492809e-11
0.0 7.584911e-11 1.4903169e-10 0.0 4.5603063e-11 8.0262505e-11 2.7186817e-10 5.8914824e-11
1.1903786e-10 6.7890374e-11 0.0 8.936283e-11 0.0 0.0 2.912172e-11 0.0
00000000: 7745 dc2e 0000 0000 0000 0000 0000 0000
00000010: 6f78 782e 124c 042f 0000 0000 18f0 922f
00000020: 0000 0000 0000 0000 0000 0000 0000 0000
00000030: fe60 072f c534 132f 0000 0000 8898 452e
00000040: 0000 0000 41cb a62e b1dc 232f 0000 0000
00000050: 7c90 482e c67f b02e 0b76 952f 198e 812e
00000060: 2ee2 022f e24a 952e 0000 0000 cd82 c42e
00000070: 0000 0000 0000 0000 2414 002e 0000 0000

exp_avg f4 [32, 32]
0.0 0.0 0.0 0.0 0.0 0.0 0.0 0.0
0.0 0.0 0.0 0.0 0.0 0.0 0.0 0.0
0.0 0.0 0.0 0.0 0.0 0.0 0.0 0.0
0.0 0.0 0.0 0.0 0.0 0.0 0.0 0.0
-2.1105653e-09 0.0 0.0 0.0 -1.2161715e-09 -1.2321602e-09 0.0 3.3034846e-09
0.0 0.0 0.0 0.0 -2.8402631e-09 1.2228611e-09 0.0 -3.6911465e-09
0.0 1.5245522e-09 3.774283e-09 0.0 -5.9272365e-11 1.1131419e-09 -6.4276556e-10 5.3962457e-09
-1.6631225e-09 1.8743238e-09 0.0 -1.1407359e-10 0.0 0.0 -5.1148014e-10 0.0
3.3027597e-25 0.0 0.0 0.0 7.959028e-26 4.938645e-25 0.0 1.1437101e-25
0.0 0.0 0.0 0.0 1.5067924e-26 2.1004792e-25 0.0 3.2756682e-25
0.0 8.853127e-25 4.7732055e-25 0.0 4.588817e-26 2.150473e-25 1.7225219e-25 2.5061978e-25
5.4509204e-25 2.8816847e-25 0.0 6.1949533e-25 0.0 0.0 1.1100783e-25 0.0
0.0 0.0 0.0 0.0 0.0 0.0 0.0 0.0
0.0 0.0 0.0 0.0 0.0 0.0 0.0 0.0
0.0 0.0 0.0 0.0 0.0 0.0 0.0 0.0
0.0 0.0 0.0 0.0 0.0 0.0 0.0 0.0
0.0 0.0 0.0 0.0 0.0 0.0 0.0 0.0
0.0 0.0 0.0 0.0 0.0 0.0 0.0 0.0
0.0 0.0 0.0 0.0 0.0 0.0 0.0 0.0
0.0 0.0 0.0 0.0 0.0 0.0 0.0 0.0
1.80997e-25 0.0 0.0 0.0 4.4725307e-26 2.5535376e-25 0.0 6.760602e-26
0.0 0.0 0.0 0.0 8.404863e-27 1.1534411e-25 0.0 1.6307805e-25
0.0 4.7286783e-25 2.6539652e-25 0.0 3.4839386e-26 1.123363e-25 8.7731816e-26 1.4328029e-25
2.8992753e-25 1.5998648e-25 0.0 3.370838e-25 0.0 0.0 5.9444083e-26 0.0
1.1544358e-24 0.0 0.0 0.0 6.4370843e-25 1.18974e-24 0.0 7.509579e-25
0.0 0.0 0.0 0.0 1.9783124e-25 6.916468e-25 0.0 6.4385747e-25
0.0 2.1303039e-24 1.923204e-24 0.0 3.0136422e-25 2.8625595e-25 7.971373e-25 6.6437846e-25
1.8548329e-24 1.0842376e-24 0.0 1.5785603e-24 0.0 0.0 5.267691e-25 0.0
2.6337746e-25 0.0 0.0 0.0 4.3563457e-26 3.4878952e-25 0.0 9.7801305e-26
0.0 0.0 0.0 0.0 8.0890306e-27 1.7200822e-25 0.0 2.1051165e-25
0.0 6.7207375e-25 3.763352e-25 0.0 5.9068684e-26 1.6110638e-25 1.2137908e-25 2.1565574e-25
3.9895805e-25 2.569558e-25 0.0 4.914587e-25 0.0 0.0 8.05352e-26 0.0
00000000: 0000 0000 0000 0000 0000 0000 0000 0000
00000010: 0000 0000 0000 0000 0000 0000 0000 0000
00000020: 0000 0000 0000 0000 0000 0000 0000 0000
00000030: 0000 0000 0000 0000 0000 0000 0000 0000
00000040: 0000 0000 0000 0000 0000 0000 0000 0000
00000050: 0000 0000 0000 0000 0000 0000 0000 0000
00000060: 0000 0000 0000 0000 0000 0000 0000 0000
00000070: 0000 0000 0000 0000 0000 0000 0000 0000
00000080: 7509 11b1 0000 0000 0000 0000 0000 0000
00000090: 3b26 a7b0 c858 a9b0 0000 0000 8403 6331
000000a0: 0000 0000 0000 0000 0000 0000 0000 0000
000000b0: 702e 43b1 9a11 a830 0000 0000 56a7 7db1
000000c0: 0000 0000 6988 d130 f2ae 8131 0000 0000
000000d0: 6057 82ae 33fd 9830 9bae 30b0 e169 b931
000000e0: ec93 e4b0 74cd 0031 0000 0000 b9d9 faae
000000f0: 0000 0000 0000 0000 3798 0cb0 0000 0000
00000100: 516e cc16 0000 0000 0000 0000 0000 0000
00000110: 550e c515 fad7 1817 0000 0000 9f95 0d16
00000120: 0000 0000 0000 0000 0000 0000 0000 0000
00000130: ba39 9514 6c03 8216 0000 0000 09c1 ca16
00000140: 0000 0000 d9fe 8817 3bb9 1317 0000 0000
00000150: 2b3a 6315 9b1b 8516 e63c 5516 4a20 9b16
00000160: a4b2 2817 1e5e b216 0000 0000 7ab9 3f17
00000170: 0000 0000 0000 0000 c96b 0916 0000 0000
00000180: 0000 0000 0000 0000 0000 0000 0000 0000
00000190: 0000 0000 0000 0000 0000 0000 0000 0000
000001a0: 0000 0000 0000 0000 0000 0000 0000 0000
000001b0: 0000 0000 0000 0000 0000 0000 0000 0000
000001c0: 0000 0000 0000 0000 0000 0000 0000 0000
000001d0: 0000 0000 0000 0000 0000 0000 0000 0000
000001e0: 0000 0000 0000 0000 0000 0000 0000 0000
000001f0: 0000 0000 0000 0000 0000 0000 0000 0000
00000200: 0000 0000 0000 0000 0000 0000 0000 0000
00000210: 0000 0000 0000 0000 0000 0000 0000 0000
00000220: 0000 0000 0000 0000 0000 0000 0000 0000
00000230: 0000 0000 0000 0000 0000 0000 0000 0000
00000240: 0000 0000 0000 0000 0000 0000 0000 0000
00000250: 0000 0000 0000 0000 0000 0000 0000 0000
00000260: 0000 0000 0000 0000 0000 0000 0000 0000
00000270: 0000 0000 0000 0000 0000 0000 0000 0000
00000280: 3d10 6016 0000 0000 0000 0000 0000 0000
00000290: 1078 5d15 6b0e 9e16 0000 0000 6862 a715
000002a0: 0000 0000 0000 0000 0000 0000 0000 0000
000002b0: b879 2614 02ca 0e16 0000 0000 7fe1 4916
000002c0: 0000 0000 7358 1217 c245 a416 0000 0000
000002d0: 2b84 2c15 cb10 0b16 a536 d915 565f 3116
000002e0: da74 b316 bd0d 4616 0000 0000 0fa5 d016
000002f0: 0000 0000 0000 0000 2a2d 9315 0000 0000
00000300: eaa3 b217 0000 0000 0000 0000 0000 0000
00000310: d637 4717 751a b817 0000 0000 0469 6817
00000320: 0000 0000 0000 0000 0000 0000 0000 0000
00000330: 39e7 7416 e80d 5617 0000 0000 a543 4717
00000340: 0000 0000 04d3 2418 fbcc 1418 0000 0000
00000350: 1189 ba16 112f b116 b9b3 7617 7c9d 4d17
00000360: c082 0f18 14c7 a717 0000 0000 3745 f417
00000370: 0000 0000 0000 0000 f306 2317 0000 0000
00000380: d305 a316 0000 0000 0000 0000 0000 0000
00000390: 3eb7 5715 e8e3 d716 0000 0000 f124 f215
000003a0: 0000 0000 0000 0000 0000 0000 0000 0000
000003b0: 4238 2014 95ef 5416 0000 0000 e74c 8216
000003c0: 0000 0000 2bff 4f17 b1f0 e816 0000 0000
000003d0: 3a3f 9215 a670 4716 9142 1616 047c 8516
000003e0: 6df1 f616 460c 9f16 0000 0000 5f19 1817
000003f0: 0000 0000 0000 0000 3f65 c715 0000 0000
