src/old_logs/version_72/checkpoints/epoch=199-step=9600.ckpt (torch, 115155 bytes, 45 tensors)

phi.phi.0.weight f4 [46, 3]
00000000: 49ce 933e 242a 193f 5e8c e3bd 557e 01bd
00000010: e698 24bf 9057 933e d22b 98be 1375 083f
00000020: dfa4 0abf 3d9c 00bf d5d4 053d 6df7 d1be
00000030: 280b 043f fe8a 9a3e 2f89 5ebe 3387 6c3d
00000040: 8026 bf3e 199d 0cbf 057c af3e 574a e7bd
00000050: cce3 4f3e dd06 a8bd 1e67 0abf 5287 e4be
00000060: abc0 c03e cb9a e63d bf47 cb3e a734 af3e
00000070: d887 c7be 24f6 2ebf d975 90be 750e e1be
00000080: 1e05 0f3e fefa aa3e 8fdf 35bf 5386 f13d
00000090: d523 c2be 3339 10be 6a04 1c3f 983e 673e
000000a0: 33a1 1a3f 76d0 143f c6dd c9be bf08 dcbc
000000b0: 0aea d3be 8c13 b9be 4a19 fc3e e72e 81be
000000c0: 242b 533e 2f4d 02bf 53c2 cebe 733d 78bd
000000d0: 0b26 f1bd bb9e 793e 156b 0dbf bb80 d73e
000000e0: 62bc 863d b0d0 0a3f 8fc0 ba3e 048e 2fbf
000000f0: c5f2 e6be a459 fabe edfc d9be 1bcb d83e
00000100: 9eee 9e3e b666 49bf 1b99 003f 313a ca3d
00000110: 5233 f9be 2cee 1a3f 1c18 e33e 27a7 d1be
00000120: 20a0 593e d447 15bf 36d5 1b3f 655b 3fbe
00000130: fd32 fdbe 6f23 bb3e 584e b4be 1cce b03e
00000140: 7d8f 123d a387 bb3e 4e6c c33e 57b8 0b3e
00000150: e97d ad3c e215 c43e 5064 9b3e ea4c 053f
00000160: 4bf4 22bf f940 1b3f 8141 a8be 672e 623e
00000170: e586 433e cc50 bd3e 1ee3 e5bc 1a36 f4be
00000180: 070b a5bc b862 983e edfa 333f abed acbe
00000190: bc43 aa3e c904 e83d dd9e df3e b126 85be
000001a0: a9c5 bf3e 0ad8 723e 1a16 cf3e 86a3 29bf
000001b0: 3b17 d8bd f239 3b3e 97d9 c13e 624c 3e3e
000001c0: 3603 2ebe 3328 c0be 18f7 0cbf 31f3 e53e
000001d0: 7cd8 f73c c314 13bf e878 c33e b526 94bd
000001e0: 0619 fabe 14e2 3d3d 5dd3 c93e 87d1 01bf
000001f0: 0d76 7c3e 028f d0be 09d3 c53d fe54 2cbe
00000200: 4e69 a4bd 1598 ea3d 1954 42be a125 bcbe
00000210: 0e7a c83e 140b 0fbf 8558 9dbe 33d2 ef3e
00000220: 25cb e63e b53d 1fbf
0.2886832 0.59829926 -0.11110757 -0.03161462 -0.64295805 0.28777742 -0.29720932 0.5330364
-0.54157823 -0.502384 0.032673676 -0.41009083 0.51579523 0.30184168 -0.21732019 0.057746124
0.3733406 -0.5492721 0.34274307 -0.11293476 0.20301741 -0.08204434 -0.54063594 -0.4463449
0.37646994 0.11259993 0.39703175 0.34219858 -0.38970828 -0.6834433 -0.2821491 -0.43956342
0.13966796 0.33394617 -0.7104425 0.117931984 -0.37917963 -0.1408432 0.60944235 0.22582471
0.6040222 0.58130586 -0.39427012 -0.02685964 -0.41389495 -0.36147726 0.49238044 -0.25231096
0.20621926 -0.5089902 -0.40382633 -0.060605478 -0.11774834 0.24376957 -0.5524152 0.420904
0.065789 0.5422468 0.36475036 -0.68576074 -0.45107093 -0.48896515 -0.4257578 0.42342457
0.31041425 -0.7867235 0.5023362 0.098743804 -0.48671967 0.6051967 0.44354331 -0.4094784
0.21252489 -0.58312726 0.6087221 -0.18687208 -0.49452963 0.3655047 -0.35216022 0.3453225
0.035781372 0.3662692 0.38168567 0.13644539 0.021178203 0.38297945 0.3034997 0.52070487
-0.6365401 0.60646015 -0.32862476 0.22088014 0.19094427 0.36975706 -0.0280624 -0.47697526
-0.02014686 0.29762816 0.7030476 -0.33775076 0.33254802 0.11329038 0.4367589 -0.26006082
0.3745549 0.23715225 0.4044655 -0.6626514 -0.10551306 0.18283823 0.3786132 0.18583825
-0.16993412 -0.3753067 -0.55064535 0.44912103 0.030254595 -0.57453555 0.38178182 -0.07233945
-0.48847216 0.046358183 0.3941907 -0.5071034 0.24654408 -0.40734106 0.096593924 -0.16829297
-0.08027898 0.114547886 -0.18977393 -0.3674746 0.3915562 -0.5587628 -0.30731598 0.46840057
0.45076862 -0.6220353

phi.phi.0.bias f4 [46]
00000000: 3ba6 53be de3e ab3e 92d5 8e3e 9bc9 a9be
00000010: 9222 5abe 9944 5cbe 3b34 e83d fe36 ed3d
00000020: af9e 763e a0a5 c03e cba2 97be 3bea 353e
00000030: c010 913e a985 b83e fc9f 06bf d221 003e
00000040: 9263 523e 5a99 f4bd 8212 9ebe 1817 40be
00000050: 9d69 04bf 429c e0bc 0c4c 18be 2c3d 9ebe
00000060: f8a1 f43d 6c0e 0dbf 1754 773e ce11 993c
00000070: 862e 8b3e 078c c6be b7c0 a1bb 8d15 8b3c
00000080: b78e d4bd 47e1 b5be 9681 823e e903 cd3d
00000090: cc45 883e ea17 3ebe 0d6a d4be 3675 2d3e
000000a0: b3ff 6dbd 663d 12bf 106c 04bf 9c5b 5c3e
000000b0: b620 7b3e cc77 ef3e
-0.2066888 0.334464 0.27897316 -0.33161625 -0.2130225 -0.21510543 0.11338087 0.115827546
0.2408397 0.37626362 -0.2961639 0.17765133 0.28333092 0.36039475 -0.52587867 0.12512901
0.20545796 -0.11943312 -0.30873495 -0.1875881 -0.51723653 -0.02741826 -0.1487276 -0.30906045
0.119449556 -0.5510013 0.24153171 0.018685248 0.27183932 -0.38778707 -0.0049363035 0.01697805
-0.10378783 -0.35523435 0.2548949 0.100105114 0.2661575 -0.1856381 -0.4148716 0.16939244
-0.058105182 -0.57124937 -0.5172739 0.21519321 0.24524197 0.46771085

phi.phi.2.weight f4 [46, 46]
00000000: 4774 04bd c631 0fbe 78c1 36bd 51cd 24bd
00000010: cea2 043e 2163 16be 41aa edbc 5fe4 f93c
00000020: 4f71 cd3d 783d 96bd 5121 143d 91a3 82bd
00000030: 361d 6c3d 83e8 efbd 790a 913d fef6 d23d
00000040: 4eb5 de3d 57db 9e3d ef4a cebd 0a40 cc3d
00000050: dd44 15bd cba7 743c a207 15be 4642 7fbd
00000060: 3a2f 0a3e 4694 e7bc 8c79 75bd c886 70bd
00000070: d494 8abd bdf5 9c3d 7eb8 96bc d456 4abd
00000080: 3f28 fb3d e7ac e5bb 8518 b8bd 51cd 12be
00000090: 84d7 0ebe c37b 1bbd 6747 f73d dcaf d5bd
000000a0: 2523 e5bd 86d9 82bc 934c ed3d 8137 8bbd
000000b0: 4f54 953c 771f 6f3c b6a8 823d 8502 07bc
000000c0: 38f3 9fbd eb8b 213c 02ec 52bb c82a cb3d
000000d0: 33ac 11bc 17ee 5fbc fa57 f43d 7711 75bd
000000e0: a04f 953c b5ee 94bd 87c4 803e 75fc f43d
000000f0: 3bf0 4dbc 08f6 0bbf 16b5 963d b652 213d
00000100: fd59 b03c e710 60be 1e79 c8bc d75b 26be
00000110: 8f52 a6be 8497 01bf ac13 de3d 0f12 07be
00000120: 23e3 75bd 7896 00be 900b 063e 8530 54bf
00000130: e1d5 47bd cbd6 aa3d 6b2d 843d 111d cf3d
00000140: a423 26bd 9843 a7bd 9036 8ebd f778 10bd
00000150: a51a 18bd 126a aebe dc1c a6bd cba7 6fbd
00000160: 423c 053e 4eb1 d93d 9fe7 28be 7ebb 703d
00000170: 839f d23d badb 4a3d 0de2 913c ac3d 9f3c
00000180: efb5 a53d 7c7e 063e ecec 51bd 8267 373d
00000190: 3752 4cbc 8047 76bd 5af2 963d fe7a b23c
000001a0: e613 c13b 0870 e9bd a4eb 843d d410 153e
000001b0: 9d96 8bbd 53a0 e7bd f8fe 083d 4aaf 3c3b
000001c0: 7a23 90bd 0e19 ba3c 0edb bc3b 7fbe dfbd
000001d0: 5660 dabd 7d59 0c3e 3e6a b3bd 92e9 09be
000001e0: d854 39bd ae45 ea3d d551 dbbd 3f41 8f3d
000001f0: 3f71 6f3d 7b7d 8c3c 4859 b23d 58ca d7b9
00000200: ef62 69bc 0ecd 46bc d275 26bc b86a 3fbd
00000210: 1627 e63d eab6 bc3d 34fc 083d 0708 99bd
00000220: e7c7 cf3d a2fe 31bd 9e8a 29be 48d9 e23d
00000230: 8e4e 5fbd f3a6 9e3a f2fc 1ebc 8d53 fbbd
00000240: 5cd0 1a3e 568d af3c 05dd 393e 6f8d cebc
00000250: 6e7b 6bbd 22ee 5f3c 7f6d 643e 473a 89bc
00000260: 6944 7bbd 0ed5 29bf b7ef 193d 09e4 50bd
00000270: cf04 003c af8a 803c a602 0dbe 0eac 32be
00000280: 6221 12be 2451 e2be 94c7 9d3d 65f8 d93d
00000290: 3dda 82bd f0b3 3c3e cb35 953d 5562 00bf
000002a0: 30f4 93bd 5288 2ebe f64f c43d abab cd3c
000002b0: 4f34 eeb9 dfa1 5cbd 88c0 083e 79e7 fdbd
000002c0: bfdb 0d3e 7758 84be f27c 7d3d c77d de3d
000002d0: 2333 0c3e e9e7 083e d199 103e 7dcc 9cbd
000002e0: 437a ef3d 4576 f6bd 679e 213e f23f acbd
000002f0: 7988 27bc c3dd 64bc 76a6 74bc a472 873d
00000300: 301a 8cbc 969e 41bd 40a8 923d 5277 91be
00000310: a4b6 2f3e bdf1 643d 3e8d 5fbd ff9b 283f
00000320: 6293 fabd b26a a03d e732 97bb 52df 403e
00000330: 0f6e 693d 4969 acbd d728 663d 69f9 643e
00000340: f3b6 48be 1a5f 46bd a738 903e 93da 013e
00000350: b561 df3d cbf4 68be bca0 0c3d 8ebe ba3c
00000360: b8d9 003e d721 673d 51a5 c9bd 4142 8f3d
00000370: 2045 e23d eba8 0f3e a05c 5fbd c6ac 2d3f
00000380: 37a8 04be 8438 6a3b 215b b13d 1873 1c3d
00000390: 25ec 17be 97da 243d ba6a fb3d e3d4 b83d
000003a0: e577 8ebd 6a3f 34bd 4228 ccbd 4715 103e
000003b0: a442 183c 60e6 7bbd 4471 b7bd e622 09be
000003c0: c7cf abbc 8384 3dbc 45ca 9cbd e85a a1bd
000003d0: 5804 dfbd 55ae aa3d 3415 cdbd 9f42 e83c
000003e0: a4e2 153e 5999 bf3d aced 18bc bf98 fd3d
000003f0: 4d8c 863d 2759 f9bd 540e 7d3d c63e 04bd
-0.032337453 -0.13983831 -0.0446181 -0.040234867 0.1295273 -0.14686252 -0.029011847 0.030504404
0.100313775 -0.07335943 0.036164586 -0.06378854 0.057645045 -0.1171427 0.070820756 0.10301016
0.10874425 0.077566795 -0.10072886 0.09973152 -0.036442626 0.014932583 -0.14553693 -0.062319063
0.13494578 -0.028268944 -0.05993037 -0.058722287 -0.06766668 0.07664058 -0.01839852 -0.049399212
0.12263536 -0.007009137 -0.08989052 -0.14336134 -0.139494 -0.037959825 0.12074166 -0.10433933
-0.11188344 -0.015972864 0.11586871 -0.06797696 0.018228678 0.014594904 0.06379835 -0.008240347
-0.07810062 0.009860019 -0.0032184129 0.09920269 -0.008891153 -0.013667605 0.11930843 -0.05983111
0.018226445 -0.07272092 0.25149938 0.11962215 -0.012569482 -0.5467229 0.07358758 0.03938552
0.021527285 -0.21881448 -0.024471816 -0.16245972 -0.32484862 -0.5062182 0.10843596 -0.13190483
-0.060031068 -0.125574 0.13090348 -0.82886535 -0.048787955 0.0834175 0.06453975 0.10112966
-0.040561333 -0.08167189 -0.06944001 -0.03527161 -0.037134785 -0.340653 -0.08110973 -0.05850963
0.13011268 0.10629521 -0.16494606 0.058772556 0.10284331 0.049525954 0.017807985 0.019438587
0.08091342 0.13134187 -0.051251337 0.044776447 -0.012470773 -0.06012678 0.07370444 0.021787163
0.0058922647 -0.113983214 0.064902574 0.145572 -0.068158366 -0.11309876 0.033446282 0.0028791004
-0.070380166 0.022717025 0.005763418 -0.10925006 -0.10662906 0.13706012 -0.087604985 -0.13468006
-0.04524693 0.114390716 -0.107089676 0.069948666 0.05845761 0.017149678 0.08708435 -0.00041158753
-0.014244779 -0.01213385 -0.0101599265 -0.046732634 0.11237924 0.092145756 0.033443645 -0.07472234
0.1014555 -0.043455727 -0.16556785 0.11076599 -0.054518275 0.0012104198 -0.009703862 -0.122717954
0.15118545 0.021429699 0.18150719 -0.025213925 -0.05749076 0.013667615 0.22307394 -0.016751422
-0.061344538 -0.6634072 0.037582126 -0.05099872 0.007813646 0.01569113 -0.13770542 -0.17448446
-0.14270547 -0.4420253 0.07704082 0.106430806 -0.06389282 0.18428016 0.07285651 -0.5015004
-0.072243094 -0.1704419 0.09585564 0.025106272 -0.0004543387 -0.05386531 0.13354695 -0.123976655
0.13853358 -0.25848743 0.061886735 0.10863834 0.13691382 0.13369717 0.14121176 -0.076561905
0.116932414 -0.12034277 0.15783082 -0.08410634 -0.010225409 -0.013968888 -0.0149322655 0.06613663
-0.01710233 -0.04727038 0.071609974 -0.28411347 0.17159516 0.055894602 -0.05457806 0.6586303
-0.12235142 0.078328505 -0.0046142223 0.1883519 0.056989726 -0.08418519 0.05619129 0.22360767
-0.1960104 -0.04843054 0.28168222 0.12681036 0.10907308 -0.22749631 0.034332976 0.022795942
0.12583053 0.056428757 -0.09845985 0.06995059 0.11048341 0.14029281 -0.054531693 0.67841756
-0.12954794 0.0035739252 0.086599596 0.0381957 -0.14836176 0.040247526 0.12276216 0.0902498
-0.06956462 -0.04400579 -0.09968616 0.14070617 0.009293232 -0.061499 -0.089571506 -0.13392219
-0.0209731 -0.011567238 -0.07655767 -0.07878667 -0.108895004 0.083340324 -0.1001381 0.02835208
0.14637238 0.093554206 -0.009334009 0.1238265 0.06569729 -0.121752076 0.061781242 -0.032286428

phi.phi.2.bias f4 [46]
00000000: 5b80 873d 4c6f b03d 03a5 f13d bb14 713d
00000010: e4b7 8b3d 1518 d6bc 82c9 943d e777 3dbc
00000020: 3923 aa3d 7738 98bd 8b16 083e 4c37 e8bd
00000030: 8bb1 f8bc f47b a23d 6e3b 083e 3fe6 c43d
00000040: 209d a3bd 1505 2bbd 72b1 b4bd 7b3a cabd
00000050: 1679 0d3e 2052 d93d e774 b2bd 3e91 fcbd
00000060: 1cf3 113e 5f01 0cbc 4d78 763d 7e38 a2bd
00000070: 0f07 8c3c a2d0 2ebd d5a2 753d 8f26 1bbd
00000080: ae32 e23c 8fb1 f03d aa44 f03d a357 d43d
00000090: 94ae 143e 8b38 9cbd f5cd b6bd f93e bcbd
000000a0: 99b6 0abe 2eff 30bd 12ca 8abd 5fef 4ebd
000000b0: 2adf fabc 78e3 cf3d
0.06616279 0.08614978 0.117990516 0.05885766 0.06822184 -0.02613453 0.07264997 -0.0115642315
0.083074994 -0.07432645 0.1328985 -0.11338672 -0.030358097 0.079337984 0.1330392 0.096142285
-0.079889536 -0.041752893 -0.088229075 -0.098744355 0.13815722 0.10611367 -0.087137036 -0.1233239
0.14252895 -0.008545249 0.06017332 -0.07920931 0.01709321 -0.042679437 0.05996974 -0.03787857
0.027612057 0.117526166 0.11731847 0.10368278 0.14519721 -0.07627972 -0.08926002 -0.091916986
-0.13546218 -0.04321211 -0.06776823 -0.05052125 -0.030623991 0.10150808

phi.phi.4.weight f4 [46, 46]
00000000: 1f66 873d 668d d93d 617f 3bbd c8aa 803d
00000010: 8201 0dbe 1190 4b3d 3f8d cc3d 5c89 d5bc
00000020: ab9a 203d dad3 933d d41b fa3d 571e bcbc
00000030: acbe 353d fa09 bbbd 9557 d6bd b532 05be
00000040: d3ae 64bd db29 f73d e6cb 9a3c 61a2 14be
00000050: 5b20 dd3d cee8 f0bd 5c39 d5bd bb57 e9bd
00000060: 668d 163c 1d72 e63d 2018 09be a9c2 0fbe
00000070: 23ef 91bc cdbd 98bd baff 6f3c a5e3 d83d
00000080: ebb8 10be d3fe fa3d aa02 c6bd 91cb ccbd
00000090: 2eb1 babd 5ec2 463c 7fb5 c3bd e81b e6bd
000000a0: ff91 773d 1585 00bb eb58 8b3d ace1 11be
000000b0: 420e 813d 06c7 053e cf80 f1bc 19e7 2d3e
000000c0: 1cb5 3ebd 410c 66bd f356 1b3e 0e2d c63d
000000d0: 6f38 cb3d 9d55 323e c856 7abd 8596 51be
000000e0: 7183 3a3e b1c6 393e fe92 933e bd27 edbd
000000f0: 2a75 e7bc fc1a bebd aefb 633d 55f9 e7bd
00000100: 7cb7 fcbd ec71 1f3d a54a b5bc 4cca 0a3e
00000110: ecc1 c93d fd4f febc 0f65 1d3e d210 07be
00000120: cd17 4a3d c1f6 d6bc 7a6f fbbd 98a6 ca3c
00000130: 8dca b7bd 15fb 6fbd c111 c8bd 738a 73be
00000140: 67e0 ccbd e188 3d3e 4fa1 0cbe 1a3b 68bc
00000150: df76 63bc a2fe a73d 9c72 cdbd 6621 dfbd
00000160: 123a 42bd b096 9a3d 63b3 4dbe d25c b6bd
00000170: 30fa af3c 86da e5bd d866 873d 34a9 c33c
00000180: 8cee e43d 428a 0d3e ecd7 dbbd 7e3b 58bc
00000190: 4324 c13d 6a62 b3bd d568 5ebe 4560 c2bd
000001a0: 2d2e debe e403 dd3d 0b21 de3d f5db 343d
000001b0: 24d8 3abd efe2 033d 835b 0ebd bfb1 85bd
000001c0: 6384 7fbe 1811 adbd a8df ae3d a862 aabd
000001d0: d7f1 47bc ec2c 5cbc c926 f3bd 7431 143e
000001e0: dc0f 223e 781a ba3d 3be3 da3d cd94 9f3d
000001f0: 656a ad3d fc3c 87bd 906e 7abd 5a97 503d
00000200: 3a7d f03d fa2c 803d 572c dcbd 470a 13bd
00000210: 2970 6ebd 79d8 e2bd 85fa b8bd 7d44 06bd
00000220: 1478 be3d 077b d33d fea6 80bb 5ea8 06be
00000230: 6cd2 14be 1d41 773d 34d3 f13e cc96 33bd
00000240: b700 263d 619c 80bd bf51 6d3d 7634 093d
00000250: 581c d3bd 0744 afbd 7c23 4d3e 758a f83c
00000260: bb64 2fbe a13e ce3d 7e85 37bb 82b0 d93d
00000270: 33d4 a73d 449a 083d dbaa a63d c098 ec3c
00000280: e376 0dbe 6dd7 e8bd 039d 453d 662f 073e
00000290: 5198 63bd 4f7e 0ebe 0896 99bb 1ddb adbd
000002a0: 780e c5bb 5aa3 0bbe d66e f93d cbc0 83bd
000002b0: f932 c5bd 4a5b ccbd 37c6 35be c67d 063e
000002c0: eee9 39bd eb27 99bd 38e1 8c3d bd15 d2bc
000002d0: 1e98 053d 946f b3bd 69bf 05be c140 05bc
000002e0: aa27 d83d cd38 893d cd2f d6bd 28ac c83c
000002f0: 432d d23d 0e42 dbbd 4d8f c93d 53c3 933d
00000300: a71d 143e e76a 563e 1f5c 46be cd35 45bd
00000310: 4187 72be cee0 dc3d 08ec d33d 1861 ff3d
00000320: a43a 0abd d035 8fbc 4e37 31bd 3265 153e
00000330: 08fe 49be 72b9 d5bd dcac 61bd debf cbbd
00000340: 3794 e13d 73fa 94bd 8377 b43d d103 cabc
00000350: e82b c43a f9c4 36bd 9c37 01be 8e78 dbbd
00000360: e233 17be 2c24 f93d d5ad 2a3d 38bd 283d
00000370: 6492 6fbd 4d2e e8bd 4359 f73d 9113 45bd
00000380: 5a6c 283e d4f6 0ebe a22a a2bd 39cb d43d
00000390: 7d6e 483c 803b 78bd e73a b1bd 6e1f 513e
000003a0: 394c 853d 2083 173e 5078 093c ce8a 493d
000003b0: f552 03be e754 283c 6528 c4bd d64a 8cbe
000003c0: 114f 6f3e f234 e63d c460 803e 2730 38be
000003d0: 54a1 39be c184 8bbd 8250 1fbc 69f3 ae3b
000003e0: 2869 883d fc89 71bc bf82 6f3e aa4a 183e
000003f0: d34d 88bd a1d3 07be d438 00bc fa9f 093e
0.06611275 0.10622673 -0.045775775 0.06282574 -0.13770106 0.04969794 0.09987878 -0.026066475
0.039210003 0.07218142 0.12212339 -0.022963686 0.044371292 -0.09132762 -0.10465924 -0.13007624
-0.055830788 0.1206853 0.018896054 -0.14515068 0.10797187 -0.11763154 -0.10411331 -0.113936864
0.009188985 0.11252234 -0.13388109 -0.140391 -0.017814225 -0.074580766 0.014648372 0.10590295
-0.1413304 0.12255635 -0.09668477 -0.09999765 -0.091158256 0.012131302 -0.09556102 -0.112357914
0.060441967 -0.0019610573 0.06804069 -0.14246243 0.063015476 0.13064203 -0.029480366 0.16982688
-0.046559438 -0.05616403 0.15169887 0.09676562 0.09922873 0.17415471 -0.061117917 -0.20467575
0.18214203 0.18142201 0.28823084 -0.11579845 -0.02825411 -0.092824906 0.055659942 -0.11326853
-0.12339684 0.038927004 -0.02213032 0.13553733 0.09851441 -0.031044 0.15370582 -0.1319001
0.049339104 -0.026240708 -0.12277122 0.024737641 -0.0897418 -0.05858906 -0.09769011 -0.23783283
-0.10003739 0.18509246 -0.1373341 -0.014174247 -0.013883322 0.08202864 -0.10031626 -0.10895042
-0.04741866 0.075482726 -0.20087962 -0.08904423 0.021481603 -0.11223321 0.06611413 0.023884393
0.11178312 0.13822272 -0.10734543 -0.013197778 0.094307445 -0.08759005 -0.21719678 -0.09491018
-0.43394604 0.10791758 0.10846146 0.04415508 -0.045616284 0.032198843 -0.03475524 -0.06528043
-0.24952845 -0.08450526 0.08538753 -0.083195984 -0.012203655 -0.013438445 -0.11872632 0.1447199
0.15826362 0.0908708 0.10687872 0.07792053 0.08467559 -0.06603429 -0.061140597 0.05092559
0.11742635 0.062585786 -0.10750645 -0.035898473 -0.058212433 -0.11076445 -0.09032158 -0.03278016
0.09300247 0.103262 -0.003926157 -0.13150164 -0.14533395 0.06036483 0.47231448 -0.043844983
0.040528025 -0.06279827 0.057939287 0.033497296 -0.103081405 -0.08557897 0.20033067 0.030339459
-0.1712827 0.10070539 -0.0028003152 0.10629369 0.08194771 0.033350244 0.08138057 0.02888143
-0.13814883 -0.11369214 0.04824544 0.13201675 -0.055565182 -0.1391537 -0.0046870746 -0.08489058
-0.0060136877 -0.13636532 0.121793434 -0.06433257 -0.09628863 -0.099783495 -0.17751394 0.13133916
-0.04538911 -0.07478317 0.068788946 -0.025645131 0.032615773 -0.08761516 -0.13061298 -0.008133114
0.1055444 0.06700287 -0.10458336 0.024496153 0.10262539 -0.10705958 0.098417856 0.072149895
0.14464436 0.20939218 -0.19371079 -0.04814701 -0.23684408 0.107850656 0.10347754 0.12469691
-0.03374733 -0.017481714 -0.043265633 0.14589384 -0.19725811 -0.104357615 -0.055096492 -0.09948705
0.11014598 -0.07274332 0.088118576 -0.024660023 0.0014966698 -0.04462144 -0.1261887 -0.10716353
-0.14765885 0.12165102 0.041669685 0.041196078 -0.05848922 -0.11336956 0.12077572 -0.048114363
0.16447583 -0.13961345 -0.07918288 0.10390324 0.012233374 -0.06060362 -0.08653813 0.20422146
0.06508679 0.14796114 0.008390501 0.04920464 -0.12824614 0.010274149 -0.09578017 -0.27400845
0.23370005 0.11240567 0.25073826 -0.17987119 -0.18127948 -0.0681243 -0.009723784 0.0053390753
0.06660682 -0.014742371 0.2338972 0.14872232 -0.06655469 -0.13264324 -0.007826049 0.13439932

phi.phi.4.bias f4 [46]
00000000: 4518 b9bc e545 563d 60db e53d 5ef8 a73c
00000010: ea9f 873d 0fa7 d33d 4967 833b ab4c 413e
00000020: 5502 a5bd 6164 10be a4ea c03d 083a 81bd
00000030: fe80 bdbd 2548 e8bd 5645 97bc 9c73 8bbc
00000040: a57b debc 2391 13bd b3bd 363e 9c11 073e
00000050: a671 debd dbc9 89bd fe92 923c 9569 a83d
00000060: 69a6 103e 0b30 d23d 7de8 2f3e 1315 523c
00000070: 921d 18be 28e2 323d 3360 803d 407f 563d
00000080: 54f7 9fbd 86b0 0dbe ae75 5e3d 5ca2 883c
00000090: 9a17 a9bd 25be 1f3e 12f2 083e 3762 083e
000000a0: 7dbb 0f3e d168 e6bd c833 e23d 5473 e93d
000000b0: 97df f2bd f566 c13d
-0.02259458 0.05231275 0.11223483 0.020504173 0.06622298 0.10334598 0.0040101153 0.18876903
-0.080570854 -0.14100792 0.09419754 -0.06309897 -0.09253119 -0.113418855 -0.01846568 -0.0170229
-0.027158568 -0.036027085 0.17845802 0.13190311 -0.108615205 -0.06727954 0.017892357 0.08223263
0.1412598 0.1026307 0.17178531 0.012822407 -0.1485503 0.04367271 0.062683485 0.05236745
-0.07810846 -0.1383687 0.054311447 0.016678981 -0.08256455 0.15599878 0.13373592 0.13318716
0.14036365 -0.11250461 0.11045033 0.1139895 -0.11859053 0.094434656

phi.phi.6.weight f4 [10, 46]
00000000: a9a3 c43d 87c9 803d 05ad 11be 00a7 cdbd
00000010: fed6 23bd fbdf 753d e906 6bbe e624 9d3d
00000020: 9fa2 9ebd ccd5 98bd dc2e 693e e4a1 e7bd
00000030: bade 003c 993b 953d 1ca8 adbd b944 e13d
00000040: 1851 d8bc 77f5 0a3e f7d5 eb3d 4d74 163e
00000050: 8a2d 81bd 17e3 00be ac67 223e b6ca 6c3e
00000060: 87c7 143e 65eb 273e a60b 323e 531a 453d
00000070: a10b 2a3e bb7e e3bc a620 573e c646 163e
00000080: 1ca4 9f3b ae52 d1bd a3e9 1c3e 01a6 49be
00000090: 4976 b33c 5337 fd3d 47c8 213e 65fa 313e
000000a0: 43b6 693e cfcf bdbd 300b 3f3d 6f65 cabc
000000b0: 54d8 863d a11e 1a3e a1c2 11be a95f 0cbe
000000c0: 04e4 18bd 7d27 bfbc 4f4a b83d 50b0 de3c
000000d0: b4eb d03d 2f46 02be 6261 ff3d 403b 033e
000000e0: b7bb 933d 6808 3c3c e95c 103e 6e01 c8bb
000000f0: 9282 94bc 49fe 9bbc d809 373d 2cdf 593d
00000100: 13aa e43d 5306 b53d 9859 8c3d 3bac 173d
00000110: 1cec e53c d0e4 c13d 1651 7ebd 0683 af3d
00000120: 0f88 acbd 10c4 7ebd 6ae9 5f3d b8bb b9bd
00000130: f1f9 97bd b862 233d a41f 80bb 18bf b83d
00000140: 5c9d c0bd b67d 01be c424 4b3c 2344 613d
00000150: 6107 24bb 8820 ebbd e67a dbbd d13b 603d
00000160: d6a3 803c d786 a93d 3753 9bbd 0469 be3d
00000170: 3122 c0bb d323 183d 0434 bbbd bbda 97bc
00000180: 4e38 17bd 8e7c e9bd 6cf6 bd3d 3a4d 4a3d
00000190: 9df5 bebd 5dca 213d bd7b 13bd 13cb 13be
000001a0: a68d f73c 2ce1 c8bc dc0e b93d 9e0c 0bbc
000001b0: 71a9 abbd 9fa8 45bd 5672 513d 2126 dabd
000001c0: 6023 523c 596e e1bd becb e6bd 5b9e d8bc
000001d0: db86 ee3d ba6f 8abd 9ae5 a8bd 8b63 75bd
000001e0: 431d cfbd b95b 8abc 6ecf 01be 4968 733d
000001f0: 74f0 0fbe 1b9c 0ebe 14e3 0bbe 578b b4bd
00000200: c589 0d3d 7ff6 e03d 753e a6bd 4839 b63d
00000210: 1858 fbbd bfa4 e0bd 2692 503d 27e9 a7bc
00000220: db2d 90bd 9d4f 643c 3c76 113b cc0c d53d
00000230: 63b8 713d 585f 65bc 06c2 03be 1c94 6dbd
00000240: d200 efbd 529e 1abd b2dc 0fbd 9863 00bd
00000250: b87f f9bd aa40 6e3d a7fc 693d c56f 8bbc
00000260: 68bb 65bd b755 133d 09c6 be3d 3807 5f3d
00000270: 8974 fe3b 674d 063c 9d1c d63c 38b8 a93c
00000280: 750f 4dbd 63c3 eebd 2594 ac3d 72ab 953d
00000290: b652 1abe 4ddd 993c 11ee ccbd bd3d fb3d
000002a0: 84d3 a5bc bfbf a1bd 778e a8bd b88b a33d
000002b0: 10e7 54bd 0053 87bc b880 083e cda2 5abd
000002c0: 7531 cebd c192 d23c a6af 9c3c 4fae ccbd
000002d0: 1246 2b3d 44c7 ccbd cfe5 bcbd 45a1 01be
000002e0: 9415 2fbd 40c4 ce3a 21b9 7bbd f389 b6bd
000002f0: 4abe 71bd 5c87 0c3d 66ba 343c 972e 14be
00000300: 04df fabd b68d dd3d 65f9 853c 6b6a a53d
00000310: 97bf 78bb a90f 12be 78bb 0ebe e23a b83d
00000320: df5a 06bd ca04 76bd 8b8f 15be b089 a63d
00000330: aa50 9d3c 7aaa d7bd e1f8 bd3c 3859 c4bd
00000340: 7cc5 1fbd 8b69 a9bd a423 4cbd d15a 01bd
00000350: ef9d edbd 20a7 cdbd 3fcc 0cbe cd19 bd3d
00000360: fbac b2bd f1e6 dd3d 16af c63d ef4b acbd
00000370: 8938 c43d 94a8 f13b 7480 5abc c74e a83d
00000380: fe6c cc3d 4235 22bc 5247 113e f24c b8bd
00000390: 8699 cb3d aa60 a33d 95ef ff3d fbc4 74be
000003a0: e344 ca3e b3a7 163e 26a3 0ebd ef75 d8bb
000003b0: ee28 283e 3eba 233e c859 d7bd 7031 8c3c
000003c0: b85d 32be cd4a 7c3d 26e8 a5bd 2932 84bd
000003d0: b0cf 71bd 2a49 f2be c665 2bbd 81cf 3dbd
000003e0: 7337 15be 6dd7 fdbd 4a3d 57bd f2ef c53e
000003f0: b0c9 0abe 8e1e 3cbe 34a7 90bd a41c 2abe
0.09601528 0.06288438 -0.14226158 -0.10041618 -0.039999954 0.060028058 -0.22951855 0.076730534
-0.07745861 -0.074626535 0.22771782 -0.11310175 0.007865602 0.07286758 -0.0847933 0.10999436
-0.026405856 0.135702 0.1151542 0.14692803 -0.06307514 -0.12586628 0.1585986 0.23124203
0.14529239 0.1639839 0.17387256 0.048120808 0.16605999 -0.02777039 0.21008548 0.14675435
0.0048718583 -0.10220848 0.153235 -0.19692232 0.021906989 0.12364068 0.15799056 0.17380674
0.22823434 -0.09268152 0.04664153 -0.02470657 0.0658423 0.15050747 -0.14234401 -0.13708366
-0.037326828 -0.02333426 0.08998548 0.027183682 0.10201207 -0.12722085 0.12469746 0.12815571
0.07213538 0.011476614 0.14097942 -0.006103686 -0.018128667 -0.019042151 0.044687122 0.05319135
0.111652516 0.08839097 0.06853026 0.037029486 0.028066687 0.09467471 -0.06208905 0.085699126
-0.084243886 -0.0621987 0.05466596 -0.09069008 -0.074207194 0.039889067 -0.003910022 0.09020823
-0.09405014 -0.12645611 0.012398902 0.05499662 -0.0025028812 -0.11480814 -0.107168004 0.054744545
0.015703123 0.08277672 -0.07584231 0.09297374 -0.005863451 0.03714354 -0.091407806 -0.018536916
-0.03691893 -0.1140071 0.09275517 0.049390055 -0.09324191 0.03949963 -0.036006678 -0.14432935
0.03021891 -0.024521433 0.09036037 -0.008486895 -0.08381928 -0.048256513 0.05113443 -0.10651804
0.012825817 -0.11007375 -0.112693295 -0.026442697 0.116468154 -0.067595914 -0.08246918 -0.059909385
-0.10113003 -0.01688944 -0.12676784 0.059425626 -0.1405657 -0.13926737 -0.13660842 -0.088156395
0.034555215 0.109845154 -0.081173815 0.08897644 -0.12272662 -0.10968923 0.050920628 -0.020496918
-0.07039996 0.013934997 0.0022195717 0.104028314 0.059013736 -0.0139997825 -0.12866983 -0.058002576
-0.11670078 -0.037748642 -0.03512258 -0.03134498 -0.121825635 0.058167137 0.057125714 -0.01702107
-0.056086928 0.035970416 0.09315116 0.054450244 0.007765357 0.008197165 0.02613669 0.020717725
-0.05006357 -0.11658361 0.08426694 0.07308091 -0.15070614 0.018782282 -0.10006345 0.12267635
-0.02024246 -0.07897901 -0.08230298 0.079856336 -0.05197817 -0.01651907 0.13330352 -0.053377915
-0.10068027 0.025704743 0.019126724 -0.09994184 0.04181487 -0.099989444 -0.0922352 -0.12659176
-0.042745188 0.001577504 -0.06145585 -0.089130305 -0.059019364 0.034308776 0.011030769 -0.14470898
-0.12249568 0.10818045 0.016354272 0.08076938 -0.0037955993 -0.14263786 -0.13938701 0.08995606
-0.032801505 -0.06006316 -0.14605539 0.081317306 0.019203503 -0.10530563 0.023189964 -0.095873296
-0.039006695 -0.08272084 -0.049838677 -0.03158075 -0.11602389 -0.10041642 -0.13749789 0.09233437
-0.087244 0.10835064 0.09701364 -0.08412921 0.09581096 0.0073748324 -0.01333629 0.082181506
0.09981726 -0.009900393 0.14187363 -0.08999051 0.09941392 0.079774216 0.124968685 -0.23903267
0.3950568 0.1471241 -0.03482356 -0.0066058557 0.16421863 0.15989015 -0.10515171 0.017113417
-0.17418563 0.061594773 -0.081009194 -0.0645488 -0.059035957 -0.47321445 -0.041845106 -0.04634047
-0.14571933 -0.12394605 -0.052548684 0.38659626 -0.135535 -0.1837103 -0.070631415 -0.16612488

phi.phi.6.bias f4 [10]
00000000: 9d09 853d 2d41 dbbd 8c51 4dbd 181d 533d
00000010: 32cd 193b a2b8 343e 4cc9 1a3d 04ee fe3c
00000020: 7d1c a0bd 9db8 50bc
0.06495974 -0.10705791 -0.050126597 0.051541418 0.0023468253 0.17648557 0.037789628 0.031119354
-0.07817934 -0.012739328

rho.rho.0.weight f4 [35, 10]
00000000: 8670 9ebe 185c 01be a87f 173e a688 4c3e
00000010: 97ef 79bd efd7 f03d 4b34 c73d a9a6 9cbc
00000020: 942a 5cbd 53cc 1bbe d741 00be d114 91bd
00000030: 4340 a23d ca42 87bd 732c 91be 50d8 863e
00000040: 5555 c83e be50 6f3e f5b3 dd3c fc7e 783e
00000050: 6b79 58be 6539 833e b2a5 9ebe 2259 59be
00000060: f84b 10be 75a8 a93e 79c8 263e f6de 9ebe
00000070: 1899 2e3e 98d2 a43e 4daf 0dbe 8801 96be
00000080: 7987 8e3e 7c69 8fbe dff8 4b3d 1c0a 53bd
00000090: 7af3 0bbe 0c09 53be b308 893e c1b3 4ebe
000000a0: bdcb 6e3e 3342 59be efb4 3ebe 39e7 943e
000000b0: b3af 57bd 2c1a efbd 38df b9bd 23ff 8cbe
000000c0: bb1e 8d3d b277 e4bd 98c2 8d3e a169 6e3e
000000d0: 7587 f0bd ad61 893e 78c9 833c 1ecf ac3c
000000e0: 3a63 2fbe 54b6 353a 1a76 c63b 1b00 5fbe
000000f0: 81b0 093d f353 19be a73c 5abe 0663 10be
00000100: 1856 11bc 85ce 96be ddd5 c5be 7b2b 17be
00000110: 4e34 89be 2032 15be b9ad 66be e55d 6a3c
00000120: fd19 debd 5402 00bd a1f1 483e ca52 223e
00000130: a57d a63e c81c 21bf c5d0 81be 36a7 f03c
00000140: 1cd0 7abd d596 6dbe 2980 95be 000c 1ebd
00000150: 84f0 853e b8f9 333f bd39 04bf 460a ac3e
00000160: bd0a 12be f3a1 473d b2ed 1ebe 628d b8bc
00000170: 72a1 70bd 6d69 55be ac4e 70bd 68fe 353e
00000180: ff35 4cbd 7245 0ebd 44e3 8e3e 1469 c8bd
00000190: e4e3 36be 385b 47be c461 d03d 573d 5dbc
000001a0: e44b aa3d d4d9 6fbe 0374 2d3e 4347 5bbe
000001b0: e00c 8c3d 0f8a b2bc f42f 4ebe e46b 563e
000001c0: 6cac eb3d 2115 943e aeab 98be a4f1 4a3e
000001d0: 49fb 773d 2c90 21be 5bd6 8d3e 8028 843e
000001e0: e7b9 37be 17c1 06be 04d1 123d aca2 203e
000001f0: 46a2 8d3e 14d9 66bc 36cc 953e 0635 753c
00000200: d18e 813e 129c 46be 9ec5 cdbc 6b43 483e
00000210: 0e07 023e a249 7abe dfae 97bb 67bd 383e
00000220: f53c 483e a310 6cbe ab9b 03be f8a5 63be
00000230: 23b1 5fbe b7d7 b9bd 8715 9dbe 58ed 103d
00000240: a67b 9a3e 15ca 33bd 78c9 f1bc 7bd6 bb3d
00000250: f36f ffbc c756 a23d 0956 3a3e a642 7c3e
00000260: b655 2d3e 8f83 eebd 8993 283e df68 3f3e
00000270: 646c a53e 1221 b0bc 1ddf 863d ed35 44bc
00000280: ab87 ecbd a1d5 d1bd 4402 723e 32ff 5e3e
00000290: 5054 88be fe7c 8c3e a3d8 63be ce46 90be
000002a0: 77b2 8e3e 76a9 2ebd 8e56 883d a2bf d2bd
000002b0: c9fa 7ebe cc4e c6bd cb91 0bbe c3c4 69bc
000002c0: fd9b 8a3c 321d bd3d 4051 90be 15d9 3c3e
000002d0: 5e54 72be 9e21 64bd e817 99be 38ff 8ebd
000002e0: bfa9 56bd 34f3 303e 9432 75bc 6638 463d
000002f0: 90c1 683e d43a c93d 6d31 0e3e ddc7 aabc
00000300: 29b6 3bbe 6d43 413e da46 2fbe f519 1bbe
00000310: 0311 d63d 8615 72be e62a 8d3e 46b2 40be
00000320: 994f 0d3d 452a 7dbe 8896 3fbe 011c ecbd
00000330: 44c3 03be 6a04 33be 6e79 9c3d fb96 83be
00000340: b46d 93bc d61a 083d 6af2 15bc e69e 5a3d
00000350: ba67 45b9 1fc8 8ebe e5c3 b3bd 1b58 febd
00000360: 66d7 1fbe 1d7e 8bbe 1b35 c13c 8a4c 55be
00000370: f0d5 49be 68c5 ae3c 1a6c dd3d cd64 203e
00000380: 8fdc 603e 59fa 9bbe 9822 c2bd 5d1d 903e
00000390: 7b44 99be a24a 0b3e 82ac 9ebe 5343 0d3e
000003a0: 1a75 3c3e 42c5 ec3b a33d ea3a 59be fbbd
000003b0: 5824 9f3e 84df 65be 5537 363e 033d 33be
000003c0: 63a6 0fbe 11f3 49be 9f54 a13e 4e49 9ebe
000003d0: 86fa 8e3e 3454 bc3d 1834 cd3e da00 6abe
000003e0: 3aac 09be e852 15bd 23a0 8b3e e835 9fbe
000003f0: efdf 5f3d c705 053d 59f5 833e b3cd 993d
-0.30945224 -0.12632787 0.1479479 0.19974002 -0.061019506 0.11759936 0.09726771 -0.019122439
-0.053751543 -0.15214662 -0.12525116 -0.070840485 0.07922413 -0.06604536 -0.28354225 0.26336908
0.39127603 0.23370644 0.02706335 0.2426719 -0.21140067 0.25629726 -0.3098579 -0.21225408
-0.1409148 0.33136335 0.16287412 -0.3102948 0.17050588 0.3219192 -0.13836403 -0.29298043
0.27837732 -0.28010166 0.04979789 -0.051523313 -0.13667098 -0.2060892 0.2676445 -0.20185758
0.23319907 -0.21216659 -0.18623708 0.2908266 -0.052657794 -0.11674914 -0.09075779 -0.27538404
0.06890627 -0.111556426 0.27687526 0.23282482 -0.117445864 0.26832333 0.016087279 0.021094855
-0.17127696 0.0006931771 0.0060565593 -0.21777384 0.033615593 -0.1497343 -0.213122 -0.14100274
-0.008870624 -0.29454437 -0.38639727 -0.1476268 -0.26797718 -0.14569902 -0.22527207 0.014304613
-0.108448006 -0.03125222 0.19623424 0.15851894 0.32517734 -0.6293454 -0.2535459 0.029376607
-0.061233625 -0.23202069 -0.2919934 -0.038585663 0.2616006 0.70302916 -0.516506 0.33601588
-0.14261909 0.04873843 -0.15520361 -0.022528354 -0.058747716 -0.20840998 -0.058668777 0.1777283
-0.049856182 -0.034734197 0.27907765 -0.09785667 -0.17860371 -0.19468391 0.10174897 -0.013503394
0.08315256 -0.23422939 0.16938786 -0.21413903 0.06838393 -0.021794347 -0.2013548 0.20939595
0.11507496 0.2892237 -0.2981848 0.19818741 0.06054238 -0.15777653 0.27702603 0.2581215
-0.1794201 -0.13159595 0.035843864 0.15687054 0.27662867 -0.014089841 0.29257363 0.014966255
0.25304273 -0.19395474 -0.025118645 0.19556968 0.12698004 -0.24442151 -0.0046290006 0.18041001
0.19554503 -0.23053221 -0.12852351 -0.22231281 -0.21844916 -0.090743475 -0.30680487 0.0353826
0.3017246 -0.043893892 -0.029515013 0.09171768 -0.031181311 0.07926708 0.18196882 0.246348
0.16927227 -0.116461866 0.1646253 0.18692349 0.32309258 -0.021500144 0.06585524 -0.0119757475
-0.11549314 -0.102458246 0.23633677 0.21777037 -0.26626825 0.2743911 -0.22250609 -0.2817902
0.27870533 -0.04264208 0.06657134 -0.10290457 -0.24900354 -0.09682998 -0.13629834 -0.014268103
0.016920084 0.09234084 -0.2818699 0.18442185 -0.23664996 -0.055696122 -0.29901052 -0.06982273
-0.052407976 0.17280275 -0.014965672 0.04839363 0.22730088 0.09825674 0.13886042 -0.020847255
-0.18331207 0.18873377 -0.17116871 -0.1514662 0.104524635 -0.23641023 0.2757179 -0.18818006
0.03449974 -0.24723156 -0.18709767 -0.11528779 -0.12867457 -0.17482153 0.076403484 -0.25701126
-0.017996646 0.033228718 -0.009152034 0.053374194 -0.00018826025 -0.27887055 -0.08777598 -0.124191485
-0.15609512 -0.27244654 0.023584893 -0.20829979 -0.19710517 0.021334365 0.10811634 0.15663452
0.21959136 -0.30464438 -0.094792545 0.28147402 -0.2993506 0.13602689 -0.30990988 0.13795213
0.18404046 0.0072256634 0.0017871152 -0.12292165 0.31082416 -0.22448546 0.17794545 -0.17503743
-0.14028315 -0.19721629 0.31509873 -0.30915302 0.2792551 0.09195748 0.40078807 -0.22851887
-0.13444605 -0.03645602 0.27270612 -0.31095815 0.05465692 0.032476213 0.25773123 0.07509937

rho.rho.0.bias f4 [35]
00000000: 3ff0 6dbe 0c38 573e 7086 b939 b2da 723e
00000010: f855 6cbe fb87 b3bd 57f9 2d3e aff9 37be
00000020: bfeb 76bd 78c8 5f3e 5877 96be 3296 96be
00000030: c1e0 9ebd 8ea3 9dbe 8c57 28bd 9528 743d
00000040: 3031 d7bd 347e 0a3e b08d 47be 921a 053e
00000050: 1e74 233e 5a3b 81be 3353 4dbe a896 2b3e
00000060: 3531 1d3e 4927 9dbd be20 513e 7fd2 f23d
00000070: 8753 d1bd 6736 c5bc fff6 d8bc cac0 1abc
00000080: 021b 9abd 6a43 b53d 450e cebd
-0.23236178 0.21017474 0.00035386113 0.23716238 -0.2307967 -0.087661706 0.16989647 -0.1796634
-0.06028342 0.21853817 -0.29387927 -0.29411465 -0.07757712 -0.30788845 -0.041099116 0.059609015
-0.10507429 0.13524705 -0.19487643 0.12998417 0.15962264 -0.25240594 -0.20051269 0.1675669
0.15350802 -0.07673509 0.20422646 0.11856555 -0.1022101 -0.024073793 -0.026484964 -0.009445379
-0.075246826 0.08850749 -0.100613154

rho.rho.2.weight f4 [35, 35]
00000000: 3b8a cfbd 4430 4dbd f034 bdbd 3d1e 02be
00000010: 3da4 9ebd 4425 01be 00d2 3a3e 1119 f0be
00000020: e79b b43e 5235 0b3e 89e7 c33d 206c 283e
00000030: 367a ae3d e855 91bd 9899 2cbe e7c0 8cbc
00000040: 5049 21bd 3c95 8e3c c43c 9c3d 8e4b 2ebe
00000050: 0cac c7bd 5a06 93bd b56b 393d 9ab4 1b3d
00000060: 0f48 773d 72a1 48be 4785 a1bd bf7a 50be
00000070: f73c fe3d 5811 343e 967a a43b e08d 4a3e
00000080: d4d4 943d 9cf0 e6bb 3f7c 9cbd d7ea 063e
00000090: b57b ec3d 6156 ee3d d45b db3d 784a fe3d
000000a0: 71f9 0b3e e299 0abe 12e0 5ebd d59d 2b3e
000000b0: 7676 c6bd 25b5 243d e2fb 183e c4ea 933d
000000c0: f5d5 96bd a059 7bbd c3da 48be fc48 d33d
000000d0: 42db 3abe df4d aebd 0d85 b33d 5d09 42be
000000e0: 9d67 263e 9aaf 103d 3010 9cbd 35aa b3bd
000000f0: a3b0 c2bd c42b fd3d 35b9 e1bd 928d 17be
00000100: 91eb 14be 5132 033e 4097 493d d07b 18be
00000110: 5f6f 0a3d f231 f43d 9daa a0bd 7bc3 e53c
00000120: cd6c babc 2828 fabd 39ed 02be bb83 fdbb
00000130: bbe4 c93d ef31 9d3c b839 233e f158 18be
00000140: bdda 24be 6bcf c3bd 31e1 d1bd 3dfc 803d
00000150: 061e fbbd 1820 823b 7fd6 da3d ce29 3abd
00000160: 9cf8 433d 237b 293e 81ad 11be 7fec 1fbe
00000170: 50d4 a3bc deb6 e53d 6b95 ad3d 4288 a43d
00000180: 6565 3fbc 4e44 0a3e 812f b43b 1846 03be
00000190: da82 be3d d372 813d f2c4 63bd e10c 323d
000001a0: 22f7 1f3e 85f4 e53d 1e5b c43c 034b 6d3d
000001b0: fe98 78bd cfb8 1b3e cd99 b03e 1b67 c53d
000001c0: ae0e be3d d8fb ec3e cb9a 4d3d 28c7 cf3d
000001d0: 45c8 b9bd 9e4c f8bc 01df 9c3d 903d 233e
000001e0: 14fc c4bd 914c d63d a232 aabd 03ca 91b8
000001f0: 891e 963d 2bfd 693d 089c cbbd cda0 eb3d
00000200: 182f 063c ea23 f9bd 868a be3d 0910 903d
00000210: 507e d43d 1724 ccbb af5b 763c e80b 193e
00000220: f1f3 563d 603a c83d 7c10 7d3d 067f 993c
00000230: b74c 6cbd de75 f7bc 171a dbbd 647b 043e
00000240: 8e3b a83d e398 4dbe 41fa 04be 9056 29be
00000250: e6c0 8cbe a96f 7f3a 6c69 1abe f8d4 053e
00000260: 27e0 8c3b a5f0 e8bd f0bc 9fbd f69c 4c3d
00000270: c70e e53d 747e ffbd 5e7e 00be ac14 a83c
00000280: e713 203e a6fd 19bd fa59 813d 9689 f4bc
00000290: fb67 e43c 13a0 0bbe e05a 263d 7922 cc3d
000002a0: 40b8 733c e37f 32be 30e3 f3bd 7226 24be
000002b0: a57b a5bc 528b 503d 5338 e63c 86e0 85bb
000002c0: 3f98 253e a63a 343d 9828 97bd 3b6b a53d
000002d0: aa0e 07bd bb4b c53d c4d2 8cbe a094 d23e
000002e0: e22e 56ba b2e9 0cbe 3ec0 86bd 9122 10be
000002f0: 83c4 803d 1b66 843d cb4d c6bd 8139 67bc
00000300: d4b6 153e 21b7 79bb 9d40 18bc ba74 623d
00000310: c34b 1ebe d680 2abc 2f3d 003b 8ddf 1c3e
00000320: 86c0 8d3d ad50 88bd f3c5 a33d 17b3 433d
00000330: fd51 a6bd 0d89 6c3d 8ef2 173e c20d 18be
00000340: bd79 1b3e d390 173e b8f8 283e 6799 133e
00000350: b1ba e7bb e28e e73d 7594 3bbd fd04 0bbe
00000360: 5627 c6bd c5ca c33d 8671 253d 2b48 2fbe
00000370: 2499 85bd f4f3 203d 8926 093e bb53 1dbe
00000380: 7b12 92bd 3c7c 8abd d74b e13d 9721 bcbd
00000390: ae51 adbd 8b4e 46be a341 893d 4e54 07be
000003a0: 9235 77bd eca6 103e e9be e03d 0f8a 41bd
000003b0: b56d 813d 1daa 643d f8fc 703d 58a7 00bd
000003c0: a441 933d b00a 0c3e ad33 fdbd b946 2ebe
000003d0: 92fa 18be 394f abbd 98e3 66bd 5846 983c
000003e0: 824e 963e ffe8 fa3d 28ea 0e3e c4c9 943e
000003f0: f38d a63e d2e5 ddbe 02e5 ec3d df0c 053e
-0.10133787 -0.050094858 -0.09238613 -0.12706847 -0.0774617 -0.12611872 0.18244171 -0.46894124
0.35275194 0.13594559 0.09565646 0.16447496 0.08519404 -0.070964634 -0.16855466 -0.017181827
-0.039376557 0.017405145 0.076287776 -0.1702101 -0.09749612 -0.07178946 0.045268733 0.038014032
0.060371455 -0.19592836 -0.07886749 -0.20359324 0.12413972 0.17584741 0.005019496 0.19780684
0.07267156 -0.007047726 -0.076408856 0.13175522 0.11547033 0.11637569 0.10710874 0.124165475
0.13669373 -0.13535264 -0.05441291 0.16759427 -0.096905634 0.040211815 0.14939836 0.07222512
-0.07365028 -0.06136477 -0.19614701 0.10316655 -0.18247703 -0.085109465 0.08765612 -0.18948884
0.16250463 0.035323717 -0.07620275 -0.08772699 -0.09506347 0.12361863 -0.110216536 -0.14800099
-0.14542986 0.12812163 0.04921651 -0.1489098 0.033797618 0.11923589 -0.07845042 0.028047314
-0.022756958 -0.122146904 -0.12785806 -0.0077366508 0.0985808 0.01918885 0.15939987 -0.14877678
-0.16099067 -0.09561046 -0.1024803 0.06298111 -0.12261586 0.003971111 0.10685443 -0.045450024
0.047844514 0.16550879 -0.14226343 -0.1561756 -0.0199987 0.1121652 0.08475765 0.080338016
-0.011681889 0.13502619 0.005498827 -0.12819707 0.09302302 0.06320729 -0.055607744 0.043469314
0.15621617 0.11228279 0.02396923 0.057932865 -0.06069278 0.15207218 0.3449234 0.096388064
0.09280144 0.46285892 0.05019645 0.10145408 -0.090714015 -0.030309971 0.07659722 0.15941453
-0.096183926 0.10463823 -0.08310439 -6.9517664e-05 0.07330043 0.057126205 -0.0994187 0.1150528
0.008189939 -0.12165053 0.09303765 0.070343085 0.10375655 -0.006229888 0.0150365075 0.14945948
0.052478734 0.09776759 0.0617833 0.018737327 -0.05769035 -0.03020757 -0.106983356 0.12937695
0.08214484 -0.20077853 -0.1298609 -0.16536927 -0.2749092 0.00097441167 -0.15079278 0.13069522
0.004299182 -0.11374024 -0.07799709 0.049954377 0.11184459 -0.12475291 -0.12548205 0.02051767
0.15632592 -0.037595414 0.0631599 -0.029850762 0.027881613 -0.13635282 0.04061401 0.09967513
0.014875472 -0.17431597 -0.11908567 -0.1603029 -0.02020056 0.050914116 0.02810303 -0.004085603
0.16171359 0.044001244 -0.073807895 0.08077093 -0.03297297 0.09633585 -0.2750455 0.41129017
-0.0008170438 -0.13761023 -0.06579636 -0.14075686 0.06287482 0.064647876 -0.096828066 -0.014112831
0.14620525 -0.0038103538 -0.009292749 0.0552871 -0.15458588 -0.010406693 0.0019567718 0.15319653
0.069214866 -0.06656013 0.0799674 0.047778215 -0.08121107 0.05774789 0.14838621 -0.14848998
0.15183158 0.1480134 0.16501129 0.14413987 -0.007071816 0.113065496 -0.045795877 -0.13576122
-0.096754715 0.095601596 0.040391468 -0.17117374 -0.0652335 0.03929515 0.13393606 -0.15363972
-0.07132431 -0.06761977 0.110007934 -0.09186094 -0.08462845 -0.193659 0.06701972 -0.13215753
-0.060353823 0.14126176 0.10973913 -0.047250804 0.06319753 0.055826295 0.058835 -0.03140959
0.07190254 0.13675952 -0.12363372 -0.17019166 -0.14939335 -0.0836472 -0.056369394 0.01858823
0.29356772 0.12251472 0.13956511 0.29060185 0.32530174 -0.433394 0.11567117 0.12993191

rho.rho.2.bias f4 [35]
00000000: 5a5e f03d 7708 89bd cbfc 26be 153d b3bc
00000010: 9410 19bd e518 cc3c 5aa8 18be 2fe4 1ebd
00000020: 3aed bdbb 9c89 113e 2a6e 28be 3a1b d13d
00000030: b1f4 1c3d 80aa b7bd 5ab0 083e cd99 a9bd
00000040: 2ab2 47bd 096a 453c 15f8 953d a019 02bd
00000050: 4597 003e 95d8 80bd bafe 91bd b3a0 e2bd
00000060: c625 3e3c 24ba 0ebe c18a d73d 5d66 05be
00000070: b224 1e3c 5c20 aebd df7f f33d 08f0 ba3d
00000080: 7a58 dcbc 8570 ab3b 5d1a 4fbd
0.11736746 -0.06691068 -0.1630737 -0.021879712 -0.037369326 0.024914214 -0.14907971 -0.03879183
-0.005796102 0.1421265 -0.16448274 0.10210271 0.038319293 -0.08968067 0.13348523 -0.08281288
-0.048753895 0.0120492065 0.073227085 -0.03176272 0.12557705 -0.0629131 -0.07128663 -0.11065807
0.011605686 -0.13938195 0.10524512 -0.1302733 0.0096523035 -0.08502266 0.11889624 0.091278136
-0.026897658 0.005231919 -0.05056225

rho.rho.4.weight f4 [35, 35]
00000000: ed5e 25be 107a 003e b9a3 99bd be25 383e
00000010: 9238 2bbe 683f 1cbd acf2 b2bd 4a27 933e
00000020: 4224 c8bd 63fa e63c cf24 e33d 90b0 e7bd
00000030: 8ec3 77be c58b 63bd d099 21be a04b 1ebc
00000040: 9957 a0bd 2978 213e ecef 523d c9ef d3bd
00000050: f9c8 fabd a615 763d 90e9 a03c c6f5 0f3e
00000060: d7c8 173e 326c f1bd 1bb3 ce3d 7bb8 e2bd
00000070: 52d5 7d3d 1bba fcbd 7a87 833d 860f de3d
00000080: 2e78 d7bd cc5d e5bd 2b7e b73d 3476 903d
00000090: 058d f9bd 22bd babb 60fd 12be bcd6 0f3c
000000a0: 653a 18be 5235 413d 4c03 8cbe f640 023e
000000b0: b0a5 c3bd 2202 c6bd 8ddf 8fbd ae22 d73d
000000c0: c8cb afbd 9279 1bbd 62e0 d7bd 3289 1dbd
000000d0: 16ba 103e c523 9d3c 6908 073e 362d 983d
000000e0: 225d 563c 40e0 ffbd 83b7 193e 8ee7 463b
000000f0: 2762 ccbd cc48 13be f9c8 303d 41d1 6bbd
00000100: a6ae 45be eadc 093e b85b 9fbd 336d f1bd
00000110: 4d38 02be 78e4 2a3e 6724 e03d 188b 063e
00000120: c141 263e a655 15be 74d2 40be c16b 613d
00000130: 5c5e 36be 2b0d 74be db68 4cbd cdf0 d4bd
00000140: 360a b0bd 11ff fdbd ab8f 673d e798 023e
00000150: 373f 70bb f7c0 06be 5a48 07be 15fb 0fbd
00000160: 05ce 183d 90c5 f8bd 8e19 e33d 190e 88bd
00000170: 1f1b f6bd 8731 22be 1ee5 13be d1ba 103d
00000180: ec5f 14be 7c1b cbbd 8aef 85bc 4c06 333e
00000190: f2b1 6f3d bf81 b93d 5f9b 863c fc54 c7bd
000001a0: c66a 493d 2e7f 9e3d 4ab5 d3bd 3014 1c39
000001b0: 896f 033e 77de a7bd 3dd2 f43d c677 ed3d
000001c0: a10d 93bd 7936 ea3d 1ae4 163e b56f 363d
000001d0: 07d4 55bd f20e b7bd 0e57 963d 0125 13be
000001e0: f89a fe3c a235 02be 1c81 5f3d 08ef c53d
000001f0: 00cc fe3d fafa 0c3e 1656 28be 759c 263e
00000200: 06fb b23d e214 e4bd 7df2 283e c070 00be
00000210: 5d84 f63d 318b a93d a745 03be 6c26 d13c
00000220: a076 b3bd 9bef 1fbe cb24 693d eb06 95bd
00000230: 1270 c0bd 443d b23d 2740 34bd 0778 9a3d
00000240: 3f0d 81bd 5ec9 a7bd a438 b53d 7bfc b23d
00000250: 2cf5 f2bd faa7 f23c a047 943d ce20 57bd
00000260: a7e2 aabd 154a 0d3e 2adc 0e3e 163f 303d
00000270: 2ff2 fc3d 8a7a e7bd 8f25 f6bc ab85 2a3e
00000280: 6b10 bdbd 151c eabc 43b5 d1bd 7b66 e9bd
00000290: 89ba 6f3d f6bb 20be 45ed 243e 69f4 b9bc
000002a0: 38ee 11be 3956 e1bd db7e e1bd e4ef 073e
000002b0: 1abf 283e a5cd 993d 4e98 15bc a36c 47bc
000002c0: e971 a2bd a513 0a3e 5e4b 7f3d 24c1 363d
000002d0: 2b55 603d b48e 193e d680 02be e822 9fbd
000002e0: 461d c9bd 0d6e 9fbd fbad a3bc 1555 fc3d
000002f0: fc44 893d 03fc a5bd 4c2f 29be c993 0c3d
00000300: eaed f13d 2840 df3d be15 ebbd 421c 963d
00000310: de0f 0ebe af3f 2f3a 95ab 21be bb35 a8bd
00000320: e382 babd 2f8c 2abe d48d aebd e1bc bb3d
00000330: e072 cdbd 4754 923c 9d97 2ebe 94d4 103d
00000340: d84c d53d 752f 083d d04f 973d fcef 9fbd
00000350: d054 7a3d 3136 86bd 419f fa3d e430 e0bd
00000360: d40f ff3c 628b cd3b 8d7d eb3c bc7a daba
00000370: 0d4e 1b3e 1b9d 153d e5d0 6e3d bd0a 39bb
00000380: 9728 e23b d29e 9abd cda6 193d 0cdb 273d
00000390: c8df 7cbd ef9a 4e3c 13ad 71bc cf8d 163e
000003a0: dd3e 3a3e b33f cabd 20a2 1b3e 0936 2ebd
000003b0: f3df c63d 0f9d abbd 13e9 4fbd 8de4 73bc
000003c0: f938 e73d 95f7 a7bd 75ea 1ebe 294f 10be
000003d0: 841b 183e 4116 fd3d 9650 45bc 26ac 983d
000003e0: d618 5dbd 336c d5bd 649d 27be 01ec 0b3c
000003f0: 8ee6 c33d a9ce f9bb d6d0 0e3e 9aa7 1dbe
-0.16149493 0.12546563 -0.07501931 0.17983148 -0.16720799 -0.038146406 -0.08737692 0.28740913
-0.09772541 0.028195566 0.11091005 -0.113129735 -0.24195692 -0.055553216 -0.15781331 -0.009661585
-0.07829208 0.15768494 0.05149834 -0.1034847 -0.12245364 0.06007924 0.019642621 0.14058599
0.14822708 -0.11788215 0.100927554 -0.11070343 0.061971016 -0.12340184 0.064223245 0.108428046
-0.10520969 -0.11199531 0.089596115 0.070537955 -0.121851005 -0.005698816 -0.14354467 0.008779224
-0.14866026 0.04716999 -0.27346265 0.12720093 -0.09553087 -0.096683756 -0.07025061 0.105046615
-0.0858379 -0.037957735 -0.105408445 -0.038460918 0.14133486 0.019182095 0.13186802 0.07430498
0.013083728 -0.12493944 0.1501141 0.003035042 -0.099796586 -0.14383239 0.043160412 -0.057572607
-0.19304904 0.13463178 -0.07781166 -0.11788406 -0.1271679 0.16688716 0.10944443 0.13138998
0.1623602 -0.14583454 -0.18830281 0.055034403 -0.17809433 -0.23833148 -0.049904685 -0.103974916
-0.085956976 -0.12402166 0.056533497 0.1275364 -0.0036658773 -0.13159548 -0.13211194 -0.03515156
0.03730585 -0.12147057 0.110888585 -0.06643314 -0.12016892 -0.15839206 -0.1444287 0.035334412
-0.14489716 -0.099173516 -0.016349573 0.17482871 0.05851931 0.0905795 0.016431509 -0.09733006
0.049174093 0.07739101 -0.103373125 0.0001488484 0.12835516 -0.08196729 0.11954162 0.115951106
-0.07180334 0.11436171 0.14735451 0.044540126 -0.05220416 -0.089383975 0.07340823 -0.14369585
0.031079754 -0.12715772 0.054566488 0.09664732 0.12441254 0.13767615 -0.16439089 0.16270621
0.08739285 -0.111367956 0.16498752 -0.1254301 0.12036965 0.08278502 -0.12819539 0.025531016
-0.0876286 -0.15618746 0.056919854 -0.0727671 -0.09396376 0.08703092 -0.044006493 0.07542425
-0.063013546 -0.081927046 0.08848694 0.08739563 -0.11863169 0.029621113 0.07240224 -0.05252152
-0.08344012 0.13797791 0.13951173 0.043028913 0.1235088 -0.11302669 -0.030047206 0.16652553
-0.09231647 -0.028577844 -0.10239651 -0.113965 0.058527503 -0.15696701 0.16106136 -0.022699552
-0.1425103 -0.11002774 -0.11010524 0.13275105 0.1647915 0.07509927 -0.009130551 -0.012171897
-0.07931883 0.13484056 0.062327735 0.044617787 0.054768723 0.14995843 -0.1274446 -0.0777033
-0.098200366 -0.077846624 -0.019980421 0.123209156 0.06702611 -0.08104708 -0.16521949 0.034320626
0.11812957 0.10900909 -0.11478756 0.073296085 -0.1387324 0.000668521 -0.1578811 -0.08213373
-0.09106996 -0.16655038 -0.08523145 0.09166885 -0.10031676 0.017862452 -0.17050023 0.03535898
0.104150474 0.033248384 0.0738827 -0.07809445 0.06111604 -0.06553305 0.122374065 -0.10946825
0.031135477 0.0062727192 0.02874639 -0.0016668658 0.15166493 0.03652678 0.058304686 -0.002823516
0.0069018113 -0.07549824 0.03751259 0.040980384 -0.061736852 0.012610181 -0.014750737 0.14702533
0.18188043 -0.09875431 0.15198565 -0.042532 0.09710684 -0.08379566 -0.050759386 -0.014886034
0.112901635 -0.082015194 -0.15519126 -0.14092697 0.14854246 0.1235776 -0.012043139 0.0745471
-0.053978764 -0.10421028 -0.16368634 0.008540154 0.09565459 -0.0076235128 0.13946852 -0.15395966

rho.rho.4.bias f4 [35]
00000000: 996c dabc 2478 2d3d 82a0 6bbc e904 1ebe
00000010: 9fd2 d2bd 6386 f7bd 2f2d d1bb b420 4abd
00000020: d9f8 dfbd 6b13 ba3d d335 773d 1c69 1b3b
00000030: cdf0 08be 1128 04bc 2981 a43d f432 97bd
00000040: 98b8 243e 637d a0bd e3d1 283e 4556 e0bd
00000050: 0706 0bbd 58a3 f4bd 9813 d63d a30c 8b3d
00000060: bcd4 f43d 37bd 633d 515c 0f3d aedb 11be
00000070: 273f cf3c 0509 30bd 5bf4 9e3d ba91 16be
00000080: 2821 f63c 66f5 91bd 62e4 1fbe
-0.026663112 0.042350903 -0.01438153 -0.1543156 -0.10294079 -0.12086179 -0.00638356 -0.049347594
-0.10936136 0.09085735 0.060354065 0.0023713773 -0.13373108 -0.008066193 0.08032448 -0.073827654
0.16086042 -0.078364156 0.16486315 -0.109539546 -0.033941295 -0.11945218 0.10452956 0.0678952
0.11954638 0.05560037 0.03500015 -0.14243957 0.025298668 -0.04297735 0.07761451 -0.14704028
0.030045107 -0.07126884 -0.15614465

rho.rho.6.weight f4 [1, 35]
00000000: 84f0 24be 67f0 03be 3411 e43a d7d9 243e
00000010: a316 773d 4a79 f9bb 105f 0cbc 123a c0bd
00000020: fa5e 31bd 924a 05bc f5dc 29bc abba 1b3b
00000030: adf6 bf3a eb61 bf39 7a08 30bc 2392 0ebe
00000040: 72a6 50be f6b1 97bd 9292 173e cfa0 e5bc
00000050: de3f da3d f686 293e ca37 a13d c758 f9bd
00000060: 28da f1bd ad12 5ebb ece5 07be 61c2 b93c
00000070: 97ab b03c 0559 ccb9 8d9f c9bb 7e39 e73d
00000080: a2b2 ca3d 86a8 ecbd 41de 2f3d
-0.16107374 -0.12884675 0.0017400146 0.16098724 0.060324322 -0.0076133357 -0.008567587 -0.09386076
-0.043303467 -0.008135455 -0.010367622 0.0023762386 0.0014645659 0.00036503313 -0.0107442085 -0.13922934
-0.20375994 -0.0740699 0.14802006 -0.028030781 0.10656713 0.1655539 0.07871969 -0.12175136
-0.11809188 -0.0033885643 -0.13271302 0.022675695 0.021566195 -0.00038976237 -0.006153053 0.11290263
0.09897353 -0.11555581 0.042936567
