src/lightning_logs/version_114/checkpoints/epoch=199-step=2400.ckpt (torch, 44419 bytes, 33 tensors)

phi.phi.0.weight f4 [30, 3]
000000 e1 dc 12 bf da 39 13 bf 9a e2 f8 bd a6 27 0a 3f
       -0.57368284 -0.5751015 -0.12152596 0.5396675
000010 9b 68 4b bf f0 b4 d6 3e 06 7f 6c be b1 27 2d 3e
       -0.7945649 0.4193492 -0.2309533 0.16909672
000020 9d af d7 3c 8d 46 05 bf 05 27 f5 3e 6a 2a 9f 3e
       0.026328856 -0.52060777 0.47881332 0.31087047
000030 c8 e9 3e 3f d9 4c a3 3e 98 45 e4 be 16 9a f3 3e
       0.7457547 0.31894568 -0.44584346 0.47578496
000040 7b 8a d8 bc db 21 9e 3e fb 05 ed be f5 0b 2a be
       -0.02643322 0.30885205 -0.46293625 -0.16606124
000050 86 1f 11 bf 44 45 66 be 58 15 ff 3d af 18 e8 be
       -0.56688726 -0.2248736 0.12455243 -0.45331332
000060 1c 1e 99 3e 23 87 c2 3e 0c 0d 3a be 84 c8 c5 be
       0.29905784 0.37993726 -0.1816904 -0.38629544
000070 e5 2f e5 be a7 65 36 be d9 9d 79 3e 4f 4b 0b 3f
       -0.44763103 -0.17812215 0.2437662 0.54411787
000080 75 f3 e5 3e cd 87 13 be f5 28 de 3e ef 4a 13 bf
       0.44912305 -0.14407273 0.43390623 -0.57536215
000090 a6 79 fc be 4d ee 89 3e 29 6f a7 be a7 36 8e 3e
       -0.4931156 0.26939622 -0.32701996 0.2777607
0000a0 07 ad d0 be 62 6a 92 be 37 7c f3 be 02 42 9a 3e
       -0.4075701 -0.2859679 -0.47555706 0.30128485
0000b0 d8 f6 70 bd be e4 05 3f d1 9c 6e 3e 2f 81 ad 3e
       -0.05882916 0.5230216 0.23302008 0.33887622
0000c0 56 16 98 3c c0 c9 36 be 0b 8c 00 be b0 a8 1f 3e
       0.018565338 -0.17850399 -0.12553422 0.15591693
0000d0 15 a1 98 3e d2 6b 2d bf e7 a5 24 3f e6 49 47 bd
       0.29810396 -0.67742646 0.64315647 -0.04865446
0000e0 0a 20 25 bf e5 ab b2 be 25 0e 06 3f 68 96 0b 3f
       -0.6450201 -0.3489677 0.5236533 0.54526377
0000f0 da e7 08 bf 10 7d d0 3e f3 24 94 3e 1b f9 ae 3e
       -0.5347878 0.40720415 0.2893444 0.34174427
000100 a3 3c fa 3e c5 50 9f be 58 bb 2c 3d 88 4e ad 3e
       0.48874387 -0.3111631 0.042170852 0.33848977
000110 52 68 e7 bc 63 d9 45 3e 1c 19 2a be 97 c2 b6 3e
       -0.028247986 0.19321208 -0.16611141 0.35695335
000120 3a 9a 3c be 1f 8c 36 be 72 96 96 3e 6f 80 72 3e
       -0.18418208 -0.1782689 0.29411656 0.23681806
000130 cc 79 29 bf 7c a9 96 3d 62 a7 c1 3e 1a 76 6b be
       -0.6620147 0.07356545 0.37823015 -0.22994271
000140 d3 c1 4f 3d 63 97 0e be bc 37 4f 3e 23 22 d6 be
       0.050721955 -0.13924937 0.20236105 -0.4182292
000150 38 14 a9 be d8 12 ab be f2 ce 1d 3f 95 15 1f be
       -0.33023238 -0.33412814 0.616439 -0.15535577
000160 85 9e ce ba ef 37 8f be
       -0.0015763795 -0.2797236

phi.phi.0.bias f4 [30]
000000 26 3b 0f 3f 37 50 06 3f a9 f0 de be 00 a3 ef be
       0.5594963 0.5246615 -0.43542984 -0.46804047
000010 42 29 ae be 3d 9a aa bc 6e b3 16 be 63 7c c1 be
       -0.34015852 -0.0208255 -0.14716884 -0.37790212
000020 c5 e3 4e be f6 64 df 3d 25 4f 91 be 33 37 1d 3e
       -0.20204075 0.10907929 -0.28380695 0.15353088
000030 b5 92 07 be 11 3d 8f be 49 72 a2 3d fe 13 fa 3e
       -0.13239558 -0.27976277 0.079319544 0.48843378
000040 ee d9 c7 be 67 04 56 3c f1 66 0e be 7f ac 0c 3f
       -0.39033455 0.013062573 -0.13906457 0.5495071
000050 92 3a 0c bf 15 b1 0d bf 39 0b 0d 3f 77 06 bb be
       -0.5477687 -0.5534833 0.5509525 -0.3652837
000060 65 20 25 3e 5f b2 9b bd 8a ca 1c be 71 0b 04 be
       0.16125639 -0.07602381 -0.15311638 -0.1289499
000070 5f fd c4 3e 26 10 e2 3c
       0.38474557 0.02759559

phi.phi.2.weight f4 [30, 30]
000000 34 fa 13 be 2f a3 3b bd f2 ee 7e bd 9b 28 bc 3d
       -0.14450914 -0.04580992 -0.062239595 0.091874324
000010 8c 2e c9 be a2 92 5e 3e f3 8f 26 bd de 47 06 bd
       -0.39293325 0.21735623 -0.040664624 -0.03278338
000020 77 db 4f be 57 ee bb 3d 35 b3 c3 3d 8a 4c 49 be
       -0.20298563 0.09176319 0.095556654 -0.19658104
000030 f4 da 62 bd 8b 14 f8 bd be 8f 5e bc 40 e9 38 3e
       -0.05538459 -0.12113293 -0.0135840755 0.18057728
000040 08 fc 7a bd 0f 3c e6 be 41 e9 3b be f2 d6 3c 3e
       -0.061275512 -0.44967696 -0.18350698 0.1844137
000050 96 e4 54 bd cf cd 1a be 18 9d 1a be 79 67 3b 3d
       -0.05197581 -0.15117572 -0.15098989 0.045752976
000060 76 cf 93 3d 51 73 c0 be 18 5f e5 bd 11 ff 8d 3d
       0.072173044 -0.3758798 -0.11199778 0.06933416
000070 53 36 45 3e 37 26 11 3e c5 df df bc 04 da 24 be
       0.19259004 0.14174734 -0.027328381 -0.16098791
000080 0f f0 28 be 10 8f 2e 3e 2b 4a a5 3d b0 fd a2 3d
       -0.16497825 0.17046762 0.08070787 0.07958543
000090 1b c2 21 be c9 1f 2d 3e 88 1c 31 3e 8d cb 28 3e
       -0.15796702 0.16906656 0.1729604 0.16483898
0000a0 97 b6 1d be f1 15 8d bd e0 94 00 be 76 0a 31 3e
       -0.15401684 -0.068889506 -0.12556791 0.17289147
0000b0 98 a9 a0 bd 10 b6 aa bd b4 e5 c3 3d 03 f8 ac bd
       -0.078448474 -0.08335507 0.09565297 -0.08445742
0000c0 ef 28 b8 bd 97 d3 82 bc cd c2 8f bc 7a a2 11 be
       -0.089921825 -0.015970035 -0.017548943 -0.14222136
0000d0 f6 db 1b 3e cf f0 a4 bd d3 a1 84 3d 7a 9c 22 3e
       0.15220627 -0.08053743 0.06476178 0.15880004
0000e0 e7 91 bc 3d ec c0 d3 3c a3 12 1f 3e e6 0d c9 3c
       0.09207516 0.025848828 0.15534453 0.02454276
0000f0 b2 0c cb bd 29 5d 22 3e ce fe 30 3d cb 68 36 be
       -0.09914531 0.1585585 0.04321175 -0.17813413
000100 4d 84 81 bd 28 d1 0d be 09 ea 23 3e 03 00 f7 bc
       -0.063240625 -0.13849318 0.16007246 -0.030151373
000110 7d 6c 37 be f8 0a 3c bc 1c 5a cc 3d e3 d4 0d 3d
       -0.17912479 -0.0114772245 0.099781245 0.034626853
000120 18 77 6c 3d d6 e7 8a 3c c0 66 8b 3d 43 48 70 bd
       0.057730764 0.016956251 0.068067074 -0.058662664
000130 04 be 94 bd f9 99 3b be 59 dc 18 be 9e 98 84 3d
       -0.07262805 -0.18320455 -0.14927806 0.06474422
000140 f4 65 dd bd 47 93 d6 3c 37 d6 34 3d 9a cb 53 3c
       -0.10810462 0.026193274 0.044149604 0.01292696
000150 64 3f 0a be 45 a5 25 3e ce 3a f5 bd 7a c5 19 3e
       -0.13500744 0.16176327 -0.11974107 0.15016738
000160 07 17 24 be 4d e3 33 bd 3a 4f 3d 3e 4c 99 05 3d
       -0.16024409 -0.043917943 0.18487254 0.0326169
000170 11 0d 1d 3e ab a7 00 be 1f a9 d8 be 8e 9a 57 bc
       0.15337016 -0.1256396 -0.4231653 -0.013159407
000180 a7 c5 f1 3c 0b 24 2c 3e 1a 2b f7 be b2 b8 85 3d
       0.029513193 0.16810624 -0.4827507 0.065293685
000190 8a 85 79 bd 64 0a dc be 28 78 09 3e 64 e3 10 be
       -0.06091837 -0.42976677 0.13424742 -0.14149243
0001a0 94 db 9e 3c 63 f9 6e 3e 2e 85 cd bc ef 0a 65 be
       0.019391812 0.23337321 -0.02508792 -0.22367452
0001b0 50 02 b3 be f0 48 52 3e 22 d9 34 be e9 8e d7 bc
       -0.34962702 0.20535636 -0.17660955 -0.026313262
0001c0 68 37 24 3b c6 5b 72 3d d4 84 28 3e 9b 68 5b be
       0.0025057439 0.059169553 0.1645692 -0.21426623
0001d0 05 dd 6e be 7c 3d ed bb f3 bc 65 3e 4f 57 4a bd
       -0.233265 -0.0072399955 0.2243536 -0.04939967
0001e0 53 e4 23 3e 81 f4 f8 bd 04 d8 a1 bc 50 aa 20 bc
       0.16005068 -0.121560104 -0.019756325 -0.009806231
0001f0 dc d7 a6 3d 79 a2 ff 3d d8 10 ed bc af e3 1a be
       0.08146641 0.12482161 -0.028938696 -0.15125917
000200 3c 45 b9 3d a7 b2 5f 3d 3e 33 96 3d 78 a7 e6 bd
       0.090464085 0.054613736 0.073339924 -0.11262411
000210 e7 a5 f0 3d 87 13 31 3e 87 c7 81 3c 3c a0 2e be
       0.11750393 0.17292605 0.015842212 -0.17053312
000220 bf 3d 03 3e 65 9e 0a be 62 e7 2b 3d 1f 58 d9 3c
       0.12816523 -0.13536985 0.04196871 0.026531277
000230 23 01 af bd c9 31 82 3d 32 38 27 be f0 52 2a 3d
       -0.08545139 0.06357152 -0.1633003 0.041583
000240 b5 0a ed bd d9 ba a1 bc 29 62 c0 3c ae 46 1f 3e
       -0.11574308 -0.019742416 0.023484306 0.15554306
000250 a6 66 b2 bd 9e 8a ef 3d 73 ff bd bc c7 94 b1 bd
       -0.08710985 0.11696361 -0.023193097 -0.08670955
000260 1b cd 22 be 19 89 2b be 4c 95 36 3e c6 81 3a bd
       -0.15898554 -0.16751517 0.1783039 -0.045533918
000270 62 69 15 3c 88 be 4a 3d f4 28 fe 3d e4 8f 1f 3e
       0.0091193635 0.04949811 0.12410155 0.15582234
000280 df 9f 17 3e 34 83 0a be be a0 ef bc fc 41 dd bd
       0.1480708 -0.13526613 -0.029251453 -0.10803601
000290 9f a2 d5 bd 9c 63 31 3d 60 7c 2f 3e 6b c5 15 be
       -0.10431408 0.043307886 0.17137289 -0.1462609
0002a0 0d 4b e2 3d 63 dc c1 bd 27 a8 11 bd 74 66 14 3e
       0.11049471 -0.094658636 -0.035560753 0.14492208
0002b0 b3 22 29 bd f5 2f 88 3c 35 b0 02 be 02 25 1f 3e
       -0.041292857 0.01662443 -0.1276253 0.15541461
0002c0 96 57 c1 bc e1 bc 08 be 75 f8 5a 3d cf ed 04 be
       -0.023601335 -0.13353302 0.053459603 -0.12981342
0002d0 d8 fa 1a be 0a 5c 38 3b 12 3a 14 3e 48 9f 53 bd
       -0.15134752 0.0028131031 0.14475277 -0.051665574
0002e0 33 5c a8 3d 21 af 17 3e 4d 00 f8 3d bf 23 c4 bd
       0.082207106 0.148129 0.12109432 -0.095771305
0002f0 09 d4 03 bd 30 54 6b bd 9c a4 21 be 4a 88 23 bc
       -0.032184634 -0.057453334 -0.1578545 -0.009981224
000300 17 ac 0c 3e 68 83 1d 3e 84 8b 8b 3c 12 b9 05 3d
       0.13737522 0.15382159 0.0170343 0.0326472
000310 e4 df a1 bd 2c bd 04 3e e0 c0 a9 bd 3d d3 0a be
       -0.07904032 0.12962788 -0.08288741 -0.13557144
000320 ec 51 e6 3c 0a 1e e0 3d f9 a8 31 be 8b 00 29 3e
       0.028115235 0.109432295 -0.17349614 0.16504113
000330 07 82 5f 3d ea 2f 09 be 1b 64 3f bd 02 33 22 3e
       0.054567363 -0.13397184 -0.046726327 0.1583977
000340 36 d2 18 be 66 92 5a bd fa 06 12 3d 6b f6 37 be
       -0.14923939 -0.053362273 0.035651185 -0.17965095
000350 55 fa cc 3d 93 a3 c2 3d 9b 07 b8 3e 3e 49 d8 bd
       0.100086845 0.095038556 0.35943303 -0.10560845
000360 55 35 3a 3e fe a3 dd bd bf 02 0f 3f 7b 6b 33 be
       0.18184407 -0.10822295 0.55863565 -0.1752147
000370 99 10 4c bd ce 37 eb 3e 85 50 9c 3c d6 90 2c 3c
       -0.049820516 0.45941013 0.019081363 0.010532578
000380 8f 0e cf bd 54 d2 61 bd 83 a7 5a bd 1b 6f 19 3e
       -0.10110199 -0.055132225 -0.053382408 0.1498379
000390 81 44 8b 3e fe 19 82 3d 8a 14 22 b9 b9 7e 71 3d
       0.27200702 0.06352614 -0.00015457175 0.058958743
0003a0 7f 95 5a 3e 9d d5 46 3d b9 f7 d4 bd fc 5c 8c 3e
       0.2134609 0.04854356 -0.10398812 0.2741469
0003b0 df 48 f4 3d f5 99 01 be 56 b6 7f bd a9 43 04 bd
       0.119279616 -0.12656386 -0.06242975 -0.03229109
0003c0 e9 d1 93 3d 0e 9f 02 be bf 0a 15 3e ec 2e 03 be
       0.072177716 -0.12755987 0.1455488 -0.12810868
0003d0 96 fd 69 3e bb 14 00 3e ff e7 39 3e d3 97 d8 bd
       0.22850642 0.12507908 0.18154906 -0.10575833
0003e0 50 7b aa 3e 81 ab b0 3c e3 dd 55 bc bd 0e 1c 3e
       0.33297205 0.021566154 -0.01305339 0.15239997
0003f0 14 8d 4a 3d af 00 02 be 80 c6 f6 3c 24 ab 63 3d
       0.04945095 -0.12695573 0.030123949 0.055583134

phi.phi.2.bias f4 [30]
000000 49 5b 68 bd f1 59 ad bc da ff 88 bd 98 09 e6 bd
       -0.05672768 -0.021161051 -0.06689425 -0.112322986
000010 01 fe f6 bc d4 70 1e be 02 27 c8 3d 5e 37 f8 3d
       -0.030150415 -0.15472728 0.09773065 0.121199355
000020 4c 02 1a 3e 10 1f 7b bd 63 c6 ac 3b fd 24 57 3d
       0.15039939 -0.06130892 0.005272673 0.05252551
000030 f9 23 52 3e d1 5b 17 3e a2 83 c1 bd d2 14 1f be
       0.20521535 0.14781119 -0.09448935 -0.15535286
000040 13 5d 0f be 99 0f b4 bd a8 30 1d 3e 08 28 7b 3d
       -0.14000349 -0.087920375 0.15350592 0.061317474
000050 90 19 45 3e a2 2e 18 3e 85 77 2d 3b 92 d6 00 be
       0.19248033 0.14861539 0.0026468944 -0.12581852
000060 39 75 29 3e 9f b5 27 3e 66 cc bc 3d 75 56 aa bd
       0.16548623 0.16377877 0.092186734 -0.083172716
000070 cc 08 09 3e 9f c3 e9 3b
       0.13382262 0.0071339156

phi.phi.4.weight f4 [7, 30]
000000 22 82 eb 3d f3 0e 9c 3d e7 f8 d9 3d 8a f1 28 be
       0.1149943 0.07620039 0.106431775 -0.1649839
000010 be 53 cf bd 00 43 e0 3d c8 34 a1 bc 27 96 08 be
       -0.101233944 0.10950279 -0.019678488 -0.13338529
000020 ab a9 2c 3e 6b 60 81 bb b6 1b 1a 3e e1 d0 12 be
       0.16861598 -0.0039482615 0.15049633 -0.14337493
000030 4e bc 80 3d e7 6f 82 bd 0f 59 9d bd 34 f9 1b bd
       0.06285916 -0.06369 -0.07683002 -0.038079455
000040 e8 66 8a bd 8b e3 cc 3d fb 15 0e bd da c0 0d 3e
       -0.06757909 0.10004338 -0.03468893 0.13843098
000050 de d7 3a 3d 9c c8 aa bb a8 f8 d7 bd 15 a3 2d be
       0.045616023 -0.005211903 -0.10545474 -0.16956742
000060 0f a9 fa bc 79 37 2c be 8c c0 f7 bc b0 eb b6 3a
       -0.030598192 -0.16818036 -0.03024318 0.0013955738
000070 ac e5 15 bb ff ab b7 bd 64 c2 01 3e 65 94 d2 3d
       -0.002287249 -0.089683525 0.1267181 0.1028221
000080 26 3f 38 bd 1b bc 93 bd 22 13 eb 3d ff a7 22 3e
       -0.044982098 -0.07213613 0.11478259 0.15884398
000090 21 2f 2b be 01 93 21 bd a2 cc 8a bc ff 60 87 bd
       -0.16717197 -0.039446834 -0.01694328 -0.066102974
0000a0 23 9b 1f 3e 99 ec dc bc a6 82 1e 3e d0 9a 6c 3a
       0.15586524 -0.026968287 0.15479526 0.00090257544
0000b0 1d 3c a2 bc 7c 1a da bd ff a7 78 bd 93 f8 70 3d
       -0.019804055 -0.10649583 -0.06070709 0.05883081
0000c0 31 65 a5 3d 8d dc d4 bb c0 23 32 3e fb 65 01 be
       0.08075941 -0.0064960183 0.1739645 -0.12636559
0000d0 e4 5c 8f 3d fe 62 28 3e 8c 08 02 bd 11 6d 14 3e
       0.07000139 0.16444013 -0.031746432 0.1449473
0000e0 15 3d 45 3b 42 00 0c be 5c 22 cd bd 02 2d 8b 3d
       0.0030096222 -0.13671973 -0.10016319 0.06795694
0000f0 5b cf a1 bd 23 dc 33 3d 2d 03 38 3e 69 05 7e 3d
       -0.07900878 0.04391111 0.17969961 0.06201688
000100 33 fa 8b bc 1a ec 3a 3d 51 6d d7 bd 20 17 1d be
       -0.017087078 0.04563532 -0.10518897 -0.15340853
000110 e3 88 0c be 0e e0 1c be d2 77 19 3d dd a9 11 3d
       -0.13724093 -0.15319845 0.037467785 0.035562385
000120 8e e6 9e bd 00 df 36 be c5 8c ca 3d 3e 29 d4 bd
       -0.077588186 -0.17858505 0.09890131 -0.10359429
000130 ea b1 f9 bc 5a c2 1c be 0b f2 d2 bd 27 fb 9b 3d
       -0.030480344 -0.15308514 -0.10300072 0.07616263
000140 21 31 2e be 2b 38 d5 bd a2 2a 0c 3e a0 c2 bf bd
       -0.17010929 -0.10411104 0.13688138 -0.09363294
000150 0d 9b 9b bd 25 f8 51 bd 02 d5 9f 3d 5d 46 f5 bd
       -0.07597933 -0.05126204 0.078043 -0.11976311
000160 31 f6 95 3c e6 b4 98 3d aa f4 a9 bc 74 38 07 3d
       0.01830587 0.07456379 -0.020746548 0.033012822
000170 70 9e 0e be 34 d8 97 3d ed bd 8b 3d 2f 9a bb bc
       -0.13927627 0.07414284 0.06823335 -0.022900669
000180 9d 96 1a be 3c 1c 52 3d e5 04 cc 3d e2 cc 02 bd
       -0.15096517 0.051296458 0.09961871 -0.031933673
000190 4a 64 89 3d 14 0b 75 3d 60 6e bf bd f8 29 05 bd
       0.06708582 0.059825018 -0.09347224 -0.032510728
0001a0 68 1a 3a 3e e2 f3 61 3a 03 81 27 be 6e 26 5a bc
       0.18174136 0.000861941 -0.16357808 -0.013314826
0001b0 b9 04 ba 3d 7e 1b 74 bd 93 71 dd bd 95 20 04 3e
       0.09082932 -0.05959653 -0.10812678 0.12903054
0001c0 c5 cd c5 3d 0f 87 4c bd 74 d2 18 3c 54 8e 0c bd
       0.09658388 -0.04993349 0.00932752 -0.034315422
0001d0 50 ce 05 3d d6 43 a7 bb 66 44 e2 bd 71 8d 0a 3d
       0.032667458 -0.005104522 -0.11048202 0.033826295
0001e0 24 79 9c 3b d4 65 41 3c 4a 7e 8e bd 00 9c 3f 3d
       0.0047751833 0.011804063 -0.069576815 0.046779633
0001f0 64 2e 17 be b7 8a 5f 3d d2 9e ca 3d cd 99 a4 bc
       -0.1476379 0.05457565 0.09893574 -0.02009287
000200 38 3a 11 be 56 fb 2d ba 7e e1 87 39 78 91 21 be
       -0.14182365 -0.0006636878 0.0002591721 -0.15778148
000210 a9 3b 04 be 3d ec 2c 3e 26 cf 0b 3e 1f 39 cf 3d
       -0.12913384 0.16886993 0.1365324 0.10118317
000220 ef 83 01 3e 36 f1 8f 3d f4 6e d2 3d 65 a6 f7 3d
       0.12647985 0.07028429 0.10275069 0.12092284
000230 87 b2 2e bd 3a 21 be bc ec 4e 05 3e 9f e3 89 b8
       -0.042650726 -0.023209203 0.13018388 -6.575067e-05
000240 a8 4c f3 bd 27 f7 10 be a7 1e d1 3d f8 db 1a 3e
       -0.118798554 -0.14156781 0.102109246 0.15122974
000250 3a 31 11 3e 7c e7 f8 3c 54 0d 01 3e 86 a6 2b be
       0.14178935 0.030383818 0.1260274 -0.16762742
000260 e1 b1 06 be 0c e5 33 be bb a0 16 3e 2c 89 d8 ba
       -0.13153793 -0.17567843 0.14709751 -0.0016520373
000270 5a 2c ac bd 2b 0b 7d 3d b1 f7 8b bd 66 ce ef bd
       -0.08406897 0.06177823 -0.06834353 -0.11709289
000280 9a 37 90 3d f7 ec 08 3d f3 e1 05 be 15 48 f6 bd
       0.07041855 0.033429112 -0.13074474 -0.12025467
000290 e3 50 af 3d 30 28 0e 3e 39 83 73 3c 73 cf bb bd
       0.0856035 0.13882518 0.014862829 -0.09170427
0002a0 70 8d b4 3d b0 6c 02 3d 14 ad 23 be ce 4f f2 bd
       0.088160396 0.031841934 -0.15983993 -0.11831628
0002b0 6b ae 23 3d fc 5d e7 3d ac 3f 70 bd 88 cc b4 3d
       0.03996126 0.11297223 -0.058654472 0.08828074
0002c0 85 91 e7 bd 8a e7 32 3e e1 36 05 3e a4 12 0c 3d
       -0.113070525 0.17471138 0.13009216 0.034197465
0002d0 2d 07 4f 3e 13 2e 82 3d e7 88 c4 bd e1 95 46 3e
       0.20217581 0.06356444 -0.095964245 0.19393112
0002e0 40 6a 47 3d 62 cb 28 bd 6f 50 29 3e 31 b7 9d be
       0.048685312 -0.041209586 0.16534589 -0.30803826
0002f0 b8 41 35 be b3 02 b2 bd 68 3b ae be 16 00 74 3e
       -0.17700851 -0.08691921 -0.34029698 0.23828158
000300 54 ca 92 be cc c2 18 be 7a ad a1 bc ed f1 fb bd
       -0.2866999 -0.14918059 -0.01973604 -0.12302003
000310 42 68 ae be c3 9f be 3d a0 5d 0c be 80 55 b0 3d
       -0.34063917 0.09307816 -0.1370759 0.08610058
000320 ed 31 4a 3e 2a 93 3d be d4 07 a6 3d 50 d6 75 be
       0.19745608 -0.1851317 0.08106962 -0.24007535
000330 ba 46 07 3e cc 2c 63 3e f2 a3 ca 3d 45 0c 69 3e
       0.13210574 0.22185057 0.09894551 0.22758587
000340 b8 34 31 be d7 47 43 bc
       -0.17305267 -0.011918983

phi.phi.4.bias f4 [7]
000000 ab 54 1b 3d ea 7f 22 be 19 f5 b5 3d a6 1f b5 bd
       0.037922543 -0.15869108 0.08884639 -0.08843927
000010 c7 3c 87 bd 63 55 14 be 15 0b bf 3d
       -0.06603389 -0.14485697 0.093282856

rho.rho.0.weight f4 [29, 7]
000000 0d cf 8c be 25 43 a4 bd f1 ee 2b 3e 31 c9 91 3e
       -0.27501717 -0.08020619 0.16790368 0.2847381
000010 7c 09 af 3d 7d 61 10 be db 58 28 be 86 3c 59 3e
       0.08546731 -0.14099689 -0.16440146 0.21214494
000020 90 9e 8f 3d 71 e7 a2 3e 8f c0 11 3e fe e4 9b 3e
       0.07012665 0.318172 0.14233612 0.30448145
000030 36 f0 9b be 0b 93 9b 3e b1 51 45 be f9 34 cf bd
       -0.30456704 0.30385622 -0.19269444 -0.101175256
000040 70 42 14 3b 19 b3 90 bd a2 1d 99 3d 6f 71 ac 3e
       0.0022622608 -0.0706541 0.07476355 0.33680293
000050 99 c7 ac be 95 2d ef 3d f5 87 9b be 10 15 73 3d
       -0.3374603 0.11678616 -0.30377164 0.05934626
000060 14 6c 9f 3e 5f 7c 82 3e ae b8 a5 3e 03 83 51 3e
       0.31137145 0.25485513 0.32367462 0.20460133
000070 d3 83 66 bc 7c 1b ca 3d 82 b9 21 be e0 1e a4 3e
       -0.014069515 0.098685235 -0.15793422 0.32054806
000080 63 ca 41 3e ba a3 8d be 5d 17 db 3e 88 2a cd bc
       0.1892486 -0.27663976 0.42791262 -0.025044695
000090 fb a2 89 bc 13 da d3 bd f1 04 cc bd 61 f8 9a 3c
       -0.016801348 -0.10344329 -0.0996188 0.018917264
0000a0 5e f2 3c be b7 47 e3 be a7 6e 50 be be 09 9a bd
       -0.1845183 -0.44390652 -0.2035471 -0.075213894
0000b0 47 22 92 3e 54 8a 8e 3e af e4 67 be 2d c7 6d bc
       0.28541777 0.2783991 -0.2264583 -0.014512819
0000c0 be 91 06 be 99 54 62 be 51 1e 88 bd bd 4a 06 be
       -0.13141534 -0.22102584 -0.066464074 -0.13114448
0000d0 37 94 58 3e 19 f2 3f be a3 2f 6e 3d e0 17 b2 be
       0.2115029 -0.18744697 0.0581509 -0.3478384
0000e0 31 9b cc bd 82 57 98 3e 81 02 3e be d3 e7 bc bc
       -0.09990538 0.29754263 -0.18555643 -0.023059761
0000f0 a7 d1 b8 3e 39 78 04 3e a5 d8 0f be e4 07 56 be
       0.36097452 0.12936486 -0.14047487 -0.20901448
000100 30 b9 07 be 59 66 f2 bd 2d 19 28 3e 63 18 ac bd
       -0.13254237 -0.118359275 0.16415854 -0.08403089
000110 16 36 a3 3e c2 5a 1d be 12 0e f2 bd 7c e9 0c 3e
       0.31877202 -0.15366653 -0.1181909 0.13760942
000120 cc 8d 9a 3e 27 1e b9 3e dd ca 77 3d 05 83 82 3c
       0.30186307 0.36155817 0.0604962 0.015931616
000130 db 67 2d be b1 ae 5a 3e 48 58 60 be 1a 76 cb bd
       -0.16934149 0.21355702 -0.21908677 -0.099346355
000140 d6 bd a1 be 7a 09 ba be 93 55 58 3e 4c 5a d2 3c
       -0.31590146 -0.36335355 0.21126394 0.025677823
000150 6a 4b 93 3e f3 fc 99 3e 22 19 4b 3e 52 7e 1a 3e
       0.28768474 0.30075797 0.19833806 0.1508725
000160 88 e2 c8 bd 24 8f 4d 3e 61 f9 a5 3e cb cb 16 3e
       -0.098088324 0.20074135 0.32416824 0.14726178
000170 9d c2 32 bc e0 3e 67 3d 36 d9 d4 3a d9 70 8c be
       -0.010910657 0.056456447 0.001623905 -0.27429846
000180 1c b1 b3 3d 6a 2e a9 be 89 1b 4d 3e 7b 99 66 be
       0.08774015 -0.33043224 0.20030035 -0.22519486
000190 cb d9 fc bd 1c c9 37 be eb be 98 3e 62 47 88 be
       -0.12346228 -0.17947811 0.2983316 -0.2661696
0001a0 b8 ec 95 3e 2e a9 2e 3e dc d4 88 3e 5b f2 c1 3d
       0.29282165 0.17056724 0.267249 0.09470054
0001b0 f4 6c 53 3e d0 f9 98 3e 3e 79 98 3d 2f d1 8b 3d
       0.20647031 0.29878092 0.07445 0.06827008
0001c0 73 51 97 be 06 a1 cf bd 7e 5f 0c 3d 06 92 3b 3d
       -0.29554328 -0.10138135 0.034270756 0.045793556
0001d0 79 bd 08 be 6d d7 bf be 22 4e c9 bd 84 1a 03 3e
       -0.13353528 -0.37469044 -0.09829356 0.12803084
0001e0 ea a1 a6 3e 92 c0 ae be 48 ed 38 3e be 9f b7 be
       0.32545406 -0.34131294 0.18059266 -0.3586406
0001f0 ba 0f b9 be d6 dc eb be d2 25 01 bd 81 31 d8 3d
       -0.3614481 -0.46066922 -0.03153021 0.10556317
000200 26 2c 93 be 12 ab 94 3e ba ff ae 3e c1 80 be 3c
       -0.2874462 0.29036766 0.3417948 0.023254754
000210 17 fb c3 3e 8c e6 42 be f7 1b 19 be b2 c7 47 bd
       0.38277504 -0.19033259 -0.14952074 -0.04877443
000220 72 a2 29 3d d1 fe 86 be fc f4 9a be b1 44 21 3e
       0.041414686 -0.26366284 -0.30265033 0.1574886
000230 79 2f df 3d fc 4f bd 3e a7 cc 1d be 8a ad 08 3e
       0.108977266 0.36975086 -0.154101 0.1334745
000240 0b 2f 1c be 58 0f 3f 3e e3 84 ab bc d0 74 8f 3e
       -0.1525232 0.18658197 -0.020937389 0.28018808
000250 5e 06 57 3e f7 12 a1 3e 57 e5 46 3e 74 a7 68 3c
       0.20998523 0.31459782 0.19423424 0.01420008
000260 b0 c4 a6 3e 73 56 63 be 83 14 bd 3e 64 1a bd 3e
       0.32571936 -0.22200947 0.36929712 0.36934197
000270 80 dc b8 3e 87 e7 34 be f2 12 4d be 8e e5 c3 3c
       0.36105728 -0.17666446 -0.20026758 0.023913171
000280 07 b3 86 3e d9 9b 2e 3e 93 68 1d 3e 43 c7 a4 3e
       0.26308462 0.17051639 0.15371923 0.32183275
000290 9e 5e c1 bd c7 f3 fd bd 02 bc 01 3e 78 37 8f 3d
       -0.09441875 -0.124000125 0.12669376 0.06993002
0002a0 fe 19 75 be 56 be 15 3d a9 ed 92 be 16 70 e2 bd
       -0.23935696 0.03655847 -0.28696945 -0.11056535
0002b0 ac e6 17 be 6e a2 a9 3e 8c e8 df be f8 83 64 be
       -0.14834088 0.33131737 -0.43732107 -0.22315967
0002c0 e0 61 bd be 94 39 c3 3d d2 f2 94 be 8c 71 fa 3d
       -0.36988735 0.095324665 -0.29091507 0.122286886
0002d0 6c 6b 86 be ee 5d 86 be 2f 43 59 be 04 54 68 3d
       -0.2625383 -0.26243538 -0.21217035 0.05672075
0002e0 de d1 b1 3e ef 72 b5 3e 68 ec e9 bc d2 8c bd be
       0.34730428 0.3543925 -0.02855511 -0.370215
0002f0 34 6f 5f be a9 90 27 be 42 a4 a4 bd c2 e1 13 3e
       -0.21819764 -0.16363777 -0.08039142 0.14441589
000300 68 e3 42 3e 11 9a 2b 3e a9 20 dd 3d fc 97 94 be
       0.19032061 0.1675799 0.10797245 -0.29022205
000310 4d 62 83 bb 37 07 45 3d ae b1 45 be ba 7d 0a bd
       -0.004009521 0.048102584 -0.1930606 -0.03381131
000320 c3 40 41 bd 8d d6 b6 be aa 30 83 3e
       -0.047180902 -0.35710564 0.25623065

rho.rho.0.bias f4 [29]
000000 62 85 1c bd d2 49 a7 be 7d 0e 8d 3e fa 40 50 be
       -0.03821314 -0.32673508 0.27550116 -0.20337287
000010 3d c2 11 3e ca 9f b6 3e 7f dc 1a 3d 56 3f d4 3d
       0.14234252 0.35668784 0.037807938 0.10363643
000020 a8 e4 1c 3e 42 cf 92 3e b0 80 ed bd d3 ca 59 be
       0.153216 0.2867375 -0.11596811 -0.21268778
000030 ff ce 52 3c be 1a 81 3e 58 21 23 3d dd 02 80 3e
       0.0128667345 0.25215715 0.03982672 0.25002185
000040 c7 29 38 bb c4 46 0c 3e e1 a8 c5 3c c5 3b 54 3b
       -0.0028101073 0.1369887 0.02412838 0.0032384258
000050 c3 27 b8 be 0d 2e a9 be e8 72 36 3d 2b b3 32 3e
       -0.35967836 -0.33042946 0.044543177 0.1745116
000060 b9 32 70 3e b2 37 27 bc b3 07 10 3e 31 8a 00 3e
       0.23456849 -0.01020615 0.14065437 0.12552716
000070 00 0e a7 be
       -0.3262787

rho.rho.2.weight f4 [29, 29]
000000 87 21 27 be 02 6f 13 be 14 3b 51 3b f7 78 f0 bd
       -0.16321383 -0.14397815 0.0031926082 -0.11741822
000010 8e 67 73 bd 6b 98 e3 bc 4e 61 94 3d 93 5a 30 3d
       -0.05942493 -0.02778264 0.07245122 0.04305513
000020 42 66 30 3e ef 83 2b 3e 16 9e f2 bd f7 5a 19 ba
       0.17226508 0.16749547 -0.11846559 -0.00058500416
000030 92 34 fb 3c 9f 00 26 3e 7b ba 6b bd d7 75 95 bd
       0.030664716 0.16211174 -0.05755089 -0.07297867
000040 ed e7 f0 bd 9a 1d 0c 3e 72 7c 57 bd f6 6e 8e bd
       -0.11762986 0.13683167 -0.052608915 -0.06954758
000050 f0 9c 00 3e 92 f8 2e 3e 4d 36 00 bc 11 0a 06 be
       0.12559867 0.1708701 -0.007825446 -0.13089778
000060 dc ee 1a 3e d8 10 82 bd e9 40 af bd 71 ae 05 be
       0.1513018 -0.06350869 -0.085573025 -0.13054825
000070 cd e6 b6 bd a1 eb 14 be 54 84 db bd 13 1c 65 be
       -0.089307405 -0.1454301 -0.10718599 -0.2237399
000080 7b 4d 19 bd 7d c8 40 3e a9 9f 4f be 27 14 04 bf
       -0.037427407 0.1882648 -0.2027575 -0.5159325
000090 b8 95 d4 be 63 07 37 3d c9 aa 11 3e 2f a8 c9 bc
       -0.41520476 0.04468478 0.14225306 -0.024616329
0000a0 2c 68 bf bd b1 98 53 3e 8c 64 1f be 6e 9f 67 3e
       -0.09346041 0.20663716 -0.155657 0.22619411
0000b0 03 4a 91 3d 11 ce cc 3d 78 96 cf be 3a 0f 9e 3e
       0.07094195 0.100002415 -0.40544486 0.30870992
0000c0 6a ee 4b 3d 4a 77 4c 3d 2f 99 38 3e 54 86 af bc
       0.049787916 0.04991845 0.18027185 -0.021426357
0000d0 78 b4 8a bd 64 29 cc 3b c2 9c f0 bc cb e9 30 be
       -0.06772703 0.00623052 -0.029371623 -0.17276685
0000e0 9f b6 54 ba ea f1 4b 3c 81 53 ee 3b ce 05 67 bd
       -0.0008114371 0.0124478135 0.007273138 -0.05640202
0000f0 9f 44 0f 3e 1d f4 d2 3d af 41 08 3d b3 27 e8 3c
       0.1399102 0.10300467 0.033265766 0.028339243
000100 13 a7 c4 3d e6 ee ec 3d 53 00 9c bd a9 aa a6 bc
       0.096021794 0.11569004 -0.07617249 -0.020345049
000110 49 f6 a6 3d 86 49 b8 bd 38 cd 31 3e 05 41 02 be
       0.08152444 -0.089983985 0.17363441 -0.12720115
000120 7b 7d af 3d ad 96 08 be ae 34 74 3d 22 d0 04 3e
       0.085688554 -0.13338728 0.05962055 0.12970021
000130 c7 61 b7 3c e8 77 98 bc 2c d7 f1 3d 76 89 08 be
       0.022385491 -0.018611863 0.11808619 -0.13333687
000140 ff 49 00 be df 10 22 be 87 18 ea bd 97 ed 9d 3b
       -0.12528227 -0.15826748 -0.114304595 0.0048195827
000150 80 72 ac bd bb 73 29 3d 56 55 cd 3b 62 41 1e 3e
       -0.08420277 0.041370135 0.0062662764 0.15454629
000160 27 e7 a4 bd b1 b7 4c bd e3 87 fb 3d a9 a7 0a bd
       -0.08051901 -0.04997987 0.12281778 -0.0338513
000170 99 bc 34 3e eb 06 bd bd d8 1a a7 bc da e9 4b bd
       0.1765007 -0.09229835 -0.020398542 -0.049783565
000180 94 7d af 3d 5c b8 91 3d cd 85 ca bd df f6 6b 3e
       0.08568874 0.07115242 -0.09888802 0.23043393
000190 a7 86 4a bc 85 d9 ee bc 86 4a 84 3b e3 55 04 3e
       -0.012361205 -0.029156456 0.004037204 0.12923388
0001a0 10 dd 25 3e d3 61 f5 3d 04 49 77 3d 0f 33 f8 3d
       0.1619761 0.11981549 0.060372368 0.12119114
0001b0 ea 07 9f bd 06 53 b2 bd ec de 3a bd 3a d3 fd bd
       -0.07765181 -0.08707242 -0.04562275 -0.12393804
0001c0 07 b3 99 3d 37 a6 9b 3c b6 de 7c bd fa 6f 9a bc
       0.0750485 0.019000156 -0.06173583 -0.018852223
0001d0 ab 4c 71 bb cb 0a 23 3e 25 48 1f 3e 5e 63 12 be
       -0.003681938 0.15922086 0.15554865 -0.14295718
0001e0 10 e9 6c 3d 9b d1 7b 3d 7c 6a 91 3d e9 08 10 bd
       0.057839453 0.061479192 0.071003884 -0.035164747
0001f0 7c b3 14 3d f2 88 15 3d 22 13 39 3e 3a 3f 36 be
       0.036303982 0.036507554 0.18073705 -0.17797557
000200 d7 62 a4 bd 61 65 0a be be 2d cd bd 2c dc d6 3c
       -0.08026665 -0.13515235 -0.1001849 0.026228033
000210 f4 f0 e7 3d 8b d8 19 be 3c 99 e2 3d 00 c0 14 3e
       0.11325255 -0.15024011 0.110643834 0.14526367
000220 5d 74 bb bd 67 c1 04 3d 60 ca d7 bd 7c 35 f2 3c
       -0.09153054 0.032411005 -0.10536647 0.029566519
000230 28 29 c5 bd 38 26 94 bd ab ac 09 be 2e ef 28 be
       -0.096269906 -0.07233852 -0.13444774 -0.1649749
000240 79 be 17 3e cf 1a c0 bc a6 ce a8 bb 08 44 bd bd
       0.14818753 -0.023450283 -0.0051515875 -0.092414916
000250 5a 89 04 3e 09 ad d9 bd 8e d1 99 bd 7a 6f 14 be
       0.1294302 -0.10628707 -0.075106725 -0.1449565
000260 27 e5 1f be d3 d0 28 3e a7 d5 12 be 47 04 d2 bc
       -0.15614758 0.1648591 -0.14339314 -0.025636805
000270 6f 2a 5c bd fb 4c 8b 3d 6a 70 4b 3d d1 c4 11 be
       -0.053751405 0.06801792 0.049667753 -0.14235236
000280 4a c5 2a 3e a5 6a 3d be 11 75 96 3c 39 2d 7e bc
       0.16676822 -0.18497713 0.018366368 -0.015513712
000290 87 43 30 bd 11 95 01 3e 6d 8c 20 3e ab 28 c6 3c
       -0.04303315 0.1265452 0.15678568 0.024189314
0002a0 b1 52 86 bd 52 5e 0d 3e fa ee ee 3d 83 9c 08 3d
       -0.06558741 0.13805512 0.11666675 0.033352386
0002b0 f5 08 50 bd c9 44 00 3c 3a 7b 29 3e b7 f7 a4 3c
       -0.050789792 0.0078289 0.16550913 0.02013765
0002c0 b6 76 46 bd 43 fe 20 be a6 d3 e5 bd f6 1e fa 3d
       -0.048453055 -0.15721993 -0.11222009 0.122129366
0002d0 1a 45 d6 bb d8 9a 4a bc ef 4f 7b 3d 3b a7 09 be
       -0.0065389993 -0.012366019 0.061355527 -0.134427
0002e0 44 86 4d bc a4 ec 55 bd e5 63 af 3d f2 67 0e 3e
       -0.012544218 -0.05222763 0.08563975 0.1390684
0002f0 3d ab d6 3d 79 d0 00 3e 71 f0 29 be a9 03 87 bd
       0.1048188 0.12579526 -0.16595627 -0.06592495
000300 4a 3a 23 3c 4a f4 2b be 0a 55 4e 3d 48 48 f9 bd
       0.009962628 -0.16792408 0.05037407 -0.1217199
000310 b2 a8 8b 3d a0 6d 0d 3e c1 f0 2c be 21 56 1f 3e
       0.068192855 0.1381135 -0.16888715 0.155602
000320 d0 0c 9c 3d cf 5d 07 be 5f 02 36 3e 3f b0 24 be
       0.07619631 -0.13219379 0.17774342 -0.16082858
000330 9b 03 00 be 6b a7 b8 bd 64 10 1a bc 88 ee 41 3d
       -0.12501375 -0.090163074 -0.009403322 0.04734662
000340 2c a5 5e bd d5 6c 45 be 07 9f 1c bd 59 c3 0b 3e
       -0.05435674 -0.19279797 -0.038237598 0.13648738
000350 5a c3 12 3e 8e 60 be 3d 1f dd dc 3c 0a f5 1f 3e
       0.14332333 0.0929576 0.026960908 0.15620819
000360 ae cc 11 be aa 05 c0 3d 06 1d 34 be d9 0d 9d bd
       -0.14238235 0.0937608 -0.17589197 -0.07668657
000370 2d d2 89 bd a6 8f 2a 3e 48 fd b6 3c 66 3b ad bd
       -0.06729541 0.1665636 0.02233757 -0.08458595
000380 87 e2 04 3d a3 9d 12 be 42 06 24 bd 60 b5 49 3d
       0.032442596 -0.14317946 -0.04004503 0.04924524
000390 b2 06 a9 bc fa cf 88 bc 90 38 ef 3d df 71 10 be
       -0.020633075 -0.016700733 0.1168071 -0.14105938
0003a0 77 06 c0 bd cd 0f 38 3e 43 5a 17 3d 39 4d f6 bc
       -0.09376233 0.17974778 0.036951315 -0.03006612
0003b0 03 fe c4 3d f5 c8 e4 3d 6c 32 fe bc 90 69 9e bd
       0.096187614 0.11171142 -0.031029902 -0.07734978
0003c0 86 a7 f8 bc 73 17 8a 3d ef 33 c2 bc 52 56 dd 3d
       -0.030353319 0.06742754 -0.023706404 0.1080748
0003d0 f0 10 1b be d7 96 ba bd df f5 10 3e 1b 91 c7 3c
       -0.1514318 -0.09110802 0.14156292 0.024361184
0003e0 38 2a 19 3d 13 29 7a 3d fd b9 33 bd 26 16 98 bd
       0.03739378 0.061074328 -0.043878544 -0.074260995
0003f0 d9 34 5a 3d af 95 49 bd 50 1a 9d bd bf fa c8 3c
       0.053273056 -0.049215015 -0.07671034 0.024533628

rho.rho.2.bias f4 [29]
000000 d1 45 2d be 80 92 28 3e 84 9d 45 bd eb af 93 3d
       -0.16921164 0.16462135 -0.04824592 0.07211288
000010 e8 e1 2a bd fb 66 7f bd 61 b6 d0 bd 38 67 00 3e
       -0.041719347 -0.06235407 -0.10191036 0.12539375
000020 75 e7 ce bd 3a 21 06 bd f9 bf c2 3d a1 d1 c0 3c
       -0.10102741 -0.03274653 0.09509272 0.023537459
000030 6a fe 1f be 16 15 3d be c1 e4 b8 bd c5 68 27 3e
       -0.15624395 -0.18465075 -0.09028006 0.1634856
000040 f8 33 07 be 91 9f db 3d 65 e5 0a 3e 91 a2 9d bd
       -0.13203418 0.10723794 0.1356407 -0.07697023
000050 e1 f1 a7 bd 61 cd 08 be 3c f5 26 3d 2f a9 d4 bc
       -0.082004316 -0.13359596 0.040761217 -0.02595958
000060 6b e8 08 bc bb d2 94 3d 77 7c 84 3d 38 f8 6f bd
       -0.008356194 0.07266756 0.06469052 -0.05858633
000070 f9 fb 1d bb
       -0.0024106486

rho.rho.4.weight f4 [1, 29]
000000 04 ae 34 3d 6b 18 a8 bd 97 34 18 3d a6 d2 92 bd
       0.044111267 -0.08207782 0.03715953 -0.07169084
000010 89 19 15 3e 17 08 9c bc d0 5c 7d bc e0 79 2a be
       0.14560522 -0.019046826 -0.015464023 -0.16648054
000020 cc d5 09 be b6 47 bd 3b ff 42 d6 bc 35 9b c3 bd
       -0.13460463 0.005776371 -0.026154993 -0.09551088
000030 05 12 c7 3d 1d 30 88 bc 99 bf 85 3d 75 c2 12 3e
       0.09720234 -0.016624505 0.06530685 0.14331992
000040 f8 d7 ae bd d4 3a c2 bd 90 d7 2d bd 73 d1 80 bc
       -0.085372865 -0.09483877 -0.042441905 -0.015724873
000050 c0 36 be bd 27 9c 36 bd 16 b1 0e be ef 96 aa 3d
       -0.092877865 -0.044582512 -0.1393474 0.083295695
000060 8f 95 2e 3e 85 20 02 3e 21 d3 e5 3b 6a b9 3f bc
       0.1704924 0.12707718 0.007013694 -0.011701921
000070 6e 49 03 3d
       0.03205245

exp_avg f4 [30, 3]
000000 0c b3 32 36 ba fa 40 35 d8 90 81 35 bf ab 7c b6
       2.6628286e-06 7.189043e-07 9.653404e-07 -3.7650896e-06
000010 80 e0 f8 b5 de aa ae b5 00 00 00 00 00 00 00 00
       -1.8542778e-06 -1.3013739e-06 0.0 0.0
000020 00 00 00 00 00 00 00 00 00 00 00 00 00 00 00 00
       0.0 0.0 0.0 0.0
000030 02 33 c8 b7 8e f4 d1 b6 0d d6 0e b7 47 da 0c 35
       -2.386561e-05 -6.2571553e-06 -8.513697e-06 5.24717e-07
000040 75 49 cc b4 6e ca 67 34 00 00 00 00 00 00 00 00
       -3.8051408e-07 2.1587195e-07 0.0 0.0
000050 00 00 00 00 00 00 00 00 00 00 00 00 00 00 00 00
       0.0 0.0 0.0 0.0
000060 18 97 b7 b7 1b 02 59 b7 b0 a1 03 b7 00 00 00 00
       -2.1885658e-05 -1.2934698e-05 -7.845854e-06 0.0
000070 00 00 00 00 00 00 00 00 3d d7 7b 36 c0 cb 48 35
       0.0 0.0 3.75272e-06 7.48023e-07
000080 f5 e2 b0 35 1e 09 f6 36 7e 43 85 36 52 9a c6 36
       1.3179075e-06 7.3324327e-06 3.971566e-06 5.918825e-06
000090 00 00 00 00 00 00 00 00 00 00 00 00 00 00 00 00
       0.0 0.0 0.0 0.0
0000a0 00 00 00 00 00 00 00 00 00 00 00 00 00 00 00 00
       0.0 0.0 0.0 0.0
0000b0 00 00 00 00 ea 79 22 b6 ca 29 d6 b5 ae 01 70 b5
       0.0 -2.4210844e-06 -1.5956405e-06 -8.940941e-07
0000c0 00 00 00 00 00 00 00 00 00 00 00 00 58 e8 a5 b6
       0.0 0.0 0.0 -4.9444316e-06
0000d0 8b 43 0b b7 9f e8 00 b6 af 81 a3 b7 62 b2 32 b6
       -8.300772e-06 -1.920889e-06 -1.9491503e-05 -2.66279e-06
0000e0 1f 5b e8 b6 a7 58 9c 36 54 62 91 35 ac 22 e6 35
       -6.9247467e-06 4.659483e-06 1.0831959e-06 1.7146426e-06
0000f0 00 00 00 00 00 00 00 00 00 00 00 00 00 00 00 00
       0.0 0.0 0.0 0.0
000100 00 00 00 00 00 00 00 00 e1 64 07 36 3d db 89 35
       0.0 0.0 2.0175287e-06 1.0271102e-06
000110 92 94 52 35 00 00 00 00 00 00 00 00 00 00 00 00
       7.8447295e-07 0.0 0.0 0.0
000120 32 31 bb 36 03 42 47 b4 8c 5f 02 36 52 8f 15 36
       5.5787614e-06 -1.8557334e-07 1.9427125e-06 2.2286154e-06
000130 29 6d 07 36 f1 55 0f b6 43 f6 43 b7 63 99 83 b5
       2.0180107e-06 -2.1358685e-06 -1.1680243e-05 -9.804902e-07
000140 f0 00 8d b6 00 00 00 00 00 00 00 00 00 00 00 00
       -4.2022366e-06 0.0 0.0 0.0
000150 1c da 9d 35 fb 3a 90 b5 6d c3 cd 34 00 00 00 00
       1.176089e-06 -1.0746002e-06 3.8326417e-07 0.0
000160 00 00 00 00 00 00 00 00
       0.0 0.0

exp_avg_sq f4 [30, 3]
000000 54 11 6d 30 b9 68 fb 2e 46 2e 21 2f ff ad ea 2f
       8.624472e-10 1.1432761e-10 1.4659304e-10 4.2687984e-10
000010 64 5f 56 2f f2 6f 20 2f 00 00 00 00 00 00 00 00
       1.9497076e-10 1.4591686e-10 0.0 0.0
000020 00 00 00 00 00 00 00 00 00 00 00 00 00 00 00 00
       0.0 0.0 0.0 0.0
000030 6c 21 9a 33 bd e8 06 32 21 99 45 32 87 d9 78 30
       7.177263e-08 7.852745e-09 1.1501727e-08 9.0531e-10
000040 49 82 3a 2f 6f e4 47 2f 00 00 00 00 00 00 00 00
       1.6962888e-10 1.81801e-10 0.0 0.0
000050 00 00 00 00 00 00 00 00 00 00 00 00 00 00 00 00
       0.0 0.0 0.0 0.0
000060 11 7b 07 33 37 54 09 32 da 97 bb 31 00 00 00 00
       3.1544065e-08 7.993598e-09 5.45968e-09 0.0
000070 00 00 00 00 00 00 00 00 02 3b 8b 31 f3 08 10 30
       0.0 0.0 4.052141e-09 5.239961e-10
000080 9a 19 41 30 b4 04 8b 32 17 3f b0 31 29 80 72 31
       7.0249373e-10 1.6183868e-08 5.1294466e-09 3.5288485e-09
000090 00 00 00 00 00 00 00 00 00 00 00 00 00 00 00 00
       0.0 0.0 0.0 0.0
0000a0 00 00 00 00 00 00 00 00 00 00 00 00 00 00 00 00
       0.0 0.0 0.0 0.0
0000b0 00 00 00 00 ac ff c9 30 81 b5 a8 2f 70 ff b2 2f
       0.0 1.4697341e-09 3.0687988e-10 3.255951e-10
0000c0 00 00 00 00 00 00 00 00 00 00 00 00 95 d6 b9 32
       0.0 0.0 0.0 2.1634415e-08
0000d0 40 2c b5 31 81 9e 79 31 fa de 50 33 a5 f4 99 31
       5.272824e-09 3.6324368e-09 4.863157e-08 4.480699e-09
0000e0 e8 8f 03 32 39 78 ca 30 1d ea 5a 2f 5c 3d 8a 2f
       7.657924e-09 1.4731604e-09 1.9910158e-10 2.5145652e-10
0000f0 00 00 00 00 00 00 00 00 00 00 00 00 00 00 00 00
       0.0 0.0 0.0 0.0
000100 00 00 00 00 00 00 00 00 a9 ca e8 2e 9b 18 01 2e
       0.0 0.0 1.0586138e-10 2.9353058e-11
000110 14 65 ea 2d 00 00 00 00 00 00 00 00 00 00 00 00
       2.6647608e-11 0.0 0.0 0.0
000120 9e 60 d9 32 2e e8 7f 31 7b 23 9e 31 57 5e 7d 32
       2.5306061e-08 3.7239363e-09 4.602439e-09 1.4747989e-08
000130 98 49 ba 2f 03 75 16 31 7b b9 75 32 d4 3d 9a 30
       3.3885494e-10 2.1894386e-09 1.430305e-08 1.1222547e-09
000140 4d 3d 19 31 00 00 00 00 00 00 00 00 00 00 00 00
       2.2299276e-09 0.0 0.0 0.0
000150 ab e3 38 32 b1 fc f1 30 a6 83 0d 31 00 00 00 00
       1.0761975e-08 1.7606877e-09 2.0593034e-09 0.0
000160 00 00 00 00 00 00 00 00
       0.0 0.0

exp_avg f4 [30]
000000 14 dd 91 36 b9 38 e8 b6 00 00 00 00 00 00 00 00
       4.3470736e-06 -6.920742e-06 0.0 0.0
000010 92 0d 22 b8 e9 4f c1 34 00 00 00 00 00 00 00 00
       -3.8636448e-05 3.6007194e-07 0.0 0.0
000020 79 f4 32 b8 00 00 00 00 cc 3d c3 36 b5 79 90 37
       -4.266619e-05 0.0 5.818647e-06 1.7222812e-05
000030 00 00 00 00 00 00 00 00 00 00 00 00 94 c7 a4 b6
       0.0 0.0 0.0 -4.910815e-06
000040 00 00 00 00 dd 71 7e b7 c7 ee f3 b7 e8 39 fa 36
       0.0 -1.5166091e-05 -2.9079047e-05 7.4573218e-06
000050 00 00 00 00 00 00 00 00 d0 7b 80 36 00 00 00 00
       0.0 0.0 3.829111e-06 0.0
000060 f1 26 f6 36 90 a6 0d 36 f6 74 8d b7 00 00 00 00
       7.3359047e-06 2.110759e-06 -1.6862974e-05 0.0
000070 59 20 02 35 00 00 00 00
       4.8475846e-07 0.0

exp_avg_sq f4 [30]
000000 fc 50 37 31 6f 7b 13 31 00 00 00 00 00 00 00 00
       2.667604e-09 2.146148e-09 0.0 0.0
000010 98 79 64 34 01 4c 58 31 00 00 00 00 00 00 00 00
       2.127839e-07 3.147534e-09 0.0 0.0
000020 4d 16 f7 33 00 00 00 00 f8 90 57 32 ab a7 8d 33
       1.150589e-07 0.0 1.2547609e-08 6.596323e-08
000030 00 00 00 00 00 00 00 00 00 00 00 00 2c 45 b7 31
       0.0 0.0 0.0 5.333865e-09
000040 00 00 00 00 8b b9 a6 33 6a 29 15 34 84 f4 9d 31
       0.0 7.7637274e-08 1.3891773e-07 4.5970996e-09
000050 00 00 00 00 00 00 00 00 c4 db e7 2f 00 00 00 00
       0.0 0.0 4.2174808e-10 0.0
000060 15 31 af 33 9c 3e 14 33 79 13 2a 33 00 00 00 00
       8.1580005e-08 3.4515878e-08 3.959892e-08 0.0
000070 8b f0 19 33 00 00 00 00
       3.584186e-08 0.0

exp_avg f4 [30, 30]
000000 14 2c 30 b4 84 00 c8 b5 00 00 00 00 00 00 00 00
       -1.6407313e-07 -1.4901311e-06 0.0 0.0
000010 88 f2 f4 34 1d 33 1e b5 00 00 00 00 00 00 00 00
       4.5625006e-07 -5.8933966e-07 0.0 0.0
000020 e0 ca 39 34 00 00 00 00 08 38 ba b4 8a bb 6d b4
       1.7303273e-07 0.0 -3.4685968e-07 -2.2140571e-07
000030 00 00 00 00 00 00 00 00 00 00 00 00 61 a0 3e b6
       0.0 0.0 0.0 -2.840556e-06
000040 00 00 00 00 c5 ca c4 34 89 5e 4a 35 e1 63 22 b6
       0.0 3.665538e-07 7.538843e-07 -2.4198018e-06
000050 00 00 00 00 00 00 00 00 48 5c 26 b6 00 00 00 00
       0.0 0.0 -2.4789642e-06 0.0
000060 41 5b c7 b3 4d a4 81 34 58 eb 0e 35 00 00 00 00
       -9.2832586e-08 2.4147667e-07 5.324159e-07 0.0
000070 70 13 21 b5 00 00 00 00 00 00 00 00 00 00 00 00
       -6.000546e-07 0.0 0.0 0.0
000080 00 00 00 00 00 00 00 00 00 00 00 00 00 00 00 00
       0.0 0.0 0.0 0.0
000090 00 00 00 00 00 00 00 00 00 00 00 00 00 00 00 00
       0.0 0.0 0.0 0.0
0000a0 00 00 00 00 00 00 00 00 00 00 00 00 00 00 00 00
       0.0 0.0 0.0 0.0
0000b0 00 00 00 00 00 00 00 00 00 00 00 00 00 00 00 00
       0.0 0.0 0.0 0.0
0000c0 00 00 00 00 00 00 00 00 00 00 00 00 00 00 00 00
       0.0 0.0 0.0 0.0
0000d0 00 00 00 00 00 00 00 00 00 00 00 00 00 00 00 00
       0.0 0.0 0.0 0.0
0000e0 00 00 00 00 00 00 00 00 00 00 00 00 00 00 00 00
       0.0 0.0 0.0 0.0
0000f0 04 00 00 00 04 00 00 00 00 00 00 00 00 00 00 00
       6e-45 6e-45 0.0 0.0
000100 04 00 00 00 04 00 00 00 00 00 00 00 00 00 00 00
       6e-45 6e-45 0.0 0.0
000110 04 00 00 00 00 00 00 00 04 00 00 00 04 00 00 00
       6e-45 0.0 6e-45 6e-45
000120 00 00 00 00 00 00 00 00 00 00 00 00 04 00 00 00
       0.0 0.0 0.0 6e-45
000130 00 00 00 00 04 00 00 00 04 00 00 00 04 00 00 00
       0.0 6e-45 6e-45 6e-45
000140 00 00 00 00 00 00 00 00 04 00 00 00 00 00 00 00
       0.0 0.0 6e-45 0.0
000150 04 00 00 00 04 00 00 00 04 00 00 00 00 00 00 00
       6e-45 6e-45 6e-45 0.0
000160 04 00 00 00 00 00 00 00 dd ee 27 b4 97 c3 be b5
       6e-45 0.0 -1.5639985e-07 -1.4213027e-06
000170 00 00 00 00 00 00 00 00 f8 38 eb 34 79 db 16 b5
       0.0 0.0 4.381361e-07 -5.619873e-07
000180 00 00 00 00 00 00 00 00 02 52 32 34 00 00 00 00
       0.0 0.0 1.6607376e-07 0.0
000190 6e 3c b2 b4 1e 98 63 b4 00 00 00 00 00 00 00 00
       -3.3199052e-07 -2.1196362e-07 0.0 0.0
0001a0 00 00 00 00 32 37 36 b6 00 00 00 00 0b de bc 34
       0.0 -2.7152241e-06 0.0 3.5179286e-07
0001b0 3d 53 42 35 c0 5b 1b b6 00 00 00 00 00 00 00 00
       7.239176e-07 -2.3150205e-06 0.0 0.0
0001c0 29 22 1f b6 00 00 00 00 01 1e bd b3 d2 df 78 34
       -2.371273e-06 0.0 -8.806456e-08 2.3178225e-07
0001d0 9e 36 09 35 00 00 00 00 79 b8 19 b5 00 00 00 00
       5.1115956e-07 0.0 -5.7265385e-07 0.0
0001e0 00 00 00 00 00 00 00 00 00 00 00 00 00 00 00 00
       0.0 0.0 0.0 0.0
0001f0 00 00 00 00 00 00 00 00 00 00 00 00 00 00 00 00
       0.0 0.0 0.0 0.0
000200 00 00 00 00 00 00 00 00 00 00 00 00 00 00 00 00
       0.0 0.0 0.0 0.0
000210 00 00 00 00 00 00 00 00 00 00 00 00 00 00 00 00
       0.0 0.0 0.0 0.0
000220 00 00 00 00 00 00 00 00 00 00 00 00 00 00 00 00
       0.0 0.0 0.0 0.0
000230 00 00 00 00 00 00 00 00 00 00 00 00 00 00 00 00
       0.0 0.0 0.0 0.0
000240 00 00 00 00 00 00 00 00 00 00 00 00 00 00 00 00
       0.0 0.0 0.0 0.0
000250 00 00 00 00 00 00 00 00 00 00 00 00 00 00 00 00
       0.0 0.0 0.0 0.0
000260 00 00 00 00 00 00 00 00 00 00 00 00 00 00 00 00
       0.0 0.0 0.0 0.0
000270 00 00 00 00 00 00 00 00 00 00 00 00 00 00 00 00
       0.0 0.0 0.0 0.0
000280 00 00 00 00 00 00 00 00 00 00 00 00 00 00 00 00
       0.0 0.0 0.0 0.0
000290 00 00 00 00 00 00 00 00 00 00 00 00 00 00 00 00
       0.0 0.0 0.0 0.0
0002a0 00 00 00 00 00 00 00 00 00 00 00 00 00 00 00 00
       0.0 0.0 0.0 0.0
0002b0 00 00 00 00 00 00 00 00 00 00 00 00 00 00 00 00
       0.0 0.0 0.0 0.0
0002c0 00 00 00 00 00 00 00 00 00 00 00 00 00 00 00 00
       0.0 0.0 0.0 0.0
0002d0 04 00 00 00 04 00 00 00 00 00 00 00 00 00 00 00
       6e-45 6e-45 0.0 0.0
0002e0 04 00 00 00 04 00 00 00 00 00 00 00 00 00 00 00
       6e-45 6e-45 0.0 0.0
0002f0 04 00 00 00 00 00 00 00 04 00 00 00 04 00 00 00
       6e-45 0.0 6e-45 6e-45
000300 00 00 00 00 00 00 00 00 00 00 00 00 04 00 00 00
       0.0 0.0 0.0 6e-45
000310 00 00 00 00 04 00 00 00 04 00 00 00 04 00 00 00
       0.0 6e-45 6e-45 6e-45
000320 00 00 00 00 00 00 00 00 04 00 00 00 00 00 00 00
       0.0 0.0 6e-45 0.0
000330 04 00 00 00 04 00 00 00 04 00 00 00 00 00 00 00
       6e-45 6e-45 6e-45 0.0
000340 04 00 00 00 00 00 00 00 dc 9e a5 34 a3 82 37 36
       6e-45 0.0 3.084923e-07 2.7345166e-06
000350 00 00 00 00 00 00 00 00 43 8d 33 b5 ef 27 92 35
       0.0 0.0 -6.688826e-07 1.088947e-06
000360 00 00 00 00 00 00 00 00 b7 a6 8a b4 00 00 00 00
       0.0 0.0 -2.5825804e-07 0.0
000370 b5 e6 19 35 0a 13 c3 34 00 00 00 00 00 00 00 00
       5.7332664e-07 3.6335433e-07 0.0 0.0
000380 00 00 00 00 de d7 a3 36 00 00 00 00 6c 2b 13 b5
       0.0 4.882909e-06 0.0 -5.4824955e-07
000390 1a 9c 94 b5 1a fd 87 36 00 00 00 00 00 00 00 00
       -1.1072291e-06 4.0527784e-06 0.0 0.0
0003a0 49 ce 8b 36 00 00 00 00 99 9d 56 34 f4 5a c1 b4
       4.1665376e-06 0.0 1.9987637e-07 -3.6015228e-07
0003b0 f8 4d 53 b5 00 00 00 00 77 04 92 35 00 00 00 00
       -7.8717085e-07 0.0 1.0879147e-06 0.0
0003c0 f6 21 4a 34 43 d5 de 35 00 00 00 00 00 00 00 00
       1.8825071e-07 1.6602356e-06 0.0 0.0
0003d0 7c 9c cb b4 8f cb 31 35 00 00 00 00 00 00 00 00
       -3.7925554e-07 6.6233855e-07 0.0 0.0
0003e0 7a 41 1e b4 00 00 00 00 c9 54 b5 34 6d 5c 65 34
       -1.4738717e-07 0.0 3.3775567e-07 2.1360911e-07
0003f0 00 00 00 00 00 00 00 00 00 00 00 00 b7 63 43 36
       0.0 0.0 0.0 2.9115306e-06

exp_avg_sq f4 [30, 30]
000000 c0 17 23 2f 2b e6 07 32 00 00 00 00 00 00 00 00
       1.4833201e-10 7.910368e-09 0.0 0.0
000010 75 48 00 2e 8f 23 c2 30 00 00 00 00 00 00 00 00
       2.9168185e-11 1.4125464e-09 0.0 0.0
000020 28 72 e4 2b 00 00 00 00 a3 86 c5 2e 63 67 23 2e
       1.6232059e-12 0.0 8.982439e-11 3.7153735e-11
000030 00 00 00 00 00 00 00 00 00 00 00 00 a9 42 4f 32
       0.0 0.0 0.0 1.2064143e-08
000040 00 00 00 00 e0 10 e6 2c c8 60 79 2e fe 4a c2 31
       0.0 6.5388667e-12 5.6702004e-11 5.6546687e-09
000050 00 00 00 00 00 00 00 00 ec 25 e5 31 00 00 00 00
       0.0 0.0 6.6690884e-09 0.0
000060 0c 8a 0a 2f 3e 4b 9c 2c 6b ef ab 2d 00 00 00 00
       1.2600071e-10 4.4421402e-12 1.9546772e-11 0.0
000070 d4 6b a0 30 00 00 00 00 00 00 00 00 00 00 00 00
       1.1672179e-09 0.0 0.0 0.0
000080 00 00 00 00 00 00 00 00 00 00 00 00 00 00 00 00
       0.0 0.0 0.0 0.0
000090 00 00 00 00 00 00 00 00 00 00 00 00 00 00 00 00
       0.0 0.0 0.0 0.0
0000a0 00 00 00 00 00 00 00 00 00 00 00 00 00 00 00 00
       0.0 0.0 0.0 0.0
0000b0 00 00 00 00 00 00 00 00 00 00 00 00 00 00 00 00
       0.0 0.0 0.0 0.0
0000c0 00 00 00 00 00 00 00 00 00 00 00 00 00 00 00 00
       0.0 0.0 0.0 0.0
0000d0 00 00 00 00 00 00 00 00 00 00 00 00 00 00 00 00
       0.0 0.0 0.0 0.0
0000e0 00 00 00 00 00 00 00 00 00 00 00 00 00 00 00 00
       0.0 0.0 0.0 0.0
0000f0 87 15 4c 2b 5c 8e 53 2e 00 00 00 00 00 00 00 00
       7.2505234e-13 4.8102286e-11 0.0 0.0
000100 c0 19 b1 27 ac 2c 30 2d 00 00 00 00 00 00 00 00
       4.9155287e-15 1.0014361e-11 0.0 0.0
000110 57 73 cb 26 00 00 00 00 b7 13 33 2a d0 ca 5e 2a
       1.4117218e-15 0.0 1.5905234e-13 1.9787926e-13
000120 00 00 00 00 00 00 00 00 00 00 00 00 8a ee 90 2e
       0.0 0.0 0.0 6.590735e-11
000130 00 00 00 00 9c 04 e2 2a 91 4d c4 29 c6 9b fe 2d
       0.0 4.0148863e-13 8.717604e-14 2.8945634e-11
000140 00 00 00 00 00 00 00 00 15 51 3a 2e 00 00 00 00
       0.0 0.0 4.236352e-11 0.0
000150 19 e8 16 28 fd 00 c8 29 fb 8e 52 2b 00 00 00 00
       8.377001e-15 8.8819556e-14 7.480541e-13 0.0
000160 00 0c 59 2c 00 00 00 00 5e 83 11 2f f0 42 f3 31
       3.0844216e-12 0.0 1.3234344e-10 7.0798407e-09
000170 00 00 00 00 00 00 00 00 68 77 e4 2d 36 57 ad 30
       0.0 0.0 2.5973626e-11 1.2612194e-09
000180 00 00 00 00 00 00 00 00 95 32 c8 2b 00 00 00 00
       0.0 0.0 1.4224894e-12 0.0
000190 a9 2c b1 2e 37 1f 11 2e 00 00 00 00 00 00 00 00
       8.0569613e-11 3.2996907e-11 0.0 0.0
0001a0 00 00 00 00 ca 65 39 32 00 00 00 00 fb 5d bb 2c
       0.0 1.0791561e-08 0.0 5.3252936e-12
0001b0 b7 57 5e 2e f1 b1 ad 31 00 00 00 00 00 00 00 00
       5.0554862e-11 5.0551923e-09 0.0 0.0
0001c0 a1 69 cc 31 00 00 00 00 e8 d6 f8 2e 7d 59 88 2c
       5.94919e-09 0.0 1.1315909e-10 3.8752877e-12
0001d0 c3 6d 96 2d 00 00 00 00 bf b5 8f 30 00 00 00 00
       1.710177e-11 0.0 1.0456275e-09 0.0
0001e0 00 00 00 00 00 00 00 00 00 00 00 00 00 00 00 00
       0.0 0.0 0.0 0.0
0001f0 00 00 00 00 00 00 00 00 00 00 00 00 00 00 00 00
       0.0 0.0 0.0 0.0
000200 00 00 00 00 00 00 00 00 00 00 00 00 00 00 00 00
       0.0 0.0 0.0 0.0
000210 00 00 00 00 00 00 00 00 00 00 00 00 00 00 00 00
       0.0 0.0 0.0 0.0
000220 00 00 00 00 00 00 00 00 00 00 00 00 00 00 00 00
       0.0 0.0 0.0 0.0
000230 00 00 00 00 00 00 00 00 00 00 00 00 00 00 00 00
       0.0 0.0 0.0 0.0
000240 00 00 00 00 00 00 00 00 00 00 00 00 00 00 00 00
       0.0 0.0 0.0 0.0
000250 00 00 00 00 00 00 00 00 00 00 00 00 00 00 00 00
       0.0 0.0 0.0 0.0
000260 00 00 00 00 00 00 00 00 00 00 00 00 00 00 00 00
       0.0 0.0 0.0 0.0
000270 00 00 00 00 00 00 00 00 00 00 00 00 00 00 00 00
       0.0 0.0 0.0 0.0
000280 00 00 00 00 00 00 00 00 00 00 00 00 00 00 00 00
       0.0 0.0 0.0 0.0
000290 00 00 00 00 00 00 00 00 00 00 00 00 00 00 00 00
       0.0 0.0 0.0 0.0
0002a0 00 00 00 00 00 00 00 00 00 00 00 00 00 00 00 00
       0.0 0.0 0.0 0.0
0002b0 00 00 00 00 00 00 00 00 00 00 00 00 00 00 00 00
       0.0 0.0 0.0 0.0
0002c0 00 00 00 00 00 00 00 00 00 00 00 00 00 00 00 00
       0.0 0.0 0.0 0.0
0002d0 57 9a eb 29 2a 74 18 2e 00 00 00 00 00 00 00 00
       1.046287e-13 3.4663973e-11 0.0 0.0
0002e0 6a 06 be 28 a7 72 20 2d 00 00 00 00 00 00 00 00
       2.1097019e-14 9.120405e-12 0.0 0.0
0002f0 15 ba 4b 28 00 00 00 00 0c 31 cc 29 01 bb 06 2b
       1.1309114e-14 0.0 9.067928e-14 4.7865883e-13
000300 00 00 00 00 00 00 00 00 00 00 00 00 1d 99 58 2e
       0.0 0.0 0.0 4.9248706e-11
000310 00 00 00 00 59 5c 08 2b e2 9a df 2a f0 12 65 2d
       0.0 4.8445064e-13 3.972023e-13 1.3021348e-11
000320 00 00 00 00 00 00 00 00 ac 37 13 2e 00 00 00 00
       0.0 0.0 3.3473377e-11 0.0
000330 31 3b d4 26 6b 7e 15 2a ca 36 51 2b 00 00 00 00
       1.4726499e-15 1.3277718e-13 7.432775e-13 0.0
000340 3e 07 84 2b 00 00 00 00 55 af a1 2f 6f d8 88 32
       9.381174e-13 0.0 2.941031e-10 1.5930906e-08
000350 00 00 00 00 00 00 00 00 64 fc 68 2e ce 00 42 31
       0.0 0.0 5.297486e-11 2.8231173e-09
000360 00 00 00 00 00 00 00 00 10 df 42 2c 00 00 00 00
       0.0 0.0 2.7692883e-12 0.0
000370 23 b7 46 2f fb 29 a1 2e 00 00 00 00 00 00 00 00
       1.8073058e-10 7.3288896e-11 0.0 0.0
000380 00 00 00 00 fa 0a d0 32 00 00 00 00 df ff 30 2d
       0.0 2.4219379e-08 0.0 1.00612565e-11
000390 8f 2b eb 2e ac 6b 42 32 00 00 00 00 00 00 00 00
       1.06943e-10 1.1316768e-08 0.0 0.0
0003a0 19 c3 63 32 00 00 00 00 ae 8c 8b 2f 43 f3 07 2d
       1.3257499e-08 0.0 2.5383912e-10 7.7278765e-12
0003b0 30 cb 24 2e 00 00 00 00 e3 0b 21 31 00 00 00 00
       3.746975e-11 0.0 2.343534e-09 0.0
0003c0 90 29 e1 2e f6 74 bd 31 00 00 00 00 00 00 00 00
       1.02391984e-10 5.513921e-09 0.0 0.0
0003d0 53 34 ba 2d 1f 4a 87 30 00 00 00 00 00 00 00 00
       2.1168988e-11 9.843609e-10 0.0 0.0
0003e0 5d e6 a4 2b 00 00 00 00 64 d7 87 2e 39 89 eb 2d
       1.171684e-12 0.0 6.17735e-11 2.6777346e-11
0003f0 00 00 00 00 00 00 00 00 00 00 00 00 b1 db 0f 32
       0.0 0.0 0.0 8.3736476e-09
