src/lightning_logs/version_17/checkpoints/epoch=199-step=400.ckpt (torch, 13235 bytes, 21 tensors)

phi.phi.0.weight f4 [6, 3]
00000000: 08e8 d1be f8cc 183f 460a 5cbe ad96 3b3f
00000010: d01f 8f3d 5ef9 a3bf 6f86 11bf cc79 edbe
00000020: bae7 04bf 731f e7be 4bea acbe 2761 b83e
00000030: 7b61 173e df24 cdbe abc8 ecbe d8f7 7cbe
00000040: 7d6f 8c3e 5cbc 823e
-0.40997338 0.5968776 -0.21488294 0.7327679 0.0698849 -1.2810476 -0.56845754 -0.46381986
-0.51916087 -0.4514118 -0.337725 0.3601162 0.1478328 -0.40067193 -0.46246848 -0.2470392
0.2742881 0.25534332

phi.phi.0.bias f4 [6]
00000000: 236a 533e 19f4 82bd 98f2 023f 4199 03bc
00000010: bf1a 093f 6161 f73e
0.20645957 -0.06394214 0.5115142 -0.008032144 0.53556436 0.48316482

phi.phi.2.weight f4 [6, 6]
00000000: 8777 d6bd 1ffa 8bbf b579 4d3e 4efd 9d3e
00000010: 7a62 063e a216 c33d 26e6 97be 5d34 43be
00000020: dfd0 7d3e 3845 2f3e 6e6e e6be 4ffe 723e
00000030: 0ae9 0d3e 5ebc 96bf 2b90 36be dc39 95be
00000040: 4c75 a2bc 2439 b4be 00fa 7b3e d1eb d6bd
00000050: 4bab 143d d7c4 9d3e aa52 cebe 7330 a6be
00000060: cec2 13be c749 9dbf f2c4 5fbe 6b1b 04be
00000070: 8e8f ab3d 9271 a23b 3fe8 c83e 1d14 5f3e
00000080: adea b6bc 4d3e ba3d 4056 5fbe 6b63 3a3e
-0.10472017 -1.0935706 0.20065959 0.3085732 0.13123503 0.09525801 -0.29667777 -0.19062944
0.24786709 0.17116249 -0.45006126 0.23729824 0.13858429 -1.1776235 -0.17828433 -0.29145706
-0.019831322 -0.35199845 0.24607086 -0.10494197 0.03629617 0.3081424 -0.40297443 -0.3245884
-0.14429781 -1.228814 -0.21852472 -0.12901084 0.0837699 0.0049573863 0.3923969 0.21785016
-0.022328699 0.09093914 -0.21810246 0.18201987

phi.phi.2.bias f4 [6]
00000000: 8fab 1f3e b7c2 c0bd 2a43 9d3e 304c 423e
00000010: 780d 353e 72c7 443e
0.15592788 -0.09412139 0.30715305 0.18974376 0.17680919 0.19216707

rho.rho.0.weight f4 [6, 6]
00000000: 5431 be3e d1a0 a0be cab6 c83d af03 d63d
00000010: ef0b de3e 9730 56be 1695 0e3e 7c84 913e
00000020: 6606 cb3e a3b1 72be 078a 4d3e 236f 81be
00000030: 13a5 043c db4f de3c 41fc 623e e36a 963e
00000040: acb0 91bd b18f 96be 3ce5 d53d 98bf 843d
00000050: 4c7f d93e 17a3 b13d e111 42bd ce9d c23d
00000060: 7462 da3e 07aa 34bd 0852 1c3d cb46 ff3b
00000070: 3e90 c83e 7198 7dbe 5d10 43be e68e 0dbd
00000080: b63c 783e 51b3 363e bf07 923e afc9 123e
0.3714701 -0.31372693 0.09800489 0.10449921 0.4336848 -0.20916973 0.1392406 0.2842139
0.3965332 -0.23700576 0.20072185 -0.25280103 0.008095997 0.027137687 0.2216654 0.29378423
-0.071137756 -0.29406503 0.104441136 0.06481856 0.42479932 0.08673685 -0.047380332 0.09502755
0.4265324 -0.044107463 0.03816417 0.0077904216 0.39172548 -0.24765183 -0.19049211 -0.034560107
0.2424191 0.17841841 0.28521535 0.14334749

rho.rho.0.bias f4 [6]
00000000: f4c3 193e 9156 8ebe 511f 8abe 294d 173e
00000010: f640 973e d7a0 1ebd
0.15016156 -0.2780042 -0.26977018 0.14775528 0.2954175 -0.038727608

rho.rho.2.weight f4 [1, 6]
00000000: f1b6 5dbe de4e abbe bf95 82bd 3280 b7be
00000010: d0f7 a1be b06f 2abc
-0.21651818 -0.33458608 -0.06376218 -0.35839993 -0.31634378 -0.010402605

exp_avg f4 [6, 3]
00000000: 9576 3537 a9ea 63b7 f117 6c36 bcc7 0038
00000010: 54bc fb37 a333 e337 7255 871c 1dea 451c
00000020: cecc 731c 0000 0000 0000 0000 0000 0000
00000030: a4e9 6cb7 85c5 a436 9a5b 3bb5 05a8 12b7
00000040: 6952 c1b5 4b8d d4b6
1.081605e-05 -1.358489e-05 3.5180676e-06 3.0703595e-05 3.0009229e-05 2.7084554e-05 8.955638e-22 6.5484417e-22
8.066666e-22 0.0 0.0 0.0 -1.4121095e-05 4.910575e-06 -6.9796226e-07 -8.741398e-06
-1.4403605e-06 -6.334541e-06

exp_avg_sq f4 [6, 3]
00000000: 0c2b 2f33 e78e b732 50af 0132 fc57 1134
00000010: ce01 0433 9939 c732 c95b 6734 e2d4 ab33
00000020: ac5c 1f33 0000 0000 0000 0000 0000 0000
00000030: be72 4035 508b 6f34 a2ea da33 cb7e 0835
00000040: 527c 3434 35bd aa33
4.0784514e-08 2.1368988e-08 7.54865e-09 1.3536186e-07 3.0735286e-08 2.3192841e-08 2.1546943e-07 8.001531e-08
3.7104357e-08 0.0 0.0 0.0 7.1692546e-07 2.2309291e-07 1.01940955e-07 5.0848456e-07
1.6809034e-07 7.9506584e-08

exp_avg f4 [6]
00000000: 6c1e 4935 df1f b838 6918 321d 0000 0000
00000010: 923c 26b7 7b8c 8ab7
7.4922605e-07 8.77974e-05 2.3570724e-21 0.0 -9.908474e-06 -1.6516298e-05

exp_avg_sq f4 [6]
00000000: 4f89 4934 30eb e034 f772 6c35 0000 0000
00000010: 6e1e 3236 e489 0336
1.8769536e-07 4.1894373e-07 8.8084147e-07 0.0 2.654178e-06 1.9600784e-06

exp_avg f4 [6, 6]
00000000: 5ac9 2438 320a 6fb6 60fc 7e9c 0000 0000
00000010: 402d 1eb8 174b 09b7 9f1a c71b d7d4 5216
00000020: 00e3 f61b 0000 0000 0bbb c01c 6931 381d
00000030: 046f 8237 dcf3 4237 d388 349c 0000 0000
00000040: e2ed 8737 40bb 9037 f103 6419 4d14 d493
00000050: 613d 9819 0000 0000 78af 321a e36f cc1a
00000060: 9735 9f37 1e4a 9436 d534 069c 0000 0000
00000070: 4941 24b7 865d 2db6 3680 beb7 541c 3c36
00000080: 7bd1 221c 0000 0000 7fbd 6c37 722a cab6
3.928817e-05 -3.561971e-06 -8.4367737e-22 0.0 -3.7712278e-05 -8.18332e-06 3.2938992e-22 1.7030825e-25
4.0843981e-22 0.0 1.2753844e-21 2.4377742e-21 1.5548903e-05 1.1620079e-05 -5.9733845e-22 0.0
1.6204027e-05 1.7253333e-05 1.178812e-23 -5.3536342e-27 1.5741222e-23 0.0 3.695128e-23 8.4553185e-23
1.8979232e-05 4.419372e-06 -4.4405165e-22 0.0 -9.790362e-06 -2.5833447e-06 -2.2709468e-05 2.8030672e-06
5.387205e-22 0.0 1.4110817e-05 -6.0250104e-06

exp_avg_sq f4 [6, 6]
00000000: 9119 c933 04e6 1932 268b 4533 0000 0000
00000010: 9ef4 e135 8ed4 4736 6feb ef31 6ad8 b927
00000020: f09e 7232 0000 0000 20ff 0334 8492 f134
00000030: c2e7 7533 7b83 8831 6b78 e432 0000 0000
00000040: 94a5 8835 2009 ec35 d5d5 072e 4063 ac22
00000050: c169 6f2e 0000 0000 f868 a52f c41e d830
00000060: 956d 2f33 e4ca 8131 39e2 7832 0000 0000
00000070: 9567 3d35 31ac 9935 f53f a932 ec75 6f30
00000080: 0490 a732 0000 0000 82ef d134 fc96 6635
9.3644424e-08 8.958072e-09 4.599419e-08 0.0 1.6834999e-06 2.9777034e-06 6.982581e-09 5.158245e-15
1.4122392e-08 0.0 1.229314e-07 4.4996352e-07 5.725429e-08 3.9730685e-09 2.6597453e-08 0.0
1.0180979e-06 1.7586026e-06 3.0885367e-11 4.672578e-18 5.4436237e-11 0.0 3.008791e-10 1.5724813e-09
4.0845027e-08 3.77746e-09 1.4486937e-08 0.0 7.055872e-07 1.1449503e-06 1.9703274e-08 8.711527e-10
1.950685e-08 0.0 3.9103548e-07 8.590139e-07

exp_avg f4 [6]
00000000: fd75 52b8 6d88 941d 70e3 2138 eda6 1b1b
00000010: fdb9 56b7 d3c7 0f37
-5.0177787e-05 3.9316335e-21 3.859721e-05 1.2875236e-22 -1.2798698e-05 8.569989e-06

exp_avg_sq f4 [6]
00000000: 3dbf 2a37 9db7 9c35 ae27 cb36 22ac 7a31
00000010: ce61 8836 7566 3336
1.0177316e-05 1.1676344e-06 6.0544908e-06 3.6477634e-09 4.064502e-06 2.6732716e-06

exp_avg f4 [6, 6]
00000000: 5e13 40b7 ac4c 309c 4d7e dbb6 342c 2a9a
00000010: edc0 43b7 f426 e137 0000 0000 0000 0000
00000020: 0000 0000 0000 0000 0000 0000 0000 0000
00000030: 0000 0000 0000 0000 0000 0000 0000 0000
00000040: 0000 0000 0000 0000 65dd 9fb7 35fa a09c
00000050: 24c3 36b7 c74c 9d9a 99e9 a2b7 7039 3b38
00000060: abde 8cb7 6fd5 829c f702 21b7 9dd3 7e9a
00000070: a985 8fb7 41c1 2438 d4cf 0eb5 f68d 491b
00000080: 808a a8b4 b342 5a19 cf8b 10b5 ab2a bc35
-1.1448601e-05 -5.833261e-22 -6.541412e-06 -3.5190883e-23 -1.1667825e-05 2.684023e-05 0.0 0.0
0.0 0.0 0.0 0.0 0.0 0.0 0.0 0.0
0.0 0.0 -1.9057372e-05 -1.0652589e-21 -1.089348e-05 -6.505772e-23 -1.9420682e-05 4.4637767e-05
-1.6792988e-05 -8.65785e-22 -9.597038e-06 -5.269691e-23 -1.7109169e-05 3.928063e-05 -5.320155e-07 1.66722e-22
-3.139321e-07 1.1283806e-23 -5.384763e-07 1.401951e-06

exp_avg_sq f4 [6, 6]
00000000: 8a5c 4635 76d1 0633 d34c 5834 a679 902f
00000010: a89b f234 77a0 4d35 0000 0000 0000 0000
00000020: 0000 0000 0000 0000 0000 0000 0000 0000
00000030: 0000 0000 0000 0000 0000 0000 0000 0000
00000040: 0000 0000 0000 0000 8978 1e36 42fd e333
00000050: a489 2735 661c 7730 7a95 bf35 7362 2936
00000060: e683 d735 9b03 9633 2cb1 e634 1c17 2230
00000070: 00d1 8235 774b e335 f8e3 c832 cc78 4b31
00000080: 2c36 1a31 1696 ef2d 4021 3d32 f533 3a33
7.389541e-07 3.138981e-08 2.0144516e-07 2.6279884e-10 4.5189267e-07 7.660196e-07 0.0 0.0
0.0 0.0 0.0 0.0 0.0 0.0 0.0 0.0
0.0 0.0 2.3613995e-06 1.06165785e-07 6.241264e-07 8.9898433e-10 1.4274112e-06 2.5240267e-06
1.6057136e-06 6.985575e-08 4.2969748e-07 5.8968097e-10 9.746582e-07 1.6934781e-06 2.3386733e-08 2.9609053e-09
2.2440743e-09 2.7237806e-11 1.1008808e-08 4.3353754e-08

exp_avg f4 [6]
00000000: e54f a4b7 0000 0000 0000 0000 b257 08b8
00000010: f739 f1b7 9231 05b5
-1.9587527e-05 0.0 0.0 -3.25066e-05 -2.875643e-05 -4.9618495e-07

exp_avg_sq f4 [6]
00000000: 9884 1137 0000 0000 0000 0000 8986 ec37
00000010: 7a2d a037 6eff bb34
8.673545e-06 0.0 0.0 2.819604e-05 1.9094663e-05 3.5017314e-07

exp_avg f4 [1, 6]
00000000: 2e3a b238 0000 0000 0000 0000 a1d4 8b37
00000010: a8f1 d538 5dec 11b7
8.498538e-05 0.0 0.0 1.6669104e-05 0.000102016435 -8.697706e-06

exp_avg_sq f4 [1, 6]
00000000: 130b 8137 0000 0000 0000 0000 51a2 1837
00000010: d579 0c38 55c1 9f36
1.5383155e-05 0.0 0.0 9.097698e-06 3.3492066e-05 4.761076e-06
