src/lightning_logs/version_115/checkpoints/epoch=199-step=2400.ckpt (torch, 27995 bytes, 27 tensors)

phi.phi.0.weight f4 [28, 3]
0	0xbf0e14ad	-0.555003
1	0xbf0f9cf1	-0.5609885
2	0xbdefde4a	-0.1171232
3	0x3ee3d407	0.44497702
4	0xbf457877	-0.7713694
5	0x3ee744a6	0.45169562
6	0xbec20027	-0.3789074
7	0x3e0ee839	0.13955773
8	0x3e874819	0.26422194
9	0xbf05468d	-0.52060777
10	0x3ef52705	0.47881332
11	0x3e9f2a6a	0.31087047
12	0x3f207090	0.62671757
13	0x3eabc7b1	0.3355079
14	0xbf27865c	-0.6543939
15	0x3f0dddfb	0.5541684
16	0xbda56822	-0.080765024
17	0x3dd16ad4	0.10225454
18	0xbf18e657	-0.5972647
19	0xbde97859	-0.113999076
20	0xbec32b7a	-0.38119107
21	0xbe1281aa	-0.14307275
22	0x3e4550dd	0.19269128
23	0xbf1d490f	-0.61439604
24	0x3e3c749d	0.1840386
25	0x3e9eae90	0.30992556
26	0x3da4b89e	0.080430254
27	0xbec5c884	-0.38629544
28	0xbee52fe5	-0.44763103
29	0xbe3665a7	-0.17812215
30	0x3e81c1eb	0.2534326
31	0x3f11ca81	0.5694962
32	0x3ea9fb02	0.33199316
33	0x3d2afd10	0.041745245
34	0x3eeadf01	0.45873263
35	0xbf3a680d	-0.7281502
36	0xbefc79a6	-0.4931156
37	0x3e89ee4d	0.26939622
38	0xbea76f29	-0.32701996
39	0x3e8e36a7	0.2777607
40	0xbed0ad07	-0.4075701
41	0xbe926a62	-0.2859679
42	0xbef37c37	-0.47555706
43	0x3e9a4202	0.30128485
44	0xbd70f6d8	-0.05882916
45	0x3ef40bd5	0.47665277
46	0x3e68ff3e	0.22753617
47	0x3efba79b	0.4915131
48	0x3c981656	0.018565338
49	0xbe36c9c0	-0.17850399
50	0xbe008c0b	-0.12553422
51	0x3db0aa01	0.08626176
52	0x3ebbb929	0.36664703
53	0xbf353f00	-0.70799255
54	0x3f243d02	0.6415559
55	0x3d2edb1f	0.04268944
56	0xbf5324e9	-0.82478195
57	0xbe9ff041	-0.31237987
58	0x3f02c70c	0.5108497
59	0x3f072b2c	0.5280025
60	0xbee34d4b	-0.44394907
61	0x3ed2417d	0.4106559
62	0x3f0d75d7	0.55257934
63	0x3ec54fd4	0.38537467
64	0x3f12007d	0.57031995
65	0xbf1635e9	-0.5867601
66	0x3e3ab051	0.18231322
67	0x3e71f100	0.2362709
68	0xbe2eb299	-0.17060317
69	0x3e7164c7	0.235736
70	0xbe9f4a71	-0.31111482
71	0x3ecc70fb	0.39929947
72	0xbe240874	-0.1601885
73	0xbe5c6639	-0.2152337
74	0x3e14d5f1	0.14534737
75	0x3ea6806a	0.32519847
76	0xbedfad87	-0.43687078
77	0xbbdf8838	-0.0068216585
78	0x3eab500d	0.3345951
79	0xbd6b4ae1	-0.057444457
80	0x3e33ec9b	0.17570727
81	0xbe0e9763	-0.13924937
82	0x3e4f37bc	0.20236105
83	0xbed62223	-0.4182292

phi.phi.0.bias f4 [28]
0	0xbeadd2c2	-0.33949858
1	0xbe9171d4	-0.28407156
2	0x3f0039d7	0.50088257
3	0xbe1f1595	-0.15535577
4	0xbd146d6e	-0.036237173
5	0xbe95ef8f	-0.2928433
6	0x3f0fde84	0.56198907
7	0x3f166285	0.5874408
8	0xbedef0a9	-0.43542984
9	0xbeefa300	-0.46804047
10	0xbee010b4	-0.43762743
11	0x3d9bb544	0.07602933
12	0xbe16b36e	-0.14716884
13	0xbec17c63	-0.37790212
14	0xbe540ca3	-0.20707946
15	0x3e0fd701	0.14046861
16	0xbe9a7333	-0.30166015
17	0x3d76d7e9	0.0602645
18	0xbdd6538b	-0.10465153
19	0xbe8f3d11	-0.27976277
20	0x3e587363	0.21137767
21	0x3ed97b35	0.42476812
22	0xbec7d9ee	-0.39033455
23	0x3cefa10f	0.029251603
24	0xbe5a0498	-0.21290815
25	0x3f137534	0.5760071
26	0xbf0c3a92	-0.5477687
27	0xbf0db115	-0.5534833

phi.phi.2.weight f4 [28, 28]
0	0x3e3eb085	0.18622024
1	0xbdf4dfa1	-0.11956716
2	0x3d146854	0.036232308
3	0xbc859d38	-0.01631032
4	0xbd231043	-0.03981043
5	0xbd2ce319	-0.042208765
6	0x3df5f02a	0.12008698
7	0x3c13fe37	0.0090327775
8	0xbe3c6969	-0.18399586
9	0xbde47d8b	-0.11156758
10	0xbd83f0c8	-0.0644241
11	0x3dc2c33e	0.09509896
12	0xbdfa76bb	-0.12229677
13	0x3e3678c4	0.17819506
14	0xbd2c688a	-0.042091884
15	0xbd0afe67	-0.033934023
16	0x3e17a1e7	0.14807855
17	0x3dc286ef	0.09498393
18	0x3e24205b	0.16027968
19	0x3ddfe0ea	0.10931571
20	0xbd6ad14a	-0.0573285
21	0xbe0064cb	-0.1253845
22	0xbc665f7f	-0.014060854
23	0x3e2029a0	0.15640879
24	0xbd81e596	-0.06342618
25	0xbe33766d	-0.17525645
26	0x3d9ea82b	0.07746919
27	0x3e3c6251	0.1839688
28	0xbd5c5d77	-0.053800073
29	0xbe203cc0	-0.15648174
30	0xbe2f883e	-0.17141816
31	0x3d41fb55	0.04735883
32	0xbc6a7327	-0.014309681
33	0xbdc372b3	-0.095433615
34	0x3d1c76e7	0.03819933
35	0x3d92faee	0.07176767
36	0x3e19e88c	0.15030116
37	0x3e163e69	0.14672245
38	0xbce7bb52	-0.028287563
39	0xbe2aa33d	-0.16663833
40	0xbe2eddfe	-0.17076871
41	0x3e34af81	0.17645074
42	0x3dab1753	0.08354058
43	0x3da8b630	0.082378745
44	0xbe276f88	-0.1635114
45	0x3e333356	0.17500052
46	0x3e3753e8	0.17903101
47	0x3e2eb834	0.17062455
48	0xbe233fac	-0.15942258
49	0xbd92099f	-0.07130741
50	0xbe051834	-0.12997514
51	0x3e374134	0.17895967
52	0xbda64d2c	-0.08120188
53	0xbdb0b3ef	-0.086280696
54	0x3dcac5e0	0.09901023
55	0xbdb30a2b	-0.08742174
56	0xbdbe9fa4	-0.09307793
57	0x3e9c825f	0.30568215
58	0xbdcab2c4	-0.09897378
59	0xbe16bf07	-0.14721309
60	0x3ec2d33a	0.38051778
61	0x3e9b824f	0.30372855
62	0x3db922fb	0.09039875
63	0x3e55f3be	0.20893762
64	0x3dc3303d	0.09530685
65	0x3cdb2f91	0.02675608
66	0x3e24a7ef	0.16079687
67	0x3ecb70ec	0.3973459
68	0xbdb31089	-0.08743388
69	0x3e371158	0.1787771
70	0x3d373523	0.04472841
71	0xbe466bcf	-0.19377063
72	0xbd5c5f1e	-0.05380165
73	0x3de0f493	0.10984149
74	0x3f021acc	0.5082214
75	0xbcffab5a	-0.031209636
76	0xbefa3ce8	-0.48874593
77	0x3d9d4627	0.07679396
78	0x3df31038	0.11868328
79	0xbd5a6112	-0.05331523
80	0x3d74c3c7	0.05975702
81	0x3c8ad5e3	0.016947692
82	0x3d904b4b	0.07045611
83	0xbd3c9a9f	-0.046045896
84	0xbd99f67d	-0.07517717
85	0x3e21f6cd	0.15816803
86	0xbe5eb3e3	-0.21748309
87	0x3da7be02	0.08190538
88	0x3dba4c6d	0.09096608
89	0x3edc34a9	0.43008927
90	0x3dab485f	0.08363413
91	0x3d50de63	0.050993335
92	0xbdfaef38	-0.122526586
93	0x3e39110b	0.18072908
94	0xbde10f9e	-0.10989307
95	0x3f1a43ad	0.60259515
96	0xbe19f1ed	-0.15033694
97	0xbd3a33a0	-0.04545939
98	0x3dd28909	0.10280044
99	0xbdce3db8	-0.10070366
100	0x3e229032	0.15875319
101	0x3e1787c8	0.1479789
102	0x3e54fbd8	0.20799196
103	0xbdae8593	-0.08521571
104	0xbe75b3b4	-0.23994333
105	0x3e7cb513	0.2467845
106	0xbdb8c56a	-0.09022029
107	0xbd726060	-0.05917394
108	0xbd4210aa	-0.047379173
109	0xbd79090b	-0.06079964
110	0x3e0e4b57	0.13895927
111	0xbe15f93c	-0.14645857
112	0x3ca46ef1	0.020072432
113	0x3e35fc65	0.17772062
114	0xbcd4bbd0	-0.025968462
115	0x3e16412e	0.14673302
116	0xbd6e6169	-0.058198366
117	0x3e1bc646	0.15212354
118	0xbe3b3216	-0.18280825
119	0xbcdf1fbd	-0.027236814
120	0xbd07f67d	-0.033194054
121	0x3d7add68	0.061246306
122	0x3d97d83d	0.07414291
123	0x3e149614	0.14510375
124	0xbce6a6ca	-0.028155703
125	0xbbf59121	-0.0074941074
126	0x3e0485ee	0.12941715
127	0xbd517161	-0.051133517
128	0x3e29a4ec	0.16566819
129	0xbe00d8b4	-0.12582666
130	0xbca78636	-0.020449739
131	0xbc264deb	-0.010150413
132	0x3dacb2fa	0.084325746
133	0x3e044db2	0.12920263
134	0xbcf562ec	-0.029954396
135	0xbe205364	-0.15656811
136	0x3dbfc5ec	0.093639225
137	0x3d678c9e	0.056530587
138	0x3d9b78d1	0.07591403
139	0xbdeebff0	-0.11657703
140	0x3df9182b	0.12162813
141	0xbdc4b427	-0.09604674
142	0x3c9ffa47	0.019528521
143	0xbe34c148	-0.17651856
144	0x3dfb6f63	0.12277105
145	0xbeea4637	-0.45756695
146	0xbcd1b94c	-0.025601052
147	0x3b54b34c	0.0032455502
148	0xbdb52595	-0.08845059
149	0x3d86c39b	0.065802775
150	0xbe2d16b2	-0.16903189
151	0xbe98f018	-0.29870677
152	0xbdf55c91	-0.11980546
153	0xbca76805	-0.020435343
154	0x3cc722c3	0.024308568
155	0x3e4d00df	0.20019864
156	0xbdb8a99c	-0.090167254
157	0x3ce7d2e0	0.028298795
158	0xbeaad3e5	-0.33364788
159	0xbdb7d060	-0.08975291
160	0xbe0f82b8	-0.14014709
161	0xbe45f0a4	-0.19330078
162	0x3e3cfdd6	0.18456206
163	0x3de173bb	0.11008402
164	0x3c1aa7df	0.009439438
165	0x3dec401b	0.11535665
166	0x3e038a50	0.12845731
167	0x3e252996	0.16129145
168	0x3e1cf23e	0.15326783
169	0xbea8e807	-0.32989523
170	0xbd24d315	-0.040240366
171	0xbde50606	-0.111827895
172	0xbd87d09c	-0.06631586
173	0xbe067955	-0.13132222
174	0x3dfa457c	0.12220284
175	0xbe2668df	-0.16250943
176	0x3dea3c56	0.114372894
177	0xbdc8aa43	-0.097981
178	0xbd16c4e8	-0.03680888
179	0xbe01326d	-0.12616892
180	0xbd2f126a	-0.04274217
181	0x3c8cf79f	0.017207919
182	0xbe074676	-0.13210472
183	0x3e422e30	0.18962932
184	0xbcc820cd	-0.024429703
185	0xbe31dd8b	-0.17369668
186	0xbe220228	-0.15821135
187	0xbe099833	-0.13436966
188	0xbe0669b5	-0.13126262
189	0x3c779487	0.015111095
190	0x3e196dea	0.14983335
191	0x3d7717a8	0.060325295
192	0x3db62a33	0.088947676
193	0x3e5baf4b	0.21453588
194	0x3e005a51	0.12534453
195	0xbdcb0618	-0.09913272
196	0xbca9b508	-0.020716205
197	0xbe974d1b	-0.29551014
198	0xbe118716	-0.14211687
199	0x38a3c0cc	7.808357e-05
200	0x3dee91ad	0.11648879
201	0xbda04608	-0.078258574
202	0xbceb98c2	-0.028759364
203	0x3cf5c7e2	0.030002538
204	0xbda78e5c	-0.0818145
205	0x3e121350	0.1426518
206	0xbda10c7e	-0.07863711
207	0xbebf807c	-0.37402713
208	0x3cee6763	0.029102033
209	0x3de7fbc6	0.11327319
210	0xbe2e7959	-0.17038478
211	0x3e42feee	0.1904256
212	0x3d8b3a8f	0.067982785
213	0xbe382bde	-0.17985484
214	0xbe8d81fb	-0.2763823
215	0x3e27e465	0.1639572
216	0xbd920ef3	-0.071317576
217	0xbd946cb9	-0.072473
218	0x3d7de14e	0.061982445
219	0xbd92e823	-0.07173183
220	0x3dd42c18	0.10359973
221	0x3e071136	0.13190159
222	0x3df00aa8	0.117207825
223	0xbdf6c0e2	-0.12048508
224	0x3e40be72	0.18822649
225	0xbde56b79	-0.112021394
226	0x3e413258	0.18866861
227	0xbe39b79a	-0.18136445
228	0xbe2c6b27	-0.1683775
229	0x3dedb741	0.116072185
230	0x3ca1cd08	0.019751087
231	0x3c329f5f	0.010902255
232	0xbdd65300	-0.1046505
233	0xbda25a18	-0.0792734
234	0xbd625428	-0.05525604
235	0xbe3c8434	-0.18409806
236	0x3c20e8ee	0.00982116
237	0x3d08e6c1	0.03342319
238	0xb927c4dc	-0.00015999697
239	0x3d79f899	0.061028097
240	0x3e379e9c	0.17931598
241	0x3d4dd02d	0.05024736
242	0xbd8daedd	-0.06918118
243	0xbd9f4882	-0.07777502
244	0xbdf7a0a6	-0.12091188
245	0xbe062673	-0.13100605
246	0xbcf953fe	-0.030435558
247	0xbd08e814	-0.033424452
248	0x3dac2d79	0.08407111
249	0xbda56eeb	-0.080777965
250	0x3e1a45ea	0.15065733
251	0xbe07c9a1	-0.13260509
252	0x3a0ccdb7	0.000537123
253	0x3ee18964	0.44050133
254	0x3e2a0ba6	0.16606006
255	0xbde031f4	-0.10947028

phi.phi.2.bias f4 [28]
0	0x3dada381	0.084784515
1	0xbd8f5246	-0.06998114
2	0x3d0a83e4	0.033817187
3	0x3cd757c6	0.02628697
4	0xbdf3a2e5	-0.11896304
5	0x3d9f0c13	0.07765975
6	0x3d09f79e	0.03368341
7	0x3e3cfc82	0.18455699
8	0xbd8c0987	-0.06837755
9	0xbd83225d	-0.06403039
10	0x3e18c404	0.14918524
11	0xbe1e06f0	-0.15432334
12	0x3d87ae6b	0.066250645
13	0x3e324922	0.1741071
14	0xbd75adaa	-0.059980072
15	0x3e2377ad	0.15963621
16	0x3e2037e7	0.15646325
17	0x3e1c2794	0.15249473
18	0xbc815cb9	-0.015791284
19	0x3e459927	0.19296704
20	0xbda8a390	-0.08234322
21	0xbd847bfb	-0.0646896
22	0x3d9263b5	0.07147924
23	0x3c0a1f82	0.008430364
24	0x3dd55d01	0.1041813
25	0x3e4843b8	0.19557083
26	0xbdfd9cb9	-0.12383408
27	0x3db4df2a	0.08831628

phi.phi.4.weight f4 [4, 28]
0	0x3d817d08	0.06322676
1	0x3dcc3009	0.099700995
2	0x3db78587	0.08961015
3	0xbd90c744	-0.07069257
4	0xbe18f2ae	-0.14936325
5	0x3e1ae382	0.1512585
6	0xbddcb395	-0.1077644
7	0x3df77140	0.120821476
8	0xbe385a7e	-0.1800327
9	0xbd05ea89	-0.032694373
10	0x3b0344d2	0.0020030034
11	0x3d05eebd	0.03269838
12	0x3c7a4767	0.015275813
13	0x3d73ea2a	0.059549488
14	0xbcac6094	-0.021042146
15	0x3d3d92ce	0.046282582
16	0x3e3f808f	0.18701385
17	0xbdfa6ea4	-0.12228134
18	0xbc290c15	-0.010317822
19	0xbd93bd8c	-0.072138876
20	0x3e29cc5a	0.1658186
21	0x3e25a8b2	0.16177633
22	0xbba8dde0	-0.0051534027
23	0xbd8628bf	-0.065507405
24	0xbdef22df	-0.11676573
25	0x3e0a783b	0.13522427
26	0xbc5538af	-0.013014003
27	0x3e3641c5	0.17798527
28	0x3ddcb631	0.10776938
29	0x3e296314	0.16541702
30	0x3e190ecc	0.14947051
31	0xbdfb8319	-0.12280864
32	0x3d629286	0.055315517
33	0xbda07cde	-0.078363165
34	0x3dc23245	0.094822444
35	0xbc8b3173	-0.016991353
36	0x3c8605c6	0.016360175
37	0xbe05d6b0	-0.13070178
38	0xbe2cf3ab	-0.16889827
39	0x3d91bf45	0.0711656
40	0x3d33e202	0.04391671
41	0x3c8679db	0.016415527
42	0x3e036fae	0.12835571
43	0xbda19dbd	-0.07891414
44	0x3d8963e6	0.06708507
45	0xbdd52a13	-0.10408416
46	0x3d206334	0.039157107
47	0xbd30b826	-0.043144368
48	0x3e078693	0.1323493
49	0x3e293a5a	0.16526166
50	0x3e281326	0.16413555
51	0x3c0b48b2	0.008501219
52	0x3de43b73	0.111441515
53	0xbe4159df	-0.1888194
54	0xbde30869	-0.110855885
55	0x3d0a5831	0.033775512
56	0x3a8a24a0	0.001053948
57	0xbe17ecf3	-0.14836483
58	0xbe8a29de	-0.26985067
59	0xbe8758dc	-0.26434982
60	0xbe3fbae9	-0.18723644
61	0x3e0ff65d	0.14058824
62	0x3e58dfaa	0.21179071
63	0x3e27a8f9	0.16373052
64	0xbdb7e4b4	-0.089791685
65	0xbeba52b9	-0.36391237
66	0xbe101632	-0.14070967
67	0x3b65bc07	0.00350547
68	0x3e9ad8b0	0.30243444
69	0xbd8e5fe9	-0.06951887
70	0xbee1de91	-0.44115117
71	0xbe3e917f	-0.1861019
72	0xbc800b11	-0.015630277
73	0xbe30956f	-0.17244504
74	0xbed0c4a0	-0.40775013
75	0x3e556dd0	0.20842671
76	0xbdb89561	-0.09012867
77	0xbd0b9d44	-0.034085527
78	0xbd4f1ad9	-0.050562713
79	0xbf0c567b	-0.5481946
80	0xbd0876a4	-0.03331627
81	0x3dcba384	0.099432975
82	0xbe9c347a	-0.30508786
83	0xbd027e47	-0.03185871
84	0xba6cfa52	-0.0009039986
85	0xbe40a5de	-0.18813273
86	0xbdc9802a	-0.098388985
87	0xbe40b73d	-0.188199
88	0x3e03f106	0.12884912
89	0x3d9b24d0	0.07575381
90	0x3e430cf3	0.19047908
91	0xbdb39ad8	-0.087697685
92	0xbd3f7eb3	-0.04675169
93	0xbd2f6f2b	-0.042830627
94	0xbd626a14	-0.055276945
95	0x3da28e14	0.079372555
96	0x3da5ec7a	0.08101745
97	0xbc7506d4	-0.014955241
98	0xbebb55be	-0.36588854
99	0xbe982e82	-0.29722983
100	0xbcfe4a07	-0.031041158
101	0xbe1c5473	-0.1526659
102	0xbe9acf0b	-0.30236086
103	0x3df24c71	0.11830986
104	0x3e354933	0.17703705
105	0xbd81f7b7	-0.06346076
106	0x3c1d73ed	0.009610158
107	0xbed25519	-0.4108055
108	0x3e412c4e	0.18864557
109	0x3e5ab0ad	0.21356459
110	0xbefc82d5	-0.49318567
111	0xbe86ade9	-0.26304558

phi.phi.4.bias f4 [4]
0	0xbe2e6a53	-0.17032747
1	0xbdba617a	-0.091006234
2	0x3e3e4031	0.18579175
3	0x3d995377	0.07486623

rho.rho.0.weight f4 [21, 4]
0	0x3ef7009e	0.48242658
1	0x3ebdc0a6	0.37061042
2	0x3e1088d0	0.1411469
3	0xbe3bf940	-0.183568
4	0x3ef9fbf2	0.48825032
5	0x3ecd5b18	0.40108562
6	0x3e5daab4	0.2164715
7	0xbe8bd7ec	-0.27313173
8	0x3ec9abe8	0.39388967
9	0x3d3a6690	0.045507967
10	0x3e8b9896	0.2726485
11	0x3e32573b	0.17416088
12	0x3e87f02a	0.26550418
13	0xbee0a244	-0.438738
14	0xbe8df27a	-0.27724057
15	0x3e998aa0	0.29988575
16	0xbdd55600	-0.10416794
17	0xbedeb6fe	-0.43498987
18	0x3ee8ce64	0.45469964
19	0xbc312800	-0.010812759
20	0x3ece82d6	0.40334195
21	0xbec8180a	-0.3908084
22	0x3d8b9496	0.0681545
23	0xbe93e1ec	-0.28883302
24	0xbe57751c	-0.21040767
25	0xbdd59350	-0.10428488
26	0xbe3d83c4	-0.18507296
27	0x3e8c471e	0.27398008
28	0xbdc28f20	-0.09499955
29	0x3ec21a8e	0.37910885
30	0x3de9a8d8	0.114091575
31	0xbd9e3940	-0.07725763
32	0xbe93dd8e	-0.2887997
33	0xbeea698c	-0.4578365
34	0xbcb1bc80	-0.02169633
35	0xbeba50fc	-0.3638991
36	0xbdbdb798	-0.09263533
37	0x3c05e480	0.008172154
38	0xbd03fb20	-0.032221913
39	0xbe7b80c8	-0.24560845
40	0x3eb1ae28	0.34703183
41	0x3e902c8e	0.28158993
42	0xbdfc4a48	-0.123188555
43	0xbe4a4b50	-0.19755292
44	0x3ea0f1d6	0.31434506
45	0x3edeb9ea	0.43501216
46	0xbeea674a	-0.45781928
47	0xbddd3ea0	-0.108029604
48	0xbd3e0f10	-0.046401083
49	0xbe39600c	-0.18103045
50	0x3f1aa751	0.60411555
51	0x3df2b23a	0.118504
52	0x3ed90c9a	0.42392427
53	0x3b21fe00	0.0024718046
54	0xbd5e2630	-0.054235637
55	0xbe955342	-0.29165083
56	0xbe2a3e48	-0.16625321
57	0x3e24fb48	0.16111481
58	0x3ebc7dce	0.3681473
59	0x3e123b60	0.14280462
60	0x3ef3ed82	0.47642142
61	0xbeb12f9e	-0.34606642
62	0x3ea33372	0.31875187
63	0x3f14aba0	0.5807438
64	0xbdb20e38	-0.08694118
65	0x3ecb3da0	0.39695454
66	0x3c070a40	0.00824219
67	0xbebfb44c	-0.37442243
68	0xbe8c7220	-0.2743082
69	0x3e3e9308	0.18610775
70	0xbe980e08	-0.29698205
71	0x3c7f59a1	0.015585334
72	0x3efbf828	0.49212766
73	0x3e2dea98	0.16984022
74	0xbd3fac00	-0.04679489
75	0x3dfff430	0.12497747
76	0xbe937e28	-0.28807187
77	0xbed71ad4	-0.42012656
78	0xbef73946	-0.48285884
79	0xbf2d3f62	-0.6767484
80	0x3dd22510	0.10260975
81	0x3dc77540	0.097391605
82	0xbe068db9	-0.1314
83	0xbef2be26	-0.47410697

rho.rho.0.bias f4 [21]
0	0x3e942b71	0.28939393
1	0xbe9141bc	-0.28370464
2	0xbdff0574	-0.12452212
3	0xbed6a6c0	-0.41924095
4	0xbe906cac	-0.2820791
5	0x3e3fb767	0.18722306
6	0xbeee85a8	-0.46586347
7	0xbe91fb3a	-0.28511983
8	0x3ec6e8d4	0.3884951
9	0xbe834a0e	-0.25642437
10	0xbe551264	-0.20807797
11	0xbe0fc194	-0.14038688
12	0x3e740f96	0.2383407
13	0xbea7eda0	-0.3279848
14	0x3d967aae	0.07347618
15	0x3e66f35f	0.22553776
16	0xbd14abc0	-0.036296606
17	0x3dd12068	0.10211259
18	0xbec349fa	-0.38142377
19	0x3e902026	0.28149527
20	0x3e472a47	0.19449721

rho.rho.2.weight f4 [1, 21]
0	0xbd3f047a	-0.04663513
1	0xbe38c4b7	-0.18043791
2	0xbb824333	-0.003975296
3	0x3e11d052	0.14239624
4	0xbd1c5617	-0.03816804
5	0x3da4121d	0.08011267
6	0x3da5a6bf	0.08088445
7	0xbdb2bfe6	-0.08728008
8	0xbca82898	-0.02052717
9	0x3e5e6f92	0.21722248
10	0x3a870855	0.0010302166
11	0xbe31e549	-0.17372622
12	0xbd940597	-0.07227629
13	0x3dde55a7	0.10856181
14	0xbe1e8d1f	-0.15483521
15	0xbe2c49d3	-0.16825037
16	0x3e3813d5	0.17976315
17	0x3e35c7d9	0.17752017
18	0xbd17da90	-0.03707367
19	0x3db44008	0.088012755
20	0x3c56f136	0.013119033

exp_avg f4 [28, 3]
0	0x00000000	0.0
1	0x00000000	0.0
2	0x00000000	0.0
3	0xb7ac3b15	-2.053151e-05
4	0xb6294d5f	-2.5227998e-06
5	0xb706a78d	-8.026033e-06
6	0x372eb662	1.04136725e-05
7	0x368b2dc5	4.147851e-06
8	0x369ab637	4.6107702e-06
9	0x00000000	0.0
10	0x00000000	0.0
11	0x00000000	0.0
12	0xb7cfc279	-2.4766881e-05
13	0xb70c1435	-8.349355e-06
14	0xb72907cd	-1.0075001e-05
15	0xb8648a21	-5.448808e-05
16	0xb7504776	-1.2414404e-05
17	0xb7b2c2ac	-2.1309905e-05
18	0x36197ea9	2.2872503e-06
19	0x35d4a06a	1.5841918e-06
20	0x35e00d21	1.6693122e-06
21	0xb789bbdc	-1.6419152e-05
22	0xb6be9406	-5.6796734e-06
23	0xb6ddbb77	-6.608137e-06
24	0x00000000	0.0
25	0x00000000	0.0
26	0x00000000	0.0
27	0x00000000	0.0
28	0x00000000	0.0
29	0x00000000	0.0
30	0x00000000	0.0
31	0x00000000	0.0
32	0x00000000	0.0
33	0xb79524c8	-1.7779312e-05
34	0xb7094763	-8.182457e-06
35	0xb6719a80	-3.600173e-06
36	0x00000000	0.0
37	0x00000000	0.0
38	0x00000000	0.0
39	0x00000000	0.0
40	0x00000000	0.0
41	0x00000000	0.0
42	0x00000000	0.0
43	0x00000000	0.0
44	0x00000000	0.0
45	0x377abd19	1.4945189e-05
46	0x365aef86	3.2623952e-06
47	0x36984d4c	4.5389515e-06
48	0x00000000	0.0
49	0x00000000	0.0
50	0x00000000	0.0
51	0xb74b1037	-1.2103518e-05
52	0xb6bb4355	-5.5808728e-06
53	0xb6805327	-3.8243775e-06
54	0xb895ff9d	-7.152485e-05
55	0xb7bca126	-2.2486387e-05
56	0xb7e614f9	-2.7427903e-05
57	0x00000000	0.0
58	0x00000000	0.0
59	0x00000000	0.0
60	0x383962b1	4.419935e-05
61	0x377faa04	1.5238769e-05
62	0x37977587	1.805533e-05
63	0xb754dc90	-1.2687538e-05
64	0xb66c2b07	-3.5191786e-06
65	0xb6976313	-4.5116844e-06
66	0x00000000	0.0
67	0x00000000	0.0
68	0x00000000	0.0
69	0x373de1f3	1.1317886e-05
70	0x3631c619	2.6490363e-06
71	0x366d9a4f	3.5405571e-06
72	0x00000000	0.0
73	0x00000000	0.0
74	0x00000000	0.0
75	0x36462a44	2.95289e-06
76	0x34a59ae1	3.0846334e-07
77	0x3511e810	5.4354405e-07
78	0x00000000	0.0
79	0x00000000	0.0
80	0x00000000	0.0
81	0x00000000	0.0
82	0x00000000	0.0
83	0x00000000	0.0

exp_avg_sq f4 [28, 3]
0	0x00000000	0.0
1	0x00000000	0.0
2	0x00000000	0.0
3	0x31eba0fb	6.8577015e-09
4	0x2f32c7c7	1.6259981e-10
5	0x30932825	1.0707067e-09
6	0x3039b87b	6.756477e-10
7	0x2f08b075	1.2431818e-10
8	0x2f0b93e7	1.2694522e-10
9	0x00000000	0.0
10	0x00000000	0.0
11	0x00000000	0.0
12	0x31ef678c	6.9675874e-09
13	0x308b85e0	1.0151631e-09
14	0x309dfb9d	1.1494766e-09
15	0x32c1c07a	2.2555685e-08
16	0x3109fecb	2.0080957e-09
17	0x31760541	3.5800698e-09
18	0x2fbeff1d	3.4742068e-10
19	0x2f2de0a3	1.5814065e-10
20	0x2ef5c97c	1.1177101e-10
21	0x314d7b93	2.990167e-09
22	0x3000409b	4.665794e-10
23	0x300b1db3	5.061011e-10
24	0x00000000	0.0
25	0x00000000	0.0
26	0x00000000	0.0
27	0x00000000	0.0
28	0x00000000	0.0
29	0x00000000	0.0
30	0x00000000	0.0
31	0x00000000	0.0
32	0x00000000	0.0
33	0x33049ce6	3.0876343e-08
34	0x322ccee8	1.0058763e-08
35	0x31d1d086	6.106407e-09
36	0x00000000	0.0
37	0x00000000	0.0
38	0x00000000	0.0
39	0x00000000	0.0
40	0x00000000	0.0
41	0x00000000	0.0
42	0x00000000	0.0
43	0x00000000	0.0
44	0x00000000	0.0
45	0x31fbf263	7.3326176e-09
46	0x30dcb080	1.6057271e-09
47	0x30cd835b	1.4953047e-09
48	0x00000000	0.0
49	0x00000000	0.0
50	0x00000000	0.0
51	0x31aebeb6	5.085748e-09
52	0x30b87a02	1.3422439e-09
53	0x306a07ae	8.513962e-10
54	0x336f0ebc	5.5659925e-08
55	0x32050664	7.743072e-09
56	0x321a1008	8.967625e-09
57	0x00000000	0.0
58	0x00000000	0.0
59	0x00000000	0.0
60	0x32adff6e	2.0256007e-08
61	0x314644da	2.885193e-09
62	0x3165aeb6	3.3423198e-09
63	0x315d323e	3.2188292e-09
64	0x301b7e3d	5.6568067e-10
65	0x301d2cf3	5.7180144e-10
66	0x00000000	0.0
67	0x00000000	0.0
68	0x00000000	0.0
69	0x316e82e4	3.470796e-09
70	0x303fbe76	6.9756056e-10
71	0x303b15a8	6.806098e-10
72	0x00000000	0.0
73	0x00000000	0.0
74	0x00000000	0.0
75	0x303fdf82	6.980302e-10
76	0x2f62e56c	2.0636087e-10
77	0x2f3d5bd2	1.7222071e-10
78	0x00000000	0.0
79	0x00000000	0.0
80	0x00000000	0.0
81	0x00000000	0.0
82	0x00000000	0.0
83	0x00000000	0.0

exp_avg f4 [28]
0	0x00000000	0.0
1	0xb8025c45	-3.1080348e-05
2	0x37a0d430	1.9172294e-05
3	0x00000000	0.0
4	0xb835283a	-4.3191227e-05
5	0xb8b8feaa	-8.8212386e-05
6	0x36b9eab7	5.540754e-06
7	0xb7f0cfb7	-2.8706954e-05
8	0x00000000	0.0
9	0x00000000	0.0
10	0x00000000	0.0
11	0xb7f7fbc0	-2.9561925e-05
12	0x00000000	0.0
13	0x00000000	0.0
14	0x00000000	0.0
15	0x37becfd0	2.2746535e-05
16	0x00000000	0.0
17	0xb7b46dbc	-2.1508771e-05
18	0xb8fead24	-0.00012143914
19	0x00000000	0.0
20	0x38a283fa	7.7493445e-05
21	0xb7adcc6f	-2.0718404e-05
22	0x00000000	0.0
23	0x3792dd04	1.7507475e-05
24	0x00000000	0.0
25	0x367f5797	3.8048945e-06
26	0x00000000	0.0
27	0x00000000	0.0

exp_avg_sq f4 [28]
0	0x00000000	0.0
1	0x328c6582	1.6344305e-08
2	0x311a6479	2.2467062e-09
3	0x00000000	0.0
4	0x32bc7572	2.1939488e-08
5	0x33896ee5	6.399731e-08
6	0x30eb6897	1.7128227e-09
7	0x322579b5	9.631937e-09
8	0x00000000	0.0
9	0x00000000	0.0
10	0x00000000	0.0
11	0x3404e5a4	1.2377001e-07
12	0x00000000	0.0
13	0x00000000	0.0
14	0x00000000	0.0
15	0x32e362cc	2.6471206e-08
16	0x00000000	0.0
17	0x329fb034	1.8590164e-08
18	0x343a062d	1.7324847e-07
19	0x00000000	0.0
20	0x33882723	6.3401124e-08
21	0x323885e4	1.0740653e-08
22	0x00000000	0.0
23	0x3251a648	1.2203209e-08
24	0x00000000	0.0
25	0x314359e7	2.8427338e-09
26	0x00000000	0.0
27	0x00000000	0.0

exp_avg f4 [28, 28]
0	0x00000000	0.0
1	0x00000000	0.0
2	0x00000000	0.0
3	0x00000000	0.0
4	0x00000000	0.0
5	0x00000000	0.0
6	0x00000000	0.0
7	0x00000000	0.0
8	0x00000000	0.0
9	0x00000000	0.0
10	0x00000000	0.0
11	0x00000000	0.0
12	0x00000000	0.0
13	0x00000000	0.0
14	0x00000000	0.0
15	0x00000000	0.0
16	0x00000000	0.0
17	0x00000000	0.0
18	0x00000000	0.0
19	0x00000000	0.0
20	0x00000000	0.0
21	0x00000000	0.0
22	0x00000000	0.0
23	0x00000000	0.0
24	0x00000000	0.0
25	0x00000000	0.0
26	0x00000000	0.0
27	0x00000000	0.0
28	0x00000000	0.0
29	0x00000000	0.0
30	0x00000000	0.0
31	0x00000000	0.0
32	0x00000000	0.0
33	0x00000000	0.0
34	0x00000000	0.0
35	0x00000000	0.0
36	0x00000000	0.0
37	0x00000000	0.0
38	0x00000000	0.0
39	0x00000000	0.0
40	0x00000000	0.0
41	0x00000000	0.0
42	0x00000000	0.0
43	0x00000000	0.0
44	0x00000000	0.0
45	0x00000000	0.0
46	0x00000000	0.0
47	0x00000000	0.0
48	0x00000000	0.0
49	0x00000000	0.0
50	0x00000000	0.0
51	0x00000000	0.0
52	0x00000000	0.0
53	0x00000000	0.0
54	0x00000000	0.0
55	0x00000000	0.0
56	0x00000000	0.0
57	0xb513c10f	-5.5042705e-07
58	0xb70ac3f8	-8.2710685e-06
59	0x00000000	0.0
60	0xb6bf2a27	-5.6971508e-06
61	0xb5a7d4a5	-1.2504357e-06
62	0xb6120b39	-2.1762228e-06
63	0xb7170e59	-9.003642e-06
64	0x00000000	0.0
65	0x00000000	0.0
66	0x00000000	0.0
67	0xb55d976f	-8.254928e-07
68	0x00000000	0.0
69	0x00000000	0.0
70	0x00000000	0.0
71	0xb75f6a4c	-1.3316585e-05
72	0x00000000	0.0
73	0xb540214a	-7.1574016e-07
74	0xb6178688	-2.257906e-06
75	0x00000000	0.0
76	0xb65efeb7	-3.3228841e-06
77	0xb76eaf53	-1.4226726e-05
78	0x00000000	0.0
79	0xb6a1b05e	-4.8187057e-06
80	0x00000000	0.0
81	0xb78609bd	-1.597858e-05
82	0x00000000	0.0
83	0x00000000	0.0
84	0x00000000	0.0
85	0xb5150938	-5.552024e-07
86	0xb721ee34	-9.651809e-06
87	0x00000000	0.0
88	0xb6d711d9	-6.409577e-06
89	0xb5b69e40	-1.3606113e-06
90	0xb6301ff8	-2.6244652e-06
91	0xb72ea2c1	-1.0409102e-05
92	0x00000000	0.0
93	0x00000000	0.0
94	0x00000000	0.0
95	0xb587e6ef	-1.0125494e-06
96	0x00000000	0.0
97	0x00000000	0.0
98	0x00000000	0.0
99	0xb77f1144	-1.5203204e-05
100	0x00000000	0.0
101	0xb5666170	-8.5823467e-07
102	0xb62dd020	-2.5900154e-06
103	0x00000000	0.0
104	0xb689a3ea	-4.1020003e-06
105	0xb7890ead	-1.6338507e-05
106	0x00000000	0.0
107	0xb6b4300c	-5.3700114e-06
108	0x00000000	0.0
109	0xb797cc02	-1.8095601e-05
110	0x00000000	0.0
111	0x00000000	0.0
112	0x00000000	0.0
113	0x00000000	0.0
114	0x00000000	0.0
115	0x00000000	0.0
116	0x00000000	0.0
117	0x00000000	0.0
118	0x00000000	0.0
119	0x00000000	0.0
120	0x00000000	0.0
121	0x00000000	0.0
122	0x00000000	0.0
123	0x00000000	0.0
124	0x00000000	0.0
125	0x00000000	0.0
126	0x00000000	0.0
127	0x00000000	0.0
128	0x00000000	0.0
129	0x00000000	0.0
130	0x00000000	0.0
131	0x00000000	0.0
132	0x00000000	0.0
133	0x00000000	0.0
134	0x00000000	0.0
135	0x00000000	0.0
136	0x00000000	0.0
137	0x00000000	0.0
138	0x00000000	0.0
139	0x00000000	0.0
140	0x00000000	0.0
141	0x349efcaf	2.9613645e-07
142	0x363037cd	2.6258524e-06
143	0x00000000	0.0
144	0x362195c0	2.4078035e-06
145	0x353bd4b3	6.9972447e-07
146	0x350c9221	5.236671e-07
147	0x3654efd9	3.1730071e-06
148	0x00000000	0.0
149	0x00000000	0.0
150	0x00000000	0.0
151	0x34d32968	3.933194e-07
152	0x00000000	0.0
153	0x00000000	0.0
154	0x00000000	0.0
155	0x36a2f4f6	4.8564934e-06
156	0x00000000	0.0
157	0x34d3c951	3.944829e-07
158	0x35aa7313	1.2699478e-06
159	0x00000000	0.0
160	0x3534b937	6.732475e-07
161	0x36ae79f7	5.1998027e-06
162	0x00000000	0.0
163	0x35ff6f61	1.9031396e-06
164	0x00000000	0.0
165	0x36cba764	6.0693583e-06
166	0x00000000	0.0
167	0x00000000	0.0
168	0x00000000	0.0
169	0x34f5e2a4	4.579971e-07
170	0x368f4558	4.269805e-06
171	0x00000000	0.0
172	0x3684aca5	3.954005e-06
173	0x359c23ba	1.1633304e-06
174	0x35629284	8.440477e-07
175	0x36ade63b	5.182604e-06
176	0x00000000	0.0
177	0x00000000	0.0
178	0x00000000	0.0
179	0x35327d6b	6.6492674e-07
180	0x00000000	0.0
181	0x00000000	0.0
182	0x00000000	0.0
183	0x3704f0e5	7.923901e-06
184	0x00000000	0.0
185	0x3533d74b	6.699599e-07
186	0x360db1ab	2.1114054e-06
187	0x00000000	0.0
188	0x3590f973	1.0801435e-06
189	0x370e99e7	8.499693e-06
190	0x00000000	0.0
191	0x365041d7	3.103274e-06
192	0x00000000	0.0
193	0x37263f5d	9.909124e-06
194	0x00000000	0.0
195	0x00000000	0.0
196	0x00000000	0.0
197	0x34a889c5	3.139268e-07
198	0x36159622	2.229012e-06
199	0x00000000	0.0
200	0x360562c7	1.987604e-06
201	0x35150450	5.55131e-07
202	0x34f10209	4.489123e-07
203	0x363230c4	2.6552452e-06
204	0x00000000	0.0
205	0x00000000	0.0
206	0x00000000	0.0
207	0x34953d61	2.7798072e-07
208	0x00000000	0.0
209	0x00000000	0.0
210	0x00000000	0.0
211	0x3689a065	4.1015905e-06
212	0x00000000	0.0
213	0x34936616	2.745516e-07
214	0x3586a067	1.0030461e-06
215	0x00000000	0.0
216	0x351c047c	5.8121054e-07
217	0x3691e799	4.3482983e-06
218	0x00000000	0.0
219	0x35d9d970	1.6231043e-06
220	0x00000000	0.0
221	0x36abfb4d	5.1254524e-06
222	0x00000000	0.0
223	0x00000000	0.0
224	0x00000000	0.0
225	0x00000000	0.0
226	0x00000000	0.0
227	0x00000000	0.0
228	0x00000000	0.0
229	0x00000000	0.0
230	0x00000000	0.0
231	0x00000000	0.0
232	0x00000000	0.0
233	0x00000000	0.0
234	0x00000000	0.0
235	0x00000000	0.0
236	0x00000000	0.0
237	0x00000000	0.0
238	0x00000000	0.0
239	0x00000000	0.0
240	0x00000000	0.0
241	0x00000000	0.0
242	0x00000000	0.0
243	0x00000000	0.0
244	0x00000000	0.0
245	0x00000000	0.0
246	0x00000000	0.0
247	0x00000000	0.0
248	0x00000000	0.0
249	0x00000000	0.0
250	0x00000000	0.0
251	0x00000000	0.0
252	0x00000000	0.0
253	0xb5379296	-6.8386123e-07
254	0xb59951d5	-1.1423205e-06
255	0x00000000	0.0

exp_avg_sq f4 [28, 28]
0	0x00000000	0.0
1	0x00000000	0.0
2	0x00000000	0.0
3	0x00000000	0.0
4	0x00000000	0.0
5	0x00000000	0.0
6	0x00000000	0.0
7	0x00000000	0.0
8	0x00000000	0.0
9	0x00000000	0.0
10	0x00000000	0.0
11	0x00000000	0.0
12	0x00000000	0.0
13	0x00000000	0.0
14	0x00000000	0.0
15	0x00000000	0.0
16	0x00000000	0.0
17	0x00000000	0.0
18	0x00000000	0.0
19	0x00000000	0.0
20	0x00000000	0.0
21	0x00000000	0.0
22	0x00000000	0.0
23	0x00000000	0.0
24	0x00000000	0.0
25	0x00000000	0.0
26	0x00000000	0.0
27	0x00000000	0.0
28	0x00000000	0.0
29	0x00000000	0.0
30	0x00000000	0.0
31	0x00000000	0.0
32	0x00000000	0.0
33	0x00000000	0.0
34	0x00000000	0.0
35	0x00000000	0.0
36	0x00000000	0.0
37	0x00000000	0.0
38	0x00000000	0.0
39	0x00000000	0.0
40	0x00000000	0.0
41	0x00000000	0.0
42	0x00000000	0.0
43	0x00000000	0.0
44	0x00000000	0.0
45	0x00000000	0.0
46	0x00000000	0.0
47	0x00000000	0.0
48	0x00000000	0.0
49	0x00000000	0.0
50	0x00000000	0.0
51	0x00000000	0.0
52	0x00000000	0.0
53	0x00000000	0.0
54	0x00000000	0.0
55	0x00000000	0.0
56	0x00000000	0.0
57	0x2cb00b2f	5.0034625e-12
58	0x30a7a7df	1.2198561e-09
59	0x00000000	0.0
60	0x30026f41	4.7451826e-10
61	0x2d6884ee	1.32171895e-11
62	0x2f24f86e	1.5003973e-10
63	0x30bbfa04	1.36771e-09
64	0x00000000	0.0
65	0x00000000	0.0
66	0x00000000	0.0
67	0x2dc09ff1	2.1898901e-11
68	0x00000000	0.0
69	0x00000000	0.0
70	0x00000000	0.0
71	0x313538c1	2.6371227e-09
72	0x00000000	0.0
73	0x2d8f330a	1.6279884e-11
74	0x2e6c8183	5.3775217e-11
75	0x00000000	0.0
76	0x2f8777d7	2.4641508e-10
77	0x315cc859	3.2128098e-09
78	0x00000000	0.0
79	0x2fa9dd88	3.0898328e-10
80	0x00000000	0.0
81	0x317ccdf0	3.6787888e-09
82	0x00000000	0.0
83	0x00000000	0.0
84	0x00000000	0.0
85	0x2cb8e8a8	5.2554246e-12
86	0x31022aa2	1.8941724e-09
87	0x00000000	0.0
88	0x302ebd07	6.3569455e-10
89	0x2d7c0cc3	1.4327375e-11
90	0x2f899a63	2.5029853e-10
91	0x310d9221	2.0601265e-09
92	0x00000000	0.0
93	0x00000000	0.0
94	0x00000000	0.0
95	0x2e1e8190	3.6040115e-11
96	0x00000000	0.0
97	0x00000000	0.0
98	0x00000000	0.0
99	0x31818d00	3.770424e-09
100	0x00000000	0.0
101	0x2dd1490b	2.3792987e-11
102	0x2e7b6700	5.7162275e-11
103	0x00000000	0.0
104	0x300039b9	4.664816e-10
105	0x31a157e0	4.695707e-09
106	0x00000000	0.0
107	0x2fdb29e2	3.9865627e-10
108	0x00000000	0.0
109	0x31aea2a3	5.082556e-09
110	0x00000000	0.0
111	0x00000000	0.0
112	0x00000000	0.0
113	0x00000000	0.0
114	0x00000000	0.0
115	0x00000000	0.0
116	0x00000000	0.0
117	0x00000000	0.0
118	0x00000000	0.0
119	0x00000000	0.0
120	0x00000000	0.0
121	0x00000000	0.0
122	0x00000000	0.0
123	0x00000000	0.0
124	0x00000000	0.0
125	0x00000000	0.0
126	0x00000000	0.0
127	0x00000000	0.0
128	0x00000000	0.0
129	0x00000000	0.0
130	0x00000000	0.0
131	0x00000000	0.0
132	0x00000000	0.0
133	0x00000000	0.0
134	0x00000000	0.0
135	0x00000000	0.0
136	0x00000000	0.0
137	0x00000000	0.0
138	0x00000000	0.0
139	0x00000000	0.0
140	0x00000000	0.0
141	0x2bb5f964	1.2930043e-12
142	0x30260f95	6.041259e-10
143	0x00000000	0.0
144	0x2f3c9407	1.715109e-10
145	0x2c794b70	3.5426904e-12
146	0x2eb00789	8.004892e-11
147	0x302a2d8c	6.1910366e-10
148	0x00000000	0.0
149	0x00000000	0.0
150	0x00000000	0.0
151	0x2d18ca3a	8.685103e-12
152	0x00000000	0.0
153	0x00000000	0.0
154	0x00000000	0.0
155	0x309c08ad	1.135296e-09
156	0x00000000	0.0
157	0x2cbfdae1	5.452847e-12
158	0x2d7a89f1	1.4241484e-11
159	0x00000000	0.0
160	0x2f3cc5c5	1.7168762e-10
161	0x30bea917	1.3872378e-09
162	0x00000000	0.0
163	0x2effad0c	1.1626797e-10
164	0x00000000	0.0
165	0x30cd7f1f	1.4951843e-09
166	0x00000000	0.0
167	0x00000000	0.0
168	0x00000000	0.0
169	0x2c84e13d	3.776672e-12
170	0x31100134	2.0955442e-09
171	0x00000000	0.0
172	0x30265415	6.0509936e-10
173	0x2d4eabf5	1.1747926e-11
174	0x2f9d08ea	2.8564467e-10
175	0x31114dc4	2.1144482e-09
176	0x00000000	0.0
177	0x00000000	0.0
178	0x00000000	0.0
179	0x2e1041cc	3.280025e-11
180	0x00000000	0.0
181	0x00000000	0.0
182	0x00000000	0.0
183	0x31843a49	3.848332e-09
184	0x00000000	0.0
185	0x2e0aff7f	3.1604493e-11
186	0x2e7be2a9	5.7272107e-11
187	0x00000000	0.0
188	0x30230b4d	5.9315114e-10
189	0x31a46bee	4.7852984e-09
190	0x00000000	0.0
191	0x2fd6e16b	3.9086542e-10
192	0x00000000	0.0
193	0x31adf68e	5.0629927e-09
194	0x00000000	0.0
195	0x00000000	0.0
196	0x00000000	0.0
197	0x2bd2c59e	1.4976247e-12
198	0x2f950825	2.710873e-10
199	0x00000000	0.0
200	0x2ed0b90b	9.491615e-11
201	0x2c5db748	3.150773e-12
202	0x2e18cf22	3.474477e-11
203	0x2fa003c9	2.910652e-10
204	0x00000000	0.0
205	0x00000000	0.0
206	0x00000000	0.0
207	0x2ca51b8f	4.6926417e-12
208	0x00000000	0.0
209	0x00000000	0.0
210	0x00000000	0.0
211	0x3017e63f	5.526068e-10
212	0x00000000	0.0
213	0x2c849da3	3.769167e-12
214	0x2d4fd2d7	1.18134036e-11
215	0x00000000	0.0
216	0x2e8cff98	6.4118655e-11
217	0x30395055	6.7416767e-10
218	0x00000000	0.0
219	0x2e897215	6.250304e-11
220	0x00000000	0.0
221	0x30501608	7.570127e-10
222	0x00000000	0.0
223	0x00000000	0.0
224	0x00000000	0.0
225	0x00000000	0.0
226	0x00000000	0.0
227	0x00000000	0.0
228	0x00000000	0.0
229	0x00000000	0.0
230	0x00000000	0.0
231	0x00000000	0.0
232	0x00000000	0.0
233	0x00000000	0.0
234	0x00000000	0.0
235	0x00000000	0.0
236	0x00000000	0.0
237	0x00000000	0.0
238	0x00000000	0.0
239	0x00000000	0.0
240	0x00000000	0.0
241	0x00000000	0.0
242	0x00000000	0.0
243	0x00000000	0.0
244	0x00000000	0.0
245	0x00000000	0.0
246	0x00000000	0.0
247	0x00000000	0.0
248	0x00000000	0.0
249	0x00000000	0.0
250	0x00000000	0.0
251	0x00000000	0.0
252	0x00000000	0.0
253	0x2c06b607	1.914359e-12
254	0x2e80fc85	5.8656226e-11
255	0x00000000	0.0

exp_avg f4 [28]
0	0x00000000	0.0
1	0x00000000	0.0
2	0xb7c03bc6	-2.2916018e-05
3	0xb7dc7300	-2.6279595e-05
4	0x00000000	0.0
5	0x3708f854	8.16405e-06
6	0x375f5d32	1.33135345e-05
7	0x36e770af	6.8974546e-06
8	0x00000000	0.0
9	0xb6831092	-3.9060333e-06
10	0x00000004	6e-45
11	0x00000000	0.0
12	0x37871f3d	1.61078e-05
13	0x00000004	6e-45
14	0xb843017a	-4.6492998e-05
15	0xb7deb8b5	-2.6550473e-05
16	0x00000004	6e-45
17	0xb72de3ed	-1.0364672e-05
18	0xb820c3f9	-3.8329486e-05
19	0x374ae95e	1.2094473e-05
20	0x00000000	0.0
21	0x00000000	0.0
22	0x00000000	0.0
23	0x37cb89d8	2.4263674e-05
24	0x00000000	0.0
25	0x37099643	8.200822e-06
26	0xb8206173	-3.823773e-05
27	0xb68e4b19	-4.2406723e-06

exp_avg_sq f4 [28]
0	0x00000000	0.0
1	0x00000000	0.0
2	0x320a91ff	8.065853e-09
3	0x3249af47	1.1739593e-08
4	0x00000000	0.0
5	0x3174b192	3.560761e-09
6	0x325093b4	1.2140777e-08
7	0x30ea673d	1.7055083e-09
8	0x00000000	0.0
9	0x2fc9ad06	3.6684628e-10
10	0x2f9335a6	2.6777264e-10
11	0x00000000	0.0
12	0x327dc6a2	1.4771702e-08
13	0x29edba8c	1.0557275e-13
14	0x32fd2fa9	2.947475e-08
15	0x3216b378	8.771956e-09
16	0x2544a21e	1.7055218e-16
17	0x321de53d	9.1907255e-09
18	0x33043298	3.077966e-08
19	0x322583d6	9.63424e-09
20	0x00000000	0.0
21	0x00000000	0.0
22	0x00000000	0.0
23	0x321c3020	9.0913375e-09
24	0x00000000	0.0
25	0x31bc2b44	5.476439e-09
26	0x32fd2e5f	2.9474164e-08
27	0x313d973e	2.758909e-09

exp_avg f4 [4, 28]
0	0x00000000	0.0
1	0x00000000	0.0
2	0x00000000	0.0
3	0x00000000	0.0
4	0x00000000	0.0
5	0x00000000	0.0
6	0x00000000	0.0
7	0x00000000	0.0
8	0x00000000	0.0
9	0x00000000	0.0
10	0x00000000	0.0
11	0x00000000	0.0
12	0x00000000	0.0
13	0x00000000	0.0
14	0x00000000	0.0
15	0x00000000	0.0
16	0x00000000	0.0
17	0x00000000	0.0
18	0x00000000	0.0
19	0x00000000	0.0
20	0x00000000	0.0
21	0x00000000	0.0
22	0x00000000	0.0
23	0x00000000	0.0
24	0x00000000	0.0
25	0x00000000	0.0
26	0x00000000	0.0
27	0x00000000	0.0
28	0x00000000	0.0
29	0x00000000	0.0
30	0x00000000	0.0
31	0x00000000	0.0
32	0x00000000	0.0
33	0x00000000	0.0
34	0x00000000	0.0
35	0x00000000	0.0
36	0x00000000	0.0
37	0x00000000	0.0
38	0x00000000	0.0
39	0x00000000	0.0
40	0x00000000	0.0
41	0x00000000	0.0
42	0x00000000	0.0
43	0x00000000	0.0
44	0x00000000	0.0
45	0x00000000	0.0
46	0x00000000	0.0
47	0x00000000	0.0
48	0x00000000	0.0
49	0x00000000	0.0
50	0x00000000	0.0
51	0x00000000	0.0
52	0x00000000	0.0
53	0x00000000	0.0
54	0x00000000	0.0
55	0x00000000	0.0
56	0x00000000	0.0
57	0x00000000	0.0
58	0x372387ac	9.747146e-06
59	0x36a778b7	4.991041e-06
60	0x00000000	0.0
61	0x36d0fe25	6.2284694e-06
62	0x3717902b	9.033868e-06
63	0x375172ef	1.2484131e-05
64	0x00000000	0.0
65	0x35117d95	5.4199455e-07
66	0x80000004	-6e-45
67	0x00000000	0.0
68	0x37301358	1.0494921e-05
69	0x80000004	-6e-45
70	0x3758e8ef	1.2928837e-05
71	0x36c1a97e	5.7715797e-06
72	0x80000004	-6e-45
73	0x375c122b	1.3117252e-05
74	0x36ab4dc8	5.105252e-06
75	0x377a9585	1.4935974e-05
76	0x00000000	0.0
77	0x00000000	0.0
78	0x00000000	0.0
79	0xb4cd8c97	-3.8286518e-07
80	0x00000000	0.0
81	0x37ad5d19	2.0666559e-05
82	0x36ead1c9	6.9981656e-06
83	0x34a6c418	3.1062586e-07
84	0x00000000	0.0
85	0x00000000	0.0
86	0x3660c264	3.3491751e-06
87	0x35eb9965	1.7553508e-06
88	0x00000000	0.0
89	0x35e5ceb6	1.712199e-06
90	0x36398d11	2.764926e-06
91	0x367b02b4	3.7403488e-06
92	0x00000000	0.0
93	0x80000004	-6e-45
94	0x80000004	-6e-45
95	0x00000000	0.0
96	0x36497c5e	3.0023725e-06
97	0x80000004	-6e-45
98	0x36971062	4.502058e-06
99	0x35f91e44	1.8560754e-06
100	0x80000004	-6e-45
101	0x36885e7c	4.0641153e-06
102	0x35ddb60d	1.6518767e-06
103	0x3697c6f4	4.523312e-06
104	0x00000000	0.0
105	0x00000000	0.0
106	0x00000000	0.0
107	0x33af6339	8.167121e-08
108	0x00000000	0.0
109	0x36d494ab	6.3353996e-06
110	0x36214497	2.4030794e-06
111	0xb399881e	-7.149377e-08

exp_avg_sq f4 [4, 28]
0	0x00000000	0.0
1	0x00000000	0.0
2	0x00000000	0.0
3	0x00000000	0.0
4	0x00000000	0.0
5	0x00000000	0.0
6	0x00000000	0.0
7	0x00000000	0.0
8	0x00000000	0.0
9	0x00000000	0.0
10	0x00000000	0.0
11	0x00000000	0.0
12	0x00000000	0.0
13	0x00000000	0.0
14	0x00000000	0.0
15	0x00000000	0.0
16	0x00000000	0.0
17	0x00000000	0.0
18	0x00000000	0.0
19	0x00000000	0.0
20	0x00000000	0.0
21	0x00000000	0.0
22	0x00000000	0.0
23	0x00000000	0.0
24	0x00000000	0.0
25	0x00000000	0.0
26	0x00000000	0.0
27	0x00000000	0.0
28	0x00000000	0.0
29	0x00000000	0.0
30	0x00000000	0.0
31	0x00000000	0.0
32	0x00000000	0.0
33	0x00000000	0.0
34	0x00000000	0.0
35	0x00000000	0.0
36	0x00000000	0.0
37	0x00000000	0.0
38	0x00000000	0.0
39	0x00000000	0.0
40	0x00000000	0.0
41	0x00000000	0.0
42	0x00000000	0.0
43	0x00000000	0.0
44	0x00000000	0.0
45	0x00000000	0.0
46	0x00000000	0.0
47	0x00000000	0.0
48	0x00000000	0.0
49	0x00000000	0.0
50	0x00000000	0.0
51	0x00000000	0.0
52	0x00000000	0.0
53	0x00000000	0.0
54	0x00000000	0.0
55	0x00000000	0.0
56	0x00000000	0.0
57	0x00000000	0.0
58	0x30d5e8a0	1.5563906e-09
59	0x30139c62	5.370052e-10
60	0x00000000	0.0
61	0x311666e0	2.188635e-09
62	0x317df2a2	3.6954266e-09
63	0x3208a7a4	7.954359e-09
64	0x00000000	0.0
65	0x2c22a200	2.3111513e-12
66	0x2c502ea5	2.958447e-12
67	0x00000000	0.0
68	0x31c3a22e	5.6936846e-09
69	0x26840052	9.159427e-16
70	0x31190f04	2.2272966e-09
71	0x3018ec22	5.5632843e-10
72	0x1df04366	6.359716e-21
73	0x3216233d	8.739161e-09
74	0x2fdec5e7	4.0522183e-10
75	0x32501af2	1.211332e-08
76	0x00000000	0.0
77	0x00000000	0.0
78	0x00000000	0.0
79	0x2f0e7e34	1.2959661e-10
80	0x00000000	0.0
81	0x32cb8068	2.3690703e-08
82	0x305c899e	8.02311e-10
83	0x30938918	1.0734622e-09
84	0x00000000	0.0
85	0x00000000	0.0
86	0x2f50a11b	1.8974726e-10
87	0x2e90d900	6.586909e-11
88	0x00000000	0.0
89	0x30381b04	6.69772e-10
90	0x3090254d	1.048798e-09
91	0x311d92da	2.2929982e-09
92	0x00000000	0.0
93	0x2b26f5cf	5.9316175e-13
94	0x2bab6459	1.2178133e-12
95	0x00000000	0.0
96	0x30e58c4d	1.6701819e-09
97	0x25e61599	3.9913275e-16
98	0x2f8b0a84	2.5291425e-10
99	0x2eb8abb6	8.397853e-11
100	0x1bb8394f	3.0477281e-22
101	0x3117a1b7	2.2065316e-09
102	0x2e380aea	4.184645e-11
103	0x316fb33c	3.488096e-09
104	0x00000000	0.0
105	0x00000000	0.0
106	0x00000000	0.0
107	0x2e8b581b	6.336639e-11
108	0x00000000	0.0
109	0x31e90038	6.7812174e-09
110	0x2ed2cd51	9.586166e-11
111	0x2fc52cc6	3.5865905e-10

exp_avg f4 [4]
0	0x00000000	0.0
1	0x00000000	0.0
2	0x384b7e01	4.8516322e-05
3	0x37763a89	1.4676371e-05

exp_avg_sq f4 [4]
0	0x00000000	0.0
1	0x00000000	0.0
2	0x340f5607	1.334921e-07
3	0x33221fc4	3.7747455e-08

exp_avg f4 [21, 4]
0	0x00000000	0.0
1	0x00000000	0.0
2	0x353adb68	6.960968e-07
3	0xb513087b	-5.477411e-07
4	0x00000000	0.0
5	0x00000000	0.0
6	0x00000000	0.0
7	0x00000000	0.0
8	0x00000000	0.0
9	0x00000000	0.0
10	0xb3b8ec8d	-8.611196e-08
11	0xb3345a8d	-4.199187e-08
12	0x00000000	0.0
13	0x00000000	0.0
14	0x00000000	0.0
15	0x00000000	0.0
16	0x00000000	0.0
17	0x00000000	0.0
18	0x00000000	0.0
19	0x00000000	0.0
20	0x00000000	0.0
21	0x00000000	0.0
22	0xb56faedd	-8.92889e-07
23	0x35881b49	1.0140731e-06
24	0x00000000	0.0
25	0x00000000	0.0
26	0x00000000	0.0
27	0x00000000	0.0
28	0x00000000	0.0
29	0x00000000	0.0
30	0x00000000	0.0
31	0x00000000	0.0
32	0x00000000	0.0
33	0x00000000	0.0
34	0x34c7b4d1	3.71982e-07
35	0xb4721517	-2.2545679e-07
36	0x00000000	0.0
37	0x00000000	0.0
38	0x00000000	0.0
39	0x00000000	0.0
40	0x00000000	0.0
41	0x00000000	0.0
42	0x00000000	0.0
43	0x00000000	0.0
44	0x00000000	0.0
45	0x00000000	0.0
46	0x00000000	0.0
47	0x00000000	0.0
48	0x00000000	0.0
49	0x00000000	0.0
50	0x3587259f	1.0069233e-06
51	0xb5686053	-8.6566905e-07
52	0x00000000	0.0
53	0x00000000	0.0
54	0x00000000	0.0
55	0x00000000	0.0
56	0x00000000	0.0
57	0x00000000	0.0
58	0x360886b9	2.0343998e-06
59	0xb5fcee78	-1.8844867e-06
60	0x00000000	0.0
61	0x00000000	0.0
62	0x36134297	2.1943467e-06
63	0xb609b31c	-2.0518846e-06
64	0x00000000	0.0
65	0x00000000	0.0
66	0x00000000	0.0
67	0x00000000	0.0
68	0x00000000	0.0
69	0x00000000	0.0
70	0xb6828101	-3.88932e-06
71	0x358c3fee	1.0449419e-06
72	0x00000000	0.0
73	0x00000000	0.0
74	0x00000000	0.0
75	0x00000000	0.0
76	0x00000000	0.0
77	0x00000000	0.0
78	0xb69cd9e1	-4.6745267e-06
79	0xb5145df9	-5.5271045e-07
80	0x00000000	0.0
81	0x00000000	0.0
82	0xb3309794	-4.1116053e-08
83	0x344ca25f	1.9058051e-07

exp_avg_sq f4 [21, 4]
0	0x00000000	0.0
1	0x00000000	0.0
2	0x304d36c3	7.4656387e-10
3	0x2eebbf10	1.0720502e-10
4	0x00000000	0.0
5	0x00000000	0.0
6	0x00000000	0.0
7	0x00000000	0.0
8	0x00000000	0.0
9	0x00000000	0.0
10	0x3064318e	8.301634e-10
11	0x2f826be5	2.3723526e-10
12	0x00000000	0.0
13	0x00000000	0.0
14	0x00000000	0.0
15	0x00000000	0.0
16	0x00000000	0.0
17	0x00000000	0.0
18	0x00000000	0.0
19	0x00000000	0.0
20	0x00000000	0.0
21	0x00000000	0.0
22	0x316b81d8	3.4270808e-09
23	0x30096cc5	4.999488e-10
24	0x00000000	0.0
25	0x00000000	0.0
26	0x00000000	0.0
27	0x00000000	0.0
28	0x00000000	0.0
29	0x00000000	0.0
30	0x00000000	0.0
31	0x00000000	0.0
32	0x00000000	0.0
33	0x00000000	0.0
34	0x2f81c259	2.3603056e-10
35	0x2e2945cf	3.8488154e-11
36	0x00000000	0.0
37	0x00000000	0.0
38	0x00000000	0.0
39	0x00000000	0.0
40	0x00000000	0.0
41	0x00000000	0.0
42	0x00000000	0.0
43	0x00000000	0.0
44	0x00000000	0.0
45	0x00000000	0.0
46	0x00000000	0.0
47	0x00000000	0.0
48	0x00000000	0.0
49	0x00000000	0.0
50	0x30926b4f	1.0653397e-09
51	0x2f0d1e1d	1.2834574e-10
52	0x00000000	0.0
53	0x00000000	0.0
54	0x00000000	0.0
55	0x00000000	0.0
56	0x00000000	0.0
57	0x00000000	0.0
58	0x31c92ae3	5.8547456e-09
59	0x304d2f5f	7.4645884e-10
60	0x00000000	0.0
61	0x00000000	0.0
62	0x32168326	8.760969e-09
63	0x30a5fae1	1.2076634e-09
64	0x00000000	0.0
65	0x00000000	0.0
66	0x00000000	0.0
67	0x00000000	0.0
68	0x00000000	0.0
69	0x00000000	0.0
70	0x32006a99	7.474818e-09
71	0x307b36aa	9.139095e-10
72	0x00000000	0.0
73	0x00000000	0.0
74	0x00000000	0.0
75	0x00000000	0.0
76	0x00000000	0.0
77	0x00000000	0.0
78	0x308bffc1	1.0186271e-09
79	0x2ed4b182	9.6721756e-11
80	0x00000000	0.0
81	0x00000000	0.0
82	0x2f8998f7	2.5028843e-10
83	0x2e53fb8f	4.8199274e-11

exp_avg f4 [21]
0	0x37841e99	1.5749874e-05
1	0x00000000	0.0
2	0xb44b99cf	-1.8961804e-07
3	0x00000000	0.0
4	0x00000000	0.0
5	0xb7cd32e9	-2.4461611e-05
6	0x00000000	0.0
7	0x00000000	0.0
8	0x36fb9a0a	7.4983154e-06
9	0x00000000	0.0
10	0x00000000	0.0
11	0x00000000	0.0
12	0x37c77ff7	2.3782237e-05
13	0x00000000	0.0
14	0x38514e79	4.9902566e-05
15	0x3862e684	5.4097283e-05
16	0x00000000	0.0
17	0xb87184e7	-5.7582653e-05
18	0x00000000	0.0
19	0xb81579b1	-3.5637702e-05
20	0xb64f64b5	-3.0904023e-06

exp_avg_sq f4 [21]
0	0x32afdfb4	2.047441e-08
1	0x00000000	0.0
2	0x3279c07e	1.4537475e-08
3	0x00000000	0.0
4	0x00000000	0.0
5	0x33c3ff45	9.1268284e-08
6	0x00000000	0.0
7	0x00000000	0.0
8	0x31baabf2	5.4328604e-09
9	0x00000000	0.0
10	0x00000000	0.0
11	0x00000000	0.0
12	0x3319fc5d	3.585261e-08
13	0x00000000	0.0
14	0x34464487	1.8465117e-07
15	0x34888dfd	2.5435284e-07
16	0x00000000	0.0
17	0x349365bf	2.7454914e-07
18	0x00000000	0.0
19	0x334a81ff	4.715002e-08
20	0x31a32b13	4.7488213e-09

exp_avg f4 [1, 21]
0	0xb8cab96d	-9.666649e-05
1	0x00000000	0.0
2	0x360ae691	2.069781e-06
3	0x00000000	0.0
4	0x00000000	0.0
5	0xb8836dce	-6.2670195e-05
6	0x00000000	0.0
7	0x00000000	0.0
8	0xb9064064	-0.00012803223
9	0x00000000	0.0
10	0x00000000	0.0
11	0x00000000	0.0
12	0xb8ad8a5a	-8.275053e-05
13	0x00000000	0.0
14	0xb7e52a27	-2.7318556e-05
15	0xb8914282	-6.926527e-05
16	0x00000000	0.0
17	0xb7d7a4a0	-2.5706657e-05
18	0x00000000	0.0
19	0xb8b295b8	-8.515589e-05
20	0xb8887685	-6.507061e-05

exp_avg_sq f4 [1, 21]
0	0x357ba2fe	9.374197e-07
1	0x00000000	0.0
2	0x3049d109	7.342043e-10
3	0x00000000	0.0
4	0x00000000	0.0
5	0x3502bf36	4.870702e-07
6	0x00000000	0.0
7	0x00000000	0.0
8	0x35c37145	1.4561598e-06
9	0x00000000	0.0
10	0x00000000	0.0
11	0x00000000	0.0
12	0x359dd1fa	1.1758523e-06
13	0x00000000	0.0
14	0x3434de92	1.6844777e-07
15	0x358584da	9.947937e-07
16	0x00000000	0.0
17	0x335e74a7	5.1794498e-08
18	0x00000000	0.0
19	0x34c0d4af	3.5917535e-07
20	0x348a76cf	2.5790948e-07
