src/logs/2024-07-20 20:57:25.478915/lightning_logs/version_0/checkpoints/epoch=479-step=5760.ckpt (torch, 63211 bytes, 39 tensors)

phi.phi.0.weight f4 [32, 9]
000000 56 8d 23 bb 28 1b 37 3e 64 77 8c be 56 33 7b be
       -0.002495607 0.17881453 -0.27434838 -0.24531302
000010 4e 77 03 be e6 0f b7 3d ab 69 d8 bb df 51 87 3e
       -0.1283848 0.08938579 -0.0066043935 0.2642965
000020 96 54 f2 bc 66 a4 b4 3d 90 4f ce bd 4b 30 86 bd
       -0.02958135 0.08820419 -0.10073769 -0.0655218
000030 d0 0b a3 be 18 0f 62 be 9b b4 0c be ab 4e 4a 3c
       -0.3184495 -0.2207607 -0.1374077 0.0123478575
000040 eb f0 06 3e cb ce 4c 3e 66 67 67 be 53 a3 14 be
       0.1317784 0.2000076 -0.22598037 -0.14515428
000050 cb f4 f7 3d 34 b8 8d 3e 30 7e 8c bd 7b 6c 7f 3e
       0.121072374 0.27679598 -0.06860006 0.24943726
000060 ab 11 5c bd b6 78 10 3d dc 88 9a 3e 8a 52 9e be
       -0.053727787 0.03527137 0.3018254 -0.30922347
000070 de e1 56 be d6 d3 ac bd 3e 0d 05 be c6 74 93 3e
       -0.20984599 -0.08438842 -0.12993333 0.2880003
000080 ce 3e 5d be 80 20 1d be 23 78 6e be fa d6 9f be
       -0.2160599 -0.15344429 -0.23288016 -0.31218702
000090 e3 fe 68 be ed c8 cc 3e db 05 43 be 00 91 2b 3e
       -0.22753482 0.39997044 -0.19045202 0.16754532
0000a0 8a 91 a2 3e 29 d4 07 bf 9e 40 70 be 6f 1c 5f bd
       0.31751662 -0.53058106 -0.2346215 -0.054470476
0000b0 15 76 5e bf 81 38 a2 be 8e 70 a8 3e f4 cd 63 3f
       -0.8689893 -0.31683734 0.32898372 0.88986135
0000c0 1f 43 0d bf 02 f9 9d 3b ba ac 1f 3f d9 d7 c3 bd
       -0.55180544 0.004820944 0.62372935 -0.09562654
0000d0 81 53 a0 3f 53 ab 82 3f fe db 64 3e 56 fa 48 be
       1.2525483 1.0208534 0.22349545 -0.19626746
0000e0 f6 6b 7e 3d 9e 51 84 be cb 92 6c be c3 53 30 be
       0.06211468 -0.2584352 -0.23102872 -0.17219453
0000f0 b3 71 1a 3e 50 45 09 3e 8e 30 4a be 47 bb 20 3d
       0.15082435 0.13405347 -0.19745085 0.0392411
000100 87 a1 f8 3d d1 dd cc bd ba df 46 bd 2c b6 81 3c
       0.12140184 -0.100032456 -0.048553206 0.015833937
000110 11 93 1a 3e 93 60 84 3e 4b f4 9f be 23 4f 21 be
       0.15095164 0.2585493 -0.31241068 -0.15752845
000120 9d f9 32 3e 66 c6 fb bd 5d fa 46 be 09 a1 ed 3e
       0.17478032 -0.12293701 -0.19431444 0.46411923
000130 2f 0a 2d be d1 51 cf be 1a 1d 27 be dd 73 ab bf
       -0.16898416 -0.40492108 -0.16319695 -1.3394734
000140 fc 83 87 bf b0 90 6a 3e 0f 90 3f 3e bb a1 cc be
       -1.0587153 0.22906756 0.18707298 -0.3996714
000150 24 e5 99 bb 9c ff fa bd c2 1e fa bd 3f 55 5f be
       -0.004696505 -0.12255785 -0.12212898 -0.21809863
000160 56 fb 88 3d a9 cf 83 be 8f 0e a7 be 11 8c 57 3f
       0.066885635 -0.2574437 -0.32628295 0.841981
000170 4c 3e e5 3e a3 03 2d bf b2 4f db bd c3 77 ac be
       0.4477409 -0.67583674 -0.1070856 -0.3368512
000180 26 61 a5 3f f7 13 8b 3f 0c 69 1a be e0 8b 44 be
       1.2920272 1.0865468 -0.15079135 -0.19193983
000190 f7 8d a0 3e 1b ff 65 3e 76 d4 14 be 1b d1 ab bd
       0.3135831 0.22460596 -0.14534172 -0.08389493
0001a0 a6 93 a2 be 56 53 c4 bb a6 85 80 be 17 a5 83 be
       -0.31753272 -0.0059913797 -0.25101966 -0.2571189
0001b0 6b 75 96 bc 80 ff 4c 3d 4e c9 0b be 20 8a 4a 3e
       -0.018366536 0.05004835 -0.1365101 0.19779253
0001c0 f6 b6 4f be 9b db 9a 3e 6b ea 69 3e 98 eb 8f be
       -0.20284638 0.3024567 0.2284333 -0.2810943
0001d0 b0 e7 a9 bd c1 8a ac bd e9 69 5c bd d9 16 74 3a
       -0.08296144 -0.08424903 -0.05381194 0.0009311266
0001e0 29 01 f6 3c 43 a1 ac bd 17 f4 78 be 43 0e 4d 3d
       0.03002985 -0.08429196 -0.24311863 0.05006243
0001f0 3a 19 cb be ae 32 89 be 50 e4 aa bd 9e 44 26 be
       -0.39667684 -0.26796478 -0.083443284 -0.16237113
000200 d0 d1 ee bd d2 e1 8b be ab 36 91 bd a6 ec 91 3d
       -0.11661112 -0.27320725 -0.07090505 0.07125215
000210 f3 5d 5e be d6 22 8c bc 00 58 74 3e 9a 40 a6 be
       -0.21715526 -0.017106455 0.23861694 -0.32471162
000220 70 bd 7e 3d bb 7f be 3e f1 28 cf be c0 09 2a 3e
       0.06219238 0.37206826 -0.40460923 0.16605282
000230 3e 55 d8 3e 7e 5c 0d be 2d 02 9c 3f b4 2c 20 3f
       0.42252535 -0.13804814 1.2188164 0.6256821
000240 44 50 99 be 80 d1 21 be 68 6a 68 3e ab 9c 0d bb
       -0.2994405 -0.15802574 0.22696841 -0.0021608274
000250 93 a8 29 be ac c8 82 be 00 b8 9f be 48 0b 90 be
       -0.16568212 -0.25543725 -0.31195068 -0.28133607
000260 4b 78 8a bd 2f 28 cb 3d 2a 02 d3 3d 28 17 cb be
       -0.06761225 0.09919774 0.10303147 -0.39666104
000270 62 b1 fd 3d 7e 21 ad be 5c 0c 15 be aa d7 43 be
       0.12387349 -0.33814615 -0.14555496 -0.19125238
000280 5e b4 da bd 21 4c e8 bd d2 25 99 be 2e 5c 93 be
       -0.106789336 -0.113426454 -0.29911667 -0.28781265
000290 8b a5 55 bd 00 41 8d 3b 26 0f 1b be 7b 94 00 3e
       -0.052159827 0.004310727 -0.15142497 0.12556641
0002a0 27 9c 99 be 00 49 b8 bc 6c 16 96 3e 64 f7 74 be
       -0.30001947 -0.022495747 0.29313982 -0.23922497
0002b0 a6 4b 42 3e 9d f6 bd b9 d4 d3 cb be 18 36 d7 3d
       0.1897417 -0.0003623263 -0.3981005 0.105083644
0002c0 17 07 1f be 09 ad 85 be 3b 06 15 3e b6 34 ca be
       -0.15530048 -0.26108578 0.14553158 -0.3949334
0002d0 3c 49 e7 3d ef 0f 40 bf 82 c9 39 3e 28 4c 6f 3e
       0.11293265 -0.7502431 0.18143275 0.23368895
0002e0 be 8a c1 be a6 89 1c 3f 9f 68 12 bf 92 da ad bf
       -0.37801164 0.61147535 -0.5719089 -1.3582327
0002f0 6d a9 c1 be 2d 96 03 3e 43 dd 5f 3e 9b d9 29 3e
       -0.37824574 0.12850256 0.21861748 0.16586916
000300 74 bc 92 be 4b eb 01 bd 6e b2 97 be fa d8 62 be
       -0.28659403 -0.031718533 -0.2962832 -0.22153082
000310 36 4d 82 be 3c ed 2c 3d b0 67 4b be 56 4d ee bb
       -0.25449532 0.04221843 -0.19863772 -0.0072724028
000320 80 bf 65 3c 06 08 5c 3e a7 02 81 be 5b 54 6a be
       0.014022708 0.21487436 -0.25197336 -0.22883742
000330 fb 32 46 be 1e e9 6e 3e 10 65 f5 bd 42 12 4a 3e
       -0.19355385 0.23331115 -0.11982167 0.19733527
000340 a0 e1 15 3d dd d5 44 bd 23 7e ae bd c1 2e 19 be
       0.036592126 -0.04805552 -0.085201524 -0.14959241
000350 02 5e 41 bd e8 be 21 be 8f 7f bc bd 8e 85 4e bd
       -0.047208793 -0.15795481 -0.09204017 -0.050420336
000360 8b 2a 98 be 42 1d 54 be 04 46 76 3e 0f ab 9d be
       -0.29719958 -0.20714286 0.24050146 -0.3079457
000370 b7 3f 6a bd da b3 99 3e 3a c7 bb 3d 3e 0f 78 bc
       -0.05718967 0.30020028 0.09168859 -0.015140353
000380 18 88 9e be c8 16 29 3e 0b 20 73 be e0 c8 c1 bd
       -0.30963206 0.16512597 -0.23742692 -0.09462142
000390 bb 0b e5 bd 4b 30 4a bd 56 f3 6e 3b 64 c4 8c 3e
       -0.11183878 -0.049362462 0.0036460957 0.27493584
0003a0 56 72 2a 3d 6b dd 98 3e 2f 5b 22 bd cc b5 17 be
       0.041612945 0.29856429 -0.03963774 -0.14815444
0003b0 59 44 8e 3e 61 8e 19 bf 0f 8c 0f be cd 4d b2 39
       0.2778652 -0.5998288 -0.14018272 0.00034008772
0003c0 ea 1b dd bc e0 6d 39 3f 21 8c 72 3e 79 6e 61 bb
       -0.02699085 0.7243328 0.23686267 -0.0034398122
0003d0 3f d0 9f bf a4 a5 f7 bc 81 b1 a2 3e 31 22 ef bf
       -1.2485427 -0.03023035 0.3177605 -1.8682309
0003e0 5c 7e 1c 3f fa 07 1f bf c2 80 f9 bf 24 87 15 3f
       0.6113031 -0.62121546 -1.9492419 0.58409333
0003f0 a2 20 8d 3e 8b 8e c7 bd c8 a5 4a be 06 7a fc bd
       0.2756396 -0.09743985 -0.19789803 -0.123279616

phi.phi.0.bias f4 [32]
000000 10 1c 9c bd 2b df 72 bc 18 e3 4f be e6 e0 e6 3d
       -0.0762254 -0.014823715 -0.20301473 0.11273365
000010 5e 9b 9d 3c 8a 3e bd 3d 80 88 99 bd 1f b9 88 be
       0.019239124 0.09240444 -0.074967384 -0.26703736
000020 e6 f2 93 3d 69 63 a1 be 14 85 da 3d 90 8c e5 bd
       0.072240636 -0.31521156 0.10669914 -0.11208451
000030 b3 ae 24 be c0 af 19 bd d8 4e 31 be 48 3c f6 bb
       -0.16082267 -0.037521124 -0.17315233 -0.0075145103
000040 0b 10 86 3d e3 47 a9 be 76 53 63 3d cb a3 06 3d
       0.06546029 -0.33062658 0.055499516 0.03287105
000050 07 fd 1f 3c f6 f8 c0 bd 12 e9 8b be 68 73 0b be
       0.009764916 -0.094224855 -0.27326256 -0.13618243
000060 4a fe a6 3d e6 16 f9 bd de c6 e2 3c e4 d3 dd 3d
       0.081539705 -0.12162571 0.027682718 0.108314306
000070 4e 3a 32 be 57 69 e7 bd c3 91 67 3e 5a 7c 07 3e
       -0.17405054 -0.11299389 0.22614197 0.1323103

phi.phi.2.weight f4 [32, 32]
000000 dd ee 71 3c 0e d3 b4 3c d5 4e 0e be aa 9d 63 3c
       0.014766422 0.022073295 -0.1389726 0.0138925705
000010 1e ec 79 3d 40 36 aa 3d df c9 d4 3d ec f1 9f 3d
       0.061016195 0.083111286 0.10390066 0.07809815
000020 1d 40 af 3c 6e b8 13 be f8 c2 54 be 8f a9 1b be
       0.021392876 -0.14425823 -0.207775 -0.152014
000030 2f 96 34 3e e3 ce 53 3d db 40 fa bd fe a6 06 3c
       0.17635415 0.051710974 -0.122194014 0.008218525
000040 2f b3 08 3e c7 cc f5 3d 4a 48 1e 3e 10 32 92 3d
       0.13349603 0.12001949 0.15457264 0.07138455
000050 3b 1b d0 bd 33 63 04 be 2f a0 14 3e 8a fa 20 3d
       -0.10161444 -0.12928466 0.1451423 0.039301433
000060 c4 ca 24 be 50 bd 22 3e 52 0f c2 3c e6 ae 10 3d
       -0.16092974 0.1589253 0.023688946 0.035323046
000070 d2 ea e2 bd d2 7a 21 bc 54 24 d8 bd 5a 60 99 3d
       -0.11079945 -0.009855943 -0.10553804 0.07489081
000080 78 4a 02 bd 39 f2 8c 3d a9 9c 00 3d 33 09 9a 3d
       -0.0318093 0.06882138 0.031399403 0.07521286
000090 d7 21 28 be 0a 85 b0 3d 9d df fc bd 57 89 23 3d
       -0.16419159 0.08619125 -0.12347338 0.0399259
0000a0 0a 44 69 be 16 95 32 be c0 c5 3d be cb e8 0e 3e
       -0.22779861 -0.17439684 -0.18532467 0.13955991
0000b0 36 e0 c3 3d cf d5 29 3e b8 04 11 3e 57 f7 28 be
       0.09564249 0.16585468 0.14161956 -0.16500603
0000c0 03 11 f7 bd 20 ff e9 bc 9e 1e eb bd fc 65 fb 3d
       -0.120637916 -0.028564036 -0.11480449 0.12275311
0000d0 e0 66 0e be a2 a3 b0 bd 98 e1 2e be bd 8b cd bd
       -0.13906431 -0.086249605 -0.17078245 -0.100364186
0000e0 63 e2 14 3e 1e 36 14 3e 99 94 01 3e 1c c5 0b 3e
       0.14539485 0.14473769 0.12654342 0.1364941
0000f0 bf f5 20 3e 73 76 61 bd 38 38 58 bd 71 84 20 3d
       0.15718745 -0.055044603 -0.05278799 0.039188806
000100 d3 89 6f 3d f3 f5 34 3e aa c6 bb 3d 8c 0f e1 3d
       0.05848105 0.17671947 0.091687515 0.109892935
000110 d0 26 28 be f4 85 96 be 07 67 a6 3c bb b8 ce bd
       -0.16421056 -0.29399073 0.0203128 -0.10093828
000120 a7 e6 58 be 86 4c 26 be 57 d6 50 be 2b 0c f3 3d
       -0.21181737 -0.16240129 -0.20394264 0.11867555
000130 3a b1 00 3e c2 d9 ae bd b8 81 d1 bd 35 fc c8 bd
       0.12567607 -0.08537628 -0.1022982 -0.0981373
000140 0c 85 e7 3d 55 06 4d bd 65 ee aa bd 42 1d d2 3d
       0.113046736 -0.050054867 -0.083462514 0.10259487
000150 c3 c9 b8 bd 2f 5b 46 be 21 40 2d 3e 6f 79 8d 3d
       -0.09022858 -0.19370721 0.16918994 0.06907927
000160 11 34 69 bd 8d 85 cb 3d d5 51 4e be 5e a6 fb bd
       -0.05693442 0.09937582 -0.20148404 -0.122875914
000170 28 b4 19 3e c5 1e 12 be 32 10 a1 be ae 68 53 be
       0.1501013 -0.1426955 -0.3145767 -0.20645401
000180 1b 8c 44 bd 03 b2 0b bd dc 96 8a 3c 7b 69 27 3e
       -0.047985177 -0.034105312 0.016917638 0.16348831
000190 9a 80 5a bd 74 0d 33 be bf 72 14 3c c8 97 ad 3d
       -0.0533453 -0.174856 0.009060561 0.084762156
0001a0 95 7d da 3c c7 70 25 be a2 59 c4 bd 06 86 06 be
       0.02667121 -0.16156302 -0.095874086 -0.13137063
0001b0 07 7a 9a bd 41 a5 98 3d 1c 8c 00 be c5 a3 4d bb
       -0.07542806 0.07453395 -0.12553447 -0.0031378132
0001c0 2f a5 19 3e d3 f6 3d 3c 58 4b f1 bd 88 b6 81 bd
       0.15004419 0.011594492 -0.11781949 -0.06333643
0001d0 fa 40 e8 bc f5 e6 0b be 53 dd b3 3d 75 e6 fc bd
       -0.028351296 -0.13662322 0.087824486 -0.12348644
0001e0 3f 03 2e be ad e3 2f be 4d e5 df bd 9e 86 8e 3d
       -0.16993426 -0.17176695 -0.109324075 0.0695927
0001f0 bc 54 2b be 31 38 a4 3d 72 e8 9e bd 50 4b c5 3d
       -0.16731542 0.0801853 -0.07759179 0.09633505
000200 85 14 04 3c 85 3a 23 be e5 1f 16 3e f6 ef c2 3d
       0.008061533 -0.15940292 0.14660604 0.09518425
000210 4f 0c 96 3d 11 c6 04 bd 72 f8 ee bd 67 13 17 3e
       0.073265664 -0.032415453 -0.11668481 0.14753495
000220 92 f8 c5 bd 48 af ab 3d a8 f2 86 be 8b 43 50 bd
       -0.09666552 0.083830416 -0.26357007 -0.050845664
000230 23 bd 31 be e8 02 8d bd be 34 1c 3d 7d 4d 84 be
       -0.17357306 -0.0688532 0.038136236 -0.2584037
000240 58 cf 66 3d 46 58 c2 3d cc bd c9 3c ea 3b f2 bd
       0.056350082 0.09489493 0.024626635 -0.11827834
000250 30 b9 80 be d0 63 5f bd 7a eb 9e 3d 8c 8e 32 3e
       -0.25141287 -0.054538548 0.07759757 0.1743719
000260 c8 2e d0 3d 5d 13 a3 bc 9b 22 30 bd 63 97 31 be
       0.10165173 -0.019906694 -0.043001752 -0.17342906
000270 dd 9b 1a be 98 14 2e bd 6f 10 cd bd f0 79 82 3a
       -0.1509852 -0.04250011 -0.100129 0.0009954553
000280 22 93 ff bd 5b 52 b3 bd 88 1a 15 be 30 ed bc 3d
       -0.12479235 -0.087559424 -0.14560902 0.092249274
000290 f9 8e 24 be bc 6a c0 be 3f 0e e0 3d 70 8b 24 3d
       -0.16070165 -0.37581432 0.10940217 0.04017204
0002a0 05 b1 a6 bd 1d 86 e8 bd 4c f6 2f be eb 75 c0 3c
       -0.081392325 -0.11353705 -0.17183799 0.023493728
0002b0 4d 77 b3 3d 08 eb 42 be ef ec 17 3e f0 03 a4 be
       0.08762989 -0.1903497 0.14836477 -0.32034254
0002c0 32 af 17 be 15 4f 1d be 4b 2b 20 3e b8 a3 c3 3d
       -0.14812925 -0.15362199 0.15641515 0.09552711
0002d0 2a eb 92 be 0d 2d 33 3d 63 70 b5 3d ad ba 1d 3d
       -0.2869504 0.043744136 0.08859327 0.038508106
0002e0 2f 37 be 3d f0 1e c3 bd b0 63 47 bd 1d a9 61 bb
       0.09287869 -0.09527385 -0.048679054 -0.0034433075
0002f0 c6 f5 55 bd 41 38 ea bd 7f 04 94 be a4 aa 2d be
       -0.05223634 -0.11436511 -0.2890968 -0.16959625
000300 0a e6 48 bd 6a f7 86 bd 28 49 36 3d ae 69 80 3d
       -0.049047507 -0.06590159 0.04450336 0.06270157
000310 bf e1 b0 bd b4 03 80 3c 79 d0 d1 3d 2e 16 90 bc
       -0.08636808 0.015626766 0.10244841 -0.017588701
000320 7e 5c 5c 3d 55 a3 2e bd f1 c9 7d 3d 1d 21 03 be
       0.053799145 -0.042636234 0.061960164 -0.128056
000330 a0 e3 d4 bd 74 c4 b7 bd d6 5b 26 3e 73 d6 42 bd
       -0.103949785 -0.08973017 0.1624597 -0.047567796
000340 4b 0e fd b9 f7 67 af bd b6 b5 34 3e d2 cb 30 3e
       -0.0004826657 -0.085647516 0.17647442 0.17265251
000350 b9 85 08 be 36 bf 12 be 1d 36 09 be 6c 7d 5f ba
       -0.13332261 -0.14330754 -0.13399549 -0.0008525464
000360 f5 91 38 bd 89 f8 ec bd 6a da 81 bd f1 cc 08 3d
       -0.04506107 -0.11570842 -0.06340487 0.033398572
000370 6f 29 bd bd 61 71 20 3d dd 0a 26 bd 40 6e af bd
       -0.092364185 0.039170627 -0.040537704 -0.085659504
000380 97 f4 c6 3c 3a d8 14 3e 4f c4 f4 bd 07 7d 06 3c
       0.024286551 0.14535609 -0.119515054 0.00820852
000390 1a 0a 24 bf fe 23 dc be 97 be 2b be 76 26 dd bd
       -0.64077914 -0.4299621 -0.16771923 -0.107983515
0003a0 41 e2 47 3d 4c 06 38 bd 57 ab 53 bd 1a f8 79 bc
       0.048799757 -0.04492788 -0.051677074 -0.015256906
0003b0 2e 88 18 bd e3 cb 0a bd d7 0d e6 3d 69 8a 10 be
       -0.037239246 -0.033885848 0.112331085 -0.141153
0003c0 39 3e 30 be f0 a2 0e bd 93 d6 76 bd 58 72 b0 3d
       -0.17211236 -0.034823358 -0.060263228 0.08615559
0003d0 06 b7 c4 bd a4 47 eb 3d f4 45 21 bd 75 f2 e9 bc
       -0.096052215 0.11488274 -0.039373353 -0.028557995
0003e0 fe 2c be 3d a3 f6 b5 3d a0 45 97 3d e1 f4 59 3e
       0.09285925 0.08884933 0.07386327 0.2128482
0003f0 d5 a6 5b bd 76 1a 52 be 8b 06 f3 be bd d4 7d be
       -0.0536259 -0.20517907 -0.4746593 -0.24788184

phi.phi.2.bias f4 [32]
000000 c4 1e 00 be 1c e0 5d be 7d e1 24 be af 8d 57 be
       -0.12511736 -0.21667522 -0.16101642 -0.21050142
000010 b2 ef ff bd 97 32 06 be 98 53 a2 bd 60 e7 a1 bc
       -0.1249689 -0.13105236 -0.079261005 -0.019763649
000020 d5 b8 3d be b2 f0 cc bd 7c 24 ac 3e 2b 4a 54 3d
       -0.18527539 -0.100068465 0.33621585 0.051828545
000030 b0 09 20 bf 32 5b df bd da 3b 57 3e de 6c 37 bd
       -0.6251478 -0.10906066 0.21018925 -0.04478156
000040 23 5b 94 bd b0 8c e3 bd 3e b5 9e be 19 a0 00 be
       -0.072439454 -0.111108184 -0.30997652 -0.12561072
000050 db 61 71 3d 77 0c 11 3d 54 4f 14 bc b7 34 dd bd
       0.058931213 0.035412278 -0.009052116 -0.1080107
000060 d9 11 0f be c2 ba 4f 3e 85 72 ce bd 6f a9 22 3d
       -0.13971652 0.20286086 -0.100804366 0.039712366
000070 68 72 2c be e3 3e f0 3d 83 f4 0b be 82 4e b3 3d
       -0.16840518 0.11730745 -0.13667493 0.087552086

phi.phi.4.weight f4 [32, 32]
000000 11 d5 41 bd 4c 29 64 3d 3c 71 a8 bd f7 60 a2 3d
       -0.047322337 0.055703446 -0.08224723 0.07928651
000010 4d 61 33 3e 78 ac 21 be 11 21 1e bc 1e bf c2 bd
       0.17517586 -0.15788448 -0.009651438 -0.09509109
000020 19 c5 85 3c ea fd ce 3d 8b 72 55 3e 5c 77 24 bf
       0.016329335 0.10107024 0.20844476 -0.6424463
000030 e3 2b d9 bf a7 5d 9c 3d 39 0c 06 3e ff 33 db 3d
       -1.6966518 0.0763505 0.130906 0.10703277
000040 d4 9b 2b 3d e1 f6 e2 3d 26 2c 0f 3e 2b 74 7c be
       0.041896656 0.11082245 0.13981685 -0.2465369
000050 76 32 9a bf c9 d1 cf bd ad de 1d 3d 9d d0 ad bc
       -1.204665 -0.10147435 0.03854244 -0.021217639
000060 b5 bb 7a 3c 54 63 e7 be 18 c8 21 be ce ee 71 3b
       0.015303542 -0.4519297 -0.15798986 0.003691602
000070 d7 43 28 3d 15 6b 0f bf 27 5b ab be 16 ac db be
       0.041080322 -0.5602277 -0.3346798 -0.4290473
000080 4c 84 80 3d a1 65 c7 bd 5e 07 16 3d 49 4e 25 bd
       0.062752336 -0.09736181 0.03662812 -0.04035786
000090 9b 8b fd 3d 5a 4c 1e 3e 37 38 1d 3e 23 de 76 bd
       0.12380143 0.15458813 0.15353476 -0.06027044
0000a0 bc 16 c6 3d 05 dd 34 be 5d f8 a6 be 40 c4 1b be
       0.09672305 -0.17662437 -0.3261136 -0.15211582
0000b0 93 38 81 3a 06 1d 0e be a9 6c 89 be 77 17 a9 bd
       0.0009858779 -0.13878259 -0.26840714 -0.08256429
0000c0 db 58 33 be c8 6f b9 3c b2 cc f6 3d 31 f0 92 3d
       -0.17514364 0.02263631 0.12050761 0.07174719
0000d0 f1 86 7f be 48 39 26 be d0 0a 12 be 9d e5 56 3b
       -0.2495382 -0.16232789 -0.14261937 0.0032790669
0000e0 1c 0d f9 3d e6 10 92 be 64 00 c5 bd c2 21 c1 bd
       0.121607035 -0.28528517 -0.09619215 -0.09430267
0000f0 d2 ba 7a bc 97 cb b0 be 51 bd 1f be 25 62 1e bd
       -0.0153033305 -0.34530327 -0.15599562 -0.038667817
000100 7d a9 ac bd e4 98 02 bd b3 cb b2 be cf 06 1f be
       -0.08430765 -0.03188409 -0.34921035 -0.15529941
000110 1a 07 f4 bc fb 74 b1 bd 30 02 93 bd 12 2a 84 be
       -0.029788543 -0.086648904 -0.071781516 -0.25813347
000120 7b 9c ef bc 35 08 2a be 68 3c bf 3e 6d be b0 bf
       -0.02924942 -0.16604693 0.37350774 -1.3808113
000130 fd ea 69 3f 2a c9 6d bd ee 59 8e be e0 99 29 be
       0.9137419 -0.058053173 -0.27802986 -0.16562605
000140 89 20 33 bd 75 11 7f bc 29 b5 7f bd 3c 25 78 be
       -0.0437322 -0.015568127 -0.062428627 -0.24232954
000150 86 08 06 c0 ce 9f a2 3d 6d 14 51 bd 1a 82 0f be
       -2.0942702 0.079406366 -0.05104487 -0.14014474
000160 30 26 ef bc 2d b2 ef bf 33 1b d3 3d 0a 7f c1 3d
       -0.029193014 -1.872625 0.10307922 0.09448059
000170 d5 93 29 3e df 2f 91 bf 28 ec 19 3e e1 3a 6f bd
       0.165603 -1.1342734 0.15031493 -0.05840576
000180 ff 4a 75 3e bd ec 25 3e f7 27 18 bd 6a d7 b2 bd
       0.2395439 0.1620359 -0.03714749 -0.08732493
000190 1c 9d 23 be 2b bc bf bd d9 32 18 3e fb 8a 98 3d
       -0.15977901 -0.09362062 0.14863147 0.074483834
0001a0 0f d3 dd 3e 56 41 67 3d 84 56 9f 3e 09 cf 0b bf
       0.43325087 0.056458794 0.31120694 -0.54612786
0001b0 a6 8d 55 c0 ae 97 3d 3e 1f 81 10 3f 8b 5a 20 bd
       -3.3367705 0.18514892 0.56447023 -0.03914885
0001c0 15 eb 3d 3e 14 a5 9d bd 6a 64 ef 3d 00 6a 48 3f
       0.18546708 -0.07697502 0.11689074 0.78286743
0001d0 b8 8b 4a bf ff 0d 4f be 6f 01 c0 bd f6 23 d9 3d
       -0.79119444 -0.20220183 -0.093752734 0.10602562
0001e0 ee d9 16 bd 23 73 03 bf 6d 9e 24 3e 65 85 7e 3d
       -0.036828928 -0.5134756 0.1607606 0.062138934
0001f0 7f 06 12 3e 8c 15 22 bf 0b f9 00 bf 0c c8 c9 be
       0.1426029 -0.6331413 -0.5038001 -0.39410436
000200 f7 59 98 bd 49 05 17 bd d4 01 86 bd fd 61 c6 3d
       -0.074390344 -0.036870275 -0.065433174 0.096866585
000210 f5 92 09 bd 87 40 09 3e e5 38 25 3d 13 c3 df bc
       -0.033587415 0.13403521 0.040337462 -0.027314698
000220 02 1d d1 bd 28 c1 25 be c1 3a 53 bd 2f a1 27 be
       -0.10210611 -0.16186965 -0.051569704 -0.1637008
000230 79 26 06 bd 4a 5a 3d 3b 36 a6 3a bc ea d6 b1 bd
       -0.032751534 0.0028892928 -0.011392167 -0.0868357
000240 23 47 fb 3d 94 e4 cb 3d 66 65 32 bd 29 0b 8f bd
       0.122694276 0.09955707 -0.043553732 -0.069845505
000250 32 9c e3 3d c1 7d 1d 3e 8f bf 25 be 8e 71 1c bd
       0.11113776 0.15380003 -0.16186355 -0.03819423
000260 53 64 86 bc 7e 14 83 bd b1 89 1a 3e b1 e8 d5 bc
       -0.01640526 -0.06400393 0.15091588 -0.026111932
000270 1b 7a 19 3e 6f 17 65 3a 4b 15 9d bc 81 2d d3 bd
       0.14987986 0.00087391486 -0.019175192 -0.103114136
000280 d1 76 f1 bd b5 51 69 3d 48 8a 98 3c 30 1a ce bb
       -0.117902406 0.056962688 0.018620625 -0.006289743
000290 a4 7b 2c 3e 8c 84 3a be 7c cf 8a 3d 52 7e cb 3d
       0.1684404 -0.18214625 0.06777856 0.09936203
0002a0 81 0e b9 bd 9b 17 a5 3d b7 f9 3e 3b 6d cd 44 be
       -0.090359695 0.08061143 0.002914054 -0.19218989
0002b0 cf 9e c6 bd a4 c1 86 3d 50 74 0b be 57 41 89 bc
       -0.09698259 0.06579903 -0.13618588 -0.01675479
0002c0 c1 5f ea 3d 64 84 95 39 51 88 87 bc 14 6e 7d bc
       0.11444045 0.00028518133 -0.016544493 -0.015468139
0002d0 bf 00 25 be fe c5 54 be 15 0c 45 be cf e4 17 be
       -0.16113566 -0.20778653 -0.1924289 -0.14833377
0002e0 44 98 14 3d 20 34 a9 bc d7 da 99 bd 0a 6e 6c be
       0.036278024 -0.020654738 -0.075124435 -0.23088852
0002f0 3a 1e c4 3d 7e c7 23 be 21 c4 f1 bc 76 9d 51 be
       0.09576078 -0.15994069 -0.029512467 -0.20470223
000300 41 3f cc bd 0f 9d 7d 3d 41 20 23 bc e5 72 ce bd
       -0.09973002 0.06191736 -0.00995642 -0.10080508
000310 78 fb 06 3e 28 d3 4c bd 1f aa 96 bd 29 5b 27 3e
       0.13181865 -0.05000606 -0.07356667 0.16343369
000320 4a 4f 6e be ff 88 32 be a6 70 5a 3d 03 43 5b 3e
       -0.23272434 -0.17435072 0.053330086 0.21412282
000330 37 3e ba bf 3d ed 02 3d b4 d9 37 bf 41 8b a3 3d
       -1.4550236 0.03196453 -0.71816564 0.07985545
000340 f5 4d 87 3d dd 74 fd 3d f5 ad 15 be c5 c8 35 3e
       0.06606666 0.123758055 -0.1461714 0.17752369
000350 6a 43 e5 3e 9a 52 af 3c 78 a4 aa 3d 64 31 86 3d
       0.44777995 0.021401692 0.08332151 0.06552389
000360 c1 cd 90 bd af 44 09 be 90 31 34 3e 19 c7 5a 3a
       -0.070704944 -0.13405107 0.17597032 0.0008345708
000370 a8 1c 10 be 1d f9 1b 3e 55 32 ea 3e 3c cd e6 3d
       -0.14073431 0.15231748 0.45741525 0.11269614
000380 fc 97 bd bd ab 1e 15 3e d0 85 bf 3d fd 07 f6 bc
       -0.09257504 0.1456248 0.093516946 -0.030033106
000390 27 f8 13 3c 29 29 99 bc 18 1b 28 3d e8 dd cd 3b
       0.009031332 -0.018696385 0.041041464 0.006282557
0003a0 0f 15 db bd 23 27 06 3d 8f 4c 53 be 44 97 30 be
       -0.10697376 0.032752167 -0.20634674 -0.17245203
0003b0 f3 f7 89 bd 65 86 39 3d 02 6d 48 be 87 71 58 3d
       -0.06736746 0.045294184 -0.19572833 0.052842643
0003c0 b5 2f c4 3d c0 5f 9f bc a8 9d 0c be 4b 37 32 be
       0.09579412 -0.019454837 -0.13732016 -0.17403905
0003d0 aa be 28 be 12 70 1c be bb 08 00 be 89 6e 27 3e
       -0.16478983 -0.15277126 -0.1250333 0.1635076
0003e0 a1 5e 07 3e 4f e5 a5 bd 31 ce fa 3d 18 5f 8b 3d
       0.13219692 -0.08100378 0.12246359 0.06805247
0003f0 54 c0 cb 3d d5 ae 52 bd b4 69 6e be be e8 b3 bd
       0.09948793 -0.051436264 -0.2328251 -0.087846264

phi.phi.4.bias f4 [32]
000000 f5 90 39 3e 54 3f 7f be 9c 37 6e be 76 ab b5 3e
       0.18121703 -0.24926502 -0.23263401 0.35482377
000010 1a d3 16 bd 8f 26 44 bd c2 bd 92 be 3b a3 bf be
       -0.036822416 -0.047888335 -0.286604 -0.37429222
000020 27 70 f0 bd 0f 5f 4d be 32 53 50 be 1a d0 03 3d
       -0.11740141 -0.20055793 -0.20344236 0.032180883
000030 41 2e 17 3c 2b 8f 0a be 8b 05 c7 3e 70 7c 20 be
       0.009227336 -0.13531177 0.38871416 -0.15672469
000040 5f bc 44 be 4f d0 e1 3b a2 99 0d bf ed f0 8a 3e
       -0.19212483 0.0068912874 -0.5531255 0.27136937
000050 be 23 1c 3e 6b ef 16 be 40 a6 33 be fc c5 5b bc
       0.1524801 -0.14739768 -0.17543888 -0.013413902
000060 2a 74 b1 3d 66 bf 10 bd a7 2f cf be 04 16 57 bc
       0.08664735 -0.03533878 -0.40466043 -0.0131278075
000070 f2 d5 46 bd 5a bf c5 3e 20 08 93 bd d9 87 0b bc
       -0.048543878 0.38622552 -0.07179284 -0.008516275

phi.phi.6.weight f4 [7, 32]
000000 5b d0 17 bc b2 0e bf 3d 5a 97 2f 3e 61 c1 16 3e
       -0.009265984 0.09328975 0.1714758 0.14722206
000010 e7 7c 24 3e e5 60 74 bd 68 23 77 bd f5 2a a0 bc
       0.16063271 -0.05966272 -0.0603365 -0.019551734
000020 e7 01 56 3d a9 8b 92 3d 38 15 81 bc ab d9 e9 bd
       0.052247908 0.07155544 -0.015757188 -0.1141847
000030 a2 cb 6d be 4b 45 2e 3e bf cd fc bd cd be c3 bc
       -0.23222211 0.1701862 -0.123439305 -0.023894692
000040 0c e1 dd bd f7 7b b3 bd 3e 09 1f 3d a2 3c 01 bd
       -0.1083394 -0.08763879 0.038827173 -0.031551965
000050 55 1f 8f bd a3 41 85 bd 69 65 0f 3e b9 74 ba bd
       -0.06988398 -0.0650666 0.14003529 -0.09104294
000060 47 0e 07 be 4d ef e1 bc 76 3f 2c 3e 1b 8d 1d 3d
       -0.1318904 -0.027579928 0.16821083 0.038464647
000070 a0 18 c8 3c d7 2d ef bd e1 3b e2 3d dd 71 b3 bd
       0.024425805 -0.11678665 0.11046577 -0.08761952
000080 57 77 f5 3d 1a 0f 2b 3d ab 02 a1 3c 95 b9 6c be
       0.11985653 0.04176245 0.019654592 -0.23117669
000090 43 47 df bd bd 71 06 3e fc 69 87 3d 11 94 0d be
       -0.10902264 0.13129325 0.06612012 -0.13826014
0000a0 35 8b 28 be fb fd 33 bb 6c 85 f0 3d 5d 3a 17 be
       -0.16459353 -0.0027464617 0.11744198 -0.14768358
0000b0 81 c6 27 3e 37 06 b6 bd 1e 76 e2 be 9c 41 9f 3d
       0.16384317 -0.08887904 -0.4423074 0.07776186
0000c0 c0 cb da bd df 48 e4 bc 4a 9f e6 bd bd c0 b9 bd
       -0.106833935 -0.027866779 -0.11260851 -0.09069965
0000d0 41 bc 1d be fa 07 26 be cc a1 9b 3d 2b 19 a4 bc
       -0.15403844 -0.1621398 0.0759922 -0.020031532
0000e0 8c 64 da bd a6 90 93 bb e4 38 25 be 61 51 6a 3c
       -0.10663709 -0.0045033274 -0.16134983 0.014301629
0000f0 e9 ee ab 3d 84 63 5d 3d b9 78 13 be 8d 43 8d bc
       0.08395178 0.054049984 -0.14401521 -0.017244125
000100 cb 56 04 3d a9 e5 25 3e 4a ca 00 be e1 d4 be 3c
       0.032309335 0.1620089 -0.12577167 0.023294868
000110 07 79 95 3d 7c 4b 44 3d 66 98 f9 bd aa 2d 01 3e
       0.07298475 0.04792355 -0.12187271 0.12615076
000120 de b0 9d bd 3a da de bd 4e c5 0f 3d 49 99 b8 3d
       -0.0769975 -0.10881467 0.035100274 0.09013612
000130 c4 57 1b be cc f6 e3 3d 65 88 92 be 0c 27 67 3d
       -0.15170199 0.11131057 -0.28619686 0.056433722
000140 34 35 0d 3e f5 23 44 bc 3d 46 16 be 8a 23 08 be
       0.13789827 -0.011971463 -0.14675231 -0.13294807
000150 7c 77 0d be c7 b4 18 be 5f c1 f0 3c b3 9b 20 be
       -0.13815111 -0.14912711 0.029389082 -0.15684395
000160 6e fe a0 bd 1d 84 81 3d 1c b0 11 be 49 56 82 be
       -0.078610286 0.06324027 -0.14227337 -0.25456455
000170 c2 d8 0e 3e a0 62 fc bd bc de 83 3d 55 04 c5 bd
       0.13949874 -0.12323499 0.064389676 -0.09619967
000180 37 49 03 bf e9 46 17 be 22 e4 a0 3d 38 7b 44 bd
       -0.5128359 -0.14773144 0.07856013 -0.047969073
000190 e0 e1 c2 3c 2b bd 9b 3c b8 46 82 3e 2a ae b7 be
       0.023789346 0.0190111 0.2544458 -0.35875064
0001a0 d8 fe b3 bd 8b 4d 0c 3e 6f f5 b9 bb a4 19 45 bd
       -0.08788842 0.13701455 -0.00567501 -0.048120156
0001b0 1d d6 b1 bd eb 68 cd bd 67 e7 db be 0b 25 9a bd
       -0.08683417 -0.10029777 -0.42949983 -0.07526597
0001c0 f2 ca dd 3b 97 29 5c be a1 05 06 bf 08 4d 91 3e
       0.0067685777 -0.2150024 -0.5235234 0.28379083
0001d0 d4 88 eb be ee cf 90 3c aa d1 0e bb 3d 5f a2 3c
       -0.4600283 0.017677274 -0.002179245 0.019820804
0001e0 57 fd e9 be b8 81 09 3c 2d 5a a4 bd df 4a 05 3e
       -0.45701095 0.008392744 -0.08025012 0.13016842
0001f0 fc bd dd bd ad f9 9d be b2 44 c5 bc 72 33 2a 3c
       -0.10827252 -0.3085455 -0.024080608 0.010388242
000200 b6 da ed bd 80 ea fb bd 18 90 f0 3d df 6a 6a bd
       -0.116139814 -0.12300587 0.11746234 -0.057230826
000210 be 63 3a bc 73 77 54 3d 3d 37 de bd a1 13 81 3c
       -0.011376319 0.05187173 -0.108503796 0.01575643
000220 5a 58 d7 3d 03 ae d3 bd 3e a9 52 3d 69 da c5 bb
       0.105148986 -0.103359245 0.051430933 -0.0060379994
000230 d6 0f c7 3d 4a 91 f0 3d 0f 1a 40 3d 3c 07 af 3b
       0.09719817 0.11746462 0.04689985 0.0053414386
000240 b6 d3 1b be b1 25 90 3d 00 b9 dc 3d 6a 80 83 bd
       -0.1521748 0.07038439 0.107774734 -0.064209774
000250 e7 bd 33 be 13 b1 12 3e 17 f6 29 bd 29 de 10 3d
       -0.17552911 0.14325361 -0.041494455 0.03536812
000260 51 8b 4b bd f3 e1 e6 3d 5f 8b 30 3e 99 f0 e2 3d
       -0.04969341 0.11273565 0.17240666 0.110810466
000270 de 6e 66 bd 8a b6 fd 3d 73 a6 b0 3d ff 48 8d 3c
       -0.056258075 0.12388332 0.08625498 0.017246721
000280 c7 93 44 3b a7 97 61 be 89 23 00 c0 cb fe a1 3e
       0.0029995309 -0.22030507 -2.002169 0.31639704
000290 9a ef 32 3e 97 af 24 3e 84 53 b9 be ff bf 81 3e
       0.17474213 0.16082607 -0.3619653 0.25341794
0002a0 c9 41 2e 3e 9f 05 0f be 57 17 73 bd 8f 27 0c 3e
       0.17017283 -0.13966988 -0.05934843 0.13686965
0002b0 4d 36 2b bd 63 0b 30 bd f2 46 25 bd 55 dd fb bd
       -0.041799832 -0.04297961 -0.04035086 -0.12298075
0002c0 15 cb de 3d 0d 9a af bd a3 df e1 bd f9 b0 6b 3d
       0.108785786 -0.08574305 -0.110289834 0.05754182
0002d0 8d ea 81 bf 54 ce 40 3d 38 c1 26 be 5d f5 75 bd
       -1.0149704 0.04707177 -0.16284645 -0.06004845
0002e0 8b 61 32 3d 4d be 2c be f3 39 8f bd a0 0e d8 be
       0.043550055 -0.16869469 -0.06993475 -0.42198658
0002f0 45 3a 23 be 34 19 0f 3f 55 62 00 3e 1c 0f a6 bc
       -0.15940197 0.5589783 0.1253751 -0.020270877
000300 86 9a ab be 55 1c 2c bd 22 ad 1e 3f 46 a5 64 bf
       -0.3351633 -0.042019207 0.6198293 -0.8931469
000310 54 19 06 bd 19 25 82 3d 01 4e a4 be d8 6a 84 bd
       -0.032739 0.06354732 -0.32090762 -0.06465691
000320 1d 73 1c be 52 29 0f 3e 84 4e 38 3b 4e f8 43 3e
       -0.15278287 0.13980606 0.002812297 0.1913769
000330 ae e5 b7 bd a9 49 9f 3d 17 03 dc 3e 53 a8 a2 bd
       -0.08979355 0.077777214 0.42971107 -0.079422615
000340 76 05 2d be bf 90 22 3d 48 86 90 be 34 7e 35 be
       -0.16896614 0.039688822 -0.28227448 -0.17723924
000350 31 89 18 3e 85 12 15 3e 45 a0 e3 3c 25 64 05 3e
       0.14896084 0.14557846 0.027786383 0.13026483
000360 5c 9c 39 3e 83 13 1c 3d a5 e3 a6 3d af b4 33 bd
       0.18126053 0.038104545 0.081488885 -0.043873485
000370 5c 61 c6 3d e3 68 82 bf 9a 07 22 3d a2 e5 9c bd
       0.096865386 -1.0188259 0.03955803 -0.076609865

phi.phi.6.bias f4 [7]
000000 84 86 0d be 50 9e 3f be ce e9 15 3d 00 97 d4 3e
       -0.13820845 -0.18712735 0.036599927 0.41521454
000010 61 ba 13 be 3a d9 9d 3e 9b f9 6d 3e
       -0.14426567 0.30829793 0.23239748

rho.rho.0.weight f4 [28, 7]
000000 9b 17 8b 3d f6 93 99 be 63 4c 29 3e 41 67 83 be
       0.06791612 -0.29995698 0.16533045 -0.25664714
000010 7c 12 c1 bd 46 58 fd bd 6c a5 1b be 81 ce c5 3d
       -0.09427354 -0.123703524 -0.15199822 0.09658528
000020 17 5f 22 3e d8 6d 92 3d d2 e2 89 3e c6 c2 9c be
       0.15856586 0.07149857 0.26930863 -0.3061735
000030 0d 09 30 c0 ed 3d 48 3f 90 65 58 3d 73 f2 c4 be
       -2.7505524 0.7821949 0.052831233 -0.38466224
000040 55 2b a2 3e 71 28 db be 3d a8 30 be ac 7b 15 be
       0.31673685 -0.42804292 -0.17251678 -0.14597958
000050 d1 b1 63 3d b5 2c bb be 1e 7d 32 3e 66 75 bb be
       0.0555895 -0.36557546 0.17430541 -0.36613005
000060 5b 4b 6d 3e 3d 43 10 3e 0b 1a 36 bd 2d a9 0e 3f
       0.23173277 0.1408815 -0.04445843 0.5572689
000070 7a b4 90 3c f9 39 5d bc 78 b6 03 3e dd 85 e9 3e
       0.017664183 -0.013502591 0.12862575 0.45609942
000080 3f d9 44 ba b0 f0 90 3e 97 df 3d be c6 23 25 3e
       -0.0007509179 0.2830863 -0.18542324 0.16126928
000090 cb c5 5b 3e 39 18 fb 3d 1b 0d d4 bd 38 f8 dc 3d
       0.21462171 0.122604795 -0.10354062 0.107895315
0000a0 de 88 cb be 23 26 c3 be 54 74 c0 bc 1f c4 d1 bd
       -0.3975286 -0.38115034 -0.02349297 -0.10242485
0000b0 23 b1 8f 3e 3d e8 d5 3e dc 36 83 3e 5f c3 b0 3d
       0.28064832 0.41778746 0.25627792 0.08631014
0000c0 ae 5b 58 3e b3 f3 b3 be 4f 84 1f be ef ed 9a be
       0.21128723 -0.35146865 -0.15577815 -0.30259654
0000d0 98 1d ef be a1 99 43 be 85 da c2 be ac 64 10 be
       -0.46702266 -0.19101574 -0.38057342 -0.14100903
0000e0 2c a8 73 be 0d 90 46 be 6b fb b7 3e 08 df 91 bd
       -0.23794621 -0.19390889 0.35934004 -0.07122618
0000f0 ce 87 a0 3e c0 65 09 3c d3 14 47 bd 5f a2 e2 bd
       0.3135361 0.0083860755 -0.048603844 -0.11066126
000100 f0 54 8a be 43 7b 9b be c0 4d d5 3c 98 89 ee bd
       -0.27017927 -0.3036748 0.02603805 -0.11647338
000110 cd 32 d2 be 23 0e 6b 3e 29 bd e5 3b 17 7e 81 be
       -0.41054383 0.22954611 0.007011075 -0.2529151
000120 88 1d 98 be 6c 83 a2 be e5 af a9 be 4e 1e af 3e
       -0.2971003 -0.31740892 -0.3314201 0.34202808
000130 6f 62 99 bc d4 3e fd 3c 25 ee a4 be ad 75 ca bd
       -0.018723695 0.030913748 -0.3221294 -0.09885726
000140 24 ca b5 be 58 61 05 3e f6 87 cd bd a1 a5 a5 bd
       -0.35505784 0.13025415 -0.10035698 -0.08088232
000150 4b 85 f1 bd 53 76 35 3e 90 7f 51 3e 56 91 a9 3d
       -0.11793002 0.17720918 0.20458817 0.08279674
000160 b6 dd 41 bd 61 fe 18 bd 08 6a d8 bb 13 1b 90 be
       -0.04733058 -0.03735197 -0.006604437 -0.28145656
000170 66 27 a9 3e f4 eb 26 be 19 55 e2 3d aa f8 58 be
       0.3303787 -0.16300946 0.11051387 -0.21188608
000180 32 ac be 3a 2d 7e 04 3e 8a 10 b0 be a2 51 43 bc
       0.0014547168 0.12938757 -0.34387618 -0.011921318
000190 ec 77 8c be 25 fc 38 bf 6e 7f 99 bd 39 af a5 3e
       -0.27435243 -0.7225974 -0.074950084 0.32360247
0001a0 c9 2a 6d 3e fb 72 ae 3d b2 1a 2e 3e dd c4 1c be
       0.23160852 0.085180245 0.17002371 -0.15309472
0001b0 81 92 85 3e f9 49 3a be 29 79 25 3e 23 da ee be
       0.26088336 -0.18192281 0.161595 -0.466508
0001c0 0f 44 83 3e 64 6f 94 3e 0c 53 6d 3e 4e 8a 85 bd
       0.25637862 0.28991234 0.23176211 -0.0652052
0001d0 3e 7c 33 3e f9 56 b0 be 30 14 3c 3c f9 1c c9 bd
       0.17527863 -0.34441355 0.011479422 -0.09819979
0001e0 ac 18 0d 3e bc ba ec bd c4 dc 98 be 08 c1 35 be
       0.13778943 -0.11559054 -0.2985593 -0.17749417
0001f0 1a b7 eb 3d 04 4b 86 be 03 81 88 bd 7a 3d 43 3e
       0.11509533 -0.26229107 -0.06665232 0.1906642
000200 47 08 1c 3d 51 ca b9 be e1 6d c0 be a8 ec 61 be
       0.03809383 -0.36287168 -0.3758383 -0.22062933
000210 7a ba 24 3e 31 2f 8d be 57 5b a4 be c1 e5 5e 3e
       0.1608676 -0.27575067 -0.32100937 0.21767332
000220 d7 89 c6 be e4 ea 2a be 6a 65 4d be 6c 18 a2 bc
       -0.38777038 -0.16691166 -0.20058218 -0.019787036
000230 d2 6c 58 bd b4 6e 96 3c 7d e1 27 3e 34 7e 22 3e
       -0.052838154 0.018363334 0.1639461 0.15868455
000240 99 37 f4 bd 04 a8 d4 3c bc e0 b7 3d 0c d1 03 3c
       -0.11924667 0.025959022 0.089784116 0.008045446
000250 07 72 36 3e 34 7f 08 be 76 8e ae 3e 1e cb 1e bd
       0.17816935 -0.13329774 0.34093064 -0.038767926
000260 fa 98 2b be 11 79 9c be 34 54 86 be 8a 5c cb be
       -0.16757575 -0.30561116 -0.26236117 -0.3971904
000270 81 c3 bd bc 60 de 02 be 12 98 4a 3e 1c 00 c1 bd
       -0.023164513 -0.12780142 0.19784573 -0.09423849
000280 b7 7f f3 bd 13 af a4 3e 43 a1 8a be 5e 62 0d be
       -0.11889594 0.3216482 -0.27076158 -0.13807055
000290 4e 4b 80 be 2a 19 03 bd a3 8d bd be 56 c5 54 bf
       -0.25057453 -0.03200642 -0.37022123 -0.8311361
0002a0 83 f7 d3 bb e3 99 67 3e ed 8a 96 3e 28 bb 01 3e
       -0.0064687147 0.22617297 0.29402867 0.1266905
0002b0 fc d8 23 3d c4 ca d9 be ac b6 bd 3d 82 ca 7c bc
       0.040001854 -0.4253751 0.092633575 -0.015429141
0002c0 2c 10 d8 be 4f 8f ed 3d 94 af 68 bf 1c 93 a4 be
       -0.42199838 0.115995996 -0.9089291 -0.32143486
0002d0 82 67 8d 3d 93 87 bd be 03 64 31 be 15 a5 00 bf
       0.06904508 -0.37017497 -0.17323308 -0.50251895
0002e0 0a 20 95 3e 77 f8 92 be d4 f1 4f be 7b 87 a8 be
       0.29126006 -0.2870519 -0.20307094 -0.32915863
0002f0 11 2f 29 3c 8a 58 8c be b2 dc c6 3c 4a bb 98 bb
       0.010326163 -0.274113 0.024275158 -0.0046609985
000300 fb 27 31 bd 0e 89 19 3e 28 f9 d9 be c3 6f 8c 3d
       -0.04325102 0.14993688 -0.42572904 0.06857254

rho.rho.0.bias f4 [28]
000000 ac 52 47 3e 4c 71 b6 be b0 e2 95 3e fb ea ec bd
       0.1946513 -0.35633314 0.2927451 -0.115682565
000010 c2 70 02 3d 0b d6 99 3c 75 45 b4 be 2e 4c 04 3f
       0.031845815 0.018778821 -0.35209242 0.5167874
000020 77 f8 b6 be 85 17 a2 be 88 94 00 bf 3a c2 65 be
       -0.3573644 -0.3165857 -0.5022664 -0.22437373
000030 58 86 6a be 39 54 e9 be 55 fe 91 bd 4b 6b 2c bd
       -0.2290281 -0.4557207 -0.07128588 -0.04209451
000040 f3 c9 1c bf a0 a5 87 bd f4 5a 80 be 20 bf 94 3e
       -0.6124565 -0.06623387 -0.25069392 0.29052067
000050 6e 94 97 be 7c ea 92 bd cc 11 7f 3d a6 ea 68 3e
       -0.2960543 -0.071736306 0.06227283 0.22745761
000060 82 4e 8c bc ca 4f 8f 3e eb ce 91 3e dc 92 83 be
       -0.01712728 0.27990562 0.28478178 -0.25697982

rho.rho.2.weight f4 [28, 28]
000000 db 5f 38 3c a9 b1 26 3e 62 30 2b be 4e 3e 3b 3d
       0.0112533225 0.1627871 -0.16717675 0.045713715
000010 9d 97 39 bc 86 7d f1 bc d7 6e 49 bc 1d a2 d2 3b
       -0.011327651 -0.0294788 -0.012294493 0.006428017
000020 65 52 13 3e c8 55 85 3b f4 c9 f7 bd 02 f7 12 3e
       0.143869 0.004069064 -0.120990664 0.14352039
000030 4c 36 66 3d 97 a3 24 3e 51 c8 91 bd ac 3e 93 bc
       0.056204125 0.1607803 -0.071182854 -0.01797422
000040 36 52 f1 3d e2 57 02 3d f4 f1 33 bd 57 df 1f 3d
       0.117832586 0.031822093 -0.043931916 0.039031353
000050 28 ee 06 be a8 33 e5 bd 36 cc 78 bd 8c 0c d0 bd
       -0.13176787 -0.11191493 -0.060741626 -0.10158643
000060 27 1e 89 be d0 7c ec 3d 87 dd 95 be a2 be a5 3d
       -0.26780817 0.115472436 -0.29270574 0.08093001
000070 4e dc c2 3c ff e4 b0 be d4 4e e3 3d 8a db a2 bf
       0.02378669 -0.3454971 0.1109902 -1.2723248
000080 94 99 fe bd 68 b7 12 3d 4c c4 3b 3e 8c 59 ca 3e
       -0.124316365 0.03581944 0.183366 0.39521444
000090 e7 bd aa bd 43 06 ea bd dc ff fc bd a2 8e b3 bd
       -0.08337002 -0.114269756 -0.12353489 -0.087674394
0000a0 f4 d7 3c 3e a6 89 11 3e 5a 60 fb 3d 77 2f 40 3c
       0.18441755 0.14212665 0.12274237 0.0117300665
0000b0 e2 37 24 be 86 1b 10 be 58 39 74 bc 91 8b 45 bd
       -0.16036943 -0.14073 -0.01490625 -0.048228804
0000c0 7e 01 1a be c8 9c a8 3d 5f 51 c9 3c 79 00 d9 3d
       -0.15039632 0.08233029 0.024574934 0.10595793
0000d0 42 3e 84 be d2 3a d6 be 7d 22 32 3d c3 8b b2 3c
       -0.2582875 -0.4184175 0.04348992 0.02179516
0000e0 d3 1c 17 3d 31 78 8f bc 2d ad 82 be f0 e8 91 bd
       0.036892723 -0.017513366 -0.25522748 -0.071245074
0000f0 e3 08 58 3c 23 68 6f bc 42 6f 6a be b1 26 9d be
       0.0131857125 -0.0146122305 -0.22894004 -0.30693582
000100 5b 64 84 bc 3d 3b 4e 3e 3d 06 1a be d9 23 2f 3e
       -0.016161134 0.20139785 -0.15041442 0.17103519
000110 91 3f 02 3e 12 8a 79 3b b0 33 0e be f3 7c 25 3b
       0.12719561 0.003807668 -0.13886905 0.0025251477
000120 50 17 00 be 2f b3 1d be c3 a2 00 be d1 51 21 be
       -0.12508893 -0.15400384 -0.12562089 -0.15753867
000130 89 63 3e be e3 96 d1 3d 88 95 8e bc 77 24 b4 3a
       -0.18592657 0.102338575 -0.017405286 0.0013743778
000140 4c 8b f1 3d 58 71 32 3d e7 d8 9d 3c ac 6d 25 3e
       0.11794147 0.043565124 0.019268466 0.16155118
000150 40 68 da 3d 6d 50 29 be e7 34 a3 3c 76 f2 83 bd
       0.10664415 -0.16534586 0.019922687 -0.0644273
000160 da ce b8 bd 81 74 07 3e ae 93 dd bc 4d 7e f0 3c
       -0.09023829 0.13228036 -0.027047958 0.0293571
000170 62 b0 f3 3d db 42 02 3e d4 8c ce 3d f4 24 07 bd
       0.11898877 0.12720816 0.100854546 -0.032994226
000180 31 80 2c be 2f c6 39 be 3d 50 73 3d fc f9 12 bb
       -0.16845776 -0.18142007 0.059402693 -0.0022426834
000190 a3 88 f4 bd f8 07 a9 3d 77 a7 2f 3e 07 da df 3d
       -0.11940124 0.08253473 0.17153727 0.10930257
0001a0 ee 64 da bc 5c 31 d1 3c 53 e0 f6 bd 94 ad b6 3d
       -0.026659455 0.025536232 -0.12054505 0.08919826
0001b0 64 f7 15 be 6d 9a 05 3e 39 c7 b0 bd df 80 99 bd
       -0.14645153 0.1304719 -0.08631749 -0.07495283
0001c0 bf 17 22 be bb 2f 3b bd e0 68 09 be 8e 65 b2 bd
       -0.15829371 -0.045699816 -0.13418913 -0.08710776
0001d0 34 f9 e0 bd 08 1f de 3d b5 ca 2a be 24 63 a2 bd
       -0.10985032 0.108457625 -0.16678889 -0.07929066
0001e0 5f 20 82 3d 98 b4 3a 3e 1d 17 39 bd de 9c ed 3d
       0.063538305 0.18232954 -0.04518806 0.11602186
0001f0 7a 76 2d bc df 71 94 bd cf 50 39 bd 4d 33 b4 be
       -0.010587329 -0.07248282 -0.04524308 -0.3519539
000200 19 21 22 3e 89 4a 41 3e 1c 57 53 bd 4d c0 15 3c
       0.15832938 0.18876089 -0.051596746 0.009140086
000210 0f fa 40 3e e8 5e 69 3d 50 5b 97 3d f6 1d 8e 3d
       0.1884539 0.056975275 0.07390463 0.06939308
000220 9b 58 9e bd 52 24 9c bd a0 47 ce bd 61 3f 25 3e
       -0.07731744 -0.07624115 -0.10072255 0.16137458
000230 a7 48 cf bd 70 b8 02 bd 23 31 47 bd 0e e1 38 bf
       -0.10121279 -0.031914175 -0.048630845 -0.72218406
000240 35 d6 59 be d0 e3 2a 3d 06 9b 51 bd c3 73 16 3b
       -0.2127312 0.041721165 -0.051173232 0.0022957183
000250 03 63 94 3d 36 50 4c be 51 e2 1e be 02 89 95 3d
       0.072454475 -0.19952473 -0.1551602 0.07301523
000260 81 c6 e8 bd 14 7a 91 bd c8 87 eb 3c a9 36 34 bf
       -0.113659866 -0.07103363 0.028751269 -0.70395905
000270 ad 0b 86 bd 37 83 85 be 5d 2b df bc 69 4a 30 3e
       -0.06545196 -0.2607667 -0.027242357 0.17215885
000280 33 c7 67 3d d8 f2 0d be 68 07 8b bd 1b 70 3d bd
       0.056586456 -0.13862169 -0.06788522 -0.04624949
000290 3f c3 02 be 6b e6 79 3d 28 07 4e 3d 12 c5 22 3e
       -0.12769793 0.06101076 0.050299793 0.15895489
0002a0 7c 29 dd 3c b0 8d 00 3f 0f 02 22 3c 1e e1 82 bd
       0.02699732 0.502162 0.009888186 -0.06390594
0002b0 75 ec eb bd 60 fd 5b 3e 7c 2f 17 bf c5 af 63 be
       -0.1151971 0.21483374 -0.5905683 -0.2223502
0002c0 ab 50 97 bd 13 77 86 bd 67 00 cd 3d 98 a1 1a 3e
       -0.07388433 -0.0656568 0.10009842 0.15100706
0002d0 21 17 d1 bd 50 0e 91 3d 0b 3b f9 3c c1 24 80 bc
       -0.102094896 0.07082808 0.030423662 -0.015642526
0002e0 a5 0d cf 3d 1a 1b 01 3e 74 8b ee 3d d3 ab 91 be
       0.10110024 0.12607995 0.11647692 -0.28451404
0002f0 80 ba 97 bd 09 e8 ba 3c 42 b5 55 be 6d 4e b3 bc
       -0.07408619 0.022815721 -0.20869926 -0.021887982
000300 ba e3 bf bd a8 f5 29 3b a1 4e 9d 3c c5 c1 85 bd
       -0.09369607 0.0025933776 0.019202532 -0.06531099
000310 84 cb ab 3d 0c 76 16 bf 3c b8 87 3e fb 53 9a 3d
       0.08388427 -0.58773875 0.26507747 0.07535549
000320 b8 89 c1 be 2d 0d 48 be 5e 0d 75 3d db 68 80 3e
       -0.37800384 -0.19536276 0.0598272 0.25079998
000330 33 c3 11 3e 28 b2 92 3c 28 c1 7d bd ea d8 1f be
       0.14234619 0.017907217 -0.061951786 -0.1561009
000340 d6 43 79 3c d5 19 bb bd 47 57 4d bd 4a 39 92 be
       0.015213927 -0.091357864 -0.050132062 -0.28559333
000350 43 a0 00 3e ad 94 00 be 72 ef 00 bd fb cb 5b 3e
       0.12561135 -0.12556715 -0.031478353 0.21464531
000360 2a b0 93 3c 57 41 6b be 27 14 66 3d e1 31 96 bd
       0.018028338 -0.22974144 0.056171563 -0.073337324
000370 16 9c a0 3a ed 4f 83 3e de 52 15 3e 2e ff eb 3d
       0.0012253548 0.25646916 0.14582393 0.11523281
000380 b4 81 54 be 81 6e 23 be 73 5d 82 be db 52 5c be
       -0.20752603 -0.15960123 -0.2546192 -0.21515982
000390 6e 69 de bd 5a c2 91 bc 16 c9 05 bd 93 f3 c9 bd
       -0.10859953 -0.01779287 -0.032662474 -0.09860911
0003a0 a8 94 8b bd 4a 88 3b 3e 6f 61 ed bd 7f 7b 9f bd
       -0.06815463 0.18313709 -0.115908496 -0.07787227
0003b0 96 8d 11 be 8b 90 0e 3e 2a 7d 78 be f6 34 a0 3d
       -0.14214167 0.13922326 -0.24266496 0.078226015
0003c0 9c 38 8e bd a1 d7 40 3e 34 60 da 3c 7c 93 d5 be
       -0.06944391 0.18832256 0.026657201 -0.41714084
0003d0 71 38 05 3d d9 38 bc 3c 0a 2c 3b be 4e 59 1b 3d
       0.03252453 0.022976326 -0.18278518 0.037926964
0003e0 71 a2 38 3e 62 c2 5e 3d 71 33 83 be 78 77 20 bd
       0.18030716 0.054384597 -0.25625184 -0.039176434
0003f0 cc 28 f2 3d 3a ba 43 3e 2f 71 34 3e 6d 8a aa 3d
       0.11824188 0.19114009 0.17621301 0.08327184

rho.rho.2.bias f4 [28]
000000 6f 08 01 be f9 ac 48 3c 76 c3 80 3d b4 a2 10 be
       -0.12600873 0.012248271 0.06287281 -0.14124566
000010 a7 86 a6 be df 99 ee 3c 70 37 f0 3b e4 65 74 3e
       -0.32524607 0.029126106 0.0073308274 0.23866993
000020 7c da ad be 6a 4a 35 3c 20 64 56 be e2 55 30 bd
       -0.33955753 0.011065105 -0.20936632 -0.043050654
000030 62 bb 55 be d3 4b 70 3d 5a ee e7 ba 8a 4d 97 bb
       -0.20872262 0.05866606 -0.0017694936 -0.0046173977
000040 35 ca 33 3d bc ce 03 3c 16 42 6b bd 99 69 de bb
       0.04389401 0.008044895 -0.05743607 -0.0067874906
000050 90 ec 23 be 32 40 1a bd 13 a1 f5 bd 3f a8 22 be
       -0.1600821 -0.037658878 -0.11993613 -0.15884493
000060 e1 c3 a9 3d ab 67 90 be 59 56 c1 be 96 64 3c be
       0.08289314 -0.28204092 -0.3776119 -0.18397745

rho.rho.4.weight f4 [1, 28]
000000 c5 1b 82 bd 5f c5 91 3d a2 c2 d1 bc 61 30 a7 bd
       -0.06352953 0.07117724 -0.025605503 -0.081635244
000010 25 2b d8 bd ed a8 fc 3b 20 02 45 3d 87 71 34 3e
       -0.10555104 0.007710567 0.04809773 0.17621432
000020 ee 4a 16 3e 2c 52 d2 bc ed 9a 09 3e f8 c3 73 3b
       0.14677021 -0.025673948 0.13438006 0.0037195664
000030 9b b7 a9 3d 76 2c d5 3c 99 3b 9f bd 77 45 98 bc
       0.08286973 0.026022177 -0.07775039 -0.01858781
000040 03 fa d0 3b e0 58 54 3d 4c 1c 15 be af c0 13 3d
       0.00637746 0.05184257 -0.14561576 0.03607243
000050 0d 9e 75 bd e7 b5 1b be c2 91 40 3e 31 57 c1 3d
       -0.059965182 -0.15206109 0.18805602 0.094404586
000060 f6 92 c3 bc a0 55 0a 3e e8 92 1a 3e 0e 82 41 bd
       -0.023873787 0.13509226 0.15095103 -0.04724317
