src/lightning_logs/version_90/checkpoints/epoch=199-step=2400.ckpt (torch, 17331 bytes, 21 tensors)

phi.phi.0.weight f4 [19, 3]
0	0xbf0e14ad	-0.555003
1	0xbf0f9cf1	-0.5609885
2	0xbdefde4a	-0.1171232
3	0x3ed51747	0.41619322
4	0xbf0b22ae	-0.5434979
5	0x3ee5c82d	0.44879285
6	0xbe845299	-0.25844267
7	0x3e210a96	0.15726694
8	0x3e0e78f5	0.13913329
9	0xbf05468d	-0.52060777
10	0x3ef52705	0.47881332
11	0x3e9f2a6a	0.31087047
12	0x3f1474a9	0.5799051
13	0x3e9a494a	0.3013404
14	0xbeea30c0	-0.45740318
15	0x3f0128c3	0.5045282
16	0x3d07118d	0.032975722
17	0x3e88fc33	0.26754913
18	0xbef47230	-0.47743368
19	0xbe390e14	-0.18071777
20	0xbf14d8a3	-0.5814306
21	0xbe2c743a	-0.16841212
22	0x3e06e8fa	0.13174811
23	0xbf2a9613	-0.66635245
24	0x3e3c749d	0.1840386
25	0x3e9eae90	0.30992556
26	0x3da4b89e	0.080430254
27	0xbec5c884	-0.38629544
28	0xbee52fe5	-0.44763103
29	0xbe3665a7	-0.17812215
30	0x3e7eeb62	0.24894479
31	0x3f0e9598	0.5569701
32	0x3eb543af	0.354032
33	0xbd852694	-0.06501499
34	0x3e4f496b	0.2024285
35	0xbf1100b3	-0.5664169
36	0xbf00e2eb	-0.5034625
37	0x3f0d11ab	0.55105084
38	0xbeeb8d45	-0.46006218
39	0x3eeac8e4	0.45856392
40	0xbd5e6057	-0.054291096
41	0xbf1a9da2	-0.6039678
42	0xbf05f219	-0.52322537
43	0x3ec3167e	0.38103098
44	0x3e36ff7e	0.178709
45	0x3edf91f2	0.43666035
46	0x3eb80d9a	0.35947877
47	0x3f040fb6	0.51586473
48	0x3c981656	0.018565338
49	0xbe36c9c0	-0.17850399
50	0xbe008c0b	-0.12553422
51	0x3dc7cc63	0.097557805
52	0x3e9ebf1c	0.3100518
53	0xbef827f0	-0.4846797
54	0x3f007b5f	0.5018825
55	0xbd648afc	-0.05579661
56	0xbf22b135	-0.63551646

phi.phi.0.bias f4 [19]
0	0xbe9ff041	-0.31237987
1	0x3f065d15	0.5248578
2	0x3f06d91f	0.5267505
3	0xbf08e7da	-0.5347878
4	0x3ecca22a	0.3996747
5	0x3e9b2612	0.30302483
6	0x3ea78237	0.32716534
7	0x3eefad2f	0.46811816
8	0xbe9f50c5	-0.3111631
9	0x3e3ab051	0.18231322
10	0x3e6e079d	0.23245092
11	0xbe2eb299	-0.17060317
12	0x3e8ac8e0	0.2710638
13	0xbd4a4488	-0.049381763
14	0x3ec95c20	0.39328098
15	0xbe071b0b	-0.1319391
16	0xbe5c6639	-0.2152337
17	0x3e1e1ab6	0.15439877
18	0x3e422df3	0.1896284

phi.phi.2.weight f4 [9, 19]
0	0xbde58d5b	-0.11208602
1	0x3dbd5bc1	0.09246016
2	0x3e839efe	0.2570724
3	0xbcbafdd4	-0.022826113
4	0x3c941ddb	0.018080642
5	0xbcc6bef2	-0.024260972
6	0x3dcc4968	0.09974939
7	0xbe5622c6	-0.20911703
8	0xbe0a2407	-0.13490306
9	0xbdee7cf2	-0.11644925
10	0x3e8e2826	0.27765006
11	0xbd7cdad3	-0.061732125
12	0xbf27e94e	-0.6559037
13	0xbf88ed4b	-1.0697416
14	0x3ef4c544	0.47806752
15	0x3e8ae1d2	0.27125412
16	0xbe312cc0	-0.17302227
17	0xbe90682d	-0.2820448
18	0xbea3e264	-0.3200866
19	0xba9104f9	-0.0011064104
20	0xbda0c164	-0.07849386
21	0xbe2eb5e9	-0.1706158
22	0xbda8850e	-0.08228503
23	0x3cba3c00	0.022733688
24	0xbe0f6cef	-0.14006399
25	0x3d0db2f2	0.034594484
26	0xbd96a08c	-0.07354841
27	0xbde3ab3d	-0.111166455
28	0x3d01196e	0.031518392
29	0x3e2c33c9	0.1681663
30	0xbe1ed361	-0.15510322
31	0xbc8bf106	-0.017082702
32	0xbdad435a	-0.08460112
33	0x3e50bbe7	0.20384179
34	0xbe738fed	-0.23785372
35	0xbe6135d8	-0.21993196
36	0x3e5197fd	0.20468135
37	0xbe29a5a5	-0.16567095
38	0x3d3428ef	0.04398435
39	0xbc43fe99	-0.011962556
40	0xbce9d14d	-0.028542185
41	0xbd51e081	-0.051239494
42	0x3e2a533d	0.16633315
43	0x3cca2d0b	0.024679681
44	0xbe52c717	-0.20583759
45	0xbdddf1cf	-0.10837137
46	0xbda02b76	-0.078207895
47	0x3dec6ed3	0.115445755
48	0xbe03a48d	-0.1285574
49	0x3e5d8325	0.21632059
50	0x3ec45fbf	0.38354298
51	0x3e0717db	0.13192694
52	0x3e602444	0.21888834
53	0x3e06c21a	0.13159981
54	0x3e473dec	0.19457215
55	0x3e281c70	0.16417098
56	0xbd4b882f	-0.04969042
57	0xbe1bdd34	-0.15221101
58	0x39568d2f	0.00020461225
59	0x3e4bcc43	0.19902138
60	0xbd9db052	-0.07699646
61	0xbe5fbd88	-0.21849644
62	0x3dcfc932	0.10145797
63	0x3e58dcb9	0.21177949
64	0xbd9b72b8	-0.0759024
65	0xbe42854d	-0.18996163
66	0xbe551688	-0.20809376
67	0x3d7b46a9	0.061346684
68	0xbc8e4e3e	-0.017371293
69	0xbf2aebff	-0.6676635
70	0xbf121b98	-0.57073355
71	0x3ddb13c4	0.10697129
72	0x3e404a3d	0.1877832
73	0x3e366398	0.1781143
74	0xbd5c7443	-0.053821813
75	0xbe5d170e	-0.21590826
76	0xbe5447db	-0.20730536
77	0x3e50c943	0.20389275
78	0x3dbb3f63	0.091429494
79	0x3dcccee6	0.100004
80	0xbe55ae54	-0.20867282
81	0x3e4f1303	0.20222096
82	0x3e5e8d2d	0.21733542
83	0x3e4a005c	0.197267
84	0xbe462d2b	-0.19353168
85	0xbdb1486d	-0.08656392
86	0xbe2bda03	-0.16782384
87	0x3e5e7678	0.2172488
88	0xbdc9e1df	-0.098575346
89	0xbdd68257	-0.10474079
90	0x3de4d428	0.11173278
91	0xbdee1f43	-0.116270564
92	0xbde76885	-0.112992324
93	0xbcf51199	-0.029915618
94	0xbd048bab	-0.03235976
95	0xbe36ffbb	-0.17870991
96	0x3e398084	0.18115431
97	0xbe07aefb	-0.13250344
98	0x3da6a913	0.08137717
99	0x3e3a1303	0.18171315
100	0x3dcff3f5	0.10153953
101	0x3ca0b1fe	0.019616123
102	0x3e1d3134	0.15350801
103	0x3cfca31b	0.030839493
104	0xbdd9604c	-0.1061407
105	0x3e41ea9f	0.18937157
106	0x3d5e67d2	0.05429823
107	0xbed63017	-0.41833565
108	0xbf07630c	-0.5288551
109	0xbe74dfde	-0.23913524
110	0x3e4780f6	0.19482788
111	0xbd1b2f77	-0.037887063
112	0xbe79b4a3	-0.24385314
113	0xbcbff39d	-0.023431594
114	0x3e1388ab	0.14407603
115	0x3dc19864	0.09452894
116	0x3d71f6db	0.05907331
117	0x3cae8b21	0.021306576
118	0x3d2e8035	0.042602737
119	0xbd69ba10	-0.05706221
120	0xbdd95503	-0.10611918
121	0xbe947ca1	-0.29001334
122	0xbe30f9a6	-0.17282733
123	0x3dcba19f	0.09942936
124	0xbe232f75	-0.15936072
125	0x3d06d045	0.032913465
126	0xbf2f357b	-0.6844098
127	0x3e52bd68	0.20580065
128	0xbe407c5b	-0.18797438
129	0x3e4cb498	0.19990766
130	0xbe089b5a	-0.13340512
131	0x3dab3a76	0.0836076
132	0xbe6e6b0c	-0.23283023
133	0xbd620a4e	-0.05518561
134	0x3dc25c3d	0.09490249
135	0xbdfcf5f5	-0.123516
136	0x3e455826	0.19271907
137	0xbe3f243b	-0.18666165
138	0xbe637dd9	-0.22215976
139	0xbdd3dc84	-0.103447944
140	0x3c181c70	0.009284124
141	0x3e584e38	0.21123588
142	0xbde04dbd	-0.109523274
143	0x3d5809fa	0.05274389
144	0xbd6b960a	-0.057516135
145	0xbd569623	-0.052389275
146	0x3e11de0f	0.14244865
147	0xbe51adbf	-0.20476435
148	0xbbb52461	-0.0055280183
149	0x3e5cec2b	0.21574466
150	0xbd722f0f	-0.05912691
151	0x3e191853	0.14950685
152	0xbd90b105	-0.07065014
153	0x3e510eea	0.20415846
154	0xbe4e8a6f	-0.20169996
155	0xbd076e5e	-0.03306424
156	0xbc130776	-0.008973947
157	0x3dc95ac1	0.09831763
158	0x3ddbd4cd	0.10733948
159	0x3e5724be	0.2101011
160	0xbd0c000b	-0.03417973
161	0xbc150db0	-0.009097502
162	0x3e39544e	0.18098566
163	0xbd7e4107	-0.062073734
164	0x3eea02d7	0.45705292
165	0x3b1f58a6	0.0024314313
166	0xbcc40637	-0.023928745
167	0x3c3ee32b	0.011650841
168	0x3dd1a617	0.10236757
169	0x3e4aeaac	0.19816083
170	0xb92fb10a	-0.00016755253

phi.phi.2.bias f4 [9]
0	0xbe04da8e	-0.12973997
1	0x3dbeea34	0.093220145
2	0x3daedb97	0.08537977
3	0x3dcc155f	0.09965014
4	0xbe1b4cf8	-0.1516608
5	0x3dfe16d2	0.124066964
6	0x3e55ca77	0.20878015
7	0xbc1b44f0	-0.009476885
8	0xbe437b00	-0.1908989

rho.rho.0.weight f4 [18, 9]
0	0x3de1830d	0.11011324
1	0xbe6a6534	-0.22890168
2	0x3de4ee78	0.11178297
3	0xbdaf9537	-0.08573382
4	0xbe168efa	-0.14702979
5	0x3e076d0a	0.13225189
6	0xbe97a1fb	-0.2961577
7	0x3dce68d2	0.10078587
8	0xbe30d8e8	-0.17270243
9	0xbd13a376	-0.03604456
10	0x3d2f9f0b	0.042876285
11	0x3e916606	0.2839815
12	0xbe22db68	-0.1590401
13	0x3e5aaba3	0.21354537
14	0xbd2d718b	-0.04234461
15	0xbe221bd3	-0.15830927
16	0xbe949dd2	-0.29026657
17	0xbe9c96fe	-0.30583948
18	0x3ee82ff5	0.45349088
19	0xbdceaca8	-0.10091525
20	0xbc92bb15	-0.017911473
21	0x3e4d7912	0.20065716
22	0x3e5edc63	0.21763758
23	0x3e88ff17	0.26757118
24	0x3e87e843	0.2654439
25	0xbe8b1c79	-0.2717016
26	0xbdbcc579	-0.092173524
27	0xbebb02d0	-0.36525583
28	0xbe525e2d	-0.20543738
29	0x3d7e4e30	0.062086284
30	0x3e5ea2bf	0.2174177
31	0xbe8d2e83	-0.27574548
32	0x3e3575ae	0.17720672
33	0xbe507d0c	-0.20360202
34	0xbd4cad9c	-0.049970254
35	0x3e7a7af0	0.2446096
36	0xbd9a6620	-0.0753901
37	0x3cf8a496	0.030351918
38	0xbe6e9a66	-0.23301086
39	0x3e914748	0.28374696
40	0xbd307f16	-0.04308995
41	0xbe79a5e0	-0.24379683
42	0x3dc7e450	0.09760344
43	0xbe72b1a6	-0.2370058
44	0xbe876cde	-0.26450247
45	0x3ed2775c	0.4110669
46	0x3e7c522a	0.24640718
47	0xbe0edaa3	-0.13950591
48	0x3eaea5c8	0.34110856
49	0x3e8e1356	0.27749127
50	0x3e5942f1	0.21216942
51	0xbe302933	-0.17203216
52	0xbd94b63e	-0.072613224
53	0xbe3f6515	-0.18690903
54	0xbe10ea19	-0.14151801
55	0xbc90f1b3	-0.017693376
56	0x3e5db08d	0.2164938
57	0x3ec8ec0c	0.3924259
58	0x3cb57f73	0.0221555
59	0x3d704a94	0.058664873
60	0xbe18e9ca	-0.14932933
61	0x3e68416b	0.22681205
62	0xbe35ac25	-0.17741449
63	0xbe782af2	-0.24235132
64	0x3d4f0797	0.050544348
65	0x3e36c3cf	0.17848133
66	0xbe9dd338	-0.3082521
67	0x3e9a46f2	0.30132252
68	0x3dd0c64c	0.10194072
69	0xbe7ab269	-0.2448212
70	0xbd930d30	-0.0718025
71	0x3e88536d	0.2662615
72	0xbf1336e3	-0.57505625
73	0xbda20612	-0.07911314
74	0x3de0b0cc	0.10971221
75	0xbf05b9ff	-0.5223693
76	0x3e445255	0.19172032
77	0x3e3fc49b	0.18727343
78	0x3e6381f5	0.22217543
79	0xbe402d67	-0.1876732
80	0x3eac30f6	0.33631104
81	0xbe4a544b	-0.19758718
82	0x3eaa622a	0.33278018
83	0xbea3c984	-0.31989682
84	0xbe980f13	-0.29699
85	0x3e51a54b	0.2047321
86	0x3d0eb1eb	0.034837645
87	0x3c9d87c0	0.01922977
88	0xbe3d0426	-0.18458614
89	0xbe0f2e53	-0.13982515
90	0xbe8f5352	-0.27993256
91	0xbe9ce026	-0.30639762
92	0x3cbce32c	0.023057543
93	0xbdbe8ccb	-0.09304198
94	0x3c0ea5bc	0.008706506
95	0x3e0e4b70	0.13895965
96	0x3eaf7f1a	0.34276658
97	0x3df027bd	0.117263295
98	0xbe05af47	-0.13055144
99	0xbe2c1b97	-0.168074
100	0xbe6ca7ef	-0.23110937
101	0xbe884bd6	-0.26620358
102	0xbd92b343	-0.07163098
103	0xbd8b100d	-0.06790171
104	0x3df73f09	0.1207257
105	0xbe2ba428	-0.1676184
106	0x3e6b7e70	0.22997451
107	0xbe8f32a2	-0.27968317
108	0xbe0a0fbf	-0.13482569
109	0x3ea358ac	0.3190359
110	0x3ebdd091	0.37073186
111	0xbecc3e9a	-0.3989151
112	0x3d8c34e6	0.06846027
113	0x3d4ed206	0.050493263
114	0xbe2d449d	-0.16920705
115	0xbdba1bf3	-0.09087362
116	0x3e04d98a	0.1297361
117	0xbe6d59f0	-0.2317884
118	0x3d61462b	0.054998558
119	0x3e13b410	0.14424157
120	0xbe068260	-0.13135672
121	0x3e8dc344	0.27688038
122	0xbcb3b4d6	-0.021936815
123	0x3e1ade06	0.15123758
124	0x3ea90326	0.33010215
125	0xbdd0ab6b	-0.101889454
126	0x3e397bbb	0.18113606
127	0xbdc3433b	-0.095343076
128	0xbd477036	-0.048690997
129	0xbd676276	-0.056490384
130	0xbb07b756	-0.0020708642
131	0xbe00f1e8	-0.1259228
132	0x3da00216	0.07812898
133	0x3c4dc900	0.012560129
134	0x3e585e23	0.2112966
135	0xbe9b0a34	-0.30281222
136	0x3d59ca8d	0.053171683
137	0xbd952b3f	-0.07283639
138	0xbeebd15a	-0.4605816
139	0x3e13cf74	0.14434606
140	0x3da8ec2f	0.082481734
141	0xbdc1595f	-0.09440874
142	0xbdae6e8a	-0.085171774
143	0x3e1cc790	0.15310502
144	0xbd76e016	-0.0602723
145	0x3e5f0d98	0.2178253
146	0x3c9aac6b	0.018881043
147	0x3e00ef23	0.12591223
148	0x3e14b7b8	0.14523208
149	0xbda780e0	-0.08178878
150	0x3e13aed6	0.14422163
151	0x3e7be198	0.24597776
152	0x3c7b5256	0.015339455
153	0xbd7a098e	-0.06104427
154	0x3cf8e08f	0.030380515
155	0x3e886316	0.26638097
156	0xbe8ed440	-0.2789631
157	0xbe2c3e39	-0.16820611
158	0x3e24f9e5	0.16110952
159	0xbe93f2c3	-0.2889615
160	0x3cf775b2	0.030207489
161	0xbdea7e6d	-0.11449895

rho.rho.0.bias f4 [18]
0	0x3e7725fe	0.24135587
1	0xbe9ee5b8	-0.31034636
2	0x3e38d88f	0.1805136
3	0x3e9d8e08	0.30772424
4	0x3d8a2180	0.06744671
5	0xbd25bd79	-0.0404639
6	0x3e9cf69c	0.30656898
7	0xbe2690af	-0.1626613
8	0xbc9372da	-0.017999101
9	0xbe1578b8	-0.14596832
10	0xbcb83a5c	-0.022488765
11	0x3d333bd8	0.043758243
12	0x3d862a3c	0.06551024
13	0xbd80f04b	-0.06295832
14	0xbeaaa3b4	-0.3332802
15	0x3d6ec7ba	0.058295943
16	0xbc21c680	-0.009873986
17	0x3d92786a	0.071518734

rho.rho.2.weight f4 [1, 18]
0	0x3e4e9be3	0.20176654
1	0x3e6a9a74	0.22910482
2	0xbdff6cec	-0.12471947
3	0x3be44717	0.0069664824
4	0xbdc16997	-0.09443968
5	0xbe7b3dc9	-0.24535288
6	0xbe194b8f	-0.1497023
7	0x3e55abb1	0.20866276
8	0x3e38d142	0.18048576
9	0x3e01a575	0.12660773
10	0x3e329f08	0.17443478
11	0xbe2925b0	-0.16518283
12	0x3d7e8691	0.06214005
13	0x3e60a2ef	0.21937154
14	0xbe06b2fa	-0.13154212
15	0x3ea9a28f	0.33131835
16	0x3d7dc0fd	0.061951626
17	0x3e479c89	0.19493307

exp_avg f4 [19, 3]
0	0x00000000	0.0
1	0x00000000	0.0
2	0x00000000	0.0
3	0xb655b423	-3.1844327e-06
4	0xb5f525ca	-1.826492e-06
5	0xb592fb8f	-1.0951061e-06
6	0x3796e2d6	1.7987022e-05
7	0x368fb15c	4.2823795e-06
8	0x370020e0	7.637049e-06
9	0x00000000	0.0
10	0x00000000	0.0
11	0x00000000	0.0
12	0xb7008ddd	-7.662425e-06
13	0xb619deeb	-2.2928532e-06
14	0xb692fe6d	-4.380758e-06
15	0xb5b499f9	-1.3455857e-06
16	0xb519061d	-5.700584e-07
17	0x34e3fb3a	4.2464836e-07
18	0x00000004	6e-45
19	0x00000004	6e-45
20	0x00000004	6e-45
21	0xb75bff03	-1.3112792e-05
22	0xb6165063	-2.2398533e-06
23	0xb6934780	-4.389265e-06
24	0x00000000	0.0
25	0x00000000	0.0
26	0x00000000	0.0
27	0x00000000	0.0
28	0x00000000	0.0
29	0x00000000	0.0
30	0x36a68634	4.962809e-06
31	0x354402f9	7.3020016e-07
32	0x36558570	3.1817144e-06
33	0x00000000	0.0
34	0x00000000	0.0
35	0x00000000	0.0
36	0x37ab8602	2.044719e-05
37	0x36ee26ff	7.0974925e-06
38	0x36e0b3d2	6.696654e-06
39	0xb88d7510	-6.7452085e-05
40	0xb73dea13	-1.13197775e-05
41	0xb77ede2f	-1.5191311e-05
42	0x37bf15f2	2.2779193e-05
43	0x3684d963	3.9592137e-06
44	0x37356757	1.0812501e-05
45	0x37137df8	8.791212e-06
46	0x35071a9a	5.033013e-07
47	0x36861c0f	3.9967777e-06
48	0x00000000	0.0
49	0x00000000	0.0
50	0x00000000	0.0
51	0xb70e1285	-8.4681715e-06
52	0xb6449ac2	-2.9296357e-06
53	0xb6534839	-3.148349e-06
54	0xb7690655	-1.38893565e-05
55	0xb5e47b33	-1.702318e-06
56	0xb6cd1c5b	-6.112777e-06

exp_avg_sq f4 [19, 3]
0	0x00000000	0.0
1	0x00000000	0.0
2	0x00000000	0.0
3	0x31e66627	6.7054944e-09
4	0x3086c24e	9.805008e-10
5	0x2faed4a1	3.1801498e-10
6	0x337ab4b0	5.8371995e-08
7	0x3210ae79	8.421574e-09
8	0x32058781	7.772429e-09
9	0x00000000	0.0
10	0x00000000	0.0
11	0x00000000	0.0
12	0x32e4c93f	2.663421e-08
13	0x31a46551	4.7845465e-09
14	0x3174279d	3.552919e-09
15	0x3144284c	2.854466e-09
16	0x2feb04aa	4.2749565e-10
17	0x2f3e189e	1.7289145e-10
18	0x2f4cacc1	1.8615066e-10
19	0x2f3b5fa0	1.7041524e-10
20	0x2b04c67a	4.717126e-13
21	0x32cd2030	2.3879778e-08
22	0x318108b7	3.755385e-09
23	0x31786d08	3.6150727e-09
24	0x00000000	0.0
25	0x00000000	0.0
26	0x00000000	0.0
27	0x00000000	0.0
28	0x00000000	0.0
29	0x00000000	0.0
30	0x325aa010	1.2725664e-08
31	0x3168b659	3.3864096e-09
32	0x30c1490f	1.4063363e-09
33	0x00000000	0.0
34	0x00000000	0.0
35	0x00000000	0.0
36	0x33a6da1c	7.769651e-08
37	0x3300f932	3.0028964e-08
38	0x3297203c	1.7593372e-08
39	0x33adf649	8.100739e-08
40	0x322494d3	9.579895e-09
41	0x32699c1e	1.3597882e-08
42	0x3307526d	3.1507103e-08
43	0x31b7f5fe	5.353967e-09
44	0x31c19fd9	5.635212e-09
45	0x32a3ca4e	1.9067695e-08
46	0x31659f1b	3.3414327e-09
47	0x317246d0	3.5255887e-09
48	0x00000000	0.0
49	0x00000000	0.0
50	0x00000000	0.0
51	0x330c48b6	3.266242e-08
52	0x3188c23c	3.980203e-09
53	0x317081da	3.4998409e-09
54	0x333a1498	4.332523e-08
55	0x320ff75b	8.379938e-09
56	0x3200cc3f	7.497021e-09

exp_avg f4 [19]
0	0x00000000	0.0
1	0xb6cce266	-6.10603e-06
2	0x37fadf9d	2.990645e-05
3	0x00000000	0.0
4	0xb77084ce	-1.4336036e-05
5	0xb5c81e34	-1.4909951e-06
6	0x00000004	6e-45
7	0xb7a59b70	-1.9741914e-05
8	0x00000000	0.0
9	0x00000000	0.0
10	0x3714e4a1	8.874719e-06
11	0x00000000	0.0
12	0x380f9e58	3.4241326e-05
13	0xb8c50e1a	-9.396319e-05
14	0x381d7ffd	3.7550915e-05
15	0x375efdae	1.32912955e-05
16	0x00000000	0.0
17	0xb7740b44	-1.4546156e-05
18	0xb7b611f3	-2.1704449e-05

exp_avg_sq f4 [19]
0	0x00000000	0.0
1	0x328cc52e	1.6387812e-08
2	0x34374178	1.706702e-07
3	0x00000000	0.0
4	0x33b00c84	8.197915e-08
5	0x31f5d82e	7.1550152e-09
6	0x304df983	7.4933143e-10
7	0x339be67b	7.259674e-08
8	0x00000000	0.0
9	0x00000000	0.0
10	0x333145e4	4.127459e-08
11	0x00000000	0.0
12	0x34b43a3e	3.356999e-07
13	0x3483632d	2.447281e-07
14	0x33dcef25	1.02880485e-07
15	0x33853e20	6.2045956e-08
16	0x00000000	0.0
17	0x33bcd873	8.793804e-08
18	0x3419e66a	1.433306e-07

exp_avg f4 [9, 19]
0	0x00000000	0.0
1	0x38326cd3	4.2539858e-05
2	0x37b05e5f	2.102478e-05
3	0x00000000	0.0
4	0x380e6474	3.3948992e-05
5	0x38127965	3.492217e-05
6	0x80000004	-6e-45
7	0x37251f33	9.8420305e-06
8	0x00000000	0.0
9	0x00000000	0.0
10	0x37e489b4	2.7243841e-05
11	0x00000000	0.0
12	0xb57ff155	-9.5346087e-07
13	0x372fe4c0	1.0484073e-05
14	0x36feb755	7.5911325e-06
15	0x3787527f	1.613167e-05
16	0x00000000	0.0
17	0x36c78279	5.945851e-06
18	0x378c363c	1.6714555e-05
19	0x00000000	0.0
20	0x00000004	6e-45
21	0x00000004	6e-45
22	0x00000000	0.0
23	0x00000004	6e-45
24	0x00000004	6e-45
25	0x00000004	6e-45
26	0x00000004	6e-45
27	0x00000000	0.0
28	0x00000000	0.0
29	0x00000004	6e-45
30	0x00000000	0.0
31	0x00000004	6e-45
32	0x00000000	0.0
33	0x00000004	6e-45
34	0x00000004	6e-45
35	0x00000000	0.0
36	0x00000004	6e-45
37	0x00000004	6e-45
38	0x00000000	0.0
39	0x346235bd	2.106744e-07
40	0xb61bb5b6	-2.320257e-06
41	0x00000000	0.0
42	0xb6514e73	-3.118909e-06
43	0xb5b0bdfa	-1.3168312e-06
44	0x80000004	-6e-45
45	0xb621bac7	-2.4099588e-06
46	0x00000000	0.0
47	0x00000000	0.0
48	0xb63ee262	-2.8443978e-06
49	0x00000000	0.0
50	0xb61d3a6c	-2.342883e-06
51	0xb65cbf4f	-3.289391e-06
52	0xb627e2c0	-2.5016925e-06
53	0xb5650eda	-8.533076e-07
54	0x00000000	0.0
55	0xb6062636	-1.9989798e-06
56	0xb595ec66	-1.1170166e-06
57	0x00000000	0.0
58	0x38145d90	3.5373087e-05
59	0x37a2fab8	1.9428655e-05
60	0x00000000	0.0
61	0x37cea66c	2.463461e-05
62	0x37ed5a44	2.8294635e-05
63	0x00000004	6e-45
64	0x36dc1c2a	6.5597897e-06
65	0x00000000	0.0
66	0x00000000	0.0
67	0x37c54f21	2.3521077e-05
68	0x00000000	0.0
69	0xb615e400	-2.2335444e-06
70	0x372e21ff	1.03791235e-05
71	0x371ed35e	9.466747e-06
72	0x37696688	1.3911755e-05
73	0x00000000	0.0
74	0x36465e13	2.9559058e-06
75	0x37216d1f	9.6217545e-06
76	0x00000000	0.0
77	0x00000004	6e-45
78	0x00000004	6e-45
79	0x00000000	0.0
80	0x00000004	6e-45
81	0x00000004	6e-45
82	0x00000000	0.0
83	0x00000004	6e-45
84	0x00000000	0.0
85	0x00000000	0.0
86	0x00000004	6e-45
87	0x00000000	0.0
88	0x00000000	0.0
89	0x00000000	0.0
90	0x00000004	6e-45
91	0x00000004	6e-45
92	0x00000000	0.0
93	0x00000004	6e-45
94	0x00000004	6e-45
95	0x00000000	0.0
96	0xb7d4517c	-2.5310314e-05
97	0xb75d8357	-1.3203206e-05
98	0x00000000	0.0
99	0xb7abd5d2	-2.0484356e-05
100	0xb7b00d89	-2.0987138e-05
101	0x00000004	6e-45
102	0xb6d21047	-6.2603826e-06
103	0x00000000	0.0
104	0x00000000	0.0
105	0xb78dcf3b	-1.6905009e-05
106	0x00000000	0.0
107	0x35f62c28	1.8341279e-06
108	0xb5e5fc2a	-1.7135219e-06
109	0xb6b76f46	-5.466779e-06
110	0xb723f86b	-9.773396e-06
111	0x00000000	0.0
112	0xb67e3db9	-3.7884877e-06
113	0xb722dde7	-9.707618e-06
114	0x00000000	0.0
115	0xb6d59cdf	-6.366157e-06
116	0xb6b4832c	-5.3796884e-06
117	0x00000000	0.0
118	0xb68e3b7a	-4.2388538e-06
119	0xb6b414f1	-5.366856e-06
120	0x00000004	6e-45
121	0xb5e3e35d	-1.6978989e-06
122	0x00000000	0.0
123	0x00000000	0.0
124	0xb6c61a8b	-5.90395e-06
125	0x00000000	0.0
126	0xb56c2680	-8.7972876e-07
127	0x362f77a0	2.6146663e-06
128	0xb68fefa8	-4.2896318e-06
129	0xb6476617	-2.9712735e-06
130	0x00000000	0.0
131	0xb526221d	-6.188946e-07
132	0xb491b613	-2.714083e-07
133	0x00000000	0.0
134	0x00000004	6e-45
135	0x00000004	6e-45
136	0x00000000	0.0
137	0x00000004	6e-45
138	0x00000004	6e-45
139	0x00000000	0.0
140	0x00000004	6e-45
141	0x00000000	0.0
142	0x00000000	0.0
143	0x00000004	6e-45
144	0x00000000	0.0
145	0x00000004	6e-45
146	0x00000004	6e-45
147	0x00000004	6e-45
148	0x00000004	6e-45
149	0x00000000	0.0
150	0x00000004	6e-45
151	0x00000004	6e-45
152	0x00000000	0.0
153	0xb77a9f25	-1.4938215e-05
154	0xb72bd0c5	-1.0241002e-05
155	0x00000000	0.0
156	0xb7961aa9	-1.7893808e-05
157	0xb775f79e	-1.4660791e-05
158	0x80000004	-6e-45
159	0xb700037d	-7.630207e-06
160	0x00000000	0.0
161	0x00000000	0.0
162	0xb764254f	-1.3598546e-05
163	0x00000000	0.0
164	0xb5fa1a4f	-1.8634108e-06
165	0xb6b5b195	-5.4148936e-06
166	0xb6b37c6b	-5.3491e-06
167	0xb6e41f6b	-6.798587e-06
168	0x00000000	0.0
169	0xb6c06364	-5.7336165e-06
170	0xb7174c7d	-9.01811e-06

exp_avg_sq f4 [9, 19]
0	0x00000000	0.0
1	0x340a6ec8	1.2892554e-07
2	0x3353fbc3	4.935624e-08
3	0x00000000	0.0
4	0x33efc01b	1.11642485e-07
5	0x33d848bd	1.0071515e-07
6	0x25feaf73	4.4180865e-16
7	0x328895e2	1.5900643e-08
8	0x00000000	0.0
9	0x00000000	0.0
10	0x33a73f48	7.788054e-08
11	0x00000000	0.0
12	0x306289ea	8.241431e-10
13	0x300100e2	4.693118e-10
14	0x326e8095	1.38826595e-08
15	0x32b68c63	2.1251429e-08
16	0x00000000	0.0
17	0x31fdc121	7.3852253e-09
18	0x32ce45fb	2.401338e-08
19	0x00000000	0.0
20	0x331f8520	3.714115e-08
21	0x32c5e527	2.3038025e-08
22	0x00000000	0.0
23	0x338eb164	6.6446574e-08
24	0x3320dea9	3.745541e-08
25	0x2ae5afeb	4.080064e-13
26	0x32708493	1.39999825e-08
27	0x00000000	0.0
28	0x00000000	0.0
29	0x332a5fe7	3.9668432e-08
30	0x00000000	0.0
31	0x2e3dbd26	4.3141622e-11
32	0x00000000	0.0
33	0x318e7ad1	4.1467065e-09
34	0x31ce5f7c	6.0062444e-09
35	0x00000000	0.0
36	0x31e4e035	6.6611627e-09
37	0x329206ff	1.6999818e-08
38	0x00000000	0.0
39	0x3495a05e	2.7870095e-07
40	0x33cca674	9.529768e-08
41	0x00000000	0.0
42	0x34c5b866	3.6828277e-07
43	0x34771ad5	2.3013429e-07
44	0x2aaef207	3.107655e-13
45	0x33727fc2	5.646121e-08
46	0x00000000	0.0
47	0x00000000	0.0
48	0x343fb35a	1.7853509e-07
49	0x00000000	0.0
50	0x2f8df1c5	2.5819538e-10
51	0x2fe89da5	4.2312567e-10
52	0x32134152	8.571378e-09
53	0x331269d7	3.4089535e-08
54	0x00000000	0.0
55	0x32f51506	2.8531314e-08
56	0x33f765fd	1.15203854e-07
57	0x00000000	0.0
58	0x350a4e91	5.1523335e-07
59	0x34655ee4	2.1361808e-07
60	0x00000000	0.0
61	0x35148f3e	5.534274e-07
62	0x34e20296	4.2097662e-07
63	0x2be59b65	1.6314559e-12
64	0x33c36779	9.099217e-08
65	0x00000000	0.0
66	0x00000000	0.0
67	0x34be1ffc	3.541353e-07
68	0x00000000	0.0
69	0x30dfe9bd	1.6291818e-09
70	0x30823a29	9.475275e-10
71	0x33395172	4.3147743e-08
72	0x33a2d0eb	7.581715e-08
73	0x00000000	0.0
74	0x332ad009	3.9770416e-08
75	0x3411b772	1.3570914e-07
76	0x00000000	0.0
77	0x31527fba	3.0631626e-09
78	0x30513c0c	7.611909e-10
79	0x00000000	0.0
80	0x311f776f	2.3205435e-09
81	0x310cc275	2.0483217e-09
82	0x00000000	0.0
83	0x2f98b69e	2.7778396e-10
84	0x00000000	0.0
85	0x00000000	0.0
86	0x30bbc8c4	1.3663102e-09
87	0x00000000	0.0
88	0x00000000	0.0
89	0x00000000	0.0
90	0x2deef331	2.7165466e-11
91	0x2f944baa	2.6974806e-10
92	0x00000000	0.0
93	0x2ea081ff	7.2990496e-11
94	0x303b52b0	6.814771e-10
95	0x00000000	0.0
96	0x3375438a	5.7104934e-08
97	0x32a53ab0	1.9235216e-08
98	0x00000000	0.0
99	0x3397b4cb	7.0643715e-08
100	0x334ae0c0	4.72362e-08
101	0x29997278	6.814422e-14
102	0x323f0289	1.111824e-08
103	0x00000000	0.0
104	0x00000000	0.0
105	0x331856bc	3.5469142e-08
106	0x00000000	0.0
107	0x2f6fa21f	2.179452e-10
108	0x304c4ce8	7.432406e-10
109	0x3126af49	2.4255817e-09
110	0x3204b70c	7.725031e-09
111	0x00000000	0.0
112	0x31c99288	5.8665286e-09
113	0x32b83664	2.1445153e-08
114	0x00000000	0.0
115	0x3280ab4e	1.4979062e-08
116	0x31a7f15c	4.887779e-09
117	0x00000000	0.0
118	0x32889ee9	1.5904748e-08
119	0x324c747c	1.1900848e-08
120	0x2707c4aa	1.8841625e-15
121	0x3125475b	2.405122e-09
122	0x00000000	0.0
123	0x00000000	0.0
124	0x32132482	8.564827e-09
125	0x00000000	0.0
126	0x2e981e28	6.9175166e-11
127	0x2f969ed7	2.7397704e-10
128	0x308c37c4	1.020219e-09
129	0x3117e19c	2.2101636e-09
130	0x00000000	0.0
131	0x30b9ed5b	1.3527982e-09
132	0x319b9af6	4.5287107e-09
133	0x00000000	0.0
134	0x2c8e64cd	4.047074e-12
135	0x2b1cc170	5.569078e-13
136	0x00000000	0.0
137	0x2c813191	3.6719035e-12
138	0x2c462547	2.8158185e-12
139	0x00000000	0.0
140	0x2acfcf49	3.691442e-13
141	0x00000000	0.0
142	0x00000000	0.0
143	0x2bada351	1.2337719e-12
144	0x00000000	0.0
145	0x204e57ac	1.7477887e-19
146	0x29238f47	3.6317544e-14
147	0x275e63ab	3.086272e-15
148	0x2ade92fe	3.9537118e-13
149	0x00000000	0.0
150	0x2a8539bb	2.3665605e-13
151	0x2bd3acb8	1.5040391e-12
152	0x00000000	0.0
153	0x348644c6	2.5009484e-07
154	0x33a7a15a	7.805893e-08
155	0x00000000	0.0
156	0x34ab367b	3.1890872e-07
157	0x3458c5b6	2.0188494e-07
158	0x29c7b6e0	8.869099e-14
159	0x33484e8c	4.6637567e-08
160	0x00000000	0.0
161	0x00000000	0.0
162	0x341f4851	1.4834337e-07
163	0x00000000	0.0
164	0x2fe65b88	4.1901793e-10
165	0x3062d944	8.2527074e-10
166	0x31f768df	7.2005686e-09
167	0x3301d4c3	3.022866e-08
168	0x00000000	0.0
169	0x32d3a63a	2.4639224e-08
170	0x33dc28e9	1.025199e-07

exp_avg f4 [9]
0	0x38523fbd	5.0127263e-05
1	0x00000004	6e-45
2	0xb670a338	-3.5857793e-06
3	0x3830e936	4.2178865e-05
4	0x00000004	6e-45
5	0xb800c756	-3.0703224e-05
6	0xb7202da4	-9.54737e-06
7	0x00000004	6e-45
8	0xb7c13395	-2.3031413e-05

exp_avg_sq f4 [9]
0	0x3481880c	2.412711e-07
1	0x33ea0c72	1.0898738e-07
2	0x3517f0c1	5.6602227e-07
3	0x358f2743	1.0665757e-06
4	0x319e49d9	4.6068007e-09
5	0x33f16bb6	1.12420295e-07
6	0x32ecf88a	2.7587038e-08
7	0x2cb5b99f	5.1649375e-12
8	0x3501b117	4.8313944e-07

exp_avg f4 [18, 9]
0	0xb52a4c0f	-6.3440615e-07
1	0x80000004	-6e-45
2	0xb7026661	-7.772441e-06
3	0xb57b0fef	-9.3527973e-07
4	0x80000004	-6e-45
5	0xb6ca08f3	-6.021111e-06
6	0xb60a9c4e	-2.0654584e-06
7	0x80000004	-6e-45
8	0xb67b0ae5	-3.7408256e-06
9	0x00000000	0.0
10	0x00000000	0.0
11	0x00000000	0.0
12	0x00000000	0.0
13	0x00000000	0.0
14	0x00000000	0.0
15	0x00000000	0.0
16	0x00000000	0.0
17	0x00000000	0.0
18	0x34e0660d	4.1797503e-07
19	0x00000004	6e-45
20	0x36a3fee4	4.8874517e-06
21	0x351ee155	5.918749e-07
22	0x00000004	6e-45
23	0x3681a114	3.8632515e-06
24	0x35ae845c	1.3002532e-06
25	0x00000004	6e-45
26	0x361ee464	2.3676776e-06
27	0xb20554b6	-7.76088e-09
28	0x00000004	6e-45
29	0xb46ae5b0	-2.1876508e-07
30	0xb2d4ad77	-2.4758931e-08
31	0x00000004	6e-45
32	0xb402b848	-1.2174235e-07
33	0xb3745261	-5.68856e-08
34	0x80000004	-6e-45
35	0xb3cd194a	-9.5506564e-08
36	0x00000000	0.0
37	0x00000000	0.0
38	0x00000000	0.0
39	0x00000000	0.0
40	0x00000000	0.0
41	0x00000000	0.0
42	0x00000000	0.0
43	0x00000000	0.0
44	0x00000000	0.0
45	0xb7578809	-1.2846672e-05
46	0x00000004	6e-45
47	0x362694c7	2.4822527e-06
48	0xb6f29cd0	-7.2304174e-06
49	0x00000004	6e-45
50	0xb7b0e741	-2.1088521e-05
51	0xb6c68d20	-5.917289e-06
52	0x00000004	6e-45
53	0x36222e50	2.4166839e-06
54	0x350667d1	5.006996e-07
55	0x00000004	6e-45
56	0x36c4c69f	5.8643777e-06
57	0x353e90e0	7.0991337e-07
58	0x00000004	6e-45
59	0x369b7a69	4.6336104e-06
60	0x35d16658	1.5601499e-06
61	0x00000004	6e-45
62	0x363ea1f8	2.8406484e-06
63	0x00000004	6e-45
64	0x00000004	6e-45
65	0x00000004	6e-45
66	0x00000004	6e-45
67	0x00000000	0.0
68	0x00000004	6e-45
69	0x00000004	6e-45
70	0x00000000	0.0
71	0x00000004	6e-45
72	0xb633e3bb	-2.6805635e-06
73	0x80000004	-6e-45
74	0xb72da097	-1.0348994e-05
75	0xb652a5c2	-3.1388922e-06
76	0x80000004	-6e-45
77	0xb7ad33e8	-2.0647378e-05
78	0xb6de8f29	-6.6327816e-06
79	0x80000004	-6e-45
80	0xb6c82ed1	-5.9659146e-06
81	0x00000000	0.0
82	0x00000000	0.0
83	0x00000000	0.0
84	0x00000000	0.0
85	0x00000000	0.0
86	0x00000000	0.0
87	0x00000000	0.0
88	0x00000000	0.0
89	0x00000000	0.0
90	0xb52b0b3a	-6.37188e-07
91	0x80000004	-6e-45
92	0xb6f19d09	-7.200641e-06
93	0xb5a39853	-1.2188779e-06
94	0x80000004	-6e-45
95	0xb7af5b9c	-2.0904285e-05
96	0xb6db3c01	-6.533694e-06
97	0x80000004	-6e-45
98	0xb693ad82	-4.4011404e-06
99	0x80000004	-6e-45
100	0x00000004	6e-45
101	0x80000004	-6e-45
102	0x80000004	-6e-45
103	0x00000004	6e-45
104	0x80000004	-6e-45
105	0x80000004	-6e-45
106	0x00000004	6e-45
107	0x80000004	-6e-45
108	0xb4403699	-1.7901256e-07
109	0x80000004	-6e-45
110	0xb61c6588	-2.330491e-06
111	0xb495f8bf	-2.79344e-07
112	0x80000004	-6e-45
113	0xb5e9e156	-1.7425434e-06
114	0xb525b686	-6.1732896e-07
115	0x80000004	-6e-45
116	0xb594c42e	-1.1083955e-06
117	0x00000000	0.0
118	0x00000000	0.0
119	0x00000000	0.0
120	0x00000000	0.0
121	0x00000000	0.0
122	0x00000000	0.0
123	0x00000000	0.0
124	0x00000000	0.0
125	0x00000000	0.0
126	0x00000000	0.0
127	0x00000000	0.0
128	0x00000000	0.0
129	0x00000000	0.0
130	0x00000000	0.0
131	0x00000000	0.0
132	0x00000000	0.0
133	0x00000000	0.0
134	0x00000000	0.0
135	0xb711b690	-8.68518e-06
136	0x80000004	-6e-45
137	0xb7c909be	-2.3965604e-05
138	0xb70ecc87	-8.51148e-06
139	0x80000004	-6e-45
140	0xb850579d	-4.967266e-05
141	0xb7808538	-1.5320824e-05
142	0x80000004	-6e-45
143	0xb7688e6d	-1.3861439e-05
144	0x00000000	0.0
145	0x00000000	0.0
146	0x00000000	0.0
147	0x00000000	0.0
148	0x00000000	0.0
149	0x00000000	0.0
150	0x00000000	0.0
151	0x00000000	0.0
152	0x00000000	0.0
153	0xb52484f5	-6.128824e-07
154	0x80000004	-6e-45
155	0xb6fbc881	-7.5037246e-06
156	0xb5728e9b	-9.0359543e-07
157	0x80000004	-6e-45
158	0xb6c2ccde	-5.8055e-06
159	0xb605c77e	-1.9934664e-06
160	0x80000004	-6e-45
161	0xb6723d60	-3.6096535e-06

exp_avg_sq f4 [18, 9]
0	0x31462593	2.883415e-09
1	0x308c38b7	1.020246e-09
2	0x33592e3d	5.0566303e-08
3	0x30ff7805	1.8587804e-09
4	0x2c001bd9	1.8205353e-12
5	0x358b7205	1.0389491e-06
6	0x3380a25b	5.989997e-08
7	0x282851a3	9.3435755e-15
8	0x32593e15	1.2645178e-08
9	0x00000000	0.0
10	0x00000000	0.0
11	0x00000000	0.0
12	0x00000000	0.0
13	0x00000000	0.0
14	0x00000000	0.0
15	0x00000000	0.0
16	0x00000000	0.0
17	0x00000000	0.0
18	0x3093df26	1.075908e-09
19	0x301f498a	5.794837e-10
20	0x32c5991d	2.3003446e-08
21	0x30691250	8.479093e-10
22	0x2b98b807	1.0851327e-12
23	0x3510eb49	5.3986565e-07
24	0x33096710	3.1991533e-08
25	0x278c9513	3.9019432e-15
26	0x31ae080a	5.0649804e-09
27	0x2c8d9bd1	4.02476e-12
28	0x2cb02ad5	5.006976e-12
29	0x2ed5294f	9.6934565e-11
30	0x2cc79c0b	5.6732444e-12
31	0x28524197	1.1671564e-14
32	0x31666708	3.3527972e-09
33	0x2f734629	2.2125647e-10
34	0x235b106c	1.1875491e-17
35	0x2d7be8ad	1.43193625e-11
36	0x00000000	0.0
37	0x00000000	0.0
38	0x00000000	0.0
39	0x00000000	0.0
40	0x00000000	0.0
41	0x00000000	0.0
42	0x00000000	0.0
43	0x00000000	0.0
44	0x00000000	0.0
45	0x3108d3f8	1.9911095e-09
46	0x30c251ed	1.4138642e-09
47	0x3349970d	4.693634e-08
48	0x30dcbcc4	1.6060757e-09
49	0x2c387cd9	2.6217277e-12
50	0x35adab5e	1.2939379e-06
51	0x33a534af	7.692994e-08
52	0x28686583	1.2900599e-14
53	0x32021d9c	7.573728e-09
54	0x30de00bb	1.6152834e-09
55	0x3070f370	8.7657437e-10
56	0x3315fa1e	3.4919246e-08
57	0x30af5e09	1.2759652e-09
58	0x2be5def9	1.6333316e-12
59	0x355c8c92	8.2160943e-07
60	0x3350e588	4.863753e-08
61	0x27cb738d	5.64691e-15
62	0x32036c7d	7.649871e-09
63	0x2986802b	5.973029e-14
64	0x1d3b5d0f	2.4797354e-21
65	0x2c913716	4.1272636e-12
66	0x2333498f	9.719186e-18
67	0x00000000	0.0
68	0x2dfd9580	2.8829161e-11
69	0x2b7b516c	8.928611e-13
70	0x00000000	0.0
71	0x2c39a47c	2.6381388e-12
72	0x30de7b67	1.6187699e-09
73	0x30239b38	5.9519634e-10
74	0x330b1d3a	3.239004e-08
75	0x309b838c	1.1315122e-09
76	0x2b947898	1.0549504e-12
77	0x3526da4d	6.215749e-07
78	0x33185deb	3.5475676e-08
79	0x280c937a	7.80354e-15
80	0x3215ee23	8.7270875e-09
81	0x00000000	0.0
82	0x00000000	0.0
83	0x00000000	0.0
84	0x00000000	0.0
85	0x00000000	0.0
86	0x00000000	0.0
87	0x00000000	0.0
88	0x00000000	0.0
89	0x00000000	0.0
90	0x308da32f	1.030548e-09
91	0x3014d858	5.414953e-10
92	0x32e35394	2.6464285e-08
93	0x306f51c7	8.7063906e-10
94	0x2b86e804	9.58567e-13
95	0x3515679b	5.565759e-07
96	0x330a4782	3.2195665e-08
97	0x27d7ad97	5.9862694e-15
98	0x31e54b7b	6.6733583e-09
99	0x2e6f76f2	5.4447953e-11
100	0x308fee73	1.0472391e-09
101	0x32ffb275	2.976706e-08
102	0x30523d47	7.6484635e-10
103	0x2c090b41	1.9475118e-12
104	0x357b23d9	9.355695e-07
105	0x337268d5	5.644036e-08
106	0x27b548ec	5.0316654e-15
107	0x317c08cf	3.6675833e-09
108	0x2f856fe4	2.4272062e-10
109	0x2dc410e1	2.2290116e-11
110	0x3134a3fd	2.6286664e-09
111	0x2ef18964	1.09838166e-10
112	0x291c8563	3.4754653e-14
113	0x3307aba0	3.158823e-08
114	0x30dd6c47	1.6110641e-09
115	0x26941e7e	1.0277828e-15
116	0x3079a99d	9.082671e-10
117	0x00000000	0.0
118	0x00000000	0.0
119	0x00000000	0.0
120	0x00000000	0.0
121	0x00000000	0.0
122	0x00000000	0.0
123	0x00000000	0.0
124	0x00000000	0.0
125	0x00000000	0.0
126	0x00000000	0.0
127	0x00000000	0.0
128	0x00000000	0.0
129	0x00000000	0.0
130	0x00000000	0.0
131	0x00000000	0.0
132	0x00000000	0.0
133	0x00000000	0.0
134	0x00000000	0.0
135	0x3189bd93	4.008777e-09
136	0x307ca760	9.191492e-10
137	0x33b19a68	8.270291e-08
138	0x3103220d	1.9082365e-09
139	0x2bcba634	1.4470148e-12
140	0x35b1561d	1.321259e-06
141	0x339a7265	7.191992e-08
142	0x28cfca7a	2.3069427e-14
143	0x32d8130f	2.5154376e-08
144	0x00000000	0.0
145	0x00000000	0.0
146	0x00000000	0.0
147	0x00000000	0.0
148	0x00000000	0.0
149	0x00000000	0.0
150	0x00000000	0.0
151	0x00000000	0.0
152	0x00000000	0.0
153	0x31365f75	2.6538747e-09
154	0x306cf0e9	8.6198654e-10
155	0x333ef929	4.4464432e-08
156	0x30e3e148	1.6580453e-09
157	0x2bd80bed	1.5351033e-12
158	0x356dda22	8.8606805e-07
159	0x335a64fe	5.0848932e-08
160	0x28251f15	9.16608e-15
161	0x32446720	1.14321494e-08

exp_avg f4 [18]
0	0xb7e26342	-2.698752e-05
1	0x00000000	0.0
2	0x378ed9c3	1.7029122e-05
3	0xb5422d3b	-7.233645e-07
4	0x00000000	0.0
5	0xb7997dd5	-1.8297616e-05
6	0x37ab6432	2.0431446e-05
7	0x00000004	6e-45
8	0xb84dccf6	-4.9066693e-05
9	0x00000000	0.0
10	0xb8313af8	-4.2255007e-05
11	0x80000004	-6e-45
12	0xb706f781	-8.044649e-06
13	0x00000000	0.0
14	0x00000000	0.0
15	0xb8f17149	-0.000115128765
16	0x00000000	0.0
17	0xb7da8407	-2.6049105e-05

exp_avg_sq f4 [18]
0	0x36469bb3	2.9594928e-06
1	0x00000000	0.0
2	0x35ca5aed	1.5076636e-06
3	0x32190422	8.906712e-09
4	0x00000000	0.0
5	0x366d55c2	3.536567e-06
6	0x3619dbe2	2.2926765e-06
7	0x2ea9c6ba	7.720531e-11
8	0x35f095de	1.792501e-06
9	0x00000000	0.0
10	0x35d3a886	1.5769772e-06
11	0x3628914d	2.5118527e-06
12	0x33d931b3	1.011389e-07
13	0x00000000	0.0
14	0x00000000	0.0
15	0x368433a6	3.939919e-06
16	0x00000000	0.0
17	0x362a5786	2.538292e-06

exp_avg f4 [1, 18]
0	0xb80e6e03	-3.3957895e-05
1	0x00000000	0.0
2	0xb81624f7	-3.5797213e-05
3	0xb856a758	-5.1177427e-05
4	0x00000000	0.0
5	0x383f4ace	4.5607616e-05
6	0xb84c11f6	-4.8654118e-05
7	0x00000004	6e-45
8	0xb7c92bd1	-2.398147e-05
9	0x00000000	0.0
10	0xb7a4ac4f	-1.9630561e-05
11	0x00000004	6e-45
12	0xb7ba52d8	-2.2211505e-05
13	0x00000000	0.0
14	0x00000000	0.0
15	0xb71626d4	-8.949737e-06
16	0x00000000	0.0
17	0xb793931b	-1.7592267e-05

exp_avg_sq f4 [1, 18]
0	0x36bd3bcc	5.6396e-06
1	0x00000000	0.0
2	0x3762bc9a	1.3514562e-05
3	0x3783b93f	1.5702679e-05
4	0x00000000	0.0
5	0x34dc7343	4.1062057e-07
6	0x373e8540	1.1355907e-05
7	0x29a2c4b2	7.2283664e-14
8	0x35d0568b	1.5522395e-06
9	0x00000000	0.0
10	0x34cca791	3.8119882e-07
11	0x354158b4	7.202718e-07
12	0x3582618e	9.714147e-07
13	0x00000000	0.0
14	0x00000000	0.0
15	0x339cd786	7.3035196e-08
16	0x00000000	0.0
17	0x35bbaf87	1.3983671e-06
