src/old_logs/version_4/checkpoints/epoch=199-step=2400.ckpt (torch, 13299 bytes, 21 tensors)

phi.phi.0.weight f4 [6, 3]
0.48531497 0.06269464 -1.3528166 -0.4025963 -0.34116435 -0.08060872 -0.52652735 -0.12398098
0.41588476 0.24283288 -0.16922285 -0.34885398 1.0735656 -0.35007033 -1.6692307 -0.13347113
1.2564249 -0.30664432
00000000: 347b f83e 0c66 803d 1829 adbf 1a21 cebe
00000010: 18ad aebe 2f16 a5bd 7fca 06bf bde9 fdbd
00000020: d9ee d43e 2fa9 783e c148 2dbe fd9c b2be
00000030: 996a 893f 6b3c b3be 5aa9 d5bf a8ac 08be
00000040: 88d2 a03f 7c00 9dbe

phi.phi.0.bias f4 [6]
0.19363637 -0.06673398 0.030660802 0.053898454 0.02649564 -0.0472536
00000000: 9d48 463e d3ab 88bd 5d2c fb3c a0c4 5c3d
00000010: 620d d93c fe8c 41bd

phi.phi.2.weight f4 [6, 6]
0.08468341 -0.36617646 0.13073623 0.012588017 -1.2227955 -0.88643163 0.24719313 0.37287095
0.3436306 -0.34498525 0.18216619 -0.3268404 0.3295587 -0.20401733 0.34815153 -0.34515262
0.20136021 -0.09544191 0.019864015 -0.11405756 -0.36124954 -0.32889026 -0.09931619 -0.05631501
-0.08503861 -0.34841573 -0.38850597 -0.054127816 -0.2241662 -0.29063416 0.26578167 0.019245604
0.0058651995 -0.2639336 0.026505016 0.14935456
00000000: 7f6e ad3d 7b7b bbbe b8df 053e f83d 4e3c
00000010: 9084 9cbf 2fed 62bf 3220 7d3e f1e8 be3e
00000020: 5af0 af3e e8a1 b0be c689 3a3e a057 a7be
00000030: ebbb a83e ebe9 50be eb40 b23e d8b7 b0be
00000040: 5f31 4e3e 0c77 c3bd dcb9 a23c 0397 e9bd
00000050: b3f5 b8be 4e64 a8be 4966 cbbd 91aa 66bd
00000060: b928 aebd 8c63 b2be 41ea c6be 21b5 5dbd
00000070: d38b 65be 00ce 94be 8914 883e f5a8 9d3c
00000080: dc30 c03b 4e22 87be 0c21 d93c 67f0 183e

phi.phi.2.bias f4 [6]
0.41342652 -0.40308663 -0.36365125 -0.29194525 -0.0273544 -0.26866442
00000000: a4ac d33e 5f61 cebe 7f30 babe d979 95be
00000010: 5616 e0bc 628e 89be

rho.rho.0.weight f4 [6, 6]
0.16935572 0.26636568 0.15771133 0.22977673 0.24305409 -0.2751494 0.9281819 -0.111351386
-0.27425927 0.13880181 -0.38801324 -0.2173678 -0.22258149 -0.055262975 0.28819308 0.25678584
-0.38877717 -0.34819412 -0.20193769 0.29075485 0.045225162 -0.19952458 -0.3965429 -0.2078903
-0.36005515 -0.20828815 -0.12524372 0.19977313 -0.102066405 0.26163647 -0.8350611 -0.14506209
0.120319255 0.046537373 -0.04166454 -0.19282703
00000000: 966b 2d3e 1561 883e 147f 213e 974a 6b3e
00000010: 2ce3 783e 62e0 8cbe 549d 6d3f 320c e4bd
00000020: b66b 8cbe 1022 0e3e aca9 c6be aa95 5ebe
00000030: 67ec 63be 6e5b 62bd 0b8e 933e 6f79 833e
00000040: cd0d c7be 8046 b2be c1c8 4ebe d2dd 943e
00000050: 053e 393d 2c50 4cbe ac07 cbbe 32e1 54be
00000060: 2659 b8be 7d49 55be e43f 00be 5491 4c3e
00000070: 3108 d1bd 37f5 853e 90c6 55bf 288b 14be
00000080: f169 f63d f99d 3e3d 70a8 2abd 7374 45be

rho.rho.0.bias f4 [6]
-0.234699 0.008516659 -0.38776144 -0.3463728 0.34102812 0.3786687
00000000: ef54 70be 7589 0b3c ab88 c6be c757 b1be
00000010: 3d9b ae3e dde0 c13e

rho.rho.2.weight f4 [1, 6]
-0.1015574 -0.18484017 0.25890133 0.09626024 0.16123725 0.34947708
00000000: 53fd cfbd be46 3dbe b78e 843e 1724 c53d
00000010: 611b 253e a9ee b23e

exp_avg f4 [6, 3]
1.6504328e-06 -1.321093e-07 2.8568973e-08 0.0 0.0 0.0 0.0 0.0
0.0 8.223377e-07 1.2320527e-07 2.0347994e-07 -4.7274978e-05 -2.4058827e-05 -1.5494723e-05 -5.7679954e-06
6.6995613e-06 1.1526164e-05
00000000: 7084 dd35 eed9 0db4 d667 f532 0000 0000
00000010: 0000 0000 0000 0000 0000 0000 0000 0000
00000020: 0000 0000 9ebe 5c35 684a 0434 247c 5a34
00000030: 1f49 46b8 f0d1 c9b7 aafa 81b7 b48a c1b6
00000040: cbcc e036 7f60 4137

exp_avg_sq f4 [6, 3]
1.0880621e-08 1.9179083e-09 2.1111723e-09 0.0 0.0 0.0 0.0 0.0
0.0 6.951549e-10 1.2852934e-10 1.3294174e-10 3.6787813e-07 4.7754575e-08 6.387885e-08 1.3279859e-07
4.3864045e-08 3.304731e-08
00000000: 7aed 3a32 33cc 0331 2314 1131 0000 0000
00000010: 0000 0000 0000 0000 0000 0000 0000 0000
00000020: 0000 0000 2d15 3f30 cb51 0d2f c62b 122f
00000030: c980 c534 b61a 4d33 c52d 8933 6697 0e34
00000040: 0765 3c33 e7ef 0d33

exp_avg f4 [6]
1.5468949e-06 0.0 0.0 1.1490223e-06 -8.68285e-05 1.2457721e-05
00000000: e79e cf35 0000 0000 0000 0000 1b38 9a35
00000010: b217 b6b8 8101 5137

exp_avg_sq f4 [6]
3.635908e-08 0.0 0.0 2.372163e-09 1.1528259e-06 5.666663e-07
00000000: 3b29 1c33 0000 0000 0000 0000 8803 2331
00000010: ccba 9a35 031d 1835

exp_avg f4 [6, 6]
1.1640222e-05 0.0 0.0 6.2494696e-06 1.0849091e-05 -8.952529e-06 0.0 0.0
0.0 0.0 0.0 0.0 0.0 0.0 0.0 0.0
0.0 0.0 0.0 0.0 0.0 0.0 0.0 0.0
0.0 0.0 0.0 0.0 0.0 0.0 0.0 0.0
0.0 0.0 0.0 0.0
00000000: 5f4a 4337 0000 0000 0000 0000 89b2 d136
00000010: 7e04 3637 d232 16b7 0000 0000 0000 0000
00000020: 0000 0000 0000 0000 0000 0000 0000 0000
00000030: 0000 0000 0000 0000 0000 0000 0000 0000
00000040: 0000 0000 0000 0000 0000 0000 0000 0000
00000050: 0000 0000 0000 0000 0000 0000 0000 0000
00000060: 0000 0000 0000 0000 0000 0000 0000 0000
00000070: 0000 0000 0000 0000 0000 0000 0000 0000
00000080: 0000 0000 0000 0000 0000 0000 0000 0000

exp_avg_sq f4 [6, 6]
5.0289895e-08 0.0 0.0 1.6343558e-08 2.9260967e-08 1.976944e-08 0.0 0.0
0.0 0.0 0.0 0.0 0.0 0.0 0.0 0.0
0.0 0.0 0.0 0.0 0.0 0.0 0.0 0.0
0.0 0.0 0.0 0.0 0.0 0.0 0.0 0.0
0.0 0.0 0.0 0.0
00000000: 53fe 5733 0000 0000 0000 0000 dd63 8c32
00000010: 8c59 fb32 75d1 a932 0000 0000 0000 0000
00000020: 0000 0000 0000 0000 0000 0000 0000 0000
00000030: 0000 0000 0000 0000 0000 0000 0000 0000
00000040: 0000 0000 0000 0000 0000 0000 0000 0000
00000050: 0000 0000 0000 0000 0000 0000 0000 0000
00000060: 0000 0000 0000 0000 0000 0000 0000 0000
00000070: 0000 0000 0000 0000 0000 0000 0000 0000
00000080: 0000 0000 0000 0000 0000 0000 0000 0000

exp_avg f4 [6]
-2.3836024e-05 0.0 0.0 0.0 0.0 0.0
00000000: 79f3 c7b7 0000 0000 0000 0000 0000 0000
00000010: 0000 0000 0000 0000

exp_avg_sq f4 [6]
1.332509e-06 0.0 0.0 0.0 0.0 0.0
00000000: a9d8 b235 0000 0000 0000 0000 0000 0000
00000010: 0000 0000 0000 0000

exp_avg f4 [6, 6]
0.0 0.0 0.0 0.0 0.0 0.0 -3.250449e-06 0.0
0.0 0.0 0.0 0.0 0.0 0.0 0.0 0.0
0.0 0.0 0.0 0.0 0.0 0.0 0.0 0.0
3.9525253e-06 0.0 0.0 0.0 0.0 0.0 7.821144e-06 0.0
0.0 0.0 0.0 0.0
00000000: 0000 0000 0000 0000 0000 0000 0000 0000
00000010: 0000 0000 0000 0000 4a22 5ab6 0000 0000
00000020: 0000 0000 0000 0000 0000 0000 0000 0000
00000030: 0000 0000 0000 0000 0000 0000 0000 0000
00000040: 0000 0000 0000 0000 0000 0000 0000 0000
00000050: 0000 0000 0000 0000 0000 0000 0000 0000
00000060: ef9f 8436 0000 0000 0000 0000 0000 0000
00000070: 0000 0000 0000 0000 8f37 0337 0000 0000
00000080: 0000 0000 0000 0000 0000 0000 0000 0000

exp_avg_sq f4 [6, 6]
0.0 0.0 0.0 0.0 0.0 0.0 6.7623787e-09 0.0
0.0 0.0 0.0 0.0 0.0 0.0 0.0 0.0
0.0 0.0 0.0 0.0 0.0 0.0 0.0 0.0
6.2315944e-09 0.0 0.0 0.0 0.0 0.0 2.3793241e-08 0.0
0.0 0.0 0.0 0.0
00000000: 0000 0000 0000 0000 0000 0000 0000 0000
00000010: 0000 0000 0000 0000 835a e831 0000 0000
00000020: 0000 0000 0000 0000 0000 0000 0000 0000
00000030: 0000 0000 0000 0000 0000 0000 0000 0000
00000040: 0000 0000 0000 0000 0000 0000 0000 0000
00000050: 0000 0000 0000 0000 0000 0000 0000 0000
00000060: af1d d631 0000 0000 0000 0000 0000 0000
00000070: 0000 0000 0000 0000 e461 cc32 0000 0000
00000080: 0000 0000 0000 0000 0000 0000 0000 0000

exp_avg f4 [6]
0.0 4.011632e-05 0.0 0.0 -1.5206774e-05 -4.6624886e-05
00000000: 0000 0000 9242 2838 0000 0000 0000 0000
00000010: 9920 7fb7 178f 43b8

exp_avg_sq f4 [6]
0.0 1.267779e-06 0.0 0.0 9.3346296e-07 3.8087942e-06
00000000: 0000 0000 8e28 aa35 0000 0000 0000 0000
00000010: 1693 7a35 969a 7f36

exp_avg f4 [1, 6]
0.0 3.5802593e-06 0.0 0.0 -5.1904954e-05 -6.6932575e-05
00000000: 0000 0000 6344 7036 0000 0000 0000 0000
00000010: 85b4 59b8 275e 8cb8

exp_avg_sq f4 [1, 6]
0.0 3.2031932e-07 0.0 0.0 4.214289e-06 4.0433465e-06
00000000: 0000 0000 5af8 ab34 0000 0000 0000 0000
00000010: 7868 8d36 15ac 8736
