src/logs/2024-07-30 20:58:37.038565/lightning_logs/version_0/checkpoints/epoch=999-step=2000.ckpt (torch, 60907 bytes, 39 tensors)

phi.phi.0.weight f4 [32, 3]
0	0xbd463ebf	-0.048399683
1	0xbca22a3a	-0.019795526
2	0xbe5db458	-0.21650827
3	0x3ea8a31b	0.3293694
4	0xbe70d8f5	-0.23520263
5	0xbf53b084	-0.82691216
6	0x3d0d7f7a	0.0345454
7	0x3f94db1d	1.1629368
8	0xbdd3f036	-0.10348551
9	0xbe4893db	-0.19587652
10	0x3d62bff3	0.05535884
11	0xbd84840e	-0.064705
12	0x3d85dac8	0.0653587
13	0xbda08100	-0.07837105
14	0x3d7083a7	0.058719303
15	0x3f3416fe	0.70347583
16	0xbe2673d2	-0.1625512
17	0xbe714bfa	-0.23564139
18	0xbd6dbd61	-0.058041934
19	0xbdb6cbe3	-0.08925607
20	0xbf1cbbc1	-0.6122399
21	0xbf02cca4	-0.51093507
22	0xbefefd63	-0.49802694
23	0xbf050034	-0.51953435
24	0xbf109f3d	-0.5649298
25	0xbf09a7ae	-0.53771484
26	0xbedff016	-0.4373786
27	0xbf194276	-0.59867036
28	0xbf1b1cda	-0.605909
29	0x3e3a965e	0.18221423
30	0x3ef38d14	0.47568572
31	0x3ecbdccb	0.3981689
32	0x3d96c4d0	0.07361758
33	0x3e69c08b	0.22827356
34	0x3ec370bd	0.3817195
35	0xbf19377d	-0.59850293
36	0x3f4e1b2a	0.805102
37	0x3e16559b	0.14681093
38	0xbf1d81a7	-0.6152596
39	0x3c48ffa5	0.012267982
40	0x3e94a437	0.29031536
41	0x3e3ca666	0.18422851
42	0xbe059125	-0.1304365
43	0xbdfab6e1	-0.12241913
44	0xbeae1c87	-0.3400614
45	0xbe6a1c41	-0.2286234
46	0xbe0a4ae7	-0.13505135
47	0x3c39b160	0.011333793
48	0xbf1fa53e	-0.62361515
49	0x3f15d630	0.5852995
50	0xbf546c3d	-0.8297766
51	0x3f066b94	0.525079
52	0xbf6b5705	-0.91929656
53	0x3f303c92	0.6884242
54	0xbda2a089	-0.07940776
55	0x3ec1b956	0.37836713
56	0xbe9328fa	-0.287422
57	0x3dabc3a5	0.083869256
58	0x3ec0e88e	0.37677425
59	0x3f5f752d	0.8728817
60	0xbed68681	-0.41899493
61	0xbf0e8f0a	-0.5568701
62	0x3d451737	0.048117843
63	0x3e3a392a	0.18185869
64	0x3e06ee37	0.13176809
65	0x3f0886cf	0.533307
66	0x3f08f1ea	0.5349413
67	0x3b2a6fb2	0.0026006517
68	0xbf3b219b	-0.7309815
69	0x3ec2e3a3	0.38064298
70	0x3f059e4d	0.5219467
71	0xbf2b4aa1	-0.6691075
72	0xbeb44118	-0.35205913
73	0x3e7a1e4b	0.24425618
74	0xbf3e2553	-0.742757
75	0xbe5bfcf9	-0.2148322
76	0xbf237f48	-0.6386609
77	0x3dac961c	0.084270686
78	0xbe4996d5	-0.19686444
79	0xbea561ff	-0.32301328
80	0xbebbf8b1	-0.36713174
81	0xbe500795	-0.20315392
82	0x3e8c6527	0.27420923
83	0x3d05e671	0.03269047
84	0x3f0a5530	0.54036236
85	0xbd81a9da	-0.06331225
86	0xbed407dc	-0.41412246
87	0x3f423f4e	0.75877845
88	0xbebb0ab5	-0.36531606
89	0xbf3e479b	-0.7432801
90	0xbeb76305	-0.35817733
91	0x3f0e3478	0.5554881
92	0x3e9d607a	0.30737668
93	0xbd9c2f43	-0.07626202
94	0xbeba8ca1	-0.36435416
95	0x3eb766d2	0.35820633

phi.phi.0.bias f4 [32]
0	0xbe47da33	-0.1951683
1	0x3e14fe1e	0.14550063
2	0xbe866875	-0.2625157
3	0xbeb6ecbf	-0.35727498
4	0xbe394663	-0.18093257
5	0x3ebbb0dc	0.3665837
6	0x3e677d68	0.22606432
7	0x3e02aae6	0.12760505
8	0xbeaf8f74	-0.34289134
9	0x3e6abf67	0.22924577
10	0x3e5ba3d2	0.21449211
11	0x3e595c6d	0.21226664
12	0xbe9500ee	-0.29102272
13	0xbe897264	-0.26845086
14	0x3e2176c9	0.15767969
15	0x3c4d59a6	0.012533581
16	0x3eca82f0	0.39553022
17	0xbe9e3ef8	-0.30907416
18	0x3eaff7b9	0.34368685
19	0xbd022922	-0.03177751
20	0xbc6d7535	-0.014493276
21	0xbe8b221c	-0.2717446
22	0xbcdf340e	-0.027246501
23	0x3e6c1203	0.23053746
24	0x3ede1d47	0.43381712
25	0x3e023130	0.12714076
26	0xbeddbe83	-0.4330941
27	0xbe5a0952	-0.21292618
28	0x3ec51212	0.3849035
29	0xbdd96fd1	-0.106170304
30	0xbef17a66	-0.47163695
31	0x3e5eb803	0.21749882

phi.phi.2.weight f4 [32, 32]
0	0xbe20b28f	-0.15693115
1	0xba8ba751	-0.0010654723
2	0xbcb2087a	-0.021732558
3	0x3ade1855	0.0016944507
4	0xbd2c66b6	-0.04209014
5	0xbcd3a411	-0.025835069
6	0xbddadc23	-0.10686519
7	0xbdef0817	-0.11671465
8	0x3d6db498	0.058033556
9	0x3e2349f1	0.15946175
10	0xbe109d34	-0.14122468
11	0xbe2ae02c	-0.16687077
12	0xbdc3d22b	-0.09561571
13	0x3e2dc130	0.16968226
14	0x3e22eaaa	0.1590983
15	0xbe3024a1	-0.17201473
16	0x3d2fa1d9	0.04287896
17	0x3cc3520a	0.02384283
18	0x3e1fecad	0.15617628
19	0xbd5916b4	-0.053000167
20	0x3d6ec1d3	0.058290314
21	0xbdb34e5b	-0.087551795
22	0xbe29199b	-0.16513674
23	0x3ca28416	0.019838374
24	0xbdaf055e	-0.085459456
25	0xbc3590f5	-0.011081924
26	0xbd1fe417	-0.039035883
27	0xbe1269d2	-0.1429818
28	0x3dd3f782	0.10349943
29	0x3dfa0726	0.12208395
30	0x3e0a6c1d	0.13517804
31	0x3cbbf320	0.02294308
32	0xbe2aef35	-0.16692813
33	0xbe0fbfb9	-0.1403798
34	0x3ec01214	0.37513793
35	0xbc963cf4	-0.018339612
36	0xbd8ead34	-0.069666296
37	0x3e532f53	0.20623522
38	0xbdf2434e	-0.118292436
39	0xbba2adc3	-0.0049645617
40	0xbe2cac24	-0.16862541
41	0x3da20c0c	0.07912454
42	0x3dde4fa8	0.10855037
43	0x3e5b0c28	0.21391356
44	0x3c2cf1d4	0.010555703
45	0xbdae4a68	-0.085102856
46	0x3e0231ce	0.12714311
47	0xbdbba955	-0.09163157
48	0x3f299804	0.6624758
49	0xbd557073	-0.052109193
50	0x3e495fd5	0.19665463
51	0xbd06846b	-0.032841127
52	0x3d41d7bd	0.047324885
53	0xbd2c5a18	-0.042078108
54	0x3eb2e8ac	0.3494314
55	0x3e9558e1	0.29169372
56	0x3dbd1d73	0.092341326
57	0x3cf255e9	0.02958198
58	0x3ce10b86	0.027471315
59	0x3de90d4e	0.11379491
60	0x3e6f7f27	0.23388349
61	0x3eb113b0	0.34585333
62	0x3da84fac	0.08218321
63	0xbc82b882	-0.01595712
64	0xbe04fd24	-0.1298719
65	0xbe2af00f	-0.16693138
66	0x3ecce0b7	0.40015194
67	0xbe2314f0	-0.15925956
68	0x3dbaac34	0.091148764
69	0x3e79560a	0.24349228
70	0xbdf70a66	-0.1206253
71	0xbdfb36e3	-0.12266328
72	0xbe33f5a4	-0.17574173
73	0x3ceba8af	0.028766958
74	0x3e09c150	0.13452649
75	0x3e4d7aa4	0.20066315
76	0xbd92ab13	-0.07161536
77	0xbc1fe3b5	-0.009758879
78	0x3df4368a	0.11924465
79	0xbd6c3a19	-0.057672594
80	0x3eb81aab	0.35957846
81	0x3e3cae89	0.18425955
82	0x3e7a95a9	0.24471153
83	0xbe6fbd81	-0.23412134
84	0xbe2d309c	-0.16913074
85	0x3c0d9048	0.008640356
86	0x3e06ea87	0.13175403
87	0x3e3296d5	0.1744035
88	0x3e421eff	0.18957137
89	0x3de649b1	0.11244524
90	0xbdea0284	-0.11426261
91	0xbc47872f	-0.012178226
92	0x3e21b69c	0.15792316
93	0x3e2f442d	0.17115851
94	0xbdf7f6dd	-0.12107632
95	0xbdaa9331	-0.08328856
96	0xbd05e840	-0.032692194
97	0xbd94bc9c	-0.07262537
98	0x3eb808b3	0.35944137
99	0x3d8e3d37	0.069452696
100	0x3e812659	0.2522457
101	0x3e81794d	0.25287858
102	0x3caeeece	0.021354105
103	0xbe122eb4	-0.14275628
104	0x3d6df8ac	0.05809848
105	0x3d0e23e3	0.034702193
106	0x3e5c7a0a	0.21530929
107	0x3e50b705	0.20382316
108	0x3da01575	0.078165926
109	0x3da1d031	0.079010375
110	0xbc96d6be	-0.018412944
111	0x3e10601d	0.14099164
112	0x3e90e61f	0.28300568
113	0x3dc0c4eb	0.09412559
114	0x3e161aea	0.14658704
115	0xbd3fd3ff	-0.046833035
116	0xbd490b57	-0.04908308
117	0x3d4ff9ea	0.050775446
118	0x3e4d8aab	0.20072429
119	0xbd35f88d	-0.04442649
120	0x3cd4343d	0.025903815
121	0x3e446d10	0.19182229
122	0xbdfaedb9	-0.12252373
123	0xbd80980a	-0.06278999
124	0x3e382bec	0.17985505
125	0x3e807f2f	0.25097033
126	0xbe0c23da	-0.13685551
127	0x3d252890	0.040321887
128	0xbe02e3be	-0.12782189
129	0x3dc509db	0.096210204
130	0xbd9301fc	-0.07178113
131	0x3cc52f6d	0.024070466
132	0xbbe9d3cd	-0.0071358443
133	0xbe46c97a	-0.19412795
134	0x3d8b19f1	0.06792057
135	0xbdef71dc	-0.11691639
136	0xbe217a69	-0.15769352
137	0x383513d8	4.3172244e-05
138	0xbc027edc	-0.007964816
139	0x3d8e19eb	0.06938537
140	0xbe4f57ea	-0.2024838
141	0xbdc0e69c	-0.09418985
142	0x3da55ba6	0.08074121
143	0x3d15de36	0.03658887
144	0xbe4ee543	-0.20204644
145	0xbd8b4c6d	-0.068016864
146	0xbd090566	-0.033452414
147	0xbe2d9749	-0.16952242
148	0x3ddc3d37	0.10753863
149	0x3c664b07	0.014055974
150	0xbe047ff8	-0.12939441
151	0x3d00465e	0.031317107
152	0x3c3b98ea	0.011450032
153	0x3d9cc466	0.076546475
154	0x3d896c76	0.067101404
155	0xbe1169a1	-0.1420045
156	0x3d084258	0.033266395
157	0x3c92a9b8	0.017903194
158	0x3d0da8f7	0.034584966
159	0xbe23a394	-0.15980369
160	0x3c9cc893	0.01913861
161	0x3e3eb6f8	0.18624485
162	0x3e500253	0.20313387
163	0xbdbc99e1	-0.092090376
164	0xbd42bb4a	-0.047541894
165	0x3e0ae7c5	0.13564976
166	0x3e012e8e	0.12615415
167	0x3b98c5e6	0.004662263
168	0x3d44bdef	0.048032697
169	0x3d64c371	0.05585045
170	0x3e6c0d92	0.23052052
171	0x3e8a079c	0.2695893
172	0x3c9f8aa6	0.019475292
173	0xbd62d427	-0.055378105
174	0x3c989534	0.018625833
175	0x3cac6b6c	0.021047316
176	0x3f035bb3	0.51311797
177	0x3dd5cf8b	0.10439976
178	0x3e2fcb41	0.17167379
179	0xbcab5413	-0.020914113
180	0xbe1ca535	-0.15297396
181	0xbd7b454e	-0.06134539
182	0x3e94ad1d	0.29038325
183	0x3d811234	0.063023
184	0x3e3686a8	0.17824805
185	0x3e7d3ed5	0.24731
186	0x3e070ba7	0.13188039
187	0xbe07b3f2	-0.13252237
188	0x3e39f04f	0.18158077
189	0x3e30d3f2	0.1726835
190	0x3d53d37d	0.051715363
191	0x3e0a24bb	0.13490574
192	0x3db60182	0.08887006
193	0xbe88173b	-0.26580223
194	0xbd537e99	-0.051634405
195	0xbe1d0fc4	-0.15338045
196	0x3d16492a	0.03669087
197	0xbe781b7e	-0.24229237
198	0x3dabd29a	0.083897784
199	0xbdff9ed5	-0.12481467
200	0x3d861a28	0.06547958
201	0x3d114cb2	0.035473533
202	0xbd05bdb4	-0.032651618
203	0x3d98434e	0.07434712
204	0xbd82afef	-0.06381213
205	0xbe81b857	-0.25335953
206	0xbe857d96	-0.26072377
207	0x3db3f9a5	0.0878785
208	0xbd5e756b	-0.054311197
209	0xbe11f3a3	-0.14253096
210	0xbe10c04a	-0.14135852
211	0xbd0e7331	-0.034777824
212	0xbd350718	-0.04419622
213	0x3d5ed83a	0.05440543
214	0xbe5535ee	-0.20821354
215	0xbb6bc00d	-0.0035972625
216	0xbdfae409	-0.122505255
217	0x3d1f6f9d	0.038924802
218	0x3e237790	0.15963578
219	0x3d4e9cb7	0.050442424
220	0xbd42bc94	-0.047543123
221	0xbe868324	-0.26271927
222	0xbceca94e	-0.028889325
223	0xbe577dc6	-0.21044073
224	0xbe09f57a	-0.13472548
225	0x3dd45125	0.103670396
226	0xbe1cd712	-0.15316418
227	0xbd38eb08	-0.04514602
228	0xbd2e4d4f	-0.042554196
229	0xbd7f06f2	-0.062262483
230	0xbd4b9756	-0.049704872
231	0xbd4b36c6	-0.049612783
232	0x3e143336	0.1447266
233	0x3e1174b6	0.14204678
234	0xbdf42fad	-0.11923156
235	0xbe2af579	-0.16695203
236	0x3db6b9da	0.08922167
237	0xbde85c43	-0.113457225
238	0x3db2814e	0.08716069
239	0x3d0b0ed4	0.033949688
240	0xbd9cb04d	-0.07650814
241	0x3d05ab81	0.032634262
242	0xbe07e040	-0.13269138
243	0x3cd504ea	0.02600332
244	0x3e1616fe	0.14657208
245	0x3e14ffe8	0.14550745
246	0x3da3a318	0.07990092
247	0xbdb3256c	-0.08747372
248	0x3e0a9255	0.13532384
249	0x3e275a2f	0.16342996
250	0x3d922935	0.07136766
251	0xbdce8337	-0.10083621
252	0xbdc188df	-0.09449934
253	0xbe0a6194	-0.13513786
254	0xbdb30ff7	-0.087432794
255	0xbc20b297	-0.009808204

phi.phi.2.bias f4 [32]
0	0xbd2e05c8	-0.042485982
1	0x3dc46e93	0.09591403
2	0x3ccd0c90	0.025030404
3	0x3e82a593	0.25516948
4	0xbe3a16fa	-0.18172827
5	0x3de942fd	0.1138973
6	0x3d525d23	0.051358353
7	0x3c80dac0	0.015729308
8	0xbd21027a	-0.039309002
9	0xbc89e314	-0.016831912
10	0xbe5a394b	-0.21310918
11	0xbe0a5670	-0.13509536
12	0xbddd6f2e	-0.108122215
13	0xbe1b541e	-0.15168807
14	0xbd9442f0	-0.0723933
15	0xbe22b35a	-0.1588873
16	0x3d0ee970	0.034890592
17	0x3c504f9b	0.012714292
18	0xbe044f01	-0.12920763
19	0xbded4f77	-0.11587422
20	0x3da93c66	0.08263473
21	0x3e5518bf	0.20810221
22	0xbe5a5ca6	-0.21324405
23	0x3d9c55d3	0.07633557
24	0x3e6dc1ea	0.23218504
25	0xbdc42aec	-0.09578499
26	0x3e0feffc	0.1405639
27	0xbe93fd20	-0.28904057
28	0x3e4c58ad	0.19955702
29	0xbd98db1b	-0.07463666
30	0xbddeb89f	-0.108750574
31	0xbd33ff3b	-0.04394458

phi.phi.4.weight f4 [32, 32]
0	0x3dcd7555	0.10032145
1	0x3e0acfb6	0.13555798
2	0x3dcfbd6b	0.101435505
3	0x3e37c86f	0.17947553
4	0xbdacfb5c	-0.084463805
5	0x3e26d9c2	0.16294006
6	0x3d76e155	0.060273487
7	0xbdea49bc	-0.11439845
8	0x3dba77d4	0.09104887
9	0x3d3172fe	0.043322556
10	0xbc846f5a	-0.016166378
11	0xbd879c7d	-0.06621645
12	0xbe2539d1	-0.16135336
13	0x3dbc687e	0.09199618
14	0x3df6dc48	0.12053734
15	0xbdde69ca	-0.108600214
16	0x3e1bc4de	0.15211818
17	0x3dab7043	0.083710216
18	0x3d9e63ec	0.07733902
19	0xbd1030e0	-0.03520286
20	0x3db1c996	0.086810276
21	0x3e141f3a	0.14465037
22	0x3dd9bd13	0.10631766
23	0x3e0a5ff3	0.13513164
24	0xbfb55c40	-1.4168777
25	0xbdb7565b	-0.08952018
26	0x3dc2ac09	0.09505469
27	0xbed848cb	-0.42243037
28	0xbdb23526	-0.087015435
29	0x3d60f660	0.05492246
30	0xbe48af03	-0.19598012
31	0x3cdc81cb	0.026917359
32	0xbe135c40	-0.1439066
33	0xbd340705	-0.043952007
34	0xbe5c7ffa	-0.21533194
35	0xbe415e53	-0.18883638
36	0xbe128c04	-0.14311224
37	0xbd1d93d5	-0.03847106
38	0xbdbc16c7	-0.09184032
39	0x3e2545b9	0.16139878
40	0xbbad3acd	-0.0052865506
41	0x3c603162	0.013683649
42	0xbdc502e8	-0.09619695
43	0xbd968311	-0.07349218
44	0x3d49ec28	0.04929748
45	0x3d4c6110	0.049897254
46	0x3e6eb150	0.23309827
47	0xbe1f7769	-0.15572895
48	0xbda05e66	-0.07830505
49	0x3dc9bf30	0.09850919
50	0xbd5c8609	-0.053838763
51	0xbda73fa3	-0.081664346
52	0x3d4987fd	0.049201954
53	0xbcd7140f	-0.026254682
54	0x3e15b6d0	0.14620519
55	0x3dfe0e7a	0.12405105
56	0xbd8974d3	-0.067117356
57	0x3d1cc06b	0.03826944
58	0x3ca6696d	0.020313943
59	0xbe58a5cf	-0.21157001
60	0x3cd30677	0.025759919
61	0xbe886fe2	-0.2664786
62	0xbd974adb	-0.073873244
63	0x3de44496	0.11145894
64	0x3d8231d2	0.06357159
65	0x3e378512	0.17921856
66	0xbd089619	-0.03334627
67	0x3e5cfb66	0.21580276
68	0x3d17605c	0.03695713
69	0x3e4d4349	0.20045199
70	0x3e020c26	0.12699947
71	0xbd428ac4	-0.04749562
72	0x3d99aebe	0.075040326
73	0x3e1ba75e	0.15200564
74	0x3ce11c65	0.02747936
75	0x3ca6fd06	0.020384323
76	0x3d3cc61a	0.046087362
77	0xbe0fc152	-0.1403859
78	0x3bdaefe7	0.0066814306
79	0x3c6ec827	0.014574087
80	0x3df23cb3	0.11827984
81	0xbc3655b5	-0.011128833
82	0xbe1aa14a	-0.1510059
83	0x3c2ff44b	0.010739396
84	0x3dc7f08c	0.097626776
85	0x3e5770e9	0.21039166
86	0xbd2ea6d6	-0.042639576
87	0xbe13ff58	-0.14452875
88	0xbfa3baa4	-1.2791333
89	0x3e254d76	0.1614283
90	0x3e097405	0.13423164
91	0xbe70a59f	-0.2350068
92	0x3d9a899f	0.075457804
93	0xbd56510f	-0.052323397
94	0x3d10c26a	0.035341658
95	0xbe336192	-0.17517689
96	0x3d9a47a9	0.07533199
97	0xbe47b5cf	-0.19502948
98	0x3d43c780	0.04779768
99	0x3dfbd492	0.12296404
100	0x3caed97e	0.021343943
101	0x3cb248c7	0.021763219
102	0xbd674a1c	-0.05646716
103	0xbe16cd3d	-0.1472673
104	0x3dba04c9	0.09082944
105	0xbda4bf51	-0.08044303
106	0x3dc4af46	0.09603743
107	0xbe23cd84	-0.15996367
108	0x3d63c828	0.055610806
109	0x3de25e87	0.11053186
110	0x3de8cf9c	0.11367723
111	0xbdfe359d	-0.1241257
112	0xbe1316f6	-0.14364228
113	0xbdcf7664	-0.10130003
114	0x3deb504e	0.11489926
115	0xbd5e9496	-0.05434092
116	0xbde96563	-0.11396291
117	0xbd34c6ae	-0.04413479
118	0xbc13aff0	-0.009014115
119	0xbe0db4e2	-0.13838533
120	0x3d9f1dc2	0.07769348
121	0xbbca11cf	-0.0061666737
122	0x3d58bdcb	0.052915376
123	0xbe649116	-0.22320971
124	0xbd44f912	-0.048089094
125	0xbe0b8395	-0.13624413
126	0x3c14fc9c	0.00909343
127	0xbd502ff1	-0.05082697
128	0x3db4e8d2	0.088334695
129	0xbe60f55b	-0.21968596
130	0xbeb7c13f	-0.35889623
131	0xbea4a6e1	-0.32158569
132	0x3e1ebbd4	0.15501338
133	0xbe40205e	-0.18762347
134	0xbce8a82d	-0.028400505
135	0x3dd5e5c0	0.10444212
136	0xbdafd610	-0.08585751
137	0xbe31aed5	-0.1735185
138	0x3d6a9b7c	0.057277188
139	0x3e30da99	0.17270888
140	0x3d79ee3f	0.061018225
141	0x3e049673	0.12948017
142	0xbde968f1	-0.11396969
143	0x3d409409	0.047016177
144	0xbc0e5c8c	-0.008689057
145	0xbc8e4290	-0.017365724
146	0x3c837b2b	0.016049942
147	0x3dca79be	0.09886502
148	0x3c9ecba8	0.01938422
149	0xbe4b5d3a	-0.19859782
150	0x3ca96dc1	0.020682218
151	0xbe2a75b5	-0.16646464
152	0xbda43eca	-0.080197886
153	0x3bda23ef	0.0066571156
154	0xbe1ae3ce	-0.15125963
155	0xbe0f7b76	-0.1401194
156	0xbe830db8	-0.25596404
157	0xbe56cba2	-0.20976117
158	0xbe7c863a	-0.24660578
159	0x3cd1ba38	0.025601491
160	0xbd3aea6c	-0.04563372
161	0x3d33a41a	0.04385767
162	0x3c1ebd56	0.009688696
163	0xbbfa3818	-0.0076360814
164	0x3dc2ddd7	0.09514969
165	0xbddd1750	-0.10795462
166	0x3cbd6a06	0.023121845
167	0xbd6744d0	-0.05646211
168	0x3ce93555	0.028467814
169	0x3e03b056	0.12860236
170	0x3c667d69	0.014067986
171	0x3e2f0d64	0.17094952
172	0xbcbe24ec	-0.023210965
173	0x3d820fb7	0.063506536
174	0xbd9f5752	-0.07780327
175	0x3d431d0d	0.047635127
176	0xbdc11b26	-0.09429006
177	0xbcdf6e7c	-0.027274363
178	0x3de96c72	0.113976374
179	0xbddacf19	-0.10684032
180	0x3da7f412	0.082008496
181	0xbd5554d1	-0.05208284
182	0xbdab2354	-0.08356348
183	0x3c0b2782	0.008493306
184	0xbe16a95c	-0.14713043
185	0x3e12c66c	0.14333504
186	0xbe1e2404	-0.15443426
187	0xbade026a	-0.0016937975
188	0xbdb95061	-0.09048534
189	0xbc53d5f6	-0.01292943
190	0xbe194fb1	-0.14971806
191	0xbdf566db	-0.11982509
192	0xbdc99882	-0.09843542
193	0x3e094881	0.13406564
194	0x3db664e4	0.08905962
195	0x3ad60e44	0.0016331156
196	0x3d730dd6	0.059339367
197	0x3e6e6532	0.2328079
198	0xbc8e6e6e	-0.017386641
199	0x3aa1d837	0.0012347762
200	0x3e757513	0.23970442
201	0xbdb0de69	-0.08636171
202	0x3d663119	0.056199167
203	0xbddd3c6f	-0.108025424
204	0x3e0eb34f	0.13935588
205	0xbc123df2	-0.008925902
206	0xbe3c2c42	-0.18376258
207	0x3dcc7b9b	0.09984513
208	0x3dcb3830	0.09922826
209	0xbc966c27	-0.018362118
210	0xbd9103fd	-0.07080839
211	0x3d1a6ea6	0.03770318
212	0x3d7fa0d3	0.062409233
213	0x3e530af4	0.20609647
214	0xbcea7ccb	-0.028623959
215	0xbd905b6c	-0.07048687
216	0xbf98873f	-1.1916274
217	0x3e31f002	0.17376712
218	0x3d920b13	0.071310185
219	0xbea0a4f0	-0.31375837
220	0x3db4ca57	0.08827656
221	0x3e39a319	0.18128623
222	0x39ce89a1	0.00039393923
223	0xbda3fed1	-0.08007587
224	0xbe0d985f	-0.13827656
225	0x3db37798	0.08763045
226	0x3d9d993e	0.07695244
227	0xbe6813c2	-0.22663787
228	0xbde8061b	-0.113292895
229	0xbcc5734f	-0.024102835
230	0xbe54c3df	-0.20777844
231	0x3da12ae8	0.07869512
232	0x3dfc3d7b	0.12316414
233	0x3cbb2550	0.02284494
234	0xbda54a1f	-0.08070778
235	0x3dc83a3f	0.097767346
236	0xbd284ade	-0.041087024
237	0x3e339640	0.17537785
238	0xbd27ad3f	-0.040936705
239	0xbd16abe1	-0.03678501
240	0x3d4b6632	0.049658008
241	0x3e293e03	0.16527562
242	0x3dcbd41b	0.09952565
243	0x3e08bd09	0.13353361
244	0xbdc8232e	-0.09772335
245	0xbda44f0e	-0.08022891
246	0xbda1fe1c	-0.07909796
247	0xbe1dbcd4	-0.15404063
248	0xbc7324aa	-0.014840284
249	0xbe006f60	-0.12542486
250	0xbe39404c	-0.18090934
251	0xbe386f53	-0.18011217
252	0x3df613b4	0.12015477
253	0xbe3c23c4	-0.18373019
254	0xbe0cd241	-0.1375208
255	0xbdc5d1cb	-0.096591555

phi.phi.4.bias f4 [32]
0	0x3e43cc37	0.1912087
1	0x3b83d236	0.004022862
2	0x3e7adbe8	0.2449795
3	0xbe4f6584	-0.20253569
4	0xbea99309	-0.3311999
5	0xbd2714fa	-0.04079149
6	0x3e8e8bca	0.27841026
7	0x3d0d83d2	0.03454954
8	0x3ac3497f	0.0014899223
9	0x3e99f292	0.3006788
10	0x3db35fa1	0.08758474
11	0x3c1d0535	0.009583761
12	0xbe026057	-0.12732063
13	0x3d755339	0.05989382
14	0xbe44b38a	-0.19209114
15	0xbcbd810c	-0.023132823
16	0xbd2e1666	-0.04250183
17	0x3c5069fc	0.012720581
18	0x3e1fa48c	0.15590113
19	0xbd3c3cf3	-0.045956563
20	0xbd2e004b	-0.04248075
21	0x3d6a1ba9	0.057155285
22	0x3ebf649b	0.37381443
23	0xbdb04993	-0.08607783
24	0xbd215721	-0.039389733
25	0xbe4c9310	-0.19977975
26	0x3d03f1ed	0.03221314
27	0xbe37f656	-0.17965063
28	0x3e85b0f8	0.2611158
29	0xbc16abd8	-0.009196244
30	0x3d536393	0.051608633
31	0xbd0a31b9	-0.033738825

phi.phi.6.weight f4 [7, 32]
0	0xbe2a3666	-0.16622314
1	0xbe6725e7	-0.22573052
2	0xbe0d2ead	-0.13787337
3	0xbe0d12ff	-0.13776778
4	0xbdf63018	-0.12020892
5	0xbe250d8c	-0.16118449
6	0x3dd7aa8d	0.10530577
7	0x3e2f827e	0.17139623
8	0xbd91cc1a	-0.071190074
9	0xbd666366	-0.056247137
10	0xbdae353f	-0.0850625
11	0x3cc3af06	0.023887169
12	0xbd009887	-0.03139546
13	0x3d1bb87a	0.038017727
14	0x3c4fffe4	0.012695286
15	0xbdd9ce5a	-0.106350616
16	0x3d87f374	0.06638232
17	0x3d244de3	0.04011334
18	0x3dd43ebe	0.103635296
19	0xbe2ffe23	-0.17186789
20	0x3dafe604	0.08588794
21	0xbe2c0751	-0.16799666
22	0xbd0da513	-0.034581255
23	0x3dd22f0f	0.10262882
24	0xbddd8d5b	-0.10817977
25	0xbd5711e7	-0.052507307
26	0xbe5a89da	-0.21341649
27	0x3d1bfb23	0.0380813
28	0xbe6032f0	-0.21894431
29	0x3d3cd101	0.04609776
30	0x3c7f24e3	0.015572759
31	0xbdaeb93b	-0.08531424
32	0x3cf764a3	0.030199355
33	0xbd4c4c01	-0.04987717
34	0x3cb49aed	0.02204653
35	0xbe17e76a	-0.14834371
36	0xbcd16b33	-0.025563812
37	0x3d67699b	0.056497198
38	0xbdf4039d	-0.11914752
39	0x3e047837	0.12936483
40	0xbda5d596	-0.08097379
41	0x3d94cb25	0.07265309
42	0x3d03a6f1	0.03214163
43	0xbd8ea30a	-0.06964691
44	0xbccd149a	-0.025034238
45	0x3c511007	0.012760169
46	0x3db99b3c	0.09062812
47	0xbb18b4c0	-0.0023301095
48	0x3d416ca7	0.04722276
49	0x3e0bba61	0.13645317
50	0xbbf4ea19	-0.0074741957
51	0x3dcd0111	0.10009969
52	0xbe076ced	-0.13225146
53	0x3d95e173	0.07318392
54	0xbe206cc0	-0.15666485
55	0xbcc75aae	-0.024335232
56	0x3dfc40db	0.12317058
57	0x3e110167	0.14160691
58	0x3e0c4109	0.13696684
59	0x3db84b2e	0.089987144
60	0xbdc735b3	-0.09727039
61	0x3dd656d5	0.10465781
62	0xbdd155f7	-0.102214746
63	0x3dcc49d9	0.09975023
64	0x3d2e180e	0.04250341
65	0xbdf4080b	-0.119155966
66	0x3cac88ce	0.021061327
67	0xbe00e58d	-0.12587567
68	0x3d580acc	0.05274467
69	0x3e202a1a	0.1564106
70	0x3dfadae0	0.12248778
71	0x3e2bb8ed	0.16769762
72	0x3de3e1db	0.11127063
73	0xbe28ff47	-0.1650363
74	0x3ce9aa5c	0.028523616
75	0x3cc2cfc1	0.023780705
76	0xbe2909c1	-0.16507627
77	0x3c4221f0	0.011848912
78	0xbe27adb5	-0.16374858
79	0xbd818b5d	-0.063254096
80	0x3e0b6351	0.13612105
81	0x3cfc584d	0.030803824
82	0xbe06573e	-0.13119218
83	0x3d10a05a	0.035309173
84	0x3e2ac40f	0.16676353
85	0x3e22b8e9	0.1589085
86	0xbe1a3494	-0.1505912
87	0xbd9d95e3	-0.07694604
88	0xbd6c7c1e	-0.057735555
89	0x3b16eb9b	0.0023028615
90	0x3d39d74b	0.045371335
91	0x3d9cce2a	0.0765651
92	0xbe044318	-0.12916219
93	0xbc6bad9f	-0.014384656
94	0x3ded5081	0.115876205
95	0xbd40e8fa	-0.047097184
96	0xbe702dbc	-0.23454946
97	0xbd1b4553	-0.03790791
98	0xbe726967	-0.2367302
99	0x3e279869	0.16366734
100	0xbdb02ad0	-0.08601916
101	0x3d4b2fb9	0.04960606
102	0xbe4b9ac6	-0.1988326
103	0x3dc9203c	0.09820601
104	0x3d4d1a09	0.050073657
105	0xbe5b0ef4	-0.21392423
106	0xbdf7db27	-0.12102347
107	0xbd99d8b2	-0.075120345
108	0xbe2771f7	-0.16352068
109	0x3d641bb0	0.055690467
110	0x3d147de0	0.036252856
111	0x3da0544c	0.07828578
112	0x3e041ea8	0.1290232
113	0xbdc8a316	-0.09796731
114	0xbea8933a	-0.32924825
115	0x3dc25aa7	0.09489947
116	0xbe1b822b	-0.15186374
117	0x3dcfd84e	0.10148679
118	0xbe7821e9	-0.24231686
119	0xbe094e99	-0.13408889
120	0x3d9a33bd	0.075293995
121	0x3b89032f	0.0041812877
122	0x3d00e7f1	0.031471197
123	0xbdb53053	-0.08847108
124	0xbd2b0477	-0.041752305
125	0xbe119f14	-0.1422084
126	0xbcb8540f	-0.02250102
127	0x3e0ffcec	0.14061326
128	0xbdb6f606	-0.08933644
129	0xbcfba4ff	-0.030718325
130	0xbe284951	-0.16434218
131	0xbd60d8a2	-0.054894097
132	0xbdd84228	-0.10559493
133	0x3dcdd703	0.10050776
134	0xbeccb9d4	-0.39985526
135	0x3ccceb69	0.025014596
136	0x3da67323	0.08127429
137	0xbf23194a	-0.63710463
138	0xbe755823	-0.23959403
139	0xbd88550d	-0.06656847
140	0x3cfb482a	0.030674059
141	0xbe2f83fa	-0.17140189
142	0xbe3cf43e	-0.18452546
143	0x3dc84373	0.0977849
144	0xbe18ee60	-0.14934683
145	0x3cb9d2bd	0.022683496
146	0xbfb015fb	-1.3756708
147	0x3d5404be	0.051762335
148	0x3d7f0117	0.0622569
149	0xbcd0c5fd	-0.025485033
150	0xbf5c9b19	-0.8617416
151	0xbdaf06c5	-0.08546213
152	0xbd7cc056	-0.061706863
153	0xbe45044d	-0.19239922
154	0xbe06350f	-0.13106178
155	0xbcd8298f	-0.026387004
156	0xbed570fb	-0.4168776
157	0xbc9a9016	-0.018867534
158	0xbe5a8b82	-0.2134228
159	0xbdbdd81a	-0.09269734
160	0x3e1d9697	0.15389477
161	0xbc500f11	-0.012698905
162	0x3e79037f	0.2431774
163	0xbd155747	-0.036460187
164	0x3dc76e48	0.09737831
165	0xbd6f939d	-0.058490384
166	0x3e30240c	0.17201251
167	0xbdb19654	-0.08671251
168	0xbdb6bf7f	-0.08923244
169	0x3e20f4ca	0.1571838
170	0xbdb57cd3	-0.08861699
171	0x3e32d35a	0.17463437
172	0x3e1b338b	0.15156381
173	0x3d03ad80	0.032147884
174	0xbd743bc4	-0.05962731
175	0x3d1a6c92	0.037701197
176	0x3dd6545c	0.10465309
177	0x3c520841	0.012819351
178	0x3e51647a	0.20448485
179	0xbcf3dcde	-0.029768404
180	0xbca850e1	-0.020546379
181	0x3e5dfb18	0.21677816
182	0x3e494fb2	0.19659308
183	0x3d7f5b9a	0.062343217
184	0x3d8b52e7	0.06802922
185	0xbd5a9b5a	-0.05337081
186	0xbe17ee1c	-0.14836925
187	0xbac5a21b	-0.0015078218
188	0x3e8531ec	0.2601465
189	0x3df2b297	0.118504696
190	0xbe137e98	-0.1440376
191	0x3c352ade	0.011057584
192	0xbd2f8d3c	-0.0428593
193	0x3dcb8577	0.09937566
194	0xbd226eca	-0.039656438
195	0x3de05a4e	0.10954724
196	0x3e0fc558	0.14040124
197	0x3dddc7a3	0.10829093
198	0xbe0aa0c3	-0.13537888
199	0xbe1e3a0e	-0.15451834
200	0xbb750a45	-0.0037390154
201	0x3caa8538	0.020815477
202	0xbcc81a57	-0.024426622
203	0xbdb4360d	-0.08799372
204	0x3cd7da3d	0.026349181
205	0x3d44fa3e	0.048090212
206	0xbe027dd0	-0.12743306
207	0xbd1275f5	-0.035757024
208	0x3da529c2	0.08064605
209	0xbe1d7270	-0.15375686
210	0xbdfb99de	-0.12285207
211	0xbe30ee9e	-0.17278525
212	0x3c0babd3	0.008524853
213	0xbe6badfa	-0.23015586
214	0xbde908ff	-0.11378669
215	0x3d2cea03	0.04221536
216	0x3e2cc213	0.16870908
217	0xbe37d37a	-0.17951766
218	0x3d9543a7	0.07288294
219	0xbd9decd2	-0.077111855
220	0xbe62b2a4	-0.22138458
221	0x3daeaa63	0.085285924
222	0x3dc78fad	0.09744201
223	0x3c84b7e8	0.016200975

phi.phi.6.bias f4 [7]
0	0xbbf89769	-0.007586409
1	0xbca35eab	-0.019942602
2	0xbe19859e	-0.14992377
3	0x3d3512b6	0.044207297
4	0x3e92f96b	0.28705916
5	0xbc61e60f	-0.01378776
6	0xbd078c9b	-0.033093076

rho.rho.0.weight f4 [28, 7]
0	0xbdd0a8d2	-0.1018845
1	0x3e4e26af	0.20131944
2	0x3d76803d	0.06018089
3	0x3ea4b63c	0.32170284
4	0x3e90109d	0.28137675
5	0xbe7b2d25	-0.2452894
6	0x3eaf882a	0.34283572
7	0x3ecc7551	0.39933255
8	0x3e34f28f	0.17670654
9	0xbd80d1b5	-0.062899984
10	0x3e235679	0.15950955
11	0x3f96397d	1.1736294
12	0xbc1ab265	-0.009441947
13	0x3dfed763	0.124434255
14	0x3e9d942a	0.30777103
15	0x3e4164ba	0.1888608
16	0xbe4299fc	-0.19004053
17	0x3ea4d6b6	0.3219506
18	0xbe300c30	-0.17192149
19	0xbe8cbbb7	-0.27486965
20	0x3e575b1d	0.2103085
21	0x3ebf7f46	0.3740179
22	0xbe9f7094	-0.31140578
23	0x3e5d0c64	0.21586758
24	0xbeb73855	-0.35785165
25	0x3ea569bc	0.3230723
26	0x3c800541	0.015627505
27	0xbe9c0e0c	-0.30479467
28	0xbdd0c672	-0.101941004
29	0x3d625b87	0.05526307
30	0x3ea80cdf	0.3282232
31	0x3cf84063	0.03030414
32	0x3f19cd5d	0.60078984
33	0x3d1aa644	0.03775622
34	0x3e57a6a3	0.2105966
35	0x3e69d8b2	0.22836569
36	0xbe9bbc16	-0.30416936
37	0x3e807d8e	0.2509579
38	0xbeae29a1	-0.34016135
39	0xbead15aa	-0.3380559
40	0xbdf4bb41	-0.11949778
41	0x3e506299	0.20350112
42	0x3e72af36	0.2369965
43	0xbdf39a21	-0.11894632
44	0xbd3eb2e2	-0.046557315
45	0x3e96f0c0	0.29480553
46	0xbe69ca24	-0.22831017
47	0xbd058862	-0.032600768
48	0xbe8c395f	-0.2738752
49	0x3e1769ac	0.14786404
50	0x3d1c4098	0.03814754
51	0x3ea58c04	0.32333386
52	0x3de70872	0.11280908
53	0xbe2b4f41	-0.16729452
54	0x3cd04003	0.025421148
55	0xbdd1efed	-0.1025084
56	0xbcec88d3	-0.028873837
57	0x3e8faa18	0.2805946
58	0x3da47026	0.08029203
59	0x3ee35015	0.44397035
60	0x3e5219c2	0.20517638
61	0xbf73bcdb	-0.95210046
62	0xbe61f3f4	-0.22065717
63	0xbdd07cb1	-0.10180033
64	0x3e754464	0.2395187
65	0x3ebd6967	0.36994478
66	0x3f61c2cf	0.8818788
67	0x3f6b55e2	0.9192792
68	0x3ef64f67	0.48107454
69	0xbe3044ab	-0.17213695
70	0xbe520bfd	-0.20512386
71	0x3ca8b9f8	0.02059649
72	0x3c0c08cc	0.008547019
73	0xbc93e4ae	-0.018053379
74	0xbd8de11e	-0.06927703
75	0xbe35de04	-0.17760473
76	0xbe87288f	-0.2639813
77	0xbe6d8134	-0.23193818
78	0x3e006ff2	0.12542704
79	0xbc3bf372	-0.011471616
80	0xbe9028ea	-0.28156215
81	0xbe3dc8e5	-0.18533666
82	0xbe879f91	-0.26488927
83	0x3d49f237	0.04930326
84	0x3dcf9d88	0.101374686
85	0x3e9ba2e9	0.30397728
86	0x3ec0bc94	0.37643874
87	0x3e19c44f	0.15016292
88	0xbd6a4cae	-0.057202034
89	0xbeaa9c94	-0.33322585
90	0x3e1d8a27	0.15384732
91	0x3e08ba8f	0.13352416
92	0xbe804b18	-0.25057292
93	0xbdc215a6	-0.09476785
94	0xbea3d69f	-0.3199968
95	0xbe5113a5	-0.2041765
96	0xbd06ec18	-0.03294
97	0x3eb5a68f	0.35478637
98	0x3debfca3	0.11522796
99	0xbdbdd761	-0.09269596
100	0xbeae75ae	-0.34074157
101	0x3ed444bf	0.414587
102	0xbed6cb9b	-0.41952214
103	0x3dee5f90	0.11639321
104	0x3c83b409	0.016077058
105	0xbe9ed715	-0.3102347
106	0x3b3db263	0.0028945438
107	0xbe7ceaa6	-0.24698886
108	0xbeb116ac	-0.3458761
109	0x3ec017e0	0.37518215
110	0xbe6eb9e4	-0.23313099
111	0x3e8ca7bf	0.2747173
112	0xbe8efaf7	-0.27925846
113	0xbec09517	-0.37613747
114	0x3d2f839d	0.042850126
115	0x3e9057f6	0.2819211
116	0x3ebe2f36	0.37145394
117	0xbe1d4f91	-0.15362383
118	0x3e3082ae	0.1723735
119	0x3e3bfceb	0.183582
120	0x3d7debcb	0.061992448
121	0x3e5184ea	0.20460859
122	0xbe7a6647	-0.24453078
123	0x3f3507f0	0.70715237
124	0x3ddf2832	0.108963385
125	0xbe87f9ff	-0.2655792
126	0xbd2c64ca	-0.042088307
127	0xbe2c7549	-0.16841616
128	0x3e36e432	0.17860487
129	0x3c16b4fb	0.009198423
130	0xbecb8096	-0.3974654
131	0xbd996f5a	-0.07491942
132	0x3ded7e96	0.1159641
133	0xbe9c82c6	-0.30568522
134	0x3eb3148e	0.3497662
135	0x3d29612c	0.041352436
136	0xbfd44bd0	-1.6585636
137	0x3f922625	1.1417891
138	0x3e86b372	0.2630878
139	0xbeb31948	-0.34980226
140	0x3e7aedc4	0.24504763
141	0x3ebdaceb	0.37045988
142	0x3d60cbf9	0.054882023
143	0xbdac0290	-0.08398926
144	0x3e803b07	0.25045034
145	0xbdef326d	-0.1167954
146	0x3ea02ef6	0.31285828
147	0xbeb897ba	-0.36053258
148	0x3d9a8e01	0.07546616
149	0xbeb8164b	-0.35954508
150	0xbe66f74f	-0.22555278
151	0xbeac0312	-0.33596092
152	0x3e1c7995	0.15280755
153	0x3e3b21a9	0.18274559
154	0xbe897d34	-0.26853335
155	0x3d0d0099	0.034424398
156	0x3e9619bf	0.29316518
157	0xbe4f81a3	-0.20264296
158	0x3f04f4af	0.5193586
159	0xbec840a5	-0.3911182
160	0x3e52f421	0.2060094
161	0xbeb83c8e	-0.359837
162	0x3eac5e74	0.33665812
163	0x3ea658ac	0.32489526
164	0xbe4907d5	-0.19631894
165	0x3ddce86a	0.10786517
166	0x3dffb95e	0.12486528
167	0x3ebed3be	0.3727092
168	0x3c1ba42a	0.009499589
169	0xbeaa7145	-0.33289543
170	0xbe92ce73	-0.28673133
171	0xbe0b24e4	-0.13588291
172	0x3ea5cbb7	0.32381985
173	0x3df037bb	0.1172938
174	0xbe8d0376	-0.27541703
175	0xbd6617df	-0.05617511
176	0x3e8753ee	0.2643122
177	0xbe9b0dce	-0.3028397
178	0x3c9f5fc4	0.019454844
179	0xbd81b57f	-0.06333446
180	0x3e28b410	0.16474938
181	0xbeb6479f	-0.35601518
182	0x3e6841f9	0.22681417
183	0xbeb32399	-0.34988096
184	0x3e3b0fbb	0.1826772
185	0x3e22e3cf	0.15907215
186	0x3f9f0ad0	1.2425175
187	0x3d894313	0.067022465
188	0x3e728363	0.23682933
189	0xbe4137ff	-0.18869017
190	0x3c5ea021	0.013587982
191	0xbb37371f	-0.0027956439
192	0xbd5ad866	-0.05342903
193	0x3eacad1b	0.3372582
194	0xbe870034	-0.26367342
195	0xbe85d593	-0.26139507

rho.rho.0.bias f4 [28]
0	0xbe37e588	-0.17958653
1	0x3e8095a7	0.25114176
2	0xbe8916a2	-0.2677508
3	0xbe84f50a	-0.259682
4	0x3e86d34d	0.26333085
5	0x3e3f7c41	0.18699743
6	0xbe18ee1a	-0.14934579
7	0xbddd5b9a	-0.10808487
8	0x3e67bb87	0.2263013
9	0xbe83d62d	-0.2574934
10	0x3c6b70d4	0.014370162
11	0x3cec7944	0.028866418
12	0x3ec962d6	0.39333218
13	0xbe8bc605	-0.27299514
14	0xbd9646ef	-0.07337748
15	0xbe028e3e	-0.12749574
16	0xbc37337c	-0.011181708
17	0xbdcaa7da	-0.098952964
18	0x3e56567b	0.20931427
19	0xbe9f2ab4	-0.31087267
20	0xbe2a6a59	-0.16642131
21	0xbeba561f	-0.3639383
22	0x3b872be4	0.004125105
23	0xbed6df0b	-0.41967043
24	0x3e53c3c3	0.20680146
25	0xbdccd06d	-0.100006916
26	0x3df2d88c	0.11857709
27	0xbe9f4238	-0.31105208

rho.rho.2.weight f4 [28, 28]
0	0xbd9fd586	-0.07804398
1	0x3c137fc7	0.009002632
2	0xbc88b8bd	-0.016689653
3	0xbe23bedd	-0.15990777
4	0x3df513e9	0.11966688
5	0xbd4258b6	-0.047447883
6	0xbde580a7	-0.11206179
7	0xbd706e10	-0.058698714
8	0xbe47a3b5	-0.19496043
9	0xbe24cf13	-0.16094618
10	0x3dcd8a96	0.10036199
11	0x3db677ec	0.08909592
12	0xbc148889	-0.009065756
13	0x3d1b59e5	0.037927527
14	0x3da239f0	0.07921207
15	0xbe25754f	-0.16158031
16	0x3d898f0c	0.06716737
17	0xbe5fc9ad	-0.21854277
18	0xbdd5f6ac	-0.104474396
19	0xbf32eb25	-0.6989005
20	0x3e02a7d1	0.1275933
21	0xbe27dd15	-0.1639293
22	0xbdeed7c3	-0.11662247
23	0xbdcdaed8	-0.100431144
24	0x3db560f2	0.088563815
25	0xbda09667	-0.07841187
26	0xbe28747f	-0.1645069
27	0x3d35466e	0.04425662
28	0xba2c2cb4	-0.00065679406
29	0xbd631142	-0.05543638
30	0x3e413d6e	0.1887109
31	0xbe32badb	-0.17454092
32	0xbdca2497	-0.0987026
33	0x3d93141a	0.071815684
34	0xba2fd48b	-0.00067073916
35	0xbe0b2fd1	-0.1359246
36	0xbde00a2f	-0.10939442
37	0xbd5847f2	-0.052802987
38	0xbdbe8ffe	-0.09304808
39	0xbcf569ea	-0.02995773
40	0xbdb1a9e2	-0.08674981
41	0xbd10bfaf	-0.035339054
42	0xbe0ce855	-0.13760503
43	0x3e2f2b9b	0.17106478
44	0xbd8b00b1	-0.06787241
45	0x3d065b5b	0.032801967
46	0xbd895169	-0.06704981
47	0xbd63107a	-0.055435635
48	0xbde5963b	-0.11210295
49	0xbd8592ae	-0.065221176
50	0xbdf4c7b3	-0.11952152
51	0xbe35b1c7	-0.17743598
52	0x3d98fd4b	0.07470187
53	0x3e0e3ecf	0.13891147
54	0xbdcd94c7	-0.10038143
55	0x3e163e0f	0.14672111
56	0xbd75c378	-0.060000867
57	0xbdbebd35	-0.09313432
58	0x3d9b463d	0.07581756
59	0x3dc14885	0.0943766
60	0xbe2c540e	-0.1682894
61	0xbd1d7d30	-0.038449466
62	0x3cbd3ae7	0.023099376
63	0x3d670303	0.056399357
64	0xbd517681	-0.051138405
65	0x3c1e3f2d	0.009658617
66	0xbb09c683	-0.0021022863
67	0x3e370997	0.17874752
68	0xbdf5c21f	-0.11999916
69	0x3c59b870	0.013288602
70	0xbe1eeb66	-0.15519485
71	0xbda67f29	-0.081297226
72	0xbd54c494	-0.051945284
73	0xbe2ffad0	-0.17185521
74	0x3d648fe0	0.055801272
75	0x3df6539e	0.120276675
76	0xbdc4dc27	-0.09612303
77	0x3e27390e	0.16330358
78	0x3d9270cf	0.07150423
79	0x3ca0f83d	0.01964962
80	0xbe40dca1	-0.18834163
81	0xbc8154ee	-0.015787568
82	0xbe32e3eb	-0.17469756
83	0xbd5a87fc	-0.05335234
84	0x3dd0c12a	0.10193093
85	0x3de6d726	0.11271505
86	0x3e367ad6	0.17820296
87	0xbd5d4417	-0.054020014
88	0xbd853097	-0.065034084
89	0xbe1b6c04	-0.15177923
90	0xbdbbb2af	-0.091649406
91	0x3d25c88c	0.04047446
92	0xbe3c1865	-0.18368681
93	0xbe276445	-0.16346844
94	0x3e365e18	0.17809331
95	0xbdfbfcb3	-0.12304058
96	0xbd4ae2ea	-0.04953281
97	0xbdea4473	-0.11438837
98	0x3d6c7263	0.057726275
99	0x3df8c779	0.121474214
100	0xbe0fe1f2	-0.14051035
101	0x3da9aa69	0.08284456
102	0xbe000fcf	-0.1250603
103	0x3e7c8bb5	0.24662669
104	0xbd659c8a	-0.05605749
105	0xbc34bbab	-0.011031072
106	0x3db06eca	0.08614881
107	0x3dbd4dc3	0.092433475
108	0x3e18070b	0.14846437
109	0x3d13845d	0.036014903
110	0x3d23ec4c	0.040020272
111	0x3e3e9ae9	0.18613781
112	0xbe0ca57b	-0.13735001
113	0xbc6e60d2	-0.014549451
114	0x3e2bb614	0.16768676
115	0x3e312ffe	0.17303464
116	0x3df1afbb	0.11801096
117	0x3c826e9c	0.015921883
118	0x3e06d0ce	0.1316559
119	0xbe0e0a90	-0.13871217
120	0x3db37534	0.08762589
121	0xbe2f91e8	-0.17145503
122	0xbe11dbbb	-0.14243977
123	0x3e3feb0d	0.18742009
124	0x3dbba73d	0.091627575
125	0x3dc97550	0.09836829
126	0x3e3f703b	0.18695156
127	0x3d2c57d1	0.042075936
128	0xbdb55be4	-0.08855417
129	0xbd98eb5a	-0.07466765
130	0xbd7fe5dd	-0.062475074
131	0xbcb9c60a	-0.02267744
132	0x3e0f47dd	0.13992257
133	0xbd52ebef	-0.051494535
134	0x3de371c5	0.11105684
135	0xbdc57f2f	-0.09643399
136	0xbcd2df1b	-0.02574115
137	0x3d720ebb	0.05909608
138	0xbe39aa59	-0.18131389
139	0xbde743fa	-0.112922624
140	0xbe161727	-0.1465727
141	0xbe5b48fa	-0.21414557
142	0x3e303460	0.1720748
143	0xbc47d094	-0.012195725
144	0xbd98be18	-0.074581325
145	0xbdffdea8	-0.1249364
146	0xbc80b464	-0.015711017
147	0xbe2576b7	-0.16158567
148	0xbe0c77b7	-0.13717543
149	0x3d9ee4e4	0.07758501
150	0xbe43902a	-0.19097963
151	0xbe2b730c	-0.16743106
152	0x3db02606	0.086010024
153	0x3c9e3ca0	0.019316018
154	0x3e159f20	0.14611483
155	0x3e209eaa	0.15685526
156	0x3d862c93	0.065514706
157	0xbd188ecf	-0.037245568
158	0xbe5a558a	-0.21321693
159	0xbd978dc2	-0.07400085
160	0xbd31b2d6	-0.043383442
161	0x3d8dfcc6	0.06932978
162	0xbe160232	-0.14649275
163	0x3cd7af9a	0.02632885
164	0xbdc81394	-0.09769359
165	0x3e14e1a3	0.14539199
166	0xbdc76ab3	-0.09737148
167	0x3e11c1de	0.1423411
168	0x3e11f082	0.14251903
169	0x3dd3b4b4	0.10337201
170	0xbd817a0e	-0.06322108
171	0x3e0efd20	0.13963747
172	0xbe2e3079	-0.17010678
173	0xbdefed84	-0.117152244
174	0xbd687327	-0.056750443
175	0x3c4e4d9f	0.0125917485
176	0x3b5779ad	0.003287892
177	0xbf43e967	-0.7652802
178	0x3e14416f	0.14478086
179	0xbe592f1d	-0.21209379
180	0xbce755a2	-0.028239075
181	0xbe18f107	-0.14935695
182	0xbee2a0bd	-0.4426326
183	0xbddc5887	-0.10759073
184	0x3e2f6881	0.17129709
185	0xbea11e7e	-0.31468576
186	0xbde7b5c1	-0.11313964
187	0xbee238f2	-0.4418407
188	0xbc377d6d	-0.011199337
189	0x3c29ece0	0.010371417
190	0x3dbd7eba	0.09252687
191	0x3d724999	0.05915222
192	0x3ccf5483	0.025308853
193	0xbe94ada5	-0.2903873
194	0x3df6b82f	0.12046849
195	0xbb5847a3	-0.0033001683
196	0x3d5c275e	0.05374848
197	0x3e3edfd0	0.18640065
198	0xbd7d11bb	-0.061784487
199	0x3df1fdef	0.11816012
200	0x3dd88c41	0.10573626
201	0xbdc24ca6	-0.09487276
202	0xbc865365	-0.016397187
203	0xbe6ff48f	-0.23433135
204	0xbe2db802	-0.16964725
205	0xbdcdae4e	-0.100430116
206	0xbe3f44ba	-0.18678561
207	0xbe2da97c	-0.16959184
208	0x3da3e39c	0.080023974
209	0xbd72fe2c	-0.05932443
210	0xbe06e5f6	-0.1317366
211	0xbe1e4bf0	-0.15458655
212	0x3e042e0a	0.12908188
213	0x3ceef1b6	0.029167991
214	0xbdee4dbd	-0.11635921
215	0x3e8d1818	0.27557445
216	0xbe06a044	-0.13147074
217	0xbd923fe8	-0.071410954
218	0x3cf7bafc	0.030240528
219	0x3d206bb8	0.03916523
220	0x3e0c72e4	0.13715702
221	0xbcb4cb24	-0.022069521
222	0x3d5ed869	0.054405604
223	0x3be80034	0.0070801023
224	0x3d2ef831	0.042717163
225	0xbd4c3b60	-0.049861312
226	0xbdef078d	-0.11671362
227	0xbe140bbc	-0.14457601
228	0xb99f68ce	-0.0003040493
229	0xbe70e32c	-0.23524159
230	0x3e2890b5	0.16461451
231	0xbd1890b9	-0.037247393
232	0xbe0dc616	-0.13845095
233	0x3ea34f3f	0.31896397
234	0x3e383f88	0.17992985
235	0xbde9393d	-0.113878705
236	0xbe9acc63	-0.3023406
237	0x3d6c371a	0.057669736
238	0xbcf8dabb	-0.030377736
239	0x3e0fe7fa	0.14053336
240	0x3e10bb40	0.1413393
241	0x3e5f4353	0.21803026
242	0xbdaeefd7	-0.085418396
243	0x3deb7b1f	0.11498093
244	0xbdbb01dd	-0.09131215
245	0xbd8aba25	-0.067737855
246	0x3e1c179a	0.15243378
247	0xbd35d2bd	-0.04439043
248	0x3d717aa1	0.05895484
249	0x3bb545e0	0.0055320114
250	0xbb1c4287	-0.0023843364
251	0xbe11cc92	-0.14238194
252	0xbdcd0327	-0.10010367
253	0x3c40b7e4	0.011762593
254	0xbde4e8e6	-0.11177234
255	0xbe2502e7	-0.16114388

rho.rho.2.bias f4 [28]
0	0x3dd2c98a	0.10292347
1	0xbe22e641	-0.15908147
2	0x3c318fcd	0.010837507
3	0x3d7e21cc	0.06204395
4	0xbd3798bb	-0.04482339
5	0x3d84daca	0.06487043
6	0x3de25617	0.110515766
7	0x3dd02d6a	0.10164912
8	0xbe2563b0	-0.16151309
9	0xbe03295d	-0.12808748
10	0x3e37a192	0.17932728
11	0x3e6464fc	0.22304147
12	0x3d585b02	0.052821167
13	0x3e638e06	0.22222146
14	0x3d85db7c	0.06536004
15	0x3e5e5143	0.21710686
16	0x3d72eb28	0.059306294
17	0x3d961428	0.07328063
18	0x3d2c5482	0.04207278
19	0xbe1b3253	-0.15155916
20	0xbd259cd5	-0.04043277
21	0xbc3389fe	-0.010958193
22	0x3d810947	0.06300598
23	0xbe38c5ec	-0.18044251
24	0xbce7e92d	-0.028309429
25	0x3d9ed2a1	0.07755018
26	0x3e32a984	0.17447478
27	0xbe2d4556	-0.16920981

rho.rho.4.weight f4 [1, 28]
0	0x3cb01ac6	0.021497142
1	0x3e160fb8	0.14654434
2	0x3d9cb957	0.07652538
3	0x3c851917	0.016247315
4	0xbdaa1e91	-0.08306611
5	0x3cdf46e4	0.027255483
6	0x3e125c10	0.14292932
7	0x3d587556	0.052846275
8	0x3d815cc2	0.0631652
9	0x3d9f2e3d	0.07772491
10	0x3dcd323a	0.100193456
11	0x3dcc0769	0.09962351
12	0x3cea969c	0.02863627
13	0x3e31e603	0.17372899
14	0xbdb82448	-0.08991295
15	0x3e2dd69f	0.16976403
16	0xbd77a890	-0.060463488
17	0x3d90165b	0.07035514
18	0x3e042391	0.12904193
19	0x3d1435ba	0.03618405
20	0xbdaac0e0	-0.08337569
21	0x3e0bc5b4	0.13649637
22	0xbdd27f00	-0.102781296
23	0xbdce9b5b	-0.100882255
24	0x3cbc1a36	0.022961717
25	0x3e08fcaa	0.13377634
26	0x3d1364cf	0.03598481
27	0x3bfa2018	0.0076332204

exp_avg f4 [32, 3]
0	0x00000000	0.0
1	0x00000000	0.0
2	0x00000000	0.0
3	0xb86f1157	-5.699819e-05
4	0xb74ab029	-1.2081154e-05
5	0xb7ce0ff1	-2.4564537e-05
6	0xb7c420b2	-2.3380246e-05
7	0xb786fcab	-1.6091702e-05
8	0xb749a7db	-1.20196155e-05
9	0x00000000	0.0
10	0x00000000	0.0
11	0x00000000	0.0
12	0x00000004	6e-45
13	0x00000004	6e-45
14	0x00000004	6e-45
15	0x35fe2486	1.8935104e-06
16	0x355de8f0	8.2667884e-07
17	0x361b0a22	2.3102698e-06
18	0xb6049b1f	-1.9759825e-06
19	0xb4996bf7	-2.8577026e-07
20	0xb589d710	-1.0269887e-06
21	0x00000000	0.0
22	0x00000000	0.0
23	0x00000000	0.0
24	0x00000000	0.0
25	0x00000000	0.0
26	0x00000000	0.0
27	0x00000004	6e-45
28	0x00000004	6e-45
29	0x00000004	6e-45
30	0x3536ebb7	6.8143294e-07
31	0x34d7ae72	4.0173796e-07
32	0x35e2f10d	1.6908467e-06
33	0xb7510d76	-1.2460505e-05
34	0xb64a53e9	-3.0149188e-06
35	0xb68cbdff	-4.1944436e-06
36	0xb80247d5	-3.1061314e-05
37	0xb6da7689	-6.5107056e-06
38	0xb76bcf4d	-1.40553575e-05
39	0x00000004	6e-45
40	0x00000004	6e-45
41	0x00000004	6e-45
42	0xb4845b83	-2.46535e-07
43	0xb4103516	-1.3430358e-07
44	0xb2c0ccfd	-2.244496e-08
45	0x00000004	6e-45
46	0x00000004	6e-45
47	0x00000004	6e-45
48	0xb71208d5	-8.7043345e-06
49	0xb7139c83	-8.7983235e-06
50	0xb678c526	-3.7069635e-06
51	0xb797ec64	-1.811068e-05
52	0xb65553ef	-3.178833e-06
53	0xb6df0e69	-6.6475955e-06
54	0xb64062d4	-2.8667755e-06
55	0xb5173e54	-5.6342583e-07
56	0x349d7695	2.932981e-07
57	0x37e04133	2.6733242e-05
58	0x36e293b8	6.7525216e-06
59	0x374ade59	1.2091908e-05
60	0x00000000	0.0
61	0x00000000	0.0
62	0x00000000	0.0
63	0x00000000	0.0
64	0x00000000	0.0
65	0x00000000	0.0
66	0xb89ce970	-7.482141e-05
67	0xb786bb13	-1.6061158e-05
68	0xb8008291	-3.0639178e-05
69	0xb656ad98	-3.198953e-06
70	0xb53dc1ce	-7.069001e-07
71	0xb44b1cf6	-1.8916384e-07
72	0xb63bd54a	-2.7989322e-06
73	0xb5371413	-6.8202024e-07
74	0xb51d78be	-5.866276e-07
75	0x00000004	6e-45
76	0x00000004	6e-45
77	0x00000004	6e-45
78	0x00000000	0.0
79	0x00000000	0.0
80	0x00000000	0.0
81	0x00000000	0.0
82	0x00000000	0.0
83	0x00000000	0.0
84	0xb746791c	-1.1829918e-05
85	0xb64d7ed5	-3.0621206e-06
86	0xb66af4b0	-3.5011144e-06
87	0xb83badf1	-4.474627e-05
88	0xb6f7967a	-7.3786914e-06
89	0xb79445f8	-1.7675557e-05
90	0x00000000	0.0
91	0x00000000	0.0
92	0x00000000	0.0
93	0x37596d05	1.2959591e-05
94	0x36599245	3.242066e-06
95	0x36df83a7	6.6612442e-06

exp_avg_sq f4 [32, 3]
0	0x00000000	0.0
1	0x00000000	0.0
2	0x00000000	0.0
3	0x33a1082f	7.498635e-08
4	0x325fbf65	1.30238265e-08
5	0x32840c1f	1.5372335e-08
6	0x342a44e7	1.585755e-07
7	0x33a12686	7.504154e-08
8	0x334bddd3	4.746637e-08
9	0x00000000	0.0
10	0x00000000	0.0
11	0x00000000	0.0
12	0x2c0471ca	1.8821494e-12
13	0x2a3fd6be	1.7038711e-13
14	0x29abfa5d	7.6373566e-14
15	0x30848cff	9.644338e-10
16	0x2f968e1a	2.738581e-10
17	0x2fa7488f	3.042868e-10
18	0x30b311ad	1.3028988e-09
19	0x2fa41ed4	2.985333e-10
20	0x2f9fcca9	2.906735e-10
21	0x00000000	0.0
22	0x00000000	0.0
23	0x00000000	0.0
24	0x00000000	0.0
25	0x00000000	0.0
26	0x00000000	0.0
27	0x274d246f	2.8469216e-15
28	0x26f7f9c6	1.7206769e-15
29	0x26e129ca	1.5623838e-15
30	0x30074409	4.92094e-10
31	0x2f1d2a1a	1.4294024e-10
32	0x2f3c983c	1.7152585e-10
33	0x320cf932	8.205733e-09
34	0x30cf5a6f	1.5086935e-09
35	0x30a6444a	1.2097499e-09
36	0x3295e825	1.745145e-08
37	0x3154ce64	3.096738e-09
38	0x318897c7	3.975376e-09
39	0x2c8124a8	3.67047e-12
40	0x2b1f9ca7	5.6705546e-13
41	0x2b1b8b94	5.5260766e-13
42	0x2e9cee0e	7.136346e-11
43	0x2d390a30	1.0518295e-11
44	0x2d46a9f5	1.1292735e-11
45	0x2c14a596	2.1123984e-12
46	0x2aa4fe5f	2.9308758e-13
47	0x2a826122	2.3160038e-13
48	0x3401e8c5	1.2098742e-07
49	0x336c881e	5.507183e-08
50	0x330ff762	3.3519775e-08
51	0x31ae717d	5.0769686e-09
52	0x2f156a12	1.3589155e-10
53	0x301d71a1	5.7277744e-10
54	0x308a0e57	1.0044897e-09
55	0x2ee68903	1.0483527e-10
56	0x2e8baff1	6.3522416e-11
57	0x331ae002	3.6059653e-08
58	0x321390dd	8.589464e-09
59	0x320aa580	8.0702875e-09
60	0x00000000	0.0
61	0x00000000	0.0
62	0x00000000	0.0
63	0x00000000	0.0
64	0x00000000	0.0
65	0x00000000	0.0
66	0x340b8552	1.2993885e-07
67	0x32b7c538	2.1393689e-08
68	0x32c97e12	2.345681e-08
69	0x30b27534	1.2984516e-09
70	0x2f35cb42	1.6534066e-10
71	0x2ed84276	9.8343486e-11
72	0x305faf20	8.1375795e-10
73	0x2ef6004b	1.1186837e-10
74	0x2e9c48f3	7.107017e-11
75	0x2bc765a3	1.416801e-12
76	0x29b6d49c	8.1193055e-14
77	0x2a1626c7	1.333613e-13
78	0x00000000	0.0
79	0x00000000	0.0
80	0x00000000	0.0
81	0x00000000	0.0
82	0x00000000	0.0
83	0x00000000	0.0
84	0x31fbeb59	7.3318174e-09
85	0x30aaf7fd	1.243961e-09
86	0x307d3a35	9.212358e-10
87	0x335ad4ff	5.09508e-08
88	0x3204bec2	7.7267845e-09
89	0x3212561b	8.517897e-09
90	0x00000000	0.0
91	0x00000000	0.0
92	0x00000000	0.0
93	0x3241eb58	1.12875895e-08
94	0x3142ba01	2.8336447e-09
95	0x313d7f35	2.7575429e-09

exp_avg f4 [32]
0	0x00000000	0.0
1	0xb8c462ae	-9.364389e-05
2	0xb857f8aa	-5.149158e-05
3	0x00000000	0.0
4	0x00000004	6e-45
5	0x36a8cb57	5.030462e-06
6	0xb65cb425	-3.2887413e-06
7	0x00000000	0.0
8	0x00000000	0.0
9	0x00000004	6e-45
10	0x363a2943	2.7740177e-06
11	0xb7a500b8	-1.9669867e-05
12	0xb8588a7a	-5.162738e-05
13	0x00000004	6e-45
14	0xb4d882df	-4.0328356e-07
15	0x00000004	6e-45
16	0xb7b1eb52	-2.1209624e-05
17	0xb7ea5a7d	-2.793711e-05
18	0xb6528394	-3.1369027e-06
19	0x383f2aa8	4.5577675e-05
20	0x00000000	0.0
21	0x00000000	0.0
22	0xb8fed97d	-0.00012152174
23	0xb68967ef	-4.0950176e-06
24	0xb6887c3e	-4.0675795e-06
25	0x00000004	6e-45
26	0x00000000	0.0
27	0x00000000	0.0
28	0xb79a4b00	-1.8393155e-05
29	0xb89261de	-6.980052e-05
30	0x00000000	0.0
31	0x37bfc9b5	2.2862901e-05

exp_avg_sq f4 [32]
0	0x00000000	0.0
1	0x348ba0cc	2.6007763e-07
2	0x3553c56e	7.8890923e-07
3	0x00000000	0.0
4	0x2c900aa1	4.093906e-12
5	0x3179b085	3.6334609e-09
6	0x31a7b959	4.8814113e-09
7	0x00000000	0.0
8	0x00000000	0.0
9	0x28a1d42f	1.796661e-14
10	0x30f928d5	1.812874e-09
11	0x32e4dbb6	2.6642606e-08
12	0x3385b276	6.225757e-08
13	0x2d3fb676	1.08976075e-11
14	0x2f586a00	1.9682744e-10
15	0x2ccee098	5.879807e-12
16	0x351c967d	5.833352e-07
17	0x3241b7cd	1.127587e-08
18	0x31157756	2.1750188e-09
19	0x34131b8d	1.3700465e-07
20	0x00000000	0.0
21	0x00000000	0.0
22	0x34e82542	4.3240476e-07
23	0x316579c8	3.339311e-09
24	0x3117e2d7	2.2102336e-09
25	0x2c6bc8ac	3.3506904e-12
26	0x00000000	0.0
27	0x00000000	0.0
28	0x32c1ef38	2.2576941e-08
29	0x342f31c6	1.6316253e-07
30	0x00000000	0.0
31	0x333e1055	4.4252676e-08
