src/lightning_logs/version_130/checkpoints/epoch=429-step=430.ckpt (torch, 60971 bytes, 39 tensors)

phi.phi.0.weight f4 [32, 3]
0.028781092 0.34206837 -0.43875566 -0.4248946 -0.22236897 0.15482073 -0.011439145 0.45777494
-0.0512364 0.15277413 -0.1744828 -0.11348708 -0.5111788 -0.29409388 -0.15482791 -0.07566409
0.1336469 0.2462206 -0.39140946 -0.25141457 0.20970349 0.53381056 -0.062271032 0.48558828
-0.09305926 0.0610918 0.5227769 -0.5355907 -0.36346388 -0.14616501 -0.2250511 0.4988311
-0.3742267 -0.2657733 -0.40336025 -0.54072374 -0.32498008 0.51067287 0.29043654 0.24261974
-0.012839124 -0.34239426 0.09767882 -0.5390689 -0.4171738 -0.37162766 0.29347247 0.2676933
-0.256052 -0.020832175 0.36925054 0.45760268 0.114407234 -0.03273424 0.45857537 -0.2625874
0.17675342 -0.44762284 -0.40015346 -0.29824966 0.29783446 0.26665297 -0.31075463 0.07871695
0.2217227 -0.16319834 0.05936537 0.17099912 0.38452673 0.48403296 -0.50881404 -0.2768991
0.27957284 0.53604233 0.5591826 0.49784955 0.096584134 -0.49157724 0.053111892 -0.36119342
-0.53806394 0.39753705 0.32785374 -0.6898117 0.10806383 -0.09726043 -0.095009424 -0.26428604
0.2220236 -0.3419666 0.23440753 0.32282 0.4413823 0.2158777 -0.5714239 -0.3745253
00000000: 53c6 eb3c 9623 af3e 95a4 e0be c98b d9be
00000010: b1b4 63be 5389 1e3e 406b 3bbc 7a61 ea3e
00000020: 42dd 51bd d270 1c3e 9eab 32be ea6b e8bd
00000030: 9ddc 02bf 7993 96be 358b 1ebe c6f5 9abd
00000040: bcda 083e 4121 7c3e d266 c8be 69b9 80be
00000050: 83bc 563e cfa7 083f e90f 7fbd 079f f83e
00000060: da95 bebd 653b 7a3d b5d4 053f 791c 09bf
00000070: f017 babe 48ac 15be cc73 66be ca66 ff3e
00000080: a49a bfbe 7013 88be 3c85 cebe df6c 0abf
00000090: ca63 a6be 75bb 023f 19b4 943e 4f71 783e
000000a0: 305b 52bc 4d4e afbe d50b c83d 6b00 0abf
000000b0: ce97 d5be fb45 bebe 0642 963e 190f 893e
000000c0: 3f19 83be 3da8 aabc 680e bd3e e64a ea3e
000000d0: 574e ea3d 5714 06bd 64ca ea3e db71 86be
000000e0: d9fe 343e d22e e5be eae0 ccbe 2eb4 98be
000000f0: c27d 983e bd86 883e 3b1b 9fbe 5a36 a13d
00000100: 470b 633e 771d 27be 1a29 733d 651a 2f3e
00000110: b0e0 c43e 2bd3 f73e a341 02bf b8c5 8dbe
00000120: 2c24 8f3e 123a 093f 9726 0f3f 23e6 fe3e
00000130: e7cd c53d 03b0 fbbe db8b 593d 58ee b8be
00000140: 8fbe 09bf fa89 cb3e 72dc a73e 8097 30bf
00000150: 9250 dd3d 7a30 c7bd 4d94 c2bd 8050 87be
00000160: 285a 633e 3f16 afbe 8708 703e aa48 a53e
00000170: dcfc e13e 0b0f 5d3e d648 12bf c8c1 bfbe

phi.phi.0.bias f4 [32]
0.3213862 0.12084019 -0.4503817 -0.33244953 0.6012832 0.29216078 -0.25173923 -0.09031029
-0.5499828 -0.010377374 -0.43477875 -0.445343 -0.017454594 0.046405178 -0.23644242 0.2695508
-0.3513402 0.4081977 0.46957117 -0.48686963 -0.10818217 -0.06908103 0.12105551 0.06868519
0.28123206 0.02258446 -0.2817058 0.1590323 -0.5538226 -0.34219936 -0.118489265 -0.281235
00000000: bb8c a43e 107b f73d 6e98 e6be d336 aabe
00000010: b2ed 193f 1996 953e f7e3 80be 9af4 b8bd
00000020: accb 0cbf dc05 2abc 529b debe ff03 e4be
00000030: f0fc 8ebc 5b13 3e3d f61d 72be 9002 8a3e
00000040: dde2 b3be 4aff d03e a26b f03e fa46 f9be
00000050: 9d8e ddbd 5b7a 8dbd f4eb f73d d2aa 8c3d
00000060: a6fd 8f3e 0c03 b93c be3b 90be 5dd9 223e
00000070: 51c7 0dbf c134 afbe 80aa f2bd 09fe 8fbe

phi.phi.2.weight f4 [32, 32]
-0.061842386 -0.14489001 -0.03760308 0.037787158 -0.11516397 -0.009072067 0.12654574 -0.018172689
0.0049130158 -0.015250331 0.03577631 0.1124016 0.16745105 0.11226308 0.16783418 -0.012784783
-0.1588023 -0.08380581 0.120368175 -0.0011459517 -0.08786621 -0.13546605 -0.16543683 -0.14920098
-0.03585681 0.0969454 0.09557274 -0.17048907 0.11027013 -0.13832943 -0.03737241 -0.07167811
0.0491538 -0.034708813 -0.15863055 -0.1526357 0.03863982 0.08061648 -0.08030521 0.13906334
-0.15910934 -0.011930171 0.15546086 -0.072105795 0.24259327 0.13162374 -0.15953405 0.19458608
-0.020399053 0.0033495298 0.21791996 -0.1428524 0.116144724 0.04703591 0.20086744 0.12341998
0.16586961 0.13751024 -0.042510323 0.0426543 -0.14567839 0.09578542 0.22485164 0.120955005
-0.18474545 0.007884221 -0.12461592 -0.09731277 -0.16304728 0.00036013947 -0.10534356 -0.06390033
0.007436664 0.11395433 -0.13362905 -0.12135936 -0.16261546 0.06368311 -0.06354503 0.089058094
0.06392378 -0.037669055 -0.061368234 -0.03494549 -0.037846953 -0.10041496 -0.061289534 -0.037494335
-0.19832826 -0.15270464 0.1427459 -0.20351546 -0.012693661 0.17487435 0.0038150328 0.005005086
-0.15319644 0.08757126 -0.12591463 -0.050180584 -0.05931147 -0.026178397 0.0019336342 0.14580674
0.022068596 0.15833761 0.108136505 -0.11176069 0.07928507 -0.12496275 -0.074922405 0.051994037
0.058370266 0.13262284 -0.05690722 0.000282995 0.091008805 -0.17095935 0.12780613 -0.14618061
0.002436425 -0.030055001 -0.093103506 0.023364758 0.14617996 -0.051675282 -0.10495128 -0.06537888
-0.17521192 0.079795934 -0.08489943 -0.117970206 -0.1018413 0.10163883 0.093616284 0.13567998
0.06412099 -0.059036292 -0.04939992 0.052225128 0.14531657 0.048064202 -0.083641075 -0.083098724
-0.1671369 0.03819225 -0.09920399 -0.15760982 0.15501133 -0.114800766 -0.02011039 0.05064538
0.005631809 -0.11894981 -0.14289244 0.14090559 0.028786086 0.14665829 -0.059262726 0.052070532
-0.081820816 -0.0078614615 -0.107664816 0.05978604 0.0064616175 -0.04653259 -0.03975746 -0.15220898
0.122249 -0.13159683 0.07241931 -0.059441786 -0.124106266 -0.010610404 -0.091827884 -0.0024608017
0.03471556 -0.1737889 -0.013397337 0.07529435 0.031074202 -0.06450949 -0.18655469 -0.07033029
0.018884776 -0.10486917 0.06710109 0.07558644 -0.09230423 0.0017433411 0.031212432 0.013855376
-0.0530485 0.022073295 -0.1389726 0.0138925705 0.060687706 0.084297664 0.10390066 -0.044053223
0.082557224 -0.08599826 -0.1464928 -0.152014 0.106780976 0.034012426 -0.122194014 -0.0025189314
0.13349603 0.10549497 0.08396263 0.13695842 -0.09008135 -0.13469562 0.07365282 0.02394063
-0.17537448 0.0844842 0.085411176 0.022698939 -0.11079945 0.050717197 -0.122445725 0.13812563
-0.11273008 0.06882138 0.031399403 0.07521286 -0.13787289 0.005828259 -0.12347338 -0.042985562
-0.119605675 -0.17439684 -0.14196154 0.13955991 0.013398626 0.085526325 0.14161956 -0.23738739
-0.120637916 -0.109310344 -0.19632594 0.12275311 -0.21582913 -0.1659926 -0.25241277 -0.18159886
0.06440845 0.06321872 0.12654342 0.055962145 0.15718745 -0.04526597 -0.0041659097 0.15749574
00000000: 714e 7dbd 0c5e 14be b005 1abd b5c6 1a3d
00000010: 16db ebbd 02a3 14bc 3595 013e e4de 94bc
00000020: 5dfd a03b 86dc 79bc 2e8a 123d cf32 e63d
00000030: 4a78 2b3e 30ea e53d b9dc 2b3e 4477 51bc
00000040: 129d 22be 61a2 abbd 9783 f63d c233 96ba
00000050: 33f3 b3bd 9db7 0abe 4668 29be 24c8 18be
00000060: 97de 12bd 4f8b c63d a4bb c33d b094 2ebe
00000070: 4ed5 e13d 3ba6 0dbe d013 19bd f9cb 92bd
00000080: 7f55 493d d42a 0ebd 0c70 22be 884c 1cbe
00000090: ca44 1e3d 411a a53d 0f77 a4bd 9f66 0e3e
000000a0: 8fed 22be c476 43bc 2231 1f3e 34ac 93bd
000000b0: 5f6a 783e 60c8 063e e55c 23be 9341 473e
000000c0: ea1b a7bc c983 5b3b 6926 5f3e e647 12be
000000d0: 49dd ed3d baa8 403d 32b0 4d3e 9dc3 fc3d
000000e0: b9d9 293e 7ccf 0c3e 4e1f 2ebd 46b6 2e3d
000000f0: b72c 15be 252b c43d 823f 663e 42b7 f73d
00000100: e92d 3dbe d22c 013c a236 ffbd eb4b c7bd
00000110: def5 26be 1ad1 bc39 5dbe d7bd 2dde 82bd
00000120: 42af f33b e360 e93d 0ed6 08be 428b f8bd
00000130: ab84 26be 4a6c 823d e623 82bd 1764 b63d
00000140: 79ea 823d de4a 1abd 425d 7bbd 0123 0fbd
00000150: 6805 1bbd 5ca6 cdbd bc0a 7bbd a993 19bd
00000160: 9016 4bbe 9b5e 1cbe fb2b 123e 5b66 50be
00000170: 13f9 4fbc 4312 333e a105 7a3b b401 a43b
00000180: 87df 1cbe 9058 b33d c4ef 00be 288a 4dbd
00000190: 95f0 72bd 1474 d6bc ff71 fd3a 5d4e 153e
000001a0: 33c9 b43c 4123 223e ac76 dd3d cae2 e4bd
000001b0: 3660 a23d 78ec ffbd eb70 99bd b3f7 543d
000001c0: a915 6f3d 48ce 073e 8c17 69bd f25e 9439
000001d0: d362 ba3d f80f 2fbe 9cdf 023e 5fb0 15be
000001e0: 6eac 1f3b e835 f6bc 0dad bebd 7367 bf3c
000001f0: 33b0 153e 76a9 53bd b2f0 d6bd 5de5 85bd
00000200: c16a 33be 0d6c a33d c1df adbd 5d9a f1bd
00000210: 2c92 d0bd 0528 d03d e5b9 bf3d b1ef 0a3e
00000220: de51 833d 0ad0 71bd 9257 4abd 04ea 553d
00000230: decd 143e f8de 443d 034c abbd aa2f aabd
00000240: ef25 2bbe 7a6f 1c3d 762b cbbd 7864 21be
00000250: 4abb 1e3e aa1c ebbd 8bbe a4bc 8871 4f3d
00000260: 0a8b b83b f59b f3bd 6552 12be 8e49 103e
00000270: ccd0 eb3c 972d 163e 79bd 72bd e947 553d
00000280: ac91 a7bd 5ccd 00bc 5f7f dcbd 35e2 743d
00000290: fabb d33b f598 3ebd b8d8 22bd acdc 1bbe
000002a0: af5d fa3d 52c1 06be 9350 943d 3b79 73bd
000002b0: 6d2b febd 43d7 2dbc 4210 bcbd 6745 21bb
000002c0: e731 0e3d b8f5 31be 8180 5bbc ed33 9a3d
000002d0: 538f fe3c 8d1d 84bd 3108 3fbe 5409 90bd
000002e0: 3fb4 9a3c a6c5 d6bd 4c6c 893d 10cd 9a3d
000002f0: 000a bdbd d280 e43a 37b1 ff3c a901 633c
00000300: 6249 59bd 0ed3 b43c d54e 0ebe aa9d 633c
00000310: ac93 783d 41a4 ac3d dfc9 d43d 2771 34bd
00000320: c313 a93d db1f b0bd 3502 16be 8fa9 1bbe
00000330: fcaf da3d 9d50 0b3d db40 fabd a814 25bb
00000340: 2fb3 083e bf0d d83d 99f4 ab3d d43e 0c3e
00000350: 927c b8bd a6ed 09be 4ad7 963d 241f c43c
00000360: 5e95 33be 0d06 ad3d 0eec ae3d 20f3 b93c
00000370: d2ea e2bd d6bc 4f3d d3c4 fabd ce70 0d3e
00000380: 07df e6bd 39f2 8c3d a99c 003d 3309 9a3d
00000390: 8d2e 0dbe fbfa be3b 9ddf fcbd a111 30bd
000003a0: d2f3 f4bd 1695 32be 5e5e 11be cbe8 0e3e
000003b0: e985 5b3c 6d28 af3d b804 113e ae15 73be
000003c0: 0311 f7bd 1ade dfbd ab09 49be fc65 fb3d
000003d0: 5002 5dbe f7f9 29be 3f3c 81be 0df5 39be
000003e0: 94e8 833d d178 813d 9994 013e 9038 653d
000003f0: bff5 203e cf68 39bd 2f82 88bb 9046 213e

phi.phi.2.bias f4 [32]
-0.1485926 0.084764965 0.079244345 -0.15139078 -0.07885296 0.11270946 -0.09971599 -0.0075904103
-0.17005886 -0.055592895 -0.14986578 0.06158322 0.018893886 -0.18904048 -0.05436975 0.12251907
-0.020703476 -0.100953035 -0.118712395 0.05432055 -0.12672278 -0.117436185 -0.05453899 -0.005937126
0.030184519 0.0053047286 -0.04255468 -0.15154229 -0.10752277 -0.024203306 0.082778744 -0.17207612
00000000: a928 18be 4199 ad3d dc4a a23d 2f06 1bbe
00000010: a97d a1bd 38d4 e63d e637 ccbd fab8 f8bb
00000020: e923 2ebe 60b5 63bd 6a76 19be b03e 7c3d
00000030: 5ac7 9a3c d493 41be d1b2 5ebd 47eb fa3d
00000040: 569a a9bc 77c0 cebd 7c1f f3bd 3a7f 5e3d
00000050: 9ec3 01be 6282 f0bd 4764 5fbd 398c c2bb
00000060: 8645 f73c 4ad3 ad3b d14d 2ebd e72d 1bbe
00000070: e634 dcbd 0346 c6bc e787 a93d b934 30be

phi.phi.4.weight f4 [32, 32]
-0.1127586 -0.14382377 -0.03230714 0.13775738 0.1549517 -0.15389389 -0.007659178 0.103761934
0.07792272 0.14479847 -0.0049034697 -0.11877498 0.11694317 -0.060619306 0.09153252 -0.043564226
0.075146735 0.15899755 0.16437678 -0.16087829 -0.1169343 -0.0730913 -0.11273068 0.16961725
-0.015612709 -0.11726315 -0.07866376 -0.097645186 0.07212301 -0.15419367 -0.16482714 -0.1742596
0.07610663 0.08740805 -0.10979231 0.043836832 0.13049385 0.025685892 -0.037402693 0.013060676
-0.018955356 0.089006916 -0.120033376 0.0896439 0.099635504 -0.10710452 0.14434941 0.17362738
-0.06969044 -0.04951416 0.08809764 -0.13849047 0.069907755 0.04124284 0.111427605 -0.15354943
-0.14686339 0.079395555 0.06367687 -0.16453777 -0.0985812 -0.16174687 -0.12664688 -0.07976158
0.14628951 -0.11754266 0.041505955 0.16788146 0.08056284 -0.2258305 0.0135073885 -0.0040048524
0.13701352 -0.17437857 0.042137872 0.07021508 -0.1644668 -0.041515008 0.07767118 -0.1902285
-0.023524666 0.078113616 -0.013462939 0.10063285 0.14474115 0.066023715 -0.022034645 0.06370544
-0.2386271 -0.09539389 -0.0378092 -0.052512717 0.09756939 -0.00052804727 0.053775452 0.120245166
-0.13205282 -0.020474454 0.025813743 0.045978293 0.09090435 -0.07034064 -0.053304255 0.14791636
-0.047444094 -0.1227964 0.11986163 0.11970531 -0.055431325 -0.035341207 -0.13043998 -0.1476251
0.06647679 -0.07551769 0.14073113 -0.14154743 -0.024434973 0.0038169238 0.09085387 0.1430708
0.11971397 0.0778164 -0.08113941 -0.12624466 -0.1581467 0.008768947 0.17145222 -0.033577405
-0.0074420376 -0.21086216 -0.005727759 0.11207348 -0.17428695 -0.1901123 0.05835792 -0.026497196
-0.0110213375 0.031600293 -0.09164646 -0.19523083 -0.16518542 0.056288317 -0.09084893 -0.17052187
-0.12642932 -0.09641808 -0.11192149 -0.22400227 0.13228971 -0.017271925 -0.08915228 -0.14522825
0.0069671706 -0.06546137 0.046614897 0.04867396 -0.17542273 -0.041757237 -0.049204245 0.15439391
-0.06396134 -0.04544372 0.15231091 -0.14435627 0.012771844 0.17032474 -0.079261005 0.16947266
0.15686114 0.16446237 -0.01686858 0.15991808 -0.077025026 -0.060511578 0.06686271 0.037343584
0.09745268 0.1679943 -0.11066028 0.0938201 0.05914322 0.09326174 0.08382262 -0.066126846
-0.13971652 0.14148937 -0.100804366 0.11301814 -0.16840518 -0.030582786 0.0018736381 0.030586537
0.014289214 0.049837377 -0.07965736 0.04329339 0.17493545 -0.183359 -0.07369863 -0.14186656
0.15510911 0.1513279 -0.073507495 -0.12661006 -0.10956152 0.066557325 -0.08795974 0.2161439
0.0863856 0.15473345 0.08047936 -0.1804922 0.051742926 -0.057849392 0.088698275 -0.04889583
-0.019021297 -0.12226032 -0.15798986 0.12494618 -0.026143763 0.022609828 0.060064115 -0.073817424
0.062752336 -0.18513522 -0.023378698 -0.04035786 0.12380143 0.0863412 0.075977944 -0.06401541
0.104243994 -0.17662437 -0.1705184 -0.044943385 0.0009858779 -0.19877051 -0.15250652 -0.18007608
-0.261387 0.016859328 0.060883515 -0.005377534 -0.08399243 -0.25458062 -0.14261937 -0.0859616
0.044520807 -0.07158971 -0.09619215 -0.09430267 -0.08114658 -0.25853777 -0.21601988 0.17401731
00000000: fbed e6bd 8a46 13be 7e54 04bd 4510 0d3e
00000010: a9ab 1e3e 5c96 1dbe d8f9 fabb 2381 d43d
00000020: f295 9f3d 0d46 143e 49ad a0bb 4c40 f3bd
00000030: e77f ef3d f34b 78bd 6775 bb3d 6770 32bd
00000040: 88e6 993d 41d0 223e 6352 283e 47bd 24be
00000050: 407b efbd e4b0 95bd 58df e6bd 25b0 2d3e
00000060: 73cc 7fbc aa27 f0bd 771a a1bd 33fa c7bd
00000070: 3bb5 933d f2e4 1dbe 72c8 28be 1c71 32be
00000080: cbdd 9b3d fe02 b33d cada e0bd 408e 333d
00000090: 2ea0 053e 386b d23c 9133 19bd 72fc 553c
000000a0: 4348 9bbc 4249 b63d 0fd4 f5bd 3997 b73d
000000b0: b30d cc3d 9d59 dbbd 55d0 133e 60cb 313e
000000c0: ddb9 8ebd 5ccf 4abd 896c b43d 72d0 0dbe
000000d0: cc2b 8f3d 41ee 283d 2834 e43d 103c 1dbe
000000e0: 5b63 16be 239a a23d 0569 823d 977c 28be
000000f0: f1e4 c9bd f9a0 25be b8af 01be 0a5a a3bd
00000100: ebcc 153e 35ba f0bd 2602 2a3d 1ee9 2b3e
00000110: 21fe a43d 1c40 67be 184e 5d3c 233b 83bb
00000120: 464d 0c3e 4c90 32be c398 2c3d edcc 8f3d
00000130: fc69 28be a40b 2abd 1112 9f3d 43cb 42be
00000140: cdb6 c0bc 08fa 9f3d a993 5cbc 9818 ce3d
00000150: 0637 143e 7137 873d 0082 b4bc ff77 823d
00000160: aa5a 74be df5d c3bd d2dd 1abd 9317 57bd
00000170: 76d2 c73d a76c 0aba a643 5c3d 1943 f63d
00000180: db38 07be 0bba a7bc 5877 d33c bc53 3c3d
00000190: 0f2c ba3d c10e 90bd 9055 5abd 6377 173e
000001a0: bd54 42bd ae7c fbbd 047a f53d 0f28 f53d
000001b0: f50b 63bd f1c1 10bd 0f92 05be 092b 17be
000001c0: fc24 883d 05a9 9abd d21b 103e cff1 10be
000001d0: da2b c8bc 5b25 7a3b 9811 ba3d 2781 123e
000001e0: 992c f53d 345e 9f3d 6b2c a6bd 4846 01be
000001f0: 35f1 21be a1ab 0f3c 2c91 2f3e 7688 09bd
00000200: 56dc f3bb 40ec 57be edaf bbbb c886 e53d
00000210: 4778 32be ccac 42be b708 6f3d a610 d9bc
00000220: d792 34bc 4f6f 013d 24b1 bbbd 97ea 47be
00000230: 5e26 29be 948e 663d 010f babd 499d 2ebe
00000240: b076 01be d876 c5bd 1837 e5bd da60 65be
00000250: f476 073e da7d 8dbc 7895 b6bd b7b6 14be
00000260: dd4c e43b 9c10 86bd 43ef 3e3d 595e 473d
00000270: 04a2 33be a309 2bbd 648a 49bd 7019 1e3e
00000280: 2afe 82bd 3223 3abd 64f7 1b3e 21d2 13be
00000290: ff40 513c 9c69 2e3e 9853 a2bd 3e8a 2d3e
000002a0: 35a0 203e d368 283e fa2f 8abc 91c1 233e
000002b0: 4cbf 9dbd fdda 77bd 51ef 883d 96f5 183d
000002c0: 4595 c73d b306 2c3e dba1 e2bd c124 c03d
000002d0: 2940 723d 0300 bf3d 32ab ab3d 836d 87bd
000002e0: d911 0fbe 97e2 103e 8572 cebd 0e76 e73d
000002f0: 6872 2cbe c088 fabc dd94 f53a 9e90 fa3c
00000300: 4f1d 6a3c 4722 4c3d 6623 a3bd 6954 313d
00000310: 4722 333e 76c2 3bbe 4fef 96bd 7845 11be
00000320: ecd4 1e3e b3f5 1a3e 198b 96bd 11a6 01be
00000330: ca61 e0bd 354f 883d 3c24 b4bd d454 5d3e
00000340: efea b03d 7272 1e3e 5dd2 a43d f3d2 38be
00000350: 64f0 533d 7cf3 6cbd 71a7 b53d fe46 48bd
00000360: 8dd2 9bbc 9e63 fabd 18c8 21be c8e3 ff3d
00000370: 722b d6bc 3f38 b93c ca05 763d 972d 97bd
00000380: 4c84 803d 1694 3dbe af84 bfbc 494e 25bd
00000390: 9b8b fd3d a8d3 b03d 539a 9b3d 831a 83bd
000003a0: e07d d53d 05dd 34be 609c 2ebe 8e16 38bd
000003b0: 9338 813a 7f8a 4bbe ab2a 1cbe dd65 38be
000003c0: 84d4 85be 931c 8a3c fe60 793d 0636 b0bb
000003d0: 3904 acbd 6458 82be d00a 12be a30c b0bd
000003e0: 735b 363d a09d 92bd 6400 c5bd c221 c1bd
000003f0: 2e30 a6bd 105f 84be 5134 5dbe 9831 323e

phi.phi.4.bias f4 [32]
-0.11037178 -0.15207662 -0.059906866 -0.085711725 0.052622445 -0.13896589 0.10683349 0.026134117
0.07690736 -0.12050404 -0.108356155 -0.16684812 0.22298825 -0.01769553 -0.021766065 -0.027247747
0.11182799 -0.14505929 0.09985868 -0.18722993 0.11290235 -0.13669516 -0.07891704 -0.024298396
0.07114495 -0.11340457 -0.20589916 0.20400785 0.20676489 0.1274182 0.22899942 0.033522375
00000000: 9a0a e2bd f9b9 1bbe e760 75bd a189 afbd
00000010: a28a 573d 134d 0ebe 84cb da3d 3717 d63c
00000020: 9b81 9d3d d2ca f6bd d5e9 ddbd 3cda 2abe
00000030: 0857 643e 37f6 90bc bf4e b2bc ab36 dfbc
00000040: 1306 e53d 6c8a 14be b582 cc3d 34b9 3fbe
00000050: 5939 e73d d1f9 0bbe 429f a1bd 6e0d c7bc
00000060: 72b4 913d a840 e8bd 3bd7 52be 6fe7 503e
00000070: 2dba 533e eb79 023e d37e 6a3e c24e 093d

phi.phi.6.weight f4 [7, 32]
-0.0138521725 -0.1408018 -0.07866195 -0.12171021 0.028517406 0.1029383 0.0068355547 0.06255298
0.06948362 -0.048099805 -0.0047853743 0.13587937 0.22253963 0.1835567 -0.017434845 0.0031351354
0.17526142 -0.058800627 0.006754065 0.12412984 0.081671014 -0.05889252 0.14895296 0.029340908
0.10436736 -0.03168825 -0.03920153 0.18276642 0.07822673 -0.005092205 0.22411855 0.12350979
0.050347 0.041807145 -0.056152992 0.10137556 -0.09869887 -0.10405867 0.0074475356 -0.012891458
0.0072527425 -0.0796889 -0.023459041 -0.014050031 -0.013441462 -0.195636 -0.16476639 0.06614912
-0.15684018 -0.014870946 -0.0110471565 0.02479459 0.05390691 -0.03688186 0.04376554 -0.015823444
-0.033915196 0.06481972 0.12059962 -0.22755188 -0.13369332 -0.2186833 -0.13053459 0.047705296
-0.16749625 -0.15839513 0.0423093 -0.10439319 0.06916611 0.055081695 -0.015664553 0.080386184
-0.22379524 0.069414794 0.05732827 -0.11845976 -0.017030722 -0.04926758 -0.07095645 -0.019145522
-0.1433821 0.15458003 0.09210451 -0.018858122 -0.2168016 -0.07085356 0.011679714 0.11816126
0.0056876326 0.051450152 0.046905078 -0.160339 -0.16970077 -0.21804729 -0.061437473 -0.005278723
-0.012569665 0.17159115 -0.093776256 -0.11535156 -0.03058861 -0.049782276 -0.08428644 0.11123407
-0.065126024 0.094370246 0.023607735 -0.065764785 0.06955279 -0.16049942 0.005848992 0.039734803
0.019290913 -0.1631047 -0.051381852 -0.04577097 0.05456363 -0.00057716324 0.07085157 0.10628872
-0.09946639 -0.011325996 0.14181975 -0.20253102 -0.18224537 -0.04712204 -0.13008012 -0.049927607
0.15615746 -0.020492598 -0.15072592 -0.08035872 0.16234584 -0.03883596 -0.14652582 0.07957188
0.021884287 -0.1558604 0.14721727 0.099547334 0.0846632 0.008321899 -0.059600953 -0.057708263
0.016695378 -0.034268845 -0.03432017 -0.17129453 -0.15543996 0.06566327 -0.008714894 -0.08498552
-0.15419656 0.043162912 -0.03554252 -0.24276356 0.101849325 0.017136004 -0.17459391 -0.19679087
0.17082158 0.00073809666 -0.024185067 0.10172557 0.04885872 0.012109738 -0.13741039 -0.063975975
-0.030395253 0.065142415 -0.12797707 0.17423266 -0.0538724 -0.1461122 0.06986571 -0.15672469
-0.14842844 0.06639751 -0.15720564 0.08810603 -0.02176964 -0.084665015 -0.17543888 0.055870388
0.033581242 -0.1325098 -0.15631574 -0.15285477 -0.016411532 -0.03536987 0.011506301 -0.0055701667
-0.009265984 0.09328975 0.1057837 0.14722206 0.09612872 -0.05966272 -0.12850568 -0.08255923
-0.01166138 0.009192533 -0.015757188 -0.1141847 -0.20982964 0.08045572 -0.04752744 -0.023894692
-0.18109354 -0.08763879 -0.028005961 0.07445595 -0.13491565 -0.12524222 0.14003529 -0.09104294
-0.22491556 -0.027579928 0.16821083 -0.037022848 -0.045704886 -0.0933803 0.040337715 -0.15374823
00000000: 39f4 62bc 592e 10be 8419 a1bd 3443 f9bd
00000010: 569d e93c 51d1 d23d cafc df3b c71b 803d
00000020: 6e4d 8e3d 4d04 45bd a1ce 9cbb f623 0b3e
00000030: 6ee1 633e 4af6 3b3e 85d3 8ebc d876 4d3b
00000040: bb77 333e edd8 70bd 3451 dd3b c937 fe3d
00000050: 2243 a73d 4839 71bd 2087 183e 585c f03c
00000060: 8ebe d53d 8acb 01bd c991 20bd 1f27 3b3e
00000070: 5635 a03d 83dc a6bb 557f 653e b3f2 fc3d
00000080: a838 4e3d f83d 2b3d ae00 66bd fd9d cf3d
00000090: a222 cabd b61c d5bd 750a f43b b236 53bc
000000a0: 6aa8 ed3b ef33 a3bd 2d2d c0bc 1a32 66bc
000000b0: 9439 5cbc ce54 48be 85b8 28be 3179 873d
000000c0: b69a 20be 45a5 73bc 22ff 34bc 061e cb3c
000000d0: 7ecd 5c3d 6f11 17bd 7f43 333d 2ba0 81bc
000000e0: a9ea 0abd 34c0 843d effc f63d 5c03 69be
000000f0: e7e6 08be 84ee 5fbe dcaa 05be a166 433d
00000100: 2384 2bbe 5532 22be 844c 2d3d 19cc d5bd
00000110: f6a6 8d3d 589d 613d f352 80bc 83a1 a43d
00000120: 942a 65be 5829 8e3d 0cd1 6a3d 089b f2bd
00000130: 0384 8bbc cdcc 49bd 9e51 91bd 12d7 9cbc
00000140: c2d2 12be 3a4a 1e3e 4aa1 bc3d 597c 9abc
00000150: 3d01 5ebe ac1b 91bd 455c 3f3c 88fe f13d
00000160: 525f ba3b 65bd 523d 8a1f 403d e82f 24be
00000170: 0ac6 2dbe ca47 5fbe dca5 7bbd 23f9 acbb
00000180: fff0 4dbc 97b5 2f3e c40d c0bd 703d ecbd
00000190: f794 fabc 80e8 4bbd 5e9e acbd b0ce e33d
000001a0: cb60 85bd 3045 c13d 0265 c13c b0af 86bd
000001b0: b171 8e3d f659 24be e7a8 bf3b f6c0 223d
000001c0: fa07 9e3c eb04 27be c775 52bd 577a 3bbd
000001d0: 1d7e 5f3d c54c 17ba a11a 913d e7ad d93d
000001e0: 09b5 cbbd ac90 39bc 3239 113e 4b64 4fbe
000001f0: 889e 3abe 0a03 41bd b933 05be e480 4cbd
00000200: bee7 1f3e 18e0 a7bc e557 1abe 1d93 a4bd
00000210: fd3d 263e 7512 1fbd dd0a 16be 95f6 a23d
00000220: ad46 b33c de99 1fbe 20c0 163e 79df cb3d
00000230: e663 ad3d 9358 083c 2120 74bd 805f 6cbd
00000240: bfc4 883c 7d5d 0cbd 4e93 0cbd d567 2fbe
00000250: a72b 1fbe 777a 863d eac8 0ebc e30c aebd
00000260: b4e5 1dbe 98cb 303d 0995 11bd 0397 78be
00000270: 6196 d03d ce60 8c3c bfc8 32be 8c83 49be
00000280: daeb 2e3e d47c 413a c31f c6bc 7f55 d03d
00000290: 1520 483d ec67 463c 4fb5 0cbe d605 83bd
000002a0: 77ff f8bc 6369 853d 6c0c 03be 0c6a 323e
000002b0: 4ea9 5cbd 709e 15be c115 8f3d 707c 20be
000002c0: a0fd 17be 6bfb 873d 84fa 20be ef70 b43d
000002d0: 3e56 b2bc da64 adbd 40a6 33be 59d8 643d
000002e0: 7c8c 093d a6b0 07be 3c11 20be f685 1cbe
000002f0: 7a71 86bc ffdf 10bd ed84 3c3c f285 b6bb
00000300: 5bd0 17bc b20e bf3d 20a5 d83d 61c1 163e
00000310: 22df c43d e560 74bd fe96 03be d014 a9bd
00000320: 5f0f 3fbc 479c 163c 3815 81bc abd9 e9bd
00000330: 95dd 56be f8c5 a43d 22ac 42bd cdbe c3bc
00000340: 9670 39be f77b b3bd c26c e5bc 5c7c 983d
00000350: 5427 0abe 7f3f 00be 6965 0f3e b974 babd
00000360: 4450 66be 4def e1bc 763f 2c3e 45a5 17bd
00000370: 0c35 3bbd 2c3e bfbd 2939 253d 2d70 1dbe

phi.phi.6.bias f4 [7]
0.21499857 -0.018292567 -0.040399108 -0.035718612 -0.17788245 0.10833359 0.023968145
00000000: 9628 5c3e 4bda 95bc 8979 25bd ae4d 12bd
00000010: d126 36be 00de dd3d d858 c43c

rho.rho.0.weight f4 [28, 7]
-0.29561263 -0.35191578 -0.09729906 0.25110152 -0.18608385 0.35031143 -0.19003138 -0.3414162
0.16626185 -0.22842056 -0.059581682 -0.117888615 -0.03003275 -0.32934806 -0.4314427 0.102431715
-0.101458855 -0.28805318 -0.009628519 -0.4211873 0.023501346 0.047282886 0.30652696 -0.3639514
-0.105881765 0.13156267 0.25109172 -0.3179292 0.107102945 0.15604796 0.22786374 -0.26057482
0.34871858 -0.21146648 -0.23265554 0.020848146 0.26018742 -0.3026865 0.141752 0.030407224
0.034722824 0.29062715 0.06326159 -0.2537293 -0.05612205 0.13506995 -0.24847652 0.013134418
-0.12681387 -0.075130716 0.13521339 -0.30419326 -0.24265863 0.1723912 -0.3738222 0.26011074
-0.38611618 -0.06612122 0.020682722 0.08909007 -0.23459034 -0.03684004 0.07926163 0.12554333
-0.3444686 -0.24430265 0.050055925 -0.08766976 -0.3568607 -0.3760125 -0.30980128 -0.204433
-0.10219486 -0.20240462 -0.33156824 0.04017999 0.3001528 -0.23825823 -0.022237666 -0.06126378
0.1166217 -0.26212093 -0.04209532 0.29273653 0.26139542 -0.31455922 0.00197374 0.06357715
-0.050943606 -0.30596784 -0.18237635 0.25114504 -0.122364655 -0.024323594 0.110906415 -0.23199087
0.033688664 0.22481799 -0.22099136 0.10996396 -0.012909786 0.20781843 0.25114992 0.100276105
0.011420476 -0.3253634 0.15048817 0.23043208 -0.13728628 -0.375297 0.3062891 -0.08871888
-0.053160906 -0.16629162 0.18300556 0.30856806 0.3101741 -0.27368763 0.1919725 0.1844209
0.036875043 -0.3044431 -0.16229536 -0.373953 0.25279534 0.3736144 0.12707923 0.18077317
0.14228807 0.4238918 -0.12930241 -0.22426498 -0.28681326 -0.037427396 0.025926672 0.103464015
-0.2629439 -0.04373779 -0.3114431 -0.3074513 -0.0022877639 -0.36895087 0.10064368 -0.34818035
-0.31114805 -0.12996434 -0.36068442 0.25626776 0.3696602 -0.14828597 0.13921764 0.26492772
0.06182157 0.0393673 -0.35650033 0.27483267 -0.3315114 -0.06999892 0.023445705 -0.12447958
-0.13824229 -0.32238528 0.080856346 0.013332937 0.38956127 -0.050571233 0.2289468 0.10122324
-0.23322512 -0.1499102 -0.0980772 -0.056134846 -0.06227063 0.040796775 0.2498924 0.05940979
0.13690355 0.23340075 0.081470944 0.17423056 0.19826151 0.35377973 -0.41660196 0.18928039
0.029243832 -0.007841735 -0.1457212 0.1561857 0.42816857 -0.42833486 0.14418098 0.20508987
0.006008024 0.050028436 0.18719025 -0.030412618
00000000: 8a5a 97be 4e2e b4be bb44 c7bd 6190 803e
00000010: c48c 3ebe 055c b33e 9697 42be 1bce aebe
00000020: 8c40 2a3e 14e7 69be ec0b 74bd 966f f1bd
00000030: 3e07 f6bc 4fa0 a8be 0fe6 dcbe b8c7 d13d
00000040: a9c9 cfbd b57b 93be f0c0 1dbc dda5 d7be
00000050: e585 c03c b3ab 413d 1af1 9c3e d757 babe
00000060: 8ad8 d8bd 5db8 063e 188f 803e 9ec7 a2be
00000070: ca58 db3d 09cb 1f3e 1d55 693e 106a 85be
00000080: 3e8b b23e ab8a 58be 413d 6ebe bbc9 aa3c
00000090: 4937 853e baf9 9abe 7027 113e 9218 f93c
000000a0: 8539 0e3d 15cd 943e 4b8f 813d cfe8 81be
000000b0: 3ce0 65bd c74f 0a3e a170 7ebe be31 573c
000000c0: 7fdb 01be 22de 99bd 6175 0a3e 38bf 9bbe
000000d0: 817b 78be 5287 303e a065 bfbe 3c2d 853e
000000e0: 05b1 c5be 906a 87bd d06e a93c db74 b63d
000000f0: 7338 70be 95e5 16bd ec53 a23d 6e8e 003e
00000100: 305e b0be 792a 7abe 7107 4d3d 348c b3bd
00000110: 72b6 b6be b684 c0be 469e 9ebe e256 51be
00000120: 8a4b d1bd 2843 4fbe 50c3 a9be c693 243d
00000130: a1ad 993e f7f9 73be c42b b6bc bbef 7abd
00000140: 5cd7 ee3d b734 86be 246c 2cbd 90e1 953e
00000150: 9fd5 853e e80d a1be dd59 013b bd34 823d
00000160: 3eaa 50bd d1a7 9cbe dec0 3abe 1596 803e
00000170: 529a fabd 4642 c7bc e722 e33d 048f 6dbe
00000180: 20fd 093d b036 663e 8f4b 62be c934 e13d
00000190: 9183 53bc 5bce 543e b996 803e 8f5d cd3d
000001a0: f31c 3b3c 0896 a6be 9219 1a3e 63f6 6b3e
000001b0: c694 0cbe ee26 c0be edd1 9c3e 3fb2 b5bd
000001c0: 40bf 59bd 5a48 2abe cf65 3b3e a2fc 9d3e
000001d0: 24cf 9e3e c920 8cbe 7094 443e d5d8 3c3e
000001e0: 490a 173d f7df 9bbe c130 26be c576 bfbe
000001f0: 646e 813e 634a bf3e 0f21 023e 9a1c 393e
00000200: f7b3 113e 5908 d93e da67 04be b8a5 65be
00000210: 30d9 92be 784d 19bd 2c64 d43c f1e4 d33d
00000220: 95a0 86be 6626 33bd 7875 9fbe 426a 9dbe
00000230: 4fee 15bb 21e7 bcbe 461e ce3d b244 b2be
00000240: cc4e 9fbe 5f15 05be a1ab b8be 8735 833e
00000250: 1a44 bd3e 47d8 17be 128f 0e3e 9ba4 873e
00000260: 9d38 7d3d 9b3f 213d 3687 b6be deb6 8c3e
00000270: ddbb a9be 985b 8fbd 3511 c03c 26ef febd
00000280: 638f 0dbe af0f a5be 0398 a53d 6472 5a3c
00000290: 9374 c73e c823 4fbd 0871 6a3e 214e cf3d
000002a0: 91d2 6ebe 0f82 19be b3dc c8bd a7ed 65bd
000002b0: 7d0f 7fbd 851a 273d cbe3 7f3e ae57 733d
000002c0: 7230 0c3e 9b00 6f3e 3dda a63d 7f69 323e
000002d0: 1105 4b3e 9e22 b53e da4c d5be b8d2 413e
000002e0: c390 ef3c 9f7a 00bc f037 15be 25ef 1f3e
000002f0: e938 db3e b54e dbbe 2ea4 133e 1403 523e
00000300: f5de c43b 9eea 4c3d cdae 3f3e e223 f9bc

rho.rho.0.bias f4 [28]
-0.09427354 -0.027910616 0.040675353 -0.0060904925 -0.05445719 0.064556666 0.12371494 -0.3061735
0.003923912 0.13808842 0.10035705 -0.09455424 0.31162173 -0.33022043 -0.17251678 -0.17083643
0.22329555 -0.36557546 -0.020774556 -0.36613005 -0.06398394 0.12336134 -0.088388704 0.37745124
-0.06064709 -0.19269767 0.0428755 0.07648557
00000000: 7c12 c1bd cea4 e4bc 339b 263d c192 c7bb
00000010: 810e 5fbd 4936 843d 425e fd3d c6c2 9cbe
00000020: 2994 803b 0d67 0d3e ff87 cd3d a7a5 c1bd
00000030: e28c 9f3e a712 a9be 3da8 30be bfef 2ebe
00000040: 97a7 643e b52c bbbe 672f aabc 6675 bbbe
00000050: 030a 83bd dfa4 fc3d 2305 b5bd 4a41 c13e
00000060: 1569 78bd 8a52 45be 389e 2f3d 77a4 9c3d

rho.rho.2.weight f4 [28, 28]
-0.00037545894 0.16166936 -0.04874205 0.07494368 0.11221813 0.11915487 0.0049551046 0.053947657
-0.071931854 -0.11280646 0.070487596 0.036364343 0.16612992 0.13722506 0.12813896 -0.08656009
-0.10369355 -0.17726512 0.06198438 -0.17028855 -0.1375244 -0.08370981 -0.15955843 -0.046660054
-0.05822159 -0.09695444 0.21465507 -0.010834778 0.15676805 0.0041930377 0.051854078 -0.089211725
-0.134365 -0.16685474 0.106161855 -0.05823669 -0.10088981 0.1727982 0.090806805 -0.066450156
-0.15792607 -0.15870446 -0.16571005 0.17101404 0.13746308 0.015456874 -0.19149339 -0.04942863
-0.12754014 0.044557404 -0.05017849 -0.050401136 0.0022332387 0.08860459 0.09673604 0.023262097
-0.02366529 -0.018675985 -0.0033022184 -0.14072828 0.18440317 -0.08150473 0.109951146 -0.10594304
0.0012686665 0.064693786 -0.17351979 0.08668612 -0.14465547 0.026371766 -0.037475042 0.108329006
0.18367203 0.042590123 -0.0053962143 -0.09363026 0.0704594 -0.090961404 0.07806232 -0.08191011
0.12818931 0.14495617 0.115881056 0.0018930421 0.08763932 -0.17220677 0.083628275 -0.14184976
0.068894714 -0.11578629 -0.15537515 -0.088747084 0.047400016 -0.18920106 -0.11416705 0.035280507
-0.06888755 -0.15900955 -0.18791915 -0.091878064 0.09063551 -0.13437125 0.0084206555 0.13527644
-0.07833264 -0.17350322 -0.13596068 -0.056222495 -0.08707958 0.009181667 -0.002175545 -0.004432031
-0.059623335 0.012979511 0.044892058 0.004022723 0.037817273 -0.07655476 0.15490375 -0.019383963
-0.02417939 -0.16961394 -0.13698721 0.0058786157 -0.02922675 -0.09501646 0.09892286 -0.016918767
0.066462815 0.15917337 -0.08688401 -0.09301181 -0.037975445 -0.01600321 -0.09452184 -0.045371644
-0.0054472187 0.084770076 0.17483935 0.139943 0.020000927 -0.01190905 -0.019618398 -0.06436118
-0.07676932 -0.00286626 -0.21468623 -0.16071743 -0.07127621 -0.12567402 -0.17116028 -0.23597275
0.058842912 -0.0075297924 -0.10153547 -0.0769808 -0.02005797 -0.1370565 -0.038432162 -0.0023304992
0.027665421 0.010276033 -0.12347709 0.015879024 0.0821589 0.012166573 0.025712514 -0.13997124
0.0375374 0.05522031 -0.08728754 0.11668093 -0.1786822 -0.07098855 -0.11119483 -0.112186864
-0.11451405 -0.17807622 0.032432526 -0.037383847 -0.15912507 -7.772311e-05 -0.031480923 0.0779602
-0.14802715 -0.05316549 0.03889904 0.08010707 0.014296479 0.051213853 0.18891308 -0.065465726
0.12879987 0.1627871 -0.16717675 0.045713715 0.10704888 -0.0294788 0.10429899 0.006428017
0.143869 0.004069064 -0.120990664 0.14352039 0.056204125 0.1607803 0.04691358 0.100350924
0.117832586 0.031822093 -0.043931916 0.039031353 -0.13176787 0.0064562447 -0.060741626 0.011948273
-0.14962833 0.115472436 -0.17435738 0.08093001 0.12445621 -0.17320144 0.17074735 -0.14048637
-0.037109766 0.09793019 -0.059926793 0.16841814 -0.08337002 -0.025301756 -0.12353489 -0.087674394
0.18441755 0.14212665 0.01391487 0.015538584 -0.16036943 0.14267169 -0.028333813 -0.07882333
-0.15039632 0.15537764 0.08961301 0.11382946 0.019568246 -0.12823775 0.07741364 0.02179516
0.063417666 -0.047058165 -0.0891836 0.15514152 0.06334999 -0.07670018 0.016875917 -0.041080087
00000000: 3fd9 c4b9 a78c 253e bea5 47bd 127c 993d
00000010: 9ed2 e53d 7807 f43d 6e5e a23b 38f8 5c3d
00000020: 0251 93bd 1307 e7bd cd5b 903d c7f2 143d
00000030: f61d 2a3e ba84 0c3e dc36 033e 6b46 b1bd
00000040: 495d d4bd fd84 35be 55e3 7d3d 1f60 2ebe
00000050: 32d3 0cbe 0d70 abbd 4963 23be 9d1e 3fbd
00000060: c379 6ebd 0d90 c6bd 8ace 5b3e 5a84 31bc
00000070: ce87 203e c065 893b f164 543d a3b4 b6bd
00000080: fb96 09be f8db 2abe 636b d93d 9889 6ebd
00000090: 519f cebd 03f2 303e ebf8 b93d 0517 88bd
000000a0: 5fb7 21be 6c83 22be e5af 29be 4e1e 2f3e
000000b0: 1fc3 0c3e d43e 7d3c d816 44be ad75 4abd
000000c0: e299 02be d381 363d f687 4dbd 6c71 4ebd
000000d0: 875b 123b 5376 b53d 8c1d c63d 2790 be3c
000000e0: b6dd c1bc 61fe 98bc 086a 58bb 131b 10be
000000f0: 2fd4 3c3e f4eb a6bd 112e e13d aaf8 d8bd
00000100: 6249 a63a 2d7e 843d 2caf 31be 7e88 b13d
00000110: 9020 14be 9a09 d83c 6e7f 19bd 99db dd3d
00000120: 8514 3c3e fb72 2e3d bad2 b0bb 39c1 bfbd
00000130: 054d 903d f949 babd 23df 9f3d 7dc0 a7bd
00000140: 0f44 033e 646f 143e 0c53 ed3d f41f f83a
00000150: 3e7c b33d f956 30be 4d45 ab3d 1041 11be
00000160: ac18 8d3d 5d21 edbd aa1a 1fbe 08c1 b5bd
00000170: 8526 423d ecbd 41be 6ad0 e9bd 4b82 103d
00000180: ea14 8dbd 66d3 22be e16d 40be 912a bcbd
00000190: 1c9f b93d 9e98 09be caf6 093c e885 0a3e
000001a0: dd6c a0bd d4aa 31be 4739 0bbe 8f49 66bd
000001b0: c756 b2bd b46e 163c 9793 0ebb 923a 91bb
000001c0: 9937 74bd 04a8 543c bce0 373d 0cd1 833b
000001d0: 49e6 1a3d bec8 9cbd 179f 1e3e 1ecb 9ebc
000001e0: db13 c6bc 47af 2dbe 6046 0cbe 67a1 c03b
000001f0: f06c efbc fd97 c2bd 1298 ca3d 3a99 8abc
00000200: a81d 883d 58fe 223e 3ef0 b1bd fa7c bebd
00000210: 248c 1bbd 2a19 83bc ab94 c1bd 9ed7 39bd
00000220: 957e b2bb ef9b ad3d 1609 333e 384d 0f3e
00000230: fcd8 a33c 2d1e 43bc c3b6 a0bc cbcf 83bd
00000240: 3c39 9dbd ddd7 3bbb b5d6 5bbe 1c93 24be
00000250: 43f9 91bd b1b0 00be a444 2fbe d7a2 71be
00000260: 4405 713d 7abc f6bb d4f1 cfbd 1ca8 9dbd
00000270: 9d50 a4bc 8a58 0cbe 0b6b 1dbd 4abb 18bb
00000280: 98a2 e23c ce5c 283c 8ee1 fcbd ba14 823c
00000290: ed42 a83d 4e56 473c 0da3 d23c 9f54 0fbe
000002a0: d1c0 193d b12e 623d cfc3 b2bd 69f6 ee3d
000002b0: 77f8 36be 7262 91bd 1dba e3bd 3ac2 e5bd
000002c0: 5886 eabd 9d59 36be f8d7 043d ce1f 19bd
000002d0: aff1 22be 47ff a2b8 24f2 00bd 99a9 9f3d
000002e0: 6e94 17be 0fc4 59bd 9a54 1f3d 2d0f a43d
000002f0: c73b 6a3c 9ec5 513d 6e72 413e e512 86bd
00000300: 1de4 033e a9b1 263e 6230 2bbe 4e3e 3b3d
00000310: 713c db3d 867d f1bc b59a d53d 1da2 d23b
00000320: 6552 133e c855 853b f4c9 f7bd 02f7 123e
00000330: 4c36 663d 97a3 243e 7428 403d c984 cd3d
00000340: 3652 f13d e257 023d f4f1 33bd 57df 1f3d
00000350: 28ee 06be e88e d33b 36cc 78bd b0c2 433c
00000360: 2b38 19be d07c ec3d be8a 32be a2be a53d
00000370: e6e2 fe3d b85b 31be 65d8 2e3e a9db 0fbe
00000380: 6900 18bd a08f c83d cc75 75bd ce75 2c3e
00000390: e7bd aabd a145 cfbc dcff fcbd a28e b3bd
000003a0: f4d7 3c3e a689 113e 32fb 633c 8c95 7e3c
000003b0: e237 24be 8718 123e 501c e8bc 206e a1bd
000003c0: 7e01 1abe 511b 1f3e 0787 b73d 6c1f e93d
000003d0: 964d a03c c250 03be 0b8b 9e3d c38b b23c
000003e0: 1fe1 813d 10c0 40bd e4a5 b6bd 6bdd 1e3e
000003f0: a4bd 813d fc14 9dbd 5d3f 8a3c 9843 28bd

rho.rho.2.bias f4 [28]
0.20996895 0.15574887 -0.08473191 -0.027643096 -0.17862679 0.09085333 -0.18833303 -0.16887948
-0.16963597 -0.1754991 0.025593838 -0.0110582765 0.053596612 0.027828319 0.027199255 -0.12833072
-0.11212216 -0.15822643 0.12295648 -0.09743912 -0.03843498 0.103830695 -0.098359354 -0.047648974
-0.12598416 -0.11865821 0.12413924 -0.042637818
00000000: 1a02 573e a27c 1f3e ec87 adbd c673 e2bc
00000010: f1e9 36be 5011 ba3d 60da 40be beee 2cbe
00000020: 0db5 2dbe 09b6 33be 2baa d13c c62d 35bc
00000030: 1f88 5b3d 37f8 e33c f9d0 de3c 2169 03be
00000040: 4ea0 e5bd 1c06 22be 9bd0 fb3d 298e c7bd
00000050: ff6d 1dbd 30a5 d43d a170 c9bd 922b 43bd
00000060: fe01 01be 1303 f3bd b73c fe3d fea4 2ebd

rho.rho.4.weight f4 [1, 28]
0.12725091 0.034788966 -0.0002400405 -0.094603665 0.004172357 0.016028825 -0.107839756 -0.04373763
0.009879757 -0.14239478 0.03142465 0.14482763 0.014034982 0.16459005 0.07267408 -0.08898597
-0.074386105 -0.045477234 0.07691309 -0.005390064 0.15207337 0.045487992 -0.06821249 -0.069283865
-0.15722588 -0.06647813 0.10045239 0.0018249161
00000000: 104e 023e e07e 0e3d 62b3 7bb9 91bf c1bd
00000010: 44b8 883b e24e 833c 17db dcbd 3b26 33bd
00000020: b4de 213c f0cf 11be 22b7 003d b24d 143e
00000030: fbf2 653c 4b8a 283e 26d6 943d 473e b6bd
00000040: be57 98bd 5646 3abd 9c84 9d3d 229f b0bb
00000050: 1fb9 1b3e 9e51 3a3d fdb2 8bbd b3e4 8dbd
00000060: d2ff 20be b025 88bd fcb9 cd3d 0632 ef3a

exp_avg f4 [32, 3]
8.3591284e-10 1.9075874e-09 4.4321014e-10 0.0 0.0 0.0 0.0 0.0
0.0 0.0 0.0 0.0 7.9731344e-10 -1.6140015e-09 -7.6346485e-11 3.5296006e-09
-4.048145e-09 5.830848e-11 0.0 0.0 0.0 4.52263e-09 -5.441103e-09 1.9093166e-10
0.0 0.0 0.0 0.0 0.0 0.0 0.0 0.0
0.0 0.0 0.0 0.0 1.2979013e-08 9.328328e-09 -4.642762e-09 2.986218e-09
2.9132985e-10 7.174154e-10 0.0 0.0 0.0 6.386951e-10 -1.7241304e-09 -1.3337229e-10
0.0 0.0 0.0 -3.5416012e-10 -3.7765235e-09 -6.5692923e-10 3.0095983e-09 -6.2178684e-09
-2.6513505e-10 0.0 0.0 0.0 -1.0850568e-09 2.4890718e-09 1.2568281e-10 -1.0340687e-09
8.8641255e-10 -3.787661e-10 4.4529416e-09 -3.851506e-09 3.3786593e-10 3.7368325e-10 -3.1984608e-09 -3.464703e-10
3.038919e-09 -3.2431764e-09 1.7177283e-10 1.976634e-09 7.532824e-10 5.7584154e-10 0.0 0.0
0.0 3.4908694e-09 -5.011771e-10 6.3986305e-10 0.0 0.0 0.0 0.0
0.0 0.0 2.357652e-10 -2.6190154e-09 -3.3982842e-10 0.0 0.0 0.0
00000000: 23c6 6530 a216 0331 48a8 f32f 0000 0000
00000010: 0000 0000 0000 0000 0000 0000 0000 0000
00000020: 0000 0000 0000 0000 0000 0000 0000 0000
00000030: f229 5b30 a1d3 ddb0 40e3 a7ae 648d 7231
00000040: dc17 8bb1 c238 802e 0000 0000 0000 0000
00000050: 0000 0000 7965 9b31 73f4 bab1 7cee 512f
00000060: 0000 0000 0000 0000 0000 0000 0000 0000
00000070: 0000 0000 0000 0000 0000 0000 0000 0000
00000080: 0000 0000 0000 0000 0000 0000 0000 0000
00000090: 4efa 5e32 6c42 2032 2b86 9fb1 1a36 4d31
000000a0: 0829 a02f 9f33 4530 0000 0000 0000 0000
000000b0: 0000 0000 2c90 2f30 72f6 ecb0 f6a4 12af
000000c0: 0000 0000 0000 0000 0000 0000 9bb3 c2af
000000d0: a7c2 81b1 4993 34b0 6ad1 4e31 f3a4 d5b1
000000e0: 71c2 91af 0000 0000 0000 0000 0000 0000
000000f0: 0b21 95b0 370c 2b31 9130 0a2f 0f1f 8eb0
00000100: bda7 7330 973a d0af 7d00 9931 3456 84b1
00000110: 67be b92f 3e6f cd2f ebcb 5bb1 5c79 beaf
00000120: 3ad5 5031 90de 5eb1 c1dd 3c2f 50d5 0731
00000130: 890f 4f30 3f49 1e30 0000 0000 0000 0000
00000140: 0000 0000 06e4 6f31 34c3 09b0 5ce2 2f30
00000150: 0000 0000 0000 0000 0000 0000 0000 0000
00000160: 0000 0000 0000 0000 019d 812f 35fa 33b1
00000170: 99d2 baaf 0000 0000 0000 0000 0000 0000

exp_avg_sq f4 [32, 3]
3.1995885e-11 1.2667449e-11 7.2193304e-13 0.0 0.0 0.0 0.0 0.0
0.0 0.0 0.0 0.0 1.9963328e-11 6.7451197e-12 3.5252292e-13 4.134483e-11
1.4351958e-11 6.8871216e-13 0.0 0.0 0.0 8.979069e-11 3.269195e-11 1.5689238e-12
0.0 0.0 0.0 0.0 0.0 0.0 0.0 0.0
0.0 0.0 0.0 0.0 3.5831418e-11 1.9321506e-11 6.117867e-13 4.4455526e-11
1.6925458e-11 7.563576e-13 0.0 0.0 0.0 1.24553475e-11 6.2434715e-12 5.670544e-13
0.0 0.0 0.0 2.759762e-11 8.068653e-12 4.6126704e-13 5.2059045e-11 1.7525769e-11
7.6809094e-13 0.0 0.0 0.0 1.558267e-11 5.7048585e-12 2.0848763e-13 2.5767086e-11
1.0345377e-11 5.07755e-13 9.6572486e-11 3.22299e-11 1.182746e-12 2.3580709e-11 5.6680285e-12 2.4502568e-13
4.0476622e-11 1.3842139e-11 8.0287496e-13 2.3578943e-11 8.0197715e-12 3.9124333e-13 0.0 0.0
0.0 3.028983e-11 1.1226593e-11 4.4275816e-13 0.0 0.0 0.0 0.0
0.0 0.0 9.55222e-12 3.785741e-12 1.5495808e-13 0.0 0.0 0.0
00000000: 2ab8 0c2e 1ed9 5e2d c234 4b2b 0000 0000
00000010: 0000 0000 0000 0000 0000 0000 0000 0000
00000020: 0000 0000 0000 0000 0000 0000 0000 0000
00000030: 6b99 af2d a352 ed2c e873 c62a 24d6 352e
00000040: 797b 7c2d f1da 412b 0000 0000 0000 0000
00000050: 0000 0000 aa73 c52e ddc7 0f2e 70ce dc2b
00000060: 0000 0000 0000 0000 0000 0000 0000 0000
00000070: 0000 0000 0000 0000 0000 0000 0000 0000
00000080: 0000 0000 0000 0000 0000 0000 0000 0000
00000090: 9796 1d2e 2af4 a92d e133 2c2b 7984 432e
000000a0: bee0 942d 4fe5 542b 0000 0000 0000 0000
000000b0: 0000 0000 e61d 5b2d 31ac db2c 939c 1f2b
000000c0: 0000 0000 0000 0000 0000 0000 51c0 f22d
000000d0: fcf1 0d2d cbd5 012b 46f5 642e 8628 9a2d
000000e0: c932 582b 0000 0000 0000 0000 0000 0000
000000f0: 0e11 892d ccb8 c82c 78bc 6a2a 52a6 e22d
00000100: 70ff 352d 9beb 0e2b 7a5d d42e a4bf 0d2e
00000110: ea74 a62b 096b cf2d 106d c72c ecef 892a
00000120: a004 322e 7483 732d 3dfd 612b 0f67 cf2d
00000130: d715 0d2d 1b40 dc2a 0000 0000 0000 0000
00000140: 0000 0000 5137 052e 1480 452d 2d40 f92a
00000150: 0000 0000 0000 0000 0000 0000 0000 0000
00000160: 0000 0000 0000 0000 600b 282d ec32 852c
00000170: a077 2e2a 0000 0000 0000 0000 0000 0000

exp_avg f4 [32]
3.1867091e-09 0.0 0.0 0.0 -8.9303703e-10 -4.602446e-10 0.0 -7.275561e-10
0.0 0.0 0.0 0.0 1.7664576e-08 3.994959e-09 0.0 -1.2188107e-09
0.0 -4.787616e-09 -3.473414e-09 0.0 1.5297e-09 -5.2642335e-10 9.392885e-10 -3.171252e-09
-3.2494382e-11 3.3057557e-09 0.0 3.6295493e-09 0.0 0.0 -2.7230813e-09 0.0
00000000: 2efd 5a31 0000 0000 0000 0000 0000 0000
00000010: e579 75b0 ab05 fdaf 0000 0000 36fd 47b0
00000020: 0000 0000 0000 0000 0000 0000 0000 0000
00000030: d0bc 9732 0844 8931 0000 0000 1783 a7b0
00000040: 0000 0000 5180 a4b1 f2b0 6eb1 0000 0000
00000050: 893d d230 c0b3 10b0 4718 8130 41ed 59b1
00000060: 6ce9 0eae 782b 6331 0000 0000 b56b 7931
00000070: 0000 0000 0000 0000 f420 3bb1 0000 0000

exp_avg_sq f4 [32]
1.01175006e-10 0.0 0.0 0.0 5.7063704e-11 1.2153342e-10 0.0 2.6996594e-10
0.0 0.0 0.0 0.0 1.2436441e-10 1.3522941e-10 0.0 4.537984e-11
0.0 7.66118e-11 1.5053021e-10 0.0 4.6061606e-11 8.1069554e-11 2.7460184e-10 5.950722e-11
1.202348e-10 6.857302e-11 0.0 9.026138e-11 0.0 0.0 2.941454e-11 0.0
00000000: 777c de2e 0000 0000 0000 0000 0000 0000
00000010: 05f8 7a2e 9ea0 052f 0000 0000 546a 942f
00000020: 0000 0000 0000 0000 0000 0000 0000 0000
00000030: 78bd 082f b2af 142f 0000 0000 2895 472e
00000040: 0000 0000 9c78 a82e 7d82 252f 0000 0000
00000050: c294 4a2e 1a46 b22e c6f6 962f 96db 822e
00000060: 1633 042f 2ecb 962e 0000 0000 a47c c62e
00000070: 0000 0000 0000 0000 d45d 012e 0000 0000

exp_avg f4 [32, 32]
0.0 0.0 0.0 0.0 0.0 0.0 0.0 0.0
0.0 0.0 0.0 0.0 0.0 0.0 0.0 0.0
0.0 0.0 0.0 0.0 0.0 0.0 0.0 0.0
0.0 0.0 0.0 0.0 0.0 0.0 0.0 0.0
-2.4535305e-09 0.0 0.0 0.0 -1.3702519e-09 -1.4730794e-09 0.0 3.1928495e-09
0.0 0.0 0.0 0.0 -2.8829816e-09 1.1262343e-09 0.0 -3.8732204e-09
0.0 1.0390239e-09 3.3669132e-09 0.0 -1.6169291e-10 1.0809619e-09 -8.240684e-10 5.3726517e-09
-2.1671394e-09 1.6772586e-09 0.0 -4.4816945e-10 0.0 0.0 -6.3341227e-10 0.0
9.472224e-25 0.0 0.0 0.0 2.2826272e-25 1.4163897e-24 0.0 3.2801295e-25
0.0 0.0 0.0 0.0 4.3214386e-26 6.024116e-25 0.0 9.394525e-25
0.0 2.539052e-24 1.3689419e-24 0.0 1.31606e-25 6.1674965e-25 4.940145e-25 7.187705e-25
1.5633088e-24 8.2645915e-25 0.0 1.7766952e-24 0.0 0.0 3.1836735e-25 0.0
0.0 0.0 0.0 0.0 0.0 0.0 0.0 0.0
0.0 0.0 0.0 0.0 0.0 0.0 0.0 0.0
0.0 0.0 0.0 0.0 0.0 0.0 0.0 0.0
0.0 0.0 0.0 0.0 0.0 0.0 0.0 0.0
0.0 0.0 0.0 0.0 0.0 0.0 0.0 0.0
0.0 0.0 0.0 0.0 0.0 0.0 0.0 0.0
0.0 0.0 0.0 0.0 0.0 0.0 0.0 0.0
0.0 0.0 0.0 0.0 0.0 0.0 0.0 0.0
5.190944e-25 0.0 0.0 0.0 1.2827095e-25 7.323475e-25 0.0 1.9389217e-25
0.0 0.0 0.0 0.0 2.410491e-26 3.3080364e-25 0.0 4.6770326e-25
0.0 1.3561717e-24 7.611498e-25 0.0 9.991839e-26 3.2217738e-25 2.5161239e-25 4.1092388e-25
8.315041e-25 4.5883675e-25 0.0 9.667469e-25 0.0 0.0 1.7048397e-25 0.0
3.31089e-24 0.0 0.0 0.0 1.8461378e-24 3.412141e-24 0.0 2.1537263e-24
0.0 0.0 0.0 0.0 5.673745e-25 1.9836237e-24 0.0 1.8465652e-24
0.0 6.109652e-24 5.5156957e-24 0.0 8.643041e-25 8.2097405e-25 2.2861674e-24 1.9054188e-24
5.3196086e-24 3.1095633e-24 0.0 4.527267e-24 0.0 0.0 1.5107592e-24 0.0
7.5535926e-25 0.0 0.0 0.0 1.2493878e-25 1.0003187e-24 0.0 2.8049138e-25
0.0 0.0 0.0 0.0 2.3199113e-26 4.9331486e-25 0.0 6.0374163e-25
0.0 1.9274887e-24 1.079319e-24 0.0 1.6940732e-25 4.6204865e-25 3.4811184e-25 6.184946e-25
1.1442008e-24 7.369421e-25 0.0 1.4094897e-24 0.0 0.0 2.309727e-25 0.0
00000000: 0000 0000 0000 0000 0000 0000 0000 0000
00000010: 0000 0000 0000 0000 0000 0000 0000 0000
00000020: 0000 0000 0000 0000 0000 0000 0000 0000
00000030: 0000 0000 0000 0000 0000 0000 0000 0000
00000040: 0000 0000 0000 0000 0000 0000 0000 0000
00000050: 0000 0000 0000 0000 0000 0000 0000 0000
00000060: 0000 0000 0000 0000 0000 0000 0000 0000
00000070: 0000 0000 0000 0000 0000 0000 0000 0000
00000080: f79a 28b1 0000 0000 0000 0000 0000 0000
00000090: 7453 bcb0 6075 cab0 0000 0000 3469 5b31
000000a0: 0000 0000 0000 0000 0000 0000 0000 0000
000000b0: f31d 46b1 d9c9 9a30 0000 0000 3515 85b1
000000c0: 0000 0000 67cd 8e30 5d5f 6731 0000 0000
000000d0: 82c8 31af f790 9430 a984 62b0 589a b831
000000e0: b8ec 14b1 4a85 e630 0000 0000 3e62 f6af
000000f0: 0000 0000 0000 0000 6d1c 2eb0 0000 0000
00000100: 5893 9217 0000 0000 0000 0000 0000 0000
00000110: ac49 8d16 fa2c db17 0000 0000 ba07 cb16
00000120: 0000 0000 0000 0000 0000 0000 0000 0000
00000130: befc 5515 f76f 3a17 0000 0000 8c5f 9117
00000140: 0000 0000 1b73 4418 60d5 d317 0000 0000
00000150: 9beb 2216 f1df 3e17 dce3 1817 de72 5e17
00000160: 0be9 f117 d7c6 7f17 0000 0000 1377 0918
00000170: 0000 0000 0000 0000 520f c516 0000 0000
00000180: 0000 0000 0000 0000 0000 0000 0000 0000
00000190: 0000 0000 0000 0000 0000 0000 0000 0000
000001a0: 0000 0000 0000 0000 0000 0000 0000 0000
000001b0: 0000 0000 0000 0000 0000 0000 0000 0000
000001c0: 0000 0000 0000 0000 0000 0000 0000 0000
000001d0: 0000 0000 0000 0000 0000 0000 0000 0000
000001e0: 0000 0000 0000 0000 0000 0000 0000 0000
000001f0: 0000 0000 0000 0000 0000 0000 0000 0000
00000200: 0000 0000 0000 0000 0000 0000 0000 0000
00000210: 0000 0000 0000 0000 0000 0000 0000 0000
00000220: 0000 0000 0000 0000 0000 0000 0000 0000
00000230: 0000 0000 0000 0000 0000 0000 0000 0000
00000240: 0000 0000 0000 0000 0000 0000 0000 0000
00000250: 0000 0000 0000 0000 0000 0000 0000 0000
00000260: 0000 0000 0000 0000 0000 0000 0000 0000
00000270: 0000 0000 0000 0000 0000 0000 0000 0000
00000280: e5a6 2017 0000 0000 0000 0000 0000 0000
00000290: b0ca 1e16 8ca6 6217 0000 0000 e206 7016
000002a0: 0000 0000 0000 0000 0000 0000 0000 0000
000002b0: 35b9 ee14 eec1 cc16 0000 0000 45bf 1017
000002c0: 0000 0000 7fdb d117 8090 6b17 0000 0000
000002d0: ce62 f715 0b6b c716 93bd 9b16 7d59 fe16
000002e0: 45ab 8017 cb00 0e17 0000 0000 ca98 9517
000002f0: 0000 0000 0000 0000 870c 5316 0000 0000
00000300: 7715 8018 0000 0000 0000 0000 0000 0000
00000310: 87d6 0e18 3500 8418 0000 0000 f2a2 2618
00000320: 0000 0000 0000 0000 0000 0000 0000 0000
00000330: 0a98 2f17 b779 1918 0000 0000 fede 0e18
00000340: 0000 0000 105b ec18 ce60 d518 0000 0000
00000350: 9dbe 8517 4414 7e17 36e2 3018 b56c 1318
00000360: daca cd18 3f97 7018 0000 0000 e123 af18
00000370: 0000 0000 0000 0000 56c7 e917 0000 0000
00000380: bac5 6917 0000 0000 0000 0000 0000 0000
00000390: aeaa 1a16 b5ca 9a17 0000 0000 a29d ad16
000003a0: 0000 0000 0000 0000 0000 0000 0000 0000
000003b0: bdc0 e514 6eac 1817 0000 0000 57d9 3a17
000003c0: 0000 0000 d921 1518 3b04 a717 0000 0000
000003d0: 53b7 5116 44ff 0e17 8678 d716 316a 3f17
000003e0: 770e b117 9212 6417 0000 0000 a41b da17
000003f0: 0000 0000 0000 0000 16f7 8e16 0000 0000
