src/old_logs/version_44/checkpoints/epoch=199-step=200.ckpt (torch, 33819 bytes, 27 tensors)

phi.phi.0.weight f4 [32, 3]
000000 83 6f 60 3d 2f 7d ba 3e 67 cd e0 be c9 8b d9 be
       0.054793846 0.36423633 -0.4390671 -0.4248946
000010 b1 b4 63 be 53 89 1e 3e 40 6b 3b bc 7a 61 ea 3e
       -0.22236897 0.15482073 -0.011439145 0.45777494
000020 42 dd 51 bd d2 70 1c 3e 9e ab 32 be ea 6b e8 bd
       -0.0512364 0.15277413 -0.1744828 -0.11348708
000030 20 27 0b bf 24 f7 c0 be 2c f1 68 be 24 a6 d1 bd
       -0.54356575 -0.37688553 -0.2274825 -0.10236767
000040 d8 c3 d6 3d cb ea 65 3e d2 66 c8 be 69 b9 80 be
       0.10486573 0.22452848 -0.39140946 -0.25141457
000050 83 bc 56 3e 3e 3e d9 3e ca f7 34 be 3f 2f bf 3e
       0.20970349 0.424303 -0.17672649 0.37340733
000060 da 95 be bd 65 3b 7a 3d b5 d4 05 3f 79 1c 09 bf
       -0.09305926 0.0610918 0.5227769 -0.5355907
000070 f0 17 ba be 48 ac 15 be cc 73 66 be ca 66 ff 3e
       -0.36346388 -0.14616501 -0.2250511 0.4988311
000080 a4 9a bf be 70 13 88 be 3c 85 ce be df 6c 0a bf
       -0.3742267 -0.2657733 -0.40336025 -0.54072374
000090 02 dd c9 be 27 63 df 3e bb ce 59 3e b2 2d 52 3e
       -0.39426428 0.43630335 0.21270268 0.20525244
0000a0 06 6c 35 bd 53 e8 b8 be d5 0b c8 3d 6b 00 0a bf
       -0.044292472 -0.3611475 0.09767882 -0.5390689
0000b0 ce 97 d5 be d0 ba af be 83 a4 a5 3e 1a 4a a3 3e
       -0.4171738 -0.34322214 0.32352075 0.31892473
0000c0 3f 19 83 be 3d a8 aa bc 68 0e bd 3e 0f 7b 17 3f
       -0.256052 -0.020832175 0.36925054 0.5917215
0000d0 1c 23 6d 3e be 9b 94 bb 74 99 b1 3e 58 42 bf be
       0.23157924 -0.0045351675 0.34687388 -0.37355304
0000e0 f2 f3 d2 3d d2 2e e5 be ea e0 cc be 2e b4 98 be
       0.10300435 -0.44762284 -0.40015346 -0.29824966
0000f0 9c 34 4d 3e f6 ed 2e 3e 9e 79 ca be 21 bb 65 3e
       0.200396 0.17082962 -0.39545912 0.22434665
000100 37 8d b9 3e 56 f6 31 bd f8 79 83 bc 6f de ca 3d
       0.3624055 -0.043447815 -0.01604937 0.09905707
000110 30 b8 a4 3e 6b ed 00 3f 68 25 fb be 6b 4e 77 be
       0.32171774 0.5036227 -0.49051976 -0.24151008
000120 97 02 33 3e a3 9e dc 3e 2c a0 f4 3e 27 e1 f9 3e
       0.17481457 0.4308978 0.4777845 0.4880459
000130 49 11 c9 3d 7d c1 04 bf db 8b 59 3d 58 ee b8 be
       0.0981775 -0.5185774 0.053111892 -0.36119342
000140 8f be 09 bf cd 97 e1 3e cb 5a bc 3e 71 59 21 bf
       -0.53806394 0.44061127 0.3678802 -0.630271
000150 92 50 dd 3d 7a 30 c7 bd 4d 94 c2 bd 80 50 87 be
       0.10806383 -0.09726043 -0.095009424 -0.26428604
000160 28 5a 63 3e 3f 16 af be 92 59 2b 3e f6 5b 82 3e
       0.2220236 -0.3419666 0.16733387 0.25460786
000170 f8 06 d2 3e 0b 0f 5d 3e d6 48 12 bf c8 c1 bf be
       0.41020942 0.2158777 -0.5714239 -0.3745253

phi.phi.0.bias f4 [32]
000000 f7 32 af 3e 10 7b f7 3d 6e 98 e6 be d3 36 aa be
       0.3421857 0.12084019 -0.4503817 -0.33244953
000010 6b e6 0d 3f 7f fb 87 3e f7 e3 80 be 4f 52 4e be
       0.55429715 0.26559064 -0.25173923 -0.20148586
000020 ac cb 0c bf dc 05 2a bc 52 9b de be ff 03 e4 be
       -0.5499828 -0.010377374 -0.43477875 -0.445343
000030 ac e6 b3 bd 7e 4a 6f 3c f6 1d 72 be ea fd 9a 3e
       -0.087842315 0.014605163 -0.23644242 0.30271846
000040 dd e2 b3 be 07 4c 05 3f 0d f2 b9 3e fa 46 f9 be
       -0.3513402 0.52069134 0.36317483 -0.48686963
000050 5e d0 50 be 49 c3 91 3d 9f ca 41 3d e5 1e bc 3d
       -0.20391986 0.07117326 0.047312375 0.0918558
000060 22 a9 38 3e 11 1e 7a 3c be 3b 90 be 33 20 51 3e
       0.18033269 0.015265957 -0.2817058 0.2042244
000070 51 c7 0d bf c1 34 af be 05 6a 38 be 09 fe 8f be
       -0.5538226 -0.34219936 -0.18009193 -0.281235

phi.phi.2.weight f4 [6, 32]
000000 71 4e 7d bd 0c 5e 14 be b0 05 1a bd b5 c6 1a 3d
       -0.061842386 -0.14489001 -0.03760308 0.037787158
000010 16 db eb bd 02 a3 14 bc 35 95 01 3e e4 de 94 bc
       -0.11516397 -0.009072067 0.12654574 -0.018172689
000020 5d fd a0 3b 86 dc 79 bc 2e 8a 12 3d cf 32 e6 3d
       0.0049130158 -0.015250331 0.03577631 0.1124016
000030 4a 78 2b 3e 30 ea e5 3d b9 dc 2b 3e 44 77 51 bc
       0.16745105 0.11226308 0.16783418 -0.012784783
000040 12 9d 22 be 61 a2 ab bd 97 83 f6 3d c2 33 96 ba
       -0.1588023 -0.08380581 0.120368175 -0.0011459517
000050 33 f3 b3 bd 9d b7 0a be 46 68 29 be 24 c8 18 be
       -0.08786621 -0.13546605 -0.16543683 -0.14920098
000060 97 de 12 bd 4f 8b c6 3d a4 bb c3 3d b0 94 2e be
       -0.03585681 0.0969454 0.09557274 -0.17048907
000070 4e d5 e1 3d 3b a6 0d be d0 13 19 bd f9 cb 92 bd
       0.11027013 -0.13832943 -0.03737241 -0.07167811
000080 07 74 9a bd d4 2a 0e bd 0c 70 22 be 88 4c 1c be
       -0.07541662 -0.034708813 -0.15863055 -0.1526357
000090 6a be 70 bd d1 14 c8 bc 0f 77 a4 bd c2 35 f3 3c
       -0.058775343 -0.024423989 -0.08030521 0.02968872
0000a0 8f ed 22 be c4 76 43 bc 22 31 1f 3e 34 ac 93 bd
       -0.15910934 -0.011930171 0.15546086 -0.072105795
0000b0 69 e4 e1 3d 81 19 a0 3c e5 5c 23 be 46 de aa 3d
       0.11029894 0.019543411 -0.15953405 0.083431765
0000c0 ea 1b a7 bc e8 3c ea bd 79 65 d3 3d e6 47 12 be
       -0.020399053 -0.11437398 0.10322089 -0.1428524
0000d0 c6 55 52 bd 8f 51 98 bd 38 b2 c6 3d da b4 e0 3b
       -0.05135133 -0.07437431 0.09701961 0.0068574967
0000e0 92 78 51 3d a6 66 3a 3c 4e 1f 2e bd 59 53 a6 bd
       0.051140375 0.011377012 -0.042510323 -0.08121366
0000f0 b7 2c 15 be 25 2b c4 3d 6c a4 d9 3d 42 b7 f7 3d
       -0.14567839 0.09578542 0.10627064 0.120955005
000100 cd 5f ff bd d2 2c 01 3c a2 36 ff bd eb 4b c7 bd
       -0.124694444 0.007884221 -0.12461592 -0.09731277
000110 40 f6 d2 bd 27 73 77 3d 5d be d7 bd ed c1 7c bb
       -0.10300875 0.060412552 -0.10534356 -0.0038567737
000120 42 af f3 3b e3 60 e9 3d 0e d6 08 be 42 8b f8 bd
       0.007436664 0.11395433 -0.13362905 -0.12135936
000130 d0 38 d2 bd 28 67 fd 3d e6 23 82 bd 11 b0 18 3e
       -0.102647424 0.12373191 -0.06354503 0.14910914
000140 79 ea 82 3d c2 5f b7 3c 48 7b ac ba 01 23 0f bd
       0.06392378 0.022384528 -0.0013159299 -0.03494549
000150 d6 b1 b5 3c d6 56 25 bd 4a ce a2 ba 43 c6 b8 3c
       0.022179525 -0.040366016 -0.0012421098 0.022555476
000160 21 98 0d be 7f c1 bd bd fb 2b 12 3e d8 e7 12 be
       -0.13827564 -0.09265422 0.1427459 -0.14346254
000170 13 f9 4f bc 43 12 33 3e 23 c8 82 3d b4 01 a4 3b
       -0.012693661 0.17487435 0.06385829 0.005005086
000180 6f 9d 46 be 90 58 b3 3d c4 ef 00 be 28 8a 4d bd
       -0.19395994 0.08757126 -0.12591463 -0.050180584
000190 09 a8 ee bd 5b 1d 5c bd ff 71 fd 3a d2 d5 dc 3d
       -0.11653144 -0.053738933 0.0019336342 0.107829705
0001a0 33 c9 b4 3c 41 23 22 3e ac 76 dd 3d ca e2 e4 bd
       0.022068596 0.15833761 0.108136505 -0.11176069
0001b0 9a 20 2d 3d 0c c8 12 be eb 70 99 bd 25 e9 23 3c
       0.04226742 -0.14334124 -0.074922405 0.010004316
0001c0 a9 15 6f 3d f5 2f bc 3d a2 1f cd bd f2 5e 94 39
       0.058370266 0.091888346 -0.10015799 0.000282995
0001d0 fb 53 16 3d 9e d2 53 be 0c 10 ba 3d 1b cc 2b be
       0.036701184 -0.20685813 0.09085092 -0.16777079
0001e0 f4 03 24 bd a8 59 69 bd 0d ad be bd ec c2 b0 bc
       -0.040042832 -0.05697027 -0.093103506 -0.021577321
0001f0 33 b0 15 3e 76 a9 53 bd cd 83 15 be 5d e5 85 bd
       0.14617996 -0.051675282 -0.1460106 -0.06537888
000200 24 5b 8d be 0d 6c a3 3d c1 df ad bd 5d 9a f1 bd
       -0.27608597 0.079795934 -0.08489943 -0.117970206
000210 d3 84 4e be c6 9c 20 3b e5 b9 bf 3d 32 b5 0f 3d
       -0.20167856 0.0024507507 0.093616284 0.03508491
000220 de 51 83 3d 0a d0 71 bd 92 57 4a bd 04 ea 55 3d
       0.06412099 -0.059036292 -0.04939992 0.052225128
000230 c0 b1 60 3d 77 31 59 bd 03 4c ab bd 30 d4 3a be
       0.054857016 -0.05302569 -0.083641075 -0.18245006
000240 ef 25 2b be 85 72 7f bd eb b5 4c be 78 64 21 be
       -0.1671369 -0.062365074 -0.19991271 -0.15760982
000250 6e 36 59 3d ac 6a 5c be 21 e2 f4 bd 3e fa 4d bd
       0.053030424 -0.21525067 -0.11957193 -0.050287478
000260 e9 7c c1 bd ec 88 61 be 65 52 12 be d0 31 23 3d
       -0.09447653 -0.22024888 -0.14289244 0.039842427
000270 cc d0 eb 3c 97 2d 16 3e 96 ad 22 be e9 47 55 3d
       0.028786086 0.14665829 -0.1588653 0.052070532
000280 70 10 d3 bd 5c cd 00 bc 5f 7f dc bd 35 e2 74 3d
       -0.103058696 -0.0078614615 -0.107664816 0.05978604
000290 e7 a9 9a bb e1 8e e2 bc b8 d8 22 bd 52 0c 12 be
       -0.004719961 -0.02765602 -0.03975746 -0.14262512
0002a0 af 5d fa 3d 52 c1 06 be 93 50 94 3d 3b 79 73 bd
       0.122249 -0.13159683 0.07241931 -0.059441786
0002b0 ac cf f4 bd e2 65 40 bb 42 10 bc bd 8b c4 89 3b
       -0.11953673 -0.0029357602 -0.091827884 0.004204338
0002c0 e7 31 0e 3d 1f d0 36 be 43 b6 9e bc ed 33 9a 3d
       0.03471556 -0.1785283 -0.019374019 0.07529435
0002d0 36 80 9e 3c bb 01 a4 bd 5d 79 30 be 3d d5 83 bd
       0.019348245 -0.080081426 -0.17233796 -0.06437156
0002e0 4d 11 8e 3c fd cf eb bd 4c 6c 89 3d 3b 18 7a 3d
       0.017342234 -0.1151428 0.06710109 0.061058264
0002f0 00 0a bd bd d2 80 e4 3a 84 f6 1b 3d a9 01 63 3c
       -0.09230423 0.0017433411 0.038076892 0.013855376

phi.phi.2.bias f4 [6]
000000 dd ee 71 3c 39 be 4e bc d5 4e 0e be 07 b2 eb bc
       0.014766422 -0.012618595 -0.1389726 -0.028771413
000010 3e 96 b4 3c 82 71 e3 3d
       0.022044297 0.11105634

rho.rho.0.weight f4 [32, 6]
000000 03 b5 75 3e d7 85 19 3d c9 3b 43 3e 34 86 60 be
       0.23994832 0.037481155 0.19065775 -0.21926194
000010 87 f9 ab be 06 e1 bc be 05 86 d0 3e d2 ec 79 3e
       -0.33588812 -0.3689043 0.4072725 0.24406746
000020 dd 7b 90 be 12 48 08 3e 51 9f a4 3e d4 0d c8 3e
       -0.282195 0.13308743 0.321528 0.3907305
000030 cd c4 b6 3e 0e 9a 8c 3e 94 ae bf bd 11 12 38 be
       0.35697022 0.27461284 -0.0935947 -0.17975642
000040 99 0f 99 3e 04 87 42 3e 4b 92 7b be e3 b5 d1 3e
       0.29894713 0.18996817 -0.24567525 0.4095908
000050 8e fb 49 3e 54 11 79 3e 65 1d 24 be 21 93 fe 3d
       0.19724867 0.24323016 -0.16026838 0.12430406
000060 24 8d 12 be d9 99 94 3e 6d 72 96 bd 18 20 05 3e
       -0.14311653 0.29023626 -0.07346044 0.13000524
000070 c0 ca 69 3d a4 55 16 3e 4a 10 0e be d0 d3 4b 3e
       0.057078123 0.14681107 -0.13873401 0.19905019
000080 20 ff 91 be ef d5 bc 3d 61 6c 8d be 8c 35 ce be
       -0.28514957 0.09220492 -0.2762175 -0.40275228
000090 73 db a7 be 7b 04 a5 3e 8d 2d 62 3e da 1b c4 3e
       -0.32784614 0.3222998 0.22087689 0.383025
0000a0 ef 73 a7 3e ca aa ba be d6 a4 8e be 16 19 87 bd
       0.32705638 -0.36458427 -0.27860135 -0.06596582
0000b0 12 bf 87 be 1a 25 91 3e eb 05 9e be 23 f7 4b be
       -0.26512963 0.2834862 -0.3086389 -0.19918494
0000c0 7a ef c9 be a2 4c 8d be b4 ea ab 3e c2 65 9a 3e
       -0.3944052 -0.2759753 0.33577502 0.3015576
0000d0 34 e6 72 3e 07 de 8c 3e 4d dc b9 3e aa 9c 54 bd
       0.23720628 0.27513143 0.3630089 -0.05190722
0000e0 f4 f0 37 3e f1 06 cc 3e 2c ce 62 3e bd ad dd 3e
       0.1796301 0.39849046 0.22148961 0.43296614
0000f0 3a d3 58 3e 1b e5 63 3e 1b 50 12 be 3c 08 1f 3e
       0.21174327 0.22255366 -0.1428837 0.15530485
000100 24 46 2b 3d 8b c8 00 be 24 a8 6b be 9c 92 6a be
       0.04181494 -0.12576501 -0.2301336 -0.2290749
000110 dc d6 a0 be d5 52 8c 3e df 99 94 3e dd 50 3e bd
       -0.31413925 0.27406946 0.29023644 -0.046463836
000120 e3 ea 71 be d4 75 97 3e 01 ab 85 3e eb f4 f9 3b
       -0.23624758 0.29582083 0.26107028 0.0076280735
000130 ca a9 45 be 26 ba b5 3e c4 f4 2a 3e e6 b9 cb be
       -0.1930305 0.35493582 0.16694933 -0.39790267
000140 6e 0d c8 3e aa 16 7f 3e 0a 81 7f be fe 03 18 3e
       0.39072746 0.2491099 -0.24951568 0.14845273
000150 80 87 6d be 16 07 83 bd 57 7b b1 3e bc 2f 8a 3c
       -0.2319622 -0.06397836 0.34664413 0.016868465
000160 30 d3 93 be 8e b9 0b be 09 f4 e2 bd 6b 4e a1 bd
       -0.2887206 -0.13645002 -0.11081702 -0.07876285
000170 76 07 20 3d 8f 4f c1 3e 0a 0f b3 3c 2a 0f 81 be
       0.039069615 0.3775601 0.021857757 -0.25206882
000180 cb 69 ab 3c a5 72 48 3e 26 5e 4f 3e c7 08 bf be
       0.02092447 0.19574983 0.20250759 -0.37311384
000190 c9 9c 95 bd 9b 55 9b be d3 5f 32 be 6c 72 5e 3d
       -0.07305295 -0.3033875 -0.17419367 0.05430834
0001a0 03 6f 94 be 66 ed 68 3d b6 52 85 3e 76 63 8e bd
       -0.28990945 0.056867026 0.26039666 -0.069525644
0001b0 b4 4f 8b be 99 c7 15 be 97 92 b6 3d 94 57 9f be
       -0.27209246 -0.14626922 0.089146785 -0.31121504
0001c0 90 b0 4f 3e 08 c4 bd be bb ee c8 be 7c 19 cb be
       0.20282197 -0.37063622 -0.39244637 -0.3966788
0001d0 ce 9c a9 bd d5 8d 8c 3e 04 d6 c5 be c2 bc ad 3e
       -0.08281861 0.2745196 -0.38639843 0.33933073
0001e0 62 3a 27 be d3 e0 f4 3d 56 83 98 3c eb 7a bc be
       -0.16330865 0.11956944 0.018617313 -0.3681253
0001f0 55 59 ad 3e 22 18 61 3e a1 c4 cf 3e 78 c4 40 3e
       0.33857217 0.21981862 0.40579703 0.18824947
000200 3d f8 89 be 5d be 9e 3e f3 62 14 3d 13 f2 2f 3e
       -0.26947203 0.3100461 0.036227178 0.17182188
000210 d0 99 a7 be 7d 7b f0 bd 31 3c cd be 6e d3 22 be
       -0.32734537 -0.117423035 -0.40084985 -0.15900967
000220 07 5f b4 3d f1 1d a4 be 19 42 05 3e 86 3a 10 3e
       0.088071875 -0.32054093 0.13013496 0.14084825
000230 6f f3 68 3d 9e a5 b3 be de 7f ca be 95 fe 57 be
       0.05687278 -0.35087293 -0.3955068 -0.21093209
000240 3c 81 37 3e ff 2d ce 3e 84 63 70 3e b4 4d 3c bd
       0.17920393 0.40269467 0.23475462 -0.04597254
000250 eb 92 12 3e 99 10 cd be e5 86 b2 be 4f 10 43 3e
       0.14313857 -0.40051726 -0.3486854 0.1904919
000260 aa c9 6c be c9 1e 49 3e 60 8e 93 be 18 10 4f be
       -0.23123804 0.1964065 -0.2881956 -0.20220983
000270 88 2b ac be 31 63 0e 3e 30 63 2a bd e8 cb 74 3e
       -0.33626962 0.13905026 -0.0415985 0.23905909
000280 93 e9 3b 3e 6e 67 0f 3e 78 15 57 3c 7a 32 0e be
       0.1835082 0.14004299 0.013127677 -0.13886443
000290 01 cb b5 bd 9c b1 16 3d ea ce 5a 3e 39 45 9e be
       -0.088766105 0.036790475 0.21367994 -0.30912188
0002a0 b1 6d af 3e 1b d1 35 bd 67 26 af be ed 2f 62 be
       0.34263375 -0.04438887 -0.34208986 -0.22088595
0002b0 87 f2 b8 3e 47 28 bf 3e 27 9d c1 be ea 0b 29 3e
       0.36122534 0.37335417 -0.3781521 0.16508451
0002c0 fa 81 51 3e b0 36 e6 3d 64 29 7b 3e 92 c9 b2 be
       0.20459738 0.112408996 0.24527508 -0.3491941
0002d0 46 02 04 3e 6c 46 6e 3e 4f 0f f7 bd 05 9e 46 3e
       0.12891492 0.23269051 -0.12063467 0.19396217
0002e0 71 ec 30 bd f8 d0 9f 3e 4d fa e7 bd 2d 0c 33 be
       -0.043194238 0.31214118 -0.11327038 -0.17485113
0002f0 49 7c d2 3d 58 83 fa 3d 24 ec 50 be d5 a3 66 3c
       0.10277612 0.12232083 -0.2040258 0.014077147

rho.rho.0.bias f4 [32]
000000 a2 11 7a 3e 0d 4e 01 bd f2 07 cc 3d c6 28 ed bd
       0.24420789 -0.031568576 0.09962453 -0.115800425
000010 a2 10 0e 3e 47 6a 97 be c0 d2 75 be 42 32 54 be
       0.13873532 -0.2957327 -0.24006176 -0.20722297
000020 4a 87 b1 3e 1d fe dd bd bb ee bd ba a3 8a 4a be
       0.3467353 -0.10839484 -0.0014490703 -0.19779448
000030 ed 48 d3 3e c3 41 a2 3e 78 a4 9d be e2 72 a9 be
       0.41266575 0.31690797 -0.30789542 -0.3309546
000040 25 70 9e be d3 f8 b8 bd 8e 1f d5 bd b0 d0 88 be
       -0.30944934 -0.090318345 -0.10406409 -0.26721716
000050 09 f1 15 be a3 eb ad 3d e1 6c 5a be eb 2e 4a 3c
       -0.14642729 0.0849221 -0.21330597 0.012340288
000060 b3 ba bf bd e5 91 4a be db ea fa bc 0a 4b ac 3e
       -0.09361782 -0.19782217 -0.030629566 0.33651
000070 f3 50 8d be 83 18 b3 bd c6 78 c6 bd 13 34 cd 3e
       -0.27600822 -0.087449096 -0.096910045 0.40078792

rho.rho.2.weight f4 [32, 32]
000000 97 be 2b be 45 89 2d be ac 5f 32 3e e8 0e e5 bd
       -0.16771923 -0.16946895 0.17419308 -0.11184484
000010 91 d2 0a 3d 1a f8 79 bc 2e 88 18 bd 98 b8 21 bd
       0.033892218 -0.015256906 -0.037239246 -0.039482683
000020 d7 0d e6 3d 4f 6f 0a 3c 39 3e 30 be b3 bb d5 bd
       0.112331085 0.00844939 -0.17211236 -0.104361914
000030 93 d6 76 bd 0d 2f b6 3d 95 49 ea bd ca af 2a 3e
       -0.060263228 0.08895693 -0.11439816 0.1666862
000040 f4 45 21 bd 4a 04 02 bd d2 d6 0d 3e a3 f6 b5 3d
       -0.039373353 -0.03174237 0.13851479 0.08884933
000050 b4 86 19 3e 52 6b d1 3d d5 a6 5b bd e2 33 f0 bd
       0.14992791 0.10225548 -0.0536259 -0.11728646
000060 87 7e 57 bc 83 d1 15 3e c3 03 73 bd 34 df 27 be
       -0.013152725 0.14630704 -0.05932976 -0.16393739
000070 f2 68 94 3d 97 37 30 3e f7 21 4e bd 66 e3 15 be
       0.07246579 0.17208706 -0.05032536 -0.14637527
000080 02 32 24 be 0e 74 35 3d c6 4e 5b bc 2d d3 b6 bd
       -0.16034701 0.04430013 -0.01338548 -0.08926997
000090 ee 5b 12 3d c5 7c 89 3d d6 f7 0f 3e 4a 8a 0c 3e
       0.035732202 0.06713251 0.14059386 0.13724628
0000a0 e2 c3 d8 bc ed 9d 1f be c1 92 23 be 10 04 29 3e
       -0.026460592 -0.15587588 -0.15973951 0.16505456
0000b0 84 0a a0 3d b9 d0 9d 3d 2a 9f 1c be 73 a0 27 3e
       0.07814506 0.07705826 -0.15295091 0.163698
0000c0 c7 7c 2b 3e 67 6f 23 3e 88 b4 18 be 0c 9b 88 bd
       0.16746818 0.15960465 -0.14912617 -0.06670198
0000d0 41 ff f8 bd 49 6b 2b 3e 8f 8f 9b bd 57 4a a5 bd
       -0.12158061 0.16740145 -0.07595741 -0.0807082
0000e0 3e ad bd 3d f0 79 a7 bd e3 4f b2 bd 30 58 7d bc
       0.09261559 -0.081775546 -0.087066434 -0.01546292
0000f0 29 32 8b bc 9a 02 0d be f9 e8 16 3e ff b3 9f bd
       -0.016991692 -0.13770524 0.1473731 -0.077980034
000100 bc ee d4 3d 19 64 17 3e b4 65 d7 3d 64 5f ce bc
       0.103970975 0.14784278 0.10517445 -0.02519197
000110 55 6c 27 3e 84 ab c2 3c e5 7f a7 bd 84 3e 2b 3e
       0.16349919 0.023763426 -0.08178691 0.16723067
000120 29 a3 8d 3d 78 a6 4d be f4 fa 87 bd e5 9b f6 bd
       0.06915886 -0.20083034 -0.066396624 -0.12041453
000130 25 ca 36 3e 0e d6 bc 3b ee 00 25 be 5b 12 36 bc
       0.1785055 0.005762822 -0.16113636 -0.011112775
000140 6d 5d e3 3d 77 f0 94 3d da f4 64 3d aa 7e 86 3c
       0.11101804 0.072724275 0.05589757 0.01641782
000150 8c f9 86 3d f8 6f 17 bd e1 04 90 bd 1d 14 d0 bd
       0.06590566 -0.036972016 -0.070321806 -0.10160086
000160 59 5e 08 be 92 e8 9c 3d 43 b3 ad bd 85 76 81 3d
       -0.13317241 0.07661547 -0.08481457 0.06321434
000170 8a 1e 67 3d a1 48 1b 3d 5e 4e 34 be fb 9f 4d 3e
       0.05642561 0.03791106 -0.1760802 0.20080559
000180 79 86 d2 bd 75 e3 14 3e 9c 00 10 be fb 2c 2e bd
       -0.10279555 0.14539893 -0.14062732 -0.042523365
000190 10 f0 c4 3d 08 ec 93 bd 63 10 18 3e a6 23 f9 bd
       0.09616101 -0.07222754 0.14850001 -0.121650025
0001a0 cf 03 18 be 0b 40 a3 bd 45 18 ea 3c b3 ac 26 3e
       -0.14845203 -0.079711996 0.028576026 0.16276817
0001b0 6c d6 ac bd aa 79 81 3d 02 88 35 bd 6c 06 1d bd
       -0.08439335 0.06322034 -0.04431916 -0.038336203
0001c0 a8 1a 05 3e 95 49 0c be 36 d0 99 3c 74 3b 2a 3e
       0.1299845 -0.13699944 0.01877604 0.16624242
0001d0 7e fe c6 bc e1 8c 0c 3e 0b fc 5e bd b6 b6 11 3e
       -0.024291273 0.13725616 -0.054439586 0.14229855
0001e0 02 1b 2f be 9f b6 d0 bc fa 5c fe bc a0 a9 6a 3d
       -0.17100146 -0.025477706 -0.031050194 0.057290673
0001f0 a7 09 8e 3d 5d fd 0a 3e 37 c1 d7 bc f2 b4 e5 bb
       0.06935435 0.13573213 -0.02633725 -0.0070100958
000200 1f cc 4b 3d 21 88 e4 bd 2f 2d b2 3d e5 3e 37 be
       0.049755212 -0.11158777 0.08700024 -0.17895086
000210 8c c1 b3 bd 41 90 1b bc 95 8b a1 3d 67 84 f7 3d
       -0.087771505 -0.009494842 0.07887951 0.120858006
000220 69 1e c6 bd c6 65 52 be 4d 32 c0 3c 32 98 58 3d
       -0.09673769 -0.20546636 0.023461485 0.05287952
000230 4c a4 7d 3a e3 98 37 be a9 01 e9 3d 10 74 2b 3e
       0.0009675666 -0.17929415 0.1137727 0.16743493
000240 15 51 7b 3c 58 a7 69 be c1 25 fe 3d 8e 37 06 be
       0.015339156 -0.22817743 0.12409545 -0.1310713
000250 f7 71 26 3d 21 17 2b bd 84 72 a9 bd 6a fa 26 3c
       0.04063603 -0.041770104 -0.08273795 0.010191539
000260 dc e8 21 be 5d ea 24 3d 96 8f 37 be 16 dc b2 bd
       -0.15811485 0.04026257 -0.17925867 -0.08733384
000270 44 46 ba 3c d5 39 b0 3d 6a bc ac bd 13 bb 2f 3d
       0.022738583 0.086047806 -0.08434375 0.042903017
000280 87 fa a8 bd 80 76 13 be 51 20 5b be ac 16 26 be
       -0.08250909 -0.14400673 -0.21399046 -0.16219586
000290 ef 94 e6 3d a5 95 34 bd ce aa 10 3c 69 4e 44 3d
       0.112588756 -0.044088025 0.0088297855 0.04792634
0002a0 77 32 76 3d cd 7e 1a 3e 65 a5 aa 3d 3a 1d 06 be
       0.06010672 0.15087433 0.08332328 -0.13097087
0002b0 e0 fe b4 bd 6f 9c 28 be f7 d9 ce bd 9a c1 2b 3d
       -0.08837676 -0.16465925 -0.10100167 0.04193268
0002c0 d7 e9 29 3e a1 81 4e be 80 1b db 3d 7b b4 bb bd
       0.16593109 -0.20166637 0.106986046 -0.09165283
0002d0 19 08 0d bd 99 63 a4 3d c9 c3 23 bd 63 07 34 bd
       -0.03443155 0.08026809 -0.039981637 -0.043952357
0002e0 aa 13 fd bd 4f 17 1a 3e bf c9 a9 bd 0b e4 41 be
       -0.12357266 0.15047954 -0.08290433 -0.18934648
0002f0 6f 04 54 3d 39 33 3e be e2 a3 0f be db de 49 bd
       0.05176204 -0.18574227 -0.1402736 -0.049284797
000300 b7 5e 30 3e 06 2f 81 bd 78 a6 bd 3d e0 6c b2 3d
       0.17223631 -0.06307797 0.09260267 0.087121725
000310 c9 43 f9 3d 50 e9 bd bd 1b bf 9e bc 2f db 63 bd
       0.12171132 -0.092730165 -0.019378236 -0.05562895
000320 62 19 fe bd c6 cf 3f bd 2e 58 e5 3d f9 82 18 3e
       -0.12407185 -0.046829008 0.111984596 0.14893712
000330 37 60 f6 3c b6 22 86 3d 00 bc 9c bd 1d a4 08 3e
       0.030075176 0.06549589 -0.07653046 0.13343854
000340 ba a5 96 bd 5a 21 c7 bd a3 01 df 3c 2d 00 d9 3d
       -0.073558286 -0.09723158 0.02722246 0.10595737
000350 9c 34 23 be 81 11 20 3e 8f 3c 82 3d 0c f3 71 bd
       -0.15938038 0.15631677 0.06359207 -0.05906968
000360 c0 f8 1b bd 7a 0c 1d 3e 42 08 fe bd 3a 75 b8 bc
       -0.038079023 0.1533679 -0.12403919 -0.022516835
000370 ac 7b 6d 3d 77 d6 05 be 8d c1 00 3d 77 31 e8 3d
       0.05797927 -0.13070093 0.031434584 0.1133756
000380 6d 37 14 3d b8 2c 49 be 22 d5 c5 3d 43 9a d6 bd
       0.03618567 -0.19645965 0.096597925 -0.10478642
000390 8a 47 c6 3d f7 b8 2d be 65 48 21 be e1 5c de 3d
       0.09681614 -0.1696509 -0.15750273 0.10857559
0003a0 86 04 75 bd c0 7f b0 bc 70 08 3a be c8 dd 97 bd
       -0.059818767 -0.021545291 -0.18167281 -0.07415348
0003b0 f2 c2 04 be 96 5f 7e be 75 84 16 3c 3d 0f 00 3d
       -0.1296499 -0.2484115 0.009186854 0.031264532
0003c0 fa ee 1c b9 69 a9 bd bc a8 c2 2b 3e 47 85 40 3d
       -0.00014966345 -0.02315207 0.16773474 0.047002103
0003d0 49 88 84 bd 38 a6 1d be 65 a2 e7 bd 9a 59 40 be
       -0.06471307 -0.15395439 -0.11310271 -0.1878418
0003e0 9f 39 e9 bc 7a 10 00 bd 03 82 af ba f0 02 1c be
       -0.028469859 -0.031265713 -0.0013390187 -0.15235496
0003f0 2d 4f 10 3e 68 72 50 be ae b5 03 3a 37 2b a8 3d
       0.14092703 -0.20356143 0.0005024326 0.082113676

rho.rho.2.bias f4 [32]
000000 1f aa 96 bd 4a 4d 4b bd c4 91 e8 3d 82 7c ed bd
       -0.07356667 -0.049634255 0.113559276 -0.115960136
000010 33 22 53 bd c1 ec 46 3c 12 f0 77 3c bb 03 37 bd
       -0.051546287 0.0121414075 0.015132921 -0.044681292
000020 14 17 0a be 57 77 e8 3c 4e fd c4 3b 04 2c 4b bc
       -0.13485366 0.028377218 0.0060116416 -0.012400631
000030 f5 ad 15 be 7e ce 90 3d 25 1b 0f 3d 31 4b fd bc
       -0.1461714 0.07070635 0.034937996 -0.030919643
000040 9d 42 fa 3d 64 31 86 3d c1 cd 90 bd 12 10 49 bc
       0.12219737 0.06552389 -0.070704944 -0.012271898
000050 71 89 f8 3d 19 c7 5a 3a b6 44 60 be 13 39 53 bc
       0.1213559 0.0008345708 -0.21901211 -0.0128920255
000060 09 b8 da 3d 59 4a dd bd 0b 4b 1c be bf f5 f2 3d
       0.10679633 -0.10805196 -0.15263002 0.118632786
000070 2e 1f 07 3e 2e c3 1f 3c 27 f8 13 3c 29 29 99 bc
       0.13195488 0.009751124 0.009031332 -0.018696385

rho.rho.4.weight f4 [1, 32]
000000 18 1b 28 3d e8 dd cd 3b 98 cd 02 be 23 27 06 3d
       0.041041464 0.006282557 -0.1277374 0.032752167
000010 f7 c0 82 bd a6 2b 47 bd f7 d3 15 bd ee b4 c1 bc
       -0.063844614 -0.04862561 -0.0365791 -0.023645844
000020 6d 61 12 be b3 b4 a8 bc 53 63 12 3d bd 69 06 bd
       -0.14294977 -0.020593977 0.035739254 -0.032815684
000030 a8 9d 0c be 07 75 28 ba 64 6a 02 bd 12 70 1c be
       -0.13732016 -0.000642613 -0.031839743 -0.15277126
000040 08 7f 0b be 89 6e 27 3e a1 5e 07 3e 97 a4 c8 3d
       -0.13622677 0.1635076 0.13219692 0.09797018
000050 1b 21 8c 3d 18 5f 8b 3d f2 8c de 3c 3b c9 ef 3d
       0.06842252 0.06805247 0.027166817 0.117083035
000060 f2 77 07 bd f9 1d 44 3d 27 2b 87 3d dc 6d a8 bc
       -0.033073373 0.047880147 0.066000275 -0.020560198
000070 ce c7 08 be bf b6 18 be b4 7a ca 3d 1c f1 15 3e
       -0.1335747 -0.14913462 0.09886685 0.14642757

exp_avg f4 [32, 3]
000000 18 46 26 ab de bb 74 aa 58 65 0b aa 00 00 00 00
       -5.907232e-13 -2.1736733e-13 -1.2380841e-13 0.0
000010 00 00 00 00 00 00 00 00 00 00 00 00 00 00 00 00
       0.0 0.0 0.0 0.0
000020 00 00 00 00 00 00 00 00 00 00 00 00 00 00 00 00
       0.0 0.0 0.0 0.0
000030 6d 5d a8 29 5d 6d 12 29 73 d6 c1 25 15 1c 26 2a
       7.4769055e-14 3.251337e-14 3.362548e-16 1.4753505e-13
000040 55 89 82 29 f0 ed 48 29 00 00 00 00 00 00 00 00
       5.796983e-14 4.46153e-14 0.0 0.0
000050 00 00 00 00 da 4a 48 2a 0a ea ed 29 76 3c 12 2a
       0.0 1.7789538e-13 1.05655136e-13 1.2988382e-13
000060 00 00 00 00 00 00 00 00 00 00 00 00 00 00 00 00
       0.0 0.0 0.0 0.0
000070 00 00 00 00 00 00 00 00 00 00 00 00 00 00 00 00
       0.0 0.0 0.0 0.0
000080 00 00 00 00 00 00 00 00 00 00 00 00 00 00 00 00
       0.0 0.0 0.0 0.0
000090 65 64 75 2a 9d 4e 0c 2a 4b ba b8 29 0b 34 86 2a
       2.1795203e-13 1.2461772e-13 8.203558e-14 2.3839294e-13
0000a0 71 65 a7 29 e0 d8 09 a8 00 00 00 00 00 00 00 00
       7.433887e-14 -7.652055e-15 0.0 0.0
0000b0 00 00 00 00 a2 d9 3a 2b aa 91 81 2a 20 90 f1 29
       0.0 6.63825e-13 2.3016078e-13 1.07275517e-13
0000c0 00 00 00 00 00 00 00 00 00 00 00 00 16 b1 07 ab
       0.0 0.0 0.0 -4.820739e-13
0000d0 79 d2 26 aa 64 00 85 29 01 ed 01 2b b6 75 21 2a
       -1.4816784e-13 5.906454e-14 4.6158915e-13 1.4340512e-13
0000e0 18 24 f4 28 00 00 00 00 00 00 00 00 00 00 00 00
       2.7105095e-14 0.0 0.0 0.0
0000f0 ce 64 9a 2a f1 17 e6 29 6a d7 19 29 ea 4d 06 ab
       2.7425843e-13 1.0218205e-13 3.4159666e-14 -4.771449e-13
000100 d2 1e 46 aa 78 d6 fd a9 ca d8 07 a7 22 08 53 a8
       -1.7596626e-13 -1.12726614e-13 -1.8852535e-15 -1.17146164e-14
000110 9a 41 b5 29 83 e3 f4 a9 c7 b9 69 a9 4a 1d 68 a9
       8.049395e-14 -1.0875244e-13 -5.189753e-14 -5.1539753e-14
000120 69 92 34 2b f1 77 7d 2a 9c af d1 29 60 51 4c aa
       6.415203e-13 2.2512527e-13 9.311928e-14 -1.8147072e-13
000130 f0 0d aa a9 6e f2 d0 a8 00 00 00 00 00 00 00 00
       -7.551934e-14 -2.3197776e-14 0.0 0.0
000140 00 00 00 00 88 d6 37 2b fd 47 90 2a 16 73 13 2a
       0.0 6.531238e-13 2.562949e-13 1.3096151e-13
000150 00 00 00 00 00 00 00 00 00 00 00 00 00 00 00 00
       0.0 0.0 0.0 0.0
000160 00 00 00 00 00 00 00 00 f9 15 27 2b ab 70 55 2a
       0.0 0.0 5.936081e-13 1.895729e-13
000170 a9 bf af 28 00 00 00 00 00 00 00 00 00 00 00 00
       1.9512022e-14 0.0 0.0 0.0

exp_avg_sq f4 [32, 3]
000000 bf 71 22 31 88 65 ca 2f ba 84 89 2f 00 00 00 00
       2.363876e-09 3.6815728e-10 2.5014463e-10 0.0
000010 00 00 00 00 00 00 00 00 00 00 00 00 00 00 00 00
       0.0 0.0 0.0 0.0
000020 00 00 00 00 00 00 00 00 00 00 00 00 00 00 00 00
       0.0 0.0 0.0 0.0
000030 0d e0 5c 2e 58 a7 03 2d be 20 a5 2c 09 d4 01 30
       5.0221206e-11 7.483646e-12 4.693217e-12 4.7231247e-10
000040 0f 50 9c 2e 17 58 2b 2e 00 00 00 00 00 00 00 00
       7.10828e-11 3.8959138e-11 0.0 0.0
000050 00 00 00 00 bb eb 49 31 0b 57 f2 2f 51 1e 88 2f
       0.0 2.9383347e-09 4.408139e-10 2.4759797e-10
000060 00 00 00 00 00 00 00 00 00 00 00 00 00 00 00 00
       0.0 0.0 0.0 0.0
000070 00 00 00 00 00 00 00 00 00 00 00 00 00 00 00 00
       0.0 0.0 0.0 0.0
000080 00 00 00 00 00 00 00 00 00 00 00 00 00 00 00 00
       0.0 0.0 0.0 0.0
000090 17 77 c2 30 40 c0 ee 2f db 84 81 2f 5a b0 88 30
       1.4149205e-09 4.342855e-10 2.3559363e-10 9.945424e-10
0000a0 b9 08 23 2f 92 8c c5 2e 00 00 00 00 00 00 00 00
       1.4827863e-10 8.983493e-11 0.0 0.0
0000b0 00 00 00 00 4a 5f c3 31 74 b0 69 30 9a 04 0f 30
       0.0 5.68608e-09 8.501566e-10 5.2029636e-10
0000c0 00 00 00 00 00 00 00 00 00 00 00 00 c4 84 4a 30
       0.0 0.0 0.0 7.3675843e-10
0000d0 51 ab e3 2e 2f 1c 88 2e 6e 37 82 31 ac 71 19 30
       1.0353197e-10 6.1895704e-11 3.7897996e-09 5.5822613e-10
0000e0 ee fd b4 2f 00 00 00 00 00 00 00 00 00 00 00 00
       3.2922237e-10 0.0 0.0 0.0
0000f0 12 66 bc 30 72 cf 44 2f 76 bf 0a 2e dc 25 0c 31
       1.370781e-09 1.7899796e-10 3.154762e-11 2.0394202e-09
000100 36 87 b0 2f 67 5a 7d 2f b8 a6 4e 31 a2 65 f7 2f
       3.2110287e-10 2.3042333e-10 3.0071714e-09 4.5001253e-10
000110 9e 35 8b 2f 98 04 07 30 22 2a b7 2e 35 d5 b0 2e
       2.532205e-10 4.911924e-10 8.329361e-11 8.0414266e-11
000120 fe e0 93 31 ca c9 2f 30 44 76 cd 2f fa f6 84 2f
       4.3038417e-09 6.395139e-10 3.7373316e-10 2.4186148e-10
000130 be 94 20 2e c8 12 e0 2d 00 00 00 00 00 00 00 00
       3.6511898e-11 2.5474192e-11 0.0 0.0
000140 00 00 00 00 fd 72 12 31 9b 11 b2 2f 5a da 57 2f
       0.0 2.131116e-09 3.239052e-10 1.963171e-10
000150 00 00 00 00 00 00 00 00 00 00 00 00 00 00 00 00
       0.0 0.0 0.0 0.0
000160 00 00 00 00 00 00 00 00 57 ae 93 31 68 4c 2d 30
       0.0 0.0 4.2980832e-09 6.3045613e-10
000170 2b 41 c9 2f 00 00 00 00 00 00 00 00 00 00 00 00
       3.6607992e-10 0.0 0.0 0.0

exp_avg f4 [32]
000000 38 27 83 ab 00 00 00 00 00 00 00 00 00 00 00 00
       -9.318995e-13 0.0 0.0 0.0
000010 fa 55 f2 29 21 ce 8c 2a 00 00 00 00 2a be e8 2a
       1.07618734e-13 2.5012026e-13 0.0 4.1343431e-13
000020 00 00 00 00 00 00 00 00 00 00 00 00 00 00 00 00
       0.0 0.0 0.0 0.0
000030 19 08 ef 2a a5 be ab 2a 00 00 00 00 3d ea 8c 2b
       4.2460547e-13 3.0507988e-13 0.0 1.0012612e-12
000040 00 00 00 00 ac c5 20 ab 90 eb 31 2b 00 00 00 00
       0.0 -5.7117744e-13 6.320994e-13 0.0
000050 b8 25 e7 2a 6a 90 57 ab d9 a1 96 29 85 e7 6e aa
       4.1060016e-13 -7.658376e-13 6.689414e-14 -2.1218971e-13
000060 33 13 87 2b 53 bb 9d aa 00 00 00 00 ae 6b 92 2b
       9.597656e-13 -2.8018785e-13 0.0 1.0403811e-12
000070 00 00 00 00 00 00 00 00 28 f0 61 2b 00 00 00 00
       0.0 0.0 8.026934e-13 0.0

exp_avg_sq f4 [32]
000000 f2 d3 ee 31 00 00 00 00 00 00 00 00 00 00 00 00
       6.950807e-09 0.0 0.0 0.0
000010 2a 37 1b 2f cf f7 b5 30 00 00 00 00 10 9f 0d 32
       1.4116766e-10 1.3239915e-09 0.0 8.243447e-09
000020 00 00 00 00 00 00 00 00 00 00 00 00 00 00 00 00
       0.0 0.0 0.0 0.0
000030 4e e3 ba 31 07 e4 40 31 00 00 00 00 f6 d9 8a 32
       5.439154e-09 2.8069296e-09 0.0 1.6164432e-08
000040 00 00 00 00 19 f4 08 31 7f ac 36 32 00 00 00 00
       0.0 1.9929358e-09 1.0633015e-08 0.0
000050 c0 93 57 31 b7 1f d1 31 41 c5 10 32 ca 3d dd 30
       3.1370604e-09 6.086306e-09 8.4267535e-09 1.6097428e-09
000060 84 15 50 32 3b a8 40 30 00 00 00 00 31 0c d1 31
       1.2112086e-08 7.0088263e-10 0.0 6.0840866e-09
000070 00 00 00 00 00 00 00 00 1e 24 4e 32 00 00 00 00
       0.0 0.0 1.199899e-08 0.0

exp_avg f4 [6, 32]
000000 00 00 00 00 00 00 00 00 00 00 00 00 00 00 00 00
       0.0 0.0 0.0 0.0
000010 00 00 00 00 00 00 00 00 00 00 00 00 00 00 00 00
       0.0 0.0 0.0 0.0
000020 00 00 00 00 00 00 00 00 00 00 00 00 00 00 00 00
       0.0 0.0 0.0 0.0
000030 00 00 00 00 00 00 00 00 00 00 00 00 00 00 00 00
       0.0 0.0 0.0 0.0
000040 00 00 00 00 00 00 00 00 00 00 00 00 00 00 00 00
       0.0 0.0 0.0 0.0
000050 00 00 00 00 00 00 00 00 00 00 00 00 00 00 00 00
       0.0 0.0 0.0 0.0
000060 00 00 00 00 00 00 00 00 00 00 00 00 00 00 00 00
       0.0 0.0 0.0 0.0
000070 00 00 00 00 00 00 00 00 00 00 00 00 00 00 00 00
       0.0 0.0 0.0 0.0
000080 13 9d a9 2b 00 00 00 00 00 00 00 00 00 00 00 00
       1.2051769e-12 0.0 0.0 0.0
000090 c5 15 ed 2a 0d e2 c4 2b 00 00 00 00 53 bf 64 2b
       4.2114763e-13 1.3989379e-12 0.0 8.126739e-13
0000a0 00 00 00 00 00 00 00 00 00 00 00 00 00 00 00 00
       0.0 0.0 0.0 0.0
0000b0 7b dc 5f 29 10 80 83 2b 00 00 00 00 06 f5 8e 2b
       4.9707183e-14 9.343654e-13 0.0 1.0157715e-12
0000c0 00 00 00 00 66 07 81 2c 53 fd 33 2c 00 00 00 00
       0.0 3.667222e-12 2.5578053e-12 0.0
0000d0 57 bd 78 2a 50 b2 54 2b cb 30 2f 2b 38 19 c1 2b
       2.2092515e-13 7.556499e-13 6.2240203e-13 1.3720474e-12
0000e0 c6 0b 1b 2c a1 90 be 2b 00 00 00 00 5d 72 4d 2c
       2.203336e-12 1.3540455e-12 0.0 2.9195737e-12
0000f0 00 00 00 00 00 00 00 00 a5 70 0f 2b 00 00 00 00
       0.0 0.0 5.096013e-13 0.0
000100 00 00 00 00 00 00 00 00 00 00 00 00 00 00 00 00
       0.0 0.0 0.0 0.0
000110 00 00 00 00 00 00 00 00 00 00 00 00 00 00 00 00
       0.0 0.0 0.0 0.0
000120 00 00 00 00 00 00 00 00 00 00 00 00 00 00 00 00
       0.0 0.0 0.0 0.0
000130 00 00 00 00 00 00 00 00 00 00 00 00 00 00 00 00
       0.0 0.0 0.0 0.0
000140 00 00 00 00 00 00 00 00 00 00 00 00 00 00 00 00
       0.0 0.0 0.0 0.0
000150 00 00 00 00 00 00 00 00 00 00 00 00 00 00 00 00
       0.0 0.0 0.0 0.0
000160 00 00 00 00 00 00 00 00 00 00 00 00 00 00 00 00
       0.0 0.0 0.0 0.0
000170 00 00 00 00 00 00 00 00 00 00 00 00 00 00 00 00
       0.0 0.0 0.0 0.0
000180 0a 0f 54 2b 00 00 00 00 00 00 00 00 00 00 00 00
       7.53384e-13 0.0 0.0 0.0
000190 dc 9c 0e 2b eb 39 b1 2b 00 00 00 00 7a d1 2a 2b
       5.066622e-13 1.2592682e-12 0.0 6.068684e-13
0001a0 00 00 00 00 00 00 00 00 00 00 00 00 00 00 00 00
       0.0 0.0 0.0 0.0
0001b0 9b 32 d8 28 cd 33 bd 2a 00 00 00 00 17 64 a5 2b
       2.4002764e-14 3.3609088e-13 0.0 1.1751736e-12
0001c0 00 00 00 00 fb c0 49 2c 57 1c 07 2c 00 00 00 00
       0.0 2.8670944e-12 1.9200386e-12 0.0
0001d0 94 7f ae 29 76 1e 07 2b cc af 39 2b cd 80 1c 2b
       7.7492835e-14 4.800391e-13 6.596917e-13 5.560108e-13
0001e0 26 e1 09 2c db aa 05 2b 00 00 00 00 37 ab 03 2c
       1.9593853e-12 4.74882e-13 0.0 1.8711263e-12
0001f0 00 00 00 00 00 00 00 00 39 f0 04 2b 00 00 00 00
       0.0 0.0 4.7229196e-13 0.0
000200 5c 25 8c 2a 00 00 00 00 00 00 00 00 00 00 00 00
       2.489492e-13 0.0 0.0 0.0
000210 e0 63 11 2a 51 86 09 2b 00 00 00 00 dd 8e 88 2a
       1.2913238e-13 4.885858e-13 0.0 2.4257584e-13
000220 00 00 00 00 00 00 00 00 00 00 00 00 00 00 00 00
       0.0 0.0 0.0 0.0
000230 8d 9e 75 28 0c d6 6b 2a 00 00 00 00 10 5f d6 2a
       1.3634612e-14 2.0946455e-13 0.0 3.808e-13
000240 00 00 00 00 f7 b3 87 2b c5 82 3a 2b 00 00 00 00
       0.0 9.642277e-13 6.6261954e-13 0.0
000250 7a 84 59 29 9d f8 2e 2a d4 62 88 2a 68 cc a2 2a
       4.8298584e-14 1.554056e-13 2.422703e-13 2.8918816e-13
000260 a8 58 38 2b 49 36 91 2a 00 00 00 00 9f 22 40 2b
       6.5492967e-13 2.5794842e-13 0.0 6.826015e-13
000270 00 00 00 00 00 00 00 00 91 ee 44 2a 00 00 00 00
       0.0 0.0 1.7491066e-13 0.0
000280 6c 91 29 2c 00 00 00 00 00 00 00 00 00 00 00 00
       2.409707e-12 0.0 0.0 0.0
000290 55 15 7a 2b 23 49 14 2c 00 00 00 00 bf f4 82 2b
       8.8847446e-13 2.1072664e-12 0.0 9.304986e-13
0002a0 00 00 00 00 00 00 00 00 00 00 00 00 00 00 00 00
       0.0 0.0 0.0 0.0
0002b0 7d 9a ef 28 4b 27 a3 2b 00 00 00 00 02 3e f4 2b
       2.6601329e-14 1.1592753e-12 0.0 1.7354453e-12
0002c0 00 00 00 00 ae 97 df 2c 60 03 8e 2c 00 00 00 00
       0.0 6.354881e-12 4.0362574e-12 0.0
0002d0 1d 53 13 2a 46 75 dd 2b ed c0 63 2b b9 17 00 2c
       1.3085058e-13 1.5735544e-12 8.091434e-13 1.8203063e-12
0002e0 d1 19 81 2c c1 6a 06 2c 00 00 00 00 ff a4 a4 2c
       3.6692667e-12 1.9101806e-12 0.0 4.6794786e-12
0002f0 00 00 00 00 00 00 00 00 6a 2f 37 2b 00 00 00 00
       0.0 0.0 6.508046e-13 0.0

exp_avg_sq f4 [6, 32]
000000 00 00 00 00 00 00 00 00 00 00 00 00 00 00 00 00
       0.0 0.0 0.0 0.0
000010 00 00 00 00 00 00 00 00 00 00 00 00 00 00 00 00
       0.0 0.0 0.0 0.0
000020 00 00 00 00 00 00 00 00 00 00 00 00 00 00 00 00
       0.0 0.0 0.0 0.0
000030 00 00 00 00 00 00 00 00 00 00 00 00 00 00 00 00
       0.0 0.0 0.0 0.0
000040 00 00 00 00 00 00 00 00 00 00 00 00 00 00 00 00
       0.0 0.0 0.0 0.0
000050 00 00 00 00 00 00 00 00 00 00 00 00 00 00 00 00
       0.0 0.0 0.0 0.0
000060 00 00 00 00 00 00 00 00 00 00 00 00 00 00 00 00
       0.0 0.0 0.0 0.0
000070 00 00 00 00 00 00 00 00 00 00 00 00 00 00 00 00
       0.0 0.0 0.0 0.0
000080 d5 fe b9 32 00 00 00 00 00 00 00 00 00 00 00 00
       2.1652719e-08 0.0 0.0 0.0
000090 66 21 cd 31 ea 7d b7 33 00 00 00 00 b2 36 b2 32
       5.970082e-09 8.544505e-08 0.0 2.07468e-08
0000a0 00 00 00 00 00 00 00 00 00 00 00 00 00 00 00 00
       0.0 0.0 0.0 0.0
0000b0 6a cd c1 2e 1e 3d 86 32 00 00 00 00 17 47 5a 33
       8.813113e-11 1.5627446e-08 0.0 5.0821736e-08
0000c0 00 00 00 00 97 69 ad 34 7c c3 23 34 00 00 00 00
       0.0 3.2300588e-07 1.5251675e-07 0.0
0000d0 54 ad 75 30 d0 fe 13 32 fe c4 b2 32 41 2d 02 33
       8.9376795e-10 8.614464e-09 2.0811509e-08 3.0309142e-08
0000e0 39 5d 20 34 81 22 cd 32 00 00 00 00 00 49 2c 34
       1.4935075e-07 2.3880832e-08 0.0 1.6045306e-07
0000f0 00 00 00 00 00 00 00 00 54 9f 3a 32 00 00 00 00
       0.0 0.0 1.0862852e-08 0.0
000100 00 00 00 00 00 00 00 00 00 00 00 00 00 00 00 00
       0.0 0.0 0.0 0.0
000110 00 00 00 00 00 00 00 00 00 00 00 00 00 00 00 00
       0.0 0.0 0.0 0.0
000120 00 00 00 00 00 00 00 00 00 00 00 00 00 00 00 00
       0.0 0.0 0.0 0.0
000130 00 00 00 00 00 00 00 00 00 00 00 00 00 00 00 00
       0.0 0.0 0.0 0.0
000140 00 00 00 00 00 00 00 00 00 00 00 00 00 00 00 00
       0.0 0.0 0.0 0.0
000150 00 00 00 00 00 00 00 00 00 00 00 00 00 00 00 00
       0.0 0.0 0.0 0.0
000160 00 00 00 00 00 00 00 00 00 00 00 00 00 00 00 00
       0.0 0.0 0.0 0.0
000170 00 00 00 00 00 00 00 00 00 00 00 00 00 00 00 00
       0.0 0.0 0.0 0.0
000180 22 c3 03 32 00 00 00 00 00 00 00 00 00 00 00 00
       7.669572e-09 0.0 0.0 0.0
000190 bf 5b 1a 31 af b6 09 33 00 00 00 00 4a e7 e0 31
       2.24621e-09 3.2063948e-08 0.0 6.5455525e-09
0001a0 00 00 00 00 00 00 00 00 00 00 00 00 00 00 00 00
       0.0 0.0 0.0 0.0
0001b0 45 7c c3 2d a7 39 a9 31 00 00 00 00 e4 71 9d 32
       2.222412e-11 4.9251017e-09 0.0 1.8328997e-08
0001c0 00 00 00 00 34 7a f4 33 f9 07 5a 33 00 00 00 00
       0.0 1.1384364e-07 5.076433e-08 0.0
0001d0 0f 33 57 2f 49 58 62 31 78 27 f6 31 95 21 29 32
       1.9572276e-10 3.2937513e-09 7.1640294e-09 9.84473e-09
0001e0 ac c8 5e 33 6a 3c ef 31 00 00 00 00 d9 59 56 33
       5.1870913e-08 6.9626838e-09 0.0 4.9907474e-08
0001f0 00 00 00 00 00 00 00 00 1c 96 70 31 00 00 00 00
       0.0 0.0 3.5009924e-09 0.0
000200 8b 45 94 30 00 00 00 00 00 00 00 00 00 00 00 00
       1.0788183e-09 0.0 0.0 0.0
000210 c4 25 a4 2f 0a fd 93 31 00 00 00 00 cd 74 8d 30
       2.985826e-10 4.3070303e-09 0.0 1.0292297e-09
000220 00 00 00 00 00 00 00 00 00 00 00 00 00 00 00 00
       0.0 0.0 0.0 0.0
000230 d6 17 93 2c 90 44 52 30 00 00 00 00 b9 4d 34 31
       4.1806376e-12 7.649499e-10 0.0 2.6237628e-09
000240 00 00 00 00 ff a3 8b 32 5e 98 03 32 00 00 00 00
       0.0 1.6256307e-08 7.659848e-09 0.0
000250 09 a3 36 2e 26 42 e8 2f b1 8a 91 30 b9 3e c6 30
       4.1526813e-11 4.2247555e-10 1.0589557e-09 1.4424223e-09
000260 73 a8 02 32 0a 7f 9d 30 00 00 00 00 bc 34 0b 32
       7.605297e-09 1.145936e-09 0.0 8.102855e-09
000270 00 00 00 00 00 00 00 00 c4 9a 17 30 00 00 00 00
       0.0 0.0 5.5153415e-10 0.0
000280 e9 2c 61 32 00 00 00 00 00 00 00 00 00 00 00 00
       1.3106935e-08 0.0 0.0 0.0
000290 44 d8 4c 31 75 a4 4b 33 00 00 00 00 b5 89 25 32
       2.980884e-09 4.7414193e-08 0.0 9.635575e-09
0002a0 00 00 00 00 00 00 00 00 00 00 00 00 00 00 00 00
       0.0 0.0 0.0 0.0
0002b0 0f 43 10 2e 17 f8 0a 32 00 00 00 00 32 c3 d8 32
       3.280137e-11 8.089066e-09 0.0 2.5234474e-08
0002c0 00 00 00 00 6b ee 39 34 98 ea a3 33 00 00 00 00
       0.0 1.7316204e-07 7.632951e-08 0.0
0002d0 70 0b ae 2f eb 58 c4 31 1a 3a 2c 32 60 03 91 32
       3.1658542e-10 5.7144596e-09 1.0024928e-08 1.6881756e-08
0002e0 c9 98 a1 33 7f 93 56 32 00 00 00 00 53 e7 a7 33
       7.524938e-08 1.2489976e-08 0.0 7.818621e-08
0002f0 00 00 00 00 00 00 00 00 90 ab a9 31 00 00 00 00
       0.0 0.0 4.9380517e-09 0.0

exp_avg f4 [6]
000000 00 00 00 00 fe 1d 8d 2c 00 00 00 00 35 b2 6b 2c
       0.0 4.010791e-12 0.0 3.3494433e-12
000010 0e 7f 99 2b f5 ad f8 2c
       1.0906569e-12 7.067897e-12

exp_avg_sq f4 [6]
000000 00 00 00 00 e4 ad dd 34 00 00 00 00 42 1f 1d 34
       0.0 4.129098e-07 0.0 1.4633136e-07
000010 4e a7 b3 32 92 e5 69 34
       2.0914424e-08 2.1783333e-07

exp_avg f4 [32, 6]
000000 00 00 00 00 ad 03 20 2b 00 00 00 00 c0 70 ba 29
       0.0 5.684852e-13 0.0 8.279618e-14
000010 4f ce 77 2a c3 4c 66 2b 00 00 00 00 f3 48 0f 2b
       2.2009585e-13 8.1818943e-13 0.0 5.0905043e-13
000020 00 00 00 00 66 aa 66 2a b7 2c 09 2a c5 0c 1f 2b
       0.0 2.0487222e-13 1.2183558e-13 5.650587e-13
000030 00 00 00 00 cf 6b 3d 2b 00 00 00 00 7b ba 67 2a
       0.0 6.7295903e-13 0.0 2.058162e-13
000040 32 0f a4 2a 75 1b 44 2b 00 00 00 00 3e f1 35 2a
       2.9142796e-13 6.967129e-13 0.0 1.6159727e-13
000050 00 00 00 00 08 c3 a2 2a 71 ab 57 aa 07 7e 48 2b
       0.0 2.891231e-13 -1.9155317e-13 7.122917e-13
000060 00 00 00 00 66 bb 07 2b 00 00 00 00 f2 44 12 2a
       0.0 4.82217e-13 0.0 1.2991325e-13
000070 9f 0f 62 2a 20 09 14 2b 00 00 00 00 00 00 00 00
       2.0078252e-13 5.2592826e-13 0.0 0.0
000080 00 00 00 00 00 00 00 00 00 00 00 00 00 00 00 00
       0.0 0.0 0.0 0.0
000090 00 00 00 00 00 00 00 00 00 00 00 00 00 00 00 00
       0.0 0.0 0.0 0.0
0000a0 00 00 00 00 00 00 00 00 00 00 00 00 00 00 00 00
       0.0 0.0 0.0 0.0
0000b0 00 00 00 00 00 00 00 00 00 00 00 00 00 00 00 00
       0.0 0.0 0.0 0.0
0000c0 00 00 00 00 5b aa c9 2a 00 00 00 00 99 f6 45 29
       0.0 3.582298e-13 0.0 4.3956677e-14
0000d0 89 b2 5e 2a c1 49 01 2b 00 00 00 00 62 45 79 aa
       1.9779503e-13 4.593236e-13 0.0 -2.2139715e-13
0000e0 00 00 00 00 ad e4 3a 2a 8c 96 ed aa 93 f3 2b 2b
       0.0 1.6599456e-13 -4.220412e-13 6.108943e-13
0000f0 00 00 00 00 a5 08 ff 2a 00 00 00 00 80 38 8b 2a
       0.0 4.5303098e-13 0.0 2.4730565e-13
000100 b8 0e 15 2a b7 de 8e 2a 00 00 00 00 00 00 00 00
       1.3238965e-13 2.5378807e-13 0.0 0.0
000110 00 00 00 00 00 00 00 00 00 00 00 00 00 00 00 00
       0.0 0.0 0.0 0.0
000120 00 00 00 00 8f 1d 0a 2b 00 00 00 00 f8 42 d2 29
       0.0 4.906847e-13 0.0 9.3374906e-14
000130 11 5f 51 2a 37 e9 3d 2b 00 00 00 00 80 40 bf 2a
       1.8595912e-13 6.746994e-13 0.0 3.3973171e-13
000140 00 00 00 00 14 7e 8b 29 94 94 4e 2a c7 c4 dc 2a
       0.0 6.194711e-14 1.8348024e-13 3.9216392e-13
000150 00 00 00 00 00 00 00 00 00 00 00 00 00 00 00 00
       0.0 0.0 0.0 0.0
000160 00 00 00 00 00 00 00 00 00 00 00 00 00 00 00 00
       0.0 0.0 0.0 0.0
000170 00 00 00 00 00 00 00 00 00 00 00 00 00 00 00 00
       0.0 0.0 0.0 0.0
000180 00 00 00 00 00 00 00 00 00 00 00 00 00 00 00 00
       0.0 0.0 0.0 0.0
000190 00 00 00 00 00 00 00 00 00 00 00 00 0e eb 87 2a
       0.0 0.0 0.0 2.414392e-13
0001a0 00 00 00 00 ce 9e 9b 29 f7 49 44 2a 3c 31 36 2a
       0.0 6.910931e-14 1.7433959e-13 1.6181929e-13
0001b0 00 00 00 00 00 00 00 00 00 00 00 00 00 00 00 00
       0.0 0.0 0.0 0.0
0001c0 00 00 00 00 00 00 00 00 00 00 00 00 00 00 00 00
       0.0 0.0 0.0 0.0
0001d0 00 00 00 00 00 00 00 00 00 00 00 00 00 00 00 00
       0.0 0.0 0.0 0.0
0001e0 00 00 00 00 00 00 00 00 00 00 00 00 00 00 00 00
       0.0 0.0 0.0 0.0
0001f0 00 00 00 00 00 00 00 00 00 00 00 00 23 f6 13 2b
       0.0 0.0 0.0 5.2566474e-13
000200 00 00 00 00 67 99 90 2a 04 f6 de 29 9f cc 19 2b
       0.0 2.5685983e-13 9.9014574e-14 5.464049e-13
000210 00 00 00 00 00 00 00 00 00 00 00 00 00 00 00 00
       0.0 0.0 0.0 0.0
000220 00 00 00 00 00 00 00 00 00 00 00 00 78 f9 b5 2a
       0.0 0.0 0.0 3.2325163e-13
000230 00 00 00 00 65 c3 48 29 4d 1c 94 2a 71 83 9f 2a
       0.0 4.45784e-14 2.630972e-13 2.833528e-13
000240 00 00 00 00 00 00 00 00 00 00 00 00 00 00 00 00
       0.0 0.0 0.0 0.0
000250 00 00 00 00 00 00 00 00 00 00 00 00 00 00 00 00
       0.0 0.0 0.0 0.0
000260 00 00 00 00 00 00 00 00 00 00 00 00 00 00 00 00
       0.0 0.0 0.0 0.0
000270 00 00 00 00 de 51 05 2a 00 00 00 00 42 d0 81 29
       0.0 1.1841176e-13 0.0 5.764878e-14
000280 2a e6 85 29 8f 32 f1 29 00 00 00 00 7b 14 c8 29
       5.9463136e-14 1.07113205e-13 0.0 8.885337e-14
000290 00 00 00 00 3d 4f 0e 28 09 98 d4 28 75 3b 7d 2a
       0.0 7.8997655e-15 2.3602663e-14 2.2491542e-13
0002a0 00 00 00 00 00 00 00 00 00 00 00 00 00 00 00 00
       0.0 0.0 0.0 0.0
0002b0 00 00 00 00 00 00 00 00 00 00 00 00 de 76 2f 2a
       0.0 0.0 0.0 1.5584363e-13
0002c0 00 00 00 00 3c e3 98 29 79 88 a5 29 ff 76 05 2a
       0.0 6.789575e-14 7.351146e-14 1.1854058e-13
0002d0 00 00 00 00 64 8f 21 ab 00 00 00 00 98 f6 98 aa
       0.0 -5.7397685e-13 0.0 -2.7171733e-13
0002e0 30 82 52 aa 35 00 f0 aa 00 00 00 00 38 50 40 2b
       -1.8696915e-13 -4.2632708e-13 0.0 6.832343e-13
0002f0 00 00 00 00 b5 16 07 2a 68 01 9a 2a e8 d1 77 2b
       0.0 1.1998287e-13 2.735687e-13 8.804333e-13

exp_avg_sq f4 [32, 6]
000000 00 00 00 00 38 98 8f 33 00 00 00 00 96 6f b3 32
       0.0 6.686645e-08 0.0 2.0889086e-08
000010 1f 1b 4d 32 e3 ea 4f 33 00 00 00 00 11 91 49 33
       1.1938737e-08 4.840957e-08 0.0 4.6930897e-08
000020 00 00 00 00 a6 a6 67 32 3e 97 2c 32 56 b4 06 33
       0.0 1.3483861e-08 1.0046106e-08 3.136332e-08
000030 00 00 00 00 06 75 07 33 00 00 00 00 3e 72 33 32
       0.0 3.153857e-08 0.0 1.0445147e-08
000040 40 c3 8d 31 ee 7c c4 32 00 00 00 00 fc 6b 2a 32
       4.1258374e-09 2.2874215e-08 0.0 9.919855e-09
000050 00 00 00 00 81 94 8c 31 77 bd 5c 30 d1 38 2c 32
       0.0 4.091419e-09 8.030478e-10 1.0024636e-08
000060 00 00 00 00 0f c8 db 32 00 00 00 00 cb dd 0e 32
       0.0 2.5585932e-08 0.0 8.315918e-09
000070 69 14 82 31 99 76 9f 32 00 00 00 00 00 00 00 00
       3.7858183e-09 1.8563968e-08 0.0 0.0
000080 00 00 00 00 00 00 00 00 00 00 00 00 00 00 00 00
       0.0 0.0 0.0 0.0
000090 00 00 00 00 00 00 00 00 00 00 00 00 00 00 00 00
       0.0 0.0 0.0 0.0
0000a0 00 00 00 00 00 00 00 00 00 00 00 00 00 00 00 00
       0.0 0.0 0.0 0.0
0000b0 00 00 00 00 00 00 00 00 00 00 00 00 00 00 00 00
       0.0 0.0 0.0 0.0
0000c0 00 00 00 00 97 d9 38 32 00 00 00 00 6b 8f 80 31
       0.0 1.0759684e-08 0.0 3.741595e-09
0000d0 cc a0 a1 30 62 7c 10 32 00 00 00 00 f7 31 31 33
       1.1759993e-09 8.4101845e-09 0.0 4.1256467e-08
0000e0 00 00 00 00 ad 34 83 32 b2 3b 8c 31 ea f2 15 33
       0.0 1.5274361e-08 4.081323e-09 3.4912695e-08
0000f0 00 00 00 00 8f 24 8a 32 00 00 00 00 0c 30 a8 31
       0.0 1.608194e-08 0.0 4.894906e-09
000100 22 ea 44 31 61 f8 37 32 00 00 00 00 00 00 00 00
       2.8654843e-09 1.0708477e-08 0.0 0.0
000110 00 00 00 00 00 00 00 00 00 00 00 00 00 00 00 00
       0.0 0.0 0.0 0.0
000120 00 00 00 00 f7 15 30 33 00 00 00 00 0b 64 5e 32
       0.0 4.099817e-08 0.0 1.2944848e-08
000130 3c 0a f2 31 7c 40 ff 32 00 00 00 00 aa 6e e4 31
       7.0442905e-09 2.9715231e-08 0.0 6.6482544e-09
000140 00 00 00 00 aa bb 19 31 b9 27 65 30 66 15 ad 31
       0.0 2.2371105e-09 8.3366164e-10 5.0373954e-09
000150 00 00 00 00 00 00 00 00 00 00 00 00 00 00 00 00
       0.0 0.0 0.0 0.0
000160 00 00 00 00 00 00 00 00 00 00 00 00 00 00 00 00
       0.0 0.0 0.0 0.0
000170 00 00 00 00 00 00 00 00 00 00 00 00 00 00 00 00
       0.0 0.0 0.0 0.0
000180 00 00 00 00 00 00 00 00 00 00 00 00 00 00 00 00
       0.0 0.0 0.0 0.0
000190 00 00 00 00 00 00 00 00 00 00 00 00 bb c0 2c 31
       0.0 0.0 0.0 2.5138849e-09
0001a0 00 00 00 00 4b 25 3c 2f 80 ed e8 30 d9 02 89 30
       0.0 1.711175e-10 1.6947723e-09 9.968871e-10
0001b0 00 00 00 00 00 00 00 00 00 00 00 00 00 00 00 00
       0.0 0.0 0.0 0.0
0001c0 00 00 00 00 00 00 00 00 00 00 00 00 00 00 00 00
       0.0 0.0 0.0 0.0
0001d0 00 00 00 00 00 00 00 00 00 00 00 00 00 00 00 00
       0.0 0.0 0.0 0.0
0001e0 00 00 00 00 00 00 00 00 00 00 00 00 00 00 00 00
       0.0 0.0 0.0 0.0
0001f0 00 00 00 00 00 00 00 00 00 00 00 00 90 16 19 33
       0.0 0.0 0.0 3.564361e-08
000200 00 00 00 00 19 7e 2e 32 81 8a 0b 32 92 01 c8 32
       0.0 1.0156804e-08 8.122357e-09 2.3283778e-08
000210 00 00 00 00 00 00 00 00 00 00 00 00 00 00 00 00
       0.0 0.0 0.0 0.0
000220 00 00 00 00 00 00 00 00 00 00 00 00 57 da f4 31
       0.0 0.0 0.0 7.126157e-09
000230 00 00 00 00 73 ed 4d 2f 5b 12 a7 31 3a 49 28 31
       0.0 1.8729e-10 4.8624265e-09 2.4488842e-09
000240 00 00 00 00 00 00 00 00 00 00 00 00 00 00 00 00
       0.0 0.0 0.0 0.0
000250 00 00 00 00 00 00 00 00 00 00 00 00 00 00 00 00
       0.0 0.0 0.0 0.0
000260 00 00 00 00 00 00 00 00 00 00 00 00 00 00 00 00
       0.0 0.0 0.0 0.0
000270 00 00 00 00 e7 57 2e 30 00 00 00 00 5c a7 6d 2e
       0.0 6.342575e-10 0.0 5.4036206e-11
000280 64 11 d3 2f f5 07 99 2f 00 00 00 00 9b bd e6 30
       3.8393033e-10 2.7836192e-10 0.0 1.6788592e-09
000290 00 00 00 00 62 8f 03 30 a8 09 c3 2f 2f a1 a4 30
       0.0 4.786128e-10 3.5477155e-10 1.1978382e-09
0002a0 00 00 00 00 00 00 00 00 00 00 00 00 00 00 00 00
       0.0 0.0 0.0 0.0
0002b0 00 00 00 00 00 00 00 00 00 00 00 00 07 58 f5 2f
       0.0 0.0 0.0 4.4627788e-10
0002c0 00 00 00 00 51 c0 ab 2e b5 50 41 2f 1c cf 7a 2f
       0.0 7.810342e-11 1.758192e-10 2.2810948e-10
0002d0 00 00 00 00 d5 68 96 32 00 00 00 00 65 bd e4 31
       0.0 1.750997e-08 0.0 6.657205e-09
0002e0 38 35 96 30 1f f3 74 32 00 00 00 00 c8 e9 9e 33
       1.0929062e-09 1.4257949e-08 0.0 7.399973e-08
0002f0 00 00 00 00 9d 3b ca 32 e4 09 5c 32 7d e8 66 33
       0.0 2.3543004e-08 1.2807934e-08 5.3762495e-08

exp_avg f4 [32]
000000 8c a0 60 31 33 f1 4f 2c 42 cb ee 30 f0 57 a1 2c
       3.268755e-09 2.9550362e-12 1.7374548e-09 4.5856582e-12
000010 12 d5 e5 30 00 00 00 00 00 00 00 00 00 00 00 00
       1.6722501e-09 0.0 0.0 0.0
000020 ff eb f8 30 ab 07 b3 2c ce ba fa 28 00 00 00 00
       1.8111449e-09 5.0883373e-12 2.783659e-14 0.0
000030 e0 e3 38 31 7d a9 a5 30 00 00 00 00 00 00 00 00
       2.6905056e-09 1.2053502e-09 0.0 0.0
000040 00 00 00 00 b0 f9 98 2b 00 00 00 00 00 00 00 00
       0.0 1.0869552e-12 0.0 0.0
000050 00 00 00 00 4b 47 86 30 00 00 00 00 a9 7b 09 30
       0.0 9.770046e-10 0.0 5.001604e-10
000060 00 00 00 00 00 00 00 00 87 5e 3b 2b 6b fa 82 30
       0.0 0.0 6.656693e-13 9.529918e-10
000070 00 00 00 00 b2 74 22 2b 99 f9 aa ab b2 c0 66 31
       0.0 5.771591e-13 -1.2148504e-12 3.357894e-09

exp_avg_sq f4 [32]
000000 4e b5 6f 35 6a c5 1e 35 e3 05 b3 34 34 5b 3e 34
       8.929827e-07 5.914686e-07 3.334563e-07 1.7728308e-07
000010 b4 9a 9d 34 00 00 00 00 00 00 00 00 00 00 00 00
       2.935609e-07 0.0 0.0 0.0
000020 db cd 16 34 77 7f 0f 35 86 e8 24 34 00 00 00 00
       1.4044728e-07 5.3457137e-07 1.5358282e-07 0.0
000030 56 95 0e 35 ad bc b6 33 00 00 00 00 00 00 00 00
       5.3116435e-07 8.509355e-08 0.0 0.0
000040 00 00 00 00 e7 2c 7d 33 00 00 00 00 00 00 00 00
       0.0 5.894699e-08 0.0 0.0
000050 00 00 00 00 53 42 d6 34 00 00 00 00 ff ac 62 34
       0.0 3.9908863e-07 0.0 2.1110826e-07
000060 00 00 00 00 00 00 00 00 07 7f 8b 32 ad 84 06 33
       0.0 0.0 1.6239495e-08 3.1319974e-08
000070 00 00 00 00 b0 6f 15 32 76 43 48 34 f6 fa 73 35
       0.0 8.698336e-09 1.8650994e-07 9.088975e-07
