src/logs/2024-07-20 21:10:35.685776/lightning_logs/version_0/checkpoints/epoch=499-step=6000.ckpt (torch, 60907 bytes, 39 tensors)

phi.phi.0.weight f4 [32, 3]
0	0xbe110ae5	-0.14164312
1	0x3e6e3560	0.23262548
2	0xbf5c42db	-0.86039513
3	0xbed98bc9	-0.4248946
4	0xbe63b4b1	-0.22236897
5	0x3e1e8953	0.15482073
6	0xbc3b6b40	-0.011439145
7	0x3eea617a	0.45777494
8	0xbd51dd42	-0.0512364
9	0x3e1c70d2	0.15277413
10	0xbe32ab9e	-0.1744828
11	0xbde86bea	-0.11348708
12	0xbf2672a8	-0.650187
13	0xbee50e7a	-0.44737607
14	0xbe8dd86f	-0.27704188
15	0xbf44f9ef	-0.7694387
16	0x3f206ec3	0.6266901
17	0x3dea1ae6	0.11430912
18	0xbec866d2	-0.39140946
19	0xbe80b969	-0.25141457
20	0x3e56bc83	0.20970349
21	0x3f4112dd	0.7541941
22	0xbff30edd	-1.8988911
23	0xbe3454d4	-0.17610484
24	0xbdbe95da	-0.09305926
25	0x3d7a3b65	0.0610918
26	0x3f05d4b5	0.5227769
27	0xbf091c79	-0.5355907
28	0xbeba17f0	-0.36346388
29	0xbe15ac48	-0.14616501
30	0xbe6673cc	-0.2250511
31	0x3eff66ca	0.4988311
32	0xbebf9aa4	-0.3742267
33	0xbe881370	-0.2657733
34	0xbece853c	-0.40336025
35	0xbf0a6cdf	-0.54072374
36	0xbec37ddd	-0.38181964
37	0x3eed87e8	0.4639275
38	0x3e4f886d	0.20266886
39	0x3ee7fb09	0.45308712
40	0x3e015477	0.12629877
41	0xbf830183	-1.0234836
42	0x3dc80bd5	0.09767882
43	0xbf0a006b	-0.5390689
44	0xbed597ce	-0.4171738
45	0xbf1f43a5	-0.6221259
46	0x3dfb2889	0.12263591
47	0x3f800876	1.0002582
48	0xbe83193f	-0.256052
49	0xbcaaa83d	-0.020832175
50	0x3ebd0e68	0.36925054
51	0x3ea641b1	0.32471994
52	0xbe8e697b	-0.2781485
53	0xbf63e756	-0.89024866
54	0x3eeb7d6b	0.45994124
55	0xbf384689	-0.7198263
56	0xbf25d06c	-0.6477115
57	0xbee52ed2	-0.44762284
58	0xbecce0ea	-0.40015346
59	0xbe98b42e	-0.29824966
60	0x3eadfacb	0.33980402
61	0x3ed0713b	0.40711388
62	0xbf370425	-0.714907
63	0xbd825c2d	-0.063652374
64	0x3f8eca14	1.1155419
65	0xbf2c1b04	-0.6722872
66	0xbf621c70	-0.8832464
67	0x3f717b40	0.9432869
68	0x3e8487ab	0.25884756
69	0x3f366001	0.7124024
70	0xbf8e9581	-1.1139375
71	0xbf2ac5f2	-0.6670829
72	0xbde0a738	-0.109693944
73	0x3eab8fee	0.33508247
74	0xbe562ddb	-0.2091593
75	0x3f3ec10f	0.74513334
76	0x3e390fd3	0.18072443
77	0xbfc24b6e	-1.5179269
78	0x3d598bdb	0.053111892
79	0xbeb8ee58	-0.36119342
80	0xbf09be8f	-0.53806394
81	0x3f0269fa	0.5094296
82	0x3ef5394c	0.47895277
83	0xbfcaee4b	-1.5853971
84	0x3ddd5092	0.10806383
85	0xbdc7307a	-0.09726043
86	0xbdc2944d	-0.095009424
87	0xbe875080	-0.26428604
88	0x3e635a28	0.2220236
89	0xbeaf163f	-0.3419666
90	0x3b0b374e	0.002124268
91	0xbc712fc1	-0.014720858
92	0x3f9204a9	1.1407672
93	0x3e5d0f0b	0.2158777
94	0xbf1248d6	-0.5714239
95	0xbebfc1c8	-0.3745253

phi.phi.0.bias f4 [32]
0	0x3dfcba8c	0.123402685
1	0x3df77b10	0.12084019
2	0xbee6986e	-0.4503817
3	0xbeaa36d3	-0.33244953
4	0x3eea8045	0.45800987
5	0x3d0eca8f	0.034861144
6	0xbe80e3f7	-0.25173923
7	0xbe8a6c82	-0.2703591
8	0xbf0ccbac	-0.5499828
9	0xbc2a05dc	-0.010377374
10	0xbede9b52	-0.43477875
11	0xbee403ff	-0.445343
12	0xbd99f22a	-0.07516892
13	0x3d92ea78	0.071736276
14	0xbe721df6	-0.23644242
15	0x3e72522c	0.23664159
16	0xbeb3e2dd	-0.3513402
17	0x3d9d3967	0.07676964
18	0x3e558f2d	0.20855398
19	0xbef946fa	-0.48686963
20	0xbe0db56e	-0.13838741
21	0x3ca0eafa	0.019643296
22	0xbdc3393f	-0.09532403
23	0x3cbbb4ab	0.022913298
24	0xbe023b49	-0.12717928
25	0xbcc0ae31	-0.023520561
26	0xbe903bbe	-0.2817058
27	0x3dbbdf05	0.09173397
28	0xbf0dc751	-0.5538226
29	0xbeaf34c1	-0.34219936
30	0xbe41938d	-0.18903942
31	0xbe8ffe09	-0.281235

phi.phi.2.weight f4 [32, 32]
0	0xbd7d4e71	-0.061842386
1	0xbe145e0c	-0.14489001
2	0xbd1a05b0	-0.03760308
3	0x3d1ac6b5	0.037787158
4	0xbdebdb16	-0.11516397
5	0xbc14a302	-0.009072067
6	0x3e019535	0.12654574
7	0xbc94dee4	-0.018172689
8	0x3ba0fd5d	0.0049130158
9	0xbc79dc86	-0.015250331
10	0x3d128a2e	0.03577631
11	0x3de632cf	0.1124016
12	0x3e2b784a	0.16745105
13	0x3de5ea30	0.11226308
14	0x3e2bdcb9	0.16783418
15	0xbc517744	-0.012784783
16	0xbe229d12	-0.1588023
17	0xbdaba261	-0.08380581
18	0x3df68397	0.120368175
19	0xba9633c2	-0.0011459517
20	0xbdb3f333	-0.08786621
21	0xbe0ab79d	-0.13546605
22	0xbe296846	-0.16543683
23	0xbe18c824	-0.14920098
24	0xbd12de97	-0.03585681
25	0x3dc68b4f	0.0969454
26	0x3dc3bba4	0.09557274
27	0xbe2e94b0	-0.17048907
28	0x3de1d54e	0.11027013
29	0xbe0da63b	-0.13832943
30	0xbd1913d0	-0.03737241
31	0xbd92cbf9	-0.07167811
32	0x3cf2906c	0.029609881
33	0xbd0e2ad4	-0.034708813
34	0xbe22700c	-0.15863055
35	0xbe1c4c88	-0.1526357
36	0x3d13af20	0.036055684
37	0x3de646f7	0.11244004
38	0xbda4770f	-0.08030521
39	0x3f456888	0.7711263
40	0xbe22ed8f	-0.15910934
41	0xbc4376c4	-0.011930171
42	0x3e1f3122	0.15546086
43	0xbd93ac34	-0.072105795
44	0x3e23f3cb	0.16010968
45	0xbe5236c6	-0.20528707
46	0xbe235ce5	-0.15953405
47	0x3e5aa394	0.21351463
48	0xbca71bea	-0.020399053
49	0xbe358e0e	-0.17729971
50	0xbe437a84	-0.19089705
51	0xbe1247e6	-0.1428524
52	0x3d17944a	0.037006654
53	0x3f31739b	0.69317025
54	0x3ede0eee	0.43370765
55	0x3e69b017	0.22821079
56	0x3d6a08d2	0.057137318
57	0x3e139cd8	0.144153
58	0xbd2e1f4e	-0.042510323
59	0xbe02874c	-0.12746924
60	0xbe152cb7	-0.14567839
61	0x3dc42b25	0.09578542
62	0x3e0b1a76	0.13584313
63	0x3df7b742	0.120955005
64	0xbe6ad720	-0.22933626
65	0x3c012cd2	0.007884221
66	0xbdff36a2	-0.12461592
67	0xbdc74beb	-0.09731277
68	0xbe26f721	-0.1630521
69	0x3bad2fb1	0.0052852263
70	0xbdd7be5d	-0.10534356
71	0xbd82e18c	-0.06390676
72	0x3bf3af42	0.007436664
73	0x3de960e3	0.11395433
74	0xbe08d60e	-0.13362905
75	0xbdf88b42	-0.12135936
76	0xbe268af1	-0.1626394
77	0xbfb993fc	-1.4498286
78	0xbd8223e6	-0.06354503
79	0x3f188e3d	0.5959204
80	0x3d82ea79	0.06392378
81	0xbe88a4af	-0.26688144
82	0xbf082db6	-0.5319475
83	0xbd0f2301	-0.03494549
84	0xbf954b74	-1.1663651
85	0xbec2389d	-0.37933818
86	0xbd5afb09	-0.053462062
87	0xbd67bbb9	-0.05657551
88	0xbdc1354b	-0.09433993
89	0xbe7055b6	-0.23470196
90	0x3e122bfb	0.1427459
91	0xbf8b48ef	-1.0881633
92	0xbc4ff913	-0.012693661
93	0x3e331243	0.17487435
94	0x3ef1abb1	0.47201303
95	0x3ba401b4	0.005005086
96	0xbe1cdf87	-0.15319644
97	0x3db35890	0.08757126
98	0xbe00efc4	-0.12591463
99	0xbd4d8a28	-0.050180584
100	0xbd72f095	-0.05931147
101	0xbcd67414	-0.026178397
102	0x3afd71ff	0.0019336342
103	0x3e154e5d	0.14580674
104	0x3cb4c933	0.022068596
105	0x3e222341	0.15833761
106	0x3ddd76ac	0.108136505
107	0xbde4e2ca	-0.11176069
108	0x3da26036	0.07928507
109	0xbdffec78	-0.12496275
110	0xbd9970eb	-0.074922405
111	0x3d54f7b3	0.051994037
112	0x3d6f15a9	0.058370266
113	0x3e07ce48	0.13262284
114	0xbd69178c	-0.05690722
115	0x39945ef2	0.000282995
116	0x3dba62d3	0.091008805
117	0xbe2f0ff8	-0.17095935
118	0x3e02df9c	0.12780613
119	0xbe15b05f	-0.14618061
120	0x3b1fac6e	0.002436425
121	0xbcf635e8	-0.030055001
122	0xbdbead0d	-0.093103506
123	0x3cbf6773	0.023364758
124	0x3e15b033	0.14617996
125	0xbd53a976	-0.051675282
126	0xbdd6f0b2	-0.10495128
127	0xbd85e55d	-0.06537888
128	0xbe40bdf1	-0.18822457
129	0x3da36c0d	0.079795934
130	0xbdaddfc1	-0.08489943
131	0xbdf19a5d	-0.117970206
132	0xbdd0922c	-0.1018413
133	0x3dd02805	0.10163883
134	0x3dbfb9e5	0.093616284
135	0x3dd797b8	0.10526985
136	0x3d8351de	0.06412099
137	0xbd71d00a	-0.059036292
138	0xbd4a5792	-0.04939992
139	0x3d55ea04	0.052225128
140	0x3e14cdde	0.14531657
141	0x3bde666c	0.006787112
142	0xbdab4c03	-0.083641075
143	0xbdaa2faa	-0.083098724
144	0xbe2b25ef	-0.1671369
145	0xbb8a8a46	-0.0042279093
146	0xbe139cad	-0.14415236
147	0xbe216478	-0.15760982
148	0x3e0452e9	0.12922253
149	0xbdeb843c	-0.11499831
150	0xbca4be8b	-0.02011039
151	0xb948f015	-0.00019162924
152	0x3bb88b0a	0.005631809
153	0xbe330d53	-0.17485552
154	0xbe125265	-0.14289244
155	0x3db78ee9	0.08962805
156	0x3cebd0cc	0.028786086
157	0x3e162d97	0.14665829
158	0xbd72bd79	-0.059262726
159	0x3d5547e9	0.052070532
160	0x3e624944	0.22098261
161	0xbc00cd5c	-0.0078614615
162	0xbddc7f5f	-0.107664816
163	0x3d74e235	0.05978604
164	0x3c142a61	0.009043307
165	0x3e19ddbe	0.15025994
166	0xbd22d8b8	-0.03975746
167	0xbea38f86	-0.31945437
168	0x3dfa5daf	0.122249
169	0xbe06c152	-0.13159683
170	0x3d945093	0.07241931
171	0xbd73793b	-0.059441786
172	0xbde4cc94	-0.11171833
173	0xbeb9fed6	-0.36327237
174	0xbdbc1042	-0.091827884
175	0x3f3ed1e3	0.7453901
176	0x3d0e31e7	0.03471556
177	0xbe5e8bf5	-0.21733077
178	0xbe8d2f44	-0.27575123
179	0x3d9a33ed	0.07529435
180	0x3e58fa8f	0.2118933
181	0x3f449ebc	0.7680471
182	0x3f35d456	0.71027124
183	0xbff11729	-1.8835193
184	0x3e2e36cd	0.17013092
185	0xbee38c5d	-0.44443026
186	0x3d896c4c	0.06710109
187	0xbe630364	-0.22169262
188	0xbdbd0a00	-0.09230423
189	0x3ae480d2	0.0017433411
190	0x3e0f42d8	0.13990343
191	0x3c6301a9	0.013855376
192	0xbdffd659	-0.124920554
193	0x3cb4d30e	0.022073295
194	0xbe0e4ed5	-0.1389726
195	0x3c639daa	0.0138925705
196	0xbc2a006b	-0.010376076
197	0x3cf682b9	0.03009163
198	0x3dd4c9df	0.10390066
199	0xbdf8c558	-0.12147015
200	0x3da913c3	0.082557224
201	0xbdb01fdb	-0.08599826
202	0xbe160235	-0.1464928
203	0xbe1ba98f	-0.152014
204	0x3d4ec666	0.050482176
205	0xbc8acc42	-0.0169431
206	0xbdfa40db	-0.122194014
207	0xbd575ddf	-0.052579757
208	0x3e08b32f	0.13349603
209	0x3d35093e	0.044198267
210	0x3c7f208e	0.0155717265
211	0x3e0c3ed4	0.13695842
212	0xbe4c6075	-0.1995867
213	0xbe3aab98	-0.1822952
214	0x3c009acd	0.007849407
215	0xbd104f5f	-0.035231944
216	0xbe796358	-0.24354303
217	0x3c9f5b63	0.019452756
218	0x3daeec0e	0.085411176
219	0xbd196a8e	-0.037455134
220	0xbde2ead2	-0.11079945
221	0x3d4fbcd6	0.050717197
222	0xbe500c48	-0.20317185
223	0x3e0d70ce	0.13812563
224	0xbded1eb5	-0.115781225
225	0x3d8cf239	0.06882138
226	0x3d009ca9	0.031399403
227	0x3d9a0933	0.07521286
228	0xbe11fb72	-0.14256075
229	0x3b0d3197	0.002154445
230	0xbdfcdf9d	-0.12347338
231	0xbd354a45	-0.044260282
232	0xbdf4f3d2	-0.119605675
233	0xbe329516	-0.17439684
234	0xbe115e5e	-0.14196154
235	0x3e0ee8cb	0.13955991
236	0x3c6ef5c1	0.0145849595
237	0x3da7db51	0.08196128
238	0x3e1104b8	0.14161956
239	0xbe775abe	-0.24155709
240	0xbdf71103	-0.120637916
241	0xbde6c40c	-0.11267862
242	0xbe4bd483	-0.19905286
243	0x3dfb65fc	0.12275311
244	0xbe5ea0ac	-0.21740979
245	0xbe2ddcbc	-0.16978735
246	0xbe828880	-0.25494766
247	0xbe3d13ff	-0.18464659
248	0x3d7aeeb3	0.061262798
249	0x3d7809d4	0.060556248
250	0x3e019499	0.12654342
251	0x3d56a446	0.052402757
252	0x3e20f5bf	0.15718745
253	0xbd3968cf	-0.04526597
254	0xbbce1c62	-0.0062900046
255	0x3e214690	0.15749574

phi.phi.2.bias f4 [32]
0	0xbe1828a9	-0.1485926
1	0xbe081736	-0.13290104
2	0x3ca3d7c0	0.020000339
3	0xbe1b062f	-0.15139078
4	0xbe26dc53	-0.16294985
5	0x3e80d9fb	0.25166306
6	0xbe27c2a8	-0.16382849
7	0xbc32750d	-0.010892165
8	0xbe2e23e9	-0.17005886
9	0xbd63b560	-0.055592895
10	0xbe18cca0	-0.14921808
11	0xbe07c5fe	-0.13259122
12	0xbe214c5a	-0.15751782
13	0xbe4191df	-0.18903302
14	0xbd4f53f3	-0.05061717
15	0xbda653c2	-0.08121444
16	0xbd4166fd	-0.047217358
17	0xbe1b46b9	-0.15163697
18	0xbdf3206e	-0.1187142
19	0x3d78b1b3	0.060716342
20	0xbe01c39e	-0.12672278
21	0xbebecf4f	-0.3726754
22	0xbe266415	-0.16249116
23	0xbe059082	-0.13043407
24	0xbccfe144	-0.02537597
25	0xbe7bd2e9	-0.24592175
26	0xbd2e4dd1	-0.04255468
27	0xbcb735c7	-0.02236451
28	0xbde12cfd	-0.10994909
29	0xbe0cb86d	-0.13742228
30	0xbe352bd2	-0.17692497
31	0xbe3034b9	-0.17207612

phi.phi.4.weight f4 [32, 32]
0	0xbde6edfb	-0.1127586
1	0xbe13468a	-0.14382377
2	0xbd04547e	-0.03230714
3	0x3e0d1045	0.13775738
4	0x3e1eaba9	0.1549517
5	0xbe1d965c	-0.15389389
6	0xbbfaf9d8	-0.007659178
7	0x3dd48123	0.103761934
8	0x3d9f95f2	0.07792272
9	0x3e14460d	0.14479847
10	0xbba0ad49	-0.0049034697
11	0xbdf3404c	-0.11877498
12	0x3def7fe7	0.11694317
13	0xbd784bf3	-0.060619306
14	0x3dbb7567	0.09153252
15	0xbd327067	-0.043564226
16	0x3d99e688	0.075146735
17	0x3e22d041	0.15899755
18	0x3e285263	0.16437678
19	0xbe24bd47	-0.16087829
20	0xbdef7b40	-0.1169343
21	0xbd95b0e4	-0.0730913
22	0xbde6df58	-0.11273068
23	0x3e2db025	0.16961725
24	0xbc7fcc73	-0.015612709
25	0xbdf027aa	-0.11726315
26	0xbda11a77	-0.07866376
27	0xbdc7fa33	-0.097645186
28	0x3d93b53b	0.07212301
29	0xbe1de4f2	-0.15419367
30	0xbe28c872	-0.16482714
31	0xbe32711c	-0.1742596
32	0x3d9bddcb	0.07610663
33	0x3db302fe	0.08740805
34	0xbde0daca	-0.10979231
35	0x3d338e40	0.043836832
36	0x3e05a02e	0.13049385
37	0x3cd26b38	0.025685892
38	0xbd193391	-0.037402693
39	0x3c55fc72	0.013060676
40	0xbc9b4843	-0.018955356
41	0x3db64942	0.089006916
42	0xbdf5d40f	-0.120033376
43	0x3db79739	0.0896439
44	0x3dcc0db3	0.099635504
45	0xbddb599d	-0.10710452
46	0x3e13d055	0.14434941
47	0x3e31cb60	0.17362738
48	0xbd8eb9dd	-0.06969044
49	0xbd4acf5c	-0.04951416
50	0x3db46c89	0.08809764
51	0xbe0dd072	-0.13849047
52	0x3d8f2bcc	0.069907755
53	0x3d28ee41	0.04124284
54	0x3de43428	0.111427605
55	0xbe1d3c10	-0.15354943
56	0xbe16635b	-0.14686339
57	0x3da29a23	0.079395555
58	0x3d826905	0.06367687
59	0xbe287c97	-0.16453777
60	0xbdc9e4f1	-0.0985812
61	0xbe25a0f9	-0.16174687
62	0xbe01afb8	-0.12664688
63	0xbda35a0a	-0.07976158
64	0x3e15cceb	0.14628951
65	0xbdf7db8b	-0.121024214
66	0x3d29ef6b	0.041488092
67	0x3e2be91e	0.16788146
68	0x3da4fe21	0.08056284
69	0xbe666744	-0.2250033
70	0x3c3684e7	0.011140085
71	0xbb991da0	-0.004672721
72	0x3e0c4d46	0.13701352
73	0xbe32904c	-0.17437857
74	0x3d385499	0.045002554
75	0x3d898e60	0.06716609
76	0xbe2869fc	-0.1644668
77	0xbd29d048	-0.041458398
78	0x3d99a25d	0.075016715
79	0xbe5e5986	-0.21713838
80	0xbcdfe862	-0.027332488
81	0x3d9ffa08	0.078113616
82	0xbc5f6574	-0.013635028
83	0x3dc9d2bc	0.098546475
84	0x3e143706	0.14474115
85	0x3d7ff799	0.062491987
86	0xbcb48200	-0.022034645
87	0x3d76361d	0.0601102
88	0xbe7df8e9	-0.24801983
89	0xbdc35ddf	-0.09539389
90	0xbd1addd2	-0.0378092
91	0xbdff7014	-0.12472549
92	0x3dc663b1	0.096869834
93	0xbb92f3bb	-0.0044846213
94	0x3d5c4416	0.05377587
95	0x3df64319	0.120245166
96	0xbe0738db	-0.13205282
97	0xbca7ba0b	-0.020474454
98	0x3cd37758	0.025813743
99	0x3d3c53bc	0.045978293
100	0x3dba2c0f	0.09090435
101	0xbd900ec1	-0.07034064
102	0xbd5a5590	-0.053304255
103	0x3e177763	0.14791636
104	0xbd4254bd	-0.047444094
105	0xbdfb7cae	-0.1227964
106	0x3df57a04	0.11986163
107	0x3df5280f	0.11970531
108	0xbd630bf5	-0.055431325
109	0xbd10c1f1	-0.035341207
110	0xbe05920f	-0.13043998
111	0xbe172b09	-0.1476251
112	0x3d8824fc	0.06647679
113	0xbd9aa905	-0.07551769
114	0x3e101bd2	0.14073113
115	0xbe10f1cf	-0.14154743
116	0xbcc82bda	-0.024434973
117	0x3b7a255b	0.0038169238
118	0x3dba1198	0.09085387
119	0x3e128127	0.1430708
120	0x3df52c99	0.11971397
121	0x3d9f5e34	0.0778164
122	0xbda62c6b	-0.08113941
123	0xbe014648	-0.12624466
124	0xbe21f135	-0.1581467
125	0x3c0faba1	0.008768947
126	0x3e2f912c	0.17145222
127	0xbd098876	-0.033577405
128	0xbbf3dc56	-0.0074420376
129	0xbe5c4ec6	-0.21514425
130	0xbbbccc45	-0.0057616555
131	0x3de586c8	0.11207348
132	0xbe327847	-0.17428695
133	0xbe41f205	-0.1893998
134	0x3d6ba112	0.057526655
135	0xbcde38b5	-0.02712665
136	0xbc3492d7	-0.0110213375
137	0x3d016f4f	0.031600293
138	0xbdb78918	-0.089616954
139	0xbe496c63	-0.19670253
140	0xbe29265e	-0.16518542
141	0x3d66ea20	0.056375623
142	0xbdbe4210	-0.09289944
143	0xbe26429d	-0.16236348
144	0xbe018775	-0.12649329
145	0xbdc576d8	-0.09641808
146	0xbde5e324	-0.11224964
147	0xbe6ab6bb	-0.22921269
148	0x3e0776f4	0.13228971
149	0xbd13dc0d	-0.03609853
150	0xbdb957e5	-0.09049968
151	0xbe1647d1	-0.14675833
152	0x3a8a3fc8	0.0010547573
153	0xbd86109c	-0.06546137
154	0x3d3eef43	0.046614897
155	0xbe9f2e50	-0.3109002
156	0xbe3437af	-0.17599367
157	0xbd2b918e	-0.04188686
158	0xbd49894d	-0.049203206
159	0x3e1e1970	0.15439391
160	0xbd82fe2a	-0.06396134
161	0xbd816a22	-0.06319071
162	0x401fbc8e	2.4958835
163	0xbe13d221	-0.14435627
164	0x3c49dc8c	0.012320649
165	0x3fa76d66	1.3080261
166	0xbda25398	-0.079261005
167	0x3e2d8a3e	0.16947266
168	0x3e20a035	0.15686114
169	0x3e2868d3	0.16446237
170	0xbc8a2ffa	-0.01686858
171	0xbd86ef6e	-0.06588636
172	0xbe85cb6d	-0.26131764
173	0xbd77dafd	-0.060511578
174	0x3d7a09f3	0.061044645
175	0x3e03634f	0.12830852
176	0x3e2a6d20	0.1664319
177	0x3e2c06b3	0.1679943
178	0xbde2a1db	-0.11066028
179	0x3e632609	0.22182478
180	0x3d724029	0.05914322
181	0x3e091e34	0.13390428
182	0x3dabab32	0.08382262
183	0xbf314687	-0.6924824
184	0xbe0f11d9	-0.13971652
185	0x3e0d2967	0.13785325
186	0xbdce7285	-0.100804366
187	0x3e700302	0.23438647
188	0xbe2c7268	-0.16840518
189	0xbcb7323e	-0.022362825
190	0xbd34ea09	-0.044168506
191	0x3cfa909e	0.030586537
192	0x3c6a1d4f	0.014289214
193	0xbd9c8e2f	-0.07644307
194	0xbebbf004	-0.36706555
195	0x3d315469	0.04329339
196	0x3e332247	0.17493545
197	0xbeb8d7d3	-0.3610216
198	0xbda3e23e	-0.08002137
199	0xbe1240ef	-0.14282583
200	0x3e1ed4ec	0.15510911
201	0x3e1af5b3	0.1513279
202	0xbd8eae3f	-0.069668286
203	0xbe028391	-0.12745501
204	0xbe29150f	-0.1651194
205	0x3d889ea6	0.06670885
206	0xbdb72a9e	-0.089436755
207	0x3cabfed4	0.020995535
208	0xbe746b58	-0.23869073
209	0x3e1b6749	0.15176119
210	0x3da3da62	0.080006376
211	0xbebfc209	-0.37452725
212	0x3d53f064	0.051742926
213	0xb8eb8932	-0.00011231228
214	0x3db250d7	0.08706825
215	0xbc551564	-0.013005588
216	0xbcc2e315	-0.023789922
217	0xbdfd477a	-0.12367149
218	0xbe21c818	-0.15798986
219	0xbc87afa0	-0.016563237
220	0xbcdeb551	-0.027186068
221	0xbde07d13	-0.10961356
222	0x3d6cef33	0.057845306
223	0xbd972d97	-0.073817424
224	0x3d80844c	0.062752336
225	0xbe54cb41	-0.2078066
226	0xbcdd2934	-0.026997186
227	0xbd254e49	-0.04035786
228	0x3dfd8b9b	0.12380143
229	0xbd991576	-0.074747965
230	0x3d9630e4	0.07333544
231	0xbd8501a1	-0.06494451
232	0x3dd57de0	0.104243994
233	0xbe34dd05	-0.17662437
234	0xbe2bbccd	-0.1677124
235	0xbd461867	-0.048363116
236	0xbc4d79ea	-0.012541274
237	0xbe4b7626	-0.19869289
238	0xbe1f3ac7	-0.15549766
239	0xbe3e7a82	-0.1860142
240	0xbe87e7b1	-0.26543954
241	0x3c8a1c93	0.016859328
242	0x3d78339f	0.060596105
243	0xbcbf1f49	-0.023330348
244	0xbdac0439	-0.08399243
245	0xbe9bbf4c	-0.30419385
246	0xbe120ad0	-0.14261937
247	0xbdc100a2	-0.09423949
248	0x3d0c5418	0.034259886
249	0xbd929da0	-0.07158971
250	0xbdc50064	-0.09619215
251	0xbe023e64	-0.12719113
252	0xbda829e9	-0.08211119
253	0xbe862862	-0.26202685
254	0xbe5d341b	-0.21601908
255	0x3e323198	0.17401731

phi.phi.4.bias f4 [32]
0	0xbde20a9a	-0.11037178
1	0xbe1bb9f9	-0.15207662
2	0xbd8069e6	-0.062701985
3	0xbdaf89a1	-0.085711725
4	0x3cfda2a9	0.030961351
5	0x3c81e816	0.015857738
6	0x3e42bbf0	0.19017005
7	0x3bbafd4d	0.0057064653
8	0x3e0c90fc	0.13727182
9	0xbdf26d50	-0.11837256
10	0xbecca053	-0.39966068
11	0xbdf0869d	-0.117444254
12	0x3e881451	0.26578
13	0xbca08f96	-0.019599717
14	0xbe2c13dc	-0.16804451
15	0xbcdf36ab	-0.027247747
16	0x3d470c6a	0.048595823
17	0xbe148a6c	-0.14505929
18	0x3f087b90	0.5331354
19	0xbe30eba1	-0.17277385
20	0x3deea978	0.11653417
21	0xbe1cf9b3	-0.15329628
22	0x3d2b967a	0.041891553
23	0xbe8f2278	-0.27955985
24	0x3ea2cc5f	0.31796548
25	0xbecfd43e	-0.40591615
26	0xbe02648d	-0.1273367
27	0x3ccc13d5	0.0249118
28	0x3eb52e29	0.3538678
29	0x3e1cac32	0.15300062
30	0xbd991511	-0.07474721
31	0xbcbee6db	-0.02330344

phi.phi.6.weight f4 [7, 32]
0	0xbc62f439	-0.0138521725
1	0xbe102e59	-0.1408018
2	0xbda57b2e	-0.08080135
3	0xbdf94334	-0.12171021
4	0x3ce5a133	0.028030967
5	0x3e9b4b7e	0.30331033
6	0xbe4071ca	-0.18793407
7	0x3d885b51	0.06658042
8	0x3e266eb3	0.16253166
9	0xbd4e9dfd	-0.050443638
10	0xbcfc45a7	-0.030794932
11	0x3e2ec8ac	0.17068738
12	0x3d885f83	0.066588424
13	0x3e651a66	0.22373351
14	0xbdc40f6c	-0.09573254
15	0x3b4d76d8	0.0031351354
16	0x3cab1e49	0.020888465
17	0xbd70d8ed	-0.058800627
18	0xbf174d0a	-0.5910193
19	0x3de496ac	0.11161551
20	0x3e4ef670	0.20211196
21	0xbd64afa4	-0.055831566
22	0x3ea64471	0.32474092
23	0x3bc69ed8	0.006061416
24	0xbf68608c	-0.9077232
25	0xbc5c6d43	-0.013453784
26	0x3ef9219d	0.48658457
27	0xbd11812a	-0.03552357
28	0xbe012118	-0.1261028
29	0xbd93d460	-0.07218242
30	0x3dad0425	0.08448056
31	0x3e0f2e47	0.13982497
32	0x3d4e38a8	0.050347
33	0x3d2b3df8	0.041807145
34	0xbd6600b5	-0.056153018
35	0x3dcf9dfd	0.10137556
36	0xbdca22b3	-0.098698996
37	0xbe865da5	-0.2624332
38	0x3bc55e3b	0.006023196
39	0xbc5336d7	-0.012891493
40	0x3beda7f0	0.0072526857
41	0xbda333e9	-0.079688855
42	0xbcc02d2d	-0.023459041
43	0xbc66321a	-0.014050031
44	0xbccd170c	-0.025035404
45	0xbe9f7be4	-0.3114921
46	0xbe28b885	-0.16476639
47	0x3d877931	0.06614912
48	0xbe26934e	-0.1626713
49	0xbc73a545	-0.014870946
50	0xbc33bf88	-0.010970958
51	0x3ccb1e06	0.02479459
52	0x3d5ccd5f	0.053906795
53	0xbd171191	-0.036881987
54	0xbe203759	-0.15646113
55	0xbc81a02b	-0.015823444
56	0xbd0b059e	-0.033940904
57	0x3d84c034	0.06481972
58	0xbda06574	-0.07831851
59	0xbe6f4528	-0.23366225
60	0xbe0a4d62	-0.13506082
61	0xbe6021e7	-0.21887933
62	0xbe05d105	-0.13068016
63	0x3d436667	0.04770508
64	0xbe2b8423	-0.16749625
65	0xbe223255	-0.15839513
66	0x3d2d52f1	0.042315427
67	0xbdd5cc19	-0.10439319
68	0x3d8db09b	0.069184504
69	0xbe58d822	-0.21176198
70	0xbcb90a88	-0.02258803
71	0x3da4a56d	0.08039365
72	0xbe6528c2	-0.22378829
73	0x3d8e327e	0.06943224
74	0x3d6ad10c	0.05732827
75	0xbdf29b08	-0.11845976
76	0xbd09ce8a	-0.033644237
77	0xbe9df5f5	-0.30851713
78	0xbd91519e	-0.07095645
79	0xbc9cd712	-0.019145522
80	0xbe2848b4	-0.16433984
81	0x3e1e4a3a	0.15458003
82	0x3dbca4d1	0.09211124
83	0xbc9a7c59	-0.018858122
84	0xbe5dfde1	-0.21678878
85	0xbd911327	-0.07083731
86	0xbe85a7a5	-0.26104465
87	0x3df1fe88	0.11816126
88	0x3bba5f52	0.0056876326
89	0x3d52bd65	0.051450152
90	0xbe6c6690	-0.23086
91	0xbe30fd28	-0.17284071
92	0xbe2dc479	-0.1696948
93	0xbe605b75	-0.21909888
94	0xbd7e31b3	-0.062059116
95	0xbbac34c6	-0.0052553145
96	0xbc4df0ff	-0.012569665
97	0x3e2fb597	0.17159115
98	0xbdc00dce	-0.09377633
99	0xbdec3d70	-0.11535156
100	0xbcfa962b	-0.030589184
101	0xbe2be2ce	-0.16785738
102	0xbdad7531	-0.08469618
103	0x3de3ce96	0.111233875
104	0xbd8560e2	-0.065126196
105	0x3dc14546	0.09437041
106	0x3cc16502	0.023607735
107	0xbd86afb0	-0.065764785
108	0x3d8d9f58	0.06915158
109	0xbe3c785c	-0.18405288
110	0x3bbfa8e7	0.005848992
111	0x3d22c0f6	0.039734803
112	0x3c9a4acf	0.0188345
113	0xbe2704eb	-0.1631047
114	0xbd52a372	-0.051425405
115	0xbd3b7a57	-0.04577097
116	0x3d5f7dbd	0.054563273
117	0xba176c28	-0.00057763094
118	0xbd3f0a49	-0.046640668
119	0x3dd9ade7	0.10628872
120	0xbdcbe5a7	-0.09955912
121	0xbdeb78c5	-0.11497644
122	0x3cbb788e	0.022884633
123	0xbe503f00	-0.20336533
124	0xbe3aa474	-0.18226796
125	0xbd416ec4	-0.047224775
126	0xbe055086	-0.13018999
127	0xbd4c81bf	-0.049928423
128	0x3e1fe7be	0.15615746
129	0xbca7e018	-0.020492598
130	0xbe1a57e5	-0.15072592
131	0xbda4931d	-0.08035872
132	0x3e263dfd	0.16234584
133	0xbe9100ee	-0.28321022
134	0xbdfde492	-0.12397112
135	0x3da2f695	0.07957188
136	0x3cb346ad	0.021884287
137	0xbe1f99de	-0.1558604
138	0x3e16c020	0.14721727
139	0x3dcbdf79	0.099547334
140	0x3d9f86bc	0.077893704
141	0x3d084379	0.033267472
142	0xbd742021	-0.059600953
143	0xbd6c5f80	-0.057708263
144	0x3c891030	0.016731352
145	0xbd0c5d7d	-0.034268845
146	0xbceccaed	-0.028905356
147	0xbe2f67d5	-0.17129453
148	0xbbe768de	-0.0070620617
149	0x3d867a77	0.06566327
150	0xbe231ad1	-0.15928198
151	0xbdb0fc19	-0.08641834
152	0xbed7db4b	-0.42159495
153	0x3cb31f96	0.021865647
154	0xbe8791bd	-0.26478377
155	0xbe706075	-0.23474295
156	0x3dee615e	0.11639665
157	0x3d55579a	0.052085496
158	0xbdd1b58f	-0.10239708
159	0xbd481125	-0.048844475
160	0x3e2eebda	0.17082158
161	0x3a417cd4	0.00073809666
162	0xbca6464a	-0.020297188
163	0x3dd0557f	0.10172557
164	0x3d3ddfb3	0.046355914
165	0x3ef410ee	0.47669166
166	0xbdc28273	-0.094975375
167	0xbd90be60	-0.07067561
168	0xbeb1af17	-0.34703895
169	0x3d81f262	0.06345059
170	0xbdcad237	-0.099033765
171	0x3e326a0c	0.17423266
172	0x3e237212	0.15961483
173	0x3d24098e	0.040048175
174	0x3cbef9ee	0.023312535
175	0xbe207c70	-0.15672469
176	0x3d0202e0	0.031741023
177	0x3d87fb6b	0.06639751
178	0xbe871b8a	-0.26388198
179	0x3d035817	0.03206643
180	0xbe46f9f1	-0.19431283
181	0xbd8c9302	-0.06863977
182	0xbec5f116	-0.38660496
183	0x3d2af709	0.041739497
184	0x3f1635c7	0.5867581
185	0xbdd2899f	-0.102801554
186	0xbec40d18	-0.3829124
187	0x3c955655	0.018229643
188	0x3de6f6e1	0.11277557
189	0x3cae294b	0.021259924
190	0x3d5434c9	0.051808152
191	0x3bd4e460	0.006496951
192	0xbc17d05b	-0.009265984
193	0x3dbf0eb2	0.09328975
194	0x3ddb10de	0.106965765
195	0x3e16c161	0.14722206
196	0x3dc26dde	0.09493612
197	0xbd57fc0f	-0.052730616
198	0xbda8562c	-0.08219561
199	0xbdaa5697	-0.08317297
200	0xbc434843	-0.011919084
201	0x3c23cfe4	0.009998295
202	0xbc811538	-0.015757188
203	0xbde9d9ab	-0.1141847
204	0xbedf6c02	-0.4363709
205	0x3e3dc309	0.18531431
206	0x3dbd0873	0.09230127
207	0xbcc3becd	-0.023894692
208	0xbe3726c7	-0.17885886
209	0xbdb37bf7	-0.08763879
210	0x3e5f819c	0.21826786
211	0xbcb29eeb	-0.021804294
212	0xbe0ab744	-0.13546473
213	0xbe012a96	-0.12613901
214	0x3e96ce77	0.29454395
215	0xbdba74b9	-0.09104294
216	0xbe6243b4	-0.22096139
217	0xbf0025a3	-0.5005743
218	0x3ea0a7c8	0.31378007
219	0xbe3299be	-0.1744146
220	0xbebc46f4	-0.36772883
221	0xbec74908	-0.38922906
222	0xbe35fc94	-0.17772132
223	0xbe1dbde3	-0.15404467

phi.phi.6.bias f4 [7]
0	0x3e2a4ed7	0.16631638
1	0xbcb7f44e	-0.02245536
2	0xbd37d6d5	-0.044882614
3	0xbd1298d6	-0.035790287
4	0xbe111f9a	-0.14172211
5	0x3e88bc06	0.2670595
6	0xbed25515	-0.41080537

rho.rho.0.weight f4 [28, 7]
0	0xbf06dfd0	-0.5268526
1	0xbeb42e4e	-0.35191578
2	0xbdc744bb	-0.09729906
3	0x3e809061	0.25110152
4	0xbe3e8cc4	-0.18608385
5	0x3e2ca4d9	0.1685976
6	0xbed8a100	-0.42310333
7	0xbeaece1b	-0.3414162
8	0x3e2a408c	0.16626185
9	0xbe69e714	-0.22842056
10	0xbd740bec	-0.059581682
11	0xbdf16f96	-0.117888615
12	0xbcf6073e	-0.03003275
13	0xbea8a04f	-0.32934806
14	0xbedce4e8	-0.43143392
15	0x3dd1c61d	0.10242865
16	0xbdd07d5f	-0.10180163
17	0xbe937bbd	-0.28805342
18	0xbc1dc0f0	-0.009628519
19	0xbed6e84f	-0.41974112
20	0x3cc4be48	0.024016514
21	0x3e25d6ce	0.16195223
22	0x3e95d231	0.29261926
23	0xbebad12c	-0.3648771
24	0xbdd8d949	-0.10588319
25	0x3d50372c	0.050833866
26	0x3f386d3d	0.72041684
27	0xbfc8e002	-1.5693362
28	0x3d0fc477	0.035099473
29	0x3e1fcb09	0.15604796
30	0x3e69551d	0.22786374
31	0xbe856a10	-0.26057482
32	0x3e709033	0.23492508
33	0xbe80edfc	-0.25181568
34	0xbe6e3d41	-0.23265554
35	0xbe503bf9	-0.20335378
36	0x3ef6648d	0.4812359
37	0xbe9bd2c2	-0.30434233
38	0x3e112928	0.14175856
39	0x3ceec7a0	0.029147923
40	0x3e5ded60	0.21672583
41	0xbd78f15e	-0.06077706
42	0x3d724ac3	0.05915333
43	0xbe85676f	-0.26055476
44	0xbd638ddd	-0.055555213
45	0x3e0a4fdc	0.13507026
46	0xbe8af995	-0.2714354
47	0xbc9245e6	-0.017855596
48	0xbebd6c64	-0.36996758
49	0xbd99de22	-0.075130716
50	0x3e0a7561	0.13521339
51	0xbe9bbf38	-0.30419326
52	0xbe787b81	-0.24265863
53	0x3e308752	0.1723912
54	0xbebf65a0	-0.3738222
55	0x3e852d3c	0.26011074
56	0xbec75800	-0.38934326
57	0xbd876e49	-0.06612832
58	0x3ca36848	0.019947186
59	0x3db67498	0.08908957
60	0xbe703873	-0.23459034
61	0xbd242cbb	-0.04008172
62	0x3da23a31	0.079212554
63	0xbdba1a00	-0.0908699
64	0xbeb5b517	-0.35489723
65	0xbe7b1062	-0.24517968
66	0x3d4d05af	0.05005425
67	0xbe25bfc1	-0.1618643
68	0xbf221393	-0.6331112
69	0xbe7db84d	-0.24777336
70	0xbe8b566f	-0.2721438
71	0xbc74c5c6	-0.014939731
72	0xbdce5322	-0.1007445
73	0xbe4f431c	-0.20240444
74	0x3d9f7040	0.07785082
75	0x3edfc65e	0.4370603
76	0x3ecea787	0.40362188
77	0xbe73fa06	-0.23825845
78	0xbcb63c4d	-0.02224555
79	0xbd7e38e0	-0.06206596
80	0x3deed712	0.11662115
81	0xbe8634b7	-0.26212093
82	0xbd2c6c40	-0.042095423
83	0x3e95e18d	0.29273644
84	0x3ce801c9	0.028321164
85	0xbe60d0ee	-0.219547
86	0x3b298791	0.0025868157
87	0x3d82364f	0.06358015
88	0xbd61e977	-0.05515429
89	0xbe4b914f	-0.1987965
90	0xbe12ca49	-0.14334978
91	0x3db52429	0.088447876
92	0xbdfa9a52	-0.122364655
93	0xbcc74246	-0.024323594
94	0x3de322e7	0.110906415
95	0xbe6d8f04	-0.23199087
96	0x3d09fd20	0.033688664
97	0x3d91172c	0.07084498
98	0xbe624b8f	-0.22099136
99	0x3de134c9	0.10996396
100	0xbc538391	-0.012909786
101	0x3e54ce5b	0.20781843
102	0x3e8096b9	0.25114992
103	0x3dcd5d8f	0.100276105
104	0x3c3b1cf3	0.011420476
105	0xbeafda44	-0.3434621
106	0x3e1a1992	0.15048817
107	0x3e6bf663	0.23043208
108	0xbe0c94c6	-0.13728628
109	0xbec026ee	-0.375297
110	0x3e16a9b9	0.14713182
111	0xbdb5b23f	-0.08871888
112	0xbe5f54bb	-0.21809666
113	0xbe0a501d	-0.13507123
114	0x3e3aeca9	0.18254341
115	0x3e9dfca2	0.30856806
116	0x3e9ac39f	0.30227372
117	0xbe24a2ee	-0.16077778
118	0x3dee5087	0.11636453
119	0xbd441638	-0.047872752
120	0x3d170a49	0.036875043
121	0xbe9bdff7	-0.3044431
122	0xbe273b2b	-0.16331165
123	0xbebf76c5	-0.373953
124	0x3e69df8f	0.22839187
125	0x3d7b5703	0.061362278
126	0x3e60d293	0.21955328
127	0xbd6bb48e	-0.057545237
128	0x3e124edc	0.14287895
129	0x3ed90686	0.4238779
130	0xbe1acbd2	-0.15116814
131	0xbf0a9367	-0.5413117
132	0xbde874de	-0.11350416
133	0xbd194d78	-0.037427396
134	0x3cd4642c	0.025926672
135	0x3dd3e4f1	0.103464015
136	0xbe86a095	-0.2629439
137	0xbd332666	-0.04373779
138	0xbe9f7578	-0.3114431
139	0xbe9d6a42	-0.3074513
140	0x3cd48f2e	0.02594718
141	0xbebce721	-0.36895087
142	0x3dce1e46	0.10064368
143	0xbeb244b2	-0.34818035
144	0xbe482938	-0.19546974
145	0xbea2573e	-0.31707186
146	0xbf177813	-0.59167594
147	0xbc11a367	-0.008889056
148	0x3f03adf6	0.5143732
149	0xbe158adf	-0.14603756
150	0x3e0e8edb	0.13921683
151	0x3e78bec2	0.24291518
152	0xbd897426	-0.06711607
153	0xbee6af99	-0.45055845
154	0xbeb68736	-0.35650033
155	0x3e8cb6de	0.27483267
156	0xbea9bbdd	-0.3315114
157	0xbd8f5b98	-0.06999892
158	0x3cc01135	0.023445705
159	0xbdfeef26	-0.12447958
160	0xbe0d8f63	-0.13824229
161	0xbefe1b3a	-0.49630147
162	0x3e0bc6e5	0.13650091
163	0x3c690a87	0.014223701
164	0x3ec774a8	0.3895619
165	0xbd4e9a78	-0.05044028
166	0x3e6164d2	0.22011116
167	0x3f252b75	0.64519435
168	0xbe6b81a4	-0.22998673
169	0xbe19850e	-0.14992163
170	0xbdcb200d	-0.099182226
171	0xbd65ee7b	-0.056135636
172	0xbd7f0f7d	-0.06227063
173	0x3d5383dc	0.051639423
174	0x3e809815	0.2511603
175	0xbd0be1bd	-0.034150828
176	0x3e0c3072	0.13690355
177	0x3e6f009b	0.23340075
178	0x3da6da3d	0.081470944
179	0x3e32697f	0.17423056
180	0x3e4b0511	0.19826151
181	0x3e884275	0.26613203
182	0xbef0186b	-0.4689363
183	0x3e6dfe06	0.23241434
184	0x3d0299bf	0.031884905
185	0xbc006f35	-0.007839014
186	0xbe4ff61a	-0.20308724
187	0x3d6b9ca8	0.057522446
188	0x3f3c1077	0.73462623
189	0xbf24d2e5	-0.643843
190	0x3e12f5d7	0.14351593
191	0x3e50f49d	0.20405813
192	0x3bc4d8fc	0.006007312
193	0xbcbb3aae	-0.02285513
194	0x3e832ca6	0.25620002
195	0xbdadabe3	-0.084800504

rho.rho.0.bias f4 [28]
0	0xbea60976	-0.32429093
1	0xbce4a4ce	-0.027910616
2	0x3d23a301	0.039950375
3	0xbf0cfaa9	-0.5506998
4	0xbe070aca	-0.1318771
5	0x3de9b44d	0.11411343
6	0x3db5a150	0.088686585
7	0xbe9cc2c6	-0.3061735
8	0x3a553ca6	0.00081343425
9	0x3ea0a060	0.31372356
10	0x3e878deb	0.26475462
11	0xbdc1a5ab	-0.09455427
12	0x3e311dda	0.17296544
13	0xbefc4f9d	-0.4927949
14	0xbe30a83d	-0.17251678
15	0xbebcda01	-0.36885074
16	0x3e88f863	0.26752004
17	0xbf117cbc	-0.56830955
18	0xbc1dd437	-0.0096331155
19	0xbebb7566	-0.36613005
20	0xbd59ad37	-0.053143706
21	0x3d4f5eaa	0.050627388
22	0xbdb50523	-0.088388704
23	0x3ecc157b	0.39860138
24	0xbd71504a	-0.05891446
25	0xbe929e13	-0.28636226
26	0x3e14fd6a	0.14549795
27	0xbe0cab50	-0.13737226

rho.rho.2.weight f4 [28, 28]
0	0xbe559aa3	-0.2085977
1	0x3e258ca7	0.16166936
2	0xbd47e744	-0.048804536
3	0xbe45750c	-0.19282931
4	0x3e22fcdd	0.15916772
5	0x3e181570	0.14851928
6	0x3d0d8c0f	0.0345574
7	0x3d5cf838	0.053947657
8	0xbd93911a	-0.0720541
9	0xbe21788f	-0.15768646
10	0x3e90f266	0.28309935
11	0x3d14f2c6	0.03636434
12	0x3781e6de	1.5485504e-05
13	0xbb2867a3	-0.0025696538
14	0x3e0336dc	0.12813896
15	0xbd9b92c1	-0.075963505
16	0xbd696bb3	-0.056987476
17	0xbe366bd5	-0.17814572
18	0xbdb382f8	-0.08765215
19	0xbe2e601f	-0.17028855
20	0xbdf9daa8	-0.121999085
21	0xbd9c7b3e	-0.07640694
22	0xbe236349	-0.15955843
23	0x3d9908bb	0.07472368
24	0xbd715125	-0.058915276
25	0xbb41f575	-0.0029595767
26	0x3e72ec0c	0.23722857
27	0xbbafda50	-0.005366601
28	0xbd4e1b2b	-0.05031888
29	0x3b8965c0	0.0041930377
30	0x3d53f24f	0.051744755
31	0xbf0170e0	-0.5056286
32	0xbdb94741	-0.09046794
33	0xbe8bb532	-0.2728668
34	0xbd021a38	-0.031763285
35	0xbd6e8998	-0.05823669
36	0xbdcf3702	-0.10117914
37	0x3e089df0	0.13341498
38	0x3e7cd844	0.24691874
39	0xbd881701	-0.06645013
40	0xbe76dea4	-0.24108368
41	0xbe8a8c55	-0.2706019
42	0xbe29afe5	-0.16571005
43	0x3e33ed95	0.17571099
44	0x3dc2928d	0.095006086
45	0xbd02fffb	-0.031982403
46	0xbea964b5	-0.33084646
47	0xbd4a75ad	-0.04942863
48	0xbe900678	-0.28129935
49	0xbd99f10e	-0.07516681
50	0xbd4d87f6	-0.05017849
51	0xbd90a30b	-0.07062348
52	0x3a8e23e3	0.0010844435
53	0x3e301490	0.17195344
54	0xbb2da127	-0.002649376
55	0x3cb659d5	0.022259632
56	0xbcc1ddb6	-0.02366529
57	0xbc98fe61	-0.018675985
58	0xbb586a08	-0.0033022184
59	0xbe101b13	-0.14072828
60	0x3e3cd42f	0.18440317
61	0xbda6ebf4	-0.08150473
62	0x3de12e11	0.109951146
63	0xbdd8f8aa	-0.10594304
64	0x3aa64962	0.0012686665
65	0x3d847e2d	0.064693786
66	0xbe31af2c	-0.17351979
67	0x3db1887e	0.08668612
68	0xbe142090	-0.14465547
69	0x3cd8099a	0.026371766
70	0xbd197f6e	-0.037475042
71	0x3ddddb99	0.108329006
72	0x3e3c1485	0.18367203
73	0x3d2e72fb	0.042590123
74	0xbbb0d2ba	-0.0053962143
75	0xbdbfc139	-0.09363026
76	0x3d904d05	0.0704594
77	0xbdba49f9	-0.090961404
78	0x3d9fdf23	0.07806232
79	0xbda7c07d	-0.08191011
80	0x3e03440f	0.12818931
81	0x3e146f64	0.14495617
82	0x3ded530c	0.115881056
83	0x3af81ff4	0.0018930421
84	0x3db37c3e	0.08763932
85	0xbe3056f9	-0.17220677
86	0x3dab5d5f	0.083674185
87	0xbe1584c2	-0.14601424
88	0x3d8d18ac	0.068894714
89	0xbdf327e1	-0.11872841
90	0xbe2363c5	-0.15956028
91	0xbdb5c108	-0.088747084
92	0x3d428163	0.047486674
93	0xbe45be12	-0.19310787
94	0xbde5e7b7	-0.11225837
95	0x3d10824b	0.035280507
96	0xbd950003	-0.07275393
97	0xbe22d366	-0.15900955
98	0xbe406de1	-0.18791915
99	0xbdbc2a91	-0.091878064
100	0x3db3882d	0.08766208
101	0xbe09989e	-0.13437125
102	0x3b95a856	0.0045671863
103	0x3e0a85e8	0.13527644
104	0xbda06cdd	-0.07833264
105	0xbe35b687	-0.1774541
106	0xbe0b3947	-0.13596068
107	0xbd736deb	-0.059430998
108	0xbdb11ab5	-0.08647672
109	0x3c166eb4	0.009181667
110	0xbb8796e6	-0.0041378615
111	0xbbecf469	-0.0072312844
112	0xbd743799	-0.059623335
113	0x3c54a804	0.012979511
114	0x3d37e0bc	0.044892058
115	0x3b83d10c	0.004022723
116	0x3d1ae649	0.037817273
117	0xbd9cc8be	-0.07655476
118	0x3e1e9f17	0.15490375
119	0xbc9ecb1e	-0.019383963
120	0xbcc613db	-0.02417939
121	0xbe2daf47	-0.16961394
122	0xbe0c4660	-0.13698721
123	0x3bc0a167	0.0058786157
124	0xbcef6cf0	-0.02922675
125	0xbdc297fd	-0.09501646
126	0x3dca9812	0.09892286
127	0xbc8a993a	-0.016918767
128	0x3d881da8	0.066462815
129	0x3e22fe58	0.15917337
130	0xbdb1f03e	-0.08688401
131	0xbdbe7cfa	-0.09301181
132	0xbd1b8c24	-0.037975445
133	0xbc83192a	-0.01600321
134	0xbdc194ab	-0.09452184
135	0xbd39d79e	-0.045371644
136	0xbbb27e95	-0.0054472187
137	0x3dad9bef	0.084770076
138	0x3e330916	0.17483935
139	0x3e0f4d38	0.139943
140	0xbe3a0b6b	-0.18168418
141	0xbc431e2d	-0.01190905
142	0xbca06dd1	-0.019583615
143	0xbe3e5364	-0.18586498
144	0x3d16ff27	0.036864426
145	0xbce7d41c	-0.028299384
146	0xbe6caa00	-0.23111725
147	0xbe24931c	-0.16071743
148	0xbd91e259	-0.071232505
149	0xbe21a139	-0.15784158
150	0xbd91d679	-0.071209855
151	0xbe71a2d7	-0.23597275
152	0xbd03b2e3	-0.03215302
153	0xbbf6bc7a	-0.0075297924
154	0xbdcff1d4	-0.10153547
155	0xbd9a6761	-0.07539249
156	0xbc85afd2	-0.01631919
157	0xbe0c3bdd	-0.13694711
158	0xbe7c0d14	-0.24614364
159	0xbb18bb4a	-0.0023304992
160	0x3e1a6ad0	0.15079808
161	0xbd2485c7	-0.040166643
162	0xbdfce18e	-0.12347709
163	0x38dbe2a2	0.000104849474
164	0x3da9442f	0.08264958
165	0x3c47564e	0.012166573
166	0xbc8bdc8c	-0.017072938
167	0xbe10996a	-0.14121023
168	0x3d19c0d1	0.0375374
169	0x3d622eb1	0.05522031
170	0xbdb2c3cf	-0.08728754
171	0x3deef669	0.11668093
172	0xbe36f877	-0.1786822
173	0xbd916272	-0.07098855
174	0xbde3ba1d	-0.11119483
175	0xbde5c23a	-0.112186864
176	0xbdea8658	-0.11451405
177	0xbe36599d	-0.17807622
178	0x3d04d7f8	0.032432526
179	0xbd191fce	-0.037383847
180	0xbe22f1af	-0.15912507
181	0xb8a2ff47	-7.772311e-05
182	0xbd00f224	-0.031480923
183	0x3d9fa999	0.0779602
184	0xbe17946e	-0.14802715
185	0xbd59c40f	-0.05316549
186	0x3d1f549a	0.03889904
187	0x3da40f2d	0.08010707
188	0x3c6a3bc7	0.014296479
189	0x3d51c59e	0.051213853
190	0x3e41726e	0.18891308
191	0xbd8612e5	-0.065465726
192	0x3e03e41d	0.12879987
193	0x3e26b1a9	0.1627871
194	0xbe2b3062	-0.16717675
195	0x3d3b3e4e	0.045713715
196	0x3ddb3c71	0.10704888
197	0xbcf17d86	-0.0294788
198	0x3dd59ab5	0.10429899
199	0xbd8fd9be	-0.07023953
200	0x3e135265	0.143869
201	0xbd57af0c	-0.052657172
202	0xbe62458c	-0.22096843
203	0x3e12f702	0.14352039
204	0x3d66364c	0.056204125
205	0x3d70b829	0.05876938
206	0x3d402874	0.04691358
207	0x3dcd84c9	0.100350924
208	0x3c0cac38	0.008585982
209	0x3d0257e2	0.031822093
210	0xbd33f1f4	-0.043931916
211	0x3d1fdf57	0.039031353
212	0xbe06ee28	-0.13176787
213	0xbd764f46	-0.060134195
214	0xbe29e2e0	-0.16590452
215	0x3c43c2b0	0.011948273
216	0xbe19382b	-0.14962833
217	0x3bde566a	0.0067852037
218	0xbe328abe	-0.17435738
219	0x3da5bea2	0.08093001
220	0x3dfee2e6	0.12445621
221	0xbe315bb8	-0.17320144
222	0x3e2ed865	0.17074735
223	0xbe0fdba9	-0.14048637
224	0xbd180069	-0.037109766
225	0x3dc88fa0	0.09793019
226	0xbd7575cc	-0.059926793
227	0x3e2c75ce	0.16841814
228	0xbdaabde7	-0.08337002
229	0xbccf45a1	-0.025301756
230	0xbdfcffdc	-0.12353489
231	0xbdb38ea2	-0.087674394
232	0x3e3cd7f4	0.18441755
233	0x3e1189a6	0.14212665
234	0x3c63fb32	0.01391487
235	0x3c7e958c	0.015538584
236	0xbe2437e2	-0.16036943
237	0x3e121887	0.14267169
238	0xbce81c50	-0.028333813
239	0xbda16e20	-0.07882333
240	0xbe1a017e	-0.15039632
241	0x3e1f1b51	0.15537764
242	0x3db78707	0.08961301
243	0x3de91f6c	0.11382946
244	0x3ca04d96	0.019568246
245	0xbe0350c2	-0.12823775
246	0x3d9e8b0b	0.07741364
247	0x3cb28bc3	0.02179516
248	0x3d81e11f	0.063417666
249	0xbd40c010	-0.047058165
250	0xbdb6a5e4	-0.0891836
251	0x3e1edd6b	0.15514152
252	0x3d81bda4	0.06334999
253	0xbd9d14fc	-0.07670018
254	0x3c8a3f5d	0.016875917
255	0xbd284398	-0.041080087

rho.rho.2.bias f4 [28]
0	0x3dfea6e7	0.12434178
1	0x3df5623a	0.11981626
2	0xbdad87ec	-0.08473191
3	0xbcfdeb04	-0.030995853
4	0xbe36e9f1	-0.17862679
5	0x3d24c1ec	0.040224
6	0xbe40da60	-0.18833303
7	0xbe8f6c66	-0.2801239
8	0xbe2db50d	-0.16963597
9	0xbe33b609	-0.1754991
10	0x3da4c7c5	0.080459155
11	0xbccf4232	-0.02530012
12	0xbb9dd91c	-0.004817141
13	0x3cda624b	0.026658198
14	0xbd05ed69	-0.032697115
15	0xbe036921	-0.12833072
16	0xbde5a04e	-0.11212216
17	0xbed9a7de	-0.42510885
18	0x3c636d3e	0.013881026
19	0xbea73bf4	-0.32662928
20	0xbea1c136	-0.3159272
21	0xbc845b96	-0.016156953
22	0xbdccb9df	-0.099963896
23	0xbe9256d6	-0.28581876
24	0xbe0101fe	-0.12598416
25	0xbe839253	-0.25697574
26	0x3befc089	0.007316653
27	0xbd2ea4fe	-0.042637818

rho.rho.4.weight f4 [1, 28]
0	0x3d8a6ef3	0.06759443
1	0x3d0f5b0e	0.034998946
2	0xb97bb362	-0.0002400405
3	0xbdbfc035	-0.093628325
4	0x3b88b844	0.004172357
5	0xbbe586e6	-0.0070046065
6	0xbddcdb17	-0.107839756
7	0xbb2ec4fa	-0.00266677
8	0x3c21deb4	0.009879757
9	0xbe11cff0	-0.14239478
10	0x3d7e25b9	0.062047694
11	0x3dcacde5	0.099025525
12	0x3d0ef5f7	0.03490254
13	0x3d8c031c	0.068365306
14	0x3c4ec77a	0.012620801
15	0xbdb63e43	-0.08898594
16	0xbd9857be	-0.074386105
17	0x3e711942	0.23544791
18	0x3d4d9bf4	0.050197557
19	0x3e87500c	0.26428258
20	0x3d4cc51d	0.04999267
21	0x3c05526e	0.008137329
22	0xbd884194	-0.06653133
23	0xbd833d98	-0.064082325
24	0xbe20ffd2	-0.15722588
25	0xbd5c0d62	-0.0537237
26	0x3d4ebaac	0.050470993
27	0x3aef3206	0.0018249161

exp_avg f4 [32, 3]
0	0x34caa31a	3.7744104e-07
1	0x344e2863	1.9199938e-07
2	0x337a7d41	5.832158e-08
3	0x00000000	0.0
4	0x00000000	0.0
5	0x00000000	0.0
6	0x00000000	0.0
7	0x00000000	0.0
8	0x00000000	0.0
9	0x00000000	0.0
10	0x00000000	0.0
11	0x00000000	0.0
12	0x00000004	6e-45
13	0x00000004	6e-45
14	0x00000004	6e-45
15	0x00000004	6e-45
16	0x00000004	6e-45
17	0x00000004	6e-45
18	0x00000000	0.0
19	0x00000000	0.0
20	0x00000000	0.0
21	0x3661df58	3.3657616e-06
22	0x34edb982	4.4279665e-07
23	0x3574daf0	9.121568e-07
24	0x00000000	0.0
25	0x00000000	0.0
26	0x00000000	0.0
27	0x00000000	0.0
28	0x00000000	0.0
29	0x00000000	0.0
30	0x00000000	0.0
31	0x00000000	0.0
32	0x00000000	0.0
33	0x00000000	0.0
34	0x00000000	0.0
35	0x00000000	0.0
36	0x00000004	6e-45
37	0x00000004	6e-45
38	0x00000004	6e-45
39	0xb680c862	-3.838025e-06
40	0xb617f53c	-2.2643499e-06
41	0xb553e8a0	-7.894214e-07
42	0x00000000	0.0
43	0x00000000	0.0
44	0x00000000	0.0
45	0x3695c92b	4.463965e-06
46	0x3611289e	2.1630326e-06
47	0xb52dc3bd	-6.473236e-07
48	0x00000000	0.0
49	0x00000000	0.0
50	0x00000000	0.0
51	0x35e677ed	1.7171238e-06
52	0x35673422	8.613007e-07
53	0x352a9956	6.355307e-07
54	0xb505bb57	-4.9818976e-07
55	0x329ae129	1.803035e-08
56	0x346b05e1	2.1888219e-07
57	0x00000000	0.0
58	0x00000000	0.0
59	0x00000000	0.0
60	0x3300a2aa	2.9950264e-08
61	0x32ea772b	2.7295377e-08
62	0xb39b5c98	-7.234593e-08
63	0xb7941576	-1.7652968e-05
64	0xb75c663a	-1.3136823e-05
65	0xb719c21b	-9.164704e-06
66	0x0b7f8a1a	4.921511e-32
67	0x0b03ad9d	2.5360294e-32
68	0x0b3b883e	3.6117387e-32
69	0xb495a5fd	-2.7874185e-07
70	0xb4ef55eb	-4.4579733e-07
71	0x34a58e56	3.0837208e-07
72	0x22f0f7ea	6.531462e-18
73	0x2209de91	1.8684788e-18
74	0x228417eb	3.5803996e-18
75	0xb784c454	-1.5827049e-05
76	0xb741e0dd	-1.15560515e-05
77	0xb6d8756f	-6.4509727e-06
78	0x00000000	0.0
79	0x00000000	0.0
80	0x00000000	0.0
81	0xb71a3a79	-9.1927295e-06
82	0xb6e4834b	-6.810214e-06
83	0xb67591c1	-3.6592685e-06
84	0x00000000	0.0
85	0x00000000	0.0
86	0x00000000	0.0
87	0x00000000	0.0
88	0x00000000	0.0
89	0x00000000	0.0
90	0x3602725c	1.9438075e-06
91	0x35b1e6f5	1.3254745e-06
92	0x33bba58c	8.737979e-08
93	0x00000000	0.0
94	0x00000000	0.0
95	0x00000000	0.0

exp_avg_sq f4 [32, 3]
0	0x2eb8de62	8.4068544e-11
1	0x2dc614ab	2.2519172e-11
2	0x2d56c826	1.22089335e-11
3	0x00000000	0.0
4	0x00000000	0.0
5	0x00000000	0.0
6	0x00000000	0.0
7	0x00000000	0.0
8	0x00000000	0.0
9	0x00000000	0.0
10	0x00000000	0.0
11	0x00000000	0.0
12	0x2907b45e	3.0132465e-14
13	0x2787abb6	3.7656196e-15
14	0x26d7effd	1.4983671e-15
15	0x2d510358	1.1881017e-11
16	0x2cfc75cf	7.17535e-12
17	0x2c8151db	3.6754883e-12
18	0x00000000	0.0
19	0x00000000	0.0
20	0x00000000	0.0
21	0x317f9e6c	3.7197436e-09
22	0x2e0d2107	3.2089022e-11
23	0x2fda7c17	3.974214e-10
24	0x00000000	0.0
25	0x00000000	0.0
26	0x00000000	0.0
27	0x00000000	0.0
28	0x00000000	0.0
29	0x00000000	0.0
30	0x00000000	0.0
31	0x00000000	0.0
32	0x00000000	0.0
33	0x00000000	0.0
34	0x00000000	0.0
35	0x00000000	0.0
36	0x28fb4cee	2.7899961e-14
37	0x289b7de1	1.7263048e-14
38	0x27b122a9	4.9164947e-15
39	0x31b53aca	5.274477e-09
40	0x309fdcb8	1.1631505e-09
41	0x3089b596	1.0019672e-09
42	0x00000000	0.0
43	0x00000000	0.0
44	0x00000000	0.0
45	0x327c7cef	1.4696737e-08
46	0x3161ea99	3.2875163e-09
47	0x312fff4b	2.561097e-09
48	0x00000000	0.0
49	0x00000000	0.0
50	0x00000000	0.0
51	0x2fd03e09	3.7879058e-10
52	0x2e8b5f1a	6.3378816e-11
53	0x2e7cc1a2	5.7470147e-11
54	0x2fa08b7d	2.9202943e-10
55	0x2ed0e230	9.498924e-11
56	0x2e94e219	6.770424e-11
57	0x00000000	0.0
58	0x00000000	0.0
59	0x00000000	0.0
60	0x2fd53b49	3.87866e-10
61	0x2ed1f404	9.5475655e-11
62	0x2e88a25f	6.213407e-11
63	0x32b4b5b4	2.1037387e-08
64	0x320077eb	7.477847e-09
65	0x316dbaa8	3.459414e-09
66	0x2fe6ba8b	4.1969303e-10
67	0x2f9a9659	2.8119265e-10
68	0x2f07b64e	1.2342946e-10
69	0x31be6417	5.5411067e-09
70	0x2fd54795	3.8795336e-10
71	0x30842792	9.615511e-10
72	0x2cff447c	7.255139e-12
73	0x2c0df270	2.0171885e-12
74	0x2b9a94b9	1.0983637e-12
75	0x3301ca82	3.0219333e-08
76	0x31b030c0	5.1278164e-09
77	0x3190b090	4.2110244e-09
78	0x00000000	0.0
79	0x00000000	0.0
80	0x00000000	0.0
81	0x327e80a3	1.48139945e-08
82	0x3140fb6f	2.80826e-09
83	0x311acbd5	2.2525815e-09
84	0x00000000	0.0
85	0x00000000	0.0
86	0x00000000	0.0
87	0x00000000	0.0
88	0x00000000	0.0
89	0x00000000	0.0
90	0x31a2b538	4.7354227e-09
91	0x3080ae21	9.362716e-10
92	0x305ef86b	8.111615e-10
93	0x00000000	0.0
94	0x00000000	0.0
95	0x00000000	0.0

exp_avg f4 [32]
0	0x35288378	6.277619e-07
1	0x00000000	0.0
2	0x00000000	0.0
3	0x00000000	0.0
4	0x00000004	6e-45
5	0x00000004	6e-45
6	0x00000000	0.0
7	0x369e66a0	4.720714e-06
8	0x00000000	0.0
9	0x00000000	0.0
10	0x00000000	0.0
11	0x00000000	0.0
12	0x00000004	6e-45
13	0xb6e74017	-6.8917975e-06
14	0x00000000	0.0
15	0x36c8a508	5.9796766e-06
16	0x00000000	0.0
17	0x3657af54	3.213955e-06
18	0xb48c4596	-2.6127663e-07
19	0x00000000	0.0
20	0xb281b54b	-1.5100019e-08
21	0xb82794d0	-3.9954495e-05
22	0x0c0faffc	1.1069278e-31
23	0xb4df6d3a	-4.161646e-07
24	0x235cff95	1.19803455e-17
25	0xb80de90f	-3.3834072e-05
26	0x00000000	0.0
27	0xb7a4f049	-1.9662215e-05
28	0x00000000	0.0
29	0x00000000	0.0
30	0x3661430a	3.3566635e-06
31	0x00000000	0.0

exp_avg_sq f4 [32]
0	0x2fa28190	2.9559688e-10
1	0x00000000	0.0
2	0x00000000	0.0
3	0x00000000	0.0
4	0x299f0673	7.062137e-14
5	0x2e8ae96c	6.3169775e-11
6	0x00000000	0.0
7	0x32003add	7.463965e-09
8	0x00000000	0.0
9	0x00000000	0.0
10	0x00000000	0.0
11	0x00000000	0.0
12	0x2a14c079	1.3211818e-13
13	0x32a22734	1.887711e-08
14	0x00000000	0.0
15	0x335f288b	5.1958107e-08
16	0x00000000	0.0
17	0x30a67113	1.2110227e-09
18	0x30a1a5d5	1.1761424e-09
19	0x00000000	0.0
20	0x30bb80c5	1.3642639e-09
21	0x33b396f2	8.362794e-08
22	0x311ce9c8	2.2833877e-09
23	0x32851e07	1.5496893e-08
24	0x2de01e62	2.5479344e-11
25	0x33cdb2c9	9.578577e-08
26	0x00000000	0.0
27	0x3352c779	4.9075854e-08
28	0x00000000	0.0
29	0x00000000	0.0
30	0x328b294b	1.6200508e-08
31	0x00000000	0.0

exp_avg f4 [32, 32]
0	0x00000000	0.0
1	0x00000000	0.0
2	0x00000000	0.0
3	0x00000000	0.0
4	0x00000000	0.0
5	0x00000000	0.0
6	0x00000000	0.0
7	0x00000000	0.0
8	0x00000000	0.0
9	0x00000000	0.0
10	0x00000000	0.0
11	0x00000000	0.0
12	0x00000000	0.0
13	0x00000000	0.0
14	0x00000000	0.0
15	0x00000000	0.0
16	0x00000000	0.0
17	0x00000000	0.0
18	0x00000000	0.0
19	0x00000000	0.0
20	0x00000000	0.0
21	0x00000000	0.0
22	0x00000000	0.0
23	0x00000000	0.0
24	0x00000000	0.0
25	0x00000000	0.0
26	0x00000000	0.0
27	0x00000000	0.0
28	0x00000000	0.0
29	0x00000000	0.0
30	0x00000000	0.0
31	0x00000000	0.0
32	0xb2430217	-1.1350969e-08
33	0x00000000	0.0
34	0x00000000	0.0
35	0x00000000	0.0
36	0x00000004	6e-45
37	0x00000004	6e-45
38	0x00000000	0.0
39	0xb40d3cd6	-1.315378e-07
40	0x00000000	0.0
41	0x00000000	0.0
42	0x00000000	0.0
43	0x00000000	0.0
44	0x00000004	6e-45
45	0xb489f33c	-2.5695215e-07
46	0x00000000	0.0
47	0xb4b4a965	-3.3650863e-07
48	0x00000000	0.0
49	0xb24a7823	-1.1785263e-08
50	0xb4425237	-1.8097568e-07
51	0x00000000	0.0
52	0xb30eee39	-3.3278614e-08
53	0xb507fa25	-5.065543e-07
54	0x081ee867	4.7819583e-34
55	0xb45688b0	-1.998003e-07
56	0x1f58a658	4.5877375e-20
57	0xb41797ac	-1.4118149e-07
58	0x00000000	0.0
59	0xb4aaa5c9	-3.1785592e-07
60	0x00000000	0.0
61	0x00000000	0.0
62	0xb3b1e993	-8.284692e-08
63	0x00000000	0.0
64	0x0fedc880	2.3447234e-29
65	0x00000000	0.0
66	0x00000000	0.0
67	0x00000000	0.0
68	0x00000004	6e-45
69	0x00000004	6e-45
70	0x00000000	0.0
71	0x00000004	6e-45
72	0x00000000	0.0
73	0x00000000	0.0
74	0x00000000	0.0
75	0x00000000	0.0
76	0x00000004	6e-45
77	0xb3c75e6d	-9.2838356e-08
78	0x00000000	0.0
79	0xb68f0dce	-4.263339e-06
80	0x00000000	0.0
81	0x00126b6b	1.691573e-39
82	0xa6d5e406	-1.484165e-15
83	0x00000000	0.0
84	0x80000004	-6e-45
85	0xb60e0d1a	-2.1167275e-06
86	0x8622ebc3	-3.0642024e-35
87	0x00000004	6e-45
88	0x21a419d6	1.1119911e-18
89	0x2311cf3b	7.9043485e-18
90	0x00000000	0.0
91	0xb41830a3	-1.4173797e-07
92	0x00000000	0.0
93	0x00000000	0.0
94	0xb5ee3b87	-1.7749707e-06
95	0x00000000	0.0
96	0x00000000	0.0
97	0x00000000	0.0
98	0x00000000	0.0
99	0x00000000	0.0
100	0x00000000	0.0
101	0x00000000	0.0
102	0x00000000	0.0
103	0x00000000	0.0
104	0x00000000	0.0
105	0x00000000	0.0
106	0x00000000	0.0
107	0x00000000	0.0
108	0x00000000	0.0
109	0x00000000	0.0
110	0x00000000	0.0
111	0x00000000	0.0
112	0x00000000	0.0
113	0x00000000	0.0
114	0x00000000	0.0
115	0x00000000	0.0
116	0x00000000	0.0
117	0x00000000	0.0
118	0x00000000	0.0
119	0x00000000	0.0
120	0x00000000	0.0
121	0x00000000	0.0
122	0x00000000	0.0
123	0x00000000	0.0
124	0x00000000	0.0
125	0x00000000	0.0
126	0x00000000	0.0
127	0x00000000	0.0
128	0x00000004	6e-45
129	0x00000000	0.0
130	0x00000000	0.0
131	0x00000000	0.0
132	0x00000000	0.0
133	0x00000000	0.0
134	0x00000000	0.0
135	0x00000004	6e-45
136	0x00000000	0.0
137	0x00000000	0.0
138	0x00000000	0.0
139	0x00000000	0.0
140	0x00000000	0.0
141	0x00000004	6e-45
142	0x00000000	0.0
143	0x00000000	0.0
144	0x00000000	0.0
145	0x00000004	6e-45
146	0x00000004	6e-45
147	0x00000000	0.0
148	0x00000004	6e-45
149	0x00000004	6e-45
150	0x00000000	0.0
151	0x00000004	6e-45
152	0x00000000	0.0
153	0x00000004	6e-45
154	0x00000000	0.0
155	0x00000004	6e-45
156	0x00000000	0.0
157	0x00000000	0.0
158	0x00000000	0.0
159	0x00000000	0.0
160	0x33e127d8	1.04846265e-07
161	0x00000000	0.0
162	0x00000000	0.0
163	0x00000000	0.0
164	0x00000004	6e-45
165	0x00000004	6e-45
166	0x00000000	0.0
167	0x80000004	-6e-45
168	0x00000000	0.0
169	0x00000000	0.0
170	0x00000000	0.0
171	0x00000000	0.0
172	0x00000004	6e-45
173	0x35a65a52	1.239425e-06
174	0x00000000	0.0
175	0xb64ca2e5	-3.0493186e-06
176	0x00000000	0.0
177	0x33ad9a93	8.084057e-08
178	0x35406f24	7.1687305e-07
179	0x00000000	0.0
180	0x34d2c385	3.9257807e-07
181	0xb4281071	-1.56522e-07
182	0x87882dd8	-2.048995e-34
183	0xb314da4b	-3.465747e-08
184	0x1ca2ef99	1.0782195e-21
185	0x35d06045	1.5525226e-06
186	0x00000000	0.0
187	0x35fc23a0	1.8785831e-06
188	0x00000000	0.0
189	0x00000000	0.0
190	0xb5d2d481	-1.5708066e-06
191	0x00000000	0.0
192	0x00000004	6e-45
193	0x00000000	0.0
194	0x00000000	0.0
195	0x00000000	0.0
196	0x00000004	6e-45
197	0x00000004	6e-45
198	0x00000000	0.0
199	0x00000004	6e-45
200	0x00000000	0.0
201	0x00000000	0.0
202	0x00000000	0.0
203	0x00000000	0.0
204	0x00000004	6e-45
205	0x00000004	6e-45
206	0x00000000	0.0
207	0x00000004	6e-45
208	0x00000000	0.0
209	0x00000004	6e-45
210	0x00000004	6e-45
211	0x00000000	0.0
212	0x00000004	6e-45
213	0x00000004	6e-45
214	0x00000004	6e-45
215	0x00000004	6e-45
216	0x00000004	6e-45
217	0x00000004	6e-45
218	0x00000000	0.0
219	0x00000004	6e-45
220	0x00000000	0.0
221	0x00000000	0.0
222	0x00000004	6e-45
223	0x00000000	0.0
224	0x00000004	6e-45
225	0x00000000	0.0
226	0x00000000	0.0
227	0x00000000	0.0
228	0x00000004	6e-45
229	0x00000004	6e-45
230	0x00000000	0.0
231	0x00000004	6e-45
232	0x00000000	0.0
233	0x00000000	0.0
234	0x00000000	0.0
235	0x00000000	0.0
236	0x00000004	6e-45
237	0x00000004	6e-45
238	0x00000000	0.0
239	0x00000004	6e-45
240	0x00000000	0.0
241	0x00000004	6e-45
242	0x00000004	6e-45
243	0x00000000	0.0
244	0x00000004	6e-45
245	0x00000004	6e-45
246	0x00000004	6e-45
247	0x00000004	6e-45
248	0x00000004	6e-45
249	0x00000004	6e-45
250	0x00000000	0.0
251	0x00000004	6e-45
252	0x00000000	0.0
253	0x00000000	0.0
254	0x00000004	6e-45
255	0x00000000	0.0
