src/logs/2024-07-30 20:52:48.445337/lightning_logs/version_0/checkpoints/epoch=499-step=1000.ckpt (torch, 60907 bytes, 39 tensors)

phi.phi.0.weight f4 [32, 3]
0.101171724 0.3849716 -0.69060314 -0.4248946 -0.22236897 0.15482073 -0.011439145 0.45777494
-0.0512364 0.15277413 -0.1744828 -0.11348708 -0.66584116 -0.46434447 0.3505054 -0.17680125
0.053861868 0.77092665 -0.39140946 -0.25141457 0.20970349 0.45070535 -0.11957829 0.9461248
-0.09305926 0.0610918 0.5227769 -0.5355907 -0.36346388 -0.14616501 -0.2250511 0.4988311
-0.3742267 -0.2657733 -0.40336025 -0.54072374 -0.2767027 0.42809594 1.0217595 0.3360191
0.056680936 -0.58032817 0.09767882 -0.5390689 -0.4171738 -0.5153818 0.13812761 0.89717865
-0.256052 -0.020832175 0.36925054 0.49332538 0.12077019 -0.1800702 0.22597115 -0.507338
0.26834303 -0.44762284 -0.40015346 -0.29824966 0.47237343 0.4311563 -0.90864116 0.24048811
0.37702122 -0.5254711 -0.04947524 0.080601215 0.87858725 0.5241033 -0.49287412 -0.40581465
0.122050405 0.34957665 0.48468372 0.5635912 0.14332426 -0.7246004 0.053111892 -0.36119342
-0.53806394 0.51251906 0.3986416 -0.7340826 0.10806383 -0.09726043 -0.095009424 -0.26428604
0.2220236 -0.3419666 0.06648194 0.18536867 1.0378901 0.2158777 -0.5714239 -0.3745253
00000000: 1f33 cf3d ff1a c53e 5ecb 30bf c98b d9be
00000010: b1b4 63be 5389 1e3e 406b 3bbc 7a61 ea3e
00000020: 42dd 51bd d270 1c3e 9eab 32be ea6b e8bd
00000030: 9174 2abf 8fbe edbe 7275 b33e 630b 35be
00000040: 439e 5c3d 735b 453f d266 c8be 69b9 80be
00000050: 83bc 563e dac2 e63e 76e5 f4bd 3c35 723f
00000060: da95 bebd 653b 7a3d b5d4 053f 791c 09bf
00000070: f017 babe 48ac 15be cc73 66be ca66 ff3e
00000080: a49a bfbe 7013 88be 3c85 cebe df6c 0abf
00000090: faab 8dbe 642f db3e 04c9 823f b20a ac3e
000000a0: 452a 683d 6390 14bf d50b c83d 6b00 0abf
000000b0: ce97 d5be 10f0 03bf 5371 0d3e 80ad 653f
000000c0: 3f19 83be 3da8 aabc 680e bd3e 2595 fc3e
000000d0: 5d56 f73d 5364 38be fb64 673e e7e0 01bf
000000e0: 4264 893e d22e e5be eae0 ccbe 2eb4 98be
000000f0: eeda f13e 85c0 dc3e b59c 68bf 8442 763e
00000100: ed08 c13e 4685 06bf 8da6 4abd 4012 a53d
00000110: 18eb 603f a22b 063f ff59 fcbe f0c6 cfbe
00000120: 90f5 f93d b6fb b23e 7728 f83e 8347 103f
00000130: 98c3 123e 697f 39bf db8b 593d 58ee b8be
00000140: 8fbe 09bf 7334 033f c01a cc3e d6ec 3bbf
00000150: 9250 dd3d 7a30 c7bd 4d94 c2bd 8050 87be
00000160: 285a 633e 3f16 afbe af27 883d 49d1 3d3e
00000170: 95d9 843f 0b0f 5d3e d648 12bf c8c1 bfbe

phi.phi.0.bias f4 [32]
0.3314821 0.12084019 -0.4503817 -0.33244953 0.55907077 0.2890324 -0.25173923 -0.08578769
-0.5499828 -0.010377374 -0.43477875 -0.445343 0.13519922 0.074213505 -0.23644242 0.25606915
-0.3513402 0.40069038 0.26418892 -0.48686963 -0.07702168 -0.0013072835 0.10656042 0.06860027
0.12491664 0.028374823 -0.2817058 0.22848745 -0.5538226 -0.34219936 -0.14335127 -0.281235
00000000: 06b8 a93e 107b f73d 6e98 e6be d336 aabe
00000010: 431f 0f3f 0efc 933e f7e3 80be 75b1 afbd
00000020: accb 0cbf dc05 2abc 529b debe ff03 e4be
00000030: aa71 0a3e 40fd 973d f61d 72be 7f1b 833e
00000040: dde2 b3be 4a27 cd3e c543 873e fa46 f9be
00000050: 8bbd 9dbd 2859 abba 593c da3d 4c7e 8c3d
00000060: 4cd4 ff3d 5172 e83c be3b 90be 9df8 693e
00000070: 51c7 0dbf c134 afbe adca 12be 09fe 8fbe

phi.phi.2.weight f4 [32, 32]
-0.061842386 -0.14489001 -0.03760308 0.037787158 -0.11516397 -0.009072067 0.12654574 -0.018172689
0.0049130158 -0.015250331 0.03577631 0.1124016 0.16745105 0.11226308 0.16783418 -0.012784783
-0.1588023 -0.08380581 0.120368175 -0.0011459517 -0.08786621 -0.13546605 -0.16543683 -0.14920098
-0.03585681 0.0969454 0.09557274 -0.17048907 0.11027013 -0.13832943 -0.03737241 -0.07167811
-0.011451674 -0.034708813 -0.15863055 -0.1526357 0.15897392 0.09519617 -0.08030521 0.15844238
-0.15910934 -0.011930171 0.15546086 -0.072105795 0.6390025 0.050876077 -0.15953405 0.27178648
-0.020399053 -0.021094184 0.209077 -0.1428524 -0.19675906 -0.028418615 0.2567793 0.073830165
0.17002308 0.036971185 -0.042510323 -0.023454381 -0.14567839 0.09578542 0.29053456 0.120955005
-0.18474624 0.007884221 -0.12461592 -0.09731277 -0.16305177 0.00035932334 -0.10534356 -0.06390672
0.007436664 0.11395433 -0.13362905 -0.12135936 -0.16258061 0.06368112 -0.06354503 0.089057244
0.06392378 -0.03766954 -0.061369326 -0.03494549 -0.037847433 -0.1004163 -0.061292034 -0.037496816
-0.19832899 -0.15270609 0.1427459 -0.20351598 -0.012693661 0.17487435 0.0038112984 0.005005086
-0.15319644 0.08757126 -0.12591463 -0.050180584 -0.05931147 -0.026178397 0.0019336342 0.14580674
0.022068596 0.15833761 0.108136505 -0.11176069 0.07928507 -0.12496275 -0.074922405 0.051994037
0.058370266 0.13262284 -0.05690722 0.000282995 0.091008805 -0.17095935 0.12780613 -0.14618061
0.002436425 -0.030055001 -0.093103506 0.023364758 0.14617996 -0.051675282 -0.10495128 -0.06537888
-0.27735198 0.079795934 -0.08489943 -0.117970206 -0.16740835 -0.012402491 0.093616284 0.0045967326
0.06412099 -0.059036292 -0.04939992 0.052225128 0.06693321 -0.038294073 -0.083641075 -0.12757257
-0.1671369 -0.114641555 -0.24076892 -0.15760982 0.105735965 -0.1577907 -0.122835346 -0.06708899
-0.12192437 -0.22599402 -0.14289244 0.010388137 0.028786086 0.14665829 -0.13068506 0.052070532
-0.08396002 -0.0078614615 -0.107664816 0.05978604 0.0068050874 -0.050105397 -0.03975746 -0.15570699
0.122249 -0.13159683 0.07241931 -0.059441786 -0.11205779 -0.015798822 -0.091827884 -0.005076995
0.03471556 -0.1776983 -0.016846057 0.07529435 0.033245128 -0.0688865 -0.18922386 -0.07582975
0.016249951 -0.10960149 0.06710109 0.07263677 -0.09230423 0.0017433411 0.029913865 0.013855376
-0.08402261 0.022073295 -0.1389726 0.0138925705 0.027584633 0.06088347 0.10390066 -0.07566834
0.082557224 -0.08599826 -0.1464928 -0.152014 0.08035317 0.014594092 -0.122194014 -0.028264722
0.13349603 0.07816025 0.055012222 0.13695842 -0.13388036 -0.15910572 0.046118528 0.00018014798
-0.20513989 0.059587125 0.085411176 -0.0028469334 -0.11079945 0.050717197 -0.16081701 0.13812563
-0.115941525 0.06882138 0.031399403 0.07521286 -0.14347559 0.0018916744 -0.12347338 -0.044660524
-0.119605675 -0.17439684 -0.14196154 0.13955991 0.01941245 0.08215652 0.14161956 -0.24199182
-0.120637916 -0.112855695 -0.19934005 0.12275311 -0.21704742 -0.16972663 -0.25536114 -0.18467677
0.06093897 0.06049283 0.12654342 0.052286677 0.15718745 -0.04526597 -0.0067305635 0.15749574
00000000: 714e 7dbd 0c5e 14be b005 1abd b5c6 1a3d
00000010: 16db ebbd 02a3 14bc 3595 013e e4de 94bc
00000020: 5dfd a03b 86dc 79bc 2e8a 123d cf32 e63d
00000030: 4a78 2b3e 30ea e53d b9dc 2b3e 4477 51bc
00000040: 129d 22be 61a2 abbd 9783 f63d c233 96ba
00000050: 33f3 b3bd 9db7 0abe 4668 29be 24c8 18be
00000060: 97de 12bd 4f8b c63d a4bb c33d b094 2ebe
00000070: 4ed5 e13d 3ba6 0dbe d013 19bd f9cb 92bd
00000080: cd9f 3bbc d42a 0ebd 0c70 22be 884c 1cbe
00000090: 0fca 223e 36f6 c23d 0f77 a4bd b83e 223e
000000a0: 8fed 22be c476 43bc 2231 1f3e 34ac 93bd
000000b0: ab95 233f 6f63 503d e55c 23be 9927 8b3e
000000c0: ea1b a7bc b6cd acbc 4818 563e e647 12be
000000d0: 357b 49be 28ce e8bc 9478 833e 4534 973d
000000e0: 881a 2e3e 196f 173d 4e1f 2ebd 6723 c0bc
000000f0: b72c 15be 252b c43d f2c0 943e 42b7 f73d
00000100: 1e2e 3dbe d22c 013c a236 ffbd eb4b c7bd
00000110: 0bf7 26be 9063 bc39 5dbe d7bd 87e1 82bd
00000120: 42af f33b e360 e93d 0ed6 08be 428b f8bd
00000130: 887b 26be 3f6b 823d e623 82bd a563 b63d
00000140: 79ea 823d 604b 1abd 675e 7bbd 0123 0fbd
00000150: e905 1bbd 10a7 cdbd 5b0d 7bbd 4396 19bd
00000160: c116 4bbe fc5e 1cbe fb2b 123e 7e66 50be
00000170: 13f9 4fbc 4312 333e fac6 793b b401 a43b
00000180: 87df 1cbe 9058 b33d c4ef 00be 288a 4dbd
00000190: 95f0 72bd 1474 d6bc ff71 fd3a 5d4e 153e
000001a0: 33c9 b43c 4123 223e ac76 dd3d cae2 e4bd
000001b0: 3660 a23d 78ec ffbd eb70 99bd b3f7 543d
000001c0: a915 6f3d 48ce 073e 8c17 69bd f25e 9439
000001d0: d362 ba3d f80f 2fbe 9cdf 023e 5fb0 15be
000001e0: 6eac 1f3b e835 f6bc 0dad bebd 7367 bf3c
000001f0: 33b0 153e 76a9 53bd b2f0 d6bd 5de5 85bd
00000200: 1401 8ebe 0d6c a33d c1df adbd 5d9a f1bd
00000210: 186d 2bbe d133 4bbc e5b9 bf3d 30a0 963b
00000220: de51 833d 0ad0 71bd 9257 4abd 04ea 553d
00000230: 4714 893d 3fda 1cbd 034c abbd 62a2 02be
00000240: ef25 2bbe 31c9 eabd 218c 76be 7864 21be
00000250: 198c d83d e393 21be 1991 fbbd f465 89bd
00000260: 7cb3 f9bd fa6a 67be 6552 12be 0133 2a3c
00000270: ccd0 eb3c 972d 163e 4ed2 05be e947 553d
00000280: 3bf3 abbd 5ccd 00bc 5f7f dcbd 35e2 743d
00000290: 36fd de3b 513b 4dbd b8d8 22bd a771 1fbe
000002a0: af5d fa3d 52c1 06be 9350 943d 3b79 73bd
000002b0: 8e7e e5bd 886c 81bc 4210 bcbd ec5c a6bb
000002c0: e731 0e3d 8bf6 35be be00 8abc ed33 9a3d
000002d0: 0b2c 083d 5e14 8dbd e6c3 41be a14c 9bbd
000002e0: 9e1e 853c bf76 e0bd 4c6c 893d 96c2 943d
000002f0: 000a bdbd d280 e43a ec0d f53c a901 633c
00000300: 0c14 acbd 0ed3 b43c d54e 0ebe aa9d 633c
00000310: 2bf9 e13c f260 793d dfc9 d43d 01f8 9abd
00000320: c313 a93d db1f b0bd 3502 16be 8fa9 1bbe
00000330: 3490 a43d 0f1c 6f3c db40 fabd 6b8b e7bc
00000340: 2fb3 083e 7b12 a03d 7f54 613d d43e 0c3e
00000350: ef17 09be 9cec 22be c8e6 3c3d 1be6 3c39
00000360: 3110 52be a111 743d 0eec ae3d 9e93 3abb
00000370: d2ea e2bd d6bc 4f3d 37ad 24be ce70 0d3e
00000380: c072 edbd 39f2 8c3d a99c 003d 3309 9a3d
00000390: 44eb 12be 0ff2 f73a 9ddf fcbd f4ed 36bd
000003a0: d2f3 f4bd 1695 32be 5e5e 11be cbe8 0e3e
000003b0: dc06 9f3c ad41 a83d b804 113e b4cc 77be
000003c0: 0311 f7bd e320 e7bd cc1f 4cbe fc65 fb3d
000003d0: ae41 5ebe d1cc 2dbe b2be 82be e81b 3dbe
000003e0: 249b 793d 54c7 773d 9994 013e 8e2a 563d
000003f0: bff5 203e cf68 39bd 0f8c dcbb 9046 213e

phi.phi.2.bias f4 [32]
-0.1485926 0.07109513 0.07924385 -0.15139078 -0.24347915 0.109303124 -0.12820034 -0.011141118
-0.17005886 -0.055592895 -0.14952207 0.049954936 0.073369384 -0.18903598 -0.05166462 0.14056611
-0.011265393 0.02360574 -0.11870962 0.044274222 -0.12672278 -0.16775084 -0.05453899 -0.019876169
0.07277113 0.0053047286 -0.04255468 -0.13661319 -0.111176424 -0.0044304566 0.082775414 -0.17207612
00000000: a928 18be 539a 913d 9a4a a23d 2f06 1bbe
00000010: 9952 79be 51da df3d f346 03be 3c89 36bc
00000020: e923 2ebe 60b5 63bd 501c 19be 8c9d 4c3d
00000030: b042 963d a692 41be 489e 53bd 90f0 0f3e
00000040: 7c92 38bc d360 c13c 071e f3bd e358 353d
00000050: 9ec3 01be e0c6 2bbe 4764 5fbd 59d3 a2bc
00000060: 0809 953d 4ad3 ad3b d14d 2ebd 54e4 0bbe
00000070: 77b0 e3bd 5d2d 91bb 2886 a93d b934 30be

phi.phi.4.weight f4 [32, 32]
-0.1127586 -0.26766643 -0.03230714 0.13775738 0.1549517 -0.15389389 -0.007659178 0.103761934
0.07792272 0.14479847 -0.0049034697 -0.11877498 0.11694317 -0.060619306 0.09153252 -0.16667199
-0.04904461 0.03464034 0.16437678 -0.16087829 -0.1169343 -0.0730913 -0.11273068 0.16028711
-0.1470869 -0.11726315 -0.07866376 -0.097645186 0.07212301 -0.27850726 -0.16482714 -0.1742596
0.07610663 0.08740805 -0.10979231 0.043836832 0.13049385 0.025685892 -0.037402693 0.013060676
-0.018955356 0.089006916 -0.120033376 0.0896439 0.099635504 -0.10710452 0.14434941 0.17362738
-0.06969044 -0.04951416 0.08809764 -0.13849047 0.069907755 0.04124284 0.111427605 -0.15354943
-0.14686339 0.079395555 0.06367687 -0.16453777 -0.0985812 -0.16174687 -0.12664688 -0.07976158
0.14628951 -0.1221447 0.04148885 0.16788146 0.08056284 -0.22554164 0.0106476275 -0.0047737304
0.13701352 -0.17437857 0.046174485 0.06647525 -0.1644668 -0.041480448 0.07474759 -0.22028299
-0.028229203 0.078113616 -0.0133623 0.098039575 0.14474115 0.061850198 -0.022034645 0.06047221
-0.24914056 -0.09539389 -0.0378092 -0.052512717 0.09690203 -0.00591733 0.053778473 0.120245166
-0.13205282 -0.071936734 0.025813743 0.045978293 0.09090435 -0.07034064 -0.10463722 0.14791636
-0.047444094 -0.1227964 0.11986163 0.06856023 -0.055431325 -0.035341207 -0.13043998 -0.19874103
0.015010103 -0.07551769 0.14073113 -0.1928865 -0.024434973 -0.047490664 0.09085387 0.09160567
0.06820677 0.0778164 -0.08113941 -0.12624466 -0.1581467 -0.042669572 0.17145222 -0.033577405
-0.0074420376 -0.21167557 -0.0057601924 0.11207348 -0.17428695 -0.18974942 0.056745805 -0.027224483
-0.0110213375 0.031600293 -0.08875501 -0.19762333 -0.16518542 0.056343738 -0.09324449 -0.16425973
-0.1281183 -0.09641808 -0.11185699 -0.22546302 0.13228971 -0.01742331 -0.08915228 -0.14932221
-0.0008758738 -0.06546137 0.046614897 0.04867396 -0.17597973 -0.0419766 -0.049199082 0.15439391
-0.06396134 -0.12089331 0.15231091 -0.14435627 0.012771844 0.17032474 -0.079261005 0.16947266
0.15686114 0.16446237 -0.01686858 0.15991808 -0.077025026 -0.060511578 0.06686271 -0.039438043
0.023069533 0.091904454 -0.11066028 0.0938201 0.05914322 0.09326174 0.08382262 -0.066126846
-0.17867662 0.14148937 -0.100804366 0.11301814 -0.16840518 -0.10396721 0.0018736381 0.030586537
0.014289214 0.039209746 -0.07970483 0.04329339 0.17493545 -0.1838333 -0.07572302 -0.14284052
0.15510911 0.1513279 -0.068119854 -0.12984966 -0.109224334 0.06665047 -0.08949588 0.2097516
0.0793977 -0.54311347 0.080721326 -0.1818852 0.051742926 -0.072823346 0.088698275 0.0044715474
-0.012485066 -0.12226032 -0.15798986 0.14107011 -0.02709767 0.012710414 0.060072348 -0.073817424
0.062752336 -0.18869005 -0.023407076 -0.04035786 0.12380143 0.0867203 0.072933055 -0.06511801
0.104243994 -0.17662437 -0.16642182 -0.048680916 0.0009858779 -0.19872147 -0.15587102 -0.18062025
-0.26593468 0.016859328 0.060947694 -0.008364833 -0.08399243 -0.25725472 -0.14261937 -0.09438318
0.033448346 -0.07158971 -0.09619215 -0.09430267 -0.08204268 -0.2619258 -0.21601544 0.17401731
00000000: fbed e6bd 930b 89be 7e54 04bd 4510 0d3e
00000010: a9ab 1e3e 5c96 1dbe d8f9 fabb 2381 d43d
00000020: f295 9f3d 0d46 143e 49ad a0bb 4c40 f3bd
00000030: e77f ef3d f34b 78bd 6775 bb3d 10ac 2abe
00000040: 00e3 48bd 07e3 0d3d 6352 283e 47bd 24be
00000050: 407b efbd e4b0 95bd 58df e6bd 4e22 243e
00000060: f39d 16be aa27 f0bd 771a a1bd 33fa c7bd
00000070: 3bb5 933d 8198 8ebe 72c8 28be 1c71 32be
00000080: cbdd 9b3d fe02 b33d cada e0bd 408e 333d
00000090: 2ea0 053e 386b d23c 9133 19bd 72fc 553c
000000a0: 4348 9bbc 4249 b63d 0fd4 f5bd 3997 b73d
000000b0: b30d cc3d 9d59 dbbd 55d0 133e 60cb 313e
000000c0: ddb9 8ebd 5ccf 4abd 896c b43d 72d0 0dbe
000000d0: cc2b 8f3d 41ee 283d 2834 e43d 103c 1dbe
000000e0: 5b63 16be 239a a23d 0569 823d 977c 28be
000000f0: f1e4 c9bd f9a0 25be b8af 01be 0a5a a3bd
00000100: ebcc 153e 0027 fabd 36f0 293d 1ee9 2b3e
00000110: 21fe a43d 63f4 66be 6373 2e3c f46c 9cbb
00000120: 464d 0c3e 4c90 32be 7521 3d3d 2d24 883d
00000130: fc69 28be 67e7 29bd 4415 993d dd91 61be
00000140: ee40 e7bc 08fa 9f3d 8ced 5abc f9c8 c83d
00000150: 0637 143e a256 7d3d 0082 b4bc b5b1 773d
00000160: b41e 7fbe df5d c3bd d2dd 1abd 9317 57bd
00000170: 9274 c63d 29e6 c1bb d146 5c3d 1943 f63d
00000180: db38 07be 9153 93bd 5877 d33c bc53 3c3d
00000190: 0f2c ba3d c10e 90bd 0a4c d6bd 6377 173e
000001a0: bd54 42bd ae7c fbbd 047a f53d 4e69 8c3d
000001b0: f50b 63bd f1c1 10bd 0f92 05be c582 4bbe
000001c0: efec 753c 05a9 9abd d21b 103e 0a84 45be
000001d0: da2b c8bc 9285 42bd 9811 ba3d c19b bb3d
000001e0: feaf 8b3d 345e 9f3d 6b2c a6bd 4846 01be
000001f0: 35f1 21be 4ac6 2ebd 2c91 2f3e 7688 09bd
00000200: 56dc f3bb 7bc1 58be ffbf bcbb c886 e53d
00000210: 4778 32be ac4d 42be 4a6e 683d e105 dfbc
00000220: d792 34bc 4f6f 013d 30c5 b5bd c55d 4abe
00000230: 5e26 29be b1c8 663d f8f6 bebd b433 28be
00000240: 7231 03be d876 c5bd 4715 e5bd c7df 66be
00000250: f476 073e 54bb 8ebc 7895 b6bd ece7 18be
00000260: e59a 65ba 9c10 86bd 43ef 3e3d 595e 473d
00000270: 0834 34be a8ef 2bbd fa84 49bd 7019 1e3e
00000280: 2afe 82bd e996 f7bd 64f7 1b3e 21d2 13be
00000290: ff40 513c 9c69 2e3e 9853 a2bd 3e8a 2d3e
000002a0: 35a0 203e d368 283e fa2f 8abc 91c1 233e
000002b0: 4cbf 9dbd fdda 77bd 51ef 883d c989 21bd
000002c0: 51fc bc3c 6738 bc3d dba1 e2bd c124 c03d
000002d0: 2940 723d 0300 bf3d 32ab ab3d 836d 87bd
000002e0: 01f7 36be 97e2 103e 8572 cebd 0e76 e73d
000002f0: 6872 2cbe c3ec d4bd dd94 f53a 9e90 fa3c
00000300: 4f1d 6a3c 669a 203d 493c a3bd 6954 313d
00000310: 4722 333e cc3e 3cbe ac14 9bbd c944 12be
00000320: ecd4 1e3e b3f5 1a3e 6c82 8bbd 4ff7 04be
00000330: 02b1 dfbd 0b80 883d 9e49 b7bd 20c9 563e
00000340: 439b a23d 7c09 0bbf 3951 a53d 1d40 3abe
00000350: 64f0 533d 6824 95bd 71a7 b53d 0f86 923b
00000360: 2a8e 4cbc 9e63 fabd 18c8 21be af74 103e
00000370: effb ddbc 573f 503c 6c0e 763d 972d 97bd
00000380: 4c84 803d f737 41be 32c0 bfbc 494e 25bd
00000390: 9b8b fd3d 6a9a b13d ed5d 953d 975c 85bd
000003a0: e07d d53d 05dd 34be 7b6a 2abe a465 47bd
000003b0: 9338 813a a47d 4bbe a79c 1fbe 84f4 38be
000003c0: 9728 88be 931c 8a3c 4aa4 793d a70c 09bc
000003d0: 3904 acbd e4b6 83be d00a 12be f84b c1bd
000003e0: 2201 093d a09d 92bd 6400 c5bd c221 c1bd
000003f0: fe05 a8bd 231b 86be 2733 5dbe 9831 323e

phi.phi.4.bias f4 [32]
-0.23393036 -0.15207662 -0.06343055 -0.1372741 0.051093962 -0.2162651 0.107278086 0.022626158
0.07380878 -0.11912016 -0.2228849 -0.17321782 0.2369278 0.06037309 -0.021766065 -0.16287749
0.11842866 -0.14505929 0.103873834 -0.17797214 0.12135421 -0.1535341 -0.07891704 -0.09808954
0.07967041 -0.050495546 -0.21790525 0.22612831 0.22595903 0.12233132 0.2586937 0.073714554
00000000: 718b 6fbe f9b9 1bbe e0e7 81bd 9591 0cbe
00000010: e747 513d 9974 5dbe 9db4 db3d 7e5a b93c
00000020: 0f29 973d 45f5 f3bd f03b 64be 0360 31be
00000030: 349d 723e c649 773d bf4e b2bc 5bc9 26be
00000040: ba8a f23d 6c8a 14be cebb d43d 543e 36be
00000050: 8e88 f83d 0b38 1dbe 429f a1bd 2be3 c8bd
00000060: 3d2a a33d 6bd4 4ebd 8e22 5fbe 2e8e 673e
00000070: ce61 673e d888 fa3d 8073 843e a8f7 963d

phi.phi.6.weight f4 [7, 32]
0.128298 -0.1408018 -0.0802652 -0.16956645 0.03246742 0.06718071 0.08549468 0.06513648
0.07064704 -0.050315406 -0.0047853743 0.15696086 0.31086728 0.3113277 -0.017434845 0.079450816
0.3144757 -0.058800627 0.3003042 0.09719726 0.23366539 -0.0554121 0.14895296 -0.05315469
0.12482427 -0.28192237 -0.051449392 0.2645094 0.099176764 0.027901895 0.28980783 0.17962167
-0.08852461 0.041807145 -0.056153018 0.10137556 -0.09869898 -0.10405867 0.0074474276 -0.012891499
0.0072526895 -0.07968887 0.09120161 -0.014050031 -0.013441492 -0.19567987 -0.16476639 -0.0665974
-0.1568404 -0.014870946 -0.011047196 0.02479459 0.053906795 -0.036881994 0.04376554 -0.015823444
-0.03393523 -0.053811528 0.12059962 -0.22755173 -0.13369337 -0.22013345 -0.1305346 0.047705088
-0.16749625 -0.15839513 0.0423152 -0.10439319 0.06918226 0.055081695 -0.015652364 0.08039326
-0.22378874 0.06943363 0.05732827 -0.11845976 -0.017021447 -0.04926758 -0.07095645 -0.019145522
-0.14336899 0.15458003 0.092110515 -0.018858122 -0.21679027 -0.07083801 0.011679714 0.11816126
0.0056876326 0.051450152 0.046905078 -0.16032043 -0.16969515 -0.2180425 -0.061432153 -0.0052586193
-0.012569665 0.17159115 -0.093776345 -0.11535156 -0.030589167 -0.049782276 -0.084286876 0.11123387
-0.0651262 0.09437034 0.023607735 -0.065764785 0.06955265 -0.16065757 0.005848992 0.039734803
0.019290367 -0.1631047 -0.051381968 -0.04577097 0.054563273 -0.0005776318 0.07085157 0.10628872
-0.0995386 -0.011325996 0.14181975 -0.2025304 -0.18224545 -0.047122158 -0.13008022 -0.0499284
0.15615746 -0.020492598 -0.15072592 -0.08035872 0.16234584 -0.03883596 -0.12953864 0.07957188
0.021884287 -0.1558604 0.14721727 0.099547334 0.101944976 0.025118826 -0.059600953 -0.057708263
0.031465035 -0.034268845 -0.020642893 -0.17129453 -0.14135501 0.06566327 -0.008714894 -0.08498552
-0.15419656 0.063333124 -0.03554252 -0.22411215 0.11684038 0.0339475 -0.15713866 -0.18020938
0.17082158 0.00073809666 -0.020049267 0.05116277 0.050254058 0.012109738 -0.13074712 -0.063119315
-0.03020651 0.06290061 -0.12797707 0.17423266 -0.053159565 -0.14096618 0.06986571 -0.15672469
-0.13857934 0.06639751 -0.1489792 0.02403506 -0.026691563 -0.06811424 -0.17543888 0.055870388
0.042515166 -0.14784047 -0.15631574 -0.16055256 -0.017510518 -0.03349875 0.010587193 -3.059008e-05
-0.009265984 0.09328975 0.10671433 0.14722206 0.09457775 -0.05966272 -0.12864557 -0.0834366
-0.012076683 0.009959596 -0.015757188 -0.1141847 -0.20799264 0.079545766 -0.04752744 -0.023894692
-0.18139476 -0.08763879 -0.028955495 -0.00026862268 -0.13656434 -0.12626545 0.14003529 -0.09104294
-0.2321248 -0.027579928 0.16821083 -0.035458088 -0.045821507 -0.093257904 0.041294545 -0.15507981
00000000: 8d60 033e 592e 10be 1562 a4bd d4a2 2dbe
00000010: 8ffc 043d 0a96 893d d617 af3d 4666 853d
00000020: 65af 903d 8717 4ebd a1ce 9cbb 59ba 203e
00000030: ff29 9f3e 5866 9f3e 85d3 8ebc 1cb7 a23d
00000040: f502 a13e edd8 70bd 79c1 993e 5b0f c73d
00000050: fb45 6f3e ccf7 62bd 2087 183e bbb8 59bd
00000060: dea3 ff3d 2158 90be 99bc 52bd c76d 873e
00000070: 301d cb3d 8492 e43c b161 943e beee 373e
00000080: 644c b5bd f83d 2b3d b500 66bd fd9d cf3d
00000090: b122 cabd b61c d5bd 8d09 f43b de36 53bc
000000a0: f8a7 ed3b eb33 a3bd e9c7 ba3d 1a32 66bc
000000b0: b439 5cbc 4e60 48be 85b8 28be 3864 88bd
000000c0: c59a 20be 45a5 73bc 4cff 34bc 061e cb3c
000000d0: 5fcd 5c3d 9311 17bd 7f43 333d 2ba0 81bc
000000e0: abff 0abd 7a69 5cbd effc f63d 5203 69be
000000f0: eae6 08be aa6a 61be ddaa 05be 6966 433d
00000100: 2384 2bbe 5532 22be b452 2d3d 19cc d5bd
00000110: 6eaf 8d3d 589d 613d 6339 80bc 39a5 a43d
00000120: e028 65be 3833 8e3d 0cd1 6a3d 089b f2bd
00000130: 9070 8bbc cdcc 49bd 9e51 91bd 12d7 9cbc
00000140: 52cf 12be 3a4a 1e3e 70a4 bc3d 597c 9abc
00000150: 45fe 5dbe 8513 91bd 455c 3f3c 88fe f13d
00000160: 525f ba3b 65bd 523d 8a1f 403d 0a2b 24be
00000170: 91c4 2dbe 8846 5fbe 48a0 7bbd 7f50 acbb
00000180: fff0 4dbc 97b5 2f3e d00d c0bd 703d ecbd
00000190: 2296 fabc 80e8 4bbd 999e acbd 95ce e33d
000001a0: e360 85bd 3d45 c13d 0265 c13c b0af 86bd
000001b0: 9f71 8e3d 6b83 24be e7a8 bf3b f6c0 223d
000001c0: d506 9e3c eb04 27be e675 52bd 577a 3bbd
000001d0: bd7d 5f3d 376c 17ba a11a 913d e7ad d93d
000001e0: e5da cbbd ac90 39bc 3239 113e 2164 4fbe
000001f0: 8d9e 3abe 2a03 41bd c033 05be b981 4cbd
00000200: bee7 1f3e 18e0 a7bc e557 1abe 1d93 a4bd
00000210: fd3d 263e 7512 1fbd c7a5 04be 95f6 a23d
00000220: ad46 b33c de99 1fbe 20c0 163e 79df cb3d
00000230: 87c8 d03d ffc5 cd3c 2120 74bd 805f 6cbd
00000240: 7be1 003d 7d5d 0cbd 491b a9bc d567 2fbe
00000250: 5ebf 10be 777a 863d eac8 0ebc e30c aebd
00000260: b4e5 1dbe ccb4 813d 0995 11bd a87d 65be
00000270: 024a ef3d 890c 0b3d f5e8 20be cf88 38be
00000280: daeb 2e3e d47c 413a 5c3e a4bc 0d90 513d
00000290: 33d7 4d3d ec67 463c 93e2 05be b344 81bd
000002a0: a573 f7bc 09d2 803d 6c0c 03be 0c6a 323e
000002b0: d8bd 59bd 7059 10be c115 8f3d 707c 20be
000002c0: bee7 0dbe 6bfb 873d 018e 18be 2de5 c43c
000002d0: 44a8 dabc 7b7f 8bbd 40a6 33be 59d8 643d
000002e0: 6224 2e3d 7e63 17be 3c11 20be e467 24be
000002f0: 3872 8fbc fc35 09bd e875 2d3c d94d 00b8
00000300: 5bd0 17bc b20e bf3d 0b8d da3d 61c1 163e
00000310: fbb1 c13d e560 74bd aabb 03be cfe0 aabd
00000320: 48dd 45bc 932d 233c 3815 81bc abd9 e9bd
00000330: 06fc 54be e4e8 a23d 22ac 42bd cdbe c3bc
00000340: 8cbf 39be f77b b3bd 1334 edbc edd5 8cb9
00000350: 86d7 0bbe bb4b 01be 6965 0f3e b974 babd
00000360: 20b2 6dbe 4def e1bc 763f 2c3e 803c 11bd
00000370: 55af 3bbd 00fe bebd 7824 293d 3ecd 1ebe

phi.phi.6.bias f4 [7]
0.25410312 -0.019045874 -0.04039793 -0.03571864 -0.1616477 0.10963145 0.024422446
00000000: ce19 823e 1806 9cbc 4d78 25bd b54d 12bd
00000010: fa86 25be 7486 e03d 9511 c83c

rho.rho.0.weight f4 [28, 7]
-0.29561263 -0.35191578 -0.09729906 0.25110152 -0.18608385 0.35031143 -0.19003138 -0.3414162
0.16626185 -0.22842056 -0.059581682 -0.117888615 -0.03003275 -0.32934806 -0.43125555 0.10365275
-0.10122686 -0.28805342 -0.009628519 -0.4199175 0.02391928 -0.013052393 0.3024642 -0.3633384
-0.10588237 0.17744754 0.2560137 -0.31769368 0.23329699 0.33365226 0.22786374 -0.26057482
0.3476941 -0.20739384 -0.23265554 0.08796857 0.38223645 -0.30162102 0.14175065 0.043153726
0.038205694 0.29122233 0.085775 -0.23515706 -0.056500364 0.13507026 -0.23396014 0.015072329
-0.12653236 -0.075130716 0.13521339 -0.30419326 -0.24265863 0.1723912 -0.3738222 0.26011074
-0.38981062 -0.06654409 0.02117329 0.08908957 -0.23459034 -0.04048833 0.07904728 0.14449401
-0.33124146 -0.24373873 0.05005537 -0.09187971 -0.36046654 -0.37582964 -0.3517559 -0.16447365
-0.10241099 -0.20240445 -0.33156824 0.051589552 0.29982823 -0.23825845 -0.022245213 -0.060730107
0.11662118 -0.26212093 -0.04209555 0.29273644 0.34448078 -0.25487244 0.0017800777 0.063577324
-0.039597422 -0.30321488 -0.18187296 0.31687415 -0.008247889 -0.024323594 0.110906415 -0.23199087
0.033688664 0.22481799 -0.22099136 0.10996396 -0.012909786 0.20781843 0.25114992 0.100276105
0.011420476 -0.3253634 0.15048817 0.23043208 -0.13728628 -0.375297 0.3062891 -0.08871888
0.021298181 -0.15084752 0.18332976 0.30856782 0.3234406 -0.27675548 0.19220883 0.1844209
0.036875043 -0.3044431 -0.16229536 -0.373953 0.25279534 0.3736144 0.16415147 0.21421364
0.14128731 0.42389295 -0.1202035 -0.22496669 -0.2857837 -0.037427396 0.025926672 0.103464015
-0.2629439 -0.04373779 -0.3114431 -0.3074513 -0.027046958 -0.36895087 0.10064368 -0.34818035
-0.31560722 -0.13106307 -0.36068442 0.2925691 0.49658728 -0.14968202 0.13921966 0.2796065
0.06452455 0.041498832 -0.35650033 0.27483267 -0.3315114 -0.06999892 0.023445705 -0.12447958
-0.13824229 -0.27312124 0.10108013 0.012749553 0.3895619 -0.039040044 0.23135331 0.10211102
-0.22994712 -0.1499211 -0.097350575 -0.05613562 -0.06227063 0.051803272 0.2511753 0.05940979
0.13690355 0.23340075 0.081470944 0.17423056 0.19826151 0.35377973 -0.40670258 0.37332857
0.027617162 -0.007839037 -0.18480888 0.15849255 0.43101352 -0.4190392 0.20041159 0.20577031
0.0060073175 0.058860905 0.19164339 -0.029943613
00000000: 8a5a 97be 4e2e b4be bb44 c7bd 6190 803e
00000010: c48c 3ebe 055c b33e 9697 42be 1bce aebe
00000020: 8c40 2a3e 14e7 69be ec0b 74bd 966f f1bd
00000030: 3e07 f6bc 4fa0 a8be 87cd dcbe e547 d43d
00000040: 0750 cfbd bd7b 93be f0c0 1dbc 6dff d6be
00000050: 5ef2 c33c b4d9 55bc 96dc 9a3e 7e07 babe
00000060: dbd8 d8bd cfb4 353e 3a14 833e bfa8 a2be
00000070: 68e5 6e3e 78d4 aa3e 1d55 693e 106a 85be
00000080: f604 b23e 0d5f 54be 413d 6ebe de28 b43d
00000090: 7fb4 c33e 126e 9abe 1527 113e f6c1 303d
000000a0: 937d 1c3d 181b 953e ceaa af3d 03cd 70be
000000b0: ed6c 67bd dc4f 0a3e 3f93 6fbe eef1 763c
000000c0: b391 01be 22de 99bd 6175 0a3e 38bf 9bbe
000000d0: 817b 78be 5287 303e a065 bfbe 3c2d 853e
000000e0: 4295 c7be 4548 88bd 9c73 ad3c 9874 b63d
000000f0: 7338 70be 17d7 25bd 8ae3 a13d 3df6 133e
00000100: 7b98 a9be a596 79be dc06 4d3d 6e2b bcbd
00000110: 128f b8be be6c c0be 5919 b4be c86b 28be
00000120: dabc d1bd 1d43 4fbe 50c3 a9be 914f 533d
00000130: 1683 993e 06fa 73be 983b b6bc 22c0 78bd
00000140: 16d7 ee3d b734 86be 626c 2cbd 8de1 953e
00000150: c95f b03e a47e 82be 7f51 e93a d434 823d
00000160: e830 22bd fb3e 9bbe e83c 3abe 543d a23e
00000170: 2722 07bc 4642 c7bc e722 e33d 048f 6dbe
00000180: 20fd 093d b036 663e 8f4b 62be c934 e13d
00000190: 9183 53bc 5bce 543e b996 803e 8f5d cd3d
000001a0: f31c 3b3c 0896 a6be 9219 1a3e 63f6 6b3e
000001b0: c694 0cbe ee26 c0be edd1 9c3e 3fb2 b5bd
000001c0: 8679 ae3c c677 1abe ccba 3b3e 9afc 9d3e
000001d0: 029a a53e e5b2 8dbe 64d2 443e d5d8 3c3e
000001e0: 490a 173d f7df 9bbe c130 26be c576 bfbe
000001f0: 646e 813e 634a bf3e 5317 283e d25a 5b3e
00000200: 9fad 103e 7f08 d93e 412d f6bd ab5d 66be
00000210: 3e52 92be 784d 19bd 2c64 d43c f1e4 d33d
00000220: 95a0 86be 6626 33bd 7875 9fbe 426a 9dbe
00000230: 9591 ddbc 21e7 bcbe 461e ce3d b244 b2be
00000240: 4597 a1be 6635 06be a1ab b8be 9ecb 953e
00000250: b040 fe3e 3e46 19be 998f 0e3e 9528 8f3e
00000260: 7325 843d aefa 293d 3687 b6be deb6 8c3e
00000270: ddbb a9be 985b 8fbd 3511 c03c 26ef febd
00000280: 638f 0dbe 8cd6 8bbe 1903 cf3d 80e3 503c
00000290: a874 c73e 74e8 1fbd e2e7 6c3e 951f d13d
000002a0: 4277 6bbe eb84 19be bd5f c7bd 77ee 65bd
000002b0: 7d0f 7fbd ab2f 543d 0d9a 803e ae57 733d
000002c0: 7230 0c3e 9b00 6f3e 3dda a63d 7f69 323e
000002d0: 1105 4b3e 9e22 b53e 523b d0be ec24 bf3e
000002e0: 633d e23c 4e6f 00bc 8a3e 3dbe df4b 223e
000002f0: cead dc3e 4e8c d6be b238 4d3e 74b5 523e
00000300: 08d9 c43b 2218 713d 2a3e 443e 4f4c f5bc

rho.rho.0.bias f4 [28]
-0.09427354 -0.027910616 0.03963767 -0.022041328 0.0012371404 0.05390301 0.11556233 -0.3061735
-0.004378714 0.11627933 0.07227099 -0.09455427 0.30476955 -0.28606594 -0.17251678 -0.17083643
0.20933492 -0.36557546 -0.0414753 -0.36613005 -0.08861046 0.10974016 -0.088388704 0.37231076
-0.05889396 -0.19269767 0.05571739 0.086510696
00000000: 7c12 c1bd cea4 e4bc 1c5b 223d 0490 b4bc
00000010: 8b27 a23a 67c9 5c3d f1ab ec3d c6c2 9cbe
00000020: 517b 8fbb db23 ee3d d002 943d aba5 c1bd
00000030: c10a 9c3e 3c77 92be 3da8 30be bfef 2ebe
00000040: e55b 563e b52c bbbe 01e2 29bd 6675 bbbe
00000050: 6779 b5bd 73bf e03d 2305 b5bd 849f be3e
00000060: cb3a 71bd 8a52 45be eb37 643d 852c b13d

rho.rho.2.weight f4 [28, 28]
-0.00037545894 0.16166936 -0.058366217 0.08176947 0.20790298 0.12133774 0.014642947 0.053947657
-0.07226932 -0.099975735 0.044173997 0.036364462 0.18717124 0.16324224 0.12813896 -0.08656009
-0.10654989 -0.17726512 0.1034692 -0.17028855 -0.11400806 -0.055669975 -0.15955843 -0.08286451
-0.058916103 -0.09695444 0.2115969 -0.0044882228 0.15676805 0.0041930377 0.031044833 -0.08218271
-0.04475993 -0.1659116 0.11303631 -0.05823669 -0.10173039 0.18430503 0.026582958 -0.06644894
-0.1398384 -0.13709493 -0.16571005 0.17101404 0.12943073 0.015456874 -0.15363848 -0.04942863
-0.10307306 0.0703855 -0.05017849 -0.09601377 0.0010831782 0.08860459 0.09041348 0.028140455
-0.02366529 -0.018675985 -0.0033022184 -0.14072828 0.18440317 -0.08150473 0.109951146 -0.10594304
0.0012686665 0.064693786 -0.17351979 0.08668612 -0.14465547 0.026371766 -0.037475042 0.108329006
0.18367203 0.042590123 -0.0053962143 -0.09363026 0.0704594 -0.090961404 0.07806232 -0.08191011
0.12818931 0.14495617 0.115881056 0.0018930421 0.08763932 -0.17220677 0.08351541 -0.14648193
0.068894714 -0.11909334 -0.1600095 -0.088747084 0.04742356 -0.1935432 -0.112153955 0.035280425
-0.073186345 -0.15900955 -0.18791915 -0.091878064 0.08730785 -0.13437125 0.003978404 0.13527644
-0.07833264 -0.17790589 -0.13596068 -0.059800353 -0.08647603 0.009181667 -0.004389353 -0.007552212
-0.059623335 0.012979511 0.044892058 0.004022723 0.037817273 -0.07655476 0.15490375 -0.019383963
-0.02417939 -0.16961394 -0.13698721 0.0058786157 -0.02922675 -0.09501646 0.09892286 -0.016918767
0.066462815 0.15917337 -0.08688401 -0.09301181 -0.037975445 -0.01600321 -0.09452184 -0.045371644
-0.0054472187 0.084770076 0.17483935 0.139943 0.020000927 -0.01190905 -0.02298662 -0.07123085
0.13688315 -0.007985119 -0.21786343 -0.16071743 -0.07139705 -0.124038935 -0.17981517 -0.23597309
0.06489949 0.011704506 -0.10153547 -0.0769808 -0.028901206 -0.1370565 -0.0014485184 -0.0023304992
0.1392794 0.024713604 -0.12347709 -0.0139416605 0.08265011 0.012166573 0.017639315 -0.14686549
0.0375374 0.05522031 -0.08728754 0.11668093 -0.1786822 -0.07098855 -0.11119483 -0.112186864
-0.11451405 -0.17807622 0.032432526 -0.037383847 -0.15912507 -7.772311e-05 -0.031480923 0.0779602
-0.14802715 -0.05316549 0.03889904 0.08010707 0.014296479 0.051213853 0.18891308 -0.065465726
0.12879987 0.1627871 -0.16717675 0.045713715 0.10704888 -0.0294788 0.10429899 0.006428017
0.04901466 -0.0896932 -0.21583702 0.14352039 0.056204125 0.06553362 0.04691358 0.100350924
0.021852063 -0.05775488 -0.043931916 0.039031353 -0.22637217 0.0064562447 -0.15481031 0.011948273
-0.14962833 0.019717183 -0.17435738 0.08093001 0.12445621 -0.17320144 0.17074735 -0.14048637
-0.037109766 0.09793019 -0.059926793 0.16841814 -0.08337002 -0.025301756 -0.12353489 -0.087674394
0.18441755 0.14212665 0.01391487 0.015538584 -0.16036943 0.14267169 -0.028333813 -0.07882333
-0.15039632 0.15537764 0.08961301 0.11382946 0.019568246 -0.12823775 0.07741364 0.02179516
0.063417666 -0.047058165 -0.0891836 0.15514152 0.06334999 -0.07670018 0.016875917 -0.041080087
00000000: 3fd9 c4b9 a78c 253e 6a11 6fbd c076 a73d
00000010: 85e4 543e ec7f f83d f9e8 6f3c 38f8 5c3d
00000020: f001 94bd 14c0 ccbd cbef 343d e7f2 143d
00000030: d1a9 3f3e f928 273e dc36 033e 6b46 b1bd
00000040: d436 dabd fd84 35be a9e7 d33d 1f60 2ebe
00000050: 0f7d e9bd 3306 64bd 4963 23be deb4 a9bd
00000060: 0352 71bd 0d90 c6bd dcac 583e f111 93bb
00000070: ce87 203e c065 893b bc51 fe3c 694f a8bd
00000080: 3056 37bd bbe4 29be 957f e73d 9889 6ebd
00000090: 0658 d0bd 75ba 3c3e 81c4 d93c 6216 88bd
000000a0: cc31 0fbe 9d62 0cbe e5af 29be 4e1e 2f3e
000000b0: 7d89 043e d43e 7d3c 6853 1dbe ad75 4abd
000000c0: f817 d3bd 4626 903d f687 4dbd dea2 c4bd
000000d0: 6ef9 8d3a 5376 b53d b42a b93d d086 e63c
000000e0: b6dd c1bc 61fe 98bc 086a 58bb 131b 10be
000000f0: 2fd4 3c3e f4eb a6bd 112e e13d aaf8 d8bd
00000100: 6249 a63a 2d7e 843d 2caf 31be 7e88 b13d
00000110: 9020 14be 9a09 d83c 6e7f 19bd 99db dd3d
00000120: 8514 3c3e fb72 2e3d bad2 b0bb 39c1 bfbd
00000130: 054d 903d f949 babd 23df 9f3d 7dc0 a7bd
00000140: 0f44 033e 646f 143e 0c53 ed3d f41f f83a
00000150: 3e7c b33d f956 30be 210a ab3d 5cff 15be
00000160: ac18 8d3d 36e7 f3bd 88d9 23be 08c1 b5bd
00000170: 353f 423d 3030 46be f9b0 e5bd 3582 103d
00000180: b9e2 95bd 66d3 22be e16d 40be 912a bcbd
00000190: 75ce b23d 9e98 09be 465d 823b e885 0a3e
000001a0: dd6c a0bd f62c 36be 4739 0bbe 37f1 74bd
000001b0: 581a b1bd b46e 163c 90d4 8fbb 8c78 f7bb
000001c0: 9937 74bd 04a8 543c bce0 373d 0cd1 833b
000001d0: 49e6 1a3d bec8 9cbd 179f 1e3e 1ecb 9ebc
000001e0: db13 c6bc 47af 2dbe 6046 0cbe 67a1 c03b
000001f0: f06c efbc fd97 c2bd 1298 ca3d 3a99 8abc
00000200: a81d 883d 58fe 223e 3ef0 b1bd fa7c bebd
00000210: 248c 1bbd 2a19 83bc ab94 c1bd 9ed7 39bd
00000220: 957e b2bb ef9b ad3d 1609 333e 384d 0f3e
00000230: fcd8 a33c 2d1e 43bc 704e bcbc 7be1 91bd
00000240: 192b 0c3e 04d4 02bc 9717 5fbe 1c93 24be
00000250: 9e38 92bd 2008 febd 7821 38be eea2 71be
00000260: 06ea 843d 42c4 3f3c d4f1 cfbd 1ca8 9dbd
00000270: 39c2 ecbc 8a58 0cbe 36dc bdba 4abb 18bb
00000280: 429f 0e3e 2f74 ca3c 8ee1 fcbd 906b 64bc
00000290: 7644 a93d 4e56 473c 5380 903c e863 16be
000002a0: d1c0 193d b12e 623d cfc3 b2bd 69f6 ee3d
000002b0: 77f8 36be 7262 91bd 1dba e3bd 3ac2 e5bd
000002c0: 5886 eabd 9d59 36be f8d7 043d ce1f 19bd
000002d0: aff1 22be 47ff a2b8 24f2 00bd 99a9 9f3d
000002e0: 6e94 17be 0fc4 59bd 9a54 1f3d 2d0f a43d
000002f0: c73b 6a3c 9ec5 513d 6e72 413e e512 86bd
00000300: 1de4 033e a9b1 263e 6230 2bbe 4e3e 3b3d
00000310: 713c db3d 867d f1bc b59a d53d 1da2 d23b
00000320: 99c3 483d 12b1 b7bd 6104 5dbe 02f7 123e
00000330: 4c36 663d 7e36 863d 7428 403d c984 cd3d
00000340: 1903 b33c 6290 6cbd f4f1 33bd 57df 1f3d
00000350: 1bce 67be e88e d33b 9886 1ebe b0c2 433c
00000360: 2b38 19be ee85 a13c be8a 32be a2be a53d
00000370: e6e2 fe3d b85b 31be 65d8 2e3e a9db 0fbe
00000380: 6900 18bd a08f c83d cc75 75bd ce75 2c3e
00000390: e7bd aabd a145 cfbc dcff fcbd a28e b3bd
000003a0: f4d7 3c3e a689 113e 32fb 633c 8c95 7e3c
000003b0: e237 24be 8718 123e 501c e8bc 206e a1bd
000003c0: 7e01 1abe 511b 1f3e 0787 b73d 6c1f e93d
000003d0: 964d a03c c250 03be 0b8b 9e3d c38b b23c
000003e0: 1fe1 813d 10c0 40bd e4a5 b6bd 6bdd 1e3e
000003f0: a4bd 813d fc14 9dbd 5d3f 8a3c 9843 28bd

rho.rho.2.bias f4 [28]
0.20942107 0.15078212 -0.08473191 -0.031378 -0.17862679 0.08175305 -0.18833303 -0.26499462
-0.16963597 -0.1754991 -0.044810537 -0.011100862 0.07292902 0.028510222 0.026310774 -0.12833072
-0.11212216 -0.15822643 0.11976931 -0.09743912 -0.03843498 0.0995999 -0.098679684 -0.047648974
-0.12598416 -0.16989854 0.122673266 -0.042637818
00000000: 7a72 563e a166 1a3e ec87 adbd 3886 00bd
00000010: f1e9 36be 256e a73d 60da 40be 60ad 87be
00000020: 0db5 2dbe 09b6 33be 418b 37bd 64e0 35bc
00000030: cf5b 953d 458e e93c b189 d73c 2169 03be
00000040: 4ea0 e5bd 1c06 22be 9d49 f53d 298e c7bd
00000050: ff6d 1dbd 08fb cb3d 9318 cabd 922b 43bd
00000060: fe01 01be e2f9 2dbe 1f3c fb3d fea4 2ebd

rho.rho.4.weight f4 [1, 28]
0.13410039 0.029845985 -0.0002400405 -0.093481466 0.004172357 0.014294383 -0.107839756 0.03518139
0.009879757 -0.14239478 0.0006719339 0.14166787 -0.055849016 0.16295506 0.098013744 -0.088985935
-0.074386105 -0.045477234 0.06858939 -0.005390064 0.15207337 0.050238844 -0.06784475 -0.069283865
-0.15722588 0.036104225 0.10506647 0.0018249161
00000000: 9d51 093e 917f f43c 62b3 7bb9 3673 bfbd
00000010: 44b8 883b fd32 6a3c 17db dcbd 5c1a 103d
00000020: b4de 213c f0cf 11be b924 303a 6211 113e
00000030: f0c1 64bd b1dd 263e 6ebb c83d 423e b6bd
00000040: be57 98bd 5646 3abd 9878 8c3d 229f b0bb
00000050: 1fb9 1b3e 3fc7 4d3d 30f2 8abd b3e4 8dbd
00000060: d2ff 20be 06e2 133d 172d d73d 0632 ef3a

exp_avg f4 [32, 3]
-8.19035e-06 -3.6073493e-06 -3.6194308e-06 0.0 0.0 0.0 0.0 0.0
0.0 0.0 0.0 0.0 1.5152011e-05 6.679554e-06 6.6938946e-06 7.910636e-06
3.541909e-06 3.4938628e-06 0.0 0.0 0.0 6.600384e-06 2.9605387e-06 2.9151067e-06
0.0 0.0 0.0 0.0 0.0 0.0 0.0 0.0
0.0 0.0 0.0 0.0 1.8734823e-05 8.427501e-06 8.274214e-06 -1.4776461e-05
-6.507628e-06 -6.530931e-06 0.0 0.0 0.0 1.8788074e-05 8.3004525e-06 8.301463e-06
0.0 0.0 0.0 -5.3448225e-06 -2.3199373e-06 -2.363395e-06 4.4321276e-08 5.1005348e-08
1.6555912e-08 0.0 0.0 0.0 -2.470188e-05 -1.0945282e-05 -1.0915074e-05 -2.051713e-05
-9.027433e-06 -9.0680915e-06 1.0871882e-05 4.850083e-06 4.8027164e-06 -7.0315e-06 -3.0967346e-06 -3.1088625e-06
9.635719e-08 8.139072e-08 4.0208338e-08 -1.121621e-05 -4.921539e-06 -4.9559835e-06 0.0 0.0
0.0 -1.0521497e-05 -4.599599e-06 -4.6518885e-06 0.0 0.0 0.0 0.0
0.0 0.0 1.3852213e-05 6.1274495e-06 6.1196283e-06 0.0 0.0 0.0
00000000: 4969 09b7 ca15 72b6 59e5 72b6 0000 0000
00000010: 0000 0000 0000 0000 0000 0000 0000 0000
00000020: 0000 0000 0000 0000 0000 0000 0000 0000
00000030: 6435 7e37 ef20 e036 1e9c e036 ecb7 0437
00000040: 89b1 6d36 1b78 6a36 0000 0000 0000 0000
00000050: 0000 0000 de78 dd36 abad 4636 27a1 4336
00000060: 0000 0000 0000 0000 0000 0000 0000 0000
00000070: 0000 0000 0000 0000 0000 0000 0000 0000
00000080: 0000 0000 0000 0000 0000 0000 0000 0000
00000090: ba28 9d37 d763 0d37 7bd1 0a37 6be8 77b7
000000a0: 195c dab6 4524 dbb6 0000 0000 0000 0000
000000b0: 0000 0000 159b 9d37 2c42 0b37 8346 0b37
000000c0: 0000 0000 0000 0000 0000 0000 ad57 b3b6
000000d0: 38b0 1bb6 d19a 1eb6 c25b 3e33 f910 5b33
000000e0: d636 8e32 0000 0000 0000 0000 0000 0000
000000f0: e236 cfb7 a1a1 37b7 e31f 37b7 341c acb7
00000100: 8874 17b7 2823 18b7 6166 3637 e5bd a236
00000110: 0527 a136 20f0 ebb6 7fd1 4fb6 daa1 50b6
00000120: edec ce33 06c9 ae33 89b1 2c33 412d 3cb7
00000130: b323 a5b6 934b a6b6 0000 0000 0000 0000
00000140: 0000 0000 7c85 30b7 4156 9ab6 6b17 9cb6
00000150: 0000 0000 0000 0000 0000 0000 0000 0000
00000160: 0000 0000 0000 0000 cd66 6837 649a cd36
00000170: 3557 cd36 0000 0000 0000 0000 0000 0000

exp_avg_sq f4 [32, 3]
8.468388e-09 1.5048136e-09 1.5756194e-09 0.0 0.0 0.0 0.0 0.0
0.0 0.0 0.0 0.0 2.8685454e-08 5.090506e-09 5.347232e-09 8.222078e-09
1.4599892e-09 1.5222574e-09 0.0 0.0 0.0 6.309983e-09 1.1183655e-09 1.1643254e-09
0.0 0.0 0.0 0.0 0.0 0.0 0.0 0.0
0.0 0.0 0.0 0.0 4.6041134e-08 8.188175e-09 8.548451e-09 2.6649191e-08
4.737266e-09 4.96393e-09 0.0 0.0 0.0 4.2364036e-08 7.5268884e-09 7.8915905e-09
0.0 0.0 0.0 3.5588557e-09 6.2846167e-10 6.6039835e-10 6.1700665e-11 9.7615865e-12
6.853293e-12 0.0 0.0 0.0 7.057723e-08 1.257145e-08 1.3160992e-08 5.313075e-08
9.437119e-09 9.905581e-09 1.554392e-08 2.7588647e-09 2.8827496e-09 5.8665375e-09 1.0420932e-09 1.0902026e-09
6.763776e-11 9.777759e-12 5.8075376e-12 1.4707153e-08 2.6143252e-09 2.7449076e-09 0.0 0.0
0.0 1.3133683e-08 2.33297e-09 2.4509674e-09 0.0 0.0 0.0 0.0
0.0 0.0 2.3934954e-08 4.2503254e-09 4.4564814e-09 0.0 0.0 0.0
00000000: 5d7c 1132 ecd1 ce30 2e8d d830 0000 0000
00000010: 0000 0000 0000 0000 0000 0000 0000 0000
00000020: 0000 0000 0000 0000 0000 0000 0000 0000
00000030: fb67 f632 90e8 ae31 c0ba b731 1541 0d32
00000040: cea8 c830 ac37 d130 0000 0000 0000 0000
00000050: 0000 0000 33cf d831 fdb4 9930 0f06 a030
00000060: 0000 0000 0000 0000 0000 0000 0000 0000
00000070: 0000 0000 0000 0000 0000 0000 0000 0000
00000080: 0000 0000 0000 0000 0000 0000 0000 0000
00000090: c3be 4533 f9ab 0c32 7cdc 1232 31ea e432
000000a0: 6fc5 a231 318f aa31 0000 0000 0000 0000
000000b0: 0000 0000 c0f3 3533 9b4f 0132 9593 0732
000000c0: 0000 0000 0000 0000 0000 0000 0d90 7431
000000d0: 0fc0 2c30 6787 3530 63ae 872e 47ba 2b2d
000000e0: fa20 f12c 0000 0000 0000 0000 0000 0000
000000f0: 3e90 9733 d2f9 5732 a81a 6232 e131 6433
00000100: e320 2232 352d 2a32 7185 8532 7696 3d31
00000110: de19 4631 9c92 c931 6539 8f30 18d6 9530
00000120: adbc 942e 1d03 2c2d a655 cc2c beaa 7c32
00000130: b2a7 3331 eda0 3c31 0000 0000 0000 0000
00000140: 0000 0000 8ca2 6132 0b52 2031 e06d 2831
00000150: 0000 0000 0000 0000 0000 0000 0000 0000
00000160: 0000 0000 0000 0000 8599 cd32 420a 9231
00000170: a01f 9931 0000 0000 0000 0000 0000 0000

exp_avg f4 [32]
-1.5417132e-05 0.0 0.0 0.0 2.8525455e-05 1.4946406e-05 0.0 1.2476033e-05
0.0 0.0 0.0 0.0 3.5436547e-05 -2.781503e-05 0.0 3.5389996e-05
0.0 -1.0028157e-05 1.1188251e-07 0.0 -4.6562232e-05 -3.861265e-05 2.0524682e-05 -1.3237101e-05
2.1795623e-07 -2.1093732e-05 0.0 -1.9772982e-05 0.0 0.0 2.6099287e-05 0.0
00000000: 0a54 81b7 0000 0000 0000 0000 0000 0000
00000010: f349 ef37 53c2 7a37 0000 0000 2750 5137
00000020: 0000 0000 0000 0000 0000 0000 0000 0000
00000030: b4a1 1438 5254 e9b7 0000 0000 b86f 1438
00000040: 0000 0000 9b3e 28b7 0f44 f033 0000 0000
00000050: d14b 43b8 04f4 21b8 6b2c ac37 ea14 5eb7
00000060: 5a07 6a34 72f2 b0b7 0000 0000 28de a5b7
00000070: 0000 0000 0000 0000 cbef da37 0000 0000

exp_avg_sq f4 [32]
2.9049476e-08 0.0 0.0 0.0 9.8423605e-08 2.81574e-08 0.0 2.1573653e-08
0.0 0.0 0.0 0.0 1.5790117e-07 9.145656e-08 0.0 1.4537203e-07
0.0 1.2179782e-08 1.759342e-10 0.0 2.4240865e-07 1.8234853e-07 5.3251732e-08 2.0117696e-08
1.8354049e-10 5.0498645e-08 0.0 4.508268e-08 0.0 0.0 8.211352e-08 0.0
00000000: 7988 f932 0000 0000 0000 0000 0000 0000
00000010: f35c d333 c7de f132 0000 0000 f750 b932
00000020: 0000 0000 0000 0000 0000 0000 0000 0000
00000030: 8b8b 2934 c766 c433 0000 0000 8f17 1c34
00000040: 0000 0000 3f3f 5132 1371 412f 0000 0000
00000050: 6424 8234 95cb 4334 e6b6 6433 48cf ac32
00000060: 0ece 492f d9e3 5833 0000 0000 eea0 4133
00000070: 0000 0000 0000 0000 6356 b033 0000 0000

exp_avg f4 [32, 32]
0.0 0.0 0.0 0.0 0.0 0.0 0.0 0.0
0.0 0.0 0.0 0.0 0.0 0.0 0.0 0.0
0.0 0.0 0.0 0.0 0.0 0.0 0.0 0.0
0.0 0.0 0.0 0.0 0.0 0.0 0.0 0.0
1.953121e-06 0.0 0.0 0.0 1.1072295e-06 2.400183e-06 0.0 2.0904536e-06
0.0 0.0 0.0 0.0 2.060373e-06 7.793576e-07 0.0 1.4197734e-06
0.0 3.952526e-06 1.9572137e-06 0.0 3.9501288e-07 5.760302e-07 1.8799924e-06 7.5455955e-07
2.383347e-06 1.1554612e-06 0.0 2.5980457e-06 0.0 0.0 1.101388e-06 0.0
6e-45 0.0 0.0 0.0 6e-45 6e-45 0.0 6e-45
0.0 0.0 0.0 0.0 6e-45 6e-45 0.0 6e-45
0.0 6e-45 6e-45 0.0 6e-45 6e-45 6e-45 6e-45
6e-45 6e-45 0.0 6e-45 0.0 0.0 6e-45 0.0
0.0 0.0 0.0 0.0 0.0 0.0 0.0 0.0
0.0 0.0 0.0 0.0 0.0 0.0 0.0 0.0
0.0 0.0 0.0 0.0 0.0 0.0 0.0 0.0
0.0 0.0 0.0 0.0 0.0 0.0 0.0 0.0
7.868091e-27 0.0 0.0 0.0 3.8088392e-27 9.827614e-27 0.0 1.3609374e-26
0.0 0.0 0.0 0.0 4.9827097e-27 5.8318287e-27 0.0 2.2626353e-27
0.0 2.1481687e-26 1.6815404e-26 0.0 2.5798585e-27 2.1681917e-27 7.9546284e-27 1.0533871e-26
1.2704767e-26 8.6228945e-27 0.0 1.3459121e-26 0.0 0.0 4.3190115e-27 0.0
6e-45 0.0 0.0 0.0 6e-45 6e-45 0.0 6e-45
0.0 0.0 0.0 0.0 6e-45 6e-45 0.0 6e-45
0.0 6e-45 6e-45 0.0 6e-45 6e-45 6e-45 6e-45
6e-45 6e-45 0.0 6e-45 0.0 0.0 6e-45 0.0
6e-45 0.0 0.0 0.0 6e-45 6e-45 0.0 6e-45
0.0 0.0 0.0 0.0 6e-45 6e-45 0.0 6e-45
0.0 6e-45 6e-45 0.0 6e-45 6e-45 6e-45 6e-45
6e-45 6e-45 0.0 6e-45 0.0 0.0 6e-45 0.0
6e-45 0.0 0.0 0.0 6e-45 6e-45 0.0 6e-45
0.0 0.0 0.0 0.0 6e-45 6e-45 0.0 6e-45
0.0 6e-45 6e-45 0.0 6e-45 6e-45 6e-45 6e-45
6e-45 6e-45 0.0 6e-45 0.0 0.0 6e-45 0.0
00000000: 0000 0000 0000 0000 0000 0000 0000 0000
00000010: 0000 0000 0000 0000 0000 0000 0000 0000
00000020: 0000 0000 0000 0000 0000 0000 0000 0000
00000030: 0000 0000 0000 0000 0000 0000 0000 0000
00000040: 0000 0000 0000 0000 0000 0000 0000 0000
00000050: 0000 0000 0000 0000 0000 0000 0000 0000
00000060: 0000 0000 0000 0000 0000 0000 0000 0000
00000070: 0000 0000 0000 0000 0000 0000 0000 0000
00000080: 5d12 0336 0000 0000 0000 0000 0000 0000
00000090: 1e9c 9435 d412 2136 0000 0000 b849 0c36
000000a0: 0000 0000 0000 0000 0000 0000 0000 0000
000000b0: f044 0a36 0c35 5135 0000 0000 0b8f be35
000000c0: 0000 0000 f19f 8436 ad58 0336 0000 0000
000000d0: 2812 d434 7ea0 1a35 0c54 fc35 f08c 4a35
000000e0: 97f1 1f36 5815 9b35 0000 0000 165a 2e36
000000f0: 0000 0000 0000 0000 67d3 9335 0000 0000
00000100: 0400 0000 0000 0000 0000 0000 0000 0000
00000110: 0400 0000 0400 0000 0000 0000 0400 0000
00000120: 0000 0000 0000 0000 0000 0000 0000 0000
00000130: 0400 0000 0400 0000 0000 0000 0400 0000
00000140: 0000 0000 0400 0000 0400 0000 0000 0000
00000150: 0400 0000 0400 0000 0400 0000 0400 0000
00000160: 0400 0000 0400 0000 0000 0000 0400 0000
00000170: 0000 0000 0000 0000 0400 0000 0000 0000
00000180: 0000 0000 0000 0000 0000 0000 0000 0000
00000190: 0000 0000 0000 0000 0000 0000 0000 0000
000001a0: 0000 0000 0000 0000 0000 0000 0000 0000
000001b0: 0000 0000 0000 0000 0000 0000 0000 0000
000001c0: 0000 0000 0000 0000 0000 0000 0000 0000
000001d0: 0000 0000 0000 0000 0000 0000 0000 0000
000001e0: 0000 0000 0000 0000 0000 0000 0000 0000
000001f0: 0000 0000 0000 0000 0000 0000 0000 0000
00000200: f6d7 1b14 0000 0000 0000 0000 0000 0000
00000210: 38e2 9613 eca7 4214 0000 0000 ddc7 8614
00000220: 0000 0000 0000 0000 0000 0000 0000 0000
00000230: ae62 c513 c505 e713 0000 0000 b243 3313
00000240: 0000 0000 8cbe d414 1d88 a614 0000 0000
00000250: bf65 4c13 27c8 2b13 c28e 1d14 12a5 5014
00000260: d2a4 7b14 45cb 2a14 0000 0000 ed4a 8514
00000270: 0000 0000 0000 0000 fb17 ab13 0000 0000
00000280: 0400 0000 0000 0000 0000 0000 0000 0000
00000290: 0400 0000 0400 0000 0000 0000 0400 0000
000002a0: 0000 0000 0000 0000 0000 0000 0000 0000
000002b0: 0400 0000 0400 0000 0000 0000 0400 0000
000002c0: 0000 0000 0400 0000 0400 0000 0000 0000
000002d0: 0400 0000 0400 0000 0400 0000 0400 0000
000002e0: 0400 0000 0400 0000 0000 0000 0400 0000
000002f0: 0000 0000 0000 0000 0400 0000 0000 0000
00000300: 0400 0000 0000 0000 0000 0000 0000 0000
00000310: 0400 0000 0400 0000 0000 0000 0400 0000
00000320: 0000 0000 0000 0000 0000 0000 0000 0000
00000330: 0400 0000 0400 0000 0000 0000 0400 0000
00000340: 0000 0000 0400 0000 0400 0000 0000 0000
00000350: 0400 0000 0400 0000 0400 0000 0400 0000
00000360: 0400 0000 0400 0000 0000 0000 0400 0000
00000370: 0000 0000 0000 0000 0400 0000 0000 0000
00000380: 0400 0000 0000 0000 0000 0000 0000 0000
00000390: 0400 0000 0400 0000 0000 0000 0400 0000
000003a0: 0000 0000 0000 0000 0000 0000 0000 0000
000003b0: 0400 0000 0400 0000 0000 0000 0400 0000
000003c0: 0000 0000 0400 0000 0400 0000 0000 0000
000003d0: 0400 0000 0400 0000 0400 0000 0400 0000
000003e0: 0400 0000 0400 0000 0000 0000 0400 0000
000003f0: 0000 0000 0000 0000 0400 0000 0000 0000
