src/old_logs/version_21/checkpoints/epoch=199-step=400.ckpt (torch, 13235 bytes, 21 tensors)

phi.phi.0.weight f4 [6, 3]
0.0047812583 0.41253915 -1.0698097 0.081191145 0.320408 0.018624969 0.66260105 0.5562547
-0.34091967 -0.36818504 -0.43066278 -0.4870085 -0.5259004 0.11130415 1.4870124 -0.44490004
-0.440442 0.3345904
00000000: 1aac 9c3b 5538 d33e 86ef 88bf 8b47 a63d
00000010: 840c a43e 6493 983c 39a0 293f b566 0e3f
00000020: 068d aebe c082 bcbe d57f dcbe 2e59 f9be
00000030: 69a1 06bf 6ef3 e33d 6c56 be3f f0c9 e3be
00000040: 9d81 e1be 6f4f ab3e

phi.phi.0.bias f4 [6]
0.51788986 0.09048116 0.020253941 0.16374856 0.055550747 -0.0027194337
00000000: 6e94 043f 304e b93d 98eb a53c b4ad 273e
00000010: 2e89 633d 8738 32bb

phi.phi.2.weight f4 [6, 6]
0.100109555 -0.2632033 -0.21023385 0.19123986 -0.2470702 0.33190957 -0.49547595 -0.14095022
0.22229333 -0.19941548 0.8022438 -0.06344005 0.54254913 0.15250038 0.46798158 0.10711395
-0.8791227 0.13118255 -0.1786649 -0.3963306 -0.3914298 0.013100375 0.29388157 0.13110323
0.2711139 -0.45238313 0.01056382 0.13406909 -0.22495529 -0.31154355 -0.30656502 0.12309561
-0.36132774 -0.38618886 0.015414539 0.12882502
00000000: 3d06 cd3d 95c2 86be 8b47 57be 62d4 433e
00000010: f8ff 7cbe 0df0 a93e 06af fdbe 4155 10be
00000020: dda0 633e 9233 4cbe da5f 4d3f dbec 81bd
00000030: 80e4 0a3f 0f29 1c3e 489b ef3e 8f5e db3d
00000040: 2f0e 61bf b854 063e eef3 36be d8eb cabe
00000050: 7d69 c8be f5a2 563c a577 963e ed3f 063e
00000060: 71cf 8a3e c39e e7be df13 2d3c 6849 093e
00000070: ae5a 66be a382 9fbe 17f6 9cbe 8d19 fc3d
00000080: f3ff b8be 8cba c5be 438d 7c3c b5ea 033e

phi.phi.2.bias f4 [6]
-0.09733349 0.26981714 0.30281284 0.10194985 -0.17545228 -0.123213574
00000000: c856 c7bd 7925 8a3e 490a 9b3e 15cb d03d
00000010: c3a9 33be 6657 fcbd

rho.rho.0.weight f4 [6, 6]
0.29079574 -0.08972285 -0.10246285 0.30941814 0.31334445 0.043643974 -0.15198842 -0.107712604
-0.24803 -0.355427 0.044706278 -0.14302571 0.06597463 -0.07274863 -0.04040504 -0.08132016
0.38018847 -0.17722285 -0.2920705 -0.21767153 0.21435659 -0.023040414 0.25359672 -0.29633203
0.22301283 -0.069821365 -0.23923983 0.31873474 -0.033038996 0.267486 -0.079925455 0.3145305
-0.3820459 0.10454778 0.22498636 -0.16295095
00000000: 2ee3 943e 9dc0 b7bd 0bd8 d1bd 0e6c 9e3e
00000010: af6e a03e 06c4 323d daa2 1bbe 6d98 dcbd
00000020: 94fb 7dbe 87fa b5be ee1d 373d 5575 12be
00000030: b51d 873d 3cfd 94bd c17f 25bd 2f8b a6bd
00000040: 10a8 c23e e879 35be 448a 95be 49e5 5ebe
00000050: 4b80 5b3e 40bf bcbc 6ed7 813e d5b8 97be
00000060: 7a5d 643e 81fe 8ebd 49fb 74be 3331 a33e
00000070: e653 07bd edf3 883e f5af a3bd 240a a13e
00000080: 859b c3be 251d d63d d362 663e 9ddc 26be

rho.rho.0.bias f4 [6]
-0.2003781 -0.27688414 -0.2274591 -0.269966 -0.09819587 0.3538745
00000000: eb2f 4dbe c2c3 8dbe 0aeb 68be fc38 8abe
00000010: eb1a c9bd 0a2f b53e

rho.rho.2.weight f4 [1, 6]
0.18932155 0.22813231 0.25230896 0.1026418 -1.1826079e-05 -0.37463722
00000000: 82dd 413e 849b 693e a42e 813e dd35 d23d
00000010: 9f68 46b7 73d0 bfbe

exp_avg f4 [6, 3]
-2.9164914e-05 -3.5259047e-05 -3.9422735e-05 -7.961435e-06 -9.740037e-06 -1.0948364e-05 -8.185086e-06 -1.0249952e-05
-1.1550884e-05 0.0 0.0 0.0 0.000115007795 6.513871e-05 4.7169025e-05 0.0
0.0 0.0
00000000: 2da7 f4b7 1de3 13b8 d759 25b8 1a92 05b7
00000010: 2469 23b7 deae 37b7 ad52 09b7 35f7 2bb7
00000020: abca 41b7 0000 0000 0000 0000 0000 0000
00000030: 5730 f138 149b 8838 5bd7 4538 0000 0000
00000040: 0000 0000 0000 0000

exp_avg_sq f4 [6, 3]
1.0343721e-07 3.03712e-08 2.2085164e-08 3.6941085e-08 1.0064967e-08 5.440788e-09 1.0412092e-08 3.024999e-09
2.206282e-09 0.0 0.0 0.0 8.682705e-08 3.7436198e-08 3.23343e-08 0.0
0.0 0.0
00000000: 3521 de33 7d71 0233 cab5 bd32 27a9 1e33
00000010: 31ea 2c32 adf1 ba31 dde0 3232 58e0 4f31
00000020: 539d 1731 0000 0000 0000 0000 0000 0000
00000030: ad75 ba33 89c9 2033 f0df 0a33 0000 0000
00000040: 0000 0000 0000 0000

exp_avg f4 [6]
-0.000103846694 -2.8649834e-05 -2.9985928e-05 0.0 0.00022731551 0.0
00000000: 45c8 d9b8 0d55 f0b7 4a8a fbb7 0000 0000
00000010: 8b5b 6e39 0000 0000

exp_avg_sq f4 [6]
4.008296e-07 1.2957548e-07 4.0265977e-08 0.0 4.3495572e-07 0.0
00000000: 9a31 d734 7021 0b34 e9f0 2c33 0000 0000
00000010: dc83 e934 0000 0000

exp_avg f4 [6, 6]
0.0 0.0 0.0 0.0 0.0 0.0 2.2414826e-05 2.0504822e-05
2.3664672e-05 0.0 1.7112294e-05 0.0 -2.6470505e-05 -2.4449408e-05 -2.792729e-05 0.0
-2.0366186e-05 0.0 1.787718e-22 7.418218e-23 2.3528707e-22 0.0 1.2505427e-22 0.0
2.0127291e-22 6.198982e-23 2.1387541e-22 0.0 9.064013e-23 0.0 0.0 0.0
0.0 0.0 0.0 0.0
00000000: 0000 0000 0000 0000 0000 0000 0000 0000
00000010: 0000 0000 0000 0000 7907 bc37 c501 ac37
00000020: 7f83 c637 0000 0000 5f8c 8f37 0000 0000
00000030: fa0c deb7 b418 cdb7 6645 eab7 0000 0000
00000040: 0dd8 aab7 0000 0000 311f 581b 8c5c b31a
00000050: e938 8e1b 0000 0000 6c2e 171b 0000 0000
00000060: f352 731b d7e1 951a 9e47 811b 0000 0000
00000070: 8627 db1a 0000 0000 0000 0000 0000 0000
00000080: 0000 0000 0000 0000 0000 0000 0000 0000

exp_avg_sq f4 [6, 6]
0.0 0.0 0.0 0.0 0.0 0.0 5.269276e-08 1.6863245e-08
7.103355e-08 0.0 1.6012041e-08 0.0 8.673104e-08 2.8758272e-08 1.1592279e-07 0.0
2.5621226e-08 0.0 4.500147e-09 8.2772583e-10 7.1706903e-09 0.0 2.2920248e-09 0.0
2.9672207e-09 2.6026759e-10 3.5351075e-09 0.0 7.251045e-10 0.0 0.0 0.0
0.0 0.0 0.0 0.0
00000000: 0000 0000 0000 0000 0000 0000 0000 0000
00000010: 0000 0000 0000 0000 4d50 6233 abda 9032
00000020: 1b8b 9833 0000 0000 da8a 8932 0000 0000
00000030: e540 ba33 1c08 f732 3af1 f833 0000 0000
00000040: ac15 dc32 0000 0000 b69f 9a31 0786 6330
00000050: 0f62 f631 0000 0000 ba81 1d31 0000 0000
00000060: e6e7 4b31 6815 8f2f 45ee 7231 0000 0000
00000070: b150 4730 0000 0000 0000 0000 0000 0000
00000080: 0000 0000 0000 0000 0000 0000 0000 0000

exp_avg f4 [6]
0.0 9.164805e-05 -0.00010927866 5.6544964e-22 4.7906046e-22 0.0
00000000: 0000 0000 2c33 c038 892c e5b8 8ce5 2a1c
00000010: 82c9 101c 0000 0000

exp_avg_sq f4 [6]
0.0 3.5989137e-07 5.7686253e-07 4.1173497e-08 1.8711033e-08 0.0
00000000: 0000 0000 1837 c134 b1d9 1a35 bdd6 3033
00000010: ffb9 a032 0000 0000

exp_avg f4 [6, 6]
0.0 0.0 0.0 0.0 0.0 0.0 0.0 0.0
0.0 0.0 0.0 0.0 0.0 0.0 0.0 0.0
0.0 0.0 0.0 0.0 0.0 0.0 0.0 0.0
0.0 0.0 0.0 0.0 0.0 0.0 0.0 9.6477925e-05
0.00011975163 1.4226562e-22 4.19297e-23 0.0
00000000: 0000 0000 0000 0000 0000 0000 0000 0000
00000010: 0000 0000 0000 0000 0000 0000 0000 0000
00000020: 0000 0000 0000 0000 0000 0000 0000 0000
00000030: 0000 0000 0000 0000 0000 0000 0000 0000
00000040: 0000 0000 0000 0000 0000 0000 0000 0000
00000050: 0000 0000 0000 0000 0000 0000 0000 0000
00000060: 0000 0000 0000 0000 0000 0000 0000 0000
00000070: 0000 0000 0000 0000 0000 0000 3154 ca38
00000080: 2b23 fb38 14fd 2b1b 74c2 4a1a 0000 0000

exp_avg_sq f4 [6, 6]
0.0 0.0 0.0 0.0 0.0 0.0 0.0 0.0
0.0 0.0 0.0 0.0 0.0 0.0 0.0 0.0
0.0 0.0 0.0 0.0 0.0 0.0 0.0 0.0
0.0 0.0 0.0 0.0 0.0 0.0 0.0 6.0493204e-07
2.6317489e-06 3.1885565e-09 1.8298699e-10 0.0
00000000: 0000 0000 0000 0000 0000 0000 0000 0000
00000010: 0000 0000 0000 0000 0000 0000 0000 0000
00000020: 0000 0000 0000 0000 0000 0000 0000 0000
00000030: 0000 0000 0000 0000 0000 0000 0000 0000
00000040: 0000 0000 0000 0000 0000 0000 0000 0000
00000050: 0000 0000 0000 0000 0000 0000 0000 0000
00000060: 0000 0000 0000 0000 0000 0000 0000 0000
00000070: 0000 0000 0000 0000 0000 0000 9d62 2235
00000080: 1a9d 3036 ae1d 5b31 4232 492f 0000 0000

exp_avg f4 [6]
0.0 0.0 0.0 0.0 0.0 0.00028828942
00000000: 0000 0000 0000 0000 0000 0000 0000 0000
00000010: 0000 0000 8d25 9739

exp_avg_sq f4 [6]
0.0 0.0 0.0 0.0 0.0 6.905666e-06
00000000: 0000 0000 0000 0000 0000 0000 0000 0000
00000010: 0000 0000 38b7 e736

exp_avg f4 [1, 6]
0.0 0.0 0.0 0.0 0.0 -0.00023463578
00000000: 0000 0000 0000 0000 0000 0000 0000 0000
00000010: 0000 0000 9008 76b9

exp_avg_sq f4 [1, 6]
0.0 0.0 0.0 0.0 0.0 5.2068476e-06
00000000: 0000 0000 0000 0000 0000 0000 0000 0000
00000010: 0000 0000 7bb6 ae36
