src/old_logs/version_132/checkpoints/epoch=999-step=1000.ckpt (torch, 60971 bytes, 39 tensors)

phi.phi.0.weight f4 [32, 3]
0	0x3d9abfe7	0.07556134
1	0x3ea1a043	0.31567582
2	0xbf0757f3	-0.52868575
3	0xbed98bc9	-0.4248946
4	0xbe63b4b1	-0.22236897
5	0x3e1e8953	0.15482073
6	0xbc3b6b40	-0.011439145
7	0x3eea617a	0.45777494
8	0xbd51dd42	-0.0512364
9	0x3e1c70d2	0.15277413
10	0xbe32ab9e	-0.1744828
11	0xbde86bea	-0.11348708
12	0xbf192545	-0.59822494
13	0xbedf11ef	-0.4356837
14	0xbe902db5	-0.28159872
15	0xbb829f22	-0.0039862553
16	0xbe062969	-0.13101734
17	0x3db4ed3c	0.08834311
18	0xbec866d2	-0.39140946
19	0xbe80b969	-0.25141457
20	0x3e56bc83	0.20970349
21	0x3f1a576b	0.6028964
22	0xbe7d451f	-0.24733399
23	0xbe82ea48	-0.25569367
24	0xbdbe95da	-0.09305926
25	0x3d7a3b65	0.0610918
26	0x3f05d4b5	0.5227769
27	0xbf091c79	-0.5355907
28	0xbeba17f0	-0.36346388
29	0xbe15ac48	-0.14616501
30	0xbe6673cc	-0.2250511
31	0x3eff66ca	0.4988311
32	0xbebf9aa4	-0.3742267
33	0xbe881370	-0.2657733
34	0xbece853c	-0.40336025
35	0xbf0a6cdf	-0.54072374
36	0xbeac8e3e	-0.33702272
37	0x3efe199d	0.49628916
38	0x3e83e755	0.2576243
39	0x3edf0e9c	0.43565834
40	0xbb43f7f1	-0.0029902423
41	0xbf9a6b43	-1.2063984
42	0x3dc80bd5	0.09767882
43	0xbf0a006b	-0.5390689
44	0xbed597ce	-0.4171738
45	0xbeb68a2a	-0.35652286
46	0x3e4810df	0.19537686
47	0x3f8aae97	1.083453
48	0xbe83193f	-0.256052
49	0xbcaaa83d	-0.020832175
50	0x3ebd0e68	0.36925054
51	0x3efbbb11	0.49166158
52	0x3ccb76a2	0.024836842
53	0x3bd6e4b9	0.0065580276
54	0x3efca1df	0.49342248
55	0xbf095283	-0.5364153
56	0xbf1387ea	-0.57629263
57	0xbee52ed2	-0.44762284
58	0xbecce0ea	-0.40015346
59	0xbe98b42e	-0.29824966
60	0x3eaf2bfd	0.34213248
61	0x3ec2a9c5	0.3802015
62	0xbf011931	-0.50429064
63	0x3e3336f2	0.17501429
64	0x3ebfd10c	0.37464178
65	0xbf0f5099	-0.5598236
66	0x3e0130e2	0.12616304
67	0xbd10b332	-0.035327144
68	0xbc231d71	-0.00995575
69	0x3f015f4b	0.5053603
70	0xbf100bf3	-0.56268233
71	0xbf1fa4d4	-0.6236088
72	0x3ea789d8	0.32722354
73	0x3ecf69e8	0.40510488
74	0x3e9ed519	0.31021956
75	0x3f21da8d	0.6322411
76	0x3c651c54	0.013983805
77	0xbfadd393	-1.3580192
78	0x3d598bdb	0.053111892
79	0xbeb8ee58	-0.36119342
80	0xbf09be8f	-0.53806394
81	0x3f076194	0.5288327
82	0x3eb63fb8	0.3559549
83	0xbf85bb98	-1.0447874
84	0x3ddd5092	0.10806383
85	0xbdc7307a	-0.09726043
86	0xbdc2944d	-0.095009424
87	0xbe875080	-0.26428604
88	0x3e635a28	0.2220236
89	0xbeaf163f	-0.3419666
90	0x3e69508a	0.2278463
91	0x3d19ce56	0.037550293
92	0x3f57a7e0	0.8424053
93	0x3e5d0f0b	0.2158777
94	0xbf1248d6	-0.5714239
95	0xbebfc1c8	-0.3745253

phi.phi.0.bias f4 [32]
0	0x3eaef951	0.34174588
1	0x3df77b10	0.12084019
2	0xbee6986e	-0.4503817
3	0xbeaa36d3	-0.33244953
4	0x3efdaf6c	0.495479
5	0x3e973ad2	0.29537064
6	0xbe80e3f7	-0.25173923
7	0xbe159c32	-0.14610365
8	0xbf0ccbac	-0.5499828
9	0xbc2a05dc	-0.010377374
10	0xbede9b52	-0.43477875
11	0xbee403ff	-0.445343
12	0xbd024d10	-0.031811774
13	0x3d9aae94	0.075528294
14	0xbe721df6	-0.23644242
15	0x3eb810d0	0.35950327
16	0xbeb3e2dd	-0.3513402
17	0x3ed96dc7	0.42466566
18	0x3ec066ac	0.37578332
19	0xbef946fa	-0.48686963
20	0xbd9f62f0	-0.07782543
21	0xbcc5aee4	-0.024131246
22	0x3dd518a9	0.10405094
23	0x3d0d341e	0.03447353
24	0x3e87367d	0.2640876
25	0x3c199de6	0.009376025
26	0xbe903bbe	-0.2817058
27	0x3e5e5cb2	0.21715048
28	0xbf0dc751	-0.5538226
29	0xbeaf34c1	-0.34219936
30	0xbdfda38c	-0.1238471
31	0xbe8ffe09	-0.281235

phi.phi.2.weight f4 [32, 32]
0	0xbd7d4e71	-0.061842386
1	0xbe145e0c	-0.14489001
2	0xbd1a05b0	-0.03760308
3	0x3d1ac6b5	0.037787158
4	0xbdebdb16	-0.11516397
5	0xbc14a302	-0.009072067
6	0x3e019535	0.12654574
7	0xbc94dee4	-0.018172689
8	0x3ba0fd5d	0.0049130158
9	0xbc79dc86	-0.015250331
10	0x3d128a2e	0.03577631
11	0x3de632cf	0.1124016
12	0x3e2b784a	0.16745105
13	0x3de5ea30	0.11226308
14	0x3e2bdcb9	0.16783418
15	0xbc517744	-0.012784783
16	0xbe229d12	-0.1588023
17	0xbdaba261	-0.08380581
18	0x3df68397	0.120368175
19	0xba9633c2	-0.0011459517
20	0xbdb3f333	-0.08786621
21	0xbe0ab79d	-0.13546605
22	0xbe296846	-0.16543683
23	0xbe18c824	-0.14920098
24	0xbd12de97	-0.03585681
25	0x3dc68b4f	0.0969454
26	0x3dc3bba4	0.09557274
27	0xbe2e94b0	-0.17048907
28	0x3de1d54e	0.11027013
29	0xbe0da63b	-0.13832943
30	0xbd1913d0	-0.03737241
31	0xbd92cbf9	-0.07167811
32	0x3d6cad40	0.05778241
33	0xbd0e2ad4	-0.034708813
34	0xbe22700c	-0.15863055
35	0xbe1c4c88	-0.1526357
36	0x3d403508	0.046925575
37	0x3d5222a5	0.05130257
38	0xbda4770f	-0.08030521
39	0x3e42a6c8	0.19008934
40	0xbe22ed8f	-0.15910934
41	0xbc4376c4	-0.011930171
42	0x3e1f3122	0.15546086
43	0xbd93ac34	-0.072105795
44	0x3e237605	0.1596299
45	0x3e7e840a	0.24855056
46	0xbe235ce5	-0.15953405
47	0x3d2682f0	0.040652215
48	0xbca71bea	-0.020399053
49	0x3c2236de	0.009900777
50	0x3e7b1a48	0.24521744
51	0xbe1247e6	-0.1428524
52	0x3e626ea5	0.2211252
53	0x3d9dd579	0.07706732
54	0x3e1bc74e	0.15212747
55	0x3e576b31	0.21036984
56	0x3e04fcec	0.12987107
57	0x3e709125	0.23492868
58	0xbd2e1f4e	-0.042510323
59	0x3dab4e32	0.08364524
60	0xbe152cb7	-0.14567839
61	0x3dc42b25	0.09578542
62	0x3e1ba14f	0.15198253
63	0x3df7b742	0.120955005
64	0xbe3d2dcd	-0.18474503
65	0x3c012cd2	0.007884221
66	0xbdff36a2	-0.12461592
67	0xbdc74beb	-0.09731277
68	0xbe26f4da	-0.16304341
69	0x39bcaf6b	0.0003598885
70	0xbdd7be5d	-0.10534356
71	0xbd82e1b4	-0.06390706
72	0x3bf3af42	0.007436664
73	0x3de960e3	0.11395433
74	0xbe08d60e	-0.13362905
75	0xbdf88b42	-0.12135936
76	0xbdd238d0	-0.102647424
77	0x3d826b6c	0.06368145
78	0xbd8223e6	-0.06354503
79	0x3db664c1	0.08905936
80	0x3d82ea79	0.06392378
81	0xbd1a4b2b	-0.037669342
82	0xbd7b5e41	-0.061369184
83	0xbd0f2301	-0.03494549
84	0xbd1b0215	-0.037843782
85	0xbdcda649	-0.10041482
86	0xbd7b0b6d	-0.061290193
87	0xbd199672	-0.03749699
88	0xbe4b169d	-0.19832845
89	0xbe1c5ef2	-0.15270594
90	0x3e122bfb	0.1427459
91	0xbe50666c	-0.20351571
92	0xbc4ff913	-0.012693661
93	0x3e331243	0.17487435
94	0x3b79f8b8	0.0038142633
95	0x3ba401b4	0.005005086
96	0xbe1cdf87	-0.15319644
97	0x3db35890	0.08757126
98	0xbe00efc4	-0.12591463
99	0xbd4d8a28	-0.050180584
100	0xbd72f095	-0.05931147
101	0xbcd67414	-0.026178397
102	0x3afd71ff	0.0019336342
103	0x3e154e5d	0.14580674
104	0x3cb4c933	0.022068596
105	0x3e222341	0.15833761
106	0x3ddd76ac	0.108136505
107	0xbde4e2ca	-0.11176069
108	0x3da26036	0.07928507
109	0xbdffec78	-0.12496275
110	0xbd9970eb	-0.074922405
111	0x3d54f7b3	0.051994037
112	0x3d6f15a9	0.058370266
113	0x3e07ce48	0.13262284
114	0xbd69178c	-0.05690722
115	0x39945ef2	0.000282995
116	0x3dba62d3	0.091008805
117	0xbe2f0ff8	-0.17095935
118	0x3e02df9c	0.12780613
119	0xbe15b05f	-0.14618061
120	0x3b1fac6e	0.002436425
121	0xbcf635e8	-0.030055001
122	0xbdbead0d	-0.093103506
123	0x3cbf6773	0.023364758
124	0x3e15b033	0.14617996
125	0xbd53a976	-0.051675282
126	0xbdd6f0b2	-0.10495128
127	0xbd85e55d	-0.06537888
128	0xbe336ac1	-0.17521192
129	0x3da36c0d	0.079795934
130	0xbdaddfc1	-0.08489943
131	0xbdf19a5d	-0.117970206
132	0xbdd0922c	-0.1018413
133	0x3dd02805	0.10163883
134	0x3dbfb9e5	0.093616284
135	0x3e0aefb1	0.13567998
136	0x3d8351de	0.06412099
137	0xbd71d00a	-0.059036292
138	0xbd4a5792	-0.04939992
139	0x3d55ea04	0.052225128
140	0x3e14cdde	0.14531657
141	0x3d44def8	0.048064202
142	0xbdab4c03	-0.083641075
143	0xbdaa2faa	-0.083098724
144	0xbe2b25ef	-0.1671369
145	0x3d1c6f7a	0.03819225
146	0xbdcb2b76	-0.09920399
147	0xbe216478	-0.15760982
148	0x3e1ebb4a	0.15501133
149	0xbdeb1caa	-0.114800766
150	0xbca4be8b	-0.02011039
151	0x3d4f7188	0.05064538
152	0x3bb88b0a	0.005631809
153	0xbdf39bf5	-0.11894981
154	0xbe125265	-0.14289244
155	0x3e10498e	0.14090559
156	0x3cebd0cc	0.028786086
157	0x3e162d97	0.14665829
158	0xbd72bd79	-0.059262726
159	0x3d5547e9	0.052070532
160	0xbdbcb924	-0.09215
161	0xbc00cd5c	-0.0078614615
162	0xbddc7f5f	-0.107664816
163	0x3d74e235	0.05978604
164	0x38c6e134	9.483323e-05
165	0xbd688634	-0.05676861
166	0xbd22d8b8	-0.03975746
167	0xbe258d98	-0.16167295
168	0x3dfa5daf	0.122249
169	0xbe06c152	-0.13159683
170	0x3d945093	0.07241931
171	0xbd73793b	-0.059441786
172	0xbdaeac0d	-0.0852891
173	0xbcaffc33	-0.021482563
174	0xbdbc1042	-0.091827884
175	0xbc4d41a6	-0.012527859
176	0x3d0e31e7	0.03471556
177	0xbe3ca129	-0.18420853
178	0xbcbf0ce0	-0.023321569
179	0x3d9a33ed	0.07529435
180	0x3cafb7de	0.02144998
181	0xbd9a89e9	-0.075458355
182	0xbe49ac90	-0.19694734
183	0xbda51837	-0.08061259
184	0x3c11fee3	0.008910867
185	0xbdef037e	-0.11670588
186	0x3d896c4c	0.06710109
187	0x3d85ed78	0.06539434
188	0xbdbd0a00	-0.09230423
189	0x3ae480d2	0.0017433411
190	0x3cb169fc	0.021656983
191	0x3c6301a9	0.013855376
192	0xbd88d74c	-0.066816896
193	0x3cb4d30e	0.022073295
194	0xbe0e4ed5	-0.1389726
195	0x3c639daa	0.0138925705
196	0x3d10461b	0.035223108
197	0x3d97e8c0	0.074174404
198	0x3dd4c9df	0.10390066
199	0xbd62bf8e	-0.055358462
200	0x3da913c3	0.082557224
201	0xbdb01fdb	-0.08599826
202	0xbe160235	-0.1464928
203	0xbe1ba98f	-0.152014
204	0x3e34962f	0.17635415
205	0x3cf3703b	0.029716602
206	0xbdfa40db	-0.122194014
207	0xbc9279b4	-0.017880298
208	0x3e08b32f	0.13349603
209	0x3dbbf128	0.09176856
210	0x3d93ec3c	0.072227925
211	0x3e0c3ed4	0.13695842
212	0xbde1464d	-0.10999737
213	0xbe183f9c	-0.14868015
214	0x3d861e38	0.065487325
215	0x3c73015a	0.014831865
216	0xbe41ec50	-0.18937802
217	0x3d9e3d37	0.077265196
218	0x3daeec0e	0.085411176
219	0x3c4fa6db	0.012674059
220	0xbde2ead2	-0.11079945
221	0x3d4fbcd6	0.050717197
222	0xbe10398b	-0.14084451
223	0x3e0d70ce	0.13812563
224	0xbdec88dc	-0.11549541
225	0x3d8cf239	0.06882138
226	0x3d009ca9	0.031399403
227	0x3d9a0933	0.07521286
228	0xbe12153e	-0.14265916
229	0x3b120612	0.002228145
230	0xbdfcdf9d	-0.12347338
231	0xbd329f1c	-0.04360877
232	0xbdf4f3d2	-0.119605675
233	0xbe329516	-0.17439684
234	0xbe115e5e	-0.14196154
235	0x3e0ee8cb	0.13955991
236	0x3dc3e036	0.09564249
237	0x3da74f7a	0.08169456
238	0x3e1104b8	0.14161956
239	0xbe7797cc	-0.24179
240	0xbdf71103	-0.120637916
241	0xbde673aa	-0.1125253
242	0xbe4b5883	-0.19857983
243	0x3dfb65fc	0.12275311
244	0xbe5dd4db	-0.21663229
245	0xbe2e7e8d	-0.17040463
246	0xbe820ba7	-0.25399515
247	0xbe3cdd00	-0.1844368
248	0x3d7cb6a0	0.061697602
249	0x3d797506	0.060902618
250	0x3e019499	0.12654342
251	0x3d579394	0.052630976
252	0x3e20f5bf	0.15718745
253	0xbd3968cf	-0.04526597
254	0xbba7b144	-0.0051175673
255	0x3e214690	0.15749574

phi.phi.2.bias f4 [32]
0	0xbe1828a9	-0.1485926
1	0x3d88f48a	0.06687267
2	0x3da24ab9	0.079244085
3	0xbe1b062f	-0.15139078
4	0xbda17da9	-0.07885296
5	0x3dd1d5d5	0.10245863
6	0xbde9bd0e	-0.114130124
7	0xbc2e418d	-0.010635746
8	0xbe2e23e9	-0.17005886
9	0xbd63b560	-0.055592895
10	0xbe176daf	-0.14787935
11	0x3d9a2ac3	0.075276874
12	0x3d9642b0	0.073369384
13	0xbe0415dd	-0.12898965
14	0xbd4c2b90	-0.049846232
15	0x3d185ae6	0.037196063
16	0xbc8f8e65	-0.017523954
17	0xbe520582	-0.20509914
18	0xbd7046dd	-0.05866133
19	0x3da1853b	0.0788674
20	0xbe01c39e	-0.12672278
21	0xbce88488	-0.028383508
22	0xbd5f6447	-0.05453899
23	0x3d98047e	0.07422732
24	0xbb88d82a	-0.0041761594
25	0x3badd34a	0.0053047286
26	0xbd2e4dd1	-0.04255468
27	0xbe17ded9	-0.14831103
28	0xbddce3f7	-0.10785668
29	0xbc8ffb67	-0.017575933
30	0x3da98c36	0.08278696
31	0xbe3034b9	-0.17207612

phi.phi.4.weight f4 [32, 32]
0	0xbde6edfb	-0.1127586
1	0xbe13468a	-0.14382377
2	0xbd04547e	-0.03230714
3	0x3e0d1045	0.13775738
4	0x3e1eaba9	0.1549517
5	0xbe1d965c	-0.15389389
6	0xbbfaf9d8	-0.007659178
7	0x3dd48123	0.103761934
8	0x3d9f95f2	0.07792272
9	0x3e14460d	0.14479847
10	0xbba0ad49	-0.0049034697
11	0xbdf3404c	-0.11877498
12	0x3def7fe7	0.11694317
13	0xbd784bf3	-0.060619306
14	0x3dbb7567	0.09153252
15	0xbd327067	-0.043564226
16	0x3d99e688	0.075146735
17	0x3e22d041	0.15899755
18	0x3e285263	0.16437678
19	0xbe24bd47	-0.16087829
20	0xbdef7b40	-0.1169343
21	0xbd95b0e4	-0.0730913
22	0xbde6df58	-0.11273068
23	0x3e2db025	0.16961725
24	0xbc7fcc73	-0.015612709
25	0xbdf027aa	-0.11726315
26	0xbda11a77	-0.07866376
27	0xbdc7fa33	-0.097645186
28	0x3d93b53b	0.07212301
29	0xbe1de4f2	-0.15419367
30	0xbe28c872	-0.16482714
31	0xbe32711c	-0.1742596
32	0x3d9bddcb	0.07610663
33	0x3db302fe	0.08740805
34	0xbde0daca	-0.10979231
35	0x3d338e40	0.043836832
36	0x3e05a02e	0.13049385
37	0x3cd26b38	0.025685892
38	0xbd193391	-0.037402693
39	0x3c55fc72	0.013060676
40	0xbc9b4843	-0.018955356
41	0x3db64942	0.089006916
42	0xbdf5d40f	-0.120033376
43	0x3db79739	0.0896439
44	0x3dcc0db3	0.099635504
45	0xbddb599d	-0.10710452
46	0x3e13d055	0.14434941
47	0x3e31cb60	0.17362738
48	0xbd8eb9dd	-0.06969044
49	0xbd4acf5c	-0.04951416
50	0x3db46c89	0.08809764
51	0xbe0dd072	-0.13849047
52	0x3d8f2bcc	0.069907755
53	0x3d28ee41	0.04124284
54	0x3de43428	0.111427605
55	0xbe1d3c10	-0.15354943
56	0xbe16635b	-0.14686339
57	0x3da29a23	0.079395555
58	0x3d826905	0.06367687
59	0xbe287c97	-0.16453777
60	0xbdc9e4f1	-0.0985812
61	0xbe25a0f9	-0.16174687
62	0xbe01afb8	-0.12664688
63	0xbda35a0a	-0.07976158
64	0x3e15cceb	0.14628951
65	0xbddfd173	-0.10928621
66	0x3d29f582	0.0414939
67	0x3e2be91e	0.16788146
68	0x3da4fe21	0.08056284
69	0xbe63f4f5	-0.22261412
70	0x3c73d994	0.014883418
71	0xbb9ce6b5	-0.0047882446
72	0x3e0c4d46	0.13701352
73	0xbe32904c	-0.17437857
74	0x3d439027	0.047744896
75	0x3d90a3c2	0.07062484
76	0xbe2869fc	-0.1644668
77	0x3c9783db	0.01849549
78	0x3d9d5454	0.076821
79	0xbe2e73a2	-0.17036298
80	0xbc7d5f8a	-0.015464673
81	0x3d9ffa08	0.078113616
82	0x3d3dc603	0.046331417
83	0x3dd0c943	0.101946376
84	0x3e143706	0.14474115
85	0x3dc368b9	0.09541459
86	0xbcb48200	-0.022034645
87	0x3dd673ef	0.10471331
88	0xbe75474b	-0.23952977
89	0xbdc35ddf	-0.09539389
90	0xbd1addd2	-0.0378092
91	0xbdb84ba2	-0.08998801
92	0x3dc43e86	0.09582238
93	0x3c339702	0.010961296
94	0x3d5f000b	0.0544434
95	0x3df64319	0.120245166
96	0xbe0738db	-0.13205282
97	0xbdacfcd9	-0.08446664
98	0x3cd37758	0.025813743
99	0x3d3c53bc	0.045978293
100	0x3dba2c0f	0.09090435
101	0xbd900ec1	-0.07034064
102	0xbd5a5590	-0.053304255
103	0x3e177763	0.14791636
104	0xbd4254bd	-0.047444094
105	0xbdfb7cae	-0.1227964
106	0x3df57a04	0.11986163
107	0x3df5280f	0.11970531
108	0xbd630bf5	-0.055431325
109	0xbd10c1f1	-0.035341207
110	0xbe05920f	-0.13043998
111	0xbf0e7a80	-0.5565567
112	0xbd992b30	-0.074789405
113	0xbd9aa905	-0.07551769
114	0x3e101bd2	0.14073113
115	0xbe08a2b7	-0.13343321
116	0xbcc82bda	-0.024434973
117	0x3ef2c2ab	0.47414145
118	0x3dba1198	0.09085387
119	0x3cae13a7	0.021249605
120	0x3e5dfb10	0.21677804
121	0x3d9f5e34	0.0778164
122	0xbda62c6b	-0.08113941
123	0xbe014648	-0.12624466
124	0xbe21f135	-0.1581467
125	0x3a9e15b8	0.0012060916
126	0x3e2f912c	0.17145222
127	0xbd098876	-0.033577405
128	0xbbf3dc56	-0.0074420376
129	0xbe54623d	-0.207406
130	0xbbbc7035	-0.005750681
131	0x3de586c8	0.11207348
132	0xbe327847	-0.17428695
133	0xbe40328b	-0.1876928
134	0x3d6ec1ba	0.05829022
135	0xbce012c3	-0.027352696
136	0xbc3492d7	-0.0110213375
137	0x3d016f4f	0.031600293
138	0xbdb3641e	-0.0875933
139	0xbe484648	-0.1955806
140	0xbe29265e	-0.16518542
141	0x3dee1d9f	0.116267435
142	0xbdbdd97c	-0.092699975
143	0xbe1706cd	-0.14748688
144	0xbdfec7b2	-0.124404326
145	0xbdc576d8	-0.09641808
146	0xbd5675ab	-0.05235831
147	0xbe6567ec	-0.22402924
148	0x3e0776f4	0.13228971
149	0xbc31de0f	-0.010856166
150	0xbdb69578	-0.08915228
151	0xbe11ffb5	-0.142577
152	0x3b647213	0.0034858033
153	0xbd86109c	-0.06546137
154	0x3d3eef43	0.046614897
155	0x3d18e95e	0.03733193
156	0xbe35156c	-0.17683953
157	0xbd14e0ed	-0.03634732
158	0xbd446a16	-0.047952734
159	0x3e1e1970	0.15439391
160	0xbd82fe2a	-0.06396134
161	0xbd3a2332	-0.04544372
162	0x3e1bf764	0.15231091
163	0xbe13d221	-0.14435627
164	0x3c5140ff	0.012771844
165	0x3e2e699c	0.17032474
166	0xbda25398	-0.079261005
167	0x3e2d8a3e	0.16947266
168	0x3e20a035	0.15686114
169	0x3e2868d3	0.16446237
170	0xbc8a2ffa	-0.01686858
171	0x3e23c191	0.15991808
172	0xbd9dbf4c	-0.077025026
173	0xbd77dafd	-0.060511578
174	0x3d88ef51	0.06686271
175	0x3d18f596	0.037343584
176	0x3dc79545	0.09745268
177	0x3e2c06b3	0.1679943
178	0xbde2a1db	-0.11066028
179	0x3dc024c1	0.0938201
180	0x3d724029	0.05914322
181	0x3dbf0003	0.09326174
182	0x3dabab32	0.08382262
183	0xbd876d83	-0.066126846
184	0xbe0f11d9	-0.13971652
185	0x3e10e297	0.14148937
186	0xbdce7285	-0.100804366
187	0x3de7760e	0.11301814
188	0xbe2c7268	-0.16840518
189	0xbcfa88c0	-0.030582786
190	0x3af594dd	0.0018736381
191	0x3cfa909e	0.030586537
192	0x3c6a1d4f	0.014289214
193	0x3d219439	0.039447997
194	0xbda3348a	-0.079690054
195	0x3d315469	0.04329339
196	0x3e332247	0.17493545
197	0xbe38742d	-0.18013068
198	0xbd9f1751	-0.07768119
199	0xbe12afd6	-0.14324889
200	0x3e1ed4ec	0.15510911
201	0x3e1af5b3	0.1513279
202	0xbd876adc	-0.06612179
203	0xbe0697bc	-0.1314382
204	0xbddfb102	-0.109224334
205	0x3e0186c8	0.12649071
206	0xbdb1e94e	-0.086870775
207	0x3e76b308	0.24091733
208	0x3dab0e62	0.08352353
209	0x3e1d8217	0.15381657
210	0x3e0f2c26	0.13981685
211	0xbe3a6b31	-0.18204953
212	0x3d53f064	0.051742926
213	0xbd6fca27	-0.058542397
214	0x3db5a771	0.088698275
215	0x3cd378c9	0.02581443
216	0xbd02dd35	-0.03194924
217	0xbdfa639e	-0.12226032
218	0xbe21c818	-0.15798986
219	0x3ce96625	0.02849109
220	0xbceb0ce4	-0.02869267
221	0x3c4a0eec	0.012332659
222	0x3d7d6e53	0.06187279
223	0xbd972d97	-0.073817424
224	0x3d80844c	0.062752336
225	0xbe3d0bb8	-0.18461502
226	0xbcbfadad	-0.023398245
227	0xbd254e49	-0.04035786
228	0x3dfd8b9b	0.12380143
229	0x3db7fa50	0.0898329
230	0x3d98d597	0.07462614
231	0xbd85929f	-0.065221064
232	0x3dd57de0	0.104243994
233	0xbe34dd05	-0.17662437
234	0xbe28ba5e	-0.16477343
235	0xbd3f5c3f	-0.046718832
236	0x3a813893	0.0009858779
237	0xbe0e1d06	-0.13878259
238	0xbe1f10fb	-0.15533821
239	0xbe2cceda	-0.16875783
240	0xbe8631e1	-0.2620993
241	0x3c8a1c93	0.016859328
242	0x3df6ccb2	0.12050761
243	0xbbdcbfd6	-0.006736736
244	0xbdac0439	-0.08399243
245	0xbe80b00a	-0.25134307
246	0xbe120ad0	-0.14261937
247	0xbdac4926	-0.084123895
248	0x3d1af669	0.03783265
249	0xbd929da0	-0.07158971
250	0xbdc50064	-0.09619215
251	0xbdc121c2	-0.09430267
252	0xbdaaf455	-0.08347384
253	0xbe83b5d3	-0.25724658
254	0xbe5c1451	-0.21492125
255	0x3e323198	0.17401731

phi.phi.4.bias f4 [32]
0	0xbde20a9a	-0.11037178
1	0xbe1bb9f9	-0.15207662
2	0xbd67fe82	-0.056639202
3	0x3e79b7c5	0.24386509
4	0x3d5ae1cd	0.053437997
5	0xbe0e4d13	-0.13896589
6	0x3dbca0f5	0.092103876
7	0x3ccd2cb2	0.025045726
8	0x3d9ad885	0.07560829
9	0xbdf6482a	-0.12025483
10	0xbddde9d5	-0.108356155
11	0xbdf0869d	-0.117444254
12	0x3e600c9a	0.21879807
13	0xbc1f7e28	-0.009734668
14	0xbe8c28ef	-0.2737498
15	0xbcdf36ab	-0.027247747
16	0x3ddab0c2	0.10678245
17	0xbe148a6c	-0.14505929
18	0x3dcc01f0	0.09961307
19	0xbe3b734e	-0.18305704
20	0x3dc48111	0.0959493
21	0xbe1da661	-0.153955
22	0xbda19f42	-0.07891704
23	0xbcc70d6e	-0.024298396
24	0x3da9d744	0.08293012
25	0xbc738ed6	-0.014865598
26	0xbe9d526e	-0.3072695
27	0x3e441b75	0.19151099
28	0x3e5d853e	0.21632859
29	0x3e05cd42	0.13066581
30	0x3e576114	0.21033126
31	0xbc4061e5	-0.01174209

phi.phi.6.weight f4 [7, 32]
0	0xbc62f439	-0.0138521725
1	0xbe102e59	-0.1408018
2	0xbda6b340	-0.08139658
3	0xbf5b992b	-0.8578059
4	0x3cf29270	0.029610842
5	0x3dd2d151	0.1029383
6	0x3d88a358	0.0667178
7	0x3d820858	0.06349248
8	0x3d8d13fb	0.068885766
9	0xbd45fb92	-0.04833562
10	0xbb9ccea1	-0.0047853743
11	0x3e2ec8ac	0.17068738
12	0x3e88d054	0.26721442
13	0x3e8c42b7	0.2739465
14	0xbf80a089	-1.0048991
15	0x3b4d76d8	0.0031351354
16	0x3e62debd	0.2215528
17	0xbd70d8ed	-0.058800627
18	0x3d02692e	0.03183859
19	0x3dd1f466	0.102516934
20	0x3db60d4f	0.08889257
21	0xbd5e697e	-0.054299824
22	0x3e188720	0.14895296
23	0x3cf05c58	0.029340908
24	0x3dfee5cd	0.12446175
25	0x3c73d557	0.014882407
26	0x3eaff2a5	0.3436481
27	0x3e759527	0.23982678
28	0x3d85f677	0.0654115
29	0x3c93b776	0.018031817
30	0x3e6d75dc	0.23189491
31	0x3e22b041	0.15887548
32	0x3d4e38a8	0.050347
33	0x3d2b3df8	0.041807145
34	0xbd6600b2	-0.056153007
35	0x3dcf9dfd	0.10137556
36	0xbdca22a9	-0.09869892
37	0xbdd51cb6	-0.10405867
38	0x3bf409f9	0.007447478
39	0xbc5336b8	-0.012891464
40	0x3beda800	0.007252693
41	0xbda333f7	-0.07968896
42	0xbcc02d2d	-0.023459041
43	0xbc66321a	-0.014050031
44	0xbc5c3933	-0.013441372
45	0xbe4859e4	-0.1956554
46	0xbe28b885	-0.16476639
47	0x3d877931	0.06614912
48	0xbe209ac5	-0.1568404
49	0xbc73a545	-0.014870946
50	0xbc34ff1f	-0.011047154
51	0x3ccb1e06	0.02479459
52	0x3d5ccd87	0.053906944
53	0xbd17119c	-0.036882028
54	0x3d33437f	0.04376554
55	0xbc81a02b	-0.015823444
56	0xbd09fb27	-0.033686783
57	0x3d84c034	0.06481972
58	0x3df6fcef	0.12059962
59	0xbe690344	-0.22755152
60	0xbe08e6e7	-0.13369332
61	0xbe5fee85	-0.21868332
62	0xbe05aadd	-0.1305346
63	0x3d436671	0.047705118
64	0xbe2b8423	-0.16749625
65	0xbe223255	-0.15839513
66	0x3dd1a0f4	0.102357775
67	0xbdd5cc19	-0.10439319
68	0x3e044d07	0.12920009
69	0x3d619d58	0.055081695
70	0x3d35c15f	0.044373866
71	0x3e0fcdd4	0.14043361
72	0xbe27ad66	-0.1637474
73	0x3e048f41	0.12945272
74	0x3d6ad10c	0.05732827
75	0xbdf29b08	-0.11845976
76	0x3d302d3d	0.043011893
77	0xbd49cccd	-0.04926758
78	0xbd91519e	-0.07095645
79	0xbc9cd712	-0.019145522
80	0xbdaab045	-0.08334402
81	0x3e1e4a3a	0.15458003
82	0x3e1bcdc1	0.15215208
83	0xbc9a7c59	-0.018858122
84	0xbe208613	-0.15676145
85	0xbc312ede	-0.010814397
86	0x3c3f5c45	0.011679714
87	0x3df1fe88	0.11816126
88	0x3bba5f52	0.0056876326
89	0x3d52bd65	0.051450152
90	0x3d401f8a	0.046905078
91	0xbdcd6bda	-0.10030337
92	0xbde09159	-0.10965223
93	0xbe21ca28	-0.15799773
94	0xbab5f3f4	-0.0013881908
95	0x3d6044a1	0.05475295
96	0xbc4df0ff	-0.012569665
97	0x3e2fb597	0.17159115
98	0xbdc00dcd	-0.09377632
99	0xbdec3d70	-0.11535156
100	0xbcfa9597	-0.030588908
101	0xbd4be880	-0.049782276
102	0xbdac9e84	-0.08428672
103	0x3de3ceac	0.11123404
104	0xbd8560df	-0.06512617
105	0x3dc144fc	0.09436986
106	0x3cc16502	0.023607735
107	0xbd86afb0	-0.065764785
108	0x3d8e71dc	0.06955311
109	0xbe246c3c	-0.16056913
110	0x3bbfa8e7	0.005848992
111	0x3d22c0f6	0.039734803
112	0x3c9e06b4	0.019290306
113	0xbe2704eb	-0.1631047
114	0xbd5275c8	-0.051381856
115	0xbd3b7a57	-0.04577097
116	0x3d5f7e42	0.05456377
117	0xba177469	-0.00057775393
118	0x3d911aa1	0.07085157
119	0x3dd9ade7	0.10628872
120	0xbdca0b6b	-0.09865459
121	0xbc3990ac	-0.011325996
122	0x3e113932	0.14181975
123	0xbe4f63ed	-0.20252962
124	0xbe3a9e86	-0.18224534
125	0xbd410323	-0.047122132
126	0xbe0533bc	-0.13008016
127	0xbd4c81ab	-0.04992835
128	0x3e1fe7be	0.15615746
129	0xbca7e018	-0.020492598
130	0xbe1a57e5	-0.15072592
131	0xbd2478b7	-0.040154185
132	0x3e263dfd	0.16234584
133	0xbd1f1275	-0.03883596
134	0xbd918c68	-0.071068585
135	0x3da2f695	0.07957188
136	0x3cb346ad	0.021884287
137	0xbe1f99de	-0.1558604
138	0x3e16c020	0.14721727
139	0x3dcbdf79	0.099547334
140	0x3e1a28a4	0.15054566
141	0x3d64ad44	0.0558293
142	0xbd0b6eb4	-0.03404112
143	0xbd6c5f80	-0.057708263
144	0x3d9d2efd	0.07674978
145	0xbd0c5d7d	-0.034268845
146	0x3ca697c0	0.020336032
147	0xbe2f67d5	-0.17129453
148	0xbc969c62	-0.018385116
149	0x3d867a77	0.06566327
150	0xbc0ec8ea	-0.008714894
151	0xbdae0ce3	-0.08498552
152	0xbe1de5b4	-0.15419656
153	0x3d6b2e93	0.057417464
154	0x3e261c04	0.16221625
155	0xbe2bd2a3	-0.1677957
156	0x3e354931	0.17703702
157	0x3dbb8e27	0.09157973
158	0xbd99c99f	-0.07509159
159	0xbd8a1d42	-0.06743862
160	0x3e2eebda	0.17082158
161	0x3a417cd4	0.00073809666
162	0xbcc37909	-0.023861425
163	0x3dd0557f	0.10172557
164	0x3d3efd25	0.046628136
165	0x3c4667ec	0.012109738
166	0xbdeced6a	-0.11568721
167	0xbd883481	-0.06650639
168	0xbd06987a	-0.032860257
169	0x3d85597f	0.06511211
170	0xbe030c6c	-0.12797707
171	0x3e326a0c	0.17423266
172	0xbd5a4769	-0.05329076
173	0xbe0d760e	-0.13814566
174	0x3d8f15c1	0.06986571
175	0xbe207c70	-0.15672469
176	0xbe061a1f	-0.13095902
177	0x3d87fb6b	0.06639751
178	0xbe115d78	-0.14195812
179	0x3d1516c5	0.036398668
180	0xbbad0a7f	-0.0052807922
181	0xbd814be9	-0.06313307
182	0xbe33a640	-0.17543888
183	0x3d64d859	0.055870388
184	0x3d982232	0.07428397
185	0xbe1afbe8	-0.15135157
186	0xbe20113c	-0.15631574
187	0xbe1f2463	-0.15541224
188	0xbc8250a5	-0.015907595
189	0xbcfd160d	-0.030894304
190	0x3c5adb30	0.013357922
191	0x3ca2b7b0	0.01986298
192	0xbc17d05b	-0.009265984
193	0x3dbf0eb2	0.09328975
194	0x3ddb619c	0.10711977
195	0x3e16c161	0.14722206
196	0x3dc44667	0.09583741
197	0xbd7460e5	-0.05966272
198	0xbe02206e	-0.12707683
199	0xbda9a261	-0.082829244
200	0xbc3a4742	-0.011369528
201	0x3c18ef55	0.009334405
202	0xbc811538	-0.015757188
203	0xbde9d9ab	-0.1141847
204	0xbe51b20e	-0.20478079
205	0x3dccf40d	0.100074865
206	0xbd42ac22	-0.04752744
207	0xbcc3becd	-0.023894692
208	0xbe35cc98	-0.17753828
209	0xbdb37bf7	-0.08763879
210	0xbce057ae	-0.027385559
211	0x3d987c5c	0.07445595
212	0xbe09f690	-0.13472962
213	0xbe01a4df	-0.1266055
214	0x3e0f6569	0.14003529
215	0xbdba74b9	-0.09104294
216	0xbe503b7e	-0.20335194
217	0xbce1ef4d	-0.027579928
218	0x3e2c3f76	0.16821083
219	0xbd08df50	-0.033416092
220	0xbd31b867	-0.04338875
221	0xbdb93b22	-0.09044482
222	0x3d31ed42	0.043439157
223	0xbe1c3051	-0.15252806

phi.phi.6.bias f4 [7]
0	0x3e525a42	0.20542243
1	0xbc95da4c	-0.018292569
2	0x3ca102ab	0.019654592
3	0xbd124db0	-0.03571862
4	0xbdb076f2	-0.08616437
5	0x3de54ec3	0.11196663
6	0x3cd77821	0.0263024

rho.rho.0.weight f4 [28, 7]
0	0xbe975a8a	-0.29561263
1	0xbeb42e4e	-0.35191578
2	0xbdc744bb	-0.09729906
3	0x3e809061	0.25110152
4	0xbe3e8cc4	-0.18608385
5	0x3eb35c05	0.35031143
6	0xbe429796	-0.19003138
7	0xbeaece1b	-0.3414162
8	0x3e2a408c	0.16626185
9	0xbe69e714	-0.22842056
10	0xbd740bec	-0.059581682
11	0xbdf16f96	-0.117888615
12	0xbcf6073e	-0.03003275
13	0xbea8a04f	-0.32934806
14	0xbedce653	-0.43144473
15	0x3dd1c7b3	0.10243168
16	0xbd2f6db1	-0.04282922
17	0xbe937bbb	-0.28805336
18	0xbc1dc0f0	-0.009628519
19	0xbed4f7c7	-0.4159529
20	0x3cc9409e	0.024566945
21	0x3d75ae97	0.059980955
22	0x3e9cf10f	0.30652663
23	0xbe9da75c	-0.30791748
24	0xbdd8d8c6	-0.10588221
25	0x3da4e2d3	0.08051076
26	0x3e84bd72	0.25925785
27	0xbea3285f	-0.31866738
28	0x3da53bda	0.080680564
29	0x3e1fcb09	0.15604796
30	0x3e69551d	0.22786374
31	0xbe856a10	-0.26057482
32	0x3e90d67e	0.28288645
33	0xbe75b6a6	-0.23995456
34	0xbe6e3d41	-0.23265554
35	0x3bf073bc	0.0073380154
36	0x3e853733	0.26018676
37	0xbe8026d3	-0.2502962
38	0x3e11272d	0.141751
39	0x3ce0dbe2	0.027448598
40	0x3d121306	0.035662673
41	0x3e936191	0.28785375
42	0x3d3226e0	0.043494105
43	0xbe81e8cd	-0.25372925
44	0xbde90de1	-0.113796
45	0x3e0a4fd6	0.13507017
46	0xbea773a9	-0.3270543
47	0x3c22a27a	0.009926433
48	0xbe02b3ab	-0.1276385
49	0xbd99de22	-0.075130716
50	0x3e0a7561	0.13521339
51	0xbe9bbf38	-0.30419326
52	0xbe787b81	-0.24265863
53	0x3e308752	0.1723912
54	0xbebf65a0	-0.3738222
55	0x3e852d3c	0.26011074
56	0xbec65398	-0.38735652
57	0xbd876aa7	-0.06612139
58	0x3d9ee77d	0.07758997
59	0x3db674ae	0.08908974
60	0xbe703873	-0.23459034
61	0xbd119806	-0.03554537
62	0x3da436e8	0.08018285
63	0x3e0cb457	0.13740669
64	0xbeb05e39	-0.34446886
65	0xbe406c5b	-0.18791334
66	0x3d4d0702	0.05005551
67	0xbe18daff	-0.1492729
68	0xbeb07c74	-0.3446995
69	0xbec09346	-0.3761236
70	0xbe9cccde	-0.3062505
71	0xbe5156dd	-0.20443292
72	0xbe24c9a1	-0.1609254
73	0xbe4f431f	-0.20240448
74	0xbea9c350	-0.33156824
75	0x3d2e72e2	0.04259003
76	0x3e994cff	0.29941556
77	0xbe73f9f0	-0.23825812
78	0xbcb62c28	-0.022237852
79	0xbb98ae10	-0.0046594217
80	0x3deed726	0.1166213
81	0xbe8634b7	-0.26212093
82	0xbd2c584d	-0.042076398
83	0x3e95e190	0.29273653
84	0x3e7a628e	0.24451658
85	0xbea10de6	-0.31455916
86	0xbd690e7f	-0.05689859
87	0x3d8234ce	0.06357728
88	0xbd5a2941	-0.053262
89	0xbe9e2115	-0.30884615
90	0xbe3b8c0e	-0.18315145
91	0x3e2058c8	0.15658867
92	0xbdfa9a52	-0.122364655
93	0xbcc74246	-0.024323594
94	0x3de322e7	0.110906415
95	0xbea37d30	-0.31931448
96	0x3d09fd20	0.033688664
97	0x3e6636b0	0.22481799
98	0xbe624b8f	-0.22099136
99	0x3de134c9	0.10996396
100	0xbc538391	-0.012909786
101	0x3e54ce5b	0.20781843
102	0x3e8096b9	0.25114992
103	0x3dcd5d8f	0.100276105
104	0x3c3b1cf3	0.011420476
105	0xbea69608	-0.3253634
106	0x3e1a1992	0.15048817
107	0x3e6bf663	0.23043208
108	0xbe0c94c6	-0.13728628
109	0xbec026ee	-0.375297
110	0x3e9cd1ed	0.3062891
111	0xbdb5b23f	-0.08871888
112	0xbd80bc6f	-0.06285941
113	0xbe2a4863	-0.16629176
114	0x3e76d2eb	0.24103896
115	0x3e9dfc9a	0.30856782
116	0x3e9d35f0	0.30705214
117	0xbe8b7db5	-0.27244344
118	0x3e459054	0.19293338
119	0x3e3cd8d5	0.1844209
120	0x3d170a49	0.036875043
121	0xbe9bdff7	-0.3044431
122	0xbe2630c1	-0.16229536
123	0xbebf76c5	-0.373953
124	0x3e816e64	0.25279534
125	0x3ebf4a63	0.3736144
126	0x3e4b998e	0.19882795
127	0x3e391cb7	0.1807736
128	0x3db6f1ee	0.08932863
129	0x3ed90872	0.42389256
130	0xbd9dd45c	-0.0770652
131	0xbe6a4739	-0.22878732
132	0xbe923dc6	-0.28562754
133	0xbd194d78	-0.037427396
134	0x3cd4642c	0.025926672
135	0x3dd3e4f1	0.103464015
136	0xbe86a095	-0.2629439
137	0xbd332666	-0.04373779
138	0xbe9f7578	-0.3114431
139	0xbe9d6a42	-0.3074513
140	0xbaab7b11	-0.0013082941
141	0xbebce721	-0.36895087
142	0x3dce1e46	0.10064368
143	0xbeb244b2	-0.34818035
144	0xbe5f2743	-0.21792321
145	0xbda09de1	-0.07842613
146	0xbeb8aba1	-0.36068442
147	0x3e899808	0.26873803
148	0x3ebd4435	0.369661
149	0xbe4a28f0	-0.19742179
150	0x3e0e8f75	0.13921912
151	0x3e9035f0	0.2816615
152	0x3d7bc2af	0.06146496
153	0x3d25f183	0.040513527
154	0xbeb68736	-0.35650033
155	0x3e8cb6de	0.27483267
156	0xbea9bbdd	-0.3315114
157	0xbd8f5b98	-0.06999892
158	0x3cc01135	0.023445705
159	0xbdfeef26	-0.12447958
160	0xbe0d8f63	-0.13824229
161	0xbec5e621	-0.38652137
162	0x3da59822	0.08085658
163	0xbd2fc8b0	-0.042916
164	0x3ec774a2	0.3895617
165	0xbd1ae804	-0.037818924
166	0x3e683add	0.22678705
167	0x3dce273e	0.100660786
168	0xbe6b6198	-0.22986448
169	0xbe198221	-0.14991046
170	0xbd2faf5d	-0.04289185
171	0xbd65ee44	-0.05613543
172	0xbd7f0f7d	-0.06227063
173	0x3d55aa63	0.052164447
174	0x3e809e2d	0.2512068
175	0x3d7357ae	0.05940979
176	0x3e0c3072	0.13690355
177	0x3e6f009b	0.23340075
178	0x3da6da3d	0.081470944
179	0x3e32697f	0.17423056
180	0x3e4b0511	0.19826151
181	0x3eb5229e	0.35377973
182	0xbed4979f	-0.41521928
183	0x3e41d300	0.18928146
184	0xbc8c4c13	-0.017126119
185	0xbc007245	-0.007839744
186	0xbe509a11	-0.20371272
187	0x3e214d44	0.15752131
188	0x3edc5359	0.4303234
189	0xbed9c9b9	-0.42536715
190	0x3e13a41c	0.14418072
191	0x3e8570ad	0.26062527
192	0x3bc4da86	0.0060074953
193	0xbcbaa71f	-0.022784768
194	0x3e4480d1	0.19189765
195	0xbd0126b5	-0.031531055

rho.rho.0.bias f4 [28]
0	0xbdc1127c	-0.09427354
1	0xbce4a4ce	-0.027910616
2	0x3d258b36	0.040415965
3	0xbc8f029c	-0.017457299
4	0xbdb5aff3	-0.0887145
5	0x3d8ab862	0.067734495
6	0x3dfa0003	0.122070335
7	0xbe9cc2c6	-0.3061735
8	0x3b3586de	0.0027698795
9	0x3e044aef	0.1291921
10	0x3dd03570	0.101664424
11	0xbdc1a5a7	-0.09455424
12	0x3ea206cf	0.3164582
13	0xbedbb337	-0.42910168
14	0xbe30a83d	-0.17251678
15	0xbe2eefbf	-0.17083643
16	0x3e6937d4	0.22775203
17	0xbebb2cb5	-0.36557546
18	0xbd18d33b	-0.03731082
19	0xbebb7566	-0.36613005
20	0xbd906b0c	-0.070516676
21	0x3dfc04fb	0.123056374
22	0xbdb50523	-0.088388704
23	0x3ec35ffd	0.3815917
24	0xbd710e63	-0.05885161
25	0xbe45528a	-0.19269767
26	0x3d3b8fc1	0.04579139
27	0x3da08938	0.078386724

rho.rho.2.weight f4 [28, 28]
0	0xb9c4d93f	-0.00037545894
1	0x3e258ca7	0.16166936
2	0xbd46ef4b	-0.04856805
3	0x3dac0889	0.084000655
4	0x3e1565f8	0.14589679
5	0x3df3ebdc	0.11910221
6	0xbb93547a	-0.0044961544
7	0x3d5cf838	0.053947657
8	0xbd9468b9	-0.07246537
9	0xbde3a5f4	-0.111156374
10	0x3d8a4697	0.06751745
11	0x3d14f3bb	0.036365252
12	0x3e297f58	0.16552484
13	0xba839e54	-0.0010041692
14	0x3e0336dc	0.12813896
15	0xbdb1466b	-0.08656009
16	0xbdbfdf1b	-0.09368726
17	0xbe3584fd	-0.17726512
18	0x3d0b4352	0.03399975
19	0xbe2e601f	-0.17028855
20	0xbda27341	-0.07932139
21	0xbda96bf5	-0.08272544
22	0xbe236349	-0.15955843
23	0xbd0e15da	-0.034688808
24	0xbd715573	-0.05891938
25	0xbdc6900d	-0.09695444
26	0x3e5f4584	0.21803862
27	0xbc018fca	-0.007907817
28	0x3e2087ce	0.15676805
29	0x3b8965c0	0.0041930377
30	0x3d55456c	0.05206816
31	0xbda4d5c0	-0.08048582
32	0xbdd1e442	-0.10248615
33	0xbe2a9c16	-0.16661105
34	0x3dc93d9a	0.09826203
35	0xbd6e8998	-0.05823669
36	0xbdcfe6f8	-0.10151476
37	0x3e3347ea	0.17507902
38	0x3db13174	0.086520106
39	0xbd881265	-0.066441335
40	0xbe223973	-0.15842228
41	0xbe985018	-0.29748607
42	0xbe29afe5	-0.16571005
43	0x3e2f1e4e	0.17101404
44	0x3e1aff36	0.15136418
45	0x3c7d3ed4	0.015456874
46	0xbe60c241	-0.21949102
47	0xbd4a75ad	-0.04942863
48	0xbd8b067a	-0.06788345
49	0x3d386e5e	0.04502713
50	0xbd4d87f6	-0.05017849
51	0xbd097de7	-0.033567335
52	0x3a8d3868	0.0010774257
53	0x3db57653	0.08860459
54	0x3dcefcbb	0.10106798
55	0x3cd820ed	0.026382888
56	0xbcc1ddb6	-0.02366529
57	0xbc98fe61	-0.018675985
58	0xbb586a08	-0.0033022184
59	0xbe101b13	-0.14072828
60	0x3e3cd42f	0.18440317
61	0xbda6ebf4	-0.08150473
62	0x3de12e11	0.109951146
63	0xbdd8f8aa	-0.10594304
64	0x3aa64962	0.0012686665
65	0x3d847e2d	0.064693786
66	0xbe31af2c	-0.17351979
67	0x3db1887e	0.08668612
68	0xbe142090	-0.14465547
69	0x3cd8099a	0.026371766
70	0xbd197f6e	-0.037475042
71	0x3ddddb99	0.108329006
72	0x3e3c1485	0.18367203
73	0x3d2e72fb	0.042590123
74	0xbbb0d2ba	-0.0053962143
75	0xbdbfc139	-0.09363026
76	0x3d904d05	0.0704594
77	0xbdba49f9	-0.090961404
78	0x3d9fdf23	0.07806232
79	0xbda7c07d	-0.08191011
80	0x3e03440f	0.12818931
81	0x3e146f64	0.14495617
82	0x3ded530c	0.115881056
83	0x3af81ff4	0.0018930421
84	0x3db37c3e	0.08763932
85	0xbe3056f9	-0.17220677
86	0x3daaf200	0.08346939
87	0xbe137c4d	-0.14402886
88	0x3d8d18ac	0.068894714
89	0xbdeef180	-0.11667156
90	0xbe20d573	-0.15706424
91	0xbdb5c108	-0.088747084
92	0x3d44235b	0.04788528
93	0xbe435e85	-0.19079025
94	0xbde596a9	-0.11210377
95	0x3d1081a3	0.03527988
96	0xbd902252	-0.07037796
97	0xbe22d366	-0.15900955
98	0xbe406de1	-0.18791915
99	0xbdbc2a91	-0.091878064
100	0x3db7b51e	0.08970092
101	0xbe09989e	-0.13437125
102	0x3bdd487b	0.006753025
103	0x3e0a85e8	0.13527644
104	0xbda06cdd	-0.07833264
105	0xbe335d42	-0.17516044
106	0xbe0b3947	-0.13596068
107	0xbd6a72c1	-0.057238344
108	0xbdb118de	-0.08647321
109	0x3c166eb4	0.009181667
110	0xbb1a4730	-0.0023540966
111	0xbbad766f	-0.0052936594
112	0xbd743799	-0.059623335
113	0x3c54a804	0.012979511
114	0x3d37e0bc	0.044892058
115	0x3b83d10c	0.004022723
116	0x3d1ae649	0.037817273
117	0xbd9cc8be	-0.07655476
118	0x3e1e9f17	0.15490375
119	0xbc9ecb1e	-0.019383963
120	0xbcc613db	-0.02417939
121	0xbe2daf47	-0.16961394
122	0xbe0c4660	-0.13698721
123	0x3bc0a167	0.0058786157
124	0xbcef6cf0	-0.02922675
125	0xbdc297fd	-0.09501646
126	0x3dca9812	0.09892286
127	0xbc8a993a	-0.016918767
128	0x3d881da8	0.066462815
129	0x3e22fe58	0.15917337
130	0xbdb1f03e	-0.08688401
131	0xbdbe7cfa	-0.09301181
132	0xbd1b8c24	-0.037975445
133	0xbc83192a	-0.01600321
134	0xbdc194ab	-0.09452184
135	0xbd39d79e	-0.045371644
136	0xbbb27e95	-0.0054472187
137	0x3dad9bef	0.084770076
138	0x3e330916	0.17483935
139	0x3e0f4d38	0.139943
140	0x3ca3d8fc	0.020000927
141	0xbc431e2d	-0.01190905
142	0xbca1d5e2	-0.019755308
143	0xbd8f9349	-0.07010514
144	0xbc202b13	-0.009775895
145	0xbb73562f	-0.0037130227
146	0xbe5a00d7	-0.21289383
147	0xbe24931c	-0.16071743
148	0xbd9121fb	-0.070865594
149	0xbe023536	-0.12715611
150	0xbe2d5486	-0.16926774
151	0xbe71a389	-0.2359754
152	0x3d65d3f4	0.056110337
153	0xbe1352f1	-0.14387108
154	0xbdcff1d4	-0.10153547
155	0xbd9da81c	-0.0769808
156	0xbc9e6359	-0.019334482
157	0xbe0c588a	-0.1370565
158	0xbd81cb75	-0.063376345
159	0xbb18bb4a	-0.0023304992
160	0x3e33d674	0.17562276
161	0x3a9d91f5	0.0012021648
162	0xbdfce18e	-0.12347709
163	0x3cb8a073	0.022537446
164	0x3da945b7	0.0826525
165	0x3c47564e	0.012166573
166	0x3cc78185	0.024353752
167	0xbe1170f5	-0.14203246
168	0x3d19c0d1	0.0375374
169	0x3d622eb1	0.05522031
170	0xbdb2c3cf	-0.08728754
171	0x3deef669	0.11668093
172	0xbe36f877	-0.1786822
173	0xbd916272	-0.07098855
174	0xbde3ba1d	-0.11119483
175	0xbde5c23a	-0.112186864
176	0xbdea8658	-0.11451405
177	0xbe36599d	-0.17807622
178	0x3d04d7f8	0.032432526
179	0xbd191fce	-0.037383847
180	0xbe22f1af	-0.15912507
181	0xb8a2ff47	-7.772311e-05
182	0xbd00f224	-0.031480923
183	0x3d9fa999	0.0779602
184	0xbe17946e	-0.14802715
185	0xbd59c40f	-0.05316549
186	0x3d1f549a	0.03889904
187	0x3da40f2d	0.08010707
188	0x3c6a3bc7	0.014296479
189	0x3d51c59e	0.051213853
190	0x3e41726e	0.18891308
191	0xbd8612e5	-0.065465726
192	0x3e03e41d	0.12879987
193	0x3e26b1a9	0.1627871
194	0xbe2b3062	-0.16717675
195	0x3d3b3e4e	0.045713715
196	0x3ddb3c71	0.10704888
197	0xbcf17d86	-0.0294788
198	0x3dd59ab5	0.10429899
199	0xbe08e81c	-0.13369793
200	0xbb8b635d	-0.0042537884
201	0xbe0c39ca	-0.1369392
202	0xbe87bfea	-0.26513606
203	0x3e12f702	0.14352039
204	0x3d66364c	0.056204125
205	0xb9012989	-0.00012317872
206	0x3d402874	0.04691358
207	0x3dcd84c9	0.100350924
208	0xbd479185	-0.048722763
209	0xbc72b0e9	-0.0148126865
210	0xbd33f1f4	-0.043931916
211	0x3d1fdf57	0.039031353
212	0xbe93fed6	-0.28905362
213	0x3bd38ee8	0.0064562447
214	0xbe601e07	-0.21886455
215	0x3c43c2b0	0.011948273
216	0xbe19382b	-0.14962833
217	0xbd4f6219	-0.050630663
218	0xbe328abe	-0.17435738
219	0x3da5bea2	0.08093001
220	0x3dfee2e6	0.12445621
221	0xbe315bb8	-0.17320144
222	0x3e2ed865	0.17074735
223	0xbe0fdba9	-0.14048637
224	0xbd180069	-0.037109766
225	0x3dc88fa0	0.09793019
226	0xbd7575cc	-0.059926793
227	0x3e2c75ce	0.16841814
228	0xbdaabde7	-0.08337002
229	0xbccf45a1	-0.025301756
230	0xbdfcffdc	-0.12353489
231	0xbdb38ea2	-0.087674394
232	0x3e3cd7f4	0.18441755
233	0x3e1189a6	0.14212665
234	0x3c63fb32	0.01391487
235	0x3c7e958c	0.015538584
236	0xbe2437e2	-0.16036943
237	0x3e121887	0.14267169
238	0xbce81c50	-0.028333813
239	0xbda16e20	-0.07882333
240	0xbe1a017e	-0.15039632
241	0x3e1f1b51	0.15537764
242	0x3db78707	0.08961301
243	0x3de91f6c	0.11382946
244	0x3ca04d96	0.019568246
245	0xbe0350c2	-0.12823775
246	0x3d9e8b0b	0.07741364
247	0x3cb28bc3	0.02179516
248	0x3d81e11f	0.063417666
249	0xbd40c010	-0.047058165
250	0xbdb6a5e4	-0.0891836
251	0x3e1edd6b	0.15514152
252	0x3d81bda4	0.06334999
253	0xbd9d14fc	-0.07670018
254	0x3c8a3f5d	0.016875917
255	0xbd284398	-0.041080087

rho.rho.2.bias f4 [28]
0	0x3e5eabf7	0.21745287
1	0x3e29b3aa	0.16572443
2	0xbdad87ec	-0.08473191
3	0xbcec3334	-0.02883301
4	0xbe36e9f1	-0.17862679
5	0x3dbe43f7	0.09290307
6	0xbe40da60	-0.18833303
7	0xbeac77fe	-0.33685297
8	0xbe2db50d	-0.16963597
9	0xbe33b609	-0.1754991
10	0xbe1d82af	-0.15381883
11	0xbb63942a	-0.0034725764
12	0x3da799c7	0.081836276
13	0x3d0e233f	0.034701582
14	0x3d0a5853	0.03377564
15	0xbe036921	-0.12833072
16	0xbde5a04e	-0.11212216
17	0xbe22061c	-0.15822643
18	0x3e0680a9	0.13135017
19	0xbdc78e29	-0.09743912
20	0xbd1d6dff	-0.03843498
21	0x3de7969a	0.11308022
22	0xbdca18b0	-0.0986799
23	0xbd432b92	-0.047648974
24	0xbe0101fe	-0.12598416
25	0xbe210249	-0.15723528
26	0x3e06b800	0.13156128
27	0xbd2ea4fe	-0.042637818

rho.rho.4.weight f4 [1, 28]
0	0x3e083844	0.13302714
1	0x3d2d97e9	0.0423812
2	0xb97bb362	-0.0002400405
3	0xbdc18180	-0.09448528
4	0x3b88b844	0.004172357
5	0x3cb4ac3c	0.022054784
6	0xbddcdb17	-0.107839756
7	0xbcd964c2	-0.026537303
8	0x3c21deb4	0.009879757
9	0xbe11cff0	-0.14239478
10	0xbdf6e2ec	-0.12055001
11	0x3e1beca2	0.15226987
12	0x3d558cb2	0.05213613
13	0x3e2d0e4d	0.16899987
14	0x3da2b72c	0.079450935
15	0xbdb63e4a	-0.088985994
16	0xbd9857be	-0.074386105
17	0xbd3a4656	-0.045477234
18	0x3dac0d23	0.08400943
19	0xbbb09f22	-0.005390064
20	0x3e1bb91f	0.15207337
21	0x3d4f6bea	0.050640024
22	0xbd8ae48e	-0.067818746
23	0xbd8de4b3	-0.069283865
24	0xbe20ffd2	-0.15722588
25	0xbe46516b	-0.19366996
26	0x3dd43d43	0.10363247
27	0x3aef3206	0.0018249161

exp_avg f4 [32, 3]
0	0x31b72887	5.3306084e-09
1	0xb02bea87	-6.254272e-10
2	0x30ed8276	1.7281099e-09
3	0x00000000	0.0
4	0x00000000	0.0
5	0x00000000	0.0
6	0x00000000	0.0
7	0x00000000	0.0
8	0x00000000	0.0
9	0x00000000	0.0
10	0x00000000	0.0
11	0x00000000	0.0
12	0x00000004	6e-45
13	0x00000004	6e-45
14	0x00000004	6e-45
15	0x32050749	7.743275e-09
16	0xb10a9885	-2.016834e-09
17	0xb0421b8b	-7.061593e-10
18	0x00000000	0.0
19	0x00000000	0.0
20	0x00000000	0.0
21	0x3250f197	1.2162125e-08
22	0xb080f7d4	-9.383663e-10
23	0x3189d56f	4.0114894e-09
24	0x00000000	0.0
25	0x00000000	0.0
26	0x00000000	0.0
27	0x00000000	0.0
28	0x00000000	0.0
29	0x00000000	0.0
30	0x00000000	0.0
31	0x00000000	0.0
32	0x00000000	0.0
33	0x00000000	0.0
34	0x00000000	0.0
35	0x00000000	0.0
36	0x00000000	0.0
37	0x00000000	0.0
38	0x00000000	0.0
39	0x3251e06c	1.2216429e-08
40	0x304dcfa8	7.4873663e-10
41	0x320f36b7	8.336136e-09
42	0x00000000	0.0
43	0x00000000	0.0
44	0x00000000	0.0
45	0xb189fadc	-4.015744e-09
46	0xb1095a02	-1.9987287e-09
47	0xb1dcafb1	-6.4228165e-09
48	0x00000000	0.0
49	0x00000000	0.0
50	0x00000000	0.0
51	0x31631fd2	3.3050935e-09
52	0xb09c01d8	-1.1351018e-09
53	0xb0d08e80	-1.5174493e-09
54	0x322f4988	1.020306e-08
55	0xb095e187	-1.0905276e-09
56	0x313887be	2.6852685e-09
57	0x00000000	0.0
58	0x00000000	0.0
59	0x00000000	0.0
60	0x31db1f15	6.3772725e-09
61	0x2f5a0a4d	1.9830644e-10
62	0x316f3eb6	3.4814724e-09
63	0x318ee9d7	4.1593284e-09
64	0x30aa7a05	1.2403808e-09
65	0x31b39e76	5.2276006e-09
66	0x321b161a	9.027213e-09
67	0xb0d6ba8a	-1.5623567e-09
68	0x307391a9	8.860988e-10
69	0x320387ca	7.656078e-09
70	0xafebef68	-4.291636e-10
71	0x31409733	2.8025624e-09
72	0x31bbd1ca	5.4662666e-09
73	0xb05b204d	-7.971764e-10
74	0x3087b945	9.8752e-10
75	0x322df90d	1.0126553e-08
76	0x2f3cc791	1.71694e-10
77	0x31b5a4a4	5.286511e-09
78	0x00000000	0.0
79	0x00000000	0.0
80	0x00000000	0.0
81	0x31e97573	6.794545e-09
82	0xad92ff69	-1.6711703e-11
83	0x3170969e	3.5010213e-09
84	0x00000000	0.0
85	0x00000000	0.0
86	0x00000000	0.0
87	0x00000000	0.0
88	0x00000000	0.0
89	0x00000000	0.0
90	0x30e82d68	1.6893127e-09
91	0xb118a65d	-2.2213478e-09
92	0xb18d9331	-4.120374e-09
93	0x00000000	0.0
94	0x00000000	0.0
95	0x00000000	0.0

exp_avg_sq f4 [32, 3]
0	0x2e0557d6	3.0318713e-11
1	0x2bca6b1c	1.4382692e-12
2	0x2b893aff	9.75081e-13
3	0x00000000	0.0
4	0x00000000	0.0
5	0x00000000	0.0
6	0x00000000	0.0
7	0x00000000	0.0
8	0x00000000	0.0
9	0x00000000	0.0
10	0x00000000	0.0
11	0x00000000	0.0
12	0x2d057c4a	7.587772e-12
13	0x2afa56ef	4.4469243e-13
14	0x2a13c63e	1.3125002e-13
15	0x2e2b8539	3.8999224e-11
16	0x2b9e9614	1.126823e-12
17	0x2b19fd72	5.4708245e-13
18	0x00000000	0.0
19	0x00000000	0.0
20	0x00000000	0.0
21	0x2ebe5d77	8.6568024e-11
22	0x2cafe685	4.999392e-12
23	0x2c9ce33b	4.4590143e-12
24	0x00000000	0.0
25	0x00000000	0.0
26	0x00000000	0.0
27	0x00000000	0.0
28	0x00000000	0.0
29	0x00000000	0.0
30	0x00000000	0.0
31	0x00000000	0.0
32	0x00000000	0.0
33	0x00000000	0.0
34	0x00000000	0.0
35	0x00000000	0.0
36	0x00000000	0.0
37	0x00000000	0.0
38	0x00000000	0.0
39	0x2ebb18f2	8.5082066e-11
40	0x2d175133	8.601386e-12
41	0x2d2170c2	9.176828e-12
42	0x00000000	0.0
43	0x00000000	0.0
44	0x00000000	0.0
45	0x2df70d4d	2.8086556e-11
46	0x2c8170ce	3.6789244e-12
47	0x2c9f1805	4.5217185e-12
48	0x00000000	0.0
49	0x00000000	0.0
50	0x00000000	0.0
51	0x2e801c9e	5.8258495e-11
52	0x2c26d806	2.3709936e-12
53	0x2bdfa97d	1.5892145e-12
54	0x2e6ed327	5.4302476e-11
55	0x2c4a8aa3	2.8782885e-12
56	0x2c2667c7	2.3647627e-12
57	0x00000000	0.0
58	0x00000000	0.0
59	0x00000000	0.0
60	0x2e084ded	3.0992032e-11
61	0x2c2977e4	2.4082897e-12
62	0x2c16dbc3	2.1438274e-12
63	0x2dfab02e	2.8499949e-11
64	0x2c44b1ae	2.7951907e-12
65	0x2c4f6e70	2.9477774e-12
66	0x2e9ea68a	7.2145914e-11
67	0x2c393cd5	2.632385e-12
68	0x2be63403	1.6356919e-12
69	0x2e99267f	6.964473e-11
70	0x2c887a33	3.8789193e-12
71	0x2c4db1bb	2.9230912e-12
72	0x2e642957	5.1877915e-11
73	0x2c1c77ba	2.2235395e-12
74	0x2bf22f5c	1.7208279e-12
75	0x2e850b32	6.0501285e-11
76	0x2cb0e9b7	5.0281684e-12
77	0x2cb233da	5.064821e-12
78	0x00000000	0.0
79	0x00000000	0.0
80	0x00000000	0.0
81	0x2e470bb8	4.525777e-11
82	0x2c423079	2.7595966e-12
83	0x2c339e1e	2.5525203e-12
84	0x00000000	0.0
85	0x00000000	0.0
86	0x00000000	0.0
87	0x00000000	0.0
88	0x00000000	0.0
89	0x00000000	0.0
90	0x2d45e242	1.1248393e-11
91	0x2ba2712c	1.1542204e-12
92	0x2bba7d06	1.3250796e-12
93	0x00000000	0.0
94	0x00000000	0.0
95	0x00000000	0.0

exp_avg f4 [32]
0	0x31dd0b24	6.433213e-09
1	0x00000000	0.0
2	0x00000000	0.0
3	0x00000000	0.0
4	0x00000007	1e-44
5	0x31ac7de4	5.020171e-09
6	0x00000000	0.0
7	0x3282ddb4	1.523481e-08
8	0x00000000	0.0
9	0x00000000	0.0
10	0x00000000	0.0
11	0x00000000	0.0
12	0x00000000	0.0
13	0x32b6f99b	2.1301096e-08
14	0x00000000	0.0
15	0xb255adb9	-1.2437732e-08
16	0x00000000	0.0
17	0x30334f6c	6.5232686e-10
18	0x324aaeee	1.1797722e-08
19	0x00000000	0.0
20	0x322cc657	1.0056815e-08
21	0x323693ee	1.062743e-08
22	0x320f7751	8.350825e-09
23	0x322c4d3f	1.0029281e-08
24	0x31c25ada	5.6564717e-09
25	0x3285df19	1.558469e-08
26	0x00000000	0.0
27	0x32309621	1.0278684e-08
28	0x00000000	0.0
29	0x00000000	0.0
30	0xb19fdd69	-4.6526805e-09
31	0x00000000	0.0

exp_avg_sq f4 [32]
0	0x2e80dffa	5.860552e-11
1	0x00000000	0.0
2	0x00000000	0.0
3	0x00000000	0.0
4	0x2d7aa698	1.4247846e-11
5	0x2e8c2b84	6.374193e-11
6	0x00000000	0.0
7	0x2f46b376	1.8071752e-10
8	0x00000000	0.0
9	0x00000000	0.0
10	0x00000000	0.0
11	0x00000000	0.0
12	0x00000000	0.0
13	0x2f779fbd	2.252127e-10
14	0x00000000	0.0
15	0x2eb4873c	8.209475e-11
16	0x00000000	0.0
17	0x2eed52c4	1.0792214e-10
18	0x2ef07d7e	1.0936228e-10
19	0x00000000	0.0
20	0x2e9eb694	7.2174405e-11
21	0x2ea112ba	7.324759e-11
22	0x2f0c57dc	1.276414e-10
23	0x2f1c1c61	1.41982e-10
24	0x2ed96543	9.886005e-11
25	0x2f21a548	1.4701584e-10
26	0x00000000	0.0
27	0x2ed4da31	9.6794024e-11
28	0x00000000	0.0
29	0x00000000	0.0
30	0x2de83ea1	2.640316e-11
31	0x00000000	0.0

exp_avg f4 [32, 32]
0	0x00000000	0.0
1	0x00000000	0.0
2	0x00000000	0.0
3	0x00000000	0.0
4	0x00000000	0.0
5	0x00000000	0.0
6	0x00000000	0.0
7	0x00000000	0.0
8	0x00000000	0.0
9	0x00000000	0.0
10	0x00000000	0.0
11	0x00000000	0.0
12	0x00000000	0.0
13	0x00000000	0.0
14	0x00000000	0.0
15	0x00000000	0.0
16	0x00000000	0.0
17	0x00000000	0.0
18	0x00000000	0.0
19	0x00000000	0.0
20	0x00000000	0.0
21	0x00000000	0.0
22	0x00000000	0.0
23	0x00000000	0.0
24	0x00000000	0.0
25	0x00000000	0.0
26	0x00000000	0.0
27	0x00000000	0.0
28	0x00000000	0.0
29	0x00000000	0.0
30	0x00000000	0.0
31	0x00000000	0.0
32	0x318dca9d	4.1266746e-09
33	0x00000000	0.0
34	0x00000000	0.0
35	0x00000000	0.0
36	0x00000004	6e-45
37	0x31afab53	5.1126476e-09
38	0x00000000	0.0
39	0x31d224c4	6.115984e-09
40	0x00000000	0.0
41	0x00000000	0.0
42	0x00000000	0.0
43	0x00000000	0.0
44	0x00000000	0.0
45	0x317ada69	3.650394e-09
46	0x00000000	0.0
47	0x3171707c	3.5134056e-09
48	0x00000000	0.0
49	0x326b69fb	1.37028975e-08
50	0x325258e6	1.2243822e-08
51	0x00000000	0.0
52	0x30bcef1b	1.3746758e-09
53	0xafca0651	-3.6748074e-10
54	0x31706a77	3.4985115e-09
55	0x31efe74e	6.9821118e-09
56	0x321b3908	9.035155e-09
57	0x31a9a917	4.9377706e-09
58	0x00000000	0.0
59	0x31f08dda	7.001046e-09
60	0x00000000	0.0
61	0x00000000	0.0
62	0x3187f187	3.9564756e-09
63	0x00000000	0.0
64	0x00000004	6e-45
65	0x00000000	0.0
66	0x00000000	0.0
67	0x00000000	0.0
68	0x00000004	6e-45
69	0x00000004	6e-45
70	0x00000000	0.0
71	0x00000004	6e-45
72	0x00000000	0.0
73	0x00000000	0.0
74	0x00000000	0.0
75	0x00000000	0.0
76	0x00000000	0.0
77	0x00000004	6e-45
78	0x00000000	0.0
79	0x00000004	6e-45
80	0x00000000	0.0
81	0x00000004	6e-45
82	0x00000004	6e-45
83	0x00000000	0.0
84	0x00000004	6e-45
85	0x00000004	6e-45
86	0x00000004	6e-45
87	0x00000004	6e-45
88	0x00000004	6e-45
89	0x00000004	6e-45
90	0x00000000	0.0
91	0x00000004	6e-45
92	0x00000000	0.0
93	0x00000000	0.0
94	0x00000004	6e-45
95	0x00000000	0.0
96	0x00000000	0.0
97	0x00000000	0.0
98	0x00000000	0.0
99	0x00000000	0.0
100	0x00000000	0.0
101	0x00000000	0.0
102	0x00000000	0.0
103	0x00000000	0.0
104	0x00000000	0.0
105	0x00000000	0.0
106	0x00000000	0.0
107	0x00000000	0.0
108	0x00000000	0.0
109	0x00000000	0.0
110	0x00000000	0.0
111	0x00000000	0.0
112	0x00000000	0.0
113	0x00000000	0.0
114	0x00000000	0.0
115	0x00000000	0.0
116	0x00000000	0.0
117	0x00000000	0.0
118	0x00000000	0.0
119	0x00000000	0.0
120	0x00000000	0.0
121	0x00000000	0.0
122	0x00000000	0.0
123	0x00000000	0.0
124	0x00000000	0.0
125	0x00000000	0.0
126	0x00000000	0.0
127	0x00000000	0.0
128	0x00000000	0.0
129	0x00000000	0.0
130	0x00000000	0.0
131	0x00000000	0.0
132	0x00000000	0.0
133	0x00000000	0.0
134	0x00000000	0.0
135	0x00000000	0.0
136	0x00000000	0.0
137	0x00000000	0.0
138	0x00000000	0.0
139	0x00000000	0.0
140	0x00000000	0.0
141	0x00000000	0.0
142	0x00000000	0.0
143	0x00000000	0.0
144	0x00000000	0.0
145	0x00000000	0.0
146	0x00000000	0.0
147	0x00000000	0.0
148	0x00000000	0.0
149	0x00000000	0.0
150	0x00000000	0.0
151	0x00000000	0.0
152	0x00000000	0.0
153	0x00000000	0.0
154	0x00000000	0.0
155	0x00000000	0.0
156	0x00000000	0.0
157	0x00000000	0.0
158	0x00000000	0.0
159	0x00000000	0.0
160	0x00000004	6e-45
161	0x00000000	0.0
162	0x00000000	0.0
163	0x00000000	0.0
164	0x00000004	6e-45
165	0x00000004	6e-45
166	0x00000000	0.0
167	0x00000004	6e-45
168	0x00000000	0.0
169	0x00000000	0.0
170	0x00000000	0.0
171	0x00000000	0.0
172	0x00000000	0.0
173	0x00000004	6e-45
174	0x00000000	0.0
175	0x00000004	6e-45
176	0x00000000	0.0
177	0x00000004	6e-45
178	0x00000004	6e-45
179	0x00000000	0.0
180	0x00000004	6e-45
181	0x00000004	6e-45
182	0x00000004	6e-45
183	0x00000004	6e-45
184	0x00000004	6e-45
185	0x00000004	6e-45
186	0x00000000	0.0
187	0x00000004	6e-45
188	0x00000000	0.0
189	0x00000000	0.0
190	0x00000004	6e-45
191	0x00000000	0.0
192	0x00000004	6e-45
193	0x00000000	0.0
194	0x00000000	0.0
195	0x00000000	0.0
196	0x00000004	6e-45
197	0x00000004	6e-45
198	0x00000000	0.0
199	0x00000004	6e-45
200	0x00000000	0.0
201	0x00000000	0.0
202	0x00000000	0.0
203	0x00000000	0.0
204	0x00000000	0.0
205	0x00000004	6e-45
206	0x00000000	0.0
207	0x00000004	6e-45
208	0x00000000	0.0
209	0x00000004	6e-45
210	0x00000004	6e-45
211	0x00000000	0.0
212	0x80000004	-6e-45
213	0x00000004	6e-45
214	0x00000004	6e-45
215	0x00000004	6e-45
216	0x00000004	6e-45
217	0x00000004	6e-45
218	0x00000000	0.0
219	0x00000004	6e-45
220	0x00000000	0.0
221	0x00000000	0.0
222	0x00000004	6e-45
223	0x00000000	0.0
224	0x00000004	6e-45
225	0x00000000	0.0
226	0x00000000	0.0
227	0x00000000	0.0
228	0x00000004	6e-45
229	0x00000004	6e-45
230	0x00000000	0.0
231	0x00000004	6e-45
232	0x00000000	0.0
233	0x00000000	0.0
234	0x00000000	0.0
235	0x00000000	0.0
236	0x00000000	0.0
237	0x00000004	6e-45
238	0x00000000	0.0
239	0x00000004	6e-45
240	0x00000000	0.0
241	0x00000004	6e-45
242	0x00000004	6e-45
243	0x00000000	0.0
244	0x00000004	6e-45
245	0x00000004	6e-45
246	0x00000004	6e-45
247	0x00000004	6e-45
248	0x00000004	6e-45
249	0x00000004	6e-45
250	0x00000000	0.0
251	0x00000004	6e-45
252	0x00000000	0.0
253	0x00000000	0.0
254	0x00000004	6e-45
255	0x00000000	0.0
