src/old_logs/version_136/checkpoints/epoch=999-step=12000.ckpt (torch, 60971 bytes, 39 tensors)

phi.phi.0.weight f4 [32, 3]
0.6959799 -0.34158677 -3.2604992 -0.4248946 -0.22236897 0.15482073 -0.011439145 0.45777494
-0.0512364 0.15277413 -0.1744828 -0.11348708 -0.650187 -0.44737607 -0.27704188 -0.74316233
0.6393637 -0.05173685 -0.39140946 -0.25141457 0.20970349 0.7993318 -2.5691626 0.1686167
-0.09305926 0.0610918 0.5227769 -0.5355907 -0.36346388 -0.14616501 -0.2250511 0.4988311
-0.3742267 -0.2657733 -0.40336025 -0.54072374 -0.38181958 0.46392754 0.20266901 0.4274913
0.24106967 -1.2169659 0.09767882 -0.5390689 -0.4171738 -0.7491408 0.014953235 1.3841285
-0.256052 -0.020832175 0.36925054 0.2575166 -0.23201567 -1.3121779 0.4438173 -0.8711817
-1.1181445 -0.44762284 -0.40015346 -0.29824966 0.55439746 0.114440255 -1.330206 -0.096083544
1.3594794 -0.9158499 -1.1977184 1.4245298 0.46425372 0.8950329 -1.4785789 -0.80902857
-0.08018044 0.29499316 -0.15042208 0.7412828 0.3578287 -1.80888 0.053111892 -0.36119342
-0.53806394 0.5537701 0.6530269 -1.8437927 0.10806383 -0.09726043 -0.095009424 -0.26428604
0.2220236 -0.3419666 -0.15591633 0.012935486 1.5789256 0.2158777 -0.5714239 -0.3745253
00000000: bd2b 323f 76e4 aebe 05ac 50c0 c98b d9be
00000010: b1b4 63be 5389 1e3e 406b 3bbc 7a61 ea3e
00000020: 42dd 51bd d270 1c3e 9eab 32be ea6b e8bd
00000030: a872 26bf 7a0e e5be 6fd8 8dbe e33f 3ebf
00000040: 57ad 233f 05ea 53bd d266 c8be 69b9 80be
00000050: 83bc 563e 02a1 4c3f 296d 24c0 dba9 2c3e
00000060: da95 bebd 653b 7a3d b5d4 053f 791c 09bf
00000070: f017 babe 48ac 15be cc73 66be ca66 ff3e
00000080: a49a bfbe 7013 88be 3c85 cebe df6c 0abf
00000090: db7d c3be e987 ed3e 7788 4f3e 24e0 da3e
000000a0: f8da 763e 8ac5 9bbf d50b c83d 6b00 0abf
000000b0: ce97 d5be b1c7 3fbf 6afe 743c 1f2b b13f
000000c0: 3f19 83be 3da8 aabc 680e bd3e 37d9 833e
000000d0: 8495 6dbe 72f5 a7bf 053c e33e c405 5fbf
000000e0: 5c1f 8fbf d22e e5be eae0 ccbe 2eb4 98be
000000f0: feec 0d3f a75f ea3d 3144 aabf 73c7 c4bd
00000100: 6c03 ae3f 2475 6abf d64e 99bf fe56 b63f
00000110: aab2 ed3e e020 653f 1342 bdbf 7f1c 4fbf
00000120: a435 a4bd 5809 973e 3f08 1abe b6c4 3d3f
00000130: 5335 b73e 6189 e7bf db8b 593d 58ee b8be
00000140: 8fbe 09bf e1c3 0d3f c52c 273f 6601 ecbf
00000150: 9250 dd3d 7a30 c7bd 4d94 c2bd 8050 87be
00000160: 285a 633e 3f16 afbe 88a8 1fbe 5cef 533c
00000170: 3c1a ca3f 0b0f 5d3e d648 12bf c8c1 bfbe

phi.phi.0.bias f4 [32]
0.15730822 0.12084019 -0.4503817 -0.33244953 0.45800987 0.01510666 -0.25173923 -0.19513942
-0.5499828 -0.010377374 -0.43477875 -0.445343 -0.07516886 0.045081735 -0.23644242 0.22528134
-0.3513402 -0.03673802 0.064984925 -0.48686963 -0.18280812 0.028083105 -0.013458179 0.038499884
-0.110458486 -0.04331559 -0.2817058 0.105747804 -0.5538226 -0.34219936 -0.17151642 -0.281235
00000000: 6815 213e 107b f73d 6e98 e6be d336 aabe
00000010: 4580 ea3e ed81 773c f7e3 80be a1d2 47be
00000020: accb 0cbf dc05 2abc 529b debe ff03 e4be
00000030: 22f2 99bd a0a7 383d f61d 72be 27b0 663e
00000040: dde2 b3be 9b7a 16bd d116 853d fa46 f9be
00000050: 0d32 3bbe 8a0e e63c b27f 5cbc 0eb2 1d3d
00000060: 0f38 e2bd b06b 31bd be3b 90be 4e92 d83d
00000070: 51c7 0dbf c134 afbe 00a2 2fbe 09fe 8fbe

phi.phi.2.weight f4 [32, 32]
-0.061842386 -0.14489001 -0.03760308 0.037787158 -0.11516397 -0.009072067 0.12654574 -0.018172689
0.0049130158 -0.015250331 0.03577631 0.1124016 0.16745105 0.11226308 0.16783418 -0.012784783
-0.1588023 -0.08380581 0.120368175 -0.0011459517 -0.08786621 -0.13546605 -0.16543683 -0.14920098
-0.03585681 0.0969454 0.09557274 -0.17048907 0.11027013 -0.13832943 -0.03737241 -0.07167811
-0.28577906 -0.034708813 -0.15863055 -0.1526357 0.036055673 0.076793894 -0.08030521 0.15708825
-0.15910934 -0.011930171 0.15546086 -0.072105795 0.16010973 0.17417441 -0.15953405 -0.10846005
-0.020399053 -0.21453963 -0.44729576 -0.1428524 -0.06770439 1.2632532 1.5216354 -2.307912
0.049216185 0.5141517 -0.042510323 0.43209663 -0.14567839 0.09578542 -0.40314925 0.120955005
-0.2768472 0.007884221 -0.12461592 -0.09731277 -0.16305208 -0.064739734 -0.10534356 -0.36759618
0.007436664 0.11395433 -0.13362905 -0.12135936 -0.1626394 -1.4368477 -0.06354503 0.63048285
0.06392378 -0.28904864 -0.31799108 -0.03494549 -1.5017028 -0.5026469 -0.22074147 -0.48075286
-0.08648008 -0.36313668 0.1427459 -1.9805896 -0.012693661 0.17487435 0.49765435 0.005005086
-0.15319644 0.08757126 -0.12591463 -0.050180584 -0.05931147 -0.026178397 0.0019336342 0.14580674
0.022068596 0.15833761 0.108136505 -0.11176069 0.07928507 -0.12496275 -0.074922405 0.051994037
0.058370266 0.13262284 -0.05690722 0.000282995 0.091008805 -0.17095935 0.12780613 -0.14618061
0.002436425 -0.030055001 -0.093103506 0.023364758 0.14617996 -0.051675282 -0.10495128 -0.06537888
-0.180173 0.079795934 -0.08489943 -0.117970206 -0.1018413 0.10163883 0.093616284 0.12644854
0.06412099 -0.059036292 -0.04939992 0.052225128 0.14531657 0.034612153 -0.083641075 -0.083098724
-0.1671369 0.024895348 -0.11144636 -0.15760982 0.14694987 -0.11502648 -0.02011039 0.033253796
0.005631809 -0.13772045 -0.14289244 0.12409829 0.028786086 0.14665829 -0.059262726 0.052070532
-0.9860724 -0.0078614615 -0.107664816 0.05978604 0.009043318 0.017528716 -0.03975746 -0.6505857
0.122249 -0.13159683 0.07241931 -0.059441786 -0.11171833 -0.31157687 -0.091827884 0.861104
0.03471556 -0.23098597 -0.57426214 0.07529435 -0.3258973 0.8342253 1.3659503 -2.189751
0.065741256 -0.5256158 0.06710109 -0.46427158 -0.09230423 0.0017433411 0.27801117 0.013855376
-0.12492056 0.022073295 -0.1389726 0.0138925705 -0.010376075 0.030091597 0.10390066 -0.12147015
0.082557224 -0.08599826 -0.1464928 -0.152014 0.050482176 -0.0169431 -0.122194014 -0.05257976
0.13349603 0.044198237 0.0155717265 0.13695842 -0.19958667 -0.1822952 0.0078494 -0.035231944
-0.24354304 0.01945274 0.085411176 -0.037455145 -0.11079945 0.050717197 -0.20317185 0.13812563
-0.11578123 0.06882138 0.031399403 0.07521286 -0.14256075 0.002154445 -0.12347338 -0.044260282
-0.119605675 -0.17439684 -0.14196154 0.13955991 0.014584954 0.07229236 0.14161956 -0.24155709
-0.120637916 -0.112694204 -0.19921471 0.12275311 -0.2174098 -0.17928967 -0.25494766 -0.18572144
0.061262798 0.053078197 0.12654342 0.046723217 0.15718745 -0.04526597 -0.0062900046 0.15749574
00000000: 714e 7dbd 0c5e 14be b005 1abd b5c6 1a3d
00000010: 16db ebbd 02a3 14bc 3595 013e e4de 94bc
00000020: 5dfd a03b 86dc 79bc 2e8a 123d cf32 e63d
00000030: 4a78 2b3e 30ea e53d b9dc 2b3e 4477 51bc
00000040: 129d 22be 61a2 abbd 9783 f63d c233 96ba
00000050: 33f3 b3bd 9db7 0abe 4668 29be 24c8 18be
00000060: 97de 12bd 4f8b c63d a4bb c33d b094 2ebe
00000070: 4ed5 e13d 3ba6 0dbe d013 19bd f9cb 92bd
00000080: a251 92be d42a 0ebd 0c70 22be 884c 1cbe
00000090: 1daf 133d 1e46 9d3d 0f77 a4bd bedb 203e
000000a0: 8fed 22be c476 43bc 2231 1f3e 34ac 93bd
000000b0: cef3 233e c75a 323e e55c 23be 4d20 debd
000000c0: ea1b a7bc 47b0 5bbe f303 e5be e647 12be
000000d0: 99a8 8abd 48b2 a13f f3c4 c23f d5b4 13c0
000000e0: e996 493d 729f 033f 4e1f 2ebd c53b dd3e
000000f0: b72c 15be 252b c43d 9469 cebe 42b7 f73d
00000100: ebbe 8dbe d22c 013c a236 ffbd eb4b c7bd
00000110: 20f7 26be 4496 84bd 5dbe d7bd 9135 bcbe
00000120: 42af f33b e360 e93d 0ed6 08be 428b f8bd
00000130: f18a 26be a0ea b7bf e623 82bd 5367 213f
00000140: 79ea 823d 2ffe 93be bacf a2be 0123 0fbd
00000150: cc37 c0bf 78ad 00bf 0d0a 62be 3d25 f6be
00000160: 781c b1bd 0ded b9be fb2b 123e f683 fdbf
00000170: 13f9 4fbc 4312 333e 8dcc fe3e b401 a43b
00000180: 87df 1cbe 9058 b33d c4ef 00be 288a 4dbd
00000190: 95f0 72bd 1474 d6bc ff71 fd3a 5d4e 153e
000001a0: 33c9 b43c 4123 223e ac76 dd3d cae2 e4bd
000001b0: 3660 a23d 78ec ffbd eb70 99bd b3f7 543d
000001c0: a915 6f3d 48ce 073e 8c17 69bd f25e 9439
000001d0: d362 ba3d f80f 2fbe 9cdf 023e 5fb0 15be
000001e0: 6eac 1f3b e835 f6bc 0dad bebd 7367 bf3c
000001f0: 33b0 153e 76a9 53bd b2f0 d6bd 5de5 85bd
00000200: 457f 38be 0d6c a33d c1df adbd 5d9a f1bd
00000210: 2c92 d0bd 0528 d03d e5b9 bf3d ba7b 013e
00000220: de51 833d 0ad0 71bd 9257 4abd 04ea 553d
00000230: decd 143e 79c5 0d3d 034c abbd aa2f aabd
00000240: ef25 2bbe 54f1 cb3c fd3d e4bd 7864 21be
00000250: 077a 163e 0193 ebbd 8bbe a4bc 2235 083d
00000260: 0a8b b83b 9706 0dbe 6552 12be 3f27 fe3d
00000270: ccd0 eb3c 972d 163e 79bd 72bd e947 553d
00000280: 3e6f 7cbf 5ccd 00bc 5f7f dcbd 35e2 743d
00000290: 6d2a 143c 6298 8f3c b8d8 22bd c98c 26bf
000002a0: af5d fa3d 52c1 06be 9350 943d 3b79 73bd
000002b0: 94cc e4bd 0187 9fbe 4210 bcbd 5071 5c3f
000002c0: e731 0e3d 9687 6cbe d802 13bf ed33 9a3d
000002d0: 03dc a6be ca8f 553f 76d7 ae3f e124 0cc0
000002e0: 5aa3 863d c28e 06bf 4c6c 893d 01b5 edbe
000002f0: 000a bdbd d280 e43a 7b57 8e3e a901 633c
00000300: 5ad6 ffbd 0ed3 b43c d54e 0ebe aa9d 633c
00000310: 6a00 2abc a782 f63c dfc9 d43d 58c5 f8bd
00000320: c313 a93d db1f b0bd 3502 16be 8fa9 1bbe
00000330: 66c6 4e3d 42cc 8abc db40 fabd e05d 57bd
00000340: 2fb3 083e 3609 353d 8e20 7f3c d43e 0c3e
00000350: 7360 4cbe 98ab 3abe c59a 003c 5f4f 10bd
00000360: 5963 79be 5a5b 9f3c 0eec ae3d 916a 19bd
00000370: d2ea e2bd d6bc 4f3d 480c 50be ce70 0d3e
00000380: b61e edbd 39f2 8c3d a99c 003d 3309 9a3d
00000390: 72fb 11be 9731 0d3b 9ddf fcbd 454a 35bd
000003a0: d2f3 f4bd 1695 32be 5e5e 11be cbe8 0e3e
000003b0: bbf5 6e3c 040e 943d b804 113e be5a 77be
000003c0: 0311 f7bd 38cc e6bd f1fe 4bbe fc65 fb3d
000003d0: ada0 5ebe b697 37be 8088 82be c32d 3ebe
000003e0: b3ee 7a3d 8668 593d 9994 013e d860 3f3d
000003f0: bff5 203e cf68 39bd 621c cebb 9046 213e

phi.phi.2.bias f4 [32]
-0.1485926 -0.2591616 0.04297929 -0.15139078 -0.109380394 0.28409755 -0.16382849 -0.019831717
-0.17005886 -0.055592895 -0.14921808 0.012251429 -0.26333064 -0.18903302 -0.07235212 -0.017387437
-0.11228696 -0.15163697 -0.1187142 0.07844149 -0.12672278 -0.631036 -0.16249111 -0.1421499
-0.025375998 -0.1903373 -0.04255468 0.013007293 -0.10994909 -0.1170003 -0.090857506 -0.17207612
00000000: a928 18be d4b0 84be 0d0b 303d 2f06 1bbe
00000010: d402 e0bd 3c75 913e a8c2 27be 2076 a2bc
00000020: e923 2ebe 60b5 63bd a0cc 18be 38ba 483c
00000030: 46d3 86be df91 41be 592d 94bd 1970 8ebc
00000040: b5f6 e5bd b946 1bbe 6e20 f3bd efa5 a03d
00000050: 9ec3 01be 938b 21bf 1264 26be be8f 11be
00000060: 53e1 cfbc c8e7 42be d14d 2ebd 8b1c 553c
00000070: fd2c e1bd da9d efbd 8013 babd b934 30be

phi.phi.4.weight f4 [32, 32]
-0.1127586 -0.14382377 -0.03230714 0.13775738 0.1549517 -0.15389389 -0.007659178 0.103761934
0.07792272 0.14479847 -0.0049034697 -0.11877498 0.11694317 -0.060619306 0.09153252 -0.043564226
0.075146735 0.15899755 0.16437678 -0.16087829 -0.1169343 -0.0730913 -0.11273068 0.16961725
-0.015612709 -0.11726315 -0.07866376 -0.097645186 0.07212301 -0.15419367 -0.16482714 -0.1742596
0.07610663 0.08740805 -0.10979231 0.043836832 0.13049385 0.025685892 -0.037402693 0.013060676
-0.018955356 0.089006916 -0.120033376 0.0896439 0.099635504 -0.10710452 0.14434941 0.17362738
-0.06969044 -0.04951416 0.08809764 -0.13849047 0.069907755 0.04124284 0.111427605 -0.15354943
-0.14686339 0.079395555 0.06367687 -0.16453777 -0.0985812 -0.16174687 -0.12664688 -0.07976158
0.14628951 -0.121024214 0.041488092 0.16788146 0.08056284 -0.22500329 0.011140074 -0.0046727224
0.13701352 -0.17437857 0.045002554 0.06716609 -0.1644668 -0.0414584 0.075016715 -0.21713838
-0.027332488 0.078113616 -0.013635035 0.098546475 0.14474115 0.062491987 -0.022034645 0.060110185
-0.24801983 -0.09539389 -0.0378092 -0.12472548 0.096869834 -0.004484614 0.05377587 0.120245166
-0.13205282 -0.020474454 0.025813743 0.045978293 0.09090435 -0.07034064 -0.053304255 0.14791636
-0.047444094 -0.1227964 0.11986163 0.11970531 -0.055431325 -0.035341207 -0.13043998 -0.1476251
0.06647679 -0.07551769 0.14073113 -0.14154743 -0.024434973 0.0038169238 0.09085387 0.1430708
0.11971397 0.0778164 -0.08113941 -0.12624466 -0.1581467 0.008768947 0.17145222 -0.033577405
-0.0074420376 -0.21501268 -0.0057616555 0.11207348 -0.17428695 -0.18900189 0.057526655 -0.02712665
-0.0110213375 0.031600293 -0.089616954 -0.19670253 -0.16518542 0.056375623 -0.09289944 -0.16480066
-0.12649333 -0.09641808 -0.11224964 -0.23112372 0.13228971 -0.036098666 -0.09049833 -0.14675833
0.0010547607 -0.06546137 0.046614897 -0.43302453 -0.17599367 -0.041886933 -0.049203206 0.15439391
-0.06396134 -0.16554588 1.9867619 -0.14435627 0.012770275 1.2965937 -0.079261005 0.1694702
0.15686114 0.16446237 -0.01686858 0.14336523 0.14285563 -0.060511578 -0.05659905 0.116681784
-0.31502908 0.1679943 -0.11066028 0.12806158 0.05914322 0.026080746 0.08382262 -0.24277982
-0.13971652 -0.16528176 -0.100804366 0.15706158 -0.16840518 0.6379361 -0.2584277 0.030586537
0.014289214 -0.08203528 -0.36279735 0.04329339 0.17493545 -2.1436272 -0.08002137 -0.14282583
0.15510911 0.1513279 -0.069668286 -0.13287981 -0.09313323 0.06670885 -0.0900969 0.261916
-2.0463846 0.15176117 0.08000637 -0.058413707 0.051742926 -0.0065289065 0.08706997 -0.012851275
-0.02378991 -0.42227086 -0.15798986 -0.11851362 -0.027186075 -0.7122476 0.038183887 -0.073817424
0.062752336 -0.20721458 -0.027046164 -0.04035786 0.12380143 -0.08273276 0.07333544 -0.06494451
0.104243994 -0.17662437 -0.1677124 -0.048288785 -0.05749847 -0.19869289 -0.15549766 -0.23904513
-0.26669973 0.016859328 0.06059611 -0.022290194 -0.08399243 -0.2902562 -0.14261937 -0.094239496
0.034259886 -0.07158971 -0.09619215 -0.12747175 -0.08211119 -0.261744 -0.21601908 0.17401731
00000000: fbed e6bd 8a46 13be 7e54 04bd 4510 0d3e
00000010: a9ab 1e3e 5c96 1dbe d8f9 fabb 2381 d43d
00000020: f295 9f3d 0d46 143e 49ad a0bb 4c40 f3bd
00000030: e77f ef3d f34b 78bd 6775 bb3d 6770 32bd
00000040: 88e6 993d 41d0 223e 6352 283e 47bd 24be
00000050: 407b efbd e4b0 95bd 58df e6bd 25b0 2d3e
00000060: 73cc 7fbc aa27 f0bd 771a a1bd 33fa c7bd
00000070: 3bb5 933d f2e4 1dbe 72c8 28be 1c71 32be
00000080: cbdd 9b3d fe02 b33d cada e0bd 408e 333d
00000090: 2ea0 053e 386b d23c 9133 19bd 72fc 553c
000000a0: 4348 9bbc 4249 b63d 0fd4 f5bd 3997 b73d
000000b0: b30d cc3d 9d59 dbbd 55d0 133e 60cb 313e
000000c0: ddb9 8ebd 5ccf 4abd 896c b43d 72d0 0dbe
000000d0: cc2b 8f3d 41ee 283d 2834 e43d 103c 1dbe
000000e0: 5b63 16be 239a a23d 0569 823d 977c 28be
000000f0: f1e4 c9bd f9a0 25be b8af 01be 0a5a a3bd
00000100: ebcc 153e 8bdb f7bd 6bef 293d 1ee9 2b3e
00000110: 21fe a43d 4367 66be db84 363c a31d 99bb
00000120: 464d 0c3e 4c90 32be 9954 383d 608e 893d
00000130: fc69 28be 49d0 29bd 5da2 993d 8659 5ebe
00000140: 62e8 dfbc 08fa 9f3d 7b65 5fbc bcd2 c93d
00000150: 0637 143e 99f7 7f3d 0082 b4bc 1936 763d
00000160: e9f8 7dbe df5d c3bd d2dd 1abd 1370 ffbd
00000170: b163 c63d abf3 92bb 1644 5c3d 1943 f63d
00000180: db38 07be 0bba a7bc 5877 d33c bc53 3c3d
00000190: 0f2c ba3d c10e 90bd 9055 5abd 6377 173e
000001a0: bd54 42bd ae7c fbbd 047a f53d 0f28 f53d
000001b0: f50b 63bd f1c1 10bd 0f92 05be 092b 17be
000001c0: fc24 883d 05a9 9abd d21b 103e cff1 10be
000001d0: da2b c8bc 5b25 7a3b 9811 ba3d 2781 123e
000001e0: 992c f53d 345e 9f3d 6b2c a6bd 4846 01be
000001f0: 35f1 21be a1ab 0f3c 2c91 2f3e 7688 09bd
00000200: 56dc f3bb 492c 5cbe 45cc bcbb c886 e53d
00000210: 4778 32be b689 41be 12a1 6b3d b538 debc
00000220: d792 34bc 4f6f 013d 1889 b7bd 636c 49be
00000230: 5e26 29be 20ea 663d 1042 bebd 81c1 28be
00000240: 7887 01be d876 c5bd 24e3 e5bd b2ab 6cbe
00000250: f476 073e 32dc 13bd 3057 b9bd d147 16be
00000260: e53f 8a3a 9c10 86bd 43ef 3e3d 64b5 ddbe
00000270: af37 34be a291 2bbd 4d89 49bd 7019 1e3e
00000280: 2afe 82bd dc84 29be 374e fe3f 21d2 13be
00000290: 6a3a 513c c8f6 a53f 9853 a2bd 9989 2d3e
000002a0: 35a0 203e d368 283e fa2f 8abc 56ce 123e
000002b0: bf48 123e fdda 77bd 68d4 67bd dcf6 ee3d
000002c0: 7e4b a1be b306 2c3e dba1 e2bd 9322 033e
000002d0: 2940 723d 4aa7 d53c 32ab ab3d 469b 78be
000002e0: d911 0fbe 9f3f 29be 8572 cebd c0d4 203e
000002f0: 6872 2cbe c84f 233f a350 84be 9e90 fa3c
00000300: 4f1d 6a3c 1d02 a8bd 93c0 b9be 6954 313d
00000310: 4722 333e 3031 09c0 3ee2 a3bd ef40 12be
00000320: ecd4 1e3e b3f5 1a3e 3fae 8ebd a511 08be
00000330: a3bc bebd a69e 883d b984 b8bd db19 863e
00000340: f7f7 02c0 4867 1b3e 61da a33d 3643 6fbd
00000350: 64f0 533d 70f0 d5bb be51 b23d 278e 52bc
00000360: 0fe3 c2bc e333 d8be 18c8 21be 45b7 f2bd
00000370: 55b5 debc dc55 36bf b566 1c3d 972d 97bd
00000380: 4c84 803d 0f30 54be eb8f ddbc 494e 25bd
00000390: 9b8b fd3d cb6f a9bd e430 963d a101 85bd
000003a0: e07d d53d 05dd 34be cdbc 2bbe 76ca 45bd
000003b0: 8483 6bbd 2676 4bbe c73a 1fbe 3fc8 74be
000003c0: de8c 88be 931c 8a3c a033 783d ed99 b6bc
000003d0: 3904 acbd 769c 94be d00a 12be a300 c1bd
000003e0: 1854 0c3d a09d 92bd 6400 c5bd f487 02be
000003f0: e929 a8bd 4f03 86be 1b34 5dbe 9831 323e

phi.phi.4.bias f4 [32]
-0.11037178 -0.15207662 -0.062701985 -0.085711725 -0.029360354 0.1568398 0.63113374 -0.0025719854
0.22906488 -0.11837257 -0.43147525 -0.2491643 0.13937677 0.07740819 -0.12638587 -0.027247747
-0.25973615 -0.14505929 0.69046986 -0.17277387 0.020029182 -0.15329628 0.073919766 -0.124806345
0.5264091 -0.6818723 0.032225557 -0.2676435 -0.049667995 -0.47467834 -0.12795821 -0.02330344
00000000: 9a0a e2bd f9b9 1bbe e669 80bd a189 afbd
00000010: 2085 f0bc 9d9a 203e fb91 213f c18e 28bb
00000020: fc8f 6a3e 516d f2bd 53ea dcbe ed24 7fbe
00000030: c9b8 0e3e 2f88 9e3d 4c6b 01be ab36 dfbc
00000040: 23fc 84be 6c8a 14be a2c2 303f a2eb 30be
00000050: 3d14 a43c b3f9 1cbe 3f63 973d 789a ffbd
00000060: bfc2 063f 2f8f 2ebf f2fe 033d 9208 89be
00000070: ab70 4bbd 0a09 f3be 7a07 03be dbe6 bebc

phi.phi.6.weight f4 [7, 32]
-0.0138521725 -0.1408018 -0.08080135 -0.12171021 0.02871035 0.0696249 -0.5564285 0.06383223
0.15062639 -0.050443634 -0.27594432 0.17023711 0.015981585 0.45916894 -0.01908555 0.0031351354
0.07318675 -0.058800627 -0.63840795 0.11161548 0.19243203 -0.055831566 0.32117972 0.023869371
-0.76437736 -0.037654236 0.5456565 -0.007885156 -0.119863436 0.06114303 -0.01052208 0.13982497
0.050347 0.041807145 -0.056153018 0.10137556 -0.098698996 -0.3198182 0.0014348713 -0.012891493
0.0072526857 -0.079688855 -0.023459041 -0.014050031 -0.03952022 -0.44405755 -0.16476639 0.06614912
-0.17469013 -0.014870946 -0.011869739 0.02479459 0.053906795 -0.036881987 -0.1678633 -0.015823444
-0.0339409 -0.12595664 -0.089993365 -0.25393873 -0.13720779 -0.22149725 -0.13210848 0.04770508
-0.16749625 -0.15839513 0.042315427 -0.10439319 0.0691845 -0.16721758 -0.19785242 0.08039365
-0.22378829 0.06943225 0.05732827 -0.11845976 -0.2605861 -0.27169445 -0.07095645 -0.019145522
-0.3919374 0.15458003 0.07321511 -0.018858122 -0.21678878 -0.07083731 -0.20982848 0.11816126
0.0056876326 0.051450152 -0.17521557 -0.39441115 -0.25013903 -0.29815343 -0.109465055 -0.0052553145
-0.012569665 0.17159115 -0.093776345 -0.11535156 -0.030589184 -0.16785789 -0.08469629 0.111233875
-0.0651262 0.09437041 0.023607735 -0.065764785 0.06915151 -0.18405785 0.005848992 0.039734803
0.0188344 -0.1631047 -0.05142541 -0.04577097 0.05456328 -0.0005776278 -0.046641286 0.10628872
-0.09955912 -0.11497996 0.022884302 -0.2033655 -0.18226796 -0.047224794 -0.13019003 -0.049928423
0.15615746 -0.020492598 -0.15072592 -0.08035872 0.16234584 -0.12750392 -0.117959715 0.07957188
0.021884287 -0.1558604 0.22035566 0.099547334 0.094473764 0.0324472 -0.059600953 -0.057708263
0.02743348 -0.034268845 -0.022804312 -0.17129453 -0.007062044 0.06566327 -0.15923892 -0.086418405
-0.3407794 0.028660659 -0.2678711 -0.20663768 0.13512976 0.061837543 -0.09157238 -0.048844475
0.17082158 0.00073809666 -0.020297196 0.10172557 0.03251431 0.5239854 0.15285811 -0.06519206
-0.5876284 0.0634506 -0.024896238 0.17423266 0.2460582 -0.037431754 0.06986571 -0.15672469
-0.34262767 0.06639751 -0.45319018 0.032066446 -0.23311526 -0.06863977 -0.27256843 0.056139056
0.91388124 0.018714381 -0.27724522 -0.042182375 0.09169114 -0.14891915 0.03694126 0.006496934
-0.009265984 0.09328975 0.106965765 0.14722206 0.09493612 -0.3971334 -1.705963 -0.08317297
-0.011919084 0.009998295 0.15213731 -0.113382176 -0.39224124 0.4688108 -0.045149434 -0.023894692
-0.33573642 -0.08763879 0.9779971 -0.021804301 -0.13546473 -0.12613901 0.29870522 -0.09088231
-0.22096139 -0.27948767 0.3588598 -0.20653959 -0.27081406 -0.5725535 -0.10423839 -0.15404467
00000000: 39f4 62bc 592e 10be 2e7b a5bd 3443 f9bd
00000010: f831 eb3c 8097 8e3d 1972 0ebf 79ba 823d
00000020: ce3d 1a3e fc9d 4ebd 9348 8dbe a352 2e3e
00000030: d0eb 823c 3118 eb3e 4d59 9cbc d876 4d3b
00000040: efe2 953d edd8 70bd b46e 23bf a896 e43d
00000050: e70c 453e a4af 64bd ab71 a43e b389 c33c
00000060: 3cae 43bf 543b 1abd 25b0 0b3f be30 01bc
00000070: f67a f5bd 1d71 7a3d cd64 2cbc 472e 0f3e
00000080: a838 4e3d f83d 2b3d b500 66bd fd9d cf3d
00000090: b322 cabd 36bf a3be 4b12 bc3a d736 53bc
000000a0: f0a7 ed3b e933 a3bd 2d2d c0bc 1a32 66bc
000000b0: f4df 21bd 835b e3be 85b8 28be 3179 873d
000000c0: f8e1 32be 45a5 73bc 4b79 42bc 061e cb3c
000000d0: 5fcd 5c3d 9111 17bd 5be4 2bbe 2ba0 81bc
000000e0: 9d05 0bbd c7fa 00be 714e b8bd 4204 82be
000000f0: 3380 0cbe 2dd0 62be 7247 07be 6766 433d
00000100: 2384 2bbe 5532 22be f152 2d3d 19cc d5bd
00000110: 9ab0 8d3d 163b 2bbe d399 4abe 6da5 a43d
00000120: c228 65be 7f32 8e3d 0cd1 6a3d 089b f2bd
00000130: 8b6b 85be 891b 8bbe 9e51 91bd 12d7 9cbc
00000140: 05ac c8be 3a4a 1e3e cef1 953d 597c 9abc
00000150: e1fd 5dbe 2713 91bd 47dd 56be 88fe f13d
00000160: 525f ba3b 65bd 523d b66b 33be 42f0 c9be
00000170: 3912 80be 91a7 98be 372f e0bd c634 acbb
00000180: fff0 4dbc 97b5 2f3e d00d c0bd 703d ecbd
00000190: 2b96 fabc f0e2 2bbe 4075 adbd 96ce e33d
000001a0: e360 85bd 4645 c13d 0265 c13c b0af 86bd
000001b0: 4f9f 8d3d a979 3cbe e7a8 bf3b f6c0 223d
000001c0: 9a4a 9a3c eb04 27be 73a3 52bd 577a 3bbd
000001d0: bf7d 5f3d f26b 17ba ef0a 3fbd e7ad d93d
000001e0: a7e5 cbbd 9d7a ebbd dc77 bb3c 0c3f 50be
000001f0: 74a4 3abe c96e 41bd 8950 05be bf81 4cbd
00000200: bee7 1f3e 18e0 a7bc e557 1abe 1d93 a4bd
00000210: fd3d 263e 6390 02be dd94 f1bd 95f6 a23d
00000220: ad46 b33c de99 1fbe eaa4 613e 79df cb3d
00000230: 767b c13d 5be7 043d 2120 74bd 805f 6cbd
00000240: 2dbc e03c 7d5d 0cbd 1cd0 babc d567 2fbe
00000250: b868 e7bb 777a 863d 870f 23be 22fc b0bd
00000260: a37a aebe c2c9 ea3c 6726 89be d498 53be
00000270: 755f 0a3e 5d49 7d3d 4d8a bbbd 2511 48bd
00000280: daeb 2e3e d47c 413a 4e46 a6bc 7f55 d03d
00000290: ba2d 053d e823 063f d686 1c3e 6a83 85bd
000002a0: d16e 16bf 63f2 813d 32f3 cbbc 0c6a 323e
000002b0: aef6 7b3e 0a52 19bd c115 8f3d 707c 20be
000002c0: e56c afbe 6bfb 873d 8b08 e8be 1b58 033d
000002d0: c4b5 6ebe 0293 8cbd 178e 8bbe 11f2 653d
000002e0: 1ff4 693f e74e 993c 16f3 8dbe 6dc7 2cbd
000002f0: 90c8 bb3d 437e 18be b84f 173d 3ce4 d43b
00000300: 5bd0 17bc b20e bf3d de10 db3d 61c1 163e
00000310: de6d c23d 1255 cbbe ff5c dabf 9756 aabd
00000320: 4348 43bc e4cf 233c e2c9 1b3e ea34 e8bd
00000330: d8d3 c8be f807 f03e 9dee 38bd cdbe c3bc
00000340: a5e5 abbe f77b b3bd 055e 7a3f ef9e b2bc
00000350: 44b7 0abe 962a 01be e4ef 983e 8120 babd
00000360: b443 62be 0219 8fbe 79bc b73e 1d7f 53be
00000370: 24a8 8abe de92 12bf f07a d5bd e3bd 1dbe

phi.phi.6.bias f4 [7]
0.3838168 -0.024121502 -0.1856807 -0.035790294 -0.12730101 0.45338768 -0.51204044
00000000: a383 c43e 759a c5bc 1523 3ebe d898 12bd
00000010: 325b 02be 6e22 e83e 1515 03bf

rho.rho.0.weight f4 [28, 7]
-0.32228613 -0.35191578 -0.09729906 0.25110152 -0.18608385 0.12840167 -0.19003138 -0.3414162
0.16626185 -0.22842056 -0.059581682 -0.117888615 -0.03003275 -0.32934806 -0.43143517 0.10242866
-0.101801634 -0.28805342 -0.009628519 -0.4197326 0.024016514 0.40658244 0.30282205 -0.07059807
-0.10588319 -0.13485737 0.6665471 -2.5114162 0.035099488 0.15604796 0.22786374 -0.26057482
0.23492514 -0.25181568 -0.23265554 -0.38516206 0.49247655 -0.018671533 0.14175859 0.026162451
-0.05651757 -1.1619208 0.004617962 -0.25347003 -0.32512823 0.13507028 -0.25349605 -0.23747554
-0.4895276 -0.075130716 0.13521339 -0.30419326 -0.24265863 0.1723912 -0.3738222 0.26011074
-0.38934326 -0.06612832 0.019947197 0.08908957 -0.23459034 -0.04008172 0.079212554 -0.2577036
-0.39682654 -0.52707785 0.05005425 -0.16151692 -0.674577 -0.28387398 -0.24523886 -0.067091994
0.1923456 -0.20240444 0.047296677 0.550392 0.12475162 -0.23825845 -0.022245549 -0.06206596
0.11662115 -0.26212093 -0.042095426 0.29273644 -0.07981435 -0.19778395 0.29150388 0.06358015
-0.057033412 -0.32197174 -0.3324298 0.08844807 -0.122364655 -0.024323594 0.110906415 -0.23199087
0.033688664 0.070846185 -0.22099136 0.10996396 -0.012909786 0.20781843 0.25114992 0.100276105
0.011420476 -0.3374565 0.15048817 0.23043208 -0.13728628 -0.375297 0.13256173 -0.08871888
-0.35519835 -0.15107743 0.46513543 0.30856806 0.3058193 -0.108971074 0.08647131 -0.008710125
0.036875043 -0.3044431 -0.16331099 -0.373953 0.24830483 0.10488983 0.05660772 -0.10688746
-0.14860119 0.4238779 -0.1492213 -0.92011523 -0.11546766 -0.037427396 0.025926672 0.103464015
-0.2629439 -0.04373779 -0.3114431 -0.3074513 0.017233795 -0.36895087 0.10064368 -0.34818035
-0.19546974 -0.12760563 -0.98328954 -0.08885023 0.47612748 0.15602487 0.13921683 0.23826203
-0.5074728 -1.884585 -0.35650033 0.27483267 -0.3315114 -0.06999892 0.023445705 -0.12447958
-0.13824229 -0.48439375 0.08808979 0.29668522 0.3895619 -0.04990544 0.49591458 0.34630188
-0.22999346 -0.14992163 -0.099182226 -0.056135636 -0.06227063 -0.031159773 0.2511603 -0.36832634
0.13690355 0.23340075 0.081470944 0.17423056 0.032374505 -0.3079973 -0.5807486 0.19921812
0.12314461 -0.00783901 -0.22820455 0.11853113 1.044863 -1.0965234 0.14417036 0.099381484
0.006007312 -0.017261146 0.121595964 -0.07959277
00000000: b002 a5be 4e2e b4be bb44 c7bd 6190 803e
00000010: c48c 3ebe ba7b 033e 9697 42be 1bce aebe
00000020: 8c40 2a3e 14e7 69be ec0b 74bd 966f f1bd
00000030: 3e07 f6bc 4fa0 a8be 12e5 dcbe 1ec6 d13d
00000040: 607d d0bd bd7b 93be f0c0 1dbc 31e7 d6be
00000050: 48be c43c 932b d03e 7e0b 9b3e b995 90bd
00000060: 49d9 d8bd 0d18 0abe d5a2 2a3f 0bbb 20c0
00000070: 7bc4 0f3d 09cb 1f3e 1d55 693e 106a 85be
00000080: 3790 703e fced 80be 413d 6ebe f633 c5be
00000090: e325 fc3e 0bf5 98bc 2a29 113e a352 d63c
000000a0: f87e 67bd d2b9 94bf 4652 973b d3c6 81be
000000b0: 3577 a6be dd4f 0a3e 3cca 81be ca2c 73be
000000c0: 5da3 fabe 22de 99bd 6175 0a3e 38bf 9bbe
000000d0: 817b 78be 5287 303e a065 bfbe 3c2d 853e
000000e0: 0058 c7be 496e 87bd 4e68 a33c 9874 b63d
000000f0: 7338 70be bb2c 24bd 313a a23d baf1 83be
00000100: d92c cbbe 93ee 06bf af05 4d3d b164 25be
00000110: 14b1 2cbf ee57 91be e51f 7bbe 8767 89bd
00000120: 3ff6 443e 1c43 4fbe 29ba 413d 7de6 0c3f
00000130: c77d ff3d 06fa 73be 4c3c b6bc e038 7ebd
00000140: 12d7 ee3d b734 86be 416c 2cbd 8de1 953e
00000150: b575 a3bd e087 4abe ff3f 953e 4f36 823d
00000160: de9b 69bd 7bd9 a4be 3d34 aabe 4324 b53d
00000170: 529a fabd 4642 c7bc e722 e33d 048f 6dbe
00000180: 20fd 093d ce17 913d 8f4b 62be c934 e13d
00000190: 9183 53bc 5bce 543e b996 803e 8f5d cd3d
000001a0: f31c 3b3c 19c7 acbe 9219 1a3e 63f6 6b3e
000001b0: c694 0cbe ee26 c0be 43be 073e 3fb2 b5bd
000001c0: 8fdc b5be 0bb4 1abe 3b26 ee3e a2fc 9d3e
000001d0: 5994 9c3e 3a2c dfbd df17 b13d eab4 0ebc
000001e0: 490a 173d f7df 9bbe ff3a 27be c576 bfbe
000001f0: 9f43 7e3e 7bd0 d63d 7fdd 673d d0e7 dabd
00000200: e92a 18be 8606 d93e 78cd 18be ac8c 6bbf
00000210: 4f7a ecbd 784d 19bd 2c64 d43c f1e4 d33d
00000220: 95a0 86be 6626 33bd 7875 9fbe 426a 9dbe
00000230: e32d 8d3c 21e7 bcbe 461e ce3d b244 b2be
00000240: 3829 48be 0dab 02be ddb8 7bbf 1cf7 b5bd
00000250: fbc6 f33e fcc4 1f3e db8e 0e3e f6fa 733e
00000260: bde9 01bf 153a f1bf 3687 b6be deb6 8c3e
00000270: ddbb a9be 985b 8fbd 3511 c03c 26ef febd
00000280: 638f 0dbe 7502 f8be 6b68 b43d 20e7 973e
00000290: a874 c73e a669 4cbd 84e8 fd3e 7b4e b13e
000002a0: 6883 6bbe 0e85 19be 0d20 cbbd 7bee 65bd
000002b0: 7d0f 7fbd c842 ffbc 1598 803e 4595 bcbe
000002c0: 7230 0c3e 9b00 6f3e 3dda a63d 7f69 323e
000002d0: 219b 043d d2b1 9dbe f1ab 14bf d6ff 4b3e
000002e0: 3e33 fc3d 316f 00bc 74ae 69be 73c0 f23d
000002f0: 12be 853f e15a 8cbf 65a1 133e 8588 cb3d
00000300: fcd8 c43b 3f67 8dbc 4e07 f93d 8901 a3bd

rho.rho.0.bias f4 [28]
-0.3961279 -0.027910616 0.039951436 -0.9822844 -0.13187705 0.24300832 -0.0134325735 -0.3061735
0.0008134362 0.5465211 0.332334 -0.09455426 0.15904933 -0.49279496 -0.17251678 -0.3825564
0.34221688 -0.5332271 0.29771778 -0.36613005 -0.13925022 0.20350957 -0.088388704 0.37025884
-0.06018859 -0.5621812 0.014077925 -0.2230936
00000000: 47d1 cabe cea4 e4bc 1ea4 233d fe76 7bbf
00000010: c70a 07be 2cd7 783e 4c14 5cbc c6c2 9cbe
00000020: c83c 553a cfe8 0b3f af27 aa3e aaa5 c1bd
00000030: d4dd 223e 9f4f fcbe 3da8 30be 6fde c3be
00000040: 0d37 af3e 9281 08bf 776e 983e 6675 bbbe
00000050: 9c97 0ebe d064 503e 2305 b5bd 9192 bd3e
00000060: 5088 76bd 1beb 0fbf 19a7 663c a672 64be

rho.rho.2.weight f4 [28, 28]
0.0021749882 0.16166936 -0.04879909 -0.90075743 0.15916763 0.0906899 -0.09192936 0.053947657
-0.072054096 -0.4211644 0.21405165 0.036364343 -0.07735222 -0.002554408 0.12813896 -0.050326016
0.0990933 -0.27119946 -0.40487337 -0.17028855 0.13277282 -0.22270118 -0.15955843 0.03238588
-0.05902121 -0.2801831 0.15465184 -0.20546752 0.15833122 0.0041930377 0.05176829 0.13559511
-0.090467945 -0.27220568 -0.06668087 -0.05823669 -0.10117914 -0.092224985 0.008682409 -0.06645013
-0.23998968 -0.2705751 -0.16571005 0.1864035 -0.09500218 0.011633957 -0.49486053 -0.04942863
-0.11843554 -0.10865251 -0.05017849 -0.47482875 0.0010844435 0.11557103 -0.10461465 0.019391289
-0.02366529 -0.018675985 -0.0033022184 -0.14072828 0.18440317 -0.08150473 0.109951146 -0.10594304
0.0012686665 0.064693786 -0.17351979 0.08668612 -0.14465547 0.026371766 -0.037475042 0.108329006
0.18367203 0.042590123 -0.0053962143 -0.09363026 0.0704594 -0.090961404 0.07806232 -0.08191011
0.12818931 0.14495617 0.115881056 0.0018930421 0.08763932 -0.17220677 0.083674185 -0.14601424
0.068894714 -0.11872841 -0.15956028 -0.088747084 0.047486674 -0.19310787 -0.11225837 0.035280507
-0.07275394 -0.15900955 -0.18791915 -0.091878064 0.08766208 -0.13437125 0.00456719 0.13527644
-0.07833264 -0.1774541 -0.13596068 -0.059430998 -0.08647672 0.009181667 -0.0041378615 -0.0072312867
-0.059623335 0.012979511 0.044892058 0.004022723 0.037817273 -0.07655476 0.15490375 -0.019383963
-0.02417939 -0.16961394 -0.13698721 0.0058786157 -0.02922675 -0.09501646 0.09892286 -0.016918767
0.066462815 0.15917337 -0.08688401 -0.09301181 -0.037975445 -0.01600321 -0.09452184 -0.045371644
-0.0054472187 0.084770076 0.17483935 0.139943 0.018641526 -0.01190905 -0.019581368 -0.17875034
0.036864363 -0.029690655 -0.08347163 -0.16071743 -0.071232505 -0.25372243 -0.08367178 -0.23597275
-0.053166326 -0.0075297924 -0.10153547 -0.071272306 -0.08653003 -0.10032299 -0.5030117 -0.0023304992
0.26722008 0.030490115 -0.12347709 -0.040205244 0.08264958 0.012166573 -0.33571357 -0.14354324
0.0375374 0.05522031 -0.08728754 0.11668093 -0.1786822 -0.07098855 -0.11119483 -0.112186864
-0.11451405 -0.17807622 0.032432526 -0.037383847 -0.15912507 -7.772311e-05 -0.031480923 0.0779602
-0.14802715 -0.05316549 0.03889904 0.08010707 0.014296479 0.051213853 0.18891308 -0.065465726
0.12879987 0.1627871 -0.16717675 0.045713715 0.10704888 -0.0294788 0.10429899 -0.07023817
0.143869 -0.05265384 -0.22096725 0.14352039 0.056204125 0.058770273 0.04691358 0.100350924
0.008586592 0.031822093 -0.043931916 0.039031353 -0.13176787 -0.060131982 -0.16590366 0.011948273
-0.14962833 0.00678592 -0.17435738 0.08093001 0.12445621 -0.17320144 0.17074735 -0.14048637
-0.037109766 0.09793019 -0.059926793 0.16841814 -0.08337002 -0.025301756 -0.12353489 -0.087674394
0.18441755 0.14212665 0.01391487 0.015538584 -0.16036943 0.14267169 -0.028333813 -0.07882333
-0.15039632 0.15537764 0.08961301 0.11382946 0.019568246 -0.12823775 0.07741364 0.02179516
0.063417666 -0.047058165 -0.0891836 0.15514152 0.06334999 -0.07670018 0.016875917 -0.041080087
00000000: 3f8a 0e3b a78c 253e 8ee1 47bd 0a98 66bf
00000010: d7fc 223e a0bb b93d 7645 bcbd 38f8 5c3d
00000020: 1991 93bd dca2 d7be 5b30 5b3e c7f2 143d
00000030: d76a 9ebd db67 27bb dc36 033e a722 4ebd
00000040: 6ef1 ca3d a8da 8abe 904b cfbe 1f60 2ebe
00000050: 99f5 073e c70b 64be 4963 23be 0ea7 043d
00000060: 39c0 71bd 2974 8fbe 0d5d 1e3e 1466 52be
00000070: 9421 223e c065 893b fd0a 543d 72d9 0a3e
00000080: 4247 b9bd 8b5e 8bbe fb8f 88bd 9889 6ebd
00000090: 0237 cfbd 74e0 bcbd aa40 0e3c 0117 88bd
000000a0: dbbf 75be d288 8abe e5af 29be 8fe0 3e3e
000000b0: 8190 c2bd 5a9c 3e3c 5c5e fdbe ad75 4abd
000000c0: 558e f2bd 3585 debd f687 4dbd c11c f3be
000000d0: e323 8e3a 81b0 ec3d 3540 d6bd 7bda 9e3c
000000e0: b6dd c1bc 61fe 98bc 086a 58bb 131b 10be
000000f0: 2fd4 3c3e f4eb a6bd 112e e13d aaf8 d8bd
00000100: 6249 a63a 2d7e 843d 2caf 31be 7e88 b13d
00000110: 9020 14be 9a09 d83c 6e7f 19bd 99db dd3d
00000120: 8514 3c3e fb72 2e3d bad2 b0bb 39c1 bfbd
00000130: 054d 903d f949 babd 23df 9f3d 7dc0 a7bd
00000140: 0f44 033e 646f 143e 0c53 ed3d f41f f83a
00000150: 3e7c b33d f956 30be 5f5d ab3d c284 15be
00000160: ac18 8d3d e127 f3bd c563 23be 08c1 b5bd
00000170: 6381 423d 12be 45be b7e7 e5bd 4b82 103d
00000180: 0500 95bd 66d3 22be e16d 40be 912a bcbd
00000190: 2d88 b33d 9e98 09be 5ea8 953b e885 0a3e
000001a0: dd6c a0bd 87b6 35be 4739 0bbe eb6d 73bd
000001b0: b51a b1bd b46e 163c e696 87bb 6ef4 ecbb
000001c0: 9937 74bd 04a8 543c bce0 373d 0cd1 833b
000001d0: 49e6 1a3d bec8 9cbd 179f 1e3e 1ecb 9ebc
000001e0: db13 c6bc 47af 2dbe 6046 0cbe 67a1 c03b
000001f0: f06c efbc fd97 c2bd 1298 ca3d 3a99 8abc
00000200: a81d 883d 58fe 223e 3ef0 b1bd fa7c bebd
00000210: 248c 1bbd 2a19 83bc ab94 c1bd 9ed7 39bd
00000220: 957e b2bb ef9b ad3d 1609 333e 384d 0f3e
00000230: 1db6 983c 2d1e 43bc 1b69 a0bc 540a 37be
00000240: 16ff 163d d139 f3bc 2df3 aabd 1c93 24be
00000250: 59e2 91bd e8e7 81be 1c5c abbd d7a2 71be
00000260: efc4 59bd 7abc f6bb d4f1 cfbd 37f7 91bd
00000270: a836 b1bd 2476 cdbd 60c5 00bf 4abb 18bb
00000280: 12d1 883e 68c6 f93c 8ee1 fcbd 41ae 24bd
00000290: 2f44 a93d 4e56 473c a6e2 abbe 00fd 12be
000002a0: d1c0 193d b12e 623d cfc3 b2bd 69f6 ee3d
000002b0: 77f8 36be 7262 91bd 1dba e3bd 3ac2 e5bd
000002c0: 5886 eabd 9d59 36be f8d7 043d ce1f 19bd
000002d0: aff1 22be 47ff a2b8 24f2 00bd 99a9 9f3d
000002e0: 6e94 17be 0fc4 59bd 9a54 1f3d 2d0f a43d
000002f0: c73b 6a3c 9ec5 513d 6e72 413e e512 86bd
00000300: 1de4 033e a9b1 263e 6230 2bbe 4e3e 3b3d
00000310: 713c db3d 867d f1bc b59a d53d 08d9 8fbd
00000320: 6552 133e 8eab 57bd 3d45 62be 02f7 123e
00000330: 4c36 663d 19b9 703d 7428 403d c984 cd3d
00000340: c7ae 0c3c e257 023d f4f1 33bd 57df 1f3d
00000350: 28ee 06be f44c 76bd a6e2 29be b0c2 433c
00000360: 2b38 19be 6c5c de3b be8a 32be a2be a53d
00000370: e6e2 fe3d b85b 31be 65d8 2e3e a9db 0fbe
00000380: 6900 18bd a08f c83d cc75 75bd ce75 2c3e
00000390: e7bd aabd a145 cfbc dcff fcbd a28e b3bd
000003a0: f4d7 3c3e a689 113e 32fb 633c 8c95 7e3c
000003b0: e237 24be 8718 123e 501c e8bc 206e a1bd
000003c0: 7e01 1abe 511b 1f3e 0787 b73d 6c1f e93d
000003d0: 964d a03c c250 03be 0b8b 9e3d c38b b23c
000003e0: 1fe1 813d 10c0 40bd e4a5 b6bd 6bdd 1e3e
000003f0: a4bd 813d fc14 9dbd 5d3f 8a3c 9843 28bd

rho.rho.2.bias f4 [28]
0.040856075 -0.05077098 -0.08473191 -0.03099586 -0.17862679 0.007943533 -0.18833303 -0.2801233
-0.16963597 -0.1754991 -0.08161525 0.014483345 -0.08124618 -0.035707556 -0.068003945 -0.12833072
-0.11212216 -0.46787733 -0.05914672 -0.4830357 -0.2706298 -0.15083686 -0.099963896 -0.17463988
-0.38337108 -0.4428253 -0.06469881 -0.042637818
00000000: b358 273d 3bf5 4fbd ec87 adbd 08eb fdbc
00000010: f1e9 36be 9825 023c 60da 40be 526c 8fbe
00000020: 0db5 2dbe 09b6 33be e525 a7bd 8d4b 6d3c
00000030: 6664 a6bd 1642 12bd a745 8bbd 2169 03be
00000040: 4ea0 e5bd 9e8d efbe d543 72bd 7550 f7be
00000050: fd8f 8abe fa74 1abe dfb9 ccbd ccd4 32be
00000060: 3749 c4be ffb9 e2be cf80 84bd fea4 2ebd

rho.rho.4.weight f4 [1, 28]
0.087299034 -0.02032526 -0.0002400405 -0.093628325 0.004172357 0.0057739955 -0.107839756 -0.0026644692
0.009879757 -0.14239478 -0.014649589 0.13313948 0.025848132 0.014602003 0.019860752 -0.08898594
-0.074386105 0.13923225 0.015922487 -0.17147462 0.14852391 -0.015941845 -0.06653133 -0.06926536
0.054991815 -0.14795806 0.024444364 0.0018249161
00000000: d6c9 b23d 2981 a6bc 62b3 7bb9 35c0 bfbd
00000010: 44b8 883b c933 bd3b 17db dcbd 609e 2ebb
00000020: b4de 213c f0cf 11be d404 70bc b755 083e
00000030: 76bf d33c 3d3d 6f3c 04b3 a23c 433e b6bd
00000040: be57 98bd e692 0e3e e06f 823c 0b97 2fbe
00000050: a716 183e 7998 82bc 9441 88bd ffda 8dbd
00000060: 193f 613d 5182 17be 8c3f c83c 0632 ef3a

exp_avg f4 [32, 3]
-6.11506e-06 -2.564717e-06 -5.4642584e-07 0.0 0.0 0.0 0.0 0.0
0.0 0.0 0.0 0.0 6e-45 6e-45 6e-45 6e-45
6e-45 6e-45 0.0 0.0 0.0 -3.4474866e-07 -1.9317791e-07 -2.2853233e-07
0.0 0.0 0.0 0.0 0.0 0.0 0.0 0.0
0.0 0.0 0.0 0.0 6e-45 6e-45 6e-45 1.0969078e-06
1.1491636e-06 5.0728937e-07 0.0 0.0 0.0 2.2983875e-06 1.5600116e-07 1.020127e-06
0.0 0.0 0.0 -6.197284e-08 7.1910473e-09 -3.0354812e-09 -8.635569e-08 -1.9971427e-08
-5.3405994e-08 0.0 0.0 0.0 -1.5851282e-06 -8.366995e-07 -1.4739419e-07 -5.018299e-06
-1.2945977e-06 -2.9081416e-06 -5.1711834e-07 -4.9329816e-07 -5.271913e-08 1.2301915e-06 8.100782e-07 -5.969993e-08
6e-45 6e-45 6e-45 -2.6530913e-06 3.6501336e-07 -1.6318455e-06 0.0 0.0
0.0 -8.2394075e-07 1.5543759e-06 -4.265554e-07 0.0 0.0 0.0 0.0
0.0 0.0 2.7727424e-06 4.651577e-07 1.3611032e-06 0.0 0.0 0.0
00000000: f72f cdb6 811d 2cb6 19ae 12b5 0000 0000
00000010: 0000 0000 0000 0000 0000 0000 0000 0000
00000020: 0000 0000 0000 0000 0000 0000 0000 0000
00000030: 0400 0000 0400 0000 0400 0000 0400 0000
00000040: 0400 0000 0400 0000 0000 0000 0000 0000
00000050: 0000 0000 e515 b9b4 576c 4fb4 7d62 75b4
00000060: 0000 0000 0000 0000 0000 0000 0000 0000
00000070: 0000 0000 0000 0000 0000 0000 0000 0000
00000080: 0000 0000 0000 0000 0000 0000 0000 0000
00000090: 0400 0000 0400 0000 0400 0000 7739 9335
000000a0: f63c 9a35 a92c 0835 0000 0000 0000 0000
000000b0: 0000 0000 ff3d 1a36 4681 2734 4ceb 8835
000000c0: 0000 0000 0000 0000 0000 0000 ee15 85b3
000000d0: 1f15 f731 c098 50b1 8b72 b9b3 a28d abb2
000000e0: 8360 65b3 0000 0000 0000 0000 0000 0000
000000f0: 97c0 d4b5 8d99 60b5 6843 1eb4 dc62 a8b6
00000100: 0ac2 adb5 7e29 43b6 1ad0 0ab5 316b 04b5
00000110: 4c6d 62b3 0f1d a535 2674 5935 6234 80b3
00000120: 0400 0000 0400 0000 0400 0000 c30b 32b6
00000130: 0ef7 c334 c905 dbb5 0000 0000 0000 0000
00000140: 0000 0000 c72c 5db5 f39f d035 5401 e5b4
00000150: 0000 0000 0000 0000 0000 0000 0000 0000
00000160: 0000 0000 0000 0000 5a13 3a36 caba f934
00000170: 26af b635 0000 0000 0000 0000 0000 0000

exp_avg_sq f4 [32, 3]
5.487799e-10 1.3465458e-10 7.0691786e-12 0.0 0.0 0.0 0.0 0.0
0.0 0.0 0.0 0.0 7.4472784e-17 9.306772e-18 3.7032367e-18 4.803527e-14
2.920703e-14 1.3947196e-14 0.0 0.0 0.0 1.0438015e-09 8.967075e-12 1.2555414e-10
0.0 0.0 0.0 0.0 0.0 0.0 0.0 0.0
0.0 0.0 0.0 0.0 6.895502e-17 4.266577e-17 1.2151178e-17 8.0774354e-10
2.2433701e-10 1.2086428e-10 0.0 0.0 0.0 9.642684e-09 2.3493847e-09 1.6184283e-09
0.0 0.0 0.0 1.4138325e-11 3.634879e-12 7.167498e-13 2.1790134e-11 2.4872459e-12
1.5319741e-12 0.0 0.0 0.0 4.1935212e-11 1.2228492e-11 7.831092e-13 3.8724797e-09
1.0908942e-09 4.0914497e-10 3.3919192e-10 2.3980046e-10 7.986963e-11 3.6810994e-09 3.2641065e-10 4.5912846e-10
1.8053782e-14 5.324611e-15 2.6760973e-15 1.0642229e-08 2.008517e-09 1.2013093e-09 0.0 0.0
0.0 7.1953608e-09 1.6233337e-09 9.000513e-10 0.0 0.0 0.0 0.0
0.0 0.0 3.763802e-09 7.7267476e-10 6.2763855e-10 0.0 0.0 0.0
00000000: f4d8 1630 e50d 142f 80b9 f82c 0000 0000
00000010: 0000 0000 0000 0000 0000 0000 0000 0000
00000020: 0000 0000 0000 0000 0000 0000 0000 0000
00000030: f9b8 ab24 fdad 2b23 15a0 8822 e554 5829
00000040: 6a89 0329 1740 7b28 0000 0000 0000 0000
00000050: 0000 0000 8075 8f30 1ec0 1d2d 590c 0a2f
00000060: 0000 0000 0000 0000 0000 0000 0000 0000
00000070: 0000 0000 0000 0000 0000 0000 0000 0000
00000080: 0000 0000 0000 0000 0000 0000 0000 0000
00000090: dcff 9e24 dac2 4424 5126 6023 e607 5e30
000000a0: 41a9 762f 45e4 042f 0000 0000 0000 0000
000000b0: 0000 0000 f9a8 2532 d072 2131 626f de30
000000c0: 0000 0000 0000 0000 0000 0000 5bb9 782d
000000d0: 29c8 7f2c 44bf 492b 05ab bf2d 3d06 2f2c
000000e0: 2f9b d72b 0000 0000 0000 0000 0000 0000
000000f0: da6e 382e 3b20 572d f76c 5c2b b10e 8531
00000100: 6dee 9530 09ee e02f 0579 ba2f ead4 832f
00000110: 9ba2 af2e 96f6 7c31 3772 b32f 9668 fc2f
00000120: 309d a228 ded6 bf27 48d5 4027 05d5 3632
00000130: 3406 0a31 501b a530 0000 0000 0000 0000
00000140: 0000 0000 103b f731 fa1b df30 7b67 7730
00000150: 0000 0000 0000 0000 0000 0000 0000 0000
00000160: 0000 0000 0000 0000 c152 8131 2764 5430
00000170: 2386 2c30 0000 0000 0000 0000 0000 0000

exp_avg f4 [32]
-9.226204e-06 0.0 0.0 0.0 6e-45 6e-45 0.0 -7.664593e-07
0.0 0.0 0.0 0.0 6e-45 2.753361e-06 0.0 3.4745144e-06
0.0 -5.781725e-08 -1.59733e-07 0.0 -2.5692223e-06 -9.221037e-06 -1.0631368e-06 1.9805702e-06
6e-45 -3.9199226e-06 0.0 3.0388213e-07 0.0 0.0 4.599004e-06 0.0
00000000: 3fca 1ab7 0000 0000 0000 0000 0000 0000
00000010: 0400 0000 0400 0000 0000 0000 afbe 4db5
00000020: 0000 0000 0000 0000 0000 0000 0000 0000
00000030: 0400 0000 62c6 3836 0000 0000 b42b 6936
00000040: 0000 0000 bd52 78b3 1383 2bb4 0000 0000
00000050: e76a 2cb6 0db4 1ab7 1ab1 8eb5 f0e9 0436
00000060: 0400 0000 e187 83b6 0000 0000 3e25 a334
00000070: 0000 0000 0000 0000 2551 9a36 0000 0000

exp_avg_sq f4 [32]
1.34981e-09 0.0 0.0 0.0 1.7454146e-16 2.501764e-13 0.0 2.1494322e-09
0.0 0.0 0.0 0.0 3.2653178e-16 2.9071057e-09 0.0 3.462764e-08
0.0 3.8559544e-11 4.9541305e-11 0.0 1.1074272e-10 1.3111756e-08 1.7621145e-09 9.6299795e-09
6.3411326e-14 3.3067774e-08 0.0 2.3831719e-08 0.0 0.0 1.2895593e-08 0.0
00000000: 3884 b930 0000 0000 0000 0000 0000 0000
00000010: 8c3b 4925 38d6 8c2a 0000 0000 36b5 1331
00000020: 0000 0000 0000 0000 0000 0000 0000 0000
00000030: 963b bc25 58c6 4731 0000 0000 7eb9 1433
00000040: 0000 0000 3096 292e 8de2 592e 0000 0000
00000050: 9c86 f32e 1d42 6132 e42e f230 1971 2532
00000060: 24ca 8e29 6706 0e33 0000 0000 81b6 cc32
00000070: 0000 0000 0000 0000 6b8b 5d32 0000 0000

exp_avg f4 [32, 32]
0.0 0.0 0.0 0.0 0.0 0.0 0.0 0.0
0.0 0.0 0.0 0.0 0.0 0.0 0.0 0.0
0.0 0.0 0.0 0.0 0.0 0.0 0.0 0.0
0.0 0.0 0.0 0.0 0.0 0.0 0.0 0.0
-1.8882473e-10 0.0 0.0 0.0 6e-45 -6e-45 0.0 -6e-45
0.0 0.0 0.0 0.0 6e-45 2.6188378e-08 0.0 8.24329e-08
0.0 5.884938e-10 1.1451337e-09 0.0 1.617565e-09 8.7749925e-08 3.034815e-08 2.526024e-09
6e-45 1.6192953e-08 0.0 5.2738997e-08 0.0 0.0 4.944153e-08 0.0
-6e-45 0.0 0.0 0.0 6e-45 6e-45 0.0 1.7372189e-31
0.0 0.0 0.0 0.0 6e-45 -1.0874301e-08 0.0 1.0449436e-06
0.0 6e-45 6e-45 0.0 -6e-45 4.073858e-07 4.1925344e-07 2.1260616e-08
-6e-45 -2.112561e-33 0.0 -3.741639e-08 0.0 0.0 7.3629377e-07 0.0
0.0 0.0 0.0 0.0 0.0 0.0 0.0 0.0
0.0 0.0 0.0 0.0 0.0 0.0 0.0 0.0
0.0 0.0 0.0 0.0 0.0 0.0 0.0 0.0
0.0 0.0 0.0 0.0 0.0 0.0 0.0 0.0
6e-45 0.0 0.0 0.0 0.0 0.0 0.0 6e-45
0.0 0.0 0.0 0.0 0.0 6e-45 0.0 0.0
0.0 6e-45 6e-45 0.0 6e-45 6e-45 0.0 6e-45
0.0 6e-45 0.0 6e-45 0.0 0.0 0.0 0.0
1.2904839e-08 0.0 0.0 0.0 6e-45 6e-45 0.0 1.14409e-40
0.0 0.0 0.0 0.0 6e-45 -2.9426545e-07 0.0 -3.3108412e-07
0.0 -8.796634e-12 -6e-45 0.0 5.8671694e-09 -8.157431e-07 -4.6951723e-08 -1.258123e-07
6e-45 -1.8054654e-07 0.0 -1.0743997e-06 0.0 0.0 -1.6826898e-07 0.0
6e-45 0.0 0.0 0.0 6e-45 6e-45 0.0 6e-45
0.0 0.0 0.0 0.0 6e-45 6e-45 0.0 6e-45
0.0 6e-45 6e-45 0.0 6e-45 6e-45 6e-45 6e-45
6e-45 6e-45 0.0 6e-45 0.0 0.0 6e-45 0.0
6e-45 0.0 0.0 0.0 6e-45 6e-45 0.0 6e-45
0.0 0.0 0.0 0.0 6e-45 6e-45 0.0 6e-45
0.0 6e-45 6e-45 0.0 6e-45 6e-45 6e-45 6e-45
6e-45 6e-45 0.0 6e-45 0.0 0.0 6e-45 0.0
00000000: 0000 0000 0000 0000 0000 0000 0000 0000
00000010: 0000 0000 0000 0000 0000 0000 0000 0000
00000020: 0000 0000 0000 0000 0000 0000 0000 0000
00000030: 0000 0000 0000 0000 0000 0000 0000 0000
00000040: 0000 0000 0000 0000 0000 0000 0000 0000
00000050: 0000 0000 0000 0000 0000 0000 0000 0000
00000060: 0000 0000 0000 0000 0000 0000 0000 0000
00000070: 0000 0000 0000 0000 0000 0000 0000 0000
00000080: 709d 4faf 0000 0000 0000 0000 0000 0000
00000090: 0400 0000 0400 0080 0000 0000 0400 0080
000000a0: 0000 0000 0000 0000 0000 0000 0000 0000
000000b0: 0400 0000 daf4 e032 0000 0000 f705 b133
000000c0: 0000 0000 92c3 2130 cf62 9d30 0000 0000
000000d0: 0251 de30 0871 bc33 2558 0233 4996 2d31
000000e0: 0400 0000 ae18 8b32 0000 0000 2483 6233
000000f0: 0000 0000 0000 0000 8a59 5433 0000 0000
00000100: 0400 0080 0000 0000 0000 0000 0000 0000
00000110: 0400 0000 0400 0000 0000 0000 0081 610c
00000120: 0000 0000 0000 0000 0000 0000 0000 0000
00000130: 0400 0000 aed1 3ab2 0000 0000 fd3f 8c35
00000140: 0000 0000 0400 0000 0400 0000 0000 0000
00000150: 0400 0080 aeb6 da34 c115 e134 97a0 b632
00000160: 0400 0080 3481 2f89 0000 0000 c2b3 20b3
00000170: 0000 0000 0000 0000 b9a5 4535 0000 0000
00000180: 0000 0000 0000 0000 0000 0000 0000 0000
00000190: 0000 0000 0000 0000 0000 0000 0000 0000
000001a0: 0000 0000 0000 0000 0000 0000 0000 0000
000001b0: 0000 0000 0000 0000 0000 0000 0000 0000
000001c0: 0000 0000 0000 0000 0000 0000 0000 0000
000001d0: 0000 0000 0000 0000 0000 0000 0000 0000
000001e0: 0000 0000 0000 0000 0000 0000 0000 0000
000001f0: 0000 0000 0000 0000 0000 0000 0000 0000
00000200: 0400 0000 0000 0000 0000 0000 0000 0000
00000210: 0000 0000 0000 0000 0000 0000 0400 0000
00000220: 0000 0000 0000 0000 0000 0000 0000 0000
00000230: 0000 0000 0400 0000 0000 0000 0000 0000
00000240: 0000 0000 0400 0000 0400 0000 0000 0000
00000250: 0400 0000 0400 0000 0000 0000 0400 0000
00000260: 0000 0000 0400 0000 0000 0000 0400 0000
00000270: 0000 0000 0000 0000 0000 0000 0000 0000
00000280: 15b4 5d32 0000 0000 0000 0000 0000 0000
00000290: 0400 0000 0400 0000 0000 0000 ed3e 0100
000002a0: 0000 0000 0000 0000 0000 0000 0000 0000
000002b0: 0400 0000 89fb 9db4 0000 0000 dbbf b1b4
000002c0: 0000 0000 85c0 1aad 0400 0080 0000 0000
000002d0: 2b98 c931 70f9 5ab5 f7a7 49b3 0617 07b4
000002e0: 0400 0000 41dc 41b4 0000 0000 1834 90b5
000002f0: 0000 0000 0000 0000 6dad 34b4 0000 0000
00000300: 0400 0000 0000 0000 0000 0000 0000 0000
00000310: 0400 0000 0400 0000 0000 0000 0400 0000
00000320: 0000 0000 0000 0000 0000 0000 0000 0000
00000330: 0400 0000 0400 0000 0000 0000 0400 0000
00000340: 0000 0000 0400 0000 0400 0000 0000 0000
00000350: 0400 0000 0400 0000 0400 0000 0400 0000
00000360: 0400 0000 0400 0000 0000 0000 0400 0000
00000370: 0000 0000 0000 0000 0400 0000 0000 0000
00000380: 0400 0000 0000 0000 0000 0000 0000 0000
00000390: 0400 0000 0400 0000 0000 0000 0400 0000
000003a0: 0000 0000 0000 0000 0000 0000 0000 0000
000003b0: 0400 0000 0400 0000 0000 0000 0400 0000
000003c0: 0000 0000 0400 0000 0400 0000 0000 0000
000003d0: 0400 0000 0400 0000 0400 0000 0400 0000
000003e0: 0400 0000 0400 0000 0000 0000 0400 0000
000003f0: 0000 0000 0000 0000 0400 0000 0000 0000
