src/lightning_logs/version_32/checkpoints/epoch=199-step=400.ckpt (torch, 440579 bytes, 33 tensors)

phi.phi.0.weight f4 [128, 3]
000000 d1 a3 e4 bd 42 e7 10 3f 80 61 43 bf d8 be 00 bf
       -0.11164058 0.5660287 -0.7632065 -0.50291204
000010 ad 62 cf be 31 74 ae 3e 4a 87 f8 bd c3 11 cd 3e
       -0.4050497 0.34073022 -0.12135179 0.40052614
000020 9e 3e f9 bd 13 1c 0d 3d 24 74 70 be 49 9b 52 be
       -0.121701464 0.0344506 -0.23481804 -0.20567049
000030 bd 33 0d bf d6 c5 c3 be 84 b5 73 be 25 52 c8 bd
       -0.5515707 -0.38236874 -0.23799711 -0.09781293
000040 eb 96 02 3e 24 ef ad 3e d2 66 c8 be 69 b9 80 be
       0.12752883 0.33971512 -0.39140946 -0.25141457
000050 83 bc 56 3e 70 61 da 3e f7 27 67 be 9a 56 a4 3e
       0.20970349 0.42652464 -0.22573839 0.32097322
000060 da 95 be bd 65 3b 7a 3d b5 d4 05 3f 79 1c 09 bf
       -0.09305926 0.0610918 0.5227769 -0.5355907
000070 f0 17 ba be 48 ac 15 be cc 73 66 be ca 66 ff 3e
       -0.36346388 -0.14616501 -0.2250511 0.4988311
000080 a4 9a bf be 61 ff b2 be a4 5d f5 be df bc 17 bf
       -0.3742267 -0.34960464 -0.47923005 -0.5927257
000090 72 c0 d1 be 62 fe bd 3e 18 2f df 3e ca 1a a1 3e
       -0.40967137 0.3710814 0.43590617 0.3146575
0000a0 fc 63 64 3e 0d 83 0e bf d5 0b c8 3d 6b 00 0a bf
       0.22303766 -0.5566872 0.09767882 -0.5390689
0000b0 ce 97 d5 be 76 f5 d0 be 80 ff 71 3e 84 8c c6 3e
       -0.4171738 -0.40812272 0.23632622 0.3877908
0000c0 b3 58 ac be 46 41 1c be 8f af bf 3e 56 e6 e0 3e
       -0.33661422 -0.15259275 0.37438628 0.43925732
0000d0 c6 7e 36 3e 08 53 59 bd 44 f4 03 3f c5 ed c1 bf
       0.17821798 -0.0530577 0.51544595 -1.5150687
0000e0 ab 2d e3 3e 2d 12 0b bf 08 d8 ea be 4d 79 89 be
       0.4437078 -0.5432461 -0.45867944 -0.26850358
0000f0 09 03 45 3e 59 ab 9a 3e 4c a9 08 bf 94 9b 32 3e
       0.19239439 0.30208853 -0.53383327 0.17442161
000100 28 47 a2 3e b8 3d 95 bd 38 1e a1 bd 3a 03 7e 3d
       0.31694913 -0.072871625 -0.07867092 0.062014796
000110 ae e1 89 3e a1 68 08 3f b6 e2 d8 be f6 05 89 be
       0.26929992 0.5328465 -0.42360467 -0.2676236
000120 0d 02 33 3e 8a b7 a7 3e be 11 10 3f 12 f7 ba 3e
       0.17481251 0.32757217 0.5627707 0.36516625
000130 73 16 1f 3e ba 9c 21 bf db 8b 59 3d 58 ee b8 be
       0.15535907 -0.6312977 0.053111892 -0.36119342
000140 8f be 09 bf ac e2 0b 3f df 1c 0e 3f 8f af 37 bf
       -0.53806394 0.5464275 0.55512804 -0.71752256
000150 bc 0d 6b bb 32 b3 0f be ca 7d 6b be a0 07 8f be
       -0.003586634 -0.14033201 -0.22997203 -0.27935505
000160 e7 c5 59 3e 27 2c bc be 33 bb 58 3e 2f 7d 95 3e
       0.212669 -0.36752436 0.21165161 0.2919707
000170 31 9d d3 3e 0b 0f 5d 3e d6 48 12 bf c8 c1 bf be
       0.41330865 0.2158777 -0.5714239 -0.3745253
000180 38 7c b9 3e c6 06 cc 3e 75 07 11 bf 60 20 c5 be
       0.36227584 0.39848918 -0.56652004 -0.38501263
000190 c8 2a fb 3e 89 40 ac 3e f7 e3 80 be 38 cc 14 be
       0.49056077 0.33642986 -0.25173923 -0.14531028
0001a0 ac cb 0c bf c5 9c d7 bd 09 8c ce be 96 2e 2b bf
       -0.5499828 -0.10527948 -0.40341213 -0.6686796
0001b0 40 88 8c bd 4b 48 3e 3d d5 73 8b be 44 f3 a4 3e
       -0.06861925 0.046455663 -0.2723681 0.32216847
0001c0 70 49 c2 be 6b ef 02 3f 06 23 e4 3e 70 4c c1 be
       -0.37946653 0.5114657 0.4455797 -0.3775363
0001d0 38 92 c6 be ac 72 4d bd 35 b6 cf 3c d5 5c 34 3d
       -0.3878343 -0.050158188 0.025355438 0.044033844
0001e0 ea 53 0e 3e 3d c0 de 3c 21 c1 f8 be 52 e0 8b 3e
       0.13899198 0.027191276 -0.48584846 0.2731958
0001f0 51 c7 0d bf c1 34 af be 26 ff 13 be 09 fe 8f be
       -0.5538226 -0.34219936 -0.144528 -0.281235
000200 e6 d2 4e be 6c 48 f2 be 69 84 fb bd 9c bf fc 3d
       -0.20197639 -0.47320879 -0.122811146 0.12341234
000210 51 93 c0 be 08 b9 f2 bc 9f 9b d3 3e 78 37 d7 bd
       -0.37612393 -0.029629245 0.41329667 -0.10508627
000220 39 e7 a7 3c f0 c8 83 bd 66 4c ef 3d ce f4 bb 3e
       0.020495998 -0.0643481 0.11684494 0.3671021
000230 2b 01 0c 3f 77 70 8c 3e ac 64 02 3f e3 39 2e be
       0.5468928 0.27429554 0.50934863 -0.1701427
000240 6c 4a 32 bf 96 b6 b3 be be bc e8 3e f7 be 10 bc
       -0.6964481 -0.3510024 0.454565 -0.008834592
000250 9f 7d a0 be 5c 64 ec be 0c 52 0a bf dc 7d f9 be
       -0.3134584 -0.46170318 -0.54031444 -0.48728836
000260 3e d6 ef bd 57 5d 7f 3e 12 95 82 3e 08 e2 1d bf
       -0.11710785 0.2493795 0.25504357 -0.6167302
000270 f1 0e ba 3e 51 12 c5 be 15 20 77 be d7 b7 6f be
       0.36339524 -0.38490537 -0.24133332 -0.23409973
000280 39 c0 e3 bd 82 28 e8 bd 3c a1 04 bf 31 3c ff be
       -0.11120648 -0.11335851 -0.51808524 -0.4985061
000290 ff 05 b9 bd b0 a8 f4 3b 01 49 86 be 03 b5 5e 3e
       -0.09034347 0.007466398 -0.26227573 0.21748738
0002a0 b7 07 05 bf 7b 98 1f bd cb fa 01 3f 02 26 71 be
       -0.51964897 -0.038963776 0.50773305 -0.23549655
0002b0 22 77 05 3f 94 1b 56 3e 9e 62 05 bf 07 07 bb 3e
       0.5213491 0.20908958 -0.521036 0.365288
0002c0 a8 71 88 bd c6 4d 10 bf 35 61 1d 3f b0 7e 2b bf
       -0.06662303 -0.5636867 0.6147645 -0.66990185
0002d0 f0 c1 7d 3d 73 8f f7 bd 15 18 d3 3e 48 10 7b 3d
       0.06195253 -0.12087908 0.4122931 0.061294824
0002e0 6b 63 49 3e 0d 8d 08 3e 95 2b 0e be 00 ab f8 bd
       0.19666831 0.13335057 -0.13883813 -0.12141991
0002f0 e9 99 f3 be fa e5 48 3e 6a 85 c7 3e 5e b2 b6 3e
       -0.47578362 0.19618979 0.38968974 0.35682958
000300 1e 83 d0 be 28 f1 d2 3c 81 61 d0 be 97 b9 a2 be
       -0.40725034 0.025749758 -0.4069939 -0.3178222
000310 eb 3f ac be bc 0a 4a 3e c5 5a e1 be 71 7f a3 bd
       -0.33642516 0.19730657 -0.44014564 -0.07983292
000320 55 7c b0 3a 4f ce 84 3e fa 9f db be c5 71 fb be
       0.0013464788 0.2593865 -0.4289549 -0.49110237
000330 2c 2d e3 be 69 65 a4 3e 0f 30 ae be 64 34 b2 3e
       -0.443704 0.3210862 -0.3402104 0.34805596
000340 66 2d 19 3e 69 62 a6 bd a3 d4 8c bb c6 bd e9 bd
       0.14958724 -0.08124239 -0.004297809 -0.114131495
000350 64 5a 94 3d c6 4b 71 be ad 6f a3 bd 50 08 94 3d
       0.07243803 -0.23564062 -0.07980285 0.07228148
000360 f2 38 e7 be 5c ef 9a be 92 b2 ee 3e 40 5d 13 bf
       -0.45160633 -0.30260742 0.46620613 -0.57564163
000370 39 cc 03 be 92 db 30 3f d5 90 55 3e 2f e9 85 3c
       -0.12870874 0.6908504 0.2085603 0.016346542
000380 1e 16 00 bf 4f ec fc 3e 0b 1b 7a bd 53 f5 74 bf
       -0.5003375 0.4939904 -0.061060946 -0.95686835
000390 08 5c 46 be ba 19 af bd ed ef ce 3b 43 0b ec 3e
       -0.19371045 -0.08549829 0.0063152225 0.46102342
0003a0 c4 66 b3 bd d6 1c e7 3e 65 d1 91 3e 70 d8 cd be
       -0.08759835 0.45139188 0.28480068 -0.4020419
0003b0 b1 4e 5e 3e f9 f5 d0 be 79 91 7a be 26 e3 2d 3e
       0.21709706 -0.40812662 -0.24469556 0.16981182
0003c0 68 9b fb 3d e6 58 00 3f 6c e3 cd be 70 c9 13 be
       0.12285501 0.5013565 -0.40212572 -0.14432311
0003d0 ec 89 f4 3e 06 10 6d bf 83 4c de 3e 9e df e5 be
       0.47761476 -0.92602575 0.4341775 -0.4489717
0003e0 2e af 54 bc b4 07 c9 bd b0 af 9b be e2 47 9c 3d
       -0.012981219 -0.098159224 -0.30407476 0.07630898
0003f0 9f 70 f4 3e 3e d2 2c be 7a 7f af be b4 a6 5a be
       0.47742173 -0.16877076 -0.34276944 -0.21352655

phi.phi.0.bias f4 [128]
000000 7c de 1a 3e e3 0c 06 3f 6c b2 55 3e 2f 48 8b 3e
       0.15123934 0.52363414 0.20868844 0.2720351
000010 ee ea 4e be 91 37 3a 3e f6 dd 87 3d 3a 0d 5a be
       -0.20206806 0.1818526 0.066341326 -0.21294108
000020 6f a2 a6 be 31 de a5 be 0a 76 e3 be 65 38 9d 3e
       -0.32545802 -0.3239608 -0.44425994 0.30707088
000030 81 d2 bd 3e 2f 7f 3c bd bf 0f ab be 12 dd bf 3e
       0.37074664 -0.04601973 -0.3341045 0.3747335
000040 9d 45 90 3e 5c 29 8c bd 87 8a 75 be 8b ee f1 3e
       0.2817811 -0.06843826 -0.23978625 0.47252306
000050 7a 0b 37 3e e9 67 e0 be 5c a7 ee 3e a9 9f d2 3e
       0.17875472 -0.43829277 0.4661206 0.41137436
000060 33 e4 8f be 08 ce 6a 3e 65 f5 a7 be 30 16 7e bd
       -0.2810379 0.22930157 -0.3280441 -0.06203288
000070 1d 8a c8 3e 93 4d 2e 3c 59 0e d1 be ca 99 45 be
       0.39167872 0.010638612 -0.4083126 -0.19296947
000080 6b cc 81 bd 96 df 27 be bd 50 62 3d 9f 2b e4 3e
       -0.06337818 -0.16393885 0.05525278 0.4456453
000090 07 4c 05 bc ec 68 c0 be 32 ba 45 3d aa df 52 3e
       -0.008135802 -0.3758005 0.048273273 0.20593134
0000a0 84 bb 35 3e e6 14 07 bf 7c 95 d3 bd 0e ad db be
       0.17747313 -0.52766263 -0.10331246 -0.42905468
0000b0 65 42 7c be ac a0 42 3e b7 ea d1 be ce ed 03 3e
       -0.24634703 0.19006604 -0.40999386 0.12883684
0000c0 38 c8 cd 3e b9 4d ef 3c 17 04 c5 be bf bc 8b be
       0.40191817 0.029211866 -0.38479683 -0.2729244
0000d0 3e 42 05 3e 00 58 e1 be d9 db 92 3e 44 2f 06 bf
       0.1301355 -0.4401245 0.28683355 -0.5241587
0000e0 ad 14 0e bf f1 9c 0f bf 4a de ef bd 17 23 5d 3e
       -0.555003 -0.5609885 -0.1171232 0.21595417
0000f0 24 e4 0b bf a8 3c c6 3e 06 7f 6c be 9a ba bb 3d
       -0.5464499 0.38718152 -0.2309533 0.09166451
000100 9d af d7 3c 8d 46 05 bf 58 0d cf 3e aa 03 80 3e
       0.026328856 -0.52060777 0.40439868 0.25002795
000110 08 25 ef 3e 37 cd 2a 3e 5c 1e c3 be e4 b9 d5 3e
       0.4670794 0.16679846 -0.381091 0.41743386
000120 4b 31 fe 3c c4 19 6c 3e fb 05 ed be 2d 08 ac bd
       0.031029364 0.23056704 -0.46293625 -0.08399997
000130 86 1f 11 bf af 98 93 be b1 5b 78 3d af 18 e8 be
       -0.56688726 -0.28827426 0.06063432 -0.45331332
000140 bd 31 f9 3d f0 99 60 3e 44 7f ba 3d 84 c8 c5 be
       0.1216769 0.21933722 0.09106305 -0.38629544
000150 e5 2f e5 be a7 65 36 be eb c1 81 3e e3 c8 da 3e
       -0.44763103 -0.17812215 0.2534326 0.4273139
000160 4f 9a 49 3e bd 32 28 be 6b 49 4f 3e b3 00 11 bf
       0.1968777 -0.16425605 0.2024285 -0.5664169
000170 a6 79 fc be 89 c1 40 3e 29 6f a7 be a2 14 2c 3e
       -0.4931156 0.18823828 -0.32701996 0.16804746
000180 07 ad d0 be 62 6a 92 be 37 7c f3 be bf bd 7e 3e
       -0.4075701 -0.2859679 -0.47555706 0.2487707
000190 d8 f6 70 bd f5 ef cc 3e 39 f4 84 3e cc 76 95 3e
       -0.05882916 0.40026823 0.25967577 0.29192197
0001a0 ed b7 a4 bd 7b cc 22 be 21 65 fc bd ae b9 90 bc
       -0.080428936 -0.15898316 -0.12323976 -0.017666664
0001b0 0f bb 26 3e c2 18 cf be f2 08 db 3e cd bc c4 bd
       0.16282295 -0.40448576 0.42780262 -0.096063234
0001c0 bd db 07 bf 7f 45 c8 be 1a 97 dd 3e b4 b9 01 3f
       -0.5306967 -0.3911552 0.43279344 0.50673985
0001d0 da e7 08 bf 62 83 89 3e 1b 1d 3e 3e 78 33 5f 3e
       -0.5347878 0.2685805 0.1856579 0.21796978
0001e0 64 7a 02 3f 5d 14 bb be f7 45 08 3e 4b 17 75 3e
       0.50968003 -0.36538973 0.1330794 0.23934667
0001f0 99 b2 2e be 11 31 05 3e de 8e 65 be 49 ad 90 3e
       -0.17060317 0.13006999 -0.22417781 0.28257206

phi.phi.2.weight f4 [128, 128]
000000 0a e6 c8 bc 6a f7 06 bd 28 49 b6 3c ae 69 00 3d
       -0.024523754 -0.032950796 0.02225168 0.031350784
000010 bf e1 30 bd b4 03 00 3c 79 d0 51 3d 2e 16 10 bc
       -0.04318404 0.007813383 0.051224206 -0.008794351
000020 7e 5c dc 3c 55 a3 ae bc f1 c9 fd 3c 1d 21 83 bd
       0.026899572 -0.021318117 0.030980082 -0.064028
000030 a0 e3 54 bd 74 c4 37 bd d6 5b a6 3d 73 d6 c2 bc
       -0.051974893 -0.044865087 0.08122985 -0.023783898
000040 4b 0e 7d b9 f7 67 2f bd b6 b5 b4 3d d2 cb b0 3d
       -0.00024133285 -0.042823758 0.08823721 0.08632626
000050 b9 85 88 bd 36 bf 92 bd 1d 36 89 bd 6c 7d df b9
       -0.066661306 -0.07165377 -0.066997744 -0.0004262732
000060 f5 91 b8 bc 89 f8 6c bd 6a da 01 bd f1 cc 88 3c
       -0.022530535 -0.05785421 -0.031702437 0.016699286
000070 6f 29 3d bd 61 71 a0 3c dd 0a a6 bc 40 6e 2f bd
       -0.046182092 0.019585313 -0.020268852 -0.042829752
000080 97 f4 46 3c 3a d8 94 3d 4f c4 74 bd 07 7d 86 3b
       0.012143276 0.072678044 -0.059757527 0.00410426
000090 18 82 05 bd ab a2 b1 3d 97 be ab bd 45 89 ad bd
       -0.03259477 0.086736046 -0.083859615 -0.08473448
0000a0 ac 5f b2 3d e8 0e 65 bd 91 d2 8a 3c 1a f8 f9 bb
       0.08709654 -0.05592242 0.016946109 -0.007628453
0000b0 2e 88 98 bc 98 b8 a1 bc d7 0d 66 3d 4f 6f 8a 3b
       -0.018619623 -0.019741341 0.056165542 0.004224695
0000c0 39 3e b0 bd b3 bb 55 bd 93 d6 f6 bc 0d 2f 36 3d
       -0.08605618 -0.052180957 -0.030131614 0.044478465
0000d0 95 49 6a bd ca af aa 3d f4 45 a1 bc 4a 04 82 bc
       -0.05719908 0.0833431 -0.019686677 -0.015871186
0000e0 d2 d6 8d 3d a3 f6 35 3d b4 86 99 3d 52 6b 51 3d
       0.06925739 0.044424664 0.07496396 0.05112774
0000f0 d5 a6 db bc e2 33 70 bd 87 7e d7 bb 83 d1 95 3d
       -0.02681295 -0.05864323 -0.0065763625 0.07315352
000100 c3 03 f3 bc 34 df a7 bd f2 68 14 3d 97 37 b0 3d
       -0.02966488 -0.081968695 0.036232896 0.08604353
000110 f7 21 ce bc 66 e3 95 bd 02 32 a4 bd 0e 74 b5 3c
       -0.02516268 -0.073187634 -0.08017351 0.022150066
000120 c6 4e db bb 2d d3 36 bd ee 5b 92 3c c5 7c 09 3d
       -0.00669274 -0.044634987 0.017866101 0.033566255
000130 d6 f7 8f 3d 4a 8a 8c 3d e2 c3 58 bc ed 9d 9f bd
       0.07029693 0.06862314 -0.013230296 -0.07793794
000140 c1 92 a3 bd 10 04 a9 3d 84 0a 20 3d b9 d0 1d 3d
       -0.079869755 0.08252728 0.03907253 0.03852913
000150 2a 9f 9c bd 73 a0 a7 3d c7 7c ab 3d 67 6f a3 3d
       -0.07647546 0.081849 0.08373409 0.07980233
000160 88 b4 98 bd 0c 9b 08 bd 41 ff 78 bd 49 6b ab 3d
       -0.074563086 -0.03335099 -0.060790304 0.083700724
000170 8f 8f 1b bd 57 4a 25 bd 3e ad 3d 3d f0 79 27 bd
       -0.037978705 -0.0403541 0.046307795 -0.040887773
000180 e3 4f 32 bd 30 58 fd bb 29 32 0b bc 9a 02 8d bd
       -0.043533217 -0.00773146 -0.008495846 -0.06885262
000190 f9 e8 96 3d ff b3 1f bd a6 6b 00 3d 99 72 9d 3d
       0.07368655 -0.038990017 0.03135266 0.076878734
0001a0 02 95 36 3d 90 07 4d 3c 86 05 9a 3d 84 ab 42 3c
       0.0445757 0.01251401 0.07520585 0.011881713
0001b0 e5 7f 27 bd 84 3e ab 3d ff 5f ab 3c fa 9d b0 bd
       -0.040893454 0.08361533 0.020919798 -0.08623882
0001c0 83 23 ce bc e5 9b 76 bd 91 b5 9e 3d 22 28 6f bc
       -0.025163418 -0.060207266 0.07749475 -0.014596971
0001d0 ee 00 a5 bd 5b 12 b6 bb 6d 5d 63 3d 98 1d bc 3c
       -0.08056818 -0.0055563874 0.05550902 0.02296333
0001e0 da f4 e4 3c aa 7e 06 3c 8c f9 06 3d 42 6c b0 bc
       0.027948786 0.00820891 0.03295283 -0.021535996
0001f0 e1 04 10 bd 47 33 a9 bd 59 5e 88 bd 92 e8 1c 3d
       -0.035160903 -0.082617335 -0.066586204 0.038307734
000200 7a b9 f1 bd f8 42 07 bd 41 88 8f bc bc 28 22 bd
       -0.11802955 -0.03302285 -0.017521026 -0.03958963
000210 49 ba 6a bd 6b 0d 1f 3d 79 86 52 bd 0e 5c db 3c
       -0.05730656 0.038831156 -0.051397774 0.026777294
000220 9c 00 90 bd fb 2c ae bc 10 f0 44 3d c1 7e d1 bd
       -0.07031366 -0.021261683 0.048080504 -0.102292545
000230 be 24 ea 3c 58 75 02 be cf 03 98 bd 70 22 af bd
       0.028581973 -0.12740076 -0.074226014 -0.0855149
000240 65 5b 00 bd c1 26 11 3d 94 8a df bd 0e e8 66 bc
       -0.03133716 0.03543735 -0.109151036 -0.014093412
000250 33 d2 b2 bd 6c 06 9d bc 9a d0 9d 3c ac b0 06 be
       -0.087314986 -0.019168101 0.019264508 -0.13153332
000260 8f 4e 14 bd e9 e2 8d 3c 7e fe 46 bc 66 ee 27 3b
       -0.03620773 0.017320113 -0.012145637 0.0025624274
000270 07 8a 95 bd 3f a1 4c 3c 02 1b af bd 9f b6 50 bc
       -0.07301717 0.012489616 -0.08550073 -0.012738853
000280 ef 8b a7 bd c6 86 8a bc a7 09 0e 3d 9a 70 ab 3c
       -0.08180987 -0.016909968 0.034677174 0.020927716
000290 48 58 a6 bd e6 6c 8e bd 0e 35 bd bb 0e a8 8e bd
       -0.08122307 -0.069543645 -0.005774147 -0.06965648
0002a0 15 d9 fe 3c bc 0c 71 bd 60 b4 1c bc 41 90 9b bb
       0.031109372 -0.058850035 -0.009564489 -0.004747421
0002b0 95 8b 21 3d 9b db 6e 3c b9 89 65 bc 10 c7 f3 bd
       0.039439756 0.014578725 -0.014009886 -0.119032025
0002c0 9f 70 e4 ba fd bc 08 bd 41 6e 11 3d 0a 2d f7 bd
       -0.0017428583 -0.03338336 0.035505537 -0.120691374
0002d0 95 ff 14 bc 10 74 ab 3d 15 51 fb 3b b1 14 a9 bd
       -0.009094139 0.083717465 0.007669578 -0.082559
0002e0 c1 25 7e 3d 8e 37 86 bd f7 71 a6 3c ef cf 06 bd
       0.062047724 -0.06553565 0.020318015 -0.032913145
0002f0 84 72 29 bd 5e 42 75 bc dc e8 a1 bd 5e d1 d1 bc
       -0.041368976 -0.014969436 -0.079057425 -0.02561253
000300 c7 83 65 bd 23 98 1c bc 66 87 0c bd 2c e4 19 3c
       -0.056033876 -0.009557757 -0.034308814 0.009392779
000310 b4 f6 b3 bd 60 2d 31 3c f2 f6 37 bc 1c 9e b3 bd
       -0.08787289 0.010814041 -0.01122831 -0.08770391
000320 af a1 9d bd 09 94 01 be 11 c9 b0 3d b8 9a b8 bd
       -0.07696854 -0.12654127 0.086321004 -0.09013885
000330 ce aa 90 3b 03 f1 b2 bc 2f d0 68 3c cd 7e 9a 3d
       0.0044148928 -0.021843439 0.014209791 0.075437166
000340 d3 55 d3 3c 44 32 06 be f5 22 a4 bd 5e 3b 56 bd
       0.02579776 -0.13105112 -0.0801448 -0.05230271
000350 f7 d9 4e bd 9a c1 ab 3c d7 e9 a9 3d 3d b4 ee bd
       -0.050500836 0.02096634 0.082965545 -0.116554715
000360 b6 e5 f7 3b ad 8b bb bd 19 08 8d bc 19 b0 8f 3d
       0.0075652255 -0.091575004 -0.017215775 0.0701601
000370 c9 c3 a3 bc 0b 11 6c bd aa 13 7d bd 6c df f0 3c
       -0.019990819 -0.05763344 -0.06178633 0.02940341
000380 e5 33 3b bc 54 65 84 bd 6f 04 d4 3c 82 06 de bd
       -0.011425947 -0.06464639 0.02588102 -0.10841085
000390 e2 a3 8f bd 55 1b 26 bd 61 71 c7 3c a2 36 91 bd
       -0.0701368 -0.04055341 0.024346055 -0.070904985
0003a0 83 5d 8c bb 34 a9 16 3c 1b 90 05 bc 90 ce e6 bd
       -0.0042836084 0.009195615 -0.008152033 -0.112698674
0003b0 28 1a 63 bd 2f db e3 bc 13 d3 ee bd 78 ee 86 bd
       -0.055444866 -0.027814476 -0.11661353 -0.06588453
0003c0 e2 82 a7 3c 0b c8 e9 3b d0 11 1a bd a3 a6 d2 bc
       0.020448152 0.0071344427 -0.037614644 -0.025714224
0003d0 00 bc 1c bd 23 69 ab 3c c1 2b a9 bd d3 9b db bd
       -0.03826523 0.020924157 -0.082602985 -0.107230805
0003e0 86 3a 55 bd ce 22 ee 3b 9a 4c 15 be 03 50 0c 3d
       -0.052057765 0.0072673326 -0.14580002 0.034255993
0003f0 8f 3c 02 3d 23 1f dc bd 8f aa 84 bd 84 14 fe 3c
       0.031796034 -0.10748126 -0.06477844 0.031015642

phi.phi.2.bias f4 [128]
000000 f7 24 23 bd 3d 78 ec bd 64 bf 2a be 28 89 85 bd
       -0.039830174 -0.11546371 -0.16674572 -0.06520301
000010 a6 a8 56 bd 5f 45 88 bd 32 0f 22 3d f9 6b a9 bd
       -0.05240693 -0.066538565 0.039565273 -0.08272547
000020 1a 8a 62 bc 0e 5d b0 3d 95 48 a2 bb 8c 69 99 bc
       -0.013826871 0.08611499 -0.0049525 -0.018727086
000030 7d 62 d8 bd 95 3a 79 bd 24 2c 04 3d 21 24 b3 bd
       -0.1056566 -0.060846884 0.03226866 -0.087471254
000040 a6 78 fb bd 34 2f e7 bc 0b 1a 98 bd dc 23 8d 3c
       -0.12278871 -0.02822075 -0.07426842 0.017229013
000050 c7 43 5e bc 3a d8 8b 3d a7 fe c6 bd 05 12 0d bd
       -0.013565964 0.06828351 -0.0971654 -0.034441013
000060 6f 03 85 39 82 0d bd 3d 86 38 18 3d bb b8 87 bb
       0.00025370295 0.09231092 0.03716328 -0.0041418946
000070 1f c4 22 bd bf e9 26 bd 73 04 93 3d 9c d3 f5 3d
       -0.039737817 -0.04075026 0.07178583 0.12003252
000080 a1 25 f7 3d df 2d f5 bc 43 69 32 bc 17 5e 80 3c
       0.12067724 -0.0299291 -0.010889354 0.015669866
000090 4e a5 4b 3d fd 39 ff bd 3b 3f b1 3d 51 5c c1 3c
       0.049718194 -0.12462232 0.086546384 0.02360359
0000a0 17 39 3f 3d 9f 4c fa 3b e1 95 b6 bb cf a7 9a bd
       0.046685304 0.0076385285 -0.005572066 -0.07551538
0000b0 a8 5a ad bd 0a fb b4 bd af 77 bd bc 20 6b df 3b
       -0.08464557 -0.088369444 -0.023128359 0.00681819
0000c0 d5 eb 16 bd ee 06 67 be 32 8b 36 bc 47 01 9f ba
       -0.036846 -0.22561237 -0.011141585 -0.0012131118
0000d0 b1 4d 10 3c a7 5a ef bd 52 d7 6e bd c1 a1 77 ba
       0.008807586 -0.116872124 -0.058310814 -0.00094464055
0000e0 7b aa d6 3c ea 39 00 be 77 b7 03 3d c4 c2 00 be
       0.026204338 -0.12522092 0.032157388 -0.12574297
0000f0 c6 ca a6 bd 8e 05 7b bd a9 f9 02 be a4 79 81 3d
       -0.08144145 -0.061284594 -0.1279055 0.06322029
000100 a7 48 d9 3b d2 63 cf 3d f3 c8 c8 bc 47 b9 8b bd
       0.0066309753 0.10126461 -0.024509883 -0.06822448
000110 71 bd 96 3d ea 54 e0 3c 7d a4 12 be e3 0f 0f ba
       0.07360352 0.02738424 -0.1432056 -0.00054573844
000120 a2 e6 b4 3c 49 89 92 3d f9 e9 59 3d 01 54 cc bc
       0.02208263 0.07155091 0.05320165 -0.0249424
000130 45 84 83 bb e5 bd bb 3c 2f 0f 58 bd 3d eb e0 3b
       -0.0040135705 0.022917697 -0.052748855 0.00686398
000140 13 76 27 3c be 11 95 3d 86 29 35 bc 54 6d 77 bd
       0.010221022 0.07278775 -0.011057263 -0.060406998
000150 14 fb 99 3d 8d bd 4e bd 6a 5f 4a 3b c1 5e 50 bd
       0.075185925 -0.05047374 0.0030879625 -0.050871614
000160 9b ee 04 3d 29 dd ce 3d d6 24 ba bc 60 13 af bd
       0.032454114 0.10100777 -0.022722643 -0.08548617
000170 56 a3 26 bd b8 e1 a1 ba 39 e4 54 bd 6a 2a 89 bd
       -0.040683113 -0.0012350595 -0.051975463 -0.06697543
000180 6e 1c 86 bd 98 06 5a 3d 2f d9 80 bd 4f e4 6d 3d
       -0.06548391 0.053228945 -0.062914245 0.05807906
000190 f1 73 3a bd ba 3c 3a bc 0f f7 d8 3c c8 fb 4b bd
       -0.045520727 -0.011367017 0.026484994 -0.049800664
0001a0 2b 57 73 bd f3 5d ba bd 62 a5 57 bc ac 06 89 bc
       -0.0594093 -0.09099951 -0.013161989 -0.016726814
0001b0 9f 28 38 bd ff b5 47 bd e0 e9 26 bc ed 0d 99 bd
       -0.044960614 -0.04875755 -0.010187596 -0.07473359
0001c0 e1 81 5c 3d 28 aa c0 3c ff 78 2a bd bd 20 58 bd
       0.0538348 0.023518637 -0.041619297 -0.052765597
0001d0 86 0c cc bc 8a bb 52 3c 77 f8 62 bd 85 2f a2 bd
       -0.024908315 0.012862096 -0.055412736 -0.0791922
0001e0 58 72 82 bd 1b c7 75 bd 8c cb c1 bd a5 f3 bc bd
       -0.063694656 -0.060004335 -0.094626516 -0.09226159
0001f0 f9 25 ea bc de 94 3e bc 1b 81 a6 3d d0 29 bd b8
       -0.02858256 -0.011632172 0.08130094 -9.0200105e-05

phi.phi.4.weight f4 [6, 128]
000000 cc 91 20 bc 31 fa ab 3d 9d d1 35 bd 24 5f 3f 3c
       -0.009800386 0.083973296 -0.044389356 0.011680398
000010 ac fc bf 3c 93 79 a5 bd fa b2 61 3d 91 a5 7e 3d
       0.023435913 -0.08079829 0.055102326 0.062169615
000020 5b c6 70 bd 08 96 83 bd cd 7e 99 bd 6a b5 5b bd
       -0.058782917 -0.064251006 -0.074948885 -0.053639807
000030 9c 5a 82 3d 25 20 08 bd 3a 01 c8 3c 05 ac a4 bd
       0.063649386 -0.03323378 0.024414647 -0.080406226
000040 69 f0 25 bc ed 43 26 bd 6c 7d 2f bd a3 d7 86 bd
       -0.010128119 -0.040592123 -0.04284422 -0.06584098
000050 6e 9e fe bb 7b 72 60 bd 74 67 62 bd fd ba a7 bd
       -0.007770351 -0.054796677 -0.05527444 -0.08189962
000060 93 c4 6e 3d fa 54 79 bd 4b 24 5d bc be 53 49 3d
       0.058292937 -0.060872056 -0.013497422 0.04915213
000070 2f 55 a4 3c 94 d0 5c bd bd 2d 0d be 8e 84 b2 bd
       0.02006015 -0.053909853 -0.13786979 -0.08716689
000080 e3 c1 ff bd 47 d9 94 bb 0d 92 59 bc 35 49 7f 3d
       -0.12488153 -0.004542503 -0.01327945 0.062325675
000090 64 4c 41 be 7c ec e7 3b f3 4d 67 bd bb ab 96 bd
       -0.18876797 0.0070777517 -0.056470823 -0.07356974
0000a0 48 36 f2 bb 0c 8c 55 bd 02 a4 6f bd 25 3a 05 bc
       -0.0073917247 -0.052135512 -0.05850602 -0.0081315385
0000b0 0d fc d0 3b c1 de 5a 3d 59 db 91 bc 75 bb 3c bd
       0.006377703 0.05343509 -0.017804788 -0.04607721
0000c0 88 3c af bd e1 6d 72 bb 67 16 97 3d 2d 28 54 be
       -0.08556467 -0.0036991762 0.0737732 -0.20718451
0000d0 14 a1 91 bc 5b 60 8d 3d 07 21 9f 3d e2 6e 6e bd
       -0.017777003 0.06903144 0.07769971 -0.058211215
0000e0 55 c4 9d bd 0e a0 b3 3d 13 a1 2d bd cd 61 c6 3c
       -0.07703463 0.087707624 -0.04238994 0.024216557
0000f0 ed 9a b3 bd c3 e7 25 3d d5 4c 24 ba 7c ae 11 be
       -0.08769784 0.04050423 -0.00062675524 -0.14226717
000100 d2 22 34 bd bb 3e b1 bd 3c b1 10 bd 69 c6 20 bd
       -0.04397852 -0.08654543 -0.035325274 -0.03925172
000110 b1 8b 39 be f2 d2 93 3d 35 e8 1e 3b cf c4 65 bc
       -0.18119694 0.07217969 0.0024247293 -0.014023974
000120 1d ad 8e 3c e5 07 75 3d d5 bc 97 bd b6 f6 6c 3d
       0.017416531 0.059821982 -0.07409064 0.05785247
000130 1b e0 25 3d ab 35 43 3d 08 0e 39 bc ef 52 36 be
       0.040496927 0.047658604 -0.011294849 -0.17805074
000140 75 43 be bb 0b 5b 23 bd e8 e9 35 be 77 7b 96 bd
       -0.0058063813 -0.039881747 -0.1776501 -0.07347768
000150 4b 49 15 be 84 84 13 3d fe e1 8f bd 8d c5 ef bb
       -0.1457874 0.03601505 -0.070255265 -0.007317251
000160 50 04 de bd 1c 71 18 be 98 72 4c be 33 98 01 bd
       -0.10840666 -0.14886898 -0.19965589 -0.03163929
000170 3c 43 cb bc e9 a1 08 3d 63 a3 b4 bd 72 25 99 3c
       -0.024812333 0.033357535 -0.08820226 0.018694613
000180 32 12 2f bc ce 60 85 bd ba b0 3c bd 5e a9 9a bd
       -0.01068549 -0.06512605 -0.046066977 -0.075518355
000190 49 f7 fd ba d4 df e2 3c e4 6d ab bd be e0 43 bc
       -0.0019376065 0.02769462 -0.08370569 -0.011955438
0001a0 73 a3 62 bd 9c 27 48 3d 9c ad a0 bd 53 ef 86 3d
       -0.05533166 0.0488659 -0.07845613 0.06588616
0001b0 9d e9 9a bd 49 3a 69 3d 0b 76 00 bd db 53 9b bd
       -0.075640894 0.05694035 -0.031362575 -0.075843535
0001c0 db 1c ba 3b ae 5c 9a bd 17 5e e7 3c f3 b6 a9 3d
       0.0056797094 -0.075372085 0.028243108 0.08286848
0001d0 74 7d 08 be 71 81 32 be 57 cb 87 3d cd be 19 3c
       -0.13329107 -0.1743219 0.06630581 0.009383869
0001e0 b2 ef af 3b 22 c4 37 3d 52 a5 ac bd 09 e1 2d bd
       0.00536915 0.04486478 -0.0842997 -0.04245094
0001f0 02 61 eb 3c 17 13 98 3b 59 c1 23 be 84 6b 84 bd
       0.02873278 0.0046409476 -0.15991725 -0.064658195
000200 5e d5 81 3d c4 a0 b0 bd 3a 33 cd bb 37 9c c3 3d
       0.06339525 -0.086244136 -0.00626221 0.0955128
000210 23 27 9f ba 37 6b 90 bd 39 46 0e be b3 98 01 3c
       -0.0012142401 -0.070516996 -0.13893975 0.0079099415
000220 4b 40 1c bd 24 10 e9 b9 91 6e 70 bc 4e 25 e0 3c
       -0.038147252 -0.0004445325 -0.014674799 0.027361538
000230 31 21 cd 3d 22 73 8c bc 0d 92 9d 3d f9 7f c5 bd
       0.100160964 -0.017144743 0.076938726 -0.096435495
000240 30 75 d4 3d 17 a8 ad bd ad f0 35 bd 9e 76 3b bc
       0.10373914 -0.08479326 -0.04441898 -0.011441855
000250 b0 19 a8 bd 95 7c 57 3d d8 a7 29 bd 07 d8 cd bc
       -0.082080245 0.052609045 -0.041419834 -0.025127424
000260 3d 96 0b bd ad 50 bc bd 5a 49 22 bd 10 c2 8f bd
       -0.034078825 -0.09195075 -0.039620735 -0.07019436
000270 9b a6 ae 3c 53 a7 b5 bd fe 34 71 bd 37 cb ee 3d
       0.021319678 -0.08869805 -0.058888428 0.11659854
000280 6d bc b4 bd b4 52 4c 3d b4 1f 47 3d 15 a0 b2 bc
       -0.08825002 0.04988356 0.04861422 -0.021804849
000290 21 4c 07 bd cc a7 f5 3d c4 f0 ad bd d1 c1 03 be
       -0.033031587 0.11994895 -0.08493188 -0.12866904
0002a0 5d 6e 13 be 67 a2 0a 3e 6a e5 4e 3d a6 48 75 3d
       -0.14397569 0.13538514 0.050511755 0.059883736
0002b0 ba b6 a9 3d ea 3e 0b 3d b4 45 c4 3c 1b 99 f5 3b
       0.082868055 0.033995546 0.023959018 0.0074950582
0002c0 d6 9d 23 bd c4 2f bb bc 7a 89 f6 3c 6a cf 19 3c
       -0.039945446 -0.022849925 0.03009485 0.00938783
0002d0 d5 78 ac 3d 7a 12 e5 3d cf df e7 bd cf 2d ab 3b
       0.084214844 0.11185165 -0.11321985 0.0052239667
0002e0 8e 60 76 bc c3 0a 12 be b0 61 97 bd 5e 26 00 bd
       -0.015037669 -0.14261918 -0.07391679 -0.03128659
0002f0 4c 28 e9 bb 41 50 cf 3b b7 14 e8 3d d6 04 b8 ba
       -0.0071153995 0.0063267057 0.11332076 -0.0014039527
000300 ad d8 b5 bd 01 a9 a0 bd ef 30 1a 3d b5 35 b0 3d
       -0.08879218 -0.07844735 0.037644323 0.08603994
000310 6c 3d 0b be 39 33 f4 bb 6f 76 8c bd 24 ab 8d bd
       -0.1359765 -0.0074523953 -0.06858527 -0.06917408
000320 50 31 2a 3c 9d be 54 bd ee 31 90 3d 17 7a 3f bd
       0.010387734 -0.051939595 0.07040773 -0.046747293
000330 34 ee 90 bc 22 d7 a2 bc b0 53 d1 3c 32 9a 36 bd
       -0.01769171 -0.019877974 0.0255526 -0.044580646
000340 95 79 30 bb ae 75 91 bc 88 6c ce bd b1 4c 15 3e
       -0.0026927937 -0.01775631 -0.100792944 0.14580037
000350 b4 e0 e6 3b b1 e8 31 bd c1 42 59 3d b9 92 ec 3c
       0.0070458297 -0.043434802 0.053042177 0.028878557
000360 bf 94 f4 bd 1a 81 d0 bd 4d 69 77 bd 8b d0 e4 bd
       -0.119424336 -0.10180874 -0.060403157 -0.11172589
000370 2e 8f 96 3b 3d 76 6e 3d c3 1b 8c bc 80 f4 f0 bd
       0.004594705 0.05821823 -0.017103082 -0.11765385
000380 0a c3 96 3d af 98 8d bd 14 81 2d 3d 42 01 55 3b
       0.073614195 -0.06913888 0.042359427 0.003250197
000390 98 1c 68 bb c9 e9 cb bd 4f 3a 29 3c 0d 95 b6 bd
       -0.0035417434 -0.099567 0.010328843 -0.08915148
0003a0 f3 83 af 3c 1c d2 ad bc 6e fa 06 3e 44 b6 f0 3d
       0.021425223 -0.021218352 0.13181469 0.117535144
0003b0 24 43 9a bc 60 8e 1b bd 41 9c 6d 3c 7f 0e 32 bc
       -0.018830843 -0.037977576 0.014502586 -0.010867714
0003c0 a5 a1 af 3d 21 d0 55 bd f0 5c 11 bb ef ba 0e be
       0.08575753 -0.05220044 -0.002218064 -0.13938497
0003d0 21 2d 96 bd ab bb 73 bd fa 88 93 3d 6f be 51 3c
       -0.073328264 -0.059505146 0.072038606 0.012801751
0003e0 37 3e a2 bd f7 e3 81 3d c9 a2 99 3d 11 42 11 bd
       -0.07922023 0.06342309 0.07501752 -0.035463396
0003f0 d5 07 0f bd 70 fe 19 bc c9 ca 11 be d8 59 04 3d
       -0.03491958 -0.0093990415 -0.14237513 0.032312244

phi.phi.4.bias f4 [6]
000000 d8 68 4f be c9 73 47 3c de 09 f2 3c 0b 04 d8 bd
       -0.20254838 0.012173601 0.02954572 -0.10547646
000010 87 15 0e 3c 18 50 af 3b
       0.008672125 0.005350124

rho.rho.0.weight f4 [128, 6]
000000 cf 6f 9b 3e 7b 3b 8a 3e 1d ef 99 bd e3 c4 bd 3d
       0.3035874 0.26998505 -0.0751631 0.09266069
000010 2a dd bf 3e 69 94 60 3e 04 64 b4 3e 77 67 05 3e
       0.37473422 0.21931614 0.35232556 0.1302775
000020 b9 c6 fb be ef 6c f2 3d 73 4f d4 bd fb 84 e0 3c
       -0.4917505 0.11837184 -0.10366716 0.02740716
000030 5d ba b2 3d bc 8b 94 3e 1d fe 84 be 63 ac 9e be
       0.08726952 0.2901286 -0.25975123 -0.30990896
000040 d0 6c bf 3e 92 40 6c 3d 0d 21 5e 3e 2d 73 52 3d
       0.37387705 0.057678767 0.21692295 0.05137937
000050 12 42 03 be 8a 6b be be b4 94 bb 3e 81 0a dd 3e
       -0.12818173 -0.3719142 0.3663689 0.43172076
000060 dc 3a 0e 3c b7 be 29 be 8c a3 b0 3d 5a 9b c3 be
       0.008681025 -0.16576658 0.08624944 -0.3820446
000070 35 71 e6 3d 75 d4 90 3e ce 07 e8 bd 71 c1 17 3d
       0.11252061 0.28287092 -0.113296136 0.037049714
000080 e5 3b d5 3d 29 e2 24 bd 51 37 09 bc ac ff ac 3d
       0.104118146 -0.040254746 -0.008375005 0.08447203
000090 ff 81 aa bd 7c 71 6d 3d 50 1b 11 be 05 9d 5e 3e
       -0.08325576 0.057969555 -0.14170575 0.21739586
0000a0 0f 11 c1 3e dc 4d 15 bc 39 cc b6 3d ff ba 94 be
       0.37708327 -0.009112801 0.08925671 -0.29048917
0000b0 13 2e 8d 3e 04 4c 6c 3e 0f 55 98 be 9b 0f 97 3e
       0.27574214 0.23075873 -0.29752395 0.29504094
0000c0 a2 2a e5 3d b9 4c 80 be 24 ce 89 bd c9 13 ba be
       0.11189772 -0.25058535 -0.06728771 -0.3634322
0000d0 84 4e 62 3d c1 f3 51 3e 17 43 74 be e7 25 fb bc
       0.05525066 0.20503141 -0.23853718 -0.030657722
0000e0 9f 92 99 3e 30 32 a0 3e b0 82 85 3e c3 00 6a be
       0.29994676 0.3128829 0.2607627 -0.22851853
0000f0 43 dc 17 bc ec 96 49 be 16 69 bf 3e dd d6 93 3c
       -0.009268823 -0.19686478 0.37384862 0.01804679
000100 2f d3 80 be 6a dd 67 bd b7 49 2a bc cc 02 4a 3e
       -0.2516112 -0.05660764 -0.010393552 0.1972763
000110 68 54 f4 bd dc f0 80 3d ed ed c4 be af 2e 2d be
       -0.11930162 0.0629594 -0.38462773 -0.1691234
000120 2a 04 67 3e 61 a1 2b 3e 17 06 a6 3e 76 f6 a6 3e
       0.22560182 0.1676078 0.3242652 0.3260991
000130 cc f0 58 3e d8 f4 4a be b8 98 bc 3e 1d 59 8f 3e
       0.21185607 -0.19819963 0.36835265 0.27997676
000140 b4 d6 15 be aa 9e 41 be 51 a1 4f be 5a af 84 be
       -0.14632684 -0.18908182 -0.20276381 -0.25915033
000150 47 2c 4e 3e da 26 1e be 3e 7c 9d 3e e3 1d ba 3d
       0.20134078 -0.15444508 0.30758852 0.09087732
000160 2d e3 e0 3b 38 66 a9 3d 81 84 0f 3e 49 52 02 be
       0.006863019 0.0827145 0.1401539 -0.12726702
000170 2f e4 ab be c1 65 c8 be df 5e c2 3e 22 02 a2 3e
       -0.33572528 -0.39140132 0.37963006 0.31642252
000180 37 32 c7 bd c3 8a d6 3e c6 0a a7 3d c6 e9 b9 be
       -0.097263746 0.41902742 0.08156352 -0.36311167
000190 d0 d6 80 bd b2 1f d4 be 1e 6f 56 3e cf 7a 4f 3e
       -0.06290972 -0.41430432 0.20940825 0.20261692
0001a0 21 c3 08 3e 77 8c 77 bc a1 29 72 3d fe db 94 be
       0.13355686 -0.015109173 0.05912173 -0.2907409
0001b0 cf 7f ab be de b5 50 be 1f 95 53 3d 53 94 8c bd
       -0.33495948 -0.20381877 0.051655885 -0.06864228
0001c0 60 8a ac bd 97 b6 90 be 81 f9 4a be 98 a7 1d be
       -0.084248304 -0.28264305 -0.1982174 -0.15395963
0001d0 12 f3 33 be 36 1c be 3e 3c f2 d5 bd 51 02 cc bd
       -0.17573193 0.37130898 -0.10446593 -0.09961379
0001e0 1a a7 5b be ee b8 42 be 40 dd d7 be 90 2c 85 be
       -0.21450463 -0.19015858 -0.42160988 -0.2601056
0001f0 50 ed f0 bd bd 80 10 bd 1e aa 8b be 62 72 01 bd
       -0.11764014 -0.035279024 -0.27278227 -0.031603225
000200 68 aa b5 3e 30 6f a1 be 63 77 82 3e bf d7 a0 be
       0.35481572 -0.31530142 0.2548171 -0.314146
000210 52 87 97 3d bc 24 82 3b d2 c3 ce be 37 1d 56 be
       0.07398857 0.0039716642 -0.40383774 -0.20909582
000220 7e 8f 46 be 5c 23 9f be ac 86 8f 3d 8e d5 c4 be
       -0.19390675 -0.31081665 0.070081085 -0.3844418
000230 b2 e1 85 3e a7 2b 08 3d e3 51 9f be 20 4c 6a be
       0.26148754 0.033244755 -0.31117162 -0.22880602
000240 4d 11 b6 3e b3 d1 30 3d c3 a8 d0 3d 4a 20 89 3e
       0.35560074 0.043168735 0.10188439 0.26782447
000250 da 84 55 be db 0f 9c 3e 7e 1e 34 be e8 43 ae be
       -0.2085146 0.30480847 -0.17589757 -0.34036183
000260 09 6f 41 3e c3 d9 9e be 7a fc 8d be 6b 24 9f be
       0.18890013 -0.31025514 -0.27731687 -0.31082472
000270 09 ba 11 3e 87 72 a9 bc 1e 29 a9 3e 61 8b 37 be
       0.14231123 -0.020684494 0.33039182 -0.17924263
000280 33 70 a1 3c 2c 2a 58 3e b1 2a b2 bd ea 3f af bd
       0.019706821 0.21109837 -0.08699549 -0.085571125
000290 1e d1 9f be 4b 8f 74 3e 2a ce 1c 3e f0 9c 0a be
       -0.3121423 0.23882787 0.1531302 -0.1353643
0002a0 d4 50 fa bd 9e 5a a9 3e 28 d7 d3 be 52 c5 31 3e
       -0.12222448 0.33076948 -0.4137509 0.17360428
0002b0 dd e7 91 3e 36 f2 3a be b7 29 fc 3d ba fc 2c 3e
       0.2849721 -0.18256459 0.12312644 0.16893283
0002c0 42 35 f8 bc e0 9e 33 be 2e 5a 73 bd 3f be d9 bd
       -0.030298833 -0.17541075 -0.059412174 -0.1063199
0002d0 bd 12 21 3e 06 18 cf be a7 0c a6 bc 73 e8 03 3e
       0.15729804 -0.40448016 -0.020269705 0.12881641
0002e0 cc b8 fb 3d 39 4b 63 be 02 08 c3 bd 1e a6 9a 3e
       0.122911066 -0.22196664 -0.09523012 0.30204862
0002f0 57 af 2d 3d 7d 99 cb 3e 87 05 16 be d8 1d 39 3e
       0.042403545 0.3976554 -0.14650546 0.1807779
000300 00 b3 ce bd b9 56 fd 3d 01 6a 21 be f6 4d c6 be
       -0.10092735 0.12370057 -0.15763094 -0.38731354
000310 02 86 29 3e 72 ac 88 3d 2c 1c b6 be 24 fc 65 bc
       0.16555026 0.06673516 -0.35568368 -0.014037166
000320 74 69 9c 3d 7d 34 a8 3e 44 86 ce 3e 7d 47 94 bd
       0.07637301 0.32852545 0.40336812 -0.07240198
000330 06 b6 93 bd f0 23 bb bd ff d9 7a be b6 6c 4c 3e
       -0.072124526 -0.09137714 -0.24497221 0.19963345
000340 8c a5 cc 3e ee 23 d0 3e 47 c7 d6 be 72 52 df be
       0.39970052 0.40652412 -0.41948912 -0.43617588
000350 5c ab 81 be 16 d8 97 bd 4d 4c d8 bd 46 c7 e2 be
       -0.2532605 -0.07414262 -0.10561428 -0.4429266
000360 f7 46 b6 be 34 79 a5 be 6c c7 f0 bd db 52 d9 3b
       -0.35601017 -0.32319033 -0.11756787 0.0066321916
000370 e5 cb c8 3e 36 32 c5 be 28 88 5e 3e 79 74 db bd
       0.3921806 -0.3851487 0.21731627 -0.10715575
000380 99 51 92 3e 10 c1 ad be 49 f7 b8 be 6f d8 d8 bd
       0.2857788 -0.33936357 -0.36126164 -0.105881564
000390 9b ef 2c 3e f0 03 ab be 5c 80 c3 bd 8d 0d a4 be
       0.16888277 -0.33401442 -0.09545967 -0.32041588
0003a0 52 ff 6e 3e 45 c7 46 be a1 35 4a be 16 5c b4 be
       0.23339584 -0.19411953 -0.1974702 -0.35226506
0003b0 b1 46 af 3d 8a 0b c0 3e 95 91 d5 3d d5 7d 23 3e
       0.08558405 0.37508804 0.10428158 0.1596597
0003c0 6d 68 a3 3e c4 94 e1 bc dd 42 05 bb f1 a2 b2 3e
       0.31915608 -0.027536757 -0.0020334043 0.3488994
0003d0 c3 48 0c be 84 99 bf be b8 87 83 3d ca 24 e9 3d
       -0.13699631 -0.3742181 0.06422371 0.1138397
0003e0 ae 55 13 3d 05 d2 a1 3e 3c b6 ae 3e 59 1f 85 bd
       0.035970382 0.31605545 0.3412341 -0.0650012
0003f0 bb de 75 3e 80 6a b0 be 72 3c 9a bb 40 94 75 3e
       0.24010746 -0.34456253 -0.0047069127 0.23982334

rho.rho.0.bias f4 [128]
000000 e3 f5 90 be 6f 81 9e 3e 6d 3f 65 3e 54 66 3f 3e
       -0.28312597 0.30958125 0.22387476 0.18691379
000010 95 95 b9 3d a1 34 52 bb 18 e3 00 3e 85 02 3a bd
       0.09061734 -0.0032074826 0.1258663 -0.04541256
000020 d4 22 cd be aa ed a0 ba 8e b4 9d be 2e ed 8a 3e
       -0.40065634 -0.0012277861 -0.30801815 0.2713408
000030 5e 6d dd be 1c 06 25 be 7f 2f 62 3d af 86 22 3e
       -0.43247503 -0.16115612 0.055221077 0.1587169
000040 53 09 a8 3e b2 1f 92 3e 05 b7 d8 bc 1a c8 7a 3e
       0.32819614 0.28539807 -0.026454458 0.24490395
000050 bd 3d 62 bc 8d 69 12 be 01 2e c2 bd be 40 ee bc
       -0.013808665 -0.14298077 -0.09481431 -0.029083606
000060 8c e6 6e bd 52 17 05 bd b8 a8 79 be 97 88 b6 3d
       -0.058325335 -0.032492943 -0.24380767 0.08912771
000070 15 32 be 3d 8a 72 12 3e 89 78 1b be dd 9a 31 3d
       0.09286896 0.14301506 -0.151827 0.04336058
000080 67 7f 30 3e 82 fa 41 be be 1b 81 bd 8c d8 60 3e
       0.172361 -0.18943217 -0.063041195 0.21957606
000090 fd 4a 6e be 6c 71 14 bc d6 c4 c6 bd ef 3c 37 be
       -0.23270793 -0.009060245 -0.09705512 -0.17894338
0000a0 5b 03 c6 be f6 46 2f 3d d1 1c 32 bc 84 c9 b2 be
       -0.38674435 0.042792283 -0.010871128 -0.3491937
0000b0 f2 b8 fa bd e0 b7 21 3d d7 b9 ae 3a 47 06 a9 be
       -0.12242307 0.039481997 0.0013330531 -0.33012602
0000c0 76 e0 3c bd 27 6e 5f 3e 67 61 bc be 3b 5f 80 be
       -0.0461125 0.21819364 -0.36793062 -0.25072655
0000d0 87 09 53 3e 00 19 2a be 10 14 4b be f3 42 83 be
       0.20609103 -0.16611099 -0.19831872 -0.25637016
0000e0 fd 2a e1 38 ee c4 d3 3c 13 fc 2a 3d 1a 77 aa 3d
       0.00010736843 0.02585074 0.041744303 0.08323498
0000f0 11 0f ca b9 12 8b 27 bd 62 58 28 bd a1 fd ce be
       -0.00038539668 -0.040904112 -0.041099913 -0.40427878
000100 30 32 6e be 9c b1 2c 3e c4 68 91 bb 63 fe 85 be
       -0.23261333 0.16864628 -0.004437538 -0.26170644
000110 8a 32 67 be c1 89 40 3e fc 7a b0 be a0 c3 80 be
       -0.22577873 0.18802549 -0.3446883 -0.2514925
000120 de 6c 83 3e b1 ad a6 be 4a dc b2 be ef d6 34 3e
       0.25668997 -0.3255439 -0.34933692 0.17660116
000130 24 68 a0 be 37 16 38 3d 13 20 6a 3e 58 dd 62 3a
       -0.31329453 0.04494306 0.22863798 0.00086541986
000140 ea da 5a be b0 76 62 be 45 f8 bf be 0b eb fc 3d
       -0.21372572 -0.22115588 -0.37494102 0.123495184
000150 30 d2 88 bd 3c 0a 08 bc 27 5a 80 be 7b 97 a1 be
       -0.06680715 -0.008303221 -0.2506878 -0.31560883
000160 bb 7d 08 be fb 29 03 3a 38 35 3f 3e 8b c5 5b 3e
       -0.13329212 0.0005003509 0.18672645 0.21462075
000170 c5 80 e7 3b 98 6f cc be 70 a3 44 3e 20 7a 26 be
       0.007064911 -0.3992889 0.19202971 -0.16257524
000180 ec eb d3 bb 41 0b 28 bd bd b0 6b be c2 40 0e be
       -0.006467333 -0.041026358 -0.23016639 -0.1389189
000190 9d 6b 8d bd 86 4f a5 be bc c9 7d be 9a 66 59 bd
       -0.06905291 -0.32287234 -0.24783987 -0.053076364
0001a0 44 fe 83 3d 6d 44 c1 3e 1e 3f 24 3e 6d 71 2d 3e
       0.06444982 0.37747517 0.16039702 0.169378
0001b0 49 d5 91 bc ff 36 52 3e fe 32 0d be 72 20 a1 be
       -0.017801898 0.20528792 -0.13788983 -0.31470066
0001c0 f3 a3 8e 3e 45 21 0d 3e 07 b1 80 3e ec 4a 0e 3e
       0.27859458 0.13782223 0.2513506 0.13895768
0001d0 32 bf a8 be dd 5f bd be 67 3c ac 3e e4 3f 97 be
       -0.3295837 -0.369872 0.33639833 -0.29540932
0001e0 8f 3e ef bd 4c d9 83 be da b5 a8 3d 83 3c 33 3e
       -0.11681854 -0.25751722 0.082378104 0.17503552
0001f0 f0 44 e6 bc 7a e6 a4 3b 23 13 a4 bc 16 0a 17 bd
       -0.028109044 0.0050323578 -0.020028656 -0.036874853

rho.rho.2.weight f4 [128, 128]
000000 a1 99 af 3d 56 b0 09 bc 29 86 94 bd 09 70 db bd
       0.08574224 -0.008403858 -0.072521515 -0.107147284
000010 4e e4 b6 bd d8 c0 8c bd 61 e3 fc 3c f3 18 ae bd
       -0.089302644 -0.068727195 0.030870141 -0.085008524
000020 16 a3 2b 3c 94 d9 78 3d 42 06 1f 3a 70 de 00 bc
       0.010475894 0.060754374 0.0006066301 -0.007865533
000030 84 ad 31 bd 45 05 d0 3a 68 61 17 bd d8 9d 8d 3b
       -0.043378368 0.0015870711 -0.03695813 0.004321795
000040 ec 06 d8 3c e4 99 d5 bd 43 1f 18 bc b8 01 d2 bd
       0.026370488 -0.10429743 -0.009284797 -0.10254234
000050 85 82 9d 3d af 79 09 3e b0 51 89 3d d1 44 a6 39
       0.0769091 0.13425325 0.06705034 0.0003171326
000060 9a 34 92 bd 85 02 21 3d 35 5d ad bc fb 31 6b bd
       -0.07138939 0.039309043 -0.021162609 -0.057420712
000070 4c 16 e2 bd 97 31 ee bd c8 b4 b4 bd 83 d4 54 bc
       -0.11039409 -0.11630552 -0.08823544 -0.01299012
000080 e6 48 71 3c 44 9d db bc da 52 0e be 3f 5a 62 bd
       0.014726853 -0.026808389 -0.13898793 -0.055261847
000090 d9 93 12 3d c6 cb 1a 3d 67 79 3f 3d ae 29 0a bd
       0.03578553 0.03779199 0.046746638 -0.033731155
0000a0 76 9f a7 3d ac 0a 72 3b 79 b8 21 3c e4 83 73 3d
       0.08184712 0.003693263 0.009870642 0.059451953
0000b0 3a 7d e3 bd 6b 68 ca bc 2e 5c 12 bd 97 d2 86 ba
       -0.111078694 -0.024707993 -0.03573244 -0.0010286149
0000c0 c3 80 a3 3d 10 cb a5 3b 8d 3f a4 3c 6b f9 d1 3c
       0.07983544 0.0050596073 0.020049835 0.025631627
0000d0 35 7a ba bd 19 11 88 3d de 34 bb 39 ae a2 2a bd
       -0.091053404 0.06643886 0.0003570681 -0.04165905
0000e0 ff 34 c7 bc b5 3c b9 bc 86 1a 16 bd 1a 59 25 bd
       -0.024317263 -0.022611955 -0.03664639 -0.040368177
0000f0 b0 f7 e6 3b ed ed 66 3d 5d 32 30 3c 10 92 8f 3d
       0.0070485696 0.056379247 0.010754195 0.07010281
000100 1c 1f 86 bd c6 30 82 bd e7 fd e8 bc 2f c7 f4 bc
       -0.065489024 -0.06356959 -0.028441383 -0.029880134
000110 16 7b b1 bd 37 80 2c 3c 66 49 00 bb 81 33 96 3d
       -0.08666055 0.010528616 -0.0019575 0.07334042
000120 cf 2d 19 3d f0 27 fb 3c 7e d1 e6 3c be cb 05 3d
       0.037397202 0.030658692 0.028176066 0.032665007
000130 15 13 54 3d 0d 57 cc 3b 63 0b 83 bd 06 b8 da bc
       0.05177601 0.006235963 -0.06398656 -0.026699077
000140 2b 54 92 bd 25 6d 96 3d 38 3b 9a 3d 86 dc 6e bd
       -0.0714496 0.073450364 0.07530826 -0.058315776
000150 37 a4 49 bd 5d b7 86 bb 25 78 eb 3c b1 4a 52 3b
       -0.049228873 -0.004111214 0.028743813 0.0032087977
000160 4e c9 05 be 7c 2c 61 bd 31 71 a6 bd 0f fb fa 3b
       -0.13065073 -0.054974064 -0.08127058 0.007659323
000170 e5 6d da bd 21 43 8d bd 6a 66 ab 3c a1 50 94 bd
       -0.10665492 -0.068975694 0.020922858 -0.07241941
000180 4c d5 89 bb 49 56 39 3d a1 b1 aa bd 8b ca a7 bd
       -0.004206335 0.045248304 -0.08334661 -0.08192929
000190 ce 03 45 3b 3f 84 f5 bb 00 05 0c 3d 03 50 7d 3c
       0.0030062082 -0.0074925716 0.034184456 0.015460971
0001a0 58 11 bd bd 4e 19 d0 3c 20 80 5c bd a8 62 df bc
       -0.09231824 0.025402691 -0.053833127 -0.027268723
0001b0 e9 6a 0c bd bb ad 20 3d 5a 15 49 bd 02 ce 1e bb
       -0.034281645 0.039228182 -0.049092628 -0.0024231677
0001c0 27 67 e4 bd a5 b4 46 bc a6 23 ad 3b 9c b9 67 bc
       -0.11152487 -0.01212803 0.0052837906 -0.014143374
0001d0 73 ed b2 bd 28 56 c6 3b ab e5 07 be 9e a6 10 bd
       -0.08736696 0.006052751 -0.13271205 -0.03531515
0001e0 3f 66 2c 3b 90 b0 cd 3d 5e b5 a7 bd 79 22 0c ba
       0.002630606 0.10043442 -0.0818889 -0.0005345713
0001f0 c1 f6 83 3d 1c 13 3b bd 4d 56 b3 3d 1f ec b2 bc
       0.06443549 -0.04567252 0.08756695 -0.021841107
000200 62 d5 9d 3c 79 3c 19 bd 11 84 2e 3b df 10 e5 3c
       0.019266788 -0.037411187 0.002662901 0.027962146
000210 54 e2 b3 bd a3 1c 7f 3d 14 d3 29 3d 6e ec 0f bd
       -0.08783403 0.06228317 0.041461065 -0.035137586
000220 4e d3 65 bd 49 94 26 bd 87 08 14 3d 1d 37 b2 bd
       -0.05610972 -0.04066876 0.036140945 -0.08701918
000230 c6 10 28 bd 25 7a 7a bd 95 4f a0 3d 13 ad 46 3d
       -0.04103162 -0.061151642 0.07827679 0.0485049
000240 03 4f b3 bd 64 39 98 bd 50 15 31 bd 18 ff 8d 3d
       -0.08755305 -0.074328214 -0.043233216 0.06933421
000250 51 6d 85 3d ed f2 43 3d 27 e6 c8 3c d3 86 8c bd
       0.06514991 0.047839094 0.024523808 -0.06861653
000260 6e 10 76 bc 07 ea 9d 3d 44 8c 58 bd d2 be cc bc
       -0.015018566 0.07710653 -0.052868143 -0.024993334
000270 34 29 71 3d 05 7e b9 bc 68 4b 4e bd 29 27 6b bd
       0.058877185 -0.022643099 -0.05036488 -0.057410393
000280 2d 19 53 bd ee 2c a7 bd 20 70 23 bc 85 b6 18 bb
       -0.05153768 -0.081628665 -0.009975463 -0.002330215
000290 73 6b 65 3d 4b 23 36 bd 0e 33 cc bc 2e 10 7e bd
       0.056010675 -0.04446725 -0.024926689 -0.06202715
0002a0 68 75 b2 3d fb e8 76 3a 12 8f ad bd 5e f0 25 3d
       0.087138 0.0009418872 -0.08474554 0.040512435
0002b0 56 bd 46 3d 94 70 75 3d d3 89 b4 3d 36 e7 96 bc
       0.04852041 0.059921816 0.088153504 -0.018420797
0002c0 d1 fe 9d 3c 6a 4d 89 3d f0 f8 84 3c f7 22 2b bc
       0.019286545 0.06704219 0.016231984 -0.010445348
0002d0 97 4c 52 3c 8c 8a f0 bc 8e e9 87 3d ce 7c 0b 3d
       0.012835643 -0.02936294 0.06636344 0.03405457
0002e0 d9 c5 5f 3d 2d 37 f8 3c 04 c1 f0 3c 7d ee 29 3c
       0.05463204 0.030299747 0.029388912 0.010371801
0002f0 3d 0c 29 bd 17 cb 29 bb 42 08 0e 3d 19 5f 5c bd
       -0.041271437 -0.0025908404 0.034675844 -0.05380163
000300 92 8b b3 3d 88 97 8c 3d 7f fa 5c bd 01 4d 81 bd
       0.08766855 0.0686484 -0.05394983 -0.063135155
000310 3f cc b0 3c 4c ff 85 bd 5c 8a 16 3d 39 2b 69 3d
       0.021581767 -0.06542835 0.036753044 0.056925986
000320 5b 75 1c 3d 89 95 c9 3b 9d 11 3b bd 0a f2 a1 bd
       0.038197856 0.006151859 -0.045671094 -0.079074934
000330 f1 3c d3 3c 37 89 84 3d c7 7b 0d bb 5d e1 8c bb
       0.025785895 0.06471484 -0.002158867 -0.0042993263
000340 61 56 11 bd 8b f8 dc 3b ea 89 0a bd 3d 43 92 bd
       -0.035482768 0.006743496 -0.03382293 -0.07141731
000350 97 6c da 3b 52 e1 01 bd bb 2f 3f bd fc 9b 99 bd
       0.006665777 -0.031709023 -0.04667638 -0.07500455
000360 ab 39 dc bc 2b 8e 10 3c 0e 4b 90 bd 4f 07 6d 3c
       -0.026882967 0.008822958 -0.070455655 0.014467075
000370 e6 e6 de bc 29 72 16 3d c3 9a 19 3d de 38 91 bc
       -0.02720971 0.036729965 0.037501108 -0.017727312
000380 a2 bc ac bd 6b b9 a4 bc 33 77 95 bd d3 32 fc 3b
       -0.08434416 -0.020107945 -0.07298126 0.0076964884
000390 ea f0 aa bd 7e ab 90 bd 4e 11 52 3d 90 d6 35 bd
       -0.08346732 -0.070639595 0.051286034 -0.044394076
0003a0 b3 22 b8 3c a5 2b 97 3d fb 48 8e bd 6c f9 a3 bd
       0.022477483 0.073813714 -0.06947514 -0.08006558
0003b0 63 a0 8b bd 19 93 29 3d af 87 a4 3d 77 27 9c 3c
       -0.06817701 0.04140005 0.08033692 0.019061787
0003c0 a2 35 86 bd db c1 46 bd ba 07 17 bd 0a 0a ae bd
       -0.065531984 -0.04852472 -0.036872603 -0.084980085
0003d0 a4 ce 0f 3d c8 35 87 3d 33 16 96 3d 63 0c a5 bd
       0.035109177 0.06602055 0.07328453 -0.08059003
0003e0 fe 0a 07 3d 6b 30 8a bc 16 99 ab bd 6e 3d 61 3d
       0.032969467 -0.01686879 -0.08378808 0.054990225
0003f0 b4 a4 43 3d 5e 8e a9 bb d9 c5 aa 3b 15 92 68 bd
       0.047764495 -0.005174442 0.0052115736 -0.05677994

rho.rho.2.bias f4 [128]
000000 f1 fc fe bd 20 26 44 3b e2 07 c6 bc d4 ac f9 bd
       -0.124505885 0.002992995 -0.02417368 -0.121911675
000010 64 c0 7c bd 88 ac 4c bd 63 06 39 bc e4 84 cf 3c
       -0.061706915 -0.049969226 -0.011293027 0.025331922
000020 2b 81 e9 bc 30 66 48 bc 9f 17 e1 bd 77 db 64 bd
       -0.028503975 -0.012231395 -0.109908335 -0.05587336
000030 6d a8 a4 bd 88 c6 a9 bd ad 6d a6 bd 60 69 d4 bc
       -0.08039937 -0.0828982 -0.08126388 -0.025929153
000040 a4 c2 48 3a cf 1c 90 bd d2 a6 f0 bd ef ab 7f bd
       0.0007658398 -0.07036745 -0.117505684 -0.062419828
000050 98 a4 5e bd 87 a5 1e bd 10 46 0e 3d cd 7d 3d bd
       -0.054356188 -0.038732078 0.034734786 -0.04626255
000060 95 9e e2 3a ca 3f d9 3c 3d 16 84 bc a3 74 01 be
       0.0017289693 0.026519675 -0.016123885 -0.1264215
000070 b2 b8 11 be ec 5f fb bc 2c 20 8e bd ab 71 2a bd
       -0.14230612 -0.030685388 -0.0693973 -0.04161231
000080 a7 b6 03 bd 97 61 1b bd d0 d4 9d bd f4 10 84 39
       -0.032156613 -0.037934866 -0.077066064 0.00025189633
000090 fe 1d c0 3b 2e b9 f6 bd 3d d8 0d 3d 84 2b dc bd
       0.0058629503 -0.12047039 0.03463005 -0.107504874
0000a0 ca 2b 86 bd 18 a6 54 bc ef 8b 63 bd a5 10 1f 3d
       -0.06551321 -0.012979053 -0.055553373 0.038834233
0000b0 29 2a fa bd d4 fa 3b bd e0 06 8a bc 52 70 3f 3c
       -0.12215073 -0.045893505 -0.016848981 0.011684494
0000c0 cd 8d 56 bc 02 20 a6 bd 19 fb 61 bc 17 34 2b bd
       -0.013095331 -0.08111574 -0.0137927765 -0.041797724
0000d0 41 3b 82 bd 59 f0 d0 3c c3 d6 b6 3c bd aa f5 bd
       -0.06358958 0.025505232 0.022319203 -0.11995456
0000e0 64 a9 5d bd 62 90 1e 3d fd 76 46 3c 0a fd 0d 3d
       -0.05411662 0.038711913 0.01211333 0.034665145
0000f0 bb 5d 0c bd bc cc 5c bd ed 52 3c 3d 47 40 2f bd
       -0.034269076 -0.053906187 0.04597752 -0.04278591
000100 85 66 45 bd 69 b1 d5 bd c1 02 96 bd 71 90 b2 3a
       -0.048193473 -0.10434229 -0.07324744 0.0013623369
000110 5f e5 a8 bc a3 46 1c bd 95 33 30 bd 2a f1 ea bd
       -0.020617185 -0.038153302 -0.043017942 -0.1147178
000120 c3 d8 6b 3c 02 be 65 bd 8d 7a c7 bb 21 1f 4f bc
       0.014394942 -0.05608941 -0.0060876072 -0.012641699
000130 6b 06 40 bd ff c0 9b 3c 00 23 1c 3c b2 a6 bf 3d
       -0.04688112 0.019012926 0.009529829 0.093579665
000140 f1 14 25 bd ec d5 78 bc bc e3 27 3c d1 bd af bd
       -0.040303174 -0.015187722 0.010247167 -0.085811265
000150 61 5b af bb a4 1d 41 bd 01 98 83 bc c3 d7 20 bd
       -0.0053514694 -0.047147408 -0.016063692 -0.039268266
000160 81 b1 46 bc 10 52 cf bc 5b be 72 bd 83 d2 9c bd
       -0.012127281 -0.025307685 -0.05926357 -0.076573394
000170 20 24 57 bd 57 7c 0a 3c 4e 0f 58 3a e4 6d a5 bd
       -0.052524686 0.0084524965 0.00082420267 -0.080776006
000180 92 b5 a6 3b ea 61 36 bd 52 4e ad 3c d8 21 a0 3c
       0.005087563 -0.044526972 0.02115551 0.019547388
000190 89 f1 4f 3d 28 cc 5f 3c d7 9a 22 bd 03 75 3c bd
       0.050767455 0.0136595145 -0.039698448 -0.04601003
0001a0 af f5 66 bd 67 88 3a bd 9f 4d 3a 3c 14 73 9c bc
       -0.056386646 -0.04554024 0.011371045 -0.019097842
0001b0 89 ec a7 3c 11 a8 f1 3c be 5d 82 3c 93 d3 b5 bd
       0.020498531 0.029499086 0.01591384 -0.08878245
0001c0 70 bf a8 bb fc cc 4e bd 1f a0 bc bd 15 9c b9 bd
       -0.0051497743 -0.050488457 -0.09210228 -0.090629734
0001d0 57 24 af 3c 31 30 40 bd a0 4e ae bd e7 5f 7d 3d
       0.021379633 -0.04692096 -0.0851109 0.061859038
0001e0 4a 33 45 3d 57 db 9d bd 46 51 d1 bd 61 c7 53 3c
       0.048144616 -0.077078514 -0.1022058 0.012925954
0001f0 34 ed 56 bd 86 a0 b0 bd e0 1a 27 be 4f e3 e8 bd
       -0.05247231 -0.086243674 -0.16318846 -0.11371481
