src/lightning_logs/version_19/checkpoints/epoch=199-step=200.ckpt (torch, 13235 bytes, 21 tensors)

phi.phi.0.weight f4 [6, 3]
000000 c7 8d b1 3e 39 14 10 bf 66 aa b2 3e 06 69 8c be
       0.3467848 -0.5628086 0.3489563 -0.27423877
000010 b8 e7 80 3e 16 cb e9 bd ba 07 2e 3e ac fa ee be
       0.25176787 -0.11415689 0.16995135 -0.46675622
000020 43 1d 10 bf 65 d3 0f be 3c 9f 9b be de 1a 9d be
       -0.5629465 -0.14045484 -0.30394924 -0.3068456
000030 67 21 a9 be 9c e5 03 bf 81 c4 22 bf 14 6b 93 3b
       -0.33033296 -0.5152223 -0.6358109 0.0044988487
000040 ff 44 9a 3d 17 e1 dc be
       0.07532691 -0.4314048

phi.phi.0.bias f4 [6]
000000 19 d8 b8 bd 24 0f 1f 3d dd c1 32 3e 0e 0e a4 be
       -0.09025592 0.0388328 0.17456765 -0.32041973
000010 fc 2e b9 3e 32 a0 2d be
       0.3616866 -0.16955641

phi.phi.2.weight f4 [6, 6]
000000 4f b1 1a 3c 0d c1 0d 3e 00 dd fd bd 10 92 8c 3e
       0.009441688 0.13843174 -0.12395668 0.27455187
000010 0c d9 2b 3e 2f 66 d4 3d db 18 a3 be e7 44 e9 3d
       0.16782016 0.103710525 -0.318549 0.11390095
000020 04 13 b0 be b4 04 c6 bc 71 40 8d 3e 7b 66 93 be
       -0.34389508 -0.024172164 0.27588227 -0.28789124
000030 82 2b 08 3d b8 31 bb be 24 d6 8d bd 7e 32 0a 3d
       0.033244617 -0.3656137 -0.0692561 0.03373956
000040 b1 f5 c5 be 5a 9a ac be 63 67 ee 3c bb ce da 3d
       -0.3866401 -0.3371151 0.029102033 0.10683962
000050 aa 6e ac 3e 62 03 e8 3d 4f 91 3c 3e 1a ef 61 be
       0.3367818 0.1132877 0.18414806 -0.22063866
000060 d3 dc b2 3e 13 77 a5 be d3 bd a1 be f8 0d 69 3d
       0.349341 -0.3231741 -0.31590137 0.056898087
000070 64 64 d6 3c e5 7f fc 3d da c7 cd bc ae 09 2a bc
       0.026170917 0.123290814 -0.02511971 -0.010378284
000080 9d ad 85 3e af a1 80 be 5b 1f ee bd e7 3b c3 bc
       0.2610902 -0.25123355 -0.11627074 -0.023832275

phi.phi.2.bias f4 [6]
000000 ad 66 b3 3e 42 68 cf bc 2b dc c4 be 4a 2d 90 be
       0.35039273 -0.025318269 -0.38449225 -0.28159553
000010 01 17 b6 be a2 1a 82 3e
       -0.35564426 0.25410944

rho.rho.0.weight f4 [6, 6]
000000 65 81 11 3e 2c 99 25 be 76 2c 7f 3e a6 04 f4 3d
       0.14209516 -0.16171712 0.24919304 0.11914949
000010 fc bb 33 be ea 48 9b 3d 3f 8b 53 3e 5c 4d 8c 3c
       -0.17552179 0.07582267 0.20658587 0.017126732
000020 60 56 50 3e c4 4c 9d be 5a 6e 2a be 5d 05 f3 3e
       0.2034545 -0.3072263 -0.16643658 0.4746503
000030 0e a5 c2 bd b1 ac 51 3d be 87 a2 be b0 b2 bf bd
       -0.09504138 0.051190082 -0.31744188 -0.09360254
000040 c1 d5 a1 be 98 09 49 3e 1e b8 95 be eb 72 8a be
       -0.31608394 0.19632566 -0.29242033 -0.270408
000050 54 b6 b1 be 50 49 b4 be 9a ab 21 bd 19 f4 9c be
       -0.34709418 -0.35212183 -0.039470293 -0.30654982
000060 08 ab 97 3e f5 0d cb bd 62 2b a4 be 2a 6b 12 bd
       0.29622674 -0.099147715 -0.32064348 -0.03574673
000070 b9 79 56 be ba a0 9a be 22 62 e3 be ff c1 a0 be
       -0.20944871 -0.3020075 -0.44410807 -0.31398007
000080 77 e6 b8 3e 4e c5 15 3e 83 5a 7d 3e 3a 8c 57 3e
       0.3611333 0.14626047 0.24741559 0.21049586

rho.rho.0.bias f4 [6]
000000 7a ac 22 be f1 06 2b bd 49 de 99 be b7 7a b3 be
       -0.15886107 -0.041754667 -0.30052403 -0.35054561
000010 5c 80 bc 3e ef 58 b4 bc
       0.3681668 -0.022015063

rho.rho.2.weight f4 [1, 6]
000000 9a 6c 85 be e1 6d 48 be b9 f7 0c be f9 b5 81 3e
       -0.2605942 -0.19573165 -0.13766374 0.25334147
000010 25 ab 35 be 31 3a 9b 3d
       -0.17741068 0.075794585

exp_avg f4 [6, 3]
000000 00 00 00 00 00 00 00 00 00 00 00 00 00 00 00 00
       0.0 0.0 0.0 0.0
000010 00 00 00 00 00 00 00 00 4e ed 11 2c 09 dd e1 2b
       0.0 0.0 2.073747e-12 1.6048561e-12
000020 24 b2 cd 2b 00 00 00 00 00 00 00 00 00 00 00 00
       1.461557e-12 0.0 0.0 0.0
000030 f1 51 74 2c 91 42 2c 2c 8c 9e 1a 2c 00 00 00 00
       3.4719972e-12 2.4479622e-12 2.1972727e-12 0.0
000040 00 00 00 00 00 00 00 00
       0.0 0.0

exp_avg_sq f4 [6, 3]
000000 00 00 00 00 00 00 00 00 00 00 00 00 00 00 00 00
       0.0 0.0 0.0 0.0
000010 00 00 00 00 00 00 00 00 64 68 8b 33 55 d8 13 33
       0.0 0.0 6.4916804e-08 3.4422857e-08
000020 d7 c9 f0 32 00 00 00 00 00 00 00 00 00 00 00 00
       2.8031463e-08 0.0 0.0 0.0
000030 d1 02 e8 32 2f 17 6e 32 61 e3 40 32 00 00 00 00
       2.7009635e-08 1.3858695e-08 1.1227571e-08 0.0
000040 00 00 00 00 00 00 00 00
       0.0 0.0

exp_avg f4 [6]
000000 00 00 00 00 00 00 00 00 79 da b4 2c 00 00 00 00
       0.0 0.0 5.140163e-12 0.0
000010 c5 cc 0e 2d 00 00 00 00
       8.1172334e-12 0.0

exp_avg_sq f4 [6]
000000 00 00 00 00 00 00 00 00 63 36 c6 34 00 00 00 00
       0.0 0.0 3.6919946e-07 0.0
000010 48 93 21 34 00 00 00 00
       1.5047874e-07 0.0

exp_avg f4 [6, 6]
000000 00 00 00 00 00 00 00 00 81 6a 16 aa 00 00 00 00
       0.0 0.0 -1.3359627e-13 0.0
000010 fc 34 7f 2b 00 00 00 00 00 00 00 00 00 00 00 00
       9.066773e-13 0.0 0.0 0.0
000020 24 29 03 2b 00 00 00 00 c7 1f 8b 2b 00 00 00 00
       4.6597643e-13 0.0 9.885364e-13 0.0
000030 00 00 00 00 00 00 00 00 00 00 00 00 00 00 00 00
       0.0 0.0 0.0 0.0
000040 00 00 00 00 00 00 00 00 00 00 00 00 00 00 00 00
       0.0 0.0 0.0 0.0
000050 00 00 00 00 00 00 00 00 00 00 00 00 00 00 00 00
       0.0 0.0 0.0 0.0
000060 00 00 00 00 00 00 00 00 00 00 00 00 00 00 00 00
       0.0 0.0 0.0 0.0
000070 00 00 00 00 00 00 00 00 00 00 00 00 00 00 00 00
       0.0 0.0 0.0 0.0
000080 74 3f 57 2b 00 00 00 00 8d ac d2 2b 00 00 00 00
       7.6471403e-13 0.0 1.496929e-12 0.0

exp_avg_sq f4 [6, 6]
000000 00 00 00 00 00 00 00 00 11 43 40 33 00 00 00 00
       0.0 0.0 4.476448e-08 0.0
000010 be 51 d7 33 00 00 00 00 00 00 00 00 00 00 00 00
       1.00265865e-07 0.0 0.0 0.0
000020 af c2 4d 31 00 00 00 00 f1 0b f8 32 00 00 00 00
       2.994209e-09 0.0 2.887643e-08 0.0
000030 00 00 00 00 00 00 00 00 00 00 00 00 00 00 00 00
       0.0 0.0 0.0 0.0
000040 00 00 00 00 00 00 00 00 00 00 00 00 00 00 00 00
       0.0 0.0 0.0 0.0
000050 00 00 00 00 00 00 00 00 00 00 00 00 00 00 00 00
       0.0 0.0 0.0 0.0
000060 00 00 00 00 00 00 00 00 00 00 00 00 00 00 00 00
       0.0 0.0 0.0 0.0
000070 00 00 00 00 00 00 00 00 00 00 00 00 00 00 00 00
       0.0 0.0 0.0 0.0
000080 a1 a6 a1 31 00 00 00 00 51 aa d4 32 00 00 00 00
       4.70466e-09 0.0 2.47575e-08 0.0

exp_avg f4 [6]
000000 1d 84 01 33 8d b1 11 2c 00 00 00 00 00 00 00 00
       3.015531e-08 2.07043e-12 0.0 0.0
000010 00 00 00 00 83 19 5c 32
       0.0 1.2811486e-08

exp_avg_sq f4 [6]
000000 57 ea 1a 37 08 74 c9 35 00 00 00 00 00 00 00 00
       9.233677e-06 1.5009437e-06 0.0 0.0
000010 00 00 00 00 3e 07 29 36
       0.0 2.5187178e-06

exp_avg f4 [6, 6]
000000 c6 df 3f 2e e3 cb c7 ab 00 00 00 00 00 00 00 00
       4.3627123e-11 -1.419639e-12 0.0 0.0
000010 00 00 00 00 37 1b 20 2e 1a d7 be 32 90 41 67 ac
       0.0 3.640396e-11 2.2216728e-08 -3.2863469e-12
000020 00 00 00 00 00 00 00 00 00 00 00 00 6e 71 8a 32
       0.0 0.0 0.0 1.6116896e-08
000030 00 00 00 00 00 00 00 00 00 00 00 00 00 00 00 00
       0.0 0.0 0.0 0.0
000040 00 00 00 00 00 00 00 00 00 00 00 00 00 00 00 00
       0.0 0.0 0.0 0.0
000050 00 00 00 00 00 00 00 00 00 00 00 00 00 00 00 00
       0.0 0.0 0.0 0.0
000060 50 df ac 32 49 c2 13 ac 00 00 00 00 00 00 00 00
       2.0124986e-08 -2.0997806e-12 0.0 0.0
000070 00 00 00 00 f0 d6 7a 32 15 94 98 2c 11 d4 cb 2b
       0.0 1.4600786e-08 4.3365402e-12 1.4482878e-12
000080 00 00 00 00 00 00 00 00 00 00 00 00 f0 5c ba 2c
       0.0 0.0 0.0 5.296756e-12

exp_avg_sq f4 [6, 6]
000000 79 8e 59 36 28 a4 39 33 00 00 00 00 00 00 00 00
       3.241845e-06 4.322297e-08 0.0 0.0
000010 00 00 00 00 73 f3 1d 36 db f3 25 36 08 ff 09 34
       0.0 2.353653e-06 2.4728859e-06 1.2851899e-07
000020 00 00 00 00 00 00 00 00 00 00 00 00 3b c7 21 36
       0.0 0.0 0.0 2.4106837e-06
000030 00 00 00 00 00 00 00 00 00 00 00 00 00 00 00 00
       0.0 0.0 0.0 0.0
000040 00 00 00 00 00 00 00 00 00 00 00 00 00 00 00 00
       0.0 0.0 0.0 0.0
000050 00 00 00 00 00 00 00 00 00 00 00 00 00 00 00 00
       0.0 0.0 0.0 0.0
000060 b2 16 a0 35 7e c2 57 33 00 00 00 00 00 00 00 00
       1.1927534e-06 5.0235478e-08 0.0 0.0
000070 00 00 00 00 52 34 91 35 5c a6 39 35 fc 46 a9 33
       0.0 1.0818569e-06 6.9159955e-07 7.882588e-08
000080 00 00 00 00 00 00 00 00 00 00 00 00 45 a9 90 35
       0.0 0.0 0.0 1.07781e-06

exp_avg f4 [6]
000000 4d 93 ec 2e 80 16 88 33 00 00 00 00 00 00 00 00
       1.07582034e-10 6.337086e-08 0.0 0.0
000010 03 b2 76 33 44 15 82 2d
       5.743824e-08 1.4788733e-11

exp_avg_sq f4 [6]
000000 02 a7 b5 37 03 f7 b0 37 00 00 00 00 00 00 00 00
       2.165465e-05 2.1095859e-05 0.0 0.0
000010 e8 29 22 37 4b c0 09 37
       9.6657095e-06 8.210608e-06

exp_avg f4 [1, 6]
000000 c4 f5 e0 ad a5 a6 52 b3 00 00 00 00 00 00 00 00
       -2.5574994e-11 -4.9045997e-08 0.0 0.0
000010 c4 60 09 b4 fd e9 ae 2c
       -1.2794322e-07 4.9713554e-12

exp_avg_sq f4 [1, 6]
000000 06 6a 3b 35 4c 84 e7 36 00 00 00 00 00 00 00 00
       6.9817213e-07 6.899738e-06 0.0 0.0
000010 f0 67 3d 38 65 ea a8 35
       4.515791e-05 1.2585193e-06
