src/lightning_logs/version_55/checkpoints/epoch=199-step=2400.ckpt (torch, 33819 bytes, 27 tensors)

phi.phi.0.weight f4 [32, 3]
000000 0e 0c 02 bd 1c e3 0e 3f a5 ce 9e bf c9 8b d9 be
       -0.031749777 0.5581529 -1.2406813 -0.4248946
000010 b1 b4 63 be 53 89 1e 3e 40 6b 3b bc 7a 61 ea 3e
       -0.22236897 0.15482073 -0.011439145 0.45777494
000020 42 dd 51 bd d2 70 1c 3e 9e ab 32 be ea 6b e8 bd
       -0.0512364 0.15277413 -0.1744828 -0.11348708
000030 b2 07 b6 bf 3f 49 f7 3d 90 3f 18 3f 18 75 b3 be
       -1.4221098 0.120745175 0.5947199 -0.35050273
000040 d6 a0 3d be d8 38 e7 3e d2 66 c8 be 69 b9 80 be
       -0.18518385 0.45160556 -0.39140946 -0.25141457
000050 83 bc 56 3e dd 50 06 3f 07 dd ef bf 55 dd 83 3f
       0.20970349 0.5246714 -1.8739327 1.030192
000060 da 95 be bd 65 3b 7a 3d b5 d4 05 3f 79 1c 09 bf
       -0.09305926 0.0610918 0.5227769 -0.5355907
000070 f0 17 ba be 48 ac 15 be cc 73 66 be ca 66 ff 3e
       -0.36346388 -0.14616501 -0.2250511 0.4988311
000080 a4 9a bf be 70 13 88 be 3c 85 ce be df 6c 0a bf
       -0.3742267 -0.2657733 -0.40336025 -0.54072374
000090 8c 05 d8 be e4 b3 4c 3c 03 c6 b9 3f ef a6 b4 3e
       -0.42191732 0.012494061 1.4513553 0.3528361
0000a0 d8 27 3d 3d 01 af 30 bf d5 0b c8 3d 6b 00 0a bf
       0.046180576 -0.69017035 0.09767882 -0.5390689
0000b0 ce 97 d5 be 11 3a ef be 00 cb fc 3d 3f 8c 59 3f
       -0.4171738 -0.4672399 0.12343407 0.84979624
0000c0 3f 19 83 be 3d a8 aa bc 68 0e bd 3e ca 81 0a 3f
       -0.256052 -0.020832175 0.36925054 0.5410429
0000d0 ed aa 43 3e 42 ac 82 bf d0 9f ce 3e 46 b7 50 bf
       0.19108172 -1.0208819 0.40356302 -0.81529653
0000e0 85 94 90 3e d2 2e e5 be ea e0 cc be 2e b4 98 be
       0.2823831 -0.44762284 -0.40015346 -0.29824966
0000f0 99 11 56 3e 64 02 3d 3e 05 f1 c7 be a1 64 88 3e
       0.2090515 0.18457943 -0.3905107 0.26639274
000100 8a 04 e4 3e 3d d7 5c bf 6a f5 a1 3c 69 73 a3 be
       0.44534713 -0.8626593 0.019770343 -0.31923988
000110 32 56 04 3f aa 80 74 3f e1 fd db be 3a cb 89 bf
       0.51694024 0.95508826 -0.42967132 -1.0765145
000120 a1 b8 91 3d 96 b2 2f 3e 8a 04 53 3f 47 fe 4e 3f
       0.07115293 0.17157969 0.824288 0.80856746
000130 6a d4 03 3e bb 70 cf bf db 8b 59 3d 58 ee b8 be
       0.12873998 -1.6206278 0.053111892 -0.36119342
000140 8f be 09 bf c0 42 17 3e bb 51 09 3f 16 74 62 bf
       -0.53806394 0.14771557 0.53640336 -0.88458383
000150 92 50 dd 3d 7a 30 c7 bd 4d 94 c2 bd 80 50 87 be
       0.10806383 -0.09726043 -0.095009424 -0.26428604
000160 28 5a 63 3e 3f 16 af be 74 a2 a7 3d 4f ae ee 3b
       0.2220236 -0.3419666 0.08185282 0.007283963
000170 eb 62 8a 3f 0b 0f 5d 3e d6 48 12 bf c8 c1 bf be
       1.0811437 0.2158777 -0.5714239 -0.3745253

phi.phi.0.bias f4 [32]
000000 48 71 50 3e 10 7b f7 3d 6e 98 e6 be d3 36 aa be
       0.20355713 0.12084019 -0.4503817 -0.33244953
000010 4e 33 f8 3e 9c bf b8 3d f7 e3 80 be 27 8d 99 be
       0.48476642 0.090209216 -0.25173923 -0.29990503
000020 ac cb 0c bf dc 05 2a bc 52 9b de be ff 03 e4 be
       -0.5499828 -0.010377374 -0.43477875 -0.445343
000030 cc e1 c4 3d 55 f0 6b 3d f6 1d 72 be d8 14 84 3e
       0.0961338 0.057602245 -0.23644242 0.25797153
000040 dd e2 b3 be 0c 72 9a 3e 60 fc 97 3e fa 46 f9 be
       -0.3513402 0.30165136 0.29684734 -0.48686963
000050 01 19 47 be a7 f8 f9 bc 9b 33 42 bc 53 5d 0d 3e
       -0.19443132 -0.030514074 -0.011853124 0.13805132
000060 4b 3d c7 3d 42 61 08 ba be 3b 90 be 6b 82 b6 3c
       0.097284876 -0.0005202481 -0.2817058 0.022278985
000070 51 c7 0d bf c1 34 af be 5b c4 41 be 09 fe 8f be
       -0.5538226 -0.34219936 -0.1892256 -0.281235

phi.phi.2.weight f4 [6, 32]
000000 0e 00 c6 be 0c 5e 14 be b0 05 1a bd b5 c6 1a 3d
       -0.38671917 -0.14489001 -0.03760308 0.037787158
000010 b9 21 d0 3b 3c 4c 87 bc 35 95 01 3e 04 81 c4 3c
       0.0063516763 -0.016515844 0.12654574 0.0239873
000020 5d fd a0 3b 86 dc 79 bc 2e 8a 12 3d cf 32 e6 3d
       0.0049130158 -0.015250331 0.03577631 0.1124016
000030 54 2b 15 3e 2a d0 6a be b9 dc 2b 3e 83 68 73 bd
       0.1456731 -0.22930971 0.16783418 -0.059425842
000040 12 9d 22 be 3d ed 69 be d7 59 04 bc c2 33 96 ba
       -0.1588023 -0.22844405 -0.00807806 -0.0011459517
000050 38 2e c4 bd a2 40 ea be 40 88 75 be 97 67 f3 be
       -0.09579128 -0.45752436 -0.23977757 -0.4753997
000060 69 85 fc bd f3 75 3e be a4 bb c3 3d 1a 8d aa be
       -0.123301335 -0.18599682 0.09557274 -0.33310777
000070 4e d5 e1 3d 3b a6 0d be 46 eb 90 bd f9 cb 92 bd
       0.11027013 -0.13832943 -0.07076125 -0.07167811
000080 09 bf 09 be d4 2a 0e bd 0c 70 22 be 88 4c 1c be
       -0.1345178 -0.034708813 -0.15863055 -0.1526357
000090 f3 b3 9a bf a3 51 7b bd 0f 77 a4 bd 9f 20 31 bf
       -1.2086166 -0.06135715 -0.08030521 -0.691904
0000a0 8f ed 22 be c4 76 43 bc 22 31 1f 3e 34 ac 93 bd
       -0.15910934 -0.011930171 0.15546086 -0.072105795
0000b0 b6 98 20 3f d0 4e 08 3e e5 5c 23 be 75 e5 d4 3c
       0.6273302 0.13311315 -0.15953405 0.02598832
0000c0 ea 1b a7 bc c0 d1 18 3c 80 ad 71 3e e6 47 12 be
       -0.020399053 0.009327352 0.23601341 -0.1428524
0000d0 00 a6 21 bd e0 4b 7a be 3d c1 a4 3d a1 3c a4 3e
       -0.03946495 -0.24443007 0.0804467 0.32077506
0000e0 e5 a0 89 3d a2 f0 a6 be 4e 1f 2e bd 80 a5 b0 bc
       0.06720141 -0.32605463 -0.042510323 -0.021563292
0000f0 b7 2c 15 be 25 2b c4 3d 30 5b 5e 3e 42 b7 f7 3d
       -0.14567839 0.09578542 0.21714473 0.120955005
000100 cd 5f ff bd d2 2c 01 3c a2 36 ff bd eb 4b c7 bd
       -0.124694444 0.007884221 -0.12461592 -0.09731277
000110 40 f6 d2 bd 27 73 77 3d 5d be d7 bd ed c1 7c bb
       -0.10300875 0.060412552 -0.10534356 -0.0038567737
000120 42 af f3 3b e3 60 e9 3d 0e d6 08 be 42 8b f8 bd
       0.007436664 0.11395433 -0.13362905 -0.12135936
000130 d0 38 d2 bd 28 67 fd 3d e6 23 82 bd 11 b0 18 3e
       -0.102647424 0.12373191 -0.06354503 0.14910914
000140 79 ea 82 3d c2 5f b7 3c 48 7b ac ba 01 23 0f bd
       0.06392378 0.022384528 -0.0013159299 -0.03494549
000150 d6 b1 b5 3c d6 56 25 bd 4a ce a2 ba 43 c6 b8 3c
       0.022179525 -0.040366016 -0.0012421098 0.022555476
000160 21 98 0d be 7f c1 bd bd fb 2b 12 3e d8 e7 12 be
       -0.13827564 -0.09265422 0.1427459 -0.14346254
000170 13 f9 4f bc 43 12 33 3e 23 c8 82 3d b4 01 a4 3b
       -0.012693661 0.17487435 0.06385829 0.005005086
000180 eb 34 45 be 90 58 b3 3d c4 ef 00 be 28 8a 4d bd
       -0.19258468 0.08757126 -0.12591463 -0.050180584
000190 76 7f c1 bd 84 12 64 bd ff 71 fd 3a 3c 19 e7 3d
       -0.09448139 -0.05568172 0.0019336342 0.1128411
0001a0 33 c9 b4 3c 41 23 22 3e ac 76 dd 3d ca e2 e4 bd
       0.022068596 0.15833761 0.108136505 -0.11176069
0001b0 04 11 69 3d 72 93 2c be eb 70 99 bd 56 8e a7 3c
       0.056900993 -0.16853121 -0.074922405 0.020453613
0001c0 a9 15 6f 3d f6 36 c4 3d cb 34 c3 bd f2 5e 94 39
       0.058370266 0.095807955 -0.09531554 0.000282995
0001d0 73 ab f4 3c 79 90 54 be d0 cc cf 3d b0 75 3c be
       0.02986691 -0.20758237 0.10146487 -0.18404269
0001e0 f0 05 08 bd 94 5a 94 bd 0d ad be bd 93 49 9b bc
       -0.033208787 -0.07243839 -0.093103506 -0.018955981
0001f0 33 b0 15 3e 76 a9 53 bd dd e8 0f be 5d e5 85 bd
       0.14617996 -0.051675282 -0.14053674 -0.06537888
000200 a6 c6 92 be 0d 6c a3 3d c1 df ad bd 5d 9a f1 bd
       -0.28667182 0.079795934 -0.08489943 -0.117970206
000210 66 c2 42 be 6c 5a da bb e5 b9 bf 3d 65 65 4e 3d
       -0.1901947 -0.006663611 0.093616284 0.050389666
000220 de 51 83 3d 0a d0 71 bd 92 57 4a bd 04 ea 55 3d
       0.06412099 -0.059036292 -0.04939992 0.052225128
000230 71 8d 83 3d b3 fe 7a bd 03 4c ab bd 38 ed 44 be
       0.06423462 -0.061278056 -0.083641075 -0.19231117
000240 ef 25 2b be 84 1e 50 bd b3 a7 3f be 78 64 21 be
       -0.1671369 -0.050810352 -0.18716316 -0.15760982
000250 7c f5 41 3d 71 0e 67 be 83 cd dc bd 57 6f 16 bd
       0.047353253 -0.22564103 -0.10781386 -0.036727276
000260 0c 7a d3 bd 89 49 6a be 65 52 12 be bf a3 fd 3c
       -0.10326013 -0.22879614 -0.14289244 0.03096187
000270 cc d0 eb 3c 97 2d 16 3e ca 40 17 be e9 47 55 3d
       0.028786086 0.14665829 -0.14770809 0.052070532
000280 4e 1e bc be 5c cd 00 bc 5f 7f dc bd 35 e2 74 3d
       -0.3674187 -0.0078614615 -0.107664816 0.05978604
000290 ef 58 f1 be ff 7a 00 3c b8 d8 22 bd b3 62 fd be
       -0.47138163 0.007841825 -0.03975746 -0.49489364
0002a0 af 5d fa 3d 52 c1 06 be 93 50 94 3d 3b 79 73 bd
       0.122249 -0.13159683 0.07241931 -0.059441786
0002b0 31 b2 89 3f c6 66 14 be 42 10 bc bd f7 d1 9e 3e
       1.0757505 -0.1449233 -0.091827884 0.31019565
0002c0 e7 31 0e 3d 96 7d 45 be 42 96 87 bc ed 33 9a 3d
       0.03471556 -0.19286188 -0.01655114 0.07529435
0002d0 eb 01 df 3c 76 b2 96 be ee e4 c8 3c 59 b6 b8 be
       0.027222594 -0.2943303 0.024523225 -0.3607662
0002e0 77 59 12 3e 4c 18 33 bf 4c 6c 89 3d d8 53 ea bc
       0.1429194 -0.6995895 0.06710109 -0.028604433
0002f0 00 0a bd bd d2 80 e4 3a 6e b9 95 3e a9 01 63 3c
       -0.09230423 0.0017433411 0.29243034 0.013855376

phi.phi.2.bias f4 [6]
000000 7a ba c0 bd 18 f9 93 3d d5 4e 0e be 40 f7 b5 bc
       -0.094105676 0.07225245 -0.1389726 -0.022212625
000010 fe 33 68 3c a6 9c 50 3e
       0.014172552 0.20372257

rho.rho.0.weight f4 [32, 6]
000000 82 d0 ab 3e 74 9a 93 3d c9 3b 43 3e 2a e9 80 be
       0.33557516 0.07207194 0.19065775 -0.2517789
000010 28 73 a4 be f6 a8 8d be 64 21 c1 3e e5 78 03 3f
       -0.32119107 -0.2766797 0.37720788 0.51356345
000020 dd 7b 90 be d7 40 de 3d d0 6d ac 3e ae d2 2c 3f
       -0.282195 0.10852211 0.3367753 0.6750897
000030 15 af d7 3e 3b 40 6a 3e 94 ae bf bd 11 d1 4e be
       0.42125764 0.22876064 -0.0935947 -0.2019694
000040 f0 9a a4 3e d8 59 a4 3e 8a 0e 53 be 58 cc f7 3d
       0.32149458 0.32099795 -0.20611015 0.12099522
000050 8e fb 49 3e 72 1e 94 3e cb 59 42 be 44 87 3f 3f
       0.19724867 0.28929478 -0.18979566 0.74815774
000060 33 b9 94 bd 30 ee 73 3e 6d 72 96 bd 3c 4e d3 3d
       -0.072618864 0.2382133 -0.07346044 0.103176564
000070 d2 8b 8d 3d 97 48 9b 3e 4a 10 0e be d0 d3 4b 3e
       0.06911434 0.3032882 -0.13873401 0.19905019
000080 20 ff 91 be ef d5 bc 3d 61 6c 8d be 8c 35 ce be
       -0.28514957 0.09220492 -0.2762175 -0.40275228
000090 73 db a7 be 7b 04 a5 3e 8d 2d 62 3e da 1b c4 3e
       -0.32784614 0.3222998 0.22087689 0.383025
0000a0 ef 73 a7 3e ca aa ba be d6 a4 8e be 16 19 87 bd
       0.32705638 -0.36458427 -0.27860135 -0.06596582
0000b0 12 bf 87 be 1a 25 91 3e eb 05 9e be 23 f7 4b be
       -0.26512963 0.2834862 -0.3086389 -0.19918494
0000c0 71 43 a3 be 98 b6 af be b4 ea ab 3e 09 79 8c 3e
       -0.3188739 -0.34318995 0.33577502 0.27436092
0000d0 7f 78 81 3e f1 d2 f9 3e 60 77 5e 3e b9 01 d5 be
       0.25287244 0.48793748 0.21725225 -0.41602877
0000e0 f4 f0 37 3e b8 87 e2 3e 18 2f 53 3e dc f0 36 3f
       0.1796301 0.4424417 0.20623434 0.7146127
0000f0 61 6c 5f 3e 59 00 7b 3e 1b 50 12 be 35 ff 10 3e
       0.21818687 0.24511851 -0.1428837 0.14159854
000100 4b 2b 76 3d ff 06 7c 3e 24 a8 6b be 9c 92 6a be
       0.06009988 0.24612044 -0.2301336 -0.2290749
000110 dc d6 a0 be d5 52 8c 3e df 99 94 3e dd 50 3e bd
       -0.31413925 0.27406946 0.29023644 -0.046463836
000120 6b af 29 be 4d 13 76 3e 01 ab 85 3e ef 80 bf bc
       -0.16570823 0.240308 0.26107028 -0.02337691
000130 88 ee 2c be cf 42 06 3f b6 d4 78 3e f8 26 da be
       -0.16887867 0.5244569 0.24299893 -0.42607856
000140 6e 0d c8 3e 77 b3 64 3e e1 9a 71 be 23 c7 58 3e
       0.39072746 0.22334085 -0.23594238 0.21169715
000150 80 87 6d be 16 07 83 bd 57 7b b1 3e bc 2f 8a 3c
       -0.2319622 -0.06397836 0.34664413 0.016868465
000160 30 d3 93 be 8e b9 0b be 09 f4 e2 bd 6b 4e a1 bd
       -0.2887206 -0.13645002 -0.11081702 -0.07876285
000170 76 07 20 3d 8f 4f c1 3e 0a 0f b3 3c 2a 0f 81 be
       0.039069615 0.3775601 0.021857757 -0.25206882
000180 cb 69 ab 3c a5 72 48 3e 26 5e 4f 3e c7 08 bf be
       0.02092447 0.19574983 0.20250759 -0.37311384
000190 c9 9c 95 bd 9b 55 9b be d3 5f 32 be 3a 9f cc 3d
       -0.07305295 -0.3033875 -0.17419367 0.099913076
0001a0 03 6f 94 be ce 2d 1a 3e 53 57 90 3e d3 55 43 bc
       -0.28990945 0.15056536 0.28191623 -0.011922318
0001b0 b4 4f 8b be 99 c7 15 be 97 92 b6 3d 94 57 9f be
       -0.27209246 -0.14626922 0.089146785 -0.31121504
0001c0 90 b0 4f 3e 08 c4 bd be bb ee c8 be 7c 19 cb be
       0.20282197 -0.37063622 -0.39244637 -0.3966788
0001d0 ce 9c a9 bd d5 8d 8c 3e 04 d6 c5 be c2 bc ad 3e
       -0.08281861 0.2745196 -0.38639843 0.33933073
0001e0 62 3a 27 be 60 15 80 3c 56 83 98 3c eb 7a bc be
       -0.16330865 0.015635192 0.018617313 -0.3681253
0001f0 55 59 ad 3e b6 a2 ed 3d cd 32 ef 3e 65 a4 05 3e
       0.33857217 0.116033 0.46718445 0.13050993
000200 3d f8 89 be 7c 65 94 3e a4 95 3a 3d 16 42 73 3e
       -0.26947203 0.28983676 0.045552865 0.23755679
000210 d0 99 a7 be 7d 7b f0 bd 31 3c cd be 6e d3 22 be
       -0.32734537 -0.117423035 -0.40084985 -0.15900967
000220 07 5f b4 3d f1 1d a4 be 0d a9 44 3d 48 af 49 3e
       0.088071875 -0.32054093 0.048012782 0.1969577
000230 6f f3 68 3d 7a c4 6d be 1c 97 bc be de c6 bb bd
       0.05687278 -0.23219481 -0.36834037 -0.0916879
000240 3c 81 37 3e 61 52 21 3e 84 63 70 3e b4 4d 3c bd
       0.17920393 0.15754081 0.23475462 -0.04597254
000250 eb 92 12 3e c6 a5 31 bf e5 86 b2 be 4f 10 43 3e
       0.14313857 -0.69393575 -0.3486854 0.1904919
000260 aa c9 6c be c9 1e 49 3e 60 8e 93 be 18 10 4f be
       -0.23123804 0.1964065 -0.2881956 -0.20220983
000270 8e 1b 80 be 78 ef 2e 3f 30 63 2a bd ae 8f b6 3e
       -0.25021023 0.6833415 -0.0415985 0.35656494
000280 3e 63 61 3e 08 a3 16 3f 43 34 46 bc 49 e9 ef bc
       0.22010514 0.58842516 -0.012097421 -0.029286044
000290 01 cb b5 bd 4d 43 17 3c 07 54 76 3e f4 ce 88 be
       -0.088766105 0.009232354 0.24055491 -0.26720393
0002a0 d9 25 9e 3e bd aa 2b be 67 26 af be ed 2f 62 be
       0.3088825 -0.1676435 -0.34208986 -0.22088595
0002b0 87 f2 b8 3e cf b4 91 3e da 98 aa be ac 2b a6 3e
       0.36122534 0.28458259 -0.3331974 0.32455194
0002c0 fa 81 51 3e 02 d4 ed 3d 7f 6c 8f 3e a7 12 11 bf
       0.20459738 0.11612703 0.28012463 -0.56669086
0002d0 46 02 04 3e 46 8a 1a 3d 4f 0f f7 bd 87 e6 0b 3e
       0.12891492 0.037729524 -0.12063467 0.13662158
0002e0 17 8e f0 bd 62 d9 fc 3d cd 70 1d bd c1 06 4c be
       -0.117458515 0.1234615 -0.038437653 -0.19924451
0002f0 49 7c d2 3d bf ec b9 3d 0c 75 43 be d0 c8 0c 3e
       0.10277612 0.09078359 -0.19087619 0.13748479

rho.rho.0.bias f4 [32]
000000 4b 0d 13 3e 2c 52 15 be 53 2c b2 3c 88 4e eb be
       0.1436054 -0.14582127 0.021749651 -0.45958352
000010 58 26 68 3d 47 6a 97 be c0 d2 75 be 42 32 54 be
       0.056677192 -0.2957327 -0.24006176 -0.20722297
000020 06 62 7b 3e 3a 59 1f be d0 f4 0f be a3 8a 4a be
       0.24549112 -0.15561381 -0.14058232 -0.19779448
000030 1a 42 a1 3e f3 3b 56 3e 78 a4 9d be e2 72 a9 be
       0.31495744 0.20921306 -0.30789542 -0.3309546
000040 25 70 9e be e2 64 70 bd 8e 1f d5 bd b0 d0 88 be
       -0.30944934 -0.05868996 -0.10406409 -0.26721716
000050 95 7c 80 be 7c 30 e4 3c e1 6c 5a be 58 d3 33 bc
       -0.2509505 0.02785515 -0.21330597 -0.010975681
000060 37 b4 9c be e5 91 4a be ba c3 81 be 32 6a 92 3d
       -0.30606243 -0.19782217 -0.2534464 0.071491614
000070 40 0b c0 be 77 5e 64 bd 69 70 90 be 73 1f a0 3e
       -0.37508583 -0.05575415 -0.28210762 0.31273994

rho.rho.2.weight f4 [32, 32]
000000 97 be 2b be 45 89 2d be ac 5f 32 3e e8 0e e5 bd
       -0.16771923 -0.16946895 0.17419308 -0.11184484
000010 91 d2 0a 3d 1a f8 79 bc 2e 88 18 bd 98 b8 21 bd
       0.033892218 -0.015256906 -0.037239246 -0.039482683
000020 d7 0d e6 3d 4f 6f 0a 3c 39 3e 30 be b3 bb d5 bd
       0.112331085 0.00844939 -0.17211236 -0.104361914
000030 93 d6 76 bd 0d 2f b6 3d 95 49 ea bd ca af 2a 3e
       -0.060263228 0.08895693 -0.11439816 0.1666862
000040 f4 45 21 bd 4a 04 02 bd d2 d6 0d 3e a3 f6 b5 3d
       -0.039373353 -0.03174237 0.13851479 0.08884933
000050 b4 86 19 3e 52 6b d1 3d d5 a6 5b bd e2 33 f0 bd
       0.14992791 0.10225548 -0.0536259 -0.11728646
000060 87 7e 57 bc 83 d1 15 3e c3 03 73 bd 34 df 27 be
       -0.013152725 0.14630704 -0.05932976 -0.16393739
000070 f2 68 94 3d 97 37 30 3e f7 21 4e bd 66 e3 15 be
       0.07246579 0.17208706 -0.05032536 -0.14637527
000080 02 32 24 be 0e 74 35 3d c6 4e 5b bc 2d d3 b6 bd
       -0.16034701 0.04430013 -0.01338548 -0.08926997
000090 ee 5b 12 3d c5 7c 89 3d d6 f7 0f 3e 4a 8a 0c 3e
       0.035732202 0.06713251 0.14059386 0.13724628
0000a0 e2 c3 d8 bc ed 9d 1f be c1 92 23 be 10 04 29 3e
       -0.026460592 -0.15587588 -0.15973951 0.16505456
0000b0 84 0a a0 3d b9 d0 9d 3d 2a 9f 1c be 73 a0 27 3e
       0.07814506 0.07705826 -0.15295091 0.163698
0000c0 c7 7c 2b 3e 67 6f 23 3e 88 b4 18 be 0c 9b 88 bd
       0.16746818 0.15960465 -0.14912617 -0.06670198
0000d0 41 ff f8 bd 49 6b 2b 3e 8f 8f 9b bd 57 4a a5 bd
       -0.12158061 0.16740145 -0.07595741 -0.0807082
0000e0 3e ad bd 3d f0 79 a7 bd e3 4f b2 bd 30 58 7d bc
       0.09261559 -0.081775546 -0.087066434 -0.01546292
0000f0 29 32 8b bc 9a 02 0d be f9 e8 16 3e ff b3 9f bd
       -0.016991692 -0.13770524 0.1473731 -0.077980034
000100 6f 3e 12 bc 07 1a b8 3e 5e 52 ca 3d 53 20 02 bf
       -0.008926018 0.35957357 0.098789915 -0.5083057
000110 b9 02 16 3e 84 ab c2 3c e5 7f a7 bd 84 3e 2b 3e
       0.14649476 0.023763426 -0.08178691 0.16723067
000120 9a 21 49 3d 3d 61 11 bf 87 2a fd 3c e5 9b f6 bd
       0.04910431 -0.56789 0.030904068 -0.12041453
000130 47 dc 2d 3e 99 e4 9c bc ee 00 25 be 5b 12 36 bc
       0.1697856 -0.019151973 -0.16113636 -0.011112775
000140 6d 5d e3 3d 26 32 8e 3d da f4 64 3d aa 7e 86 3c
       0.11101804 0.06943159 0.05589757 0.01641782
000150 9e 07 f4 bb 03 e6 20 bd e1 04 90 bd af 15 12 be
       -0.007447197 -0.039281856 -0.070321806 -0.14266084
000160 9a 7c d2 be 92 e8 9c 3d 9e 3f e0 3d 43 6e 92 3c
       -0.41110688 0.07661547 0.10949634 0.017874843
000170 d6 4d c6 3d 89 2d 3a 3d 23 a2 cb bc c8 a9 22 3e
       0.09682815 0.045453582 -0.024857586 0.15885079
000180 79 86 d2 bd 75 e3 14 3e 9c 00 10 be fb 2c 2e bd
       -0.10279555 0.14539893 -0.14062732 -0.042523365
000190 10 f0 c4 3d 08 ec 93 bd 63 10 18 3e a6 23 f9 bd
       0.09616101 -0.07222754 0.14850001 -0.121650025
0001a0 cf 03 18 be 0b 40 a3 bd 45 18 ea 3c b3 ac 26 3e
       -0.14845203 -0.079711996 0.028576026 0.16276817
0001b0 6c d6 ac bd aa 79 81 3d 02 88 35 bd 6c 06 1d bd
       -0.08439335 0.06322034 -0.04431916 -0.038336203
0001c0 a8 1a 05 3e 95 49 0c be 36 d0 99 3c 74 3b 2a 3e
       0.1299845 -0.13699944 0.01877604 0.16624242
0001d0 7e fe c6 bc e1 8c 0c 3e 0b fc 5e bd b6 b6 11 3e
       -0.024291273 0.13725616 -0.054439586 0.14229855
0001e0 02 1b 2f be 9f b6 d0 bc fa 5c fe bc a0 a9 6a 3d
       -0.17100146 -0.025477706 -0.031050194 0.057290673
0001f0 a7 09 8e 3d 5d fd 0a 3e 37 c1 d7 bc f2 b4 e5 bb
       0.06935435 0.13573213 -0.02633725 -0.0070100958
000200 c8 30 3a 3d 74 05 ef bd cf 88 a6 3d 6f f0 28 be
       0.045456678 -0.11670962 0.08131563 -0.16497968
000210 f1 4c bc bd 41 90 1b bc 95 8b a1 3d 67 84 f7 3d
       -0.09194363 -0.009494842 0.07887951 0.120858006
000220 d5 95 d1 bd d6 aa 4c be 10 01 a0 3c 32 98 58 3d
       -0.10233656 -0.19987044 0.019531757 0.05287952
000230 b3 3e 38 bb f4 7f 3c be a9 01 e9 3d 10 74 2b 3e
       -0.0028113544 -0.18408185 0.1137727 0.16743493
000240 15 51 7b 3c 58 34 75 be c1 25 fe 3d 8e 37 06 be
       0.015339156 -0.23945749 0.12409545 -0.1310713
000250 f7 71 26 3d eb b7 39 bd 84 72 a9 bd 3a 17 43 bc
       0.04063603 -0.045341413 -0.08273795 -0.011907393
000260 dc e8 21 be 5d ea 24 3d 15 dc 3d be 5a 00 c1 bd
       -0.15811485 0.04026257 -0.18540986 -0.09423895
000270 44 46 ba 3c 6d 73 9b 3d 6a bc ac bd e9 0e 1e 3d
       0.022738583 0.07590375 -0.08434375 0.03858844
000280 d9 f9 a8 bd e5 75 13 be 1a 20 5b be ac 16 26 be
       -0.0825078 -0.14400442 -0.21398965 -0.16219586
000290 65 95 e6 3d a5 95 34 bd ce aa 10 3c 69 4e 44 3d
       0.112589635 -0.044088025 0.0088297855 0.04792634
0002a0 01 33 76 3d cd 7e 1a 3e 2f a8 aa 3d 3a 1d 06 be
       0.060107235 0.15087433 0.0833286 -0.13097087
0002b0 a9 fe b4 bd 49 9c 28 be f7 d9 ce bd 9a c1 2b 3d
       -0.08837635 -0.16465868 -0.10100167 0.04193268
0002c0 d7 e9 29 3e f2 80 4e be 80 1b db 3d 7b b4 bb bd
       0.16593109 -0.20166376 0.106986046 -0.09165283
0002d0 19 08 0d bd 64 64 a4 3d c9 c3 23 bd 15 04 34 bd
       -0.03443155 0.080269605 -0.039981637 -0.043949205
0002e0 aa 13 fd bd 4f 17 1a 3e 0a c9 a9 bd e4 e3 41 be
       -0.12357266 0.15047954 -0.08290298 -0.1893459
0002f0 6f 04 54 3d ab 32 3e be e2 a3 0f be 3d de 49 bd
       0.05176204 -0.18574016 -0.1402736 -0.04928421
000300 c2 31 d3 3d d7 de d0 bc 61 5a c2 3d 4d a2 d8 3c
       0.10312225 -0.025496883 0.09489895 0.026444579
000310 ff cf f2 3d 50 e9 bd bd 1b bf 9e bc 2f db 63 bd
       0.11856078 -0.092730165 -0.019378236 -0.05562895
000320 23 3d 16 be 6a 4e 30 be 66 93 c7 3d f9 82 18 3e
       -0.1467176 -0.17217413 0.09744911 0.14893712
000330 de 3f 4b 3c 86 1b f7 3c 00 bc 9c bd 1d a4 08 3e
       0.012405364 0.030164491 -0.07653046 0.13343854
000340 ba a5 96 bd 7d 8a d4 bd a3 01 df 3c 2d 00 d9 3d
       -0.073558286 -0.10377977 0.02722246 0.10595737
000350 c8 9d 3f be 82 44 1e 3e 8f 3c 82 3d ce 18 c8 bd
       -0.18712533 0.15455821 0.06359207 -0.09770356
000360 2a 8e 90 3d 7a 0c 1d 3e d6 61 d8 bd 02 6d 88 bd
       0.07058366 0.1533679 -0.10565536 -0.066614166
000370 66 12 48 3d 3b b6 0c be 88 58 3a 3e 65 8c 9a 3d
       0.04884567 -0.1374139 0.18197834 0.075463094
000380 ff 34 28 3d d0 46 40 be 85 b5 d7 3d dd 85 20 be
       0.041066166 -0.18777013 0.10532669 -0.15676065
000390 e1 04 d7 3d f7 b8 2d be 65 48 21 be e1 5c de 3d
       0.104989775 -0.1696509 -0.15750273 0.10857559
0003a0 83 7b 53 bd 0a 16 27 3c d2 ea 31 be c8 dd 97 bd
       -0.05163146 0.010198126 -0.17374733 -0.07415348
0003b0 df 72 fa bd 7f 55 77 be 75 84 16 3c 3d 0f 00 3d
       -0.12228941 -0.24153708 0.009186854 0.031264532
0003c0 fa ee 1c b9 2a 04 4a bc a8 c2 2b 3e 47 85 40 3d
       -0.00014966345 -0.012330094 0.16773474 0.047002103
0003d0 49 88 84 bd 27 4c 15 be 65 a2 e7 bd 69 9b 41 be
       -0.06471307 -0.14579831 -0.11310271 -0.1890694
0003e0 9f 39 e9 bc 7a 10 00 bd 80 ef f9 3b 93 f1 13 be
       -0.028469859 -0.031265713 0.0076274276 -0.14447622
0003f0 2d 4f 10 3e 05 c8 45 be ae b5 03 3a 16 86 b6 3d
       0.14092703 -0.19314583 0.0005024326 0.089122936

rho.rho.2.bias f4 [32]
000000 1f aa 96 bd 4a 4d 4b bd 3b df b1 3d 82 7c ed bd
       -0.07356667 -0.049634255 0.08685156 -0.115960136
000010 e6 78 6a bd 9b ed 46 3c 7d 96 d9 bc 71 0d 19 bd
       -0.057244204 0.0121416105 -0.026561016 -0.037366334
000020 14 17 0a be 5d 43 7a bc 6b fd c4 3b 58 5f 88 bd
       -0.13485366 -0.01527485 0.006011655 -0.066588104
000030 f5 ad 15 be 27 95 28 3c d6 7d dd 3c 31 4b fd bc
       -0.1461714 0.010289467 0.027037542 -0.030919643
000040 ab b9 ca 3d 64 31 86 3d c1 cd 90 bd 12 10 49 bc
       0.098986946 0.06552389 -0.070704944 -0.012271898
000050 ca 72 bb 3d 5c a4 fa bd 5c 5d 58 be f0 de 91 bd
       0.09152754 -0.1223838 -0.21129364 -0.071226
000060 65 61 2f 3d 6a a7 e4 bd 07 4b 1c be 3c 04 47 3d
       0.042817492 -0.11164744 -0.15262996 0.048588023
000070 60 07 e8 3d 79 bc 26 bc 27 f8 13 3c 29 29 99 bc
       0.11329532 -0.010176771 0.009031332 -0.018696385

rho.rho.4.weight f4 [1, 32]
000000 18 1b 28 3d e8 dd cd 3b 43 f2 ee bd 23 27 06 3d
       0.041041464 0.006282557 -0.116673015 0.032752167
000010 1b f4 5e bd 8f 2b 47 bd 3d 6a 28 3c 3d 8f 9d bc
       -0.054432016 -0.048625525 0.010279235 -0.01923334
000020 6d 61 12 be e3 d6 ac 3d 61 63 12 3d be 84 93 bc
       -0.14294977 0.08439424 0.035739306 -0.018007632
000030 a8 9d 0c be dd 95 61 3d 99 fc d5 bc 12 70 1c be
       -0.13732016 0.05507456 -0.026121425 -0.15277126
000040 70 ff 12 be 89 6e 27 3e a1 5e 07 3e 97 a4 c8 3d
       -0.14355254 0.1635076 0.13219692 0.09797018
000050 fd e9 ee 3c 7d a1 68 3e d2 da 0b 3d 0e ef 92 bc
       0.029164309 0.22717853 0.03414423 -0.017936256
000060 d4 07 20 3a e2 1d 21 3d 4c 2f 87 3d 7a a8 a8 bb
       0.0006104682 0.03933514 0.06600818 -0.005147037
000070 94 1f 04 be 0a 07 f4 bd b4 7a ca 3d 1c f1 15 3e
       -0.12902671 -0.11915405 0.09886685 0.14642757

exp_avg f4 [32, 3]
000000 0d d4 29 b7 a9 b8 ae b6 73 bf 79 b6 00 00 00 00
       -1.0122557e-05 -5.2071014e-06 -3.721533e-06 0.0
000010 00 00 00 00 00 00 00 00 00 00 00 00 00 00 00 00
       0.0 0.0 0.0 0.0
000020 00 00 00 00 00 00 00 00 00 00 00 00 00 00 00 00
       0.0 0.0 0.0 0.0
000030 ab ab 51 34 aa d7 bf 34 bf d3 21 36 0a 77 8c 35
       1.9527094e-07 3.573344e-07 2.4114122e-06 1.0465458e-06
000040 59 fc 5c 35 d4 14 44 35 00 00 00 00 00 00 00 00
       8.23236e-07 7.3046e-07 0.0 0.0
000050 00 00 00 00 9b f3 20 b6 b0 e8 5a 34 f0 d2 ef b5
       0.0 -2.3983655e-06 2.0387483e-07 -1.7868279e-06
000060 00 00 00 00 00 00 00 00 00 00 00 00 00 00 00 00
       0.0 0.0 0.0 0.0
000070 00 00 00 00 00 00 00 00 00 00 00 00 00 00 00 00
       0.0 0.0 0.0 0.0
000080 00 00 00 00 00 00 00 00 00 00 00 00 00 00 00 00
       0.0 0.0 0.0 0.0
000090 ca 6a 06 38 df be a4 37 b6 7b 67 37 48 e2 bb b5
       3.2047545e-05 1.9639205e-05 1.3797477e-05 -1.3998442e-06
0000a0 95 77 21 b5 22 b8 38 b5 00 00 00 00 00 00 00 00
       -6.015119e-07 -6.881329e-07 0.0 0.0
0000b0 00 00 00 00 5d 7e 22 37 37 d3 c6 36 08 12 af 36
       0.0 9.685374e-06 5.9254485e-06 5.2175055e-06
0000c0 00 00 00 00 00 00 00 00 00 00 00 00 d1 cf b2 b6
       0.0 0.0 0.0 -5.3290064e-06
0000d0 75 35 66 b6 4a 45 4c b6 47 97 66 b5 e5 b4 97 b5
       -3.4303787e-06 -3.04387e-06 -8.5901814e-07 -1.1303024e-06
0000e0 93 78 c0 b5 00 00 00 00 00 00 00 00 00 00 00 00
       -1.4340206e-06 0.0 0.0 0.0
0000f0 54 72 93 0d 9c 10 17 0d 20 f1 c1 0a cd 5c ca b6
       9.087098e-31 4.655046e-31 1.8675925e-32 -6.0308726e-06
000100 67 e5 9d b6 97 26 28 b6 47 09 b7 34 d9 71 e1 b4
       -4.7056706e-06 -2.5056413e-06 3.4093156e-07 -4.199235e-07
000110 25 56 99 b4 53 fc 86 b7 b1 69 47 b7 26 54 3d b7
       -2.856115e-07 -1.6091542e-05 -1.18859325e-05 -1.128487e-05
000120 80 9d 98 36 30 aa 2e 36 65 f8 13 36 05 63 64 b7
       4.5482884e-06 2.6027083e-06 2.2049292e-06 -1.3612914e-05
000130 39 98 ef b6 37 44 a7 b6 00 00 00 00 00 00 00 00
       -7.140476e-06 -4.984929e-06 0.0 0.0
000140 00 00 00 00 5d cf 2b b5 8d e7 e2 b4 f9 6d 89 b4
       0.0 -6.400422e-07 -4.2264256e-07 -2.5598254e-07
000150 00 00 00 00 00 00 00 00 00 00 00 00 00 00 00 00
       0.0 0.0 0.0 0.0
000160 00 00 00 00 00 00 00 00 a6 93 16 37 01 ec 8c 36
       0.0 0.0 8.975074e-06 4.1997996e-06
000170 1e 79 6c 36 00 00 00 00 00 00 00 00 00 00 00 00
       3.523724e-06 0.0 0.0 0.0

exp_avg_sq f4 [32, 3]
000000 f8 11 fe 31 8c 5d f2 30 bc 2a ab 30 00 00 00 00
       7.3944157e-09 1.7634405e-09 1.2454033e-09 0.0
000010 00 00 00 00 00 00 00 00 00 00 00 00 00 00 00 00
       0.0 0.0 0.0 0.0
000020 00 00 00 00 00 00 00 00 00 00 00 00 00 00 00 00
       0.0 0.0 0.0 0.0
000030 f2 16 38 32 5f a1 df 31 20 7f 8f 31 c0 8c 4f 2e
       1.0715427e-08 6.5085e-09 4.1763e-09 4.7191362e-11
000040 0f 4c 47 2d 97 f4 30 2d 00 00 00 00 00 00 00 00
       1.1328729e-11 1.0058752e-11 0.0 0.0
000050 00 00 00 00 4c d5 8a 32 b6 46 bf 2f d7 5f 08 31
       0.0 1.616231e-08 3.479294e-10 1.9845083e-09
000060 00 00 00 00 00 00 00 00 00 00 00 00 00 00 00 00
       0.0 0.0 0.0 0.0
000070 00 00 00 00 00 00 00 00 00 00 00 00 00 00 00 00
       0.0 0.0 0.0 0.0
000080 00 00 00 00 00 00 00 00 00 00 00 00 00 00 00 00
       0.0 0.0 0.0 0.0
000090 76 be 33 34 cc c5 ea 32 5f 47 01 33 20 54 14 30
       1.6739963e-07 2.7331133e-08 3.0100065e-08 5.3961635e-10
0000a0 ae 01 eb 2e 63 c4 de 2e 00 00 00 00 00 00 00 00
       1.0686861e-10 1.01302765e-10 0.0 0.0
0000b0 00 00 00 00 3c cc 04 32 3e 7e a7 30 aa e3 b8 30
       0.0 7.729849e-09 1.2186729e-09 1.3452468e-09
0000c0 00 00 00 00 00 00 00 00 00 00 00 00 df 74 86 31
       0.0 0.0 0.0 3.9132e-09
0000d0 bc 5f 29 30 c7 69 3e 30 f6 79 b0 31 e6 d8 7f 30
       6.161789e-10 6.9271916e-10 5.1361395e-09 9.307669e-10
0000e0 68 9b 58 30 00 00 00 00 00 00 00 00 00 00 00 00
       7.880119e-10 0.0 0.0 0.0
0000f0 c1 a8 1c 2f 8a 46 9d 2d 0e 11 59 2c d6 00 d1 31
       1.4248071e-10 1.788016e-11 3.0847022e-12 6.0827956e-09
000100 1b dc b3 30 b5 cc 5e 30 de d2 51 31 97 15 0d 30
       1.3086522e-09 8.1054036e-10 3.0533367e-09 5.132618e-10
000110 34 38 0c 30 76 aa fa 30 37 eb 1a 30 9c 3e 03 30
       5.101157e-10 1.8238342e-09 5.6359134e-10 4.7746496e-10
000120 a0 bd 60 31 0f 56 09 30 fd 20 0d 30 00 b7 3b 33
       3.270408e-09 4.9962606e-10 5.134238e-10 4.3705768e-08
000130 96 20 b5 31 2a 21 d9 31 00 00 00 00 00 00 00 00
       5.271498e-09 6.3193015e-09 0.0 0.0
000140 00 00 00 00 69 b1 4c 30 6b 8f 09 2f 21 56 00 2f
       0.0 7.446688e-10 1.251103e-10 1.1672131e-10
000150 00 00 00 00 00 00 00 00 00 00 00 00 00 00 00 00
       0.0 0.0 0.0 0.0
000160 00 00 00 00 00 00 00 00 e3 f2 8c 32 36 6b 30 31
       0.0 0.0 1.6408597e-08 2.5672313e-09
000170 81 0a 47 31 00 00 00 00 00 00 00 00 00 00 00 00
       2.8964282e-09 0.0 0.0 0.0

exp_avg f4 [32]
000000 1d d0 9f b7 00 00 00 00 00 00 00 00 00 00 00 00
       -1.9051187e-05 0.0 0.0 0.0
000010 74 e9 46 36 cf 7f 2e 36 00 00 00 00 47 97 85 b6
       2.9640187e-06 2.6002415e-06 0.0 -3.98132e-06
000020 00 00 00 00 00 00 00 00 00 00 00 00 00 00 00 00
       0.0 0.0 0.0 0.0
000030 97 54 89 38 14 7d 34 b6 00 00 00 00 81 b8 ae 37
       6.548425e-05 -2.6894895e-06 0.0 2.0828333e-05
000040 00 00 00 00 9a 06 46 b7 8b bc 65 b6 00 00 00 00
       0.0 -1.1803257e-05 -3.4233406e-06 0.0
000050 50 02 e2 0d c1 2a 5e b7 98 be c3 b4 a0 ad 24 b8
       1.3928882e-30 -1.3242186e-05 -3.6460256e-07 -3.9262348e-05
000060 69 f7 1c 37 9d e8 d7 b7 00 00 00 00 0d fd b0 b5
       9.355929e-06 -2.5738316e-05 0.0 -1.3186669e-06
000070 00 00 00 00 00 00 00 00 f8 13 8c 37 00 00 00 00
       0.0 0.0 1.66986e-05 0.0

exp_avg_sq f4 [32]
000000 72 d2 e2 32 00 00 00 00 00 00 00 00 00 00 00 00
       2.6405562e-08 0.0 0.0 0.0
000010 da 87 84 33 86 72 3e 2f 00 00 00 00 ad 63 1a 33
       6.17144e-08 1.7321086e-10 0.0 3.5946574e-08
000020 00 00 00 00 00 00 00 00 00 00 00 00 00 00 00 00
       0.0 0.0 0.0 0.0
000030 bf 03 15 35 d1 b6 fd 30 00 00 00 00 af 67 d8 32
       5.5512277e-07 1.8460132e-09 0.0 2.519286e-08
000040 00 00 00 00 55 ef 5b 32 91 e1 8e 32 00 00 00 00
       0.0 1.28018955e-08 1.6633551e-08 0.0
000050 b7 64 b0 2f e7 00 ad 32 67 ba 2a 32 bf 3f 01 32
       3.2085776e-10 2.0140261e-08 9.937685e-09 7.523282e-09
000060 80 7c 31 32 ef 46 0b 34 00 00 00 00 cc 26 24 31
       1.0331064e-08 1.2971189e-07 0.0 2.3887194e-09
000070 00 00 00 00 00 00 00 00 51 3e 66 33 00 00 00 00
       0.0 0.0 5.3607724e-08 0.0

exp_avg f4 [6, 32]
000000 04 00 00 00 00 00 00 00 00 00 00 00 00 00 00 00
       6e-45 0.0 0.0 0.0
000010 04 00 00 00 04 00 00 00 00 00 00 00 04 00 00 80
       6e-45 6e-45 0.0 -6e-45
000020 00 00 00 00 00 00 00 00 00 00 00 00 00 00 00 00
       0.0 0.0 0.0 0.0
000030 04 00 00 00 04 00 00 00 00 00 00 00 04 00 00 00
       6e-45 6e-45 0.0 6e-45
000040 00 00 00 00 04 00 00 00 04 00 00 00 00 00 00 00
       0.0 6e-45 6e-45 0.0
000050 04 00 00 00 04 00 00 00 04 00 00 00 04 00 00 00
       6e-45 6e-45 6e-45 6e-45
000060 04 00 00 00 04 00 00 00 00 00 00 00 04 00 00 00
       6e-45 6e-45 0.0 6e-45
000070 00 00 00 00 00 00 00 00 04 00 00 00 00 00 00 00
       0.0 0.0 6e-45 0.0
000080 10 3f 36 36 00 00 00 00 00 00 00 00 00 00 00 00
       2.715682e-06 0.0 0.0 0.0
000090 58 5a a1 b6 b7 da b9 b5 00 00 00 00 02 22 a7 35
       -4.8086913e-06 -1.3847229e-06 0.0 1.2452367e-06
0000a0 00 00 00 00 00 00 00 00 00 00 00 00 00 00 00 00
       0.0 0.0 0.0 0.0
0000b0 97 68 22 b7 b8 33 0e 36 00 00 00 00 30 a6 f6 b6
       -9.680304e-06 2.1189753e-06 0.0 -7.350718e-06
0000c0 00 00 00 00 b0 45 d7 b5 20 04 44 b6 00 00 00 00
       0.0 -1.603903e-06 -2.9208677e-06 0.0
0000d0 34 a0 67 8a c5 03 bd 35 03 e4 78 b5 1d 5b 78 36
       -1.1152376e-32 1.4082694e-06 -9.2719e-07 3.7007915e-06
0000e0 53 85 de b6 df e4 d7 35 00 00 00 00 6d 87 1c 36
       -6.6316366e-06 1.6085359e-06 0.0 2.332464e-06
0000f0 00 00 00 00 00 00 00 00 d9 9a 97 b6 00 00 00 00
       0.0 0.0 -4.5181773e-06 0.0
000100 00 00 00 00 00 00 00 00 00 00 00 00 00 00 00 00
       0.0 0.0 0.0 0.0
000110 00 00 00 00 00 00 00 00 00 00 00 00 00 00 00 00
       0.0 0.0 0.0 0.0
000120 00 00 00 00 00 00 00 00 00 00 00 00 00 00 00 00
       0.0 0.0 0.0 0.0
000130 00 00 00 00 00 00 00 00 00 00 00 00 00 00 00 00
       0.0 0.0 0.0 0.0
000140 00 00 00 00 00 00 00 00 00 00 00 00 00 00 00 00
       0.0 0.0 0.0 0.0
000150 00 00 00 00 00 00 00 00 00 00 00 00 00 00 00 00
       0.0 0.0 0.0 0.0
000160 00 00 00 00 00 00 00 00 00 00 00 00 00 00 00 00
       0.0 0.0 0.0 0.0
000170 00 00 00 00 00 00 00 00 00 00 00 00 00 00 00 00
       0.0 0.0 0.0 0.0
000180 04 00 00 00 00 00 00 00 00 00 00 00 00 00 00 00
       6e-45 0.0 0.0 0.0
000190 04 00 00 00 04 00 00 00 00 00 00 00 04 00 00 00
       6e-45 6e-45 0.0 6e-45
0001a0 00 00 00 00 00 00 00 00 00 00 00 00 00 00 00 00
       0.0 0.0 0.0 0.0
0001b0 04 00 00 00 04 00 00 00 00 00 00 00 04 00 00 00
       6e-45 6e-45 0.0 6e-45
0001c0 00 00 00 00 04 00 00 00 04 00 00 00 00 00 00 00
       0.0 6e-45 6e-45 0.0
0001d0 04 00 00 00 04 00 00 00 04 00 00 00 04 00 00 00
       6e-45 6e-45 6e-45 6e-45
0001e0 04 00 00 00 04 00 00 00 00 00 00 00 04 00 00 00
       6e-45 6e-45 0.0 6e-45
0001f0 00 00 00 00 00 00 00 00 04 00 00 00 00 00 00 00
       0.0 0.0 6e-45 0.0
000200 04 00 00 00 00 00 00 00 00 00 00 00 00 00 00 00
       6e-45 0.0 0.0 0.0
000210 04 00 00 00 04 00 00 00 00 00 00 00 04 00 00 00
       6e-45 6e-45 0.0 6e-45
000220 00 00 00 00 00 00 00 00 00 00 00 00 00 00 00 00
       0.0 0.0 0.0 0.0
000230 04 00 00 00 04 00 00 00 00 00 00 00 04 00 00 00
       6e-45 6e-45 0.0 6e-45
000240 00 00 00 00 04 00 00 00 04 00 00 00 00 00 00 00
       0.0 6e-45 6e-45 0.0
000250 04 00 00 00 04 00 00 00 04 00 00 00 04 00 00 00
       6e-45 6e-45 6e-45 6e-45
000260 04 00 00 00 04 00 00 00 00 00 00 00 04 00 00 00
       6e-45 6e-45 0.0 6e-45
000270 00 00 00 00 00 00 00 00 04 00 00 00 00 00 00 00
       0.0 0.0 6e-45 0.0
000280 cd 96 61 36 00 00 00 00 00 00 00 00 00 00 00 00
       3.361539e-06 0.0 0.0 0.0
000290 a8 90 c0 36 7c 54 df 35 00 00 00 00 e4 9f 0d 36
       5.738886e-06 1.6639383e-06 0.0 2.1103706e-06
0002a0 00 00 00 00 00 00 00 00 00 00 00 00 00 00 00 00
       0.0 0.0 0.0 0.0
0002b0 af 3b a0 37 31 8b 62 36 00 00 00 00 e1 fd ac 37
       1.9101279e-05 3.3757644e-06 0.0 2.062222e-05
0002c0 00 00 00 00 3c 0e b2 37 e9 c1 b1 37 00 00 00 00
       0.0 2.1225882e-05 2.119034e-05 0.0
0002d0 04 00 00 00 19 88 e4 35 93 5a 44 36 4d 9f 1d 37
       6e-45 1.7026933e-06 2.9258997e-06 9.395019e-06
0002e0 53 f1 dd 37 e2 85 63 36 00 00 00 00 21 07 3d 36
       2.6457628e-05 3.3903566e-06 0.0 2.8167344e-06
0002f0 00 00 00 00 00 00 00 00 34 a7 1b 37 00 00 00 00
       0.0 0.0 9.27765e-06 0.0

exp_avg_sq f4 [6, 32]
000000 17 e3 ee 2a 00 00 00 00 00 00 00 00 00 00 00 00
       4.2434868e-13 0.0 0.0 0.0
000010 dc 35 24 2b b1 83 10 2b 00 00 00 00 9a 8d 9d 2a
       5.833925e-13 5.1341836e-13 0.0 2.7987058e-13
000020 00 00 00 00 00 00 00 00 00 00 00 00 00 00 00 00
       0.0 0.0 0.0 0.0
000030 33 ce b8 2d 98 b7 95 2b 00 00 00 00 55 32 e9 2d
       2.1009949e-11 1.0638044e-12 0.0 2.6511385e-11
000040 00 00 00 00 a1 75 a8 2e 14 e6 4e 2e 00 00 00 00
       0.0 7.6606506e-11 4.7043328e-11 0.0
000050 c5 7a c9 1e b6 96 1c 2a 5c a2 29 2c 1c e4 08 2d
       2.1332479e-20 1.3907872e-13 2.4106472e-12 7.781355e-12
000060 f7 36 70 2e b7 1f bf 2b 00 00 00 00 0d 44 18 2d
       5.46185e-11 1.3580169e-12 0.0 8.65531e-12
000070 00 00 00 00 00 00 00 00 c0 a0 98 2c 00 00 00 00
       0.0 0.0 4.3379467e-12 0.0
000080 b8 49 98 31 00 00 00 00 00 00 00 00 00 00 00 00
       4.432163e-09 0.0 0.0 0.0
000090 78 c0 50 30 bf f2 b8 31 00 00 00 00 16 cd 9f 30
       7.5943474e-10 5.382702e-09 0.0 1.1627062e-09
0000a0 00 00 00 00 00 00 00 00 00 00 00 00 00 00 00 00
       0.0 0.0 0.0 0.0
0000b0 03 98 65 32 c5 d4 a1 31 00 00 00 00 c0 99 be 32
       1.3364118e-08 4.709906e-09 0.0 2.2188829e-08
0000c0 00 00 00 00 e8 d9 e4 33 99 aa 8e 33 00 00 00 00
       0.0 1.0656714e-07 6.643422e-08 0.0
0000d0 19 ef ea 2e 0e ea dc 30 7f ce 38 31 17 43 e5 32
       1.068356e-10 1.6073629e-09 2.6892903e-09 2.6689618e-08
0000e0 12 b1 81 33 03 f4 09 32 00 00 00 00 b4 0a b0 32
       6.0392395e-08 8.029931e-09 0.0 2.0493964e-08
0000f0 00 00 00 00 00 00 00 00 8c 65 83 31 00 00 00 00
       0.0 0.0 3.8241463e-09 0.0
000100 00 00 00 00 00 00 00 00 00 00 00 00 00 00 00 00
       0.0 0.0 0.0 0.0
000110 00 00 00 00 00 00 00 00 00 00 00 00 00 00 00 00
       0.0 0.0 0.0 0.0
000120 00 00 00 00 00 00 00 00 00 00 00 00 00 00 00 00
       0.0 0.0 0.0 0.0
000130 00 00 00 00 00 00 00 00 00 00 00 00 00 00 00 00
       0.0 0.0 0.0 0.0
000140 00 00 00 00 00 00 00 00 00 00 00 00 00 00 00 00
       0.0 0.0 0.0 0.0
000150 00 00 00 00 00 00 00 00 00 00 00 00 00 00 00 00
       0.0 0.0 0.0 0.0
000160 00 00 00 00 00 00 00 00 00 00 00 00 00 00 00 00
       0.0 0.0 0.0 0.0
000170 00 00 00 00 00 00 00 00 00 00 00 00 00 00 00 00
       0.0 0.0 0.0 0.0
000180 0c ae a6 2f 00 00 00 00 00 00 00 00 00 00 00 00
       3.0318892e-10 0.0 0.0 0.0
000190 72 34 50 2e 0b bc 7a 30 00 00 00 00 6d 98 19 2f
       4.7340305e-11 9.1216695e-10 0.0 1.3969421e-10
0001a0 00 00 00 00 00 00 00 00 00 00 00 00 00 00 00 00
       0.0 0.0 0.0 0.0
0001b0 24 2a 8b 2b f2 cd a8 2f 00 00 00 00 70 63 e4 2f
       9.88824e-13 3.0705355e-10 0.0 4.1543613e-10
0001c0 00 00 00 00 f0 79 80 31 41 2c e4 30 00 00 00 00
       0.0 3.739153e-09 1.6601761e-09 0.0
0001d0 7a be da 2d 01 fb 07 2f 6c 00 01 2f ff 9d 01 30
       2.486832e-11 1.2367353e-10 1.1732632e-10 4.715445e-10
0001e0 62 9c c8 30 de 75 d9 2f 00 00 00 00 d1 4c 06 31
       1.4596362e-09 3.955582e-10 0.0 1.9543231e-09
0001f0 00 00 00 00 00 00 00 00 10 1a c3 2e 00 00 00 00
       0.0 0.0 8.872203e-11 0.0
000200 53 eb 0e 2d 00 00 00 00 00 00 00 00 00 00 00 00
       8.124018e-12 0.0 0.0 0.0
000210 fe c7 b9 2b fa 26 de 2d 00 00 00 00 cf 35 86 2c
       1.320055e-12 2.5255787e-11 0.0 3.814483e-12
000220 00 00 00 00 00 00 00 00 00 00 00 00 00 00 00 00
       0.0 0.0 0.0 0.0
000230 81 56 d7 28 7d cb 0f 2d 00 00 00 00 c1 70 4a 2d
       2.390731e-14 8.173792e-12 0.0 1.1507407e-11
000240 00 00 00 00 ac 69 e0 2e d7 cd 47 2e 00 00 00 00
       0.0 1.0205112e-10 4.5430184e-11 0.0
000250 63 12 27 2b 3e 31 6b 2c 2a 64 60 2c 22 8f 60 2d
       5.9355835e-13 3.3422843e-12 3.1887917e-12 1.2764708e-11
000260 3a 47 30 2e 65 4c 36 2d 00 00 00 00 a4 15 66 2e
       4.008103e-11 1.0362465e-11 0.0 5.2315166e-11
000270 00 00 00 00 00 00 00 00 d2 35 2c 2c 00 00 00 00
       0.0 0.0 2.4472546e-12 0.0
000280 e9 b9 29 31 00 00 00 00 00 00 00 00 00 00 00 00
       2.4698414e-09 0.0 0.0 0.0
000290 18 29 96 2f 01 e9 70 31 00 00 00 00 e4 78 46 30
       2.731404e-10 3.5057044e-09 0.0 7.2203776e-10
0002a0 00 00 00 00 00 00 00 00 00 00 00 00 00 00 00 00
       0.0 0.0 0.0 0.0
0002b0 2a e8 36 32 7e c2 1d 31 00 00 00 00 8c d4 8f 32
       1.0646582e-08 2.2957063e-09 0.0 1.6744046e-08
0002c0 00 00 00 00 4a cc 91 33 93 84 4c 33 00 00 00 00
       0.0 6.7892486e-08 4.7618027e-08 0.0
0002d0 08 a0 45 2e 33 7a 61 30 d5 a4 18 31 6b cb 80 32
       4.493475e-11 8.202818e-10 2.2212607e-09 1.4993665e-08
0002e0 02 54 3c 33 13 5d 43 31 00 00 00 00 09 6f 4d 32
       4.3848566e-08 2.8429141e-09 0.0 1.1957817e-08
0002f0 00 00 00 00 00 00 00 00 c2 45 5c 31 00 00 00 00
       0.0 0.0 3.2053866e-09 0.0

exp_avg f4 [6]
000000 04 00 00 00 f6 bd 6f b7 00 00 00 00 04 00 00 00
       6e-45 -1.4289739e-05 0.0 6e-45
000010 04 00 00 00 a5 25 88 38
       6e-45 6.491997e-05

exp_avg_sq f4 [6]
000000 25 66 93 2f e3 f1 ad 34 00 00 00 00 33 6c 96 31
       2.6811722e-10 3.2399757e-07 0.0 4.3778754e-09
000010 23 07 04 2f 6b 9e 71 34
       1.2007866e-10 2.2502506e-07

exp_avg f4 [32, 6]
000000 04 00 00 80 43 4e 10 b5 00 00 00 00 04 00 00 00
       -6e-45 -5.3758066e-07 0.0 6e-45
000010 04 00 00 00 5c 58 5e b5 04 00 00 80 b8 10 21 36
       6e-45 -8.2830024e-07 -6e-45 2.40006e-06
000020 00 00 00 00 04 00 00 00 04 00 00 80 3f 46 27 b7
       0.0 6e-45 -6e-45 -9.970331e-06
000030 04 00 00 80 71 ef 86 35 00 00 00 00 04 00 00 00
       -6e-45 1.0053465e-06 0.0 6e-45
000040 04 00 00 00 30 e5 19 b6 04 00 00 00 00 5c 96 37
       6e-45 -2.2932181e-06 6e-45 1.7924234e-05
000050 00 00 00 00 04 00 00 80 04 00 00 80 47 63 10 38
       0.0 -6e-45 -6e-45 3.4424735e-05
000060 04 00 00 80 c3 b4 b5 35 00 00 00 00 04 00 00 00
       -6e-45 1.353816e-06 0.0 6e-45
000070 04 00 00 00 f2 4f 0c b6 00 00 00 00 00 00 00 00
       6e-45 -2.090816e-06 0.0 0.0
000080 00 00 00 00 00 00 00 00 00 00 00 00 00 00 00 00
       0.0 0.0 0.0 0.0
000090 00 00 00 00 00 00 00 00 00 00 00 00 00 00 00 00
       0.0 0.0 0.0 0.0
0000a0 00 00 00 00 00 00 00 00 00 00 00 00 00 00 00 00
       0.0 0.0 0.0 0.0
0000b0 00 00 00 00 00 00 00 00 00 00 00 00 00 00 00 00
       0.0 0.0 0.0 0.0
0000c0 04 00 00 80 d3 a2 09 36 00 00 00 00 04 00 00 00
       -6e-45 2.0509367e-06 0.0 6e-45
0000d0 04 00 00 00 36 9b 08 b6 04 00 00 00 6d 9f 82 37
       6e-45 -2.0355924e-06 6e-45 1.5571446e-05
0000e0 00 00 00 00 04 00 00 80 04 00 00 80 35 68 07 38
       0.0 -6e-45 -6e-45 3.228356e-05
0000f0 04 00 00 80 4f f4 7f b5 00 00 00 00 04 00 00 00
       -6e-45 -9.535042e-07 0.0 6e-45
000100 04 00 00 00 3c 12 a4 b6 00 00 00 00 00 00 00 00
       6e-45 -4.8897036e-06 0.0 0.0
000110 00 00 00 00 00 00 00 00 00 00 00 00 00 00 00 00
       0.0 0.0 0.0 0.0
000120 04 00 00 80 59 3d 31 36 00 00 00 00 04 00 00 00
       -6e-45 2.6410764e-06 0.0 6e-45
000130 04 00 00 80 48 02 87 b6 04 00 00 80 8f 1b 05 35
       -6e-45 -4.023579e-06 -6e-45 4.9586464e-07
000140 00 00 00 00 04 00 00 00 04 00 00 00 69 71 c0 34
       0.0 6e-45 6e-45 3.5845304e-07
000150 00 00 00 00 00 00 00 00 00 00 00 00 00 00 00 00
       0.0 0.0 0.0 0.0
000160 00 00 00 00 00 00 00 00 00 00 00 00 00 00 00 00
       0.0 0.0 0.0 0.0
000170 00 00 00 00 00 00 00 00 00 00 00 00 00 00 00 00
       0.0 0.0 0.0 0.0
000180 00 00 00 00 00 00 00 00 00 00 00 00 00 00 00 00
       0.0 0.0 0.0 0.0
000190 00 00 00 00 00 00 00 00 00 00 00 00 04 00 00 00
       0.0 0.0 0.0 6e-45
0001a0 00 00 00 00 04 00 00 80 04 00 00 00 04 00 00 00
       0.0 -6e-45 6e-45 6e-45
0001b0 00 00 00 00 00 00 00 00 00 00 00 00 00 00 00 00
       0.0 0.0 0.0 0.0
0001c0 00 00 00 00 00 00 00 00 00 00 00 00 00 00 00 00
       0.0 0.0 0.0 0.0
0001d0 00 00 00 00 00 00 00 00 00 00 00 00 00 00 00 00
       0.0 0.0 0.0 0.0
0001e0 00 00 00 00 04 00 00 00 00 00 00 00 00 00 00 00
       0.0 6e-45 0.0 0.0
0001f0 00 00 00 00 04 00 00 00 04 00 00 80 78 97 a9 b4
       0.0 6e-45 -6e-45 -3.158891e-07
000200 00 00 00 00 04 00 00 00 04 00 00 80 9a 03 27 b6
       0.0 6e-45 -6e-45 -2.4887036e-06
000210 00 00 00 00 00 00 00 00 00 00 00 00 00 00 00 00
       0.0 0.0 0.0 0.0
000220 00 00 00 00 00 00 00 00 04 00 00 00 f5 b3 41 b5
       0.0 0.0 6e-45 -7.2159975e-07
000230 00 00 00 00 04 00 00 80 04 00 00 00 e2 42 8e b4
       0.0 -6e-45 6e-45 -2.6498225e-07
000240 00 00 00 00 04 00 00 00 00 00 00 00 00 00 00 00
       0.0 6e-45 0.0 0.0
000250 00 00 00 00 04 00 00 00 00 00 00 00 00 00 00 00
       0.0 6e-45 0.0 0.0
000260 00 00 00 00 00 00 00 00 00 00 00 00 00 00 00 00
       0.0 0.0 0.0 0.0
000270 04 00 00 80 6b 92 94 b4 00 00 00 00 04 00 00 80
       -6e-45 -2.767368e-07 0.0 -6e-45
000280 04 00 00 00 27 d1 f8 b6 04 00 00 00 a2 36 45 33
       6e-45 -7.4153245e-06 6e-45 4.5917325e-08
000290 00 00 00 00 04 00 00 00 04 00 00 80 5c 17 91 b2
       0.0 6e-45 -6e-45 -1.6890844e-08
0002a0 04 00 00 00 04 00 00 00 00 00 00 00 00 00 00 00
       6e-45 6e-45 0.0 0.0
0002b0 00 00 00 00 04 00 00 00 04 00 00 80 68 34 43 35
       0.0 6e-45 -6e-45 7.271942e-07
0002c0 00 00 00 00 04 00 00 00 04 00 00 00 e9 c5 1c 34
       0.0 6e-45 6e-45 1.4600631e-07
0002d0 00 00 00 00 04 00 00 00 00 00 00 00 00 00 00 00
       0.0 6e-45 0.0 0.0
0002e0 00 00 00 00 04 00 00 00 04 00 00 80 e1 0f f8 35
       0.0 6e-45 -6e-45 1.8482061e-06
0002f0 00 00 00 00 04 00 00 00 04 00 00 00 4f 56 37 b6
       0.0 6e-45 6e-45 -2.7319363e-06

exp_avg_sq f4 [32, 6]
000000 7f cf 8f 27 f1 df 1e 31 00 00 00 00 1f 1e a0 2f
       3.991544e-15 2.3119322e-09 0.0 2.9125233e-10
000010 fa c6 7e 2f a4 14 fb 30 f1 4e 07 2d 80 82 b3 32
       2.3171856e-10 1.826852e-09 7.69139e-12 2.0897687e-08
000020 00 00 00 00 18 e1 47 2f dd e7 76 2f 7f c3 79 32
       0.0 1.8178914e-10 2.2455944e-10 1.4538158e-08
000030 7e b8 f3 2a c4 c2 1b 31 00 00 00 00 14 10 17 2f
       4.3293488e-13 2.266618e-09 0.0 1.3739082e-10
000040 8e 66 86 2e 6c 69 cb 30 02 bc ec 2a 1c 58 eb 30
       6.111832e-11 1.4800157e-09 4.2052478e-13 1.7123543e-09
000050 00 00 00 00 e0 76 b5 2d 3f d3 a5 2c 73 38 91 31
       0.0 2.0630109e-11 4.713035e-12 4.226473e-09
000060 3c d7 f6 2a 59 cd 1b 31 00 00 00 00 b1 88 02 2f
       4.3847727e-13 2.2672195e-09 0.0 1.1871994e-10
000070 8d 65 82 2e 05 54 c6 30 00 00 00 00 00 00 00 00
       5.9297546e-11 1.4430276e-09 0.0 0.0
000080 00 00 00 00 00 00 00 00 00 00 00 00 00 00 00 00
       0.0 0.0 0.0 0.0
000090 00 00 00 00 00 00 00 00 00 00 00 00 00 00 00 00
       0.0 0.0 0.0 0.0
0000a0 00 00 00 00 00 00 00 00 00 00 00 00 00 00 00 00
       0.0 0.0 0.0 0.0
0000b0 00 00 00 00 00 00 00 00 00 00 00 00 00 00 00 00
       0.0 0.0 0.0 0.0
0000c0 aa 25 1f 2b 87 b0 18 31 00 00 00 00 6f 3f 27 2e
       5.6540417e-13 2.2219255e-09 0.0 3.8027744e-11
0000d0 d2 bf 5c 2d e6 e4 a8 30 d8 55 43 2e fc 00 93 32
       1.2548145e-11 1.2288666e-09 4.441411e-11 1.71135e-08
0000e0 00 00 00 00 55 1b 76 2f 44 7e 9a 2e 15 26 0e 33
       0.0 2.238328e-10 7.0255385e-11 3.3096587e-08
0000f0 6e cb c8 2a eb 91 83 30 00 00 00 00 be ba 98 2e
       3.5668294e-13 9.572977e-10 0.0 6.945332e-11
000100 43 58 61 2e b3 97 76 30 00 00 00 00 00 00 00 00
       5.123747e-11 8.9709856e-10 0.0 0.0
000110 00 00 00 00 00 00 00 00 00 00 00 00 00 00 00 00
       0.0 0.0 0.0 0.0
000120 8a 2f a4 2b 39 f4 b4 31 00 00 00 00 f5 93 2f 2f
       1.1666096e-12 5.2664544e-09 0.0 1.5968722e-10
000130 e3 1c 2e 2f 2e 45 53 31 6c ac e6 28 fb bf 89 2f
       1.583547e-10 3.0743865e-09 2.5609906e-14 2.5056565e-10
000140 00 00 00 00 b4 aa cc 2d 07 fd db 2d 70 39 47 2f
       0.0 2.3267922e-11 2.5009784e-11 1.811935e-10
000150 00 00 00 00 00 00 00 00 00 00 00 00 00 00 00 00
       0.0 0.0 0.0 0.0
000160 00 00 00 00 00 00 00 00 00 00 00 00 00 00 00 00
       0.0 0.0 0.0 0.0
000170 00 00 00 00 00 00 00 00 00 00 00 00 00 00 00 00
       0.0 0.0 0.0 0.0
000180 00 00 00 00 00 00 00 00 00 00 00 00 00 00 00 00
       0.0 0.0 0.0 0.0
000190 00 00 00 00 00 00 00 00 00 00 00 00 65 64 b9 2e
       0.0 0.0 0.0 8.4306596e-11
0001a0 00 00 00 00 d9 d8 63 2c d0 7d 59 2e 13 ff 17 2e
       0.0 3.2379015e-12 4.945183e-11 3.4559976e-11
0001b0 00 00 00 00 00 00 00 00 00 00 00 00 00 00 00 00
       0.0 0.0 0.0 0.0
0001c0 00 00 00 00 00 00 00 00 00 00 00 00 00 00 00 00
       0.0 0.0 0.0 0.0
0001d0 00 00 00 00 00 00 00 00 00 00 00 00 00 00 00 00
       0.0 0.0 0.0 0.0
0001e0 00 00 00 00 b6 8b 25 28 00 00 00 00 00 00 00 00
       0.0 9.189635e-15 0.0 0.0
0001f0 00 00 00 00 40 5c 01 28 b2 c1 1d 2a 08 f0 e2 30
       0.0 7.180942e-15 1.4011603e-13 1.6511885e-09
000200 00 00 00 00 10 ea 2e 2f 5a a6 1c 2f a6 62 9b 30
       0.0 1.5908364e-10 1.4247217e-10 1.1305772e-09
000210 00 00 00 00 00 00 00 00 00 00 00 00 00 00 00 00
       0.0 0.0 0.0 0.0
000220 00 00 00 00 00 00 00 00 cd 87 07 28 91 b7 24 30
       0.0 0.0 7.5234525e-15 5.9923716e-10
000230 00 00 00 00 2b 18 f7 2d 58 47 6c 2f 32 c3 a5 2f
       0.0 2.8091382e-11 2.1489421e-10 3.015202e-10
000240 00 00 00 00 aa c5 f6 29 00 00 00 00 00 00 00 00
       0.0 1.0958884e-13 0.0 0.0
000250 00 00 00 00 96 85 ed 28 00 00 00 00 00 00 00 00
       0.0 2.637022e-14 0.0 0.0
000260 00 00 00 00 00 00 00 00 00 00 00 00 00 00 00 00
       0.0 0.0 0.0 0.0
000270 7d 95 5e 2c d6 14 d4 31 00 00 00 00 cb 41 e2 2c
       3.163108e-12 6.172381e-09 0.0 6.430611e-12
000280 8a c7 28 2d ce be ad 31 19 b1 de 27 9b e3 08 2e
       9.594001e-12 5.0566547e-09 6.1809388e-15 3.1124974e-11
000290 00 00 00 00 cc b3 15 2c 59 4b 94 2c d5 28 d6 2d
       0.0 2.127398e-12 4.2147783e-12 2.4347116e-11
0002a0 86 7b e2 25 4d 71 1e 27 00 00 00 00 00 00 00 00
       3.9288453e-16 2.1988325e-15 0.0 0.0
0002b0 00 00 00 00 69 8b 86 27 a9 76 31 21 6e c0 32 2e
       0.0 3.734362e-15 6.012698e-19 4.0643426e-11
0002c0 00 00 00 00 3e e2 8f 29 63 c1 29 2d 11 e7 a2 2c
       0.0 6.3897225e-14 9.649478e-12 4.6299705e-12
0002d0 00 00 00 00 73 43 78 2a 00 00 00 00 00 00 00 00
       0.0 2.2050226e-13 0.0 0.0
0002e0 00 00 00 00 1f 2b 41 2a b0 c9 36 2b 03 9e 9b 31
       0.0 1.7156804e-13 6.4939287e-13 4.5290576e-09
0002f0 00 00 00 00 62 eb b0 2f 4d 2a 4e 2f b6 12 53 31
       0.0 3.2181463e-10 1.8750619e-10 3.0715177e-09

exp_avg f4 [32]
000000 dc d0 12 b6 96 3b ee 36 23 bf 95 36 dc c8 7b 38
       -2.1877267e-06 7.0998894e-06 4.4627973e-06 6.003013e-05
000010 dd 3d cc 36 00 00 00 00 00 00 00 00 00 00 00 00
       6.0868756e-06 0.0 0.0 0.0
000020 c8 e1 11 37 0c 06 41 38 81 32 aa b6 00 00 00 00
       8.695242e-06 4.6020417e-05 -5.0722742e-06 0.0
000030 bb 72 40 37 85 ef 00 36 00 00 00 00 00 00 00 00
       1.1470805e-05 1.9212905e-06 0.0 0.0
000040 00 00 00 00 04 00 00 00 00 00 00 00 00 00 00 00
       0.0 6e-45 0.0 0.0
000050 04 00 00 00 c9 e2 82 b5 00 00 00 00 6d 7d 39 b6
       6e-45 -9.751758e-07 0.0 -2.7640156e-06
000060 04 00 00 00 00 00 00 00 13 3b 45 b6 0b a3 86 34
       6e-45 0.0 -2.9389673e-06 2.5078074e-07
000070 04 00 00 00 cb d3 6f 36 04 00 00 00 ec c1 06 37
       6e-45 3.5737055e-06 6e-45 8.032173e-06

exp_avg_sq f4 [32]
000000 0c 95 3a 33 a1 ce 9c 34 7e 62 5c 33 45 7d 98 32
       4.3442057e-08 2.9207607e-07 5.131232e-08 1.7752095e-08
000010 46 84 68 33 00 00 00 00 00 00 00 00 00 00 00 00
       5.413701e-08 0.0 0.0 0.0
000020 0d 8c 6f 33 f4 c3 4f 34 e0 be 3c 32 00 00 00 00
       5.57739e-08 1.9349665e-07 1.098644e-08 0.0
000030 86 fa 06 34 2b 82 c1 31 00 00 00 00 00 00 00 00
       1.2570862e-07 5.6318377e-09 0.0 0.0
000040 00 00 00 00 07 d6 1f 31 00 00 00 00 00 00 00 00
       0.0 2.3259206e-09 0.0 0.0
000050 5a 2b 31 29 0b 5b 0a 33 00 00 00 00 52 cf 88 32
       3.9339497e-14 3.2213432e-08 0.0 1.5926762e-08
000060 ec 12 b7 2b 00 00 00 00 d8 08 98 33 54 2a 91 30
       1.3008184e-12 0.0 7.07966e-08 1.0562169e-09
000070 53 c0 4e 28 88 ac 6f 30 f5 54 de 2b 99 70 d4 33
       1.1477001e-14 8.7192875e-10 1.5797629e-12 9.892501e-08
